saved_models/dgat.pt (torch, 15466 bytes, 16 tensors)

conv1.att f4 [1, 1, 32]
0	0x3e881cea	0.2658456
1	0xbe217de1	-0.15770675
2	0x3eaf2861	0.34210494
3	0xbda1969e	-0.07890056
4	0x3e510c9f	0.20414971
5	0x3e360065	0.17773588
6	0xbea54bdd	-0.32284442
7	0x3d63f33a	0.05565188
8	0xbe2d8290	-0.16944337
9	0xbe316153	-0.17322282
10	0x3ebc3f42	0.36767012
11	0x3cf5a15d	0.02998417
12	0xbe485633	-0.19564132
13	0xbd08acce	-0.033367924
14	0x3e4b64c0	0.19862652
15	0xbd77f013	-0.060531687
16	0x3c014c18	0.007891677
17	0xbd65f594	-0.056142405
18	0xbebccfe3	-0.36877355
19	0x3e87080e	0.26373333
20	0x3e98703b	0.29773125
21	0x3e9e934a	0.30971748
22	0xbe3bcd7b	-0.18340103
23	0xbeb3b8c6	-0.35101908
24	0x3dea6a25	0.11446027
25	0xbe98f727	-0.29876062
26	0xbdf6a42d	-0.12043033
27	0xbe08e229	-0.13367523
28	0xbe33c195	-0.17554314
29	0xbe146967	-0.14493333
30	0xbe27b997	-0.1637939
31	0x3ed601e0	0.41798306

conv1.bias f4 [32]
0	0xbdeb8cfd	-0.11501501
1	0x00000000	0.0
2	0x00000000	0.0
3	0xbc5cb9ff	-0.013472079
4	0xbc628626	-0.013825929
5	0xbc4cc3ae	-0.012497826
6	0xbc84080a	-0.016117115
7	0xbca4388d	-0.020046497
8	0xbc91fbc9	-0.017820256
9	0xbd7fa697	-0.06241473
10	0x3c914943	0.01773513
11	0x3ae21833	0.0017249644
12	0xbc9119e1	-0.017712535
13	0xbca44335	-0.020051578
14	0xbc3ddac1	-0.0115877995
15	0x3b824e39	0.00397661
16	0xbd1dd0cf	-0.038529214
17	0xbd4ebe77	-0.05047461
18	0xbd1466f0	-0.03623098
19	0x00000000	0.0
20	0x3ca1f546	0.019770276
21	0xbc9031f6	-0.017601948
22	0xbc1dd67a	-0.009633655
23	0x3cca88e9	0.024723487
24	0xbcd80cd0	-0.026373297
25	0xbd9e65b4	-0.07734242
26	0xbc91ea53	-0.01781193
27	0xbc4b724d	-0.012417388
28	0xbc124109	-0.008926638
29	0x00000000	0.0
30	0xbca08185	-0.01959301
31	0xbdc7d5c7	-0.09757572

conv1.lin_l.weight f4 [32, 4]
0	0x3e90bc70	0.28268766
1	0x3e114831	0.14187695
2	0xbe9eb825	-0.30999866
3	0xbdb6ecc0	-0.08931875
4	0xbecc18e3	-0.39862737
5	0xbe89e9b2	-0.26936108
6	0xbdd52c41	-0.104088314
7	0xbe76bf61	-0.24096443
8	0xbeae2859	-0.34015158
9	0xbeb4ba7b	-0.35298523
10	0xbc095cfd	-0.008383987
11	0xbe0de88a	-0.13858238
12	0x3e480bd9	0.1953577
13	0x3df2d425	0.118568696
14	0xbeab9bf2	-0.33517414
15	0xbcffefde	-0.031242307
16	0x3d4a669c	0.049414262
17	0xbd18e939	-0.037331793
18	0xbde05896	-0.109543964
19	0x3dd8094b	0.105486475
20	0x3e40267e	0.18764684
21	0x3e6eec64	0.23332363
22	0x3e986422	0.29763895
23	0xbeb87191	-0.36024144
24	0x3ebd8da6	0.37022132
25	0x3eceec80	0.4041481
26	0x3d3750fa	0.04475496
27	0xbeab3afa	-0.33443433
28	0xbdaf6b5b	-0.08565398
29	0x3e8e0d93	0.2774473
30	0x3c43eb7d	0.011958
31	0xbe7b94ae	-0.24568436
32	0x3df1b975	0.11802951
33	0xbe7d97ac	-0.2476489
34	0xbe1df59c	-0.15425724
35	0x3ec70810	0.3887334
36	0x3e013f19	0.12621726
37	0x3e98a8f0	0.2981639
38	0xbebd228a	-0.36940414
39	0xbe8a2fb9	-0.26989534
40	0xbca835fd	-0.020533556
41	0xbe86ba39	-0.26313952
42	0x3d1a7eed	0.037718702
43	0x3db3e238	0.08783382
44	0x3ecb2076	0.39673203
45	0xbea0e6bd	-0.3142604
46	0x3e451baf	0.19248842
47	0x3dcc91be	0.099887356
48	0x3e589a37	0.21152578
49	0xbeb7cdd0	-0.3589921
50	0x3e0dbb0f	0.13840888
51	0x3e08d8e3	0.13363986
52	0x3e90455a	0.2817791
53	0xbe0986dc	-0.13430351
54	0x3db1bd7a	0.08678718
55	0x3cb543b8	0.022127017
56	0xbe9a293e	-0.3010959
57	0x3e82720e	0.25477642
58	0x3e6bc268	0.23023379
59	0xbddc03f1	-0.10742939
60	0x3ec17115	0.37781587
61	0xbe7a04fd	-0.24415965
62	0xbdb218b5	-0.08696119
63	0x3d47134a	0.04860238
64	0x3e5e489c	0.21707386
65	0xbd3a1e0a	-0.045438804
66	0x3e8a8d8a	0.2706111
67	0xbeb8533d	-0.36001006
68	0xbe3f8c8c	-0.18705958
69	0xbedc54c1	-0.43033412
70	0x3e47d28e	0.19513914
71	0xbd8e0250	-0.06934035
72	0x3e0842bc	0.13306707
73	0xbec72ef5	-0.38903013
74	0x3e78c146	0.24292478
75	0xbe9ae9fd	-0.30256644
76	0xbe150ded	-0.14556094
77	0x3de5dfb2	0.11224307
78	0xbe98c5e5	-0.29838482
79	0xbe7effe7	-0.24902306
80	0x3d7d1328	0.061785847
81	0xbdbc354f	-0.09189855
82	0xbe10ffbd	-0.14160056
83	0xbe30ce53	-0.17266206
84	0xbe742acc	-0.2384445
85	0xbea25bf9	-0.31710795
86	0xbecaa1f5	-0.39576688
87	0x3d5a8781	0.053351883
88	0x3dcab6be	0.098981366
89	0xbeb85f5a	-0.36010247
90	0x3e9fab8b	0.31185564
91	0xbe64be30	-0.22338176
92	0x3e998d53	0.29990634
93	0x3e9e11b6	0.30872887
94	0xbea56265	-0.32301632
95	0xbe8e24a0	-0.27762318
96	0xbeb6cb80	-0.35702133
97	0x3e88c48f	0.26712462
98	0x3e7caeb5	0.2467602
99	0xbeb46a3b	-0.35237297
100	0x3e1c4512	0.15260723
101	0x3cf66554	0.030077614
102	0xbed74d36	-0.42051095
103	0x3e813233	0.2523361
104	0x3e28bb5f	0.16477726
105	0xbc7a6a2b	-0.0152841015
106	0x3ea6e5f0	0.32597303
107	0x3e7d1a28	0.24717009
108	0x3e12788f	0.14303802
109	0xbeb675b2	-0.3563667
110	0x3da6bb54	0.08141199
111	0x3ea78159	0.32715872
112	0x3e1acec8	0.15117943
113	0xbd5618cd	-0.052269746
114	0x3e987a87	0.2978098
115	0x3eb3253d	0.34989348
116	0x3c9c6357	0.019090338
117	0xbc56e6ad	-0.013116521
118	0xbd929250	-0.07156813
119	0xbe05cbe0	-0.13066053
120	0xbda47aad	-0.08031211
121	0xbdee67d0	-0.116408944
122	0xbee43126	-0.44568747
123	0x3e86ca00	0.2632599
124	0x3ea84f28	0.3287289
125	0xbe96ac28	-0.2942822
126	0x3e776ced	0.24162646
127	0x3eb6e822	0.35723978

conv1.lin_l.bias f4 [32]
0	0xbe8786b3	-0.26469955
1	0x3ea48fc1	0.32140926
2	0xbdf01188	-0.11722094
3	0xbe6bba6d	-0.23020335
4	0xbecbde36	-0.3981797
5	0xbefc109f	-0.4923143
6	0x3e1e00eb	0.15430038
7	0xbe95b160	-0.2923689
8	0xbf0146d0	-0.50498676
9	0xbd43af86	-0.047774814
10	0xbea275d8	-0.31730533
11	0x3e7d65d4	0.24745876
12	0xbecb2c29	-0.3968213
13	0x3ea75cf8	0.32688117
14	0x3e9e4e62	0.30919176
15	0x3e845ab7	0.2585046
16	0xbefcc135	-0.49366155
17	0xbc3ee642	-0.011651577
18	0x3eeda319	0.46413496
19	0x3e25f967	0.1620842
20	0xbc461cc4	-0.012091819
21	0xbeffccfc	-0.49961078
22	0xbdd0ba66	-0.10191803
23	0xbef226ab	-0.47295126
24	0x3e37b171	0.17938782
25	0xbef70c63	-0.48251638
26	0xbe422504	-0.18959433
27	0x3e4885ea	0.19582334
28	0x3ee110a3	0.43958005
29	0xbe82c635	-0.25541845
30	0x3ea9006e	0.3300814
31	0x3ec66faf	0.38757083

conv1.lin_r.weight f4 [32, 4]
0	0xbe471d0d	-0.19444676
1	0x3ed9a815	0.4251105
2	0x3da86729	0.08222801
3	0x3e589260	0.21149588
4	0x3d015996	0.031579576
5	0xbe37e202	-0.17957309
6	0xbec611b3	-0.38685378
7	0x3e7950ec	0.24347275
8	0xbbe913b2	-0.0071129436
9	0x3ea3b556	0.31974286
10	0xbb783a19	-0.0037876426
11	0x3e7763a2	0.241591
12	0xbebaa1b8	-0.36451507
13	0xbc8170cd	-0.015800858
14	0xbd2834fd	-0.04106616
15	0xbea1db20	-0.31612492
16	0x3e309a71	0.17246415
17	0x3e7c2df3	0.24626903
18	0x3e1b06ff	0.15139388
19	0xbeabe264	-0.3357116
20	0x3dc5c151	0.09656013
21	0x3eb6603d	0.356203
22	0xbe9df7d4	-0.3085314
23	0xbe7c2ce7	-0.24626504
24	0xbe047e91	-0.12938906
25	0xbe96cdeb	-0.29453978
26	0x3e21adb8	0.15788925
27	0x3dcf6d74	0.101282984
28	0x3ea558f0	0.32294416
29	0x3e4f4ac2	0.20243362
30	0x3da0cf09	0.07851989
31	0xbea6e906	-0.32599658
32	0xbea6073e	-0.324274
33	0x3e94ba2b	0.29048285
34	0xbe8a37ab	-0.26995596
35	0xbed09f1a	-0.40746385
36	0x3edeaf05	0.43492904
37	0x3e457080	0.19281197
38	0x3d6b07f1	0.05738062
39	0xbdf1720f	-0.11789333
40	0x3ea84e1a	0.32872087
41	0x3dab997d	0.08378885
42	0xbd35957b	-0.04433201
43	0xbed10859	-0.4082668
44	0xbe0d1023	-0.13775687
45	0xbebba3f6	-0.3664853
46	0x3ec86a80	0.39143753
47	0x3cdad777	0.02671407
48	0x3ea63130	0.32459402
49	0x3eb41182	0.35169607
50	0xbdf940fb	-0.12170597
51	0x3e13647a	0.14393798
52	0x3e5aec63	0.21379237
53	0xbec4ad61	-0.38413528
54	0xbe757f0d	-0.23974247
55	0xbec0a50e	-0.37625927
56	0xbeaa7f34	-0.33300173
57	0xbcf29774	-0.029613234
58	0xbe17fc21	-0.14842273
59	0xbe6cfb5c	-0.23142761
60	0x3ea263d9	0.31716803
61	0xbe350269	-0.176767
62	0x3eb8159e	0.35953993
63	0x3dac2af2	0.08406629
64	0x3e2fc22c	0.17163914
65	0xbeebc043	-0.46045122
66	0xbcce4352	-0.025178585
67	0x3e97f44b	0.29678568
68	0x3ec2312e	0.37928146
69	0xbd879738	-0.066206396
70	0xbd751502	-0.059834488
71	0xbe98d535	-0.29850164
72	0x3dbbd6b6	0.09171812
73	0x3ee26cec	0.44223726
74	0x3ecefbb3	0.40426406
75	0x3ebaeb34	0.3650757
76	0xbe709206	-0.23493204
77	0x3eba841b	0.36428913
78	0xbe4d9d50	-0.20079541
79	0x3eb8105a	0.35949975
80	0x3eb4612f	0.35230395
81	0xbe9dcf37	-0.30822155
82	0xbb2f97fa	-0.0026793466
83	0x3da1d799	0.0790245
84	0x3d184cc4	0.037182584
85	0xbdc23385	-0.09482483
86	0x3e0cbb81	0.13743402
87	0x3c9578e6	0.018246125
88	0x3e9d8eb0	0.30772924
89	0xbdf3e1fc	-0.119083375
90	0x3d75ca94	0.060007647
91	0xbebab9a7	-0.36469766
92	0xbcd25e46	-0.025679719
93	0x3e55651e	0.20839354
94	0xbe48b780	-0.1960125
95	0x3eb9aa9b	0.36262974
96	0xbe8947e5	-0.26812664
97	0x3c5289b0	0.01285021
98	0xbcf1fd18	-0.02953963
99	0x3dd78242	0.105228916
100	0x3e26700c	0.1625368
101	0x3d8301b6	0.06396811
102	0xbea27461	-0.31729415
103	0x3e876127	0.2644131
104	0x3e176e8a	0.14788261
105	0xbddf66f0	-0.10908306
106	0xbe11f943	-0.14255242
107	0xbea96d31	-0.3309112
108	0xbe3ed791	-0.1863692
109	0x3e3fc2ee	0.18726704
110	0xbed48658	-0.41508746
111	0xbe9eefa8	-0.31042218
112	0x3cd425a1	0.02589685
113	0x3d9287c4	0.071548015
114	0x3ea8a417	0.3293769
115	0xbea15689	-0.31511334
116	0xbe366702	-0.17812732
117	0x3eb1f767	0.34759066
118	0xbde55252	-0.11197342
119	0x3e370515	0.17873032
120	0x3de71ef8	0.11285204
121	0x3dda1f82	0.10650541
122	0x3eafd4d0	0.3434205
123	0x3ebc19f2	0.36738545
124	0xbcb6553f	-0.022257445
125	0x3d217389	0.039416824
126	0xbeb3018a	-0.34962112
127	0x3d8fe832	0.070267096

conv1.lin_r.bias f4 [32]
0	0x3f04c1c0	0.5185814
1	0x3ed7bca5	0.42136112
2	0xbeb65d03	-0.35617837
3	0xbcd58867	-0.026066018
4	0xbe957ad3	-0.2919527
5	0xbde910b0	-0.11380136
6	0xbe889f19	-0.26683882
7	0xbe505ac6	-0.20347127
8	0x3d13dec9	0.036101136
9	0xbe48d801	-0.19613649
10	0xbcf7c24c	-0.030244015
11	0xbe3803ad	-0.17970152
12	0xbd0c6e9a	-0.034285165
13	0x3a89b984	0.0010507558
14	0x3e9462c9	0.28981617
15	0xbe2bbca9	-0.16771187
16	0xbef42eee	-0.47692055
17	0xbeb15c94	-0.34640944
18	0xbeba4fee	-0.36389107
19	0xbebaefad	-0.36510983
20	0xbdc72118	-0.09723109
21	0xbe52c3f5	-0.20582564
22	0x3ea3f9df	0.32026574
23	0x3e8ad2e8	0.27114034
24	0x3e00cfbc	0.12579244
25	0x3e4aa900	0.19791031
26	0x3e95a5f9	0.2922819
27	0x3edd65f7	0.43241856
28	0xbed9de31	-0.4255233
29	0x3dc28478	0.09497923
30	0x3ef6e548	0.48221803
31	0xbe8c7553	-0.2743326

conv1.lin_edge.weight f4 [32, 2]
0	0x3cf88337	0.030336006
1	0x3ec93fff	0.39306638
2	0x3ec0ba8b	0.3764232
3	0x3e5c8633	0.21535568
4	0xbc5f96ad	-0.013646764
5	0x3d5c4d6e	0.05378478
6	0xbe6d81bc	-0.23194021
7	0x3e80dd6a	0.25168926
8	0xbe9a85ea	-0.30180293
9	0xbddc2126	-0.1074851
10	0x3ec90af6	0.39266175
11	0xbea3bf5f	-0.31981942
12	0xbeaab490	-0.33340883
13	0xbdbcdbb2	-0.09221591
14	0x3dc22ea4	0.09481552
15	0x3d444f22	0.04792703
16	0xbe3416b8	-0.17586792
17	0xbed19a43	-0.40938005
18	0x3ed10332	0.4082275
19	0xbdd58920	-0.10426545
20	0x3e6d6f5f	0.23187016
21	0xbdc50986	-0.09620957
22	0xbe54eef6	-0.20794281
23	0x3e2dd2b1	0.16974904
24	0xbe8e6824	-0.27813828
25	0xbdbea836	-0.093094274
26	0x3e8bd464	0.2731048
27	0x3e91f107	0.28504202
28	0x3e99f215	0.30067506
29	0x3e48ac38	0.19596946
30	0x3e0368fe	0.1283302
31	0x3e24723d	0.16059203
32	0x3ec3c93d	0.3823947
33	0x3de4b4ef	0.11167323
34	0x3ecb1a0b	0.39668307
35	0xbda8d629	-0.08243973
36	0xbe5a59a3	-0.21323256
37	0x3e3e74e4	0.18599278
38	0x3dcdd9fe	0.10051344
39	0xbe56d804	-0.20980841
40	0xbe363101	-0.17792131
41	0x3eb371a3	0.35047635
42	0x3d5e9ea0	0.054350495
43	0x3db35fdc	0.08758518
44	0x3dd0fd01	0.10204507
45	0x3e2d5580	0.16927147
46	0x3e88008a	0.2656291
47	0x3ebf6fce	0.37389988
48	0xbeb84f73	-0.35998115
49	0x3e9ce3e0	0.30642605
50	0x3ea02e00	0.31285095
51	0xbeb724b5	-0.35770193
52	0x3e9a580e	0.30145305
53	0xbe661631	-0.22469403
54	0xbe3f7d3e	-0.1870012
55	0x3e4555e1	0.19271041
56	0xbe2a9f8d	-0.16662426
57	0x3e8f8f51	0.2803903
58	0x3eaaba5b	0.33345303
59	0x3d56e6ca	0.05246619
60	0x3ea34dd9	0.3189533
61	0x3e6e40a4	0.23266846
62	0xbd44c11f	-0.048035737
63	0xbe056051	-0.13025023

conv2.att f4 [1, 1, 32]
0	0xbe95e117	-0.29273292
1	0x3eaa8410	0.3330388
2	0x3e1826c2	0.14858535
3	0xbd2cbdd9	-0.04217324
4	0xbd2430b2	-0.040085502
5	0xbe7472bd	-0.23871894
6	0xbe1af170	-0.15131164
7	0xbec0f8f1	-0.37689927
8	0xbebcba93	-0.36861095
9	0xbe96cd6c	-0.294536
10	0xba286dd5	-0.00064250577
11	0xbea4be50	-0.32176447
12	0x3e777ed3	0.24169473
13	0xbeb9686c	-0.3621248
14	0xbd188b12	-0.037242003
15	0xbdd4ce47	-0.10390907
16	0xbe9aa742	-0.30205733
17	0x3e6fb519	0.23408927
18	0x3e4d386d	0.20041056
19	0x3e52d7bc	0.20590109
20	0x3eb79c69	0.3586152
21	0xbe7eca29	-0.24881805
22	0xbea48ab9	-0.32137087
23	0x3e1a0c7b	0.15043823
24	0xbeb58356	-0.35451764
25	0x3edc9ad3	0.43086872
26	0x3e69a6d7	0.2281755
27	0x3ddf7e4d	0.10912762
28	0x3ebeac40	0.3724079
29	0xbd956824	-0.07295254
30	0xbea3da48	-0.32002473
31	0xbdf85478	-0.12125486

conv2.bias f4 [32]
0	0xbc903570	-0.017603606
1	0xbb872ebc	-0.004125444
2	0xbc5c0f03	-0.013431313
3	0xbc92dbcc	-0.017927073
4	0xbd10cf0a	-0.035353698
5	0xbb6b9b4c	-0.0035950718
6	0x3c50e520	0.01274994
7	0xbc87d4af	-0.016580908
8	0xbc3d8d11	-0.011569277
9	0xbbf56cf6	-0.007489796
10	0x3bb5ecdf	0.005551919
11	0xbd619e4b	-0.0550826
12	0xbaf6a51c	-0.0018817517
13	0x00000000	0.0
14	0x3c8654ab	0.016397795
15	0xbc89311a	-0.016747046
16	0xbc94c46b	-0.018160066
17	0xbc0b0240	-0.008484423
18	0x00000000	0.0
19	0xbc349ae3	-0.011023256
20	0x00000000	0.0
21	0xbdf36d87	-0.11886125
22	0xbcef03d9	-0.02917664
23	0x00000000	0.0
24	0xbd700167	-0.058595087
25	0x00000000	0.0
26	0xbcbaf976	-0.02282403
27	0x3a58e6ec	0.0008274156
28	0x00000000	0.0
29	0xbd0c9d15	-0.034329493
30	0xba8a2a56	-0.0010541182
31	0xbba66618	-0.0050780885

conv2.lin_l.weight f4 [32, 32]
0	0xbde09206	-0.10965352
1	0xbe2b67b6	-0.16738781
2	0xbe800918	-0.25006938
3	0x3e0bf262	0.1366668
4	0x3dcdc7b0	0.10047853
5	0xbb5b9826	-0.0033507436
6	0x3e003f2a	0.12524095
7	0x3cf93f4b	0.030425688
8	0xbe3c3957	-0.18381248
9	0xbc8081ce	-0.015686896
10	0xbe68a538	-0.22719276
11	0x3e5b7969	0.21433033
12	0x3e438496	0.19093546
13	0x3d711a0a	0.058862723
14	0xbde049b6	-0.10951559
15	0xbcd58e8d	-0.02606895
16	0x3df313ec	0.11869034
17	0xbe53190b	-0.20615022
18	0x3e22fe97	0.15917431
19	0xbd79bc88	-0.060970813
20	0x3e8c3820	0.2738657
21	0x3e4600c2	0.19336227
22	0xbdc9a6ba	-0.09846254
23	0x3e1028ce	0.14078066
24	0xbd782687	-0.060583618
25	0xbe8e73f8	-0.27822852
26	0xbdee04c5	-0.116220035
27	0x3d4f3500	0.050587654
28	0xbe724bc9	-0.23661722
29	0xbd0d19c8	-0.034448415
30	0xbe421a4a	-0.18955341
31	0x3e1a614b	0.15076177
32	0x3e2f75e4	0.17134815
33	0x3dfe11dc	0.1240575
34	0x3e93ad29	0.28843048
35	0x3da1cbf2	0.079002276
36	0x3e42883a	0.18997279
37	0x3e5bde51	0.21471526
38	0x3e21bb45	0.15794094
39	0xbe8aaa97	-0.27083275
40	0xbe76444d	-0.24049492
41	0xbc3f8dd2	-0.011691527
42	0xbe2997c7	-0.16561805
43	0xbe28b68d	-0.16475888
44	0x3e2e4d19	0.17021598
45	0xbe0f706d	-0.14007731
46	0x3e9fc41c	0.31204307
47	0xbe846493	-0.25857982
48	0xbe010955	-0.12601216
49	0x3e7d294c	0.24722785
50	0xbcb7911f	-0.022408066
51	0xbe12a195	-0.14319451
52	0xbc14fcd3	-0.009093481
53	0xbe9d41d8	-0.30714297
54	0x3e83415f	0.25635812
55	0xbc8da63b	-0.017291179
56	0xbd9d4792	-0.076796666
57	0x3e90dd3c	0.28293788
58	0xbd895712	-0.067060605
59	0xbe297c4b	-0.1655132
60	0xbbd8b650	-0.00661353
61	0x3db7022c	0.08935961
62	0x3e86cb8a	0.26327163
63	0x3e83277d	0.25616065
64	0xbcf16652	-0.029467735
65	0x3d2aedc0	0.041730642
66	0xbc262f40	-0.010143101
67	0x3de33a57	0.11095112
68	0x3e95e89d	0.29279032
69	0xbe80324c	-0.25038373
70	0x3e5ebb0e	0.21751043
71	0x3e72acb7	0.23698698
72	0xbe49a2df	-0.19691037
73	0x3d01c582	0.0316825
74	0x3dc97469	0.098366566
75	0x3c5aca11	0.01335384
76	0x3e72f5d9	0.23726596
77	0x3d5468a8	0.05185762
78	0x3e5f8632	0.21828535
79	0x3e3c0150	0.18359876
80	0xbcb842b9	-0.022492753
81	0xbea254c1	-0.31705287
82	0xbdd09fe7	-0.10186749
83	0xbe8f6597	-0.28007194
84	0xbe75ddf1	-0.24010445
85	0x3c1a3f64	0.009414528
86	0x3d295e50	0.04134971
87	0x3dfc2602	0.12311937
88	0xbd219d70	-0.039456785
89	0x3e543546	0.20723447
90	0xbe49ea2d	-0.19718237
91	0x3e59abd9	0.21256961
92	0xbe95d2e9	-0.29262474
93	0xbd83dc88	-0.064385474
94	0xbe94f331	-0.2909179
95	0xbe542605	-0.20717628
96	0xbe2a0c3b	-0.16606228
97	0x3c5ec680	0.013597131
98	0xbe14a22f	-0.14514993
99	0xbd85da4f	-0.0653578
100	0x3e845cab	0.2585195
101	0xbe95b681	-0.29240802
102	0xbe3f38f4	-0.1867407
103	0xbde89b75	-0.11357776
104	0xbe8e9e21	-0.27855018
105	0xbe190ec7	-0.14947043
106	0x3e6cdec5	0.23131855
107	0xbcef882a	-0.029239733
108	0x3e21292c	0.15738362
109	0x3e507ff3	0.20361309
110	0xbd3c6989	-0.045999084
111	0xbde7c238	-0.11316341
112	0x3e6b17ec	0.22958344
113	0xbe526e5c	-0.20549911
114	0x3e3713f9	0.17878713
115	0xbe70c54e	-0.23512766
116	0xbe1018bd	-0.14071937
117	0x3e13d473	0.14436512
118	0xbe6e3c3f	-0.2326517
119	0xbab3617d	-0.001368567
120	0xbe4cb7e4	-0.19992024
121	0xbd25b529	-0.04045597
122	0xbe0d8910	-0.13821816
123	0xbe48e87f	-0.1961994
124	0x3df43426	0.11924009
125	0x3dced24c	0.10098705
126	0x3e87fbbc	0.26559246
127	0x3db7f7f7	0.089828424
128	0xbdce80e0	-0.10083175
129	0x3e089100	0.13336563
130	0xbc6c8680	-0.014436364
131	0x3e621c92	0.22081211
132	0x3d54fffe	0.052001946
133	0xbe8c4909	-0.2739947
134	0xbe0406bb	-0.12893192
135	0xbe4439f2	-0.1916273
136	0x3dd56c89	0.10421092
137	0xbe299405	-0.16560371
138	0x3e5018ad	0.20321913
139	0xbea34a37	-0.3189256
140	0x3dfe3b04	0.124136
141	0x3c2bcce4	0.010485861
142	0x3d437866	0.047722243
143	0x3e81832b	0.25295386
144	0x3d81bb98	0.06334609
145	0xbd0c0702	-0.03418637
146	0xbe3a330c	-0.18183535
147	0xbe3d78e4	-0.18503147
148	0xbe77b8b8	-0.24191558
149	0xbe02c938	-0.12772071
150	0x3deca616	0.11555116
151	0xbe0ba45f	-0.13636921
152	0x3d32f288	0.043688327
153	0x3db6ad42	0.08919765
154	0xbbf88ccb	-0.007585143
155	0xb9eef71e	-0.00045579014
156	0x3e42b100	0.19012833
157	0xbe7359d6	-0.23764738
158	0x3e1449d3	0.14481287
159	0xbe674704	-0.22585684
160	0x3e6ae9c6	0.2294074
161	0x3e0f6306	0.14002618
162	0x3d90fa80	0.07079029
163	0x3e90b802	0.28265387
164	0x3e6d94ed	0.23201342
165	0xbcb7dbb2	-0.022443626
166	0x3d54064a	0.05176381
167	0xbdf7d313	-0.12100806
168	0x3e7c0010	0.24609399
169	0x3d72fd68	0.0593237
170	0xbe111e55	-0.14171727
171	0xbe70247b	-0.23451416
172	0xbd9bec5d	-0.07613442
173	0x3e6e050c	0.23244113
174	0xbe5cb824	-0.21554619
175	0xbe721b45	-0.23643215
176	0x3e3c6246	0.18396863
177	0x3e7b2ddd	0.24529214
178	0xbda23c0b	-0.079216085
179	0x3a9dc800	0.0012037754
180	0xbe230b51	-0.15922286
181	0x3d42fe73	0.047605943
182	0x3e5ac7c0	0.21365261
183	0xbe54c606	-0.20778665
184	0x3dce0416	0.10059373
185	0xbd937178	-0.07199377
186	0x3e8b19ef	0.27168223
187	0x3e2fd841	0.17172338
188	0xbe7d9f2c	-0.2476775
189	0x3e3e91a8	0.18610251
190	0x3dc6e9b6	0.097125456
191	0x3d93c099	0.072144695
192	0xbe921858	-0.28534198
193	0xbe2c7ba0	-0.16844034
194	0x3e06bab6	0.13157162
195	0xbe404813	-0.18777494
196	0x3e04c9c6	0.12967595
197	0xbe0556c5	-0.13021381
198	0x3e8fc3a2	0.28078943
199	0x3e26a766	0.16274795
200	0xbe14b552	-0.14522293
201	0x3e7d8a31	0.24759747
202	0xbe2c08ec	-0.16800278
203	0xbe7daf84	-0.24773985
204	0x3e3cd7d4	0.18441707
205	0xbb5934d1	-0.0033143053
206	0x3e0ad410	0.13557458
207	0xbcf6a351	-0.030107172
208	0xbe652f3f	-0.22381304
209	0x3c85a42b	0.016313633
210	0xbccace26	-0.024756502
211	0xbe3dbe06	-0.1852952
212	0xbe334673	-0.17507343
213	0x3ce3f7f3	0.027828192
214	0xbe5ed1e9	-0.21759762
215	0xbe358410	-0.17726159
216	0xbe200497	-0.15626751
217	0x3dcc5dec	0.09978852
218	0xbe8a6c0a	-0.27035552
219	0xbc3709ed	-0.0111718
220	0x3d859e48	0.065243304
221	0x3e822def	0.2542567
222	0xbe7b2dfb	-0.24529259
223	0x3e5768d9	0.2103609
224	0x3e4cd231	0.20002057
225	0xbe8f2cdf	-0.2796392
226	0x3bca91c0	0.0061819255
227	0x3e82e196	0.25562733
228	0xbcc8c8ac	-0.02450975
229	0xbd387d9b	-0.04504166
230	0xbdde87c3	-0.10865738
231	0xbd194fc6	-0.037429594
232	0x3e0cca98	0.13749158
233	0xbd3f2381	-0.04666472
234	0x3e19cd4a	0.15019718
235	0xbe9b3bed	-0.30319157
236	0xbe858561	-0.26078323
237	0xbe547f0f	-0.20751594
238	0xbde63d89	-0.11242206
239	0x3db6bee5	0.08923129
240	0x3ca30005	0.01989747
241	0x3d9fcc36	0.07802622
242	0x3e0f429b	0.13990252
243	0x3d960fb0	0.07327211
244	0xbda0fb85	-0.078604735
245	0x3d870b5b	0.06593963
246	0xbe94ce09	-0.29063442
247	0xbe16f24f	-0.14740871
248	0xbbc6cc2d	-0.00606682
249	0x3e00da79	0.1258334
250	0x3dfce78f	0.12348854
251	0x3e5d25c6	0.2159644
252	0xbc99133c	-0.01868593
253	0x3e21c5bc	0.15798086
254	0xbd5a2c86	-0.053265117
255	0x3e2c9f4d	0.16857643

conv2.lin_l.bias f4 [32]
0	0xbe100602	-0.14064792
1	0xbc9f5df0	-0.019453973
2	0xbdbc801a	-0.09204121
3	0xbdf79f6a	-0.12090953
4	0xbd0ae585	-0.033910293
5	0x3c2d70d6	0.010585984
6	0x3d1121a5	0.035432477
7	0x3d843d4d	0.06457005
8	0xbbec593c	-0.007212786
9	0x3d410443	0.047123205
10	0x3d8073f6	0.06272118
11	0xbdb6eb0d	-0.08931551
12	0xbe227cd3	-0.15867929
13	0xbe0bb942	-0.13644889
14	0x3e21c916	0.15799364
15	0xbc183014	-0.0092888065
16	0x3e102a48	0.14078629
17	0xbd484b30	-0.04889983
18	0x3e084acb	0.13309781
19	0xbdab445e	-0.083626494
20	0xbe230315	-0.15919144
21	0xbe7be114	-0.24597579
22	0xbc47feea	-0.012206772
23	0xbda2bffb	-0.079467736
24	0xbd13d143	-0.03608824
25	0x3e532548	0.2061969
26	0x3d8a60e0	0.06756759
27	0x3e1ccb98	0.1531204
28	0xbe179e0d	-0.14806385
29	0xbd88732e	-0.06662594
30	0xbd9e90e4	-0.077424794
31	0xbd94c4c9	-0.07264096

conv2.lin_r.weight f4 [32, 32]
0	0x3d906bed	0.07051835
1	0xbe60b89a	-0.2194542
2	0xbe937cd4	-0.28806174
3	0xbe3b7bdc	-0.18308967
4	0x3e408241	0.18799688
5	0xbd8302f6	-0.06397049
6	0x3e95ce3e	0.29258913
7	0xbe1784dc	-0.14796776
8	0xbdec9f92	-0.11553873
9	0x3e2b5eba	0.16735354
10	0x3dbd53a8	0.09244472
11	0xbe417cac	-0.18895215
12	0x3cc305a9	0.02380641
13	0xbdf6de79	-0.12054152
14	0x3e3a50cc	0.18194884
15	0xbe5d568f	-0.2161505
16	0x3e94f8c4	0.29096043
17	0x3e6c7dd5	0.23094876
18	0xbdbd61de	-0.09247182
19	0xbd990dda	-0.07473345
20	0x3e797cc3	0.24363999
21	0x3e40e45d	0.18837114
22	0x3deb14ff	0.11478614
23	0x3d35fc53	0.04443009
24	0xbd013fa8	-0.031554848
25	0xbe2ddf49	-0.16979708
26	0x3e0554f5	0.1302069
27	0x3ded1af5	0.11577407
28	0x3e29b889	0.16574301
29	0xbe09d981	-0.13461877
30	0xbe89febd	-0.26952162
31	0x3ca54da3	0.020178622
32	0xbe915610	-0.28385973
33	0x3e7c333a	0.24628916
34	0xbe3e2088	-0.18567097
35	0x3e1cb3a6	0.15302905
36	0x3dde45b6	0.1085314
37	0xbcbfa648	-0.023394719
38	0x3e499ea9	0.1968943
39	0xbb3aeb3d	-0.002852156
40	0xbe7bc5a7	-0.24587117
41	0x3dc0fef7	0.09423631
42	0xbe302efa	-0.1720542
43	0x3e6436da	0.22286549
44	0xbdd2b760	-0.10288882
45	0x3e380539	0.17970742
46	0x3de81a3f	0.11333131
47	0xbc770b79	-0.015078419
48	0x3e7f589b	0.24936144
49	0x3e1d3a0c	0.15354174
50	0x3d9637b4	0.07334843
51	0xbdb8caac	-0.090230316
52	0xbd72b0e4	-0.059250727
53	0x3e4a3ed8	0.19750535
54	0xbe605ce3	-0.21910433
55	0x3e059eb8	0.13048828
56	0x3ea41fb8	0.3205545
57	0xbcab7634	-0.020930387
58	0xbe670805	-0.22561653
59	0x3d50cdd2	0.050977536
60	0xbe481e93	-0.19542913
61	0x3e886837	0.2664201
62	0x3e98fb84	0.2987939
63	0x3e20423f	0.15650271
64	0x3e7ace2c	0.24492711
65	0x3ca968f0	0.02067992
66	0xbe3daf2c	-0.18523854
67	0x3e2de086	0.1698018
68	0xbea1b576	-0.31583756
69	0xbe837064	-0.25671685
70	0xbd2ead70	-0.04264587
71	0xbe89fd06	-0.26950854
72	0x3e66a418	0.22523534
73	0xbd01d01c	-0.03169261
74	0xbe06fbe2	-0.13182023
75	0xbd81f7c2	-0.06346084
76	0xbd2dfe4d	-0.04247885
77	0xbe182b0d	-0.14860173
78	0xbc03000c	-0.007995617
79	0xbe880152	-0.26563507
80	0xbe3f155d	-0.18660493
81	0x3e4c4560	0.1994834
82	0xbdca6132	-0.0988182
83	0xbe3dfc89	-0.18553366
84	0x3e1a77b3	0.15084724
85	0x3e4ffab3	0.20310478
86	0x3e0e34d3	0.13887338
87	0x3e8dc714	0.27690947
88	0x3e2c3a6d	0.16819163
89	0xbd5b0cf5	-0.053479154
90	0x3df91b91	0.12163461
91	0xbe98dc6c	-0.2985567
92	0x3e3997bf	0.18124293
93	0x3d90be64	0.07067564
94	0xbe208a52	-0.15677765
95	0xbd031ff2	-0.032012887
96	0xbca4cba8	-0.020116642
97	0xbe12d281	-0.14338113
98	0x3e1b53a8	0.15168631
99	0x3ddbe25d	0.10736535
100	0xbc72c81a	-0.014818216
101	0x3ce2bb90	0.027677327
102	0xbe0f3631	-0.13985516
103	0xbd9b35d9	-0.0757863
104	0xbe65476b	-0.22390525
105	0xbe9a2c27	-0.3011181
106	0xbe6d2584	-0.23158842
107	0xbd558260	-0.05212629
108	0x3e7dfb33	0.24802856
109	0x3e60ffdc	0.21972603
110	0xbdbf7dba	-0.09350152
111	0xbdde802f	-0.10864293
112	0x3e1328ad	0.14370985
113	0x3e4ba013	0.19885282
114	0x3e3d179d	0.18466039
115	0x3e43812a	0.19092241
116	0xbdc27872	-0.09495629
117	0x3e679e99	0.22619094
118	0x3c9ff043	0.019523745
119	0xbe1bb11b	-0.15204279
120	0x3e803295	0.2503859
121	0x3e34b4a1	0.1764703
122	0xbe9d0ffe	-0.30676264
123	0x3e2e4014	0.17016631
124	0xbe45c7bf	-0.19314478
125	0x3e3257c8	0.17416298
126	0xbd5d3c67	-0.054012682
127	0x3d921a6a	0.07133944
128	0x3d61ae9a	0.055098154
129	0xbe5e0c53	-0.21684389
130	0xbd04ad70	-0.032391965
131	0x3e8a4b6c	0.27010667
132	0x3dde9ecd	0.108701326
133	0x3e77e683	0.24209027
134	0xbdc9a745	-0.09846357
135	0xbe9bbc55	-0.30417123
136	0xbe5cf560	-0.21577978
137	0x3dcf4f1a	0.10122509
138	0x3da7e4b5	0.08197919
139	0xbe003944	-0.12521845
140	0x3d58d1fc	0.05293463
141	0xbd8dc366	-0.06922035
142	0xbe6086b3	-0.21926384
143	0xbc9ea7f9	-0.019367205
144	0xbbfe8a74	-0.0077679697
145	0xbe1c88a9	-0.15286507
146	0xbdd581b3	-0.10425129
147	0xbe8762ac	-0.26442468
148	0x3dc922ba	0.09821077
149	0xbe953c6c	-0.2914766
150	0xbd3ffcdd	-0.04687201
151	0xbe7a4ea7	-0.24444066
152	0xbe1cba19	-0.15305366
153	0xbc4f77c2	-0.01266283
154	0xbe790daf	-0.24321626
155	0x3d109fd5	0.035308678
156	0x3cac784f	0.021053461
157	0x3e63107a	0.22174254
158	0x3ddfb0fb	0.10922428
159	0xbd8d2b6d	-0.068930484
160	0x3e879f36	0.26488656
161	0x3e86f0db	0.26355633
162	0xbc3b7e60	-0.011443704
163	0x3e401e29	0.18761505
164	0xbe72586f	-0.23666547
165	0xbdafe2b2	-0.085881606
166	0xbe1c00cf	-0.15234683
167	0x3e735d67	0.23766099
168	0xbdd81918	-0.10551661
169	0x3e41ccc1	0.18925764
170	0xbe57dd0d	-0.21080418
171	0x3e3dd8c1	0.18539716
172	0xbd9273a1	-0.07150961
173	0x3e136d32	0.14397123
174	0x3e949c16	0.29025334
175	0xbcc5dc1f	-0.024152813
176	0x3e0d0371	0.13770844
177	0x3d88e016	0.06683366
178	0xbc01d5e2	-0.007924529
179	0x3e4d27c2	0.20034698
180	0xbe962881	-0.29327777
181	0xbe2522a3	-0.16126494
182	0x3e721679	0.23641385
183	0x3c67f495	0.014157434
184	0xbe0750d3	-0.13214426
185	0xbe8bca32	-0.273027
186	0x3e518a70	0.20462966
187	0xbe775b0b	-0.24155824
188	0x3e6025dd	0.21889444
189	0xbe536601	-0.2064438
190	0xbe9f1637	-0.31071636
191	0xbe366379	-0.17811383
192	0x3dbdbbd5	0.09264342
193	0x3e31cc26	0.17363033
194	0xbe14b833	-0.14523391
195	0x3bca0f16	0.006166349
196	0xbdeaaacf	-0.114583604
197	0xbe895dc3	-0.26829347
198	0xbe343d89	-0.17601599
199	0xbd96ce12	-0.073635235
200	0xbc9f1e03	-0.01942349
201	0x3c4f6fdc	0.012660947
202	0xbe8b30a5	-0.2718555
203	0xbd958355	-0.0730044
204	0x3bc75ea7	0.0060842815
205	0x3e4bdc58	0.19908273
206	0xbe8114a0	-0.25211048
207	0xbe13ec31	-0.14445569
208	0xbd05accb	-0.03263549
209	0xbd10c998	-0.035348505
210	0x3e84c162	0.2592879
211	0x3d869b28	0.065725625
212	0x3e261c81	0.16221811
213	0xbe48c990	-0.1960814
214	0xbe0738ee	-0.1320531
215	0xbe69e13a	-0.22839823
216	0xbe5d6f24	-0.21624428
217	0xbe626b97	-0.22111355
218	0xbe6d6dd4	-0.23186427
219	0xbd844e00	-0.0646019
220	0x3e35297a	0.17691603
221	0x3e9908f5	0.29889646
222	0x3dd5af88	0.104338706
223	0x3e0bc36b	0.13648765
224	0x3d5ccc53	0.053905796
225	0x3dfbb494	0.12290302
226	0xbe249400	-0.16072083
227	0xbd83ede7	-0.06441861
228	0x3e5ec221	0.21753742
229	0xbe9052cd	-0.28188172
230	0xbe9753d1	-0.29556134
231	0x3e0b62a1	0.13611843
232	0xbd861f23	-0.065489076
233	0x3e81f8d0	0.2538514
234	0xbbec7b20	-0.007216826
235	0x3d131d7f	0.0359168
236	0xbe97c57a	-0.2964285
237	0xbea68f6a	-0.3253129
238	0x3e66a8bd	0.22525306
239	0x3da32dc2	0.07967712
240	0x3bffc777	0.0078057605
241	0x3dfdf314	0.12399879
242	0xbd0b3a34	-0.033991054
243	0xbe1b2882	-0.15152171
244	0xbe81cb51	-0.2535043
245	0xbe47d9b4	-0.19516641
246	0x3e46e653	0.19423799
247	0x3e042ef5	0.12908538
248	0xbddd5263	-0.1080673
249	0xbe90c785	-0.2827722
250	0x3e849e41	0.25901988
251	0xbe981604	-0.29704297
252	0x3cd4fa82	0.025998358
253	0xbcd98230	-0.026551336
254	0xbdcfaa4a	-0.10139902
255	0xbe357b0f	-0.17722724

conv2.lin_r.bias f4 [32]
0	0xbd876698	-0.06611365
1	0x3d31451a	0.04327879
2	0xbd922d60	-0.07137561
3	0x3da46242	0.08026554
4	0xbdcdd9e6	-0.100513265
5	0x3e030998	0.12796628
6	0xbd014a56	-0.031565033
7	0xbd4d7bd1	-0.05016691
8	0xbd778f3c	-0.060439333
9	0x3dc895a3	0.09794166
10	0xbdd17326	-0.10227041
11	0x3bf512ec	0.0074790623
12	0xbdff06af	-0.12452447
13	0x3d441b50	0.04787761
14	0xbdb56f40	-0.0885911
15	0x3e352327	0.17689191
16	0xbc9dc4a3	-0.019258803
17	0x3e0d9cbb	0.13829319
18	0x3dbc8c78	0.0920648
19	0xbdbc50b0	-0.091950774
20	0xbe24ef0f	-0.16106819
21	0x3e0ad81e	0.13559005
22	0xbbac43be	-0.005257099
23	0x3d730c15	0.059337694
24	0x3d91e185	0.071230926
25	0x3d17af26	0.03703227
26	0xbdbc7625	-0.09202222
27	0xbe22318f	-0.15839218
28	0xbe1c6070	-0.15271163
29	0xbe229578	-0.1587733
30	0xbd9d4908	-0.07679945
31	0xbe209e09	-0.15685286

conv2.lin_edge.weight f4 [32, 2]
0	0xbea12189	-0.31470898
1	0xbecef09b	-0.40417942
2	0x3cbfb9e5	0.023404071
3	0x3e21a293	0.15784673
4	0xbe574e06	-0.21025857
5	0x3da4a7ef	0.08039843
6	0x3e517d1f	0.20457886
7	0xbdce8fac	-0.10085997
8	0x3e6c0c8c	0.23051661
9	0xbce623fd	-0.028093332
10	0xbe9fa407	-0.3117983
11	0xbeb15ce2	-0.34641176
12	0xbe3b061c	-0.1826405
13	0xbe912410	-0.28347826
14	0x3e8c2355	0.27370706
15	0x3e1cf3f3	0.15327434
16	0x3e998df1	0.29991105
17	0x3ebef563	0.3729659
18	0xbe0c6be3	-0.1371303
19	0x3d968a3f	0.07350587
20	0xbe8e8fe6	-0.2784416
21	0x3e98b98b	0.29829058
22	0x3d45fc09	0.048336063
23	0x3e90d09a	0.2828415
24	0x3ec4f30c	0.3846668
25	0xbecf368a	-0.40471298
26	0x3e8e4e9c	0.2779435
27	0x3e9b2ecb	0.30309138
28	0xbd3725d4	-0.04471381
29	0xbe8cc1a8	-0.27491498
30	0xbeac7284	-0.33681118
31	0xbe40cfd3	-0.18829279
32	0x3e8e3371	0.27773622
33	0xbecaf4c7	-0.39639875
34	0x3d18f28b	0.037340682
35	0x3dca4502	0.098764434
36	0x3e173bdd	0.1476893
37	0x3e8b87c0	0.27252007
38	0x3ebeecb9	0.3728998
39	0x3e3544bc	0.17702001
40	0xbe477e91	-0.19481875
41	0x3d362c3d	0.044475783
42	0xbea3bdc7	-0.31980726
43	0x3ec41cc6	0.38303202
44	0x3e84dfa4	0.25951874
45	0xbeab0649	-0.33403233
46	0xbd4a971b	-0.04946051
47	0xbeb07c82	-0.34469992
48	0x3ec59d71	0.3859668
49	0x3e9ca105	0.30591598
50	0x3e8f18ab	0.27948508
51	0x3e749f6b	0.23888938
52	0xbe901cf8	-0.281471
53	0x3d40814c	0.046998307
54	0x3e9e5c97	0.30930015
55	0x3d7cfc7c	0.061764225
56	0xbd344d35	-0.044018943
57	0x3e72d22d	0.23712988
58	0xbd85073d	-0.06495521
59	0xbe9a803e	-0.30175966
60	0x3cd307a7	0.025760485
61	0x3e82b186	0.25526065
62	0x3ec44962	0.38337237
63	0xbe2c50f8	-0.16827762

fc.weight f4 [2, 32]
0	0x3b5e542d	0.0033924684
1	0xbdd5f34f	-0.10446798
2	0x3dd3ae07	0.103359275
3	0xbd3cb639	-0.04607222
4	0x3dcc8e2d	0.099880554
5	0xbe0645cc	-0.13112563
6	0xbe388f52	-0.18023422
7	0xba3ebb53	-0.0007275838
8	0xbe245e17	-0.16051517
9	0x3e25cc60	0.16191244
10	0x3db5f3b8	0.08884376
11	0xbd5b6858	-0.053566307
12	0x3dd75ab3	0.105153464
13	0xbc422a00	-0.011850834
14	0x3de7fc50	0.11327422
15	0x3dfb3eab	0.12267812
16	0x3aebd8a1	0.0017993638
17	0xbdf79e62	-0.12090756
18	0xbd900c6d	-0.0703362
19	0x3e2b6d42	0.16740897
20	0x3deec6c2	0.11659004
21	0x3da1a54c	0.07892856
22	0xbc0c56ea	-0.008565644
23	0xbcdcbad8	-0.026944563
24	0xbda78f1a	-0.08181591
25	0xbd933bbb	-0.07189127
26	0x3e07ef4a	0.13274875
27	0x3e04456f	0.12917112
28	0x3da740f2	0.08166684
29	0x3e0624bc	0.1309995
30	0x3de363a2	0.11102988
31	0xbd6f3d0d	-0.058407832
32	0xbdb29109	-0.087190695
33	0x3d98c540	0.074594975
34	0x3d86a5b7	0.06574576
35	0x3a4b82db	0.00077633344
36	0x3dd798ed	0.10527215
37	0x3df6214a	0.12018068
38	0xbd3f5289	-0.04670957
39	0x3d5f18d7	0.05446705
40	0xbdce7f61	-0.10082889
41	0xbe0b0315	-0.13575394
42	0x3e0b9e5a	0.13634625
43	0x3a8b7200	0.0010638833
44	0xbd9111e9	-0.07083494
45	0xbd0813b8	-0.03322193
46	0x3d4d6aff	0.050150868
47	0x3dd376e2	0.103254095
48	0xbe0d0155	-0.1377004
49	0x3db03b52	0.086050645
50	0xbd2e23c4	-0.042514578
51	0xbdb2f2b6	-0.087377
52	0xbc865260	-0.016396701
53	0x3dabe8f4	0.08394042
54	0x3c27c9b2	0.010240959
55	0x3e19f655	0.15035374
56	0x3e1211cf	0.14264606
57	0xbd37dfd0	-0.04489118
58	0x3e04acb8	0.12956512
59	0x3e1f225c	0.15540451
60	0x3b87ef00	0.004148364
61	0x3df6c1d9	0.12048692
62	0xbe1011ff	-0.14069365
63	0x3dd82f15	0.10555855

fc.bias f4 [2]
0	0xbe1cab79	-0.15299787
1	0xbd3dc180	-0.046327114
