saved_models/dgat10_slic.pt (torch, 43958 bytes, 16 tensors)

conv1.att f4 [1, 1, 64]
0	0xbf550ea9	-0.83225495
1	0xbf17cfdc	-0.59301543
2	0xbea37dea	-0.31932002
3	0xbd860080	-0.06543064
4	0x3f337b70	0.70110226
5	0xbe76c4fd	-0.24098583
6	0x3e7ac9e3	0.24491076
7	0xbf3e71e5	-0.7439254
8	0xbeaec3d6	-0.34133786
9	0xbf3fe324	-0.74955964
10	0xbf17e033	-0.59326476
11	0xbf7fadf8	-0.9987483
12	0xbf190891	-0.59778696
13	0xbf3b84ef	-0.73249716
14	0x3e7182bd	0.23585029
15	0xbec8a1de	-0.39185995
16	0x3f33587a	0.7005688
17	0xbfaf5f0b	-1.370088
18	0x3ea88a86	0.32918185
19	0xbe62e16b	-0.22156303
20	0xbf2921a7	-0.66066974
21	0x3ef8a5c8	0.4856398
22	0xbf119bbc	-0.56878257
23	0xbeb6b0c1	-0.35681728
24	0x3ed3d998	0.41376948
25	0xbf81de2d	-1.0145928
26	0x3eaab77d	0.33343115
27	0xbf1d9b60	-0.6156521
28	0x3ddfdb13	0.10930457
29	0x3e7024f8	0.23451602
30	0xbf3cebe2	-0.7379743
31	0x3f1ca525	0.6118949
32	0x3e58de84	0.21178633
33	0x3f3bc62e	0.73349273
34	0xbf3ef972	-0.74599373
35	0xbe4ace18	-0.19805181
36	0xbf04d309	-0.51884514
37	0xbf4baf73	-0.7956459
38	0x3ec31957	0.3810527
39	0xbe788fde	-0.24273631
40	0xbeead537	-0.45865795
41	0xbe93987a	-0.28827268
42	0x3e4d2a73	0.20035724
43	0xbfdb2990	-1.7122059
44	0x3f1da9a9	0.61587006
45	0x3ec77164	0.38953698
46	0xbf11bddd	-0.56930333
47	0x3e84ccca	0.25937492
48	0x3ec0cd7c	0.37656772
49	0xbe17b87f	-0.14816473
50	0xbebf0e0f	-0.37315413
51	0x3eaf0b1e	0.3418817
52	0x3f0b20e5	0.5434707
53	0xbe80d149	-0.25159672
54	0xbf2dba65	-0.6786254
55	0x3f090061	0.53516203
56	0xbeed4a14	-0.4634558
57	0xbe910b3c	-0.28328884
58	0x3ebbd201	0.36683658
59	0x3f2ba227	0.670443
60	0xbed1aa95	-0.40950456
61	0xbf262f96	-0.6491636
62	0xbf5e70e8	-0.8689103
63	0xbf6e3a16	-0.9305738

conv1.bias f4 [64]
0	0xbe9bc4d3	-0.30423602
1	0xbed38bb5	-0.41317526
2	0xbdaddb2c	-0.08489069
3	0x3ccb17a2	0.024791542
4	0xbe619bff	-0.22032164
5	0xbe061175	-0.13092597
6	0x3e4fcc56	0.20292792
7	0xbe0c19d7	-0.13681732
8	0xbebd8731	-0.37017205
9	0xbe825e93	-0.2546278
10	0x3e05dd76	0.13072762
11	0xbed9293a	-0.42414266
12	0xbe9304ab	-0.287145
13	0x3c5bbda6	0.013411915
14	0xbe44ecdd	-0.19230981
15	0xbed80095	-0.42187944
16	0xbee85ea8	-0.45384717
17	0xbe41d608	-0.18929303
18	0xbe66d563	-0.22542338
19	0xbd351c70	-0.044216573
20	0x3e814bfd	0.25253287
21	0xbeceed42	-0.40415388
22	0xbe3f79fb	-0.18698876
23	0xbe126bbf	-0.14298914
24	0xbd17a496	-0.037022196
25	0xbea1156a	-0.3146165
26	0xbe240d50	-0.16020703
27	0x3e63b273	0.22236042
28	0xbe1c2241	-0.15247442
29	0xbeb465e1	-0.35233977
30	0x3d31590d	0.043297816
31	0xbe9372a2	-0.28798395
32	0xbe402813	-0.18765287
33	0xbe7fa884	-0.24966627
34	0xbdfa8c2e	-0.122337684
35	0xbe6d9897	-0.2320274
36	0xbd128450	-0.035770714
37	0xbed30bbc	-0.4121989
38	0xbd6222e1	-0.055209044
39	0xbecf7176	-0.4051625
40	0xbbee8bfa	-0.00727987
41	0xbe8a3920	-0.26996708
42	0xbe95f668	-0.29289556
43	0xbea5b059	-0.32361105
44	0xbeae2ec6	-0.3402006
45	0xbe071e8d	-0.13195248
46	0xbe2fac2b	-0.1715552
47	0xbd21c417	-0.039493646
48	0xbe957068	-0.29187322
49	0xbe805c76	-0.25070542
50	0xbe2d6018	-0.16931188
51	0xbe5c3033	-0.21502762
52	0xbe57f717	-0.21090351
53	0xbe65de9a	-0.22448197
54	0x3da3a010	0.07989514
55	0x3cb7bc52	0.022428665
56	0xbe591fb7	-0.21203505
57	0xbe2e928f	-0.17048095
58	0xbdb222e1	-0.08698059
59	0xbec51123	-0.38489637
60	0xbdd12e53	-0.10213914
61	0xbe5c2b22	-0.21500829
62	0xbec155b6	-0.37760705
63	0xbcbc7347	-0.023004187

conv1.lin_l.weight f4 [64, 4]
0	0x3cc0dfe4	0.02354426
1	0x3cf89a33	0.030346965
2	0x3bfcac57	0.007710974
3	0xbed191f8	-0.40931678
4	0x3e44c351	0.19215132
5	0xbe85cc5d	-0.2613248
6	0xbe6c35ab	-0.23067348
7	0xbe9964b7	-0.29959652
8	0xbd05f797	-0.032706823
9	0x3d9cf519	0.07663936
10	0x3c77b3ed	0.015118581
11	0xbe990ea3	-0.2989398
12	0x3ee6b508	0.4505999
13	0xbeef735b	-0.46767697
14	0xbe2e7ed9	-0.17040576
15	0x3ee79540	0.45231056
16	0xbe8c96ad	-0.27458706
17	0x3eb9128f	0.36146972
18	0xbde0d2b5	-0.10977689
19	0xbe163669	-0.14669193
20	0x3da05f0c	0.07830629
21	0xbc96e494	-0.018419541
22	0x3e2b3423	0.16719107
23	0xbe8e09f2	-0.27741963
24	0xbd34d4e6	-0.04414835
25	0x3e8dc402	0.27688605
26	0xbe5755d3	-0.21028833
27	0x3e5b0ddb	0.21392004
28	0x3d21ba2e	0.039484195
29	0x3d9831b7	0.07431357
30	0xbf55ed24	-0.8356497
31	0xbf3fb833	-0.7489044
32	0x3d668e18	0.056287855
33	0xbe316160	-0.17322302
34	0xbe81b3ad	-0.25332394
35	0xbdf21e3c	-0.11822173
36	0x3e81d7ab	0.25359854
37	0x3efbadc4	0.4915601
38	0xbe8ceeaf	-0.2752585
39	0x3e8a83ed	0.27053776
40	0x3ef098f3	0.4699169
41	0xbda8e3ce	-0.08246575
42	0xbdc22649	-0.094799586
43	0x3f22236f	0.6333532
44	0xbe351d8d	-0.17687054
45	0x3e68ed78	0.22746837
46	0xbe7f7e0d	-0.24950428
47	0xbe9a6e33	-0.301622
48	0x3da98741	0.08277751
49	0x3e4adfd2	0.19811943
50	0x3e8ea4b7	0.27860042
51	0x3e802fa0	0.25036335
52	0x3f00198c	0.5003898
53	0xbe804694	-0.25053847
54	0xbb5c69a2	-0.0033632298
55	0x3ee73c91	0.45163396
56	0x3f01aa09	0.5065008
57	0xbea6523d	-0.32484618
58	0xbe3e5cd9	-0.18590106
59	0x3e610350	0.2197392
60	0x3daf77a9	0.08567745
61	0x3d1a31ea	0.037645258
62	0xbe18c412	-0.14918545
63	0xbecd33bb	-0.4007853
64	0x3d111845	0.035423536
65	0xbb2b293a	-0.0026117102
66	0xbe28780f	-0.16452049
67	0x3dd53b34	0.10411683
68	0x3e35ee25	0.17766626
69	0xbe140511	-0.14455058
70	0xbf558225	-0.8340171
71	0xbf3f40dc	-0.7470834
72	0x3dcb1808	0.09916693
73	0xbeaeef52	-0.34166962
74	0xbe9b990a	-0.30390197
75	0xbe91a6f2	-0.28447682
76	0x3ed9b688	0.42522073
77	0xbe6fbc87	-0.23411761
78	0x3d549cff	0.051907536
79	0x3ea5b5a8	0.32365155
80	0xbea8f869	-0.33002022
81	0x3ed39283	0.41322717
82	0xbf4cab3a	-0.7994877
83	0xbeff87cf	-0.499083
84	0x3d1bede3	0.038068663
85	0x3e140a64	0.14457089
86	0x3e50da43	0.2039576
87	0xbd347fa8	-0.044067055
88	0x3e615fe3	0.22009234
89	0xbe0f2d4c	-0.13982123
90	0x3e0019ac	0.12509793
91	0xbe8b7b13	-0.27242336
92	0xbe3cf4bc	-0.18452734
93	0x3f0df74b	0.55455464
94	0xbdbb887a	-0.0915689
95	0x3e7ea161	0.24866249
96	0x3ee0bb81	0.43893054
97	0xbeab6655	-0.3347651
98	0xbc79c1c8	-0.015243955
99	0x3eac6034	0.33667147
100	0x3e9c5622	0.30534464
101	0x3c538198	0.0129093155
102	0xbd1e0e83	-0.03858806
103	0xbf0387b8	-0.51378965
104	0x3ea132c8	0.31484056
105	0xbe698e74	-0.22808248
106	0xbc1fb3ff	-0.009747504
107	0x3e3b9746	0.18319425
108	0x3ee19682	0.4406014
109	0xbe8a488e	-0.2700848
110	0x3d04cbfa	0.03242109
111	0xbe970079	-0.29492548
112	0xbe3876cc	-0.18014067
113	0xbd5ff64a	-0.05467824
114	0x3cd60662	0.02612609
115	0xbeaee3e8	-0.34158254
116	0xbd506965	-0.050881762
117	0xbb8b9046	-0.004259142
118	0x3da4bd4b	0.08043917
119	0x3e0acf3a	0.13555613
120	0xbec64bda	-0.38729745
121	0xbc73f377	-0.0148895895
122	0xbeba07b3	-0.36334
123	0xbf1fa93b	-0.623676
124	0x3e82f1f8	0.25575233
125	0xbe5f14a5	-0.21785219
126	0x3cd27e3c	0.025694959
127	0x3e802f1e	0.25035948
128	0x3d272394	0.040805414
129	0xbd1f0319	-0.038821314
130	0x3e3c8718	0.18410909
131	0x3cc6b8aa	0.024257977
132	0x3d3aaead	0.04557674
133	0xbc7f06c6	-0.01556558
134	0x3c82daa2	0.015973393
135	0xbcaf6b1b	-0.021413377
136	0x3e364abf	0.17801951
137	0xbe16c5dd	-0.14723916
138	0x3d589286	0.05287411
139	0xbebb5971	-0.36591676
140	0x3ef24dba	0.47324926
141	0xbe80864a	-0.25102454
142	0x3df0975b	0.11747619
143	0xbe361443	-0.17781167
144	0x3d710881	0.058846
145	0x3dd432d8	0.1036126
146	0xbea4f2d9	-0.32216528
147	0xbef77860	-0.48334026
148	0x3e839e1a	0.2570656
149	0xbe937a81	-0.288044
150	0xbdb60040	-0.088867664
151	0xbe6b7273	-0.22992878
152	0xbe3740b8	-0.17895782
153	0x3e3d50a0	0.18487787
154	0xbedfffac	-0.4374975
155	0xbee52bb5	-0.44759908
156	0x3dee85d9	0.11646623
157	0x3d8fc5d1	0.07020152
158	0x3df882d6	0.1213433
159	0xbe0650a4	-0.131167
160	0x3f0f8b36	0.56071794
161	0xbeae7c2e	-0.34079117
162	0x3d978111	0.07397664
163	0x3ec8473e	0.39116853
164	0x3ecab173	0.39588508
165	0xbe39dae2	-0.18149903
166	0x3d7fc758	0.06244597
167	0x3dbe967e	0.09306048
168	0xbe27f455	-0.16401799
169	0xbdf218ca	-0.118211344
170	0xbe5c2c96	-0.21501383
171	0xbd7737dc	-0.060356006
172	0xbdd058cb	-0.10173186
173	0x3e517506	0.20454797
174	0xbf1fe263	-0.62454814
175	0xbf55e883	-0.8355791
176	0xba96a232	-0.001149243
177	0xbd1502e6	-0.036379717
178	0xbca33d0b	-0.019926568
179	0xbd245ed4	-0.040129498
180	0xbd0f1a0a	-0.034936942
181	0xbda9c11e	-0.08288787
182	0x3edaccf4	0.42734492
183	0xbead0e62	-0.33800036
184	0x3e806b7d	0.25082007
185	0x3e3f071d	0.18655057
186	0x39861137	0.00025571298
187	0xbbdc6bd2	-0.0067267204
188	0x3edc82d0	0.43068552
189	0xbec659cc	-0.38740385
190	0x3eb7b3cb	0.3587936
191	0xbcb1ac88	-0.021688715
192	0xbc64d426	-0.013966596
193	0x3cab23c9	0.020891087
194	0x3e648070	0.2231462
195	0x3e86d9ef	0.26338145
196	0x3eb6cbe2	0.35702425
197	0xbdaca481	-0.08429814
198	0x3e8e3505	0.27774826
199	0xbe858383	-0.26076898
200	0xbe1ebcce	-0.15501711
201	0xbda820b0	-0.0820936
202	0xbed8e78a	-0.4236415
203	0xbe067a42	-0.13132575
204	0x3d2e8722	0.04260934
205	0x3e0b2de7	0.13591729
206	0xbe26ee13	-0.16301756
207	0xbeaa238e	-0.3323025
208	0x3da3c146	0.07995848
209	0xbcbbd18b	-0.022927066
210	0x3e52bc3f	0.20579623
211	0xbe8ef5c1	-0.2792187
212	0x3ed8dc35	0.42355505
213	0xbe6d4c9a	-0.23173752
214	0x3e5fd8fd	0.21860118
215	0xbd104dd8	-0.035230488
216	0xbe4db7fb	-0.20089714
217	0x3cec1710	0.02881959
218	0xbf0fc893	-0.56165427
219	0xbf18110a	-0.59401
220	0xbe836334	-0.25661623
221	0x3d1f57bc	0.03890203
222	0xbe037f2d	-0.12841482
223	0xbecdbf4f	-0.4018502
224	0xbdf521cf	-0.11969339
225	0xbe04aa9b	-0.12955706
226	0xbee08f90	-0.4385953
227	0xbe9f4c4c	-0.31112897
228	0x3d59b881	0.053154472
229	0x3dace310	0.08441746
230	0x3ed6ad98	0.41929317
231	0xbdc9df00	-0.09856987
232	0x3e887ada	0.26656228
233	0xbea56079	-0.32300165
234	0xbd736e82	-0.05943156
235	0x3ed49609	0.41520718
236	0x3d0e565e	0.034750335
237	0xbd8bb6d3	-0.0682198
238	0x3e14447c	0.1447925
239	0xbdc9166d	-0.098187305
240	0x3eb04f87	0.34435675
241	0xbea3d6e5	-0.3199989
242	0x3e377f01	0.17919542
243	0x3e81829a	0.25294954
244	0x3ee5504e	0.4478783
245	0xbe7dece5	-0.247974
246	0x3e5a12f5	0.21296294
247	0xbee69ddb	-0.4504231
248	0xbc9bf28a	-0.01903655
249	0x3e94ec73	0.29086646
250	0xbed99e18	-0.42503428
251	0xbe5f50a9	-0.21808113
252	0x3e39f553	0.1815999
253	0x3eb0a2fa	0.3449934
254	0xbf2c00a3	-0.6718847
255	0xbee419b8	-0.44550872

conv1.lin_l.bias f4 [64]
0	0xbea481f8	-0.32130408
1	0xbdc88d34	-0.09792557
2	0x3eafacdb	0.34311566
3	0xbe8ed4a9	-0.27896622
4	0x3d8931e7	0.06698971
5	0xbf1fc26f	-0.6240606
6	0xbe53669c	-0.20644611
7	0x3eb42e0c	0.3519138
8	0xbe6e6cea	-0.23283735
9	0xbf0acadd	-0.54215795
10	0x3d3b747a	0.045765378
11	0x3e128204	0.1430741
12	0x3db98c87	0.090600066
13	0xbe4de3a8	-0.20106375
14	0xbd43937f	-0.047748085
15	0xbd90fb42	-0.070791736
16	0xbecb9653	-0.39763126
17	0xbe2142e3	-0.15748172
18	0xbed5d6dc	-0.41765487
19	0xbd0398a3	-0.032127988
20	0xbe3eaaa5	-0.18619783
21	0xbd45f593	-0.0483299
22	0xbe87acef	-0.26499125
23	0xbee56734	-0.448053
24	0xbe87f5b1	-0.26554635
25	0x3e343f65	0.17602308
26	0xbea0e6b2	-0.31426007
27	0xbec7f6b1	-0.39055398
28	0x3ea6f913	0.32611904
29	0xbe9e06cf	-0.3086457
30	0x3ed095d4	0.4073931
31	0xbe50697f	-0.20352744
32	0xbe943268	-0.28944707
33	0xbf371b30	-0.7152586
34	0xbeaa2849	-0.3323386
35	0xbdaf1679	-0.08549208
36	0xbeab99e0	-0.33515835
37	0xbd655d13	-0.055996966
38	0xbe8958fc	-0.26825702
39	0xbdf328e4	-0.11873034
40	0xbd83e27c	-0.06439683
41	0x3e65c84f	0.22439693
42	0xbef4a164	-0.4777938
43	0xbdf7e69b	-0.121045314
44	0xbee61a33	-0.44941863
45	0x3ca414c8	0.02002944
46	0xbf1a3fbd	-0.60253507
47	0xbedc804d	-0.43066636
48	0xbf1adf2f	-0.604968
49	0x3caf1796	0.021373551
50	0xbf06e31b	-0.52690285
51	0xbe5579a5	-0.20847185
52	0x3d4ce640	0.05002427
53	0x3e4d8ee8	0.20074046
54	0x3dae2d42	0.08504726
55	0x3ea51c21	0.32248023
56	0xbf0ae421	-0.5425435
57	0x3e994e8e	0.29942745
58	0xbec1ead3	-0.3787447
59	0xbec73dbc	-0.38914287
60	0xbef05b4b	-0.4694465
61	0x3e923d08	0.28562188
62	0x3e05eeaa	0.13079324
63	0xbe4dfde4	-0.20116383

conv1.lin_r.weight f4 [64, 4]
0	0xbe124a05	-0.14286049
1	0xbd63146e	-0.055439405
2	0xbf38a8bd	-0.72132474
3	0xbf606b23	-0.8766348
4	0xbc9e51bb	-0.019326081
5	0xbec20030	-0.37890768
6	0xbb817145	-0.0039502704
7	0x3e63dd3c	0.22252363
8	0xbe26eb9f	-0.1630082
9	0xbef0b2ac	-0.47011316
10	0xbd376493	-0.04477365
11	0xbe81c2af	-0.25343844
12	0x3e8720fd	0.26392356
13	0x3c91218a	0.017716188
14	0x3e6c80b0	0.23095965
15	0xbe83d42d	-0.25747815
16	0x3e992fac	0.29919183
17	0x3dbf99fe	0.093555436
18	0x3f3dcd63	0.7414152
19	0x3f38dfed	0.72216684
20	0xbf10385d	-0.56336004
21	0xbf0d0961	-0.55092436
22	0xbc8a85c7	-0.016909493
23	0x3ece3ec3	0.40282258
24	0x3d5e9b43	0.054347288
25	0x3c9b8b13	0.018987214
26	0x3d28f030	0.041244686
27	0x3e7f443e	0.24928376
28	0xbe89045b	-0.26761135
29	0xbe26a9d5	-0.16275723
30	0x3c52ac37	0.012858442
31	0xbeb5677c	-0.35430515
32	0xbc4cbf7a	-0.012496823
33	0xbeb32069	-0.34985664
34	0x3e043488	0.12910664
35	0xbdd5d2d8	-0.10440606
36	0xbe0d18ff	-0.13779067
37	0x3e822ec8	0.25426316
38	0x3f20ae35	0.6276582
39	0x3f6aaefe	0.91673267
40	0x3e5e3f62	0.21703866
41	0xbe5361f1	-0.2064283
42	0x3e938d84	0.28818905
43	0x3f45e890	0.7730799
44	0x3f0dc770	0.5538244
45	0x3ebe8273	0.372089
46	0x3ed8d608	0.42350793
47	0x3dcd599d	0.10026858
48	0x3db9f53f	0.0907998
49	0xbe6658d2	-0.2249482
50	0x3eb074ab	0.3446401
51	0x3f86847f	1.0509185
52	0x3cf35b75	0.029706696
53	0x3e0e7b08	0.1391412
54	0x3d9459d0	0.07243693
55	0x3f686896	0.90784585
56	0xbe9838fa	-0.2973097
57	0xbd04448b	-0.03229193
58	0xbe726eda	-0.23675099
59	0xbef9d174	-0.48792613
60	0xbde184f1	-0.11011685
61	0xbefe8bde	-0.49716085
62	0x3dffdca4	0.12493256
63	0x3dd514c1	0.10404349
64	0x3eb52f10	0.35387468
65	0x3e7b23e9	0.24525417
66	0x3f01287d	0.50452405
67	0x3f24ebb3	0.6442215
68	0xbcb712e8	-0.022347882
69	0x3e5013b9	0.20320024
70	0x3eb61587	0.355633
71	0xbef92914	-0.48664153
72	0x3ebf2ecc	0.3734039
73	0x3eb21407	0.34780905
74	0x3e8d23c3	0.27566347
75	0x3f000869	0.5001283
76	0xbef9efda	-0.48815805
77	0xbe6420d0	-0.22278142
78	0x3c426b78	0.011866443
79	0x3ce7b583	0.028284794
80	0xbe2c2260	-0.16809988
81	0xbe4945f9	-0.19655599
82	0x3e2d90ab	0.16949718
83	0xbf168291	-0.5879298
84	0x3cd5d6b0	0.026103348
85	0x3e166204	0.14685827
86	0x3eeb1652	0.45915467
87	0xbd83d417	-0.06436937
88	0x3eb42922	0.35187632
89	0x3e8e1645	0.27751365
90	0x3ebb6d3f	0.36606786
91	0x3f0f9a32	0.5609466
92	0x3e477638	0.1947869
93	0xbd8c33ce	-0.068458185
94	0x3e367fa1	0.17822124
95	0x3eead317	0.45864174
96	0x3dd481f2	0.103763476
97	0x3e8fd828	0.28094602
98	0xbebeb33c	-0.3724612
99	0xbf5dbc26	-0.86615217
100	0xbf05eccc	-0.5231445
101	0xbedfa7f6	-0.43682832
102	0x3a5887fa	0.0008260008
103	0x3d864427	0.06555968
104	0x3ead464f	0.33842704
105	0xbc81e88b	-0.015857955
106	0x3ca90c0a	0.020635623
107	0xbd4f04fb	-0.05054186
108	0xbf6fbfb2	-0.9365188
109	0xbf63478e	-0.8878106
110	0x3e77d57b	0.2420253
111	0x3d2173cf	0.039417084
112	0x3c183d77	0.009291998
113	0x3e074df2	0.13213328
114	0x3d213b41	0.03936315
115	0x3ecff742	0.4061833
116	0xbd89cae7	-0.06728154
117	0xbe59918f	-0.21246932
118	0xbd0a7755	-0.03380521
119	0xbe2ba3f9	-0.1676177
120	0xbe6a3eb4	-0.22875482
121	0xbdeb013d	-0.114748456
122	0xbcf7e661	-0.03026122
123	0xbe9850f3	-0.2974926
124	0xbea23e5b	-0.31688198
125	0xbf6172dd	-0.8806589
126	0xbd925627	-0.071453385
127	0xbde0b1a5	-0.10971383
128	0xbe2533d9	-0.1613306
129	0xbe1817cd	-0.1485283
130	0x3e9f2c8d	0.31088677
131	0xbe86c3be	-0.26321214
132	0x3ebd092a	0.36921054
133	0x3f4341ec	0.76272464
134	0x3e18fcd2	0.14940193
135	0x3f6f2853	0.93420905
136	0x3ef3f9a1	0.4765139
137	0x3f008bd9	0.5021339
138	0xbe80bb5b	-0.2514294
139	0x3d6c0126	0.057618283
140	0xbcb23cde	-0.02175754
141	0x3cb8b444	0.022546895
142	0xbf0fde94	-0.56199
143	0x3e6d3edc	0.2316851
144	0xbe4699a5	-0.19394548
145	0xbea7e677	-0.32793018
146	0xbe56ac14	-0.2096408
147	0xbf018c66	-0.50604856
148	0x3e03edab	0.12883632
149	0x3eee7b60	0.46578503
150	0xbc87dcee	-0.01658484
151	0x3e5d0773	0.21584873
152	0x3e4ad129	0.19806351
153	0x3eddc9b2	0.43317944
154	0x3f3e6f81	0.7438889
155	0x3f77dd30	0.9682188
156	0xbf12ec61	-0.57391936
157	0xbf1c67b3	-0.6109573
158	0xbdabbaed	-0.08385263
159	0x3ee12c91	0.43979314
160	0x3b118ab1	0.002220791
161	0x3d625888	0.05526021
162	0x3ed581b4	0.41700518
163	0x3f0500f1	0.5195456
164	0xbd9e99bb	-0.077441655
165	0x3d9ff0ed	0.07809625
166	0x3eb4acb6	0.35288018
167	0x3f2b2892	0.6685878
168	0xbec18b11	-0.37801412
169	0xbea8b270	-0.32948637
170	0xbefbaa94	-0.49153578
171	0xbe14d3a4	-0.1453386
172	0xbd5bee95	-0.053694326
173	0x3d9e118c	0.077181906
174	0xbdaa680f	-0.08320629
175	0xbf1fac47	-0.6237225
176	0xbef769b8	-0.48322845
177	0xbee008bd	-0.43756667
178	0xbe01d42a	-0.1267859
179	0x3ea1d894	0.31610548
180	0x3e3918b0	0.18075824
181	0x3ebee32e	0.372827
182	0x3e0580ae	0.13037369
183	0x3f507fe5	0.8144515
184	0xbe5e599b	-0.2171387
185	0x3daee89e	0.08540462
186	0x3dd39b75	0.103323855
187	0x3ec4e549	0.3845618
188	0xbeb2ce7a	-0.34923154
189	0xbf046163	-0.517111
190	0xbd27d8d1	-0.040978257
191	0xbea5f3e3	-0.32412633
192	0x3e5bb37c	0.21455187
193	0xbebcb39c	-0.3685578
194	0xbf17904c	-0.59204555
195	0xbf06c9f8	-0.5265193
196	0x3e02a084	0.12756544
197	0xbd8847f1	-0.06654347
198	0xbf61c166	-0.8818573
199	0x3e6beb7a	0.23039046
200	0xbec8abcf	-0.3919358
201	0xbec151a5	-0.37757602
202	0x3e66645a	0.22499219
203	0xbe955ce5	-0.29172435
204	0x3dcebdd3	0.100948
205	0x3e9ae6a8	0.30254102
206	0x3ee0cc07	0.4390566
207	0x3f4e161e	0.805025
208	0xbf217f06	-0.6308445
209	0xbf3786e1	-0.71690184
210	0xbe5125ad	-0.20424528
211	0x3e870fa4	0.2637912
212	0xbdd52e77	-0.10409253
213	0xbd0ef548	-0.034901887
214	0x3e5656bd	0.20931526
215	0x3f0f2a1b	0.5592362
216	0xbe10ac42	-0.14128211
217	0xbe98a720	-0.29815006
218	0xbd6938cf	-0.056938943
219	0xbeb838f4	-0.35980952
220	0xbe27d7b0	-0.16390872
221	0x3db6e91d	0.089311816
222	0x3ec71bb9	0.38888338
223	0x3f80b167	1.0054139
224	0xbdc7d213	-0.09756865
225	0xbed44820	-0.41461277
226	0xbed7f25c	-0.42177093
227	0xbf2f2ac3	-0.68424624
228	0xbd669a46	-0.05629947
229	0xbd7780aa	-0.060425438
230	0x3f44f2b2	0.76932824
231	0x3f50dae7	0.8158402
232	0xbd1b608e	-0.03793388
233	0xbe04bc62	-0.12962487
234	0xbf46cb0c	-0.77653575
235	0xbef0b4da	-0.4701298
236	0xbedd0bcd	-0.43173066
237	0xbf00099d	-0.5001467
238	0xbe13bab0	-0.14426684
239	0x3e83a8a1	0.2571459
240	0xbe11ba69	-0.14231266
241	0x3ef5001b	0.47851643
242	0xbde2466c	-0.11048588
243	0x3e0946e6	0.13405952
244	0x3efbee04	0.4920503
245	0x3f1dbada	0.6161324
246	0xbe603af9	-0.21897496
247	0x3ef1ae8a	0.47203475
248	0xbeec18a7	-0.46112558
249	0xbee0fbf4	-0.43942225
250	0x3cb8061f	0.022463856
251	0x3db28726	0.08717184
252	0xbed9313c	-0.42420375
253	0xbefb9130	-0.49134207
254	0xbe9f81e6	-0.31153792
255	0xbf258cec	-0.64668155

conv1.lin_r.bias f4 [64]
0	0x3eeb92ea	0.46010524
1	0x3ee3a6b1	0.44463113
2	0x3e078a5e	0.13236377
3	0xbf11b4f6	-0.5691675
4	0xbeacb737	-0.33733532
5	0x3e2b2c49	0.16716112
6	0x3f03c8fd	0.5147856
7	0xba26d699	-0.0006364375
8	0x3ed66bdf	0.41879174
9	0x3e7d2643	0.24721627
10	0x3ea77734	0.32708132
11	0x3f404dd7	0.75118774
12	0xbd8390f0	-0.06424129
13	0xbece3a03	-0.40278634
14	0x3c249187	0.010044462
15	0x3f254306	0.64555395
16	0x3e5c3cb0	0.21507525
17	0x3eaaa37b	0.3332785
18	0xbe830e43	-0.25596818
19	0xbd74cb36	-0.05976411
20	0xbd9ff105	-0.07809643
21	0x3e9c2614	0.304978
22	0xbe53a48c	-0.20668238
23	0xbe22ef93	-0.15911703
24	0xbe5dc17d	-0.21655841
25	0x3ef5550c	0.47916448
26	0x3f0a085e	0.5391902
27	0x3e509baa	0.20371881
28	0x3f2d1a78	0.67618513
29	0x3f1ba0dc	0.60792327
30	0x3e3a994b	0.18222539
31	0xbe83a44d	-0.2571129
32	0x3ddb3b16	0.10704629
33	0xbea89031	-0.3292251
34	0x3eabf3da	0.3358448
35	0x3eaf3225	0.34217945
36	0x3e6815e4	0.226646
37	0x3f608cb3	0.8771469
38	0xbebd13dc	-0.36929214
39	0xbf1d0708	-0.61338854
40	0xbe9d3d08	-0.30710626
41	0xbeea61cb	-0.45777735
42	0x3d187149	0.037217412
43	0x3dbeea5f	0.093220465
44	0x3ec591c0	0.3858776
45	0xbeb8ca41	-0.36091807
46	0xbcb3b2f4	-0.021935917
47	0xbe514b63	-0.20438914
48	0x3ee765a4	0.45194733
49	0x3e585436	0.21125874
50	0xbedada7c	-0.42744815
51	0xbe022f59	-0.12713374
52	0xbd328eb4	-0.043593124
53	0xbf2a585f	-0.66541094
54	0x3e68fb4f	0.22752117
55	0x3cde46a5	0.027133295
56	0x3ea2eac8	0.3181975
57	0xbe660f80	-0.2246685
58	0x3d51a20e	0.051179938
59	0x3f050419	0.5195938
60	0xbeda16b0	-0.42595434
61	0x3ef67809	0.48138455
62	0x3f12fa1c	0.57412887
63	0x3efcc77f	0.49370953

conv1.lin_edge.weight f4 [64, 2]
0	0xbd62d95c	-0.05538307
1	0xbd359547	-0.044331815
2	0xbd9a34d9	-0.07529611
3	0xbdb089d8	-0.086200416
4	0xbe8e170d	-0.2775196
5	0x3e107aab	0.14109294
6	0x3d4dbf52	0.050231285
7	0xbe3e6bfe	-0.18595883
8	0x3f1b0086	0.60547674
9	0x3d70020e	0.05859571
10	0x3d82cb49	0.0638643
11	0x3e035b86	0.12827882
12	0x3ebb929b	0.3663529
13	0x3ee32fa4	0.44372284
14	0xbe925177	-0.28577778
15	0xbdb2ce1d	-0.08730719
16	0xbdc2194a	-0.0947748
17	0xbd183470	-0.037159383
18	0xbc9793fd	-0.018503183
19	0xbe23a2de	-0.15980098
20	0x3e093f6b	0.13403098
21	0xbe79d1ed	-0.24396487
22	0xbeaf6a98	-0.34261012
23	0xbeba303d	-0.36364928
24	0xbd0e55da	-0.034749843
25	0xbdc508a4	-0.09620789
26	0x3cd26858	0.02568452
27	0xbccfe139	-0.02537595
28	0xbe5a075e	-0.21291873
29	0xbed1d13a	-0.4097994
30	0xbc4a486d	-0.012346369
31	0xbe0971e2	-0.13422349
32	0x3ed4e260	0.4157896
33	0x3e40e623	0.1883779
34	0xbed06fe1	-0.40710357
35	0xbe597ae1	-0.21238281
36	0x3ecf3a5f	0.4047422
37	0x3e3caebd	0.18426032
38	0x3e6aba54	0.22922641
39	0xbdd91a07	-0.106006674
40	0xbe4a0d3b	-0.1973161
41	0xbd7ce7af	-0.06174439
42	0x3f06f5f0	0.5271902
43	0x3eb41711	0.35173848
44	0xbe7687ce	-0.24075243
45	0xbe815e36	-0.2526719
46	0x3aa256fc	0.0012385543
47	0xbd2e92b1	-0.042620365
48	0x3d737f22	0.059447415
49	0xbd95fba2	-0.07323386
50	0xbea58352	-0.32326752
51	0x3eabce51	0.33555844
52	0x3edc054a	0.42972785
53	0x3e8cd590	0.27506685
54	0x3d4ed82a	0.05049912
55	0x3dc1ce69	0.09463198
56	0x3e504f28	0.20342696
57	0xbce2f195	-0.027703086
58	0x3c16174f	0.009160831
59	0xbe9e641c	-0.30935752
60	0xbec33118	-0.38123393
61	0x3e263622	0.16231588
62	0xbe0e71a2	-0.13910535
63	0xbee5a450	-0.44851923
64	0x3e14ffd2	0.14550713
65	0x3dca8752	0.098890916
66	0x3f053417	0.5203261
67	0x3f089c47	0.5336346
68	0xbebc2aa7	-0.3675129
69	0xbdc27760	-0.09495425
70	0x3e3eb71e	0.18624541
71	0xbe14f66c	-0.14547127
72	0xbbc0fd0b	-0.00588954
73	0xbe40aea4	-0.1881662
74	0xbea207b0	-0.3164649
75	0xbe5ebcd6	-0.21751723
76	0x3dfa6b71	0.12227524
77	0x3ec062a8	0.3757527
78	0xbcc0d557	-0.023539228
79	0x3e46509b	0.19366686
80	0xbcff1971	-0.031140061
81	0x3dce5351	0.10074485
82	0xbd87972d	-0.06620631
83	0x3d9d6405	0.07685093
84	0xbed7f913	-0.42182216
85	0xbe462c8d	-0.19352932
86	0xbe89cda9	-0.2691472
87	0xbd9cfad3	-0.076650284
88	0x3efb007a	0.490238
89	0x3d5bcbe7	0.053661253
90	0x3e59ffcb	0.21288984
91	0x3e37d4c8	0.17952263
92	0xbea75db0	-0.32688665
93	0xbe202be2	-0.1564174
94	0xbe442744	-0.19155604
95	0xbe3d98ab	-0.1851527
96	0xbe60e4f5	-0.2196234
97	0xbe96a647	-0.29423735
98	0x3de6d02c	0.112701744
99	0xbcf6512c	-0.030068003
100	0xbd86c1e7	-0.06579953
101	0x3c695054	0.014240343
102	0x3e1c8d51	0.15288283
103	0x3e84ca63	0.2593566
104	0x3ecaa241	0.39576915
105	0xbe1d7581	-0.15376855
106	0xbc21ce97	-0.009875915
107	0xbd80d88d	-0.06291304
108	0xbe421e76	-0.18956932
109	0xbc8e7eeb	-0.017394504
110	0x3ea5216f	0.3225207
111	0x3f066a16	0.52505624
112	0x3dfb4873	0.12269678
113	0xbe3e4686	-0.1858159
114	0xbee4b4ad	-0.44669095
115	0xbe30d844	-0.17269999
116	0x3e4a75a4	0.19771439
117	0xbe935669	-0.28776863
118	0x3e14ddb0	0.14537692
119	0x3e2f767b	0.1713504
120	0xbefdf2aa	-0.495992
121	0xbd4e36ca	-0.05034522
122	0xbf02f782	-0.51158917
123	0xbe4a7999	-0.19772948
124	0xbe684714	-0.22683364
125	0x3d0fbb0a	0.035090484
126	0xbe809b6c	-0.25118577
127	0x3e8679c8	0.26264787

conv2.att f4 [1, 1, 64]
0	0x3f314779	0.69249684
1	0x3f8c192c	1.0945182
2	0xbecf6b4e	-0.40511554
3	0xbe32b58f	-0.17452072
4	0x3f0614e0	0.523756
5	0xbda3d485	-0.07999519
6	0xbf3e3643	-0.74301547
7	0x3f3af2d1	0.7302676
8	0xbf101d20	-0.5629444
9	0xbef4875e	-0.47759527
10	0x3f1ba585	0.6079944
11	0x3e8bcccc	0.27304685
12	0x3ef80ef9	0.48448923
13	0x3e26e430	0.16297984
14	0x3ead9534	0.33902895
15	0x3e228f8d	0.15875073
16	0x3f0ba47b	0.5454785
17	0x3e97e0c4	0.2966367
18	0xbe8552f5	-0.26039854
19	0xbf15e20f	-0.58548063
20	0x3e6a4531	0.22877957
21	0x3ec49354	0.38393652
22	0x3f1d42aa	0.61429846
23	0x3fb14d33	1.3851684
24	0x3d5d86b9	0.05408356
25	0x3e14e4e9	0.14540447
26	0xbf03e9b1	-0.5152846
27	0xbe0d5ce7	-0.1380497
28	0xbec3e73e	-0.3826236
29	0xbf1fd65e	-0.62436473
30	0x3f0de1d1	0.55422693
31	0xbe20daca	-0.15708461
32	0x3df95bbd	0.12175701
33	0xbe676882	-0.2259846
34	0x3e3f86ed	0.18703814
35	0xbe0b624f	-0.1361172
36	0x3f4194bd	0.7561758
37	0x3eaeaaac	0.34114587
38	0x3eb56c26	0.35434073
39	0x3c07f61a	0.008298421
40	0xbe91eeda	-0.28502542
41	0xbeb6a4b3	-0.3567253
42	0xbe8f5de2	-0.28001314
43	0x3ef135e0	0.47111416
44	0x3f0521c9	0.5200468
45	0x3ef719d7	0.48261902
46	0xbd9483c6	-0.07251696
47	0x3f544dde	0.82931316
48	0xbf375e9a	-0.71628726
49	0xbe76da5d	-0.24106736
50	0x3e5bb4d3	0.21455698
51	0xbf17dc51	-0.5932055
52	0x3f83e92e	1.0305536
53	0x3eb92614	0.36161864
54	0xbeca6f52	-0.39538056
55	0x3f1f9e71	0.6235114
56	0x3fb8b9ad	1.4431664
57	0xbc031451	-0.008000449
58	0xbed95a54	-0.42451727
59	0x3f656cef	0.89619344
60	0x3c790925	0.015199934
61	0x3f04f054	0.5192921
62	0xbe808372	-0.25100285
63	0x3e77ae6a	0.24187627

conv2.bias f4 [64]
0	0x3d4b075b	0.04956756
1	0x3db8b224	0.09018353
2	0xbd00dcf3	-0.031460714
3	0x3e818f41	0.25304607
4	0xbdb6dcb9	-0.08928818
5	0xbe79d71d	-0.24398465
6	0xbd83d63b	-0.064373456
7	0xbe8a5dd4	-0.2702471
8	0xbdfed719	-0.1244337
9	0x3e09e558	0.13466394
10	0xbd552f85	-0.05204727
11	0xbdff4c67	-0.124657445
12	0xbdde5c90	-0.10857499
13	0xbd96b8b2	-0.073594466
14	0xbd077ab4	-0.033076003
15	0xbd82f5bc	-0.06394526
16	0xbd887a1f	-0.06663918
17	0xbd2a9ff0	-0.041656435
18	0xbe873ef6	-0.26415223
19	0xbec6cc13	-0.3882757
20	0x3de9659b	0.11396333
21	0xbe7a4c34	-0.24443132
22	0xbe0c7a27	-0.13718472
23	0xbe135dea	-0.14391294
24	0xbc63a6dd	-0.013894764
25	0xbd1eb529	-0.038746987
26	0xbd9e45ed	-0.07728181
27	0xbe8bfb06	-0.27339953
28	0xbed115e4	-0.40837014
29	0xbdaca0be	-0.08429097
30	0xbdcb93cc	-0.099402994
31	0xbe98b9f8	-0.29829383
32	0xbe04aedc	-0.12957329
33	0xbea00f42	-0.3126164
34	0xbe40ce99	-0.18828811
35	0x3daeee98	0.08541602
36	0xbe7b34be	-0.24531838
37	0xbcbfb290	-0.023400575
38	0xbdc20bab	-0.09474882
39	0xbe8f6634	-0.28007662
40	0x3de0db61	0.10979343
41	0xbe27341c	-0.16328472
42	0xbce3d437	-0.027811153
43	0x3e50f1b2	0.204047
44	0xbe8ea115	-0.2785727
45	0xbe4de056	-0.20105109
46	0xbe204c6f	-0.15654157
47	0x3ea83c9a	0.32858735
48	0xbe2d247a	-0.16908446
49	0xbe4fbb1a	-0.20286217
50	0x3daa465d	0.08314202
51	0x3cc3ff62	0.023925487
52	0x3cf06ccc	0.029348753
53	0xbd823bff	-0.063590996
54	0xbeaf3253	-0.34218082
55	0xbe1702eb	-0.14747207
56	0x3e5b4cf4	0.21416074
57	0xbe849ac7	-0.25899336
58	0xbe9e1c6b	-0.30881056
59	0xbd33fe42	-0.04394365
60	0xbe45c5a8	-0.19313681
61	0x3e2c08a1	0.16800167
62	0xbe7c2e78	-0.24627101
63	0xbe1daf4f	-0.15398906

conv2.lin_l.weight f4 [64, 64]
0	0xbd143697	-0.036184873
1	0xbcbadae4	-0.022809453
2	0x3c7b3089	0.015331396
3	0x3a137072	0.00056243606
4	0xbd8839ad	-0.06651626
5	0xbef2b7a2	-0.47405726
6	0x3dcb7fc6	0.0993648
7	0xbdc1b10f	-0.09457599
8	0xbe897904	-0.2685014
9	0xbeb7bcf3	-0.35886344
10	0xbf0c0152	-0.54689515
11	0xbebf63a7	-0.37380716
12	0xbed79a00	-0.4210968
13	0xbe86e799	-0.2634857
14	0xb8e798ab	-0.00011043375
15	0xbec89d9d	-0.3918275
16	0x3cde3f76	0.02712987
17	0xbec7936b	-0.38979658
18	0xbea1f21b	-0.31630024
19	0xbe44f1ac	-0.19232816
20	0xbdd7dbf0	-0.105399966
21	0x3dea7a19	0.114490695
22	0xbe1e9fb9	-0.15490617
23	0xbeab7bfa	-0.33493024
24	0xbd948eea	-0.07253821
25	0xbf57cb48	-0.8429456
26	0x3dd2e966	0.102984235
27	0xbf3b01d7	-0.7304968
28	0xbe249b71	-0.16074921
29	0x3e0eadbd	0.13933463
30	0xbcef99b2	-0.029248092
31	0xbe212777	-0.15737711
32	0x3ee28a4e	0.44246143
33	0x3e97beff	0.29637906
34	0xbee4c960	-0.44684887
35	0xbe8315c7	-0.25602552
36	0xbe0801a6	-0.13281879
37	0xbe64794a	-0.22311893
38	0xbeedaf9e	-0.46423048
39	0xbe9a5b60	-0.3014784
40	0xbeb23607	-0.34806845
41	0x3e0d8b04	0.13822562
42	0xbee06cb1	-0.43832925
43	0xbec09b7d	-0.37618628
44	0x3e4bc157	0.19897972
45	0x3e89a54a	0.26883918
46	0xbdd257a3	-0.10270622
47	0xbe80e300	-0.25173187
48	0x3eedd9d7	0.4645526
49	0xbefa45ed	-0.48881474
50	0xbe28ab65	-0.16471632
51	0xbe886809	-0.26641873
52	0x3d269785	0.040671844
53	0xbdf3feb1	-0.11913813
54	0xbdb12157	-0.08648937
55	0xbdbf765b	-0.093487464
56	0xbea3b686	-0.31975192
57	0x3bec5a07	0.0072128805
58	0xbdbc97d7	-0.09208649
59	0x3e63b141	0.22235586
60	0x3d630840	0.05542779
61	0xbeafde6d	-0.34349385
62	0xbf2d0496	-0.6758512
63	0xbebe61d5	-0.37184015
64	0xbf29fb15	-0.66398746
65	0xbec967df	-0.3933706
66	0xbe4479b6	-0.19187054
67	0x3db29ce8	0.08721334
68	0xbe784b47	-0.24247466
69	0xbf0602d0	-0.5234804
70	0x3d153528	0.036427647
71	0xbe298e10	-0.16558099
72	0xbd967dfb	-0.073482476
73	0xbea8c1e8	-0.3296044
74	0x3d9cbb28	0.07652885
75	0xbd92eec0	-0.07174444
76	0xbe995014	-0.29943907
77	0xbc9e0eeb	-0.019294223
78	0xbe4d26df	-0.2003436
79	0xbf336287	-0.70072216
80	0x3e75968a	0.23983207
81	0xbe34fafb	-0.17673866
82	0xbe31a8b7	-0.17349516
83	0xbec3f944	-0.38276112
84	0xbd28d581	-0.04121924
85	0xbef8371c	-0.48479545
86	0xbf309dc9	-0.6899076
87	0xbeee26b5	-0.46513906
88	0xbe421ff2	-0.18957499
89	0xbeddf968	-0.43354344
90	0xbe4d7606	-0.20064554
91	0xbf76b04a	-0.96362746
92	0x3d39980d	0.045311023
93	0xbe45cacf	-0.19315647
94	0xbe22f775	-0.1591471
95	0xbe1b92df	-0.15192746
96	0xbe81f800	-0.2538452
97	0xbdc482da	-0.095952705
98	0xbed829c5	-0.42219368
99	0xbe2b3d66	-0.1672264
100	0xbe4e1260	-0.20124197
101	0xbe954e97	-0.29161522
102	0xbe85743d	-0.26065245
103	0xbef05538	-0.46940017
104	0xbeb508c8	-0.35358262
105	0xbe31f00f	-0.17376731
106	0x3e2c4ce3	0.16826205
107	0xbea69fef	-0.32543895
108	0x3e9717e3	0.29510412
109	0xbf175d00	-0.5912628
110	0xbe5ad406	-0.21369943
111	0xbf22ce75	-0.6359628
112	0xbe0c05b5	-0.13674052
113	0xbf11edf0	-0.5700369
114	0x3ec24c59	0.37948874
115	0xbea76520	-0.3269434
116	0xbeba1d46	-0.3635046
117	0xbf0f5f36	-0.56004655
118	0x3e1f9f5c	0.15588135
119	0x3b9e4b99	0.0048307893
120	0x3dfeb157	0.12436169
121	0xbf580b8f	-0.84392637
122	0xbdd3b5c1	-0.10337401
123	0xbe0653ce	-0.13117906
124	0xbe8b7474	-0.27237284
125	0xbf20ae22	-0.62765706
126	0xbeadb18b	-0.33924517
127	0xbec39095	-0.38196245
128	0x3d4483fc	0.047977433
129	0xbdb3299c	-0.08748171
130	0xbe0e44a5	-0.13893373
131	0x3ecccdd5	0.40000787
132	0x3df188e5	0.11793689
133	0x380b73d1	3.3248045e-05
134	0x3f10ddda	0.5658852
135	0xbe97757c	-0.2958182
136	0xbe50c636	-0.20388111
137	0xbe7fe4da	-0.24989644
138	0x3e6dc984	0.23221403
139	0xbdb307b9	-0.08741707
140	0x3e84e25f	0.25953957
141	0x3d3e5c5d	0.046474803
142	0xbc85c701	-0.016330244
143	0xbd7ae067	-0.061249163
144	0x3e8dd012	0.27697808
145	0xbed9f011	-0.4256597
146	0x3e9d4a09	0.30720547
147	0x3ea1cb41	0.31600383
148	0xbf4391f4	-0.7639458
149	0xbde1b72b	-0.11021265
150	0x3d6d6c2e	0.057964496
151	0xbd8f06ae	-0.06983696
152	0x3db5cb9f	0.08876728
153	0x3e948ed5	0.29015222
154	0x3bec0084	0.00720221
155	0x3eabf437	0.3358476
156	0xbc638dcd	-0.013888788
157	0x3de361cc	0.11102638
158	0xbe950f04	-0.2911302
159	0x3d2c3cdf	0.04205024
160	0xbe12226d	-0.14270945
161	0x3e499682	0.1968632
162	0x3e1b2b53	0.15153246
163	0x3e3c7a07	0.18405925
164	0xbeba42ff	-0.3637924
165	0xbd09b6ee	-0.03362172
166	0xbec7bf40	-0.390131
167	0x3e898e79	0.2686651
168	0x3dc10f18	0.09426707
169	0xbe3b6e1b	-0.1830372
170	0xbe234c9e	-0.15947196
171	0xbd5edcca	-0.05440978
172	0x3e35a7bb	0.17739765
173	0xbdc8d464	-0.09806135
174	0x3dfca25a	0.123356536
175	0x3ea1add4	0.31577933
176	0xbd8f08f9	-0.06984133
177	0x3eaffb91	0.34371617
178	0xbf011fd7	-0.5043921
179	0xbe68d351	-0.22736861
180	0xbd78e8d3	-0.060768913
181	0x3e80c3e8	0.25149465
182	0xbee76800	-0.45196533
183	0xbe9fd91e	-0.31220335
184	0xbe057b34	-0.1303528
185	0x3e829778	0.25506186
186	0xbc854dd9	-0.016272472
187	0xbde3d913	-0.11125388
188	0x3d1fe0f5	0.039032895
189	0x3d288333	0.041140746
190	0x3c5e118e	0.01355399
191	0xbee21442	-0.4415608
192	0xbe55f8c6	-0.20895681
193	0x3e85d36f	0.26137874
194	0xbb590100	-0.0033112168
195	0x3d8cdad2	0.06877674
196	0xbda418a4	-0.08012512
197	0x3ddd17b4	0.10795537
198	0x3ecaceb2	0.3961082
199	0x3d1d1495	0.038349707
200	0x3e4e6d9f	0.20159005
201	0x3d612dc6	0.054975294
202	0xbe2e9742	-0.17049888
203	0xbe2ba959	-0.1676382
204	0x3cbe96a6	0.023265194
205	0x3e67f940	0.22653675
206	0x3e0cf9e7	0.13767205
207	0xbe7b1899	-0.24521102
208	0x3ebc4383	0.36770257
209	0xbd69e1c8	-0.057100087
210	0x3f1fed53	0.62471503
211	0x3e548edd	0.20757623
212	0xbf0f90e5	-0.56080467
213	0xbe086f64	-0.13323742
214	0xbd0e38d4	-0.034722164
215	0xbc4504c9	-0.012025067
216	0x3e99cfd0	0.3004136
217	0x3e13867b	0.14406769
218	0xbd45aa7f	-0.0482583
219	0x3f76c1be	0.9638938
220	0xbe0704ee	-0.13185474
221	0x3dc87e9e	0.09789775
222	0xbd1a2095	-0.03762873
223	0x3dd198c6	0.10234217
224	0x3f27ed5c	0.65596557
225	0xbe92d2e0	-0.2867651
226	0x3e57c4af	0.21071123
227	0x3d42b873	0.047539186
228	0xbe94f2ae	-0.290914
229	0x3e5aa85a	0.21353284
230	0xbe3ceaf2	-0.18449
231	0xbbbac756	-0.005700032
232	0x3ea27161	0.31727126
233	0x3cb3b236	0.021935564
234	0xbb0dde14	-0.0021647261
235	0xbe895a7c	-0.26826847
236	0x3c52af4b	0.012859176
237	0xbd610b1f	-0.054942247
238	0x3d9741e2	0.07385613
239	0x3ed14223	0.4087077
240	0xbe449e5c	-0.19201034
241	0x3e67bdd1	0.22631003
242	0x3e006aeb	0.12540786
243	0xbe8828ca	-0.2659362
244	0x3e86daf7	0.26338932
245	0xbdcb24a4	-0.09919098
246	0xbed388e9	-0.41315392
247	0xbe04f4a2	-0.12983945
248	0x3da6b0f5	0.081392206
249	0xbddd612e	-0.10809551
250	0x3e4dfe1e	0.2011647
251	0x3ea254f8	0.3170545
252	0x3eb42c13	0.35189876
253	0x3ebbc43a	0.36673146
254	0xbe2f39c3	-0.17111878
255	0x3e6eee0e	0.23332998

conv2.lin_l.bias f4 [64]
0	0xbc1cca08	-0.009569652
1	0xbe1e8b7d	-0.15482898
2	0xbdd17ee9	-0.10229284
3	0xbde35176	-0.11099522
4	0x3d057906	0.03258612
5	0xbe6d8790	-0.23196244
6	0xbe272817	-0.16323887
7	0xbd7f199b	-0.06228028
8	0xbea3461b	-0.31889424
9	0xbe96f52f	-0.29483935
10	0xbd8100a3	-0.062989496
11	0xbd57edc2	-0.052716978
12	0xbdebdf89	-0.11517245
13	0x3d1455f5	0.036214788
14	0xbe106c0f	-0.14103721
15	0xbd39af1c	-0.045333013
16	0xbdb143cb	-0.086555086
17	0xbca3e0a9	-0.020004587
18	0xbec05e08	-0.3757174
19	0xbed43f08	-0.4145434
20	0x3c49eafd	0.012324092
21	0xbb27b1c1	-0.0025588127
22	0x3ddb5f96	0.10711591
23	0x3e4d6f06	0.20061883
24	0xbe4df029	-0.20111145
25	0x3e178427	0.14796506
26	0xbe4ef120	-0.2020917
27	0xbea718cb	-0.32636103
28	0xbeb44c4b	-0.35214457
29	0xbe16b78a	-0.14718452
30	0x3d5c1761	0.053733233
31	0xbe90e866	-0.28302306
32	0xbe62b9da	-0.22141209
33	0xbe9299ac	-0.28632867
34	0xbc23f238	-0.01000648
35	0xbb461380	-0.0030224025
36	0x3d85c2d6	0.06531303
37	0xbe0300ef	-0.12793325
38	0xbdf10370	-0.11768234
39	0xbe786acc	-0.2425949
40	0xbe191858	-0.14950693
41	0xbe5b6606	-0.21425638
42	0x3b552438	0.0032522809
43	0x3e5ac4d0	0.2136414
44	0xbeb57f2e	-0.35448593
45	0xbe987b73	-0.29781684
46	0xbe3c6690	-0.183985
47	0xbe6573d4	-0.22407466
48	0xbe26419d	-0.16235967
49	0xbe3967a0	-0.18105936
50	0x3e0b3f12	0.13598278
51	0xbb9d21f8	-0.004795309
52	0x3caf20f4	0.021378018
53	0xbe781322	-0.24226049
54	0xbec78848	-0.38971162
55	0x3e226dc1	0.1586218
56	0x3eb6dc61	0.3571501
57	0xbe53e8a7	-0.20694219
58	0xbea2746d	-0.3172945
59	0x3c8995da	0.016795088
60	0xbe8104e5	-0.25199047
61	0xbb441494	-0.0029919492
62	0xbec1af4b	-0.3782905
63	0xbe16a5b9	-0.14711656

conv2.lin_r.weight f4 [64, 64]
0	0x3e91fe59	0.28514364
1	0xbd554747	-0.05206993
2	0x3f136b45	0.57585555
3	0xbdac27da	-0.084060386
4	0x3e71dfb6	0.23620495
5	0x3eaa9e31	0.33323815
6	0x3d756798	0.059913248
7	0x3e530fc9	0.2061149
8	0xbd096d6c	-0.03355162
9	0x3cd143cd	0.025545025
10	0xbe1f4e9f	-0.15557335
11	0x3cf6bc9f	0.030119238
12	0xbee20faa	-0.44152576
13	0xbeb9571e	-0.36199278
14	0xbe959117	-0.29212257
15	0x3e953a84	0.29146206
16	0x3ca098bc	0.01960408
17	0xbe372c0e	-0.178879
18	0x3d7f6a1f	0.062357064
19	0xbe8c70e3	-0.27429876
20	0xbeaffb17	-0.34371254
21	0x3ea06ce9	0.31333092
22	0x3e4d1111	0.20026042
23	0x3e2ff635	0.17183764
24	0xbda39ae0	-0.079885244
25	0x3ecc9249	0.39955357
26	0x3e4e525d	0.20148607
27	0x3e0e1108	0.13873684
28	0x3ec28a39	0.3799608
29	0x3e6f0a1e	0.23343703
30	0x3e3b7f28	0.18310225
31	0x3ec13584	0.37736142
32	0x3e8cf4e0	0.27530575
33	0x3eaafd23	0.33396253
34	0x3ee3b3b6	0.44473046
35	0x3e144b9a	0.14481965
36	0xbdab3b2b	-0.08360895
37	0x3e115878	0.14193904
38	0xbdb5b415	-0.088722385
39	0x3de7db8d	0.11321173
40	0xbeb51b00	-0.35372162
41	0x3e2b478c	0.16726512
42	0x3f018acc	0.5060241
43	0xbd5fc515	-0.05463131
44	0x3dd5d1d5	0.10440413
45	0x3df3ca4c	0.119038194
46	0x3eba5e74	0.36400187
47	0x3de8fa69	0.11375887
48	0xbe2cb85e	-0.16867206
49	0x3dc8e127	0.098085694
50	0x3e2e45d1	0.1701882
51	0x3ea5abcf	0.32357642
52	0x3e052a1a	0.13004342
53	0xbecfd21b	-0.40589985
54	0x3e5ac0d7	0.21362625
55	0x3f2e2ec6	0.6804012
56	0x3e435065	0.19073637
57	0x3d504e97	0.0508562
58	0x3e821955	0.25409952
59	0x3d27b8a5	0.040947575
60	0xbd3ba510	-0.045811713
61	0x3eac5de5	0.33665386
62	0xbdeb84dc	-0.1149995
63	0xbed3eb48	-0.41390443
64	0x3f08bdc5	0.53414565
65	0x3eba5e4e	0.36400074
66	0xbead66ac	-0.33867395
67	0xbe05df8d	-0.13073559
68	0xbe17408e	-0.1477072
69	0x3e9d3481	0.3070412
70	0x3df9373f	0.121687405
71	0x3ea3ecc7	0.32016584
72	0x3e226930	0.15860438
73	0x3ec7e4f6	0.3904187
74	0x3f2f1f58	0.684072
75	0x3e85caaf	0.26131198
76	0x3f8f78be	1.1208723
77	0x3d10e716	0.03537663
78	0x3eac204e	0.33618397
79	0x3f0880ff	0.5332183
80	0xbe84cd94	-0.25938094
81	0x3f0327c2	0.5123254
82	0x3ef576e2	0.47942263
83	0x3e992a26	0.2991497
84	0x3d94002b	0.072265945
85	0xbe33fb35	-0.17576297
86	0x3e1c52d3	0.1526597
87	0x3f2cbabf	0.6747245
88	0x3eb04489	0.34427288
89	0x3e909806	0.28240985
90	0x3de6601c	0.112488
91	0x3f08452f	0.53230566
92	0xbee4f14e	-0.4471535
93	0xbdc7ef2e	-0.09762417
94	0x3d77f623	0.06053747
95	0x3d0c8cbf	0.034313913
96	0xbf010dfe	-0.50411975
97	0xbe967813	-0.29388484
98	0x3e0c4c8d	0.13701077
99	0x3ea673ea	0.3251031
100	0x3eca9f90	0.39574862
101	0x3e4185dc	0.1889872
102	0x3ebf268d	0.373341
103	0x3f018c06	0.50604284
104	0x3eb96e03	0.36216745
105	0x3e43005f	0.1904311
106	0xbef9771a	-0.4872368
107	0x3f2fbf61	0.68651396
108	0xbf06725c	-0.5251825
109	0x3e957a6f	0.29194972
110	0x3f286a34	0.65787053
111	0x3f5c15bf	0.8597068
112	0xbe5e2a20	-0.21695757
113	0x3f2c23d0	0.67242146
114	0x3d99360d	0.074810125
115	0x3e867644	0.26262105
116	0xbe02310e	-0.12714025
117	0x3f16a9fd	0.5885313
118	0x3e0b8347	0.13624297
119	0xbf198721	-0.59971815
120	0xbe690789	-0.2275678
121	0x3f0bfbff	0.5468139
122	0xbead14a5	-0.33804813
123	0xbe39fc9b	-0.18162768
124	0x3ecf6518	0.40506816
125	0x3f13f197	0.5779051
126	0x3e42fe65	0.19042356
127	0x3e5acb5f	0.21366642
128	0xbe6417e1	-0.22274734
129	0xbdf1e87b	-0.1181192
130	0xbeac98fd	-0.3371047
131	0x3eb72370	0.35769224
132	0xbefce6cd	-0.49394837
133	0xbd823c79	-0.063591905
134	0xbebce221	-0.36891273
135	0xbe0b73ca	-0.13618389
136	0xbe9f6139	-0.31128863
137	0x3e75b45a	0.2399458
138	0x3e6e5ed5	0.23278363
139	0xbec54a5e	-0.385333
140	0xbe63c2f0	-0.22242332
141	0x3da52733	0.08064117
142	0x3eb014b1	0.34390786
143	0x3c879bd7	0.016553802
144	0xbd7e3452	-0.062061615
145	0xbcacbd0e	-0.021086242
146	0xbf1400e0	-0.57813835
147	0xbd2f7833	-0.04283924
148	0x3e23b1d7	0.1598581
149	0x3d218f50	0.039443314
150	0xbe7446ea	-0.23855177
151	0xbea5ff12	-0.32421166
152	0x3e6b433c	0.22974867
153	0x3e82a16f	0.2551379
154	0xbd3232d8	-0.04350552
155	0xbec137df	-0.3773794
156	0xbddf90ab	-0.10916265
157	0x3e53416e	0.20630428
158	0xbaad0fdb	-0.0013203578
159	0x3e83352e	0.2562651
160	0xbd2267d8	-0.039649814
161	0xbdac8543	-0.08423855
162	0xbce96e4c	-0.028494976
163	0xbec46bd6	-0.38363522
164	0x3d8e33e7	0.06943493
165	0xbe612086	-0.21985063
166	0xbe8f342a	-0.27969486
167	0xbefc32ec	-0.492576
168	0x3d82279e	0.06355213
169	0x3e6ce981	0.2313595
170	0xbd7e8395	-0.062137205
171	0xbd053796	-0.032523714
172	0xbe499c06	-0.19688424
173	0xbe3c0075	-0.1835955
174	0x3e291a67	0.16513978
175	0xbe1d57d2	-0.15365532
176	0xbe050593	-0.12990408
177	0xbde3faf5	-0.11131851
178	0xbe6778a3	-0.22604613
179	0xbe60ca48	-0.21952164
180	0xbe30932f	-0.17243646
181	0xbe50db09	-0.20396055
182	0xbd0d90cb	-0.034561913
183	0xbd320c2a	-0.04346863
184	0xbf238bab	-0.6388499
185	0xbf196cd8	-0.5993171
186	0xbe36d71e	-0.17855498
187	0xbe1b359b	-0.15157168
188	0xbee1464b	-0.43998942
189	0xbee6fcf2	-0.45114857
190	0xbd903b20	-0.07042527
191	0x3d11b5af	0.035573658
192	0x3e91a221	0.28444007
193	0x3e219a47	0.15781508
194	0xbec0c512	-0.37650353
195	0x3de9c4e1	0.11414505
196	0xbef47ef1	-0.477531
197	0x3e69653d	0.22792526
198	0xbd86df88	-0.06585604
199	0xbd98f9ec	-0.07469544
200	0x3e56e3a5	0.20985277
201	0x3e2c6d81	0.16838647
202	0xbdbc91ef	-0.09207522
203	0xbe05af4a	-0.13055149
204	0xbe8a785d	-0.27044955
205	0x3e48ede0	0.19621992
206	0x3e81ca93	0.25349864
207	0xbe35f584	-0.17769438
208	0x3d6adcb9	0.057339404
209	0x3ddeb406	0.108741805
210	0x3ecbea6b	0.39827284
211	0xbd84c987	-0.06483751
212	0xbe731aa4	-0.23740631
213	0xbb7b1be5	-0.0038316187
214	0x3e16a506	0.14711389
215	0x3d0bf3f2	0.03416819
216	0x3e86de73	0.2634159
217	0x3dcd1d68	0.100153744
218	0xbe029847	-0.12753402
219	0xbed77ca7	-0.4208729
220	0xbd257325	-0.040393014
221	0x3e2abf3f	0.16674517
222	0xbea3045f	-0.31839272
223	0x3e4534c2	0.19258407
224	0xbe875ffe	-0.26440424
225	0xbdd4c4e4	-0.103891164
226	0xbdd544ee	-0.10413538
227	0x3e6c9fa8	0.23107779
228	0xbedd1be5	-0.43185344
229	0x3e383f8b	0.1799299
230	0xbe9932c8	-0.29921556
231	0x3e3b132d	0.18269034
232	0xbe258c3a	-0.16166773
233	0x3e33c796	0.17556605
234	0x3e3bf2a9	0.18354286
235	0xbebb1e49	-0.36546543
236	0x3e34b24d	0.17646141
237	0x3d709945	0.05873992
238	0x3ea14ded	0.31504765
239	0x3e852013	0.26001033
240	0x3e37b7a0	0.17941141
241	0x3da909ae	0.082537994
242	0xbd9bd599	-0.076091
243	0x3e486b83	0.19572262
244	0x3e31edeb	0.17375915
245	0x3e2718ce	0.16318056
246	0xbdf557f7	-0.119796686
247	0xbd8918be	-0.06694172
248	0x3e6420c7	0.22278129
249	0x3e66f28d	0.22553463
250	0x3e8d0288	0.27540994
251	0xbe723ccc	-0.23656005
252	0xbe0bc321	-0.13648655
253	0xbc8c5f6f	-0.01713535
254	0xbeb5f94a	-0.35541755
255	0xbeda9254	-0.42689764

conv2.lin_r.bias f4 [64]
0	0x3eaa4277	0.33253834
1	0x3e227eaa	0.15868631
2	0xbdfa45de	-0.12220357
3	0xbe048ecf	-0.12945102
4	0xbea45f95	-0.32104173
5	0xbe8587f3	-0.26080284
6	0x3e17e5ca	0.14833751
7	0x3d214a4d	0.0393775
8	0xbe8bb87a	-0.27289182
9	0xbeabace7	-0.33530352
10	0x3f02264b	0.5083968
11	0xbe539a21	-0.20664264
12	0x3e50cd08	0.20390713
13	0x3e4683bf	0.19386195
14	0xbdb38602	-0.08765794
15	0xbe8eccfc	-0.27890766
16	0xbcb03f51	-0.021514567
17	0x3d2d8ada	0.042368747
18	0x3dad4a8b	0.084614836
19	0xbe8564ec	-0.2605356
20	0x3e14d818	0.14535558
21	0x3e8598d6	0.26093167
22	0x3e9f2dee	0.3108973
23	0x3f869c92	1.0516531
24	0xbe8072b8	-0.25087523
25	0xbde26f33	-0.11056366
26	0x3df0e22e	0.1176189
27	0xbe05080e	-0.12991354
28	0xbddfcd1d	-0.10927794
29	0x3d3161dd	0.04330622
30	0x3eaf547d	0.34244147
31	0xbdace505	-0.084421195
32	0x3e9afc29	0.30270508
33	0xbe1888cf	-0.14895938
34	0x3ec8e7ae	0.39239258
35	0xbcbe6684	-0.023242243
36	0x3eadf77f	0.33977887
37	0x3d957965	0.07298545
38	0xbe5c9bbc	-0.21543783
39	0xbddf3a6b	-0.10899814
40	0xbb7c7dee	-0.0038527208
41	0xbd861785	-0.06547455
42	0xbde823b4	-0.11334935
43	0xbd8a6e7b	-0.06759354
44	0xbe8c992f	-0.2746062
45	0xbe829117	-0.2550132
46	0xbe1baac7	-0.15201865
47	0x3d4e1870	0.050316274
48	0x3e0f1634	0.13973314
49	0xbb97bcf7	-0.0046306807
50	0x3ec29227	0.3800213
51	0xbdb5604e	-0.08856259
52	0x3edd3dc2	0.4321118
53	0xbc82605d	-0.01591509
54	0xbbc49705	-0.0059994482
55	0x3ecee517	0.40409157
56	0x3f8f795c	1.1208911
57	0xbe438dea	-0.19097105
58	0xbdb4841d	-0.08814261
59	0x3f3a6034	0.72803044
60	0xbe483ad1	-0.19553687
61	0x3d5e65db	0.054296356
62	0x3e3952df	0.18098019
63	0x3ea29b68	0.3175919

conv2.lin_edge.weight f4 [64, 2]
0	0x3c9f3645	0.019435057
1	0xb985f51f	-0.00025550366
2	0x3ddb0c24	0.10695675
3	0x3e437cba	0.19090548
4	0x3c1a1acf	0.009405806
5	0x3e2daf39	0.16961373
6	0x3dd03ced	0.10167871
7	0x3ed88514	0.4228903
8	0xbe60478e	-0.21902296
9	0x3bcca9e1	0.006245837
10	0xbdd87ad6	-0.10570304
11	0x3e94dab9	0.29073122
12	0xbec4e5ea	-0.3845666
13	0xbed9c21d	-0.4253091
14	0x3da320fe	0.07965277
15	0x3dfd744b	0.12375697
16	0x3e1cc6f2	0.15310267
17	0x3e3b7589	0.18306555
18	0x3e6f6734	0.23379213
19	0x3d8aedc7	0.06783634
20	0x3ef33ceb	0.47507414
21	0x3e683123	0.22674994
22	0x3f0495b1	0.5179091
23	0x3e0ac74d	0.1355259
24	0x3e097a0e	0.13425466
25	0xbd209a94	-0.039209917
26	0xbd73b5e3	-0.059499633
27	0xbe3cdc28	-0.18443358
28	0x3e71425a	0.23560467
29	0x3e251806	0.16122445
30	0x3e5b113f	0.21393298
31	0xbddd2596	-0.107981846
32	0x3ea119ad	0.31464902
33	0x3eb44d2a	0.35215122
34	0x3cfc5460	0.030801952
35	0xbdb8f4a9	-0.0903104
36	0xbdad146e	-0.08451162
37	0xbe2190e3	-0.15777926
38	0x3ecea306	0.40358752
39	0x3d9adc91	0.07561601
40	0x3e59be0b	0.21263902
41	0x3d943de2	0.07238366
42	0xbe9118d7	-0.28339264
43	0xbe8d3697	-0.2758071
44	0xbe9dbd08	-0.30808282
45	0xbe58d1df	-0.2117381
46	0x3e035be5	0.12828024
47	0xbdeef606	-0.11668019
48	0x3da30756	0.079603836
49	0x3de1a51f	0.110178225
50	0xbe8aa5e6	-0.27079695
51	0xbea4c7d3	-0.32183704
52	0xbefefe9b	-0.49803624
53	0xbd0f7866	-0.03502693
54	0x3e68a56c	0.22719353
55	0x3e0f6a5e	0.1400542
56	0xbd0a0e94	-0.03370531
57	0x3eff0852	0.49811035
58	0xbef4bb69	-0.47799233
59	0xbd9806e5	-0.0742319
60	0xbee03d0d	-0.43796578
61	0xbde206e7	-0.11036473
62	0x3ea26cf4	0.3172375
63	0x3dc75442	0.09732868
64	0x3ece2961	0.40265945
65	0x3e6395c3	0.22225098
66	0x3d8f1344	0.069860965
67	0x3e9d2857	0.3069484
68	0xbe0b3a22	-0.13596395
69	0xbca43e0c	-0.020049118
70	0x3ed16c34	0.40902865
71	0x3e16d3b6	0.14729199
72	0xbe91ed4a	-0.2850135
73	0xbe5a5018	-0.21319616
74	0x3c17e9e7	0.009272075
75	0x3e5925d8	0.21205842
76	0xbe3f84bc	-0.18702978
77	0xbe13512d	-0.14386435
78	0xbd8368ed	-0.064164974
79	0x3e05a165	0.13049848
80	0xbe7e7fb9	-0.2485341
81	0x3e948e73	0.2901493
82	0x3d4664bb	0.048435908
83	0xbcb3b5ca	-0.02193727
84	0x3e9b75e3	0.30363378
85	0x3e98f341	0.29873088
86	0x3e907e77	0.28221485
87	0x3ec49a38	0.3839891
88	0x3eea31b0	0.45741034
89	0x3ec8a078	0.39184928
90	0x3f00d58c	0.50325847
91	0x3ec6813c	0.38770473
92	0xbe3fc989	-0.18729223
93	0x3def120e	0.116733655
94	0x3f038ccf	0.5138673
95	0x3eae3d34	0.3403107
96	0xbec42482	-0.38309103
97	0xbecdaff7	-0.40173313
98	0x3b4c6118	0.0031185802
99	0x3ea28f63	0.3175002
100	0x3e8aba40	0.27095222
101	0x3d0b86f1	0.034064237
102	0x3ebd7cf5	0.37009397
103	0x3ec8ee51	0.3924432
104	0xbe967ce5	-0.29392162
105	0xbc0a71b5	-0.008449961
106	0x3ec3950b	0.38199648
107	0x3e9e0b1d	0.30867854
108	0xbdc5c7da	-0.09657259
109	0xbe98e178	-0.2985952
110	0xbed745ca	-0.42045432
111	0xbeeddb25	-0.46456257
112	0x3e4205b1	0.18947484
113	0xbe3a14f3	-0.18172054
114	0xbe41ba68	-0.18918765
115	0x3d82a948	0.06379944
116	0x3eb1cdd8	0.3472736
117	0x3e30b8d6	0.1725801
118	0x3e928036	0.28613442
119	0x3d81976b	0.06327709
120	0xbed0efb6	-0.40807885
121	0xbdbefde6	-0.09325771
122	0x3e88a47e	0.26687998
123	0x3ec95abd	0.3932704
124	0x3d4f4d8f	0.050611075
125	0xbeb109f7	-0.34577915
126	0xbf1b00ee	-0.60548294
127	0xbf02dd21	-0.51118666

fc.weight f4 [2, 64]
0	0x3c82fbec	0.015989266
1	0x3e051b0f	0.12998603
2	0x3e04f655	0.12984593
3	0x3ec83f09	0.39110592
4	0x3daad30f	0.083410375
5	0xbe12ed3d	-0.14348312
6	0xbeac803e	-0.3369159
7	0xbd85b6e1	-0.06529022
8	0x3e52686d	0.20547648
9	0x3ce17553	0.027521765
10	0x3e691239	0.22760858
11	0xbe21c096	-0.15796122
12	0x3c0c5f03	0.008567574
13	0x3d13c5ec	0.036077425
14	0x3e60dc69	0.2195908
15	0x3d82ac78	0.06380552
16	0x3e4da99a	0.20084229
17	0xbd521366	-0.05128803
18	0xbe822e36	-0.2542588
19	0x3d774fba	0.060378768
20	0xbdae31d0	-0.08505595
21	0x3ccf23d3	0.025285637
22	0x3d6a4d5a	0.057202674
23	0xbca92963	-0.020649618
24	0x3d596a48	0.053079873
25	0x3e8faad0	0.28060007
26	0xbe55775d	-0.20846315
27	0x3dc60383	0.096686386
28	0xbe549d59	-0.20763148
29	0xbe7c93ba	-0.24665728
30	0xbde11e47	-0.10992103
31	0xbe395ef0	-0.18102622
32	0xbd904ddb	-0.070461
33	0xbe93eea9	-0.2889302
34	0x3e2cea78	0.16886318
35	0x3ebdcb5b	0.3706921
36	0x3dd00a39	0.101582
37	0x3bcdc310	0.006279357
38	0x3de31410	0.11087811
39	0x3be0b52d	0.0068575353
40	0x3e865bd5	0.26241937
41	0x3d1b400c	0.037902877
42	0x3bec313a	0.0072080167
43	0x3d8c0283	0.068364166
44	0x3c91f96b	0.017819127
45	0x3af3759a	0.0018574477
46	0x3dcb9dd2	0.09942211
47	0x3e6bff26	0.2304655
48	0xbda3796f	-0.07982146
49	0xbbd5e6e3	-0.006527768
50	0x3dbc6166	0.09198265
51	0x3e19a476	0.15004143
52	0x3e0f6037	0.14001547
53	0x3d0f7e83	0.03503276
54	0x3da93b7c	0.08263299
55	0xbda4ce87	-0.080472045
56	0x3ec9b9f2	0.39399678
57	0x3bc95bd9	0.0061449823
58	0xbe0cffcb	-0.13769452
59	0xbe8fb16e	-0.28065056
60	0xbd189b7b	-0.037257653
61	0x3dcff2e0	0.101537466
62	0x3d300032	0.042968936
63	0xbd58dd80	-0.052945614
64	0xbdfb3fce	-0.12268029
65	0xbc0d0140	-0.008606255
66	0xbe229c1e	-0.15879866
67	0xbea204ab	-0.31644186
68	0x3d5925d1	0.05301458
69	0x3e0f8f5a	0.14019528
70	0x3e0abd29	0.13548721
71	0xbd32b888	-0.043633014
72	0xbe8de957	-0.27717087
73	0xbe124d07	-0.14287196
74	0xbe7da3bc	-0.24769491
75	0x3dbcd888	0.092209876
76	0xbdd48da8	-0.10378581
77	0xbc897e4f	-0.016783861
78	0x3cc084c3	0.023500806
79	0xbe387ed7	-0.18017136
80	0x3cdcd322	0.026956145
81	0xbdf9cab7	-0.12196868
82	0x3dab4f3f	0.08364724
83	0xbdabdaff	-0.083913796
84	0xbc7c57c8	-0.015401788
85	0xbe309bd5	-0.17246945
86	0x3ddfe53b	0.10932394
87	0xbced620f	-0.028977422
88	0xbcb84e62	-0.022498313
89	0xbe8a75ac	-0.27042902
90	0x3e7b0f70	0.24517608
91	0x3b04f8fb	0.0020290005
92	0x3d33b0bf	0.04386973
93	0x3e629b99	0.22129668
94	0x3dad70fb	0.08468815
95	0x3e08cbf1	0.13359047
96	0xbd11915e	-0.035539024
97	0x3d8e51a0	0.069491625
98	0xbe2275e8	-0.1586529
99	0xbebc33b2	-0.3675819
100	0x3cfd2b9b	0.030904582
101	0x3bbf7498	0.0058427565
102	0x3dd312ea	0.10306342
103	0xbd437cbf	-0.04772639
104	0xbe99cd70	-0.3003955
105	0xbca15e19	-0.01969819
106	0x3b7610db	0.0037546668
107	0xbe7677af	-0.24069093
108	0x3d6dd597	0.058065023
109	0xbdcb791e	-0.09935211
110	0xbd93a7d9	-0.07209749
111	0xbdb27548	-0.08713776
112	0x3e31cf53	0.17364244
113	0xbe0ebf67	-0.13940202
114	0xbe8ad53f	-0.2711582
115	0xbe3dfd54	-0.18553668
116	0xbe0d3f60	-0.13793707
117	0x3c555b8b	0.013022314
118	0x3e0eecc6	0.1395751
119	0xbcf30c57	-0.02966897
120	0xbeaef086	-0.3416788
121	0x3da1638c	0.07880315
122	0x3e713d9a	0.23558655
123	0x3e8e31dc	0.27772415
124	0x3aeed943	0.0018222708
125	0xbe1e27e4	-0.15444905
126	0x3dd35b89	0.10320193
127	0x3e06aa7f	0.13150977

fc.bias f4 [2]
0	0xbde1d651	-0.11027206
1	0x3d9c3634	0.07627526
