saved_models/dgat5.pt (torch, 42878 bytes, 16 tensors)

conv1.att f4 [1, 1, 64]
0.021387313 -0.05382518 -0.37389183 -0.38608283 0.11320419 0.7779391 0.2153881 0.33723173
-0.3460356 0.32287544 -0.6585031 -0.23088998 -0.40662843 -0.22267862 -0.37759125 0.27048665
-0.7622012 0.35432827 0.529465 -1.0141771 0.4349004 0.015480701 0.2407753 -0.5058956
-0.43639317 0.4428576 0.63238835 -0.84600115 0.40803346 0.25068533 -0.47455126 0.59416294
-0.9225781 -0.35625526 0.41548476 0.6408687 -0.8531388 0.39423144 -0.6282755 -0.44243288
-0.4190694 0.20260647 0.14832045 -0.4909238 -0.23243435 -0.12094288 -0.6693696 0.3080248
-0.6030159 -0.6627386 0.6297549 0.2939348 -0.6354255 0.50762105 -0.32930452 -0.46736243
0.17539726 -0.07588397 0.5035565 -1.132685 -1.047597 -0.6414891 -0.19969903 -0.14379703
00000000: 7234 af3c cb77 5cbd c06e bfbe a6ac c5be
00000010: 99d7 e73d 0427 473f b38e 5c3e a3a9 ac3e
00000020: 942b b1be ee4f a53e a993 28bf 6c6e 6cbe
00000030: 9a31 d0be dd05 64be a453 c1be 3a7d 8a3e
00000040: 9e1f 43bf 846a b53e 058b 073f 8ed0 81bf
00000050: 44ab de3e c4a2 7d3c cd8d 763e 6082 01bf
00000060: ed6e dfbe 3bbe e23e 34e4 213f 8893 58bf
00000070: c3e9 d03e d459 803e 62f8 f2be 101b 183f
00000080: 142e 6cbf 1767 b6be 6bba d43e f90f 243f
00000090: 4e67 5abf b4d8 c93e aad6 20bf 9086 e2be
000000a0: 4490 d6be 1278 4f3e 51e1 173e 5d5a fbbe
000000b0: 4503 6ebe e7b0 f7bd ce5b 2bbf 6db5 9d3e
000000c0: 405f 1abf 3da9 29bf 9e37 213f 9f7e 963e
000000d0: 3fab 22bf 74f3 013f 9a9a a8be 214a efbe
000000e0: 579b 333e 0e69 9bbd 14e9 003f d2fb 90bf
000000f0: a917 86bf a138 24bf e77d 4cbe 873f 13be

conv1.bias f4 [64]
0.010017789 -0.0032431304 0.22527948 -0.10350248 0.018272817 -0.007280595 -0.15842222 -0.01685042
-0.058285844 -0.10187333 0.26802957 0.062433794 -0.015871048 -0.005589781 -0.10636698 -0.04854269
0.029886596 0.0098475795 -0.10145807 -0.03621917 -0.06774931 0.0014168076 0.14536582 -0.008514375
-0.052852206 0.010275736 -0.11760707 0.061187886 -0.06045016 0.034097277 -0.028232967 0.040325705
0.025089143 -0.10579361 -0.09522267 -0.03852787 -0.0057264674 -0.049576238 -0.13754527 -0.000735928
0.07699468 0.018527862 -0.25735474 0.023586394 -0.072724335 -0.07357422 -0.096049696 -0.033664625
-0.064067 -0.054324523 -0.16705412 0.046699136 0.17385939 0.051084146 -0.03862525 -0.037416514
0.04091397 -0.123020306 -0.14960475 0.024673766 0.028624717 0.046192672 -0.042974845 0.0916847
00000000: a721 243c b38a 54bb aaaf 663e 1cf9 d3bd
00000010: e0b0 953c 0f92 eebb 6f39 22be e409 8abc
00000020: 23bd 6ebd f7a2 d0bd 2c3b 893e 94ba 7f3d
00000030: 0004 82bc 7b2a b7bb eed6 d9bd b3d4 46bd
00000040: bcd4 f43c be57 213c 40c9 cfbd 8d5a 14bd
00000050: 26c0 8abd 2db4 b93a c7da 143e e17f 0bbc
00000060: 8e7b 58bd 905b 283c fadb f0bd 26a0 7a3d
00000070: 969a 77bd 96a9 0b3d d348 e7bc 912c 253d
00000080: bf87 cd3c 52aa d8bd 1a04 c3bd 66cf 1dbd
00000090: 17a5 bbbb 7410 4bbd abd8 0cbe 4beb 40ba
000000a0: 63af 9d3d bec7 973c 00c4 83be 4138 c13c
000000b0: 7ff0 94bd 15ae 96bd b4b5 c4bd ebe3 09bd
000000c0: 8f35 83bd 6483 5ebd 3c10 2bbe 9847 3f3d
000000d0: 3208 323e 9c3d 513d 8335 1ebd 0f42 19bd
000000e0: 6895 273d 12f2 fbbd fd31 19be a320 ca3c
000000f0: 627e ea3c 8734 3d3d 6406 30bd 30c5 bb3d

conv1.lin_l.weight f4 [64, 4]
-0.12737162 0.42826065 -0.0406758 -0.19697252 -0.2695124 -0.08349347 -0.377107 -0.06843263
0.574906 -0.107183255 0.075213194 -0.48681733 -0.072437085 -0.070522204 -0.43293765 -0.0677708
-0.16972052 0.47888848 -0.07505731 -0.1974481 -0.38765183 -0.448938 0.5432138 -0.22514151
-0.021162039 -0.2754715 0.17496242 -0.37443745 -0.07008165 0.3297247 -0.22361761 -0.059249178
0.22994111 -0.04208066 0.14268956 0.52119905 0.22605178 -0.2654293 0.05776116 -0.361896
0.01561679 0.3473691 -0.027680045 -0.78091145 0.42950976 -0.09505468 0.17198393 0.4707009
0.23655392 0.19631384 0.012193109 0.4274339 -0.2880294 0.23224327 0.21393521 0.10413419
0.47794148 -0.094748855 0.06551391 0.36180958 -0.097051375 -0.29734594 -0.14758046 0.53699905
-0.2357851 0.046253536 -0.43317118 -0.17262778 -0.34539032 -0.042713143 -0.11152347 -0.42325312
-0.10770262 -0.28846818 -0.27094838 -0.009859129 -0.19902802 0.29005605 -0.54077744 -0.02257138
-0.15358719 -0.003952784 -0.09511838 0.48398206 -0.2753267 -0.06653616 -0.5334686 -0.16886823
0.5224507 -0.13356867 0.014379361 0.26985618 0.36809528 -0.056949046 0.10332704 0.4592615
-0.112627685 0.12801482 -0.69046867 0.635477 -0.15996674 -0.17205061 -0.40832067 -0.09642239
-0.2744383 0.10716285 0.43921837 0.12464536 -0.3299244 0.45066872 -0.052278105 -0.011802222
-0.17980146 -0.088330045 -0.34367588 -0.10402803 -0.16838071 0.19381784 -0.471552 -0.13305505
-0.20955844 0.0915523 -0.3257537 -0.13364364 0.25016898 -0.28772482 0.22295323 0.097590104
0.0023561222 0.32041875 -0.18957725 -0.57941264 0.41485056 -0.1293622 0.098214254 0.13468438
0.07536627 -0.28841352 -0.33026505 0.23892109 -0.43268132 -0.26327145 -0.15599166 -0.15837634
-0.0765955 0.3436916 -0.19074418 -0.53946924 0.36559978 -0.06479037 0.06854395 0.27404717
0.14232466 0.065343186 -0.13120179 -0.5041763 -0.22337373 -0.02211935 0.26083547 -0.044694263
0.5835119 -0.1324555 0.09225849 0.46218675 0.54059696 -0.21392304 0.0691164 0.23201661
-0.067929216 0.36911556 -0.15287004 0.43231618 0.50605106 -0.026493043 -0.09179041 0.17325889
0.37874374 0.042776942 0.26003054 -0.6067265 -0.23961924 -0.15855098 0.06104125 0.06510448
0.2541951 0.17073159 -0.5395601 -0.45380408 -0.03679676 -0.18056755 -0.46052834 -0.24144882
0.51415664 0.16847791 -0.33795813 -0.03389735 -0.0418381 0.32599226 -0.55857986 -0.16010875
0.036757793 0.22825728 0.5271848 0.19550021 0.35415035 0.018128976 0.26968905 -0.35650277
0.5672162 -0.1709395 0.079540364 -0.39418405 0.44272077 -0.3579933 0.22129925 -0.44552663
-0.3904019 -0.38043794 -0.07516015 -0.23458973 0.37853277 0.015396396 -0.3103007 0.45204368
-0.23249626 0.05823964 -0.5594262 -0.1054104 0.10584035 -0.3073763 0.20578223 -0.36827374
-0.07859366 -0.23793703 -0.32426068 -0.030709118 -0.17300749 0.4834815 -0.29662284 -0.12648381
-0.13821392 0.5877895 -0.5122128 -0.20755582 0.2603258 0.32075337 -0.244069 0.050898563
0.07841239 -0.4408552 0.1401989 0.47926113 0.43134055 -0.13162926 0.45973593 -0.008319515
00000000: b56d 02be fb44 db3e ab9b 26bd 2ab3 49be
00000010: 87fd 89be a0fe aabd 2b14 c1be 6826 8cbd
00000020: 0a2d 133f e582 dbbd 6009 9a3d 1f40 f9be
00000030: e559 94bd f26d 90bd 01aa ddbe 6bcb 8abd
00000040: 37cb 2dbe df30 f53e a6b7 99bd d62f 4abe
00000050: 4d7a c6be 34db e5be 0f10 0b3f 7f8b 66be
00000060: 035c adbc 9a0a 8dbe 5929 333e 44b6 bfbe
00000070: f886 8fbd add1 a83e 04fc 64be 44af 72bd
00000080: af75 6b3e c55c 2cbd 361d 123e 4d6d 053f
00000090: 1e7a 673e 59e6 87be f796 6c3d 6f4a b9be
000000a0: 91dd 7f3c 5dda b13e 43c1 e2bc d0e9 47bf
000000b0: b4e8 db3e 07ac c2bd 8e1c 303e b5ff f03e
000000c0: 313b 723e 7f06 493e 9bc5 473c 9ed8 da3e
000000d0: 9778 93be 2ed1 6d3e d511 5b3e 4e44 d53d
000000e0: bfb4 f43e b00b c2bd 282c 863d 1b3f b93e
000000f0: dfc2 c6bd ba3d 98be 551f 17be c578 093f
00000100: a671 71be 5974 3d3d 9dc8 ddbe 56c5 30be
00000110: 00d7 b0be faf3 2ebd 6b66 e4bd a2b4 d8be
00000120: 3193 dcbd 1ab2 93be bfb9 8abe 2f88 21bc
00000130: 00ce 4bbe 3a82 943e 6470 0abf 9de7 b8bc
00000140: f645 1dbe 5b86 81bb 6dcd c2bd 7fcc f73e
00000150: 9ff7 8cbe 1c44 88bd 6691 08bf cbeb 2cbe
00000160: 54bf 053f 3ac6 08be 6997 6b3c 972a 8a3e
00000170: fc76 bc3e 6743 69bd 219d d33d 5324 eb3e
00000180: 58a9 e6bd 5116 033e 8ec2 30bf 9fae 223f
00000190: 52ce 23be 092e 30be 680f d1be 1a79 c5bd
000001a0: 2d83 8cbe 3278 db3d 3be1 e03e 1146 ff3d
000001b0: daeb a8be 0dbe e63e 9121 56bd 1b5e 41bc
000001c0: e01d 38be 62e6 b4bd 49f6 afbe a60c d5bd
000001d0: fe6b 2cbe 2f78 463e 446f f1be 953f 08be
000001e0: 7d96 56be c67f bb3d 30c9 a6be e1d9 08be
000001f0: 2616 803e ab50 93be da4d 643e 52dd c73d
00000200: 2c69 1a3b ed0d a43e 8a20 42be 6354 14bf
00000210: 4b67 d43e 8677 04be 8e24 c93d b4ea 093e
00000220: a259 9a3d f0aa 93be 8018 a9be bba7 743e
00000230: 6888 ddbe 84cb 86be 47bc 1fbe 682d 22be
00000240: 1ade 9cbd 58f8 af3e 7152 43be a81a 0abf
00000250: e52f bb3e d0b0 84bd c560 8c3d e94f 8c3e
00000260: 8ebd 113e a6d2 853d c359 06be b311 01bf
00000270: 15bc 64be a433 b5bc 3a8c 853e 5511 37bd
00000280: 0961 153f 6aa2 07be 05f2 bc3d bea3 ec3e
00000290: 9064 0a3f a40e 5bbe e68c 8d3d c395 6d3e
000002a0: 791e 8bbd b7fc bc3e f789 1cbe 8c58 dd3e
000002b0: 908c 013f f007 d9bc 9cfc bbbd c76a 313e
000002c0: b3ea c13e e036 2f3d b922 853e 6e52 1bbf
000002d0: bf5e 75be 305b 22be 6406 7a3d 7f55 853d
000002e0: dc25 823e 43d4 2e3e 9c20 0abf 0259 e8be
000002f0: 33b8 16bd b3e6 38be 5fca ebbe 5c3e 77be
00000300: c59f 033f 7985 2c3e d908 adbe f3d7 0abd
00000310: 6d5e 2bbd 75e8 a63e 17ff 0ebf 8cf3 23be
00000320: 578f 163d 47bc 693e 95f5 063f 3531 483e
00000330: 3253 b53e 3883 943c af14 8a3e 8887 b6be
00000340: 1535 113f c40a 2fbe 0fe6 a23d 7ed2 c9be
00000350: 4cac e23e e64a b7be 459c 623e 111c e4be
00000360: c2e2 c7be c3c8 c2be 91ed 99bd 4a38 70be
00000370: 0ccf c13e 2a41 7c3c bcdf 9ebe 4572 e73e
00000380: 8013 6ebe b08c 6e3d 8e36 0fbf 68e1 d7bd
00000390: d3c2 d83d 6d60 9dbe 94b8 523e 608e bcbe
000003a0: b6f5 a0bd c4a5 73be 7f05 a6be b091 fbbc
000003b0: e028 31be e38a f73e f3de 97be f984 01be
000003c0: f387 0dbe 5f79 163f 6120 03bf 8389 54be
000003d0: 6c49 853e c939 a43e 39ed 79be 037b 503d
000003e0: ad96 a03d c6b7 e1be 4d90 0f3e b761 f53e
000003f0: abd8 dc3e d2c9 06be 8262 eb3e 934e 08bc

conv1.lin_l.bias f4 [64]
0.32984594 0.3189443 -0.25964564 0.11396333 0.3559132 -0.359826 0.2164085 0.377148
0.39878112 -0.18490566 -0.1624307 0.01584986 0.0682912 0.10009625 0.20919456 -0.37779343
0.3913832 0.4026294 -0.35129622 0.099187985 -0.124811515 -0.45852116 -0.11567283 0.09036756
-0.49529275 -0.41453114 0.30481446 0.07157125 -0.29147115 -0.14901555 0.22369349 0.19418319
-0.29712415 0.37931326 -0.4577265 -0.38042817 -0.27093953 0.06516692 -0.0060237413 0.09608023
-0.011091516 0.03421452 -0.1484196 0.4572238 0.21137048 -0.16811077 0.33208176 -0.13883187
0.42165053 0.026830485 -0.39846596 -0.21393444 -0.20752265 -0.35748443 -0.49247518 -0.37298176
-0.30739275 0.17188968 -0.09755485 0.33224162 0.4954681 0.48575735 -0.1264394 -0.24860056
00000000: 91e1 a83e ab4c a33e 46f0 84be 9b65 e93d
00000010: 413a b63e 1d3b b8be 319a 5d3e 8b19 c13e
00000020: 0a2d cc3e e957 3dbe 3c54 26be 91d7 813c
00000030: 42dc 8b3d 43ff cc3d 1937 563e 246e c1be
00000040: 6163 c83e 7125 ce3e 19dd b3be 1223 cb3d
00000050: 2e9d ffbd 49c3 eabe e0e5 ecbd a112 b93d
00000060: 0397 fdbe 6d3d d4be a410 9c3e f393 923d
00000070: b53b 95be 8897 18be e80f 653e f5d7 463e
00000080: a820 98be 5935 c23e 215b eabe 7bc7 c2be
00000090: 96b8 8abe 3c76 853d ce62 c5bb b6c5 c43d
000000a0: 31b9 35bc 8624 0c3d 4ffb 17be 3d19 ea3e
000000b0: 8171 583e 3b25 2cbe 9f06 aa3e f129 0ebe
000000c0: 94e2 d73e 9bcb db3c bb03 ccbe a111 5bbe
000000d0: d180 54be 3308 b7be b525 fcbe 77f7 bebe
000000e0: 9562 9dbe d903 303e d6ca c7bd 931b aa3e
000000f0: ffad fd3e 30b5 f83e 5479 01be 2591 7ebe

conv1.lin_r.weight f4 [64, 4]
-0.38867715 -0.16677938 0.051739946 0.16953346 -0.3245336 0.0017951134 -0.21342872 -0.014466959
0.003916011 -0.0008393252 -0.16889265 -0.5247877 0.29843202 0.05347313 0.038265053 -0.41907796
0.627792 0.7550039 -0.54506135 0.29336497 0.04372022 0.13129732 -0.10563479 0.109999
-0.12243159 -0.10324719 0.024431871 -0.39653364 0.075788334 0.27660975 0.3602041 -0.5362323
-0.169664 -0.19357684 0.25226837 -0.058595937 0.7681388 0.31516954 0.05595995 0.011787541
-0.37552595 0.09365698 -0.44986296 -0.31647602 -0.40616894 -0.08755406 0.049909696 0.22982766
-0.33416224 -0.32374072 0.6465185 -0.32142225 0.36346468 0.08409711 0.20883009 -0.23233922
-0.18222253 0.0012489782 -0.008393988 -0.16369607 0.6207287 0.2708645 -0.0036414743 -0.11744204
-0.09186763 0.35044235 -0.116909735 0.13831846 0.39020443 -0.08348663 0.61489326 -0.08986389
0.30781525 0.5518451 0.52769804 0.042979863 -0.38891998 0.23391323 -0.08344777 -0.062003147
0.28511477 0.64768237 0.32970053 -0.11167625 -0.024524976 0.29254177 -0.0027572052 -0.06543909
0.521743 0.3496932 -0.063256554 0.2558102 0.02958801 0.18491365 -0.15261604 -0.5452856
-0.29802647 0.19144528 -0.1758052 -0.15318896 0.32994562 0.5380178 0.70151407 0.08178254
0.2851079 -0.15903921 -0.1936496 0.0070031015 0.70839995 0.31671795 -0.07983604 -0.1503338
0.2508555 0.41572398 0.35891232 -0.018745871 0.15444365 0.37915492 0.6447105 0.15967278
-0.2631286 0.22822374 -0.113668345 -0.028692769 0.04252523 0.20898513 -0.090816356 0.051948797
0.3313869 -0.10397369 -0.7107743 -0.38496205 -0.63716924 -0.53054136 0.015687233 0.13774279
0.4138657 0.45302695 0.26558656 -0.0012293821 0.1181633 0.36419898 0.25605813 -0.11872412
0.5615946 0.8084332 0.045102842 -0.15582305 -0.048894104 0.010372494 -0.22538005 -0.14127061
-0.13829763 -0.40005988 -0.27194145 0.45281857 0.63859063 0.74986625 0.12628417 -0.14656933
-0.57211834 -0.051789522 0.035348296 0.20335196 0.13314074 -0.06667248 -0.16092716 -0.13509755
0.067785144 -0.2297055 -0.07064191 -0.16873045 -0.25192794 -0.04271438 0.2788122 -0.18880993
-0.038364507 0.19273694 0.14900663 0.13048314 0.19579685 0.39276645 0.07559485 -0.18286052
-0.46895385 0.13065739 -0.12514344 0.14360823 0.39337432 0.07540662 0.777046 0.29259008
-0.46216136 -0.25410265 0.1966652 -0.098198734 -0.4563171 -0.19667388 -0.035040673 -0.028298963
-0.59698033 -0.640265 -0.41543093 0.15841055 -0.49891233 -0.5726652 -0.17916082 0.09472444
-0.24411015 0.07738709 -0.124079786 0.36198315 0.08581627 0.5625378 -0.07054749 -0.55674374
0.35585296 0.59626687 -0.34001604 -0.8723033 -0.5842423 -0.010998908 0.2339701 -0.14317179
0.72643083 0.6171406 0.24065624 -0.3463991 0.278396 -0.033107005 -0.37170416 0.27925035
0.5091371 0.29929692 0.49429968 0.1633435 -0.3106444 -0.24156082 0.0030084641 0.17534344
-0.34763902 -0.36753052 0.30170915 -0.051266547 -0.17959054 -0.27860638 0.17886183 -0.03012937
0.72794074 0.65826696 -0.16918324 0.17250648 -0.36960113 -0.46833932 -0.35583818 -0.10911972
00000000: b100 c7be 37c8 2abe 44ed 533d 2e9a 2d3e
00000010: 4529 a6be 034a eb3a 0f8d 5abe d306 6dbc
00000020: e251 803b 2906 5cba 32f2 2cbe 7d58 06bf
00000030: 15cc 983e a406 5b3d d1bb 1c3d 6391 d6be
00000040: fab6 203f f047 413f 2489 0bbf ef33 963e
00000050: f913 333d ce72 063e 0e57 d8bd 2847 e13d
00000060: 6abd fabd 4373 d3bd 5925 c83c 7506 cbbe
00000070: ea36 9b3d cb9f 8d3e ac6c b83e 8546 09bf
00000080: 66bc 2dbe 0239 46be 5229 813e 4b02 70bd
00000090: bfa4 443f e75d a13e 4336 653d 8820 413c
000000a0: f044 c0be 3bcf bf3d 7054 e6be 2509 a2be
000000b0: 60f5 cfbe 8b4f b3bd 1c6e 4c3d f157 6b3e
000000c0: 5017 abbe 58c1 a5be 3d82 253f 7591 a4be
000000d0: 0b18 ba3e 1b3b ac3d 8ed7 553e 55ea 6dbe
000000e0: 8b98 3abe c1b4 a33a f086 09bc f19f 27be
000000f0: 13e8 1e3f c0ae 8a3e cda5 6ebb 7485 f0bd
00000100: 1925 bcbd 2e6d b33e 5f6e efbd 5ba3 0d3e
00000110: e0c8 c73e 0afb aabd a569 1d3f 8f0a b8bd
00000120: f699 9d3e b845 0d3f 3817 073f a70b 303d
00000130: 8520 c7be f386 6f3e aae6 aabd 03f7 7dbd
00000140: 90fa 913e 83ce 253f 82ce a83e 85b6 e4bd
00000150: 9ae8 c8bc 09c8 953e 3ab2 34bb ee04 86bd
00000160: f390 053f fd0a b33e a78c 81bd 8ef9 823e
00000170: 8e62 f23c 015a 3d3e 6147 1cbe d697 0bbf
00000180: ed96 98be 3b0a 443e 4706 34be 91dd 1cbe
00000190: a2ee a83e 89bb 093f 6d96 333f 9b7d a73d
000001a0: aaf9 913e 2ddb 22be 154c 46be 467a e53b
000001b0: b359 353f db28 a23e 1481 a3bd 1bf1 19be
000001c0: 2270 803e c6d9 d43e 5bc3 b73e f190 99bc
000001d0: 7a26 1e3e 9820 c23e bf0b 253f 4381 233e
000001e0: cbb8 86be 7cb3 693e f3ca e8bd 190d ebbc
000001f0: f02e 2e3d 3300 563e edfd b9bd 43c8 543d
00000200: 8bab a93e 28f0 d4bd 4ef5 35bf bf19 c5be
00000210: 861d 23bf 8fd1 07bf 8382 803c 720c 0d3e
00000220: 34e6 d33e 26f3 e73e f6fa 873e 3823 a1ba
00000230: 9aff f13d 4a78 ba3e 0d1a 833e a225 f3bd
00000240: aac4 0f3f 7af5 4e3f c2bd 383d 1490 1fbe
00000250: 2f45 48bd 65f1 293c 07ca 66be 3ea9 10be
00000260: e59d 0dbe a6d4 ccbe e93b 8bbe d6d7 e73e
00000270: ad7a 233f 3cf7 3f3f a350 013e 4516 16be
00000280: 5976 12bf 4021 54bd 60c9 103d 7f3b 503e
00000290: 0c56 083e 958b 88bd 17ca 24be 0357 0abe
000002a0: f0d2 8a3d eb37 6bbe b5ac 90bd adc7 2cbe
000002b0: b3fc 80be 46f5 2ebd 79c0 8e3e 6457 41be
000002c0: 1a24 1dbd d55c 453e 3295 183e 5f9d 053e
000002d0: f87e 483e af18 c93e 79d1 9a3d ca3f 3bbe
000002e0: b81a f0be 0dcb 053e 9a25 00be 090e 133e
000002f0: 5c68 c93e c96e 9a3d 7dec 463f 5ece 953e
00000300: 6aa0 ecbe be19 82be 9a62 493e 6b1c c9bd
00000310: 65a2 e9be e164 49be cf86 0fbd 3ad3 e7bc
00000320: b4d3 18bf 68e8 23bf 5db3 d4be 6036 223e
00000330: 7071 ffbe 309a 12bf ef75 37be e3fe c13d
00000340: 03f8 79be 1f7d 9e3d 8b1d febd db55 b93e
00000350: 71c0 af3d 7a02 103f 347b 90bd c286 0ebf
00000360: 5c32 b63e f2a4 183f 9516 aebe 454f 5fbf
00000370: e790 15bf c434 34bc dc95 6f3e a09b 12be
00000380: 5ff7 393f edfc 1d3f 976e 763e 395b b1be
00000390: ec89 8e3e 369b 07bd 0250 bebe e7f9 8e3e
000003a0: cf56 023f 723d 993e d914 fd3e 8543 273e
000003b0: c80c 9fbe b85b 77be a729 453b 3b8d 333e
000003c0: befd b1be f62c bcbe 9f79 9a3e dffc 51bd
000003d0: 95e6 37be 7fa5 8ebe 8e27 373e ded1 f6bc
000003e0: 535a 3a3f 2f84 283f 5f3e 2dbe 8aa5 303e
000003f0: 5c3c bdbe 2cca efbe 6c30 b6be 297a dfbd

conv1.lin_r.bias f4 [64]
0.1660526 0.4031503 -0.22936398 0.060583927 0.019319475 0.7423491 -0.29161745 -0.7238786
-0.3624467 0.41708106 0.3607391 0.09187026 -0.247422 -0.15544964 0.49527892 -0.07551207
0.06628516 -0.13351043 0.014064999 0.08338509 0.20847064 -0.45572284 0.21371238 0.71290386
-0.45493907 -0.09502183 0.49684736 0.13706087 -0.3114426 -0.41202402 0.016098803 0.61408323
0.1756136 -0.21052049 -0.22967416 0.4036154 0.056400705 -0.3382976 0.2520606 0.2233884
0.042760182 -0.46367225 -0.60259044 0.4834156 -0.06824048 0.12279438 0.74455786 0.0025733835
0.45349872 0.46819508 0.19914903 -0.14050096 -0.057855178 -0.41292754 0.10765859 0.38304698
0.34909442 -0.37488234 -0.3975458 0.22648609 0.54580307 0.24954252 0.53979945 0.42393994
00000000: b109 2a3e b769 ce3e 64de 6abe da26 783d
00000010: e043 9e3c 970a 3e3f e24e 95be 1c50 39bf
00000020: 9d92 b9be a68b d53e ccb2 b83e 7a26 bc3d
00000030: 315c 7dbe 312e 1fbe 3395 fd3e 12a6 9abd
00000040: 84c0 873d f5b6 08be e270 663c cdc5 aa3d
00000050: 5479 553e 8154 e9be 6bd7 5a3e de80 363f
00000060: c6ed e8be ce9a c2bd c762 fe3e af59 0c3e
00000070: 6875 9fbe d0f4 d2be a3e1 833c 8f34 1d3f
00000080: 0dd4 333e af92 57be b42f 6bbe ada6 ce3e
00000090: 6d04 673d 5835 adbe 160e 813e eebf 643e
000000a0: 4d25 2f3d 7366 edbe 5e43 1abf 4082 f73e
000000b0: aac1 8bbd 9f7b fb3d 589b 3e3f 36a6 283b
000000c0: fc30 e83e 44b7 ef3e b9ed 4b3e 7cdf 0fbe
000000d0: 8df9 6cbd 3d6b d3be 1b7c dc3d bc1e c43e
000000e0: 81bc b23e 94f0 bfbe 208b cbbe f8eb 673e
000000f0: c0b9 0b3f 1388 7f3e 4c30 0a3f a80e d93e

conv1.lin_edge.weight f4 [64, 2]
0.15496226 0.4324182 0.14298587 -0.08452846 -0.37750375 0.18584463 -0.14190345 -0.40189794
0.30411252 0.32806402 0.0600743 0.42378566 -0.16083534 -0.21727651 0.26166514 0.47287562
0.007967746 0.3197831 0.5162868 0.22269064 -0.13502061 -0.12522903 -0.2256516 0.48898673
0.12699568 0.2783027 0.045614198 -0.5045226 -0.037195686 -0.013051582 0.32369554 0.4497644
-0.08560142 -0.36305574 0.25474077 0.030489914 0.5009435 0.30014622 -0.010983432 0.17756969
0.46869054 0.037984036 0.022837073 -0.12874913 0.43474364 0.012661315 -0.38626072 0.14998044
0.1163341 -0.15365006 0.17484497 0.4318663 0.029575847 0.16210572 -0.11420609 -0.40192288
0.32108325 0.15097523 0.242957 0.25008217 -0.25393942 -0.044119257 0.37351218 -0.072059765
-0.18781103 -0.479261 0.208318 0.12676072 0.18081425 0.43599144 -0.083885536 0.31365502
-0.091988966 -0.48327273 0.039953075 -0.13987508 -0.018925088 0.03942217 -0.4065485 -0.5578453
-0.16840115 0.48883027 0.1992481 -0.2466056 0.40775365 -0.14304346 0.18507417 -0.22095013
0.15015312 -0.52155685 -0.09092218 -0.25809348 -0.12543881 -0.23087205 -0.019362014 0.2988016
-0.13360369 0.053940505 0.10556891 0.05200698 0.041631572 -0.40275416 -0.3183139 -0.28731042
-0.009056013 -0.060342643 0.3264393 0.52999306 -0.30226174 -0.3102598 0.32201034 0.14678921
0.24760254 0.29139304 0.014280141 -0.09850278 -0.026674826 0.4564861 -0.19054824 0.1025556
0.04053586 -0.18502726 -0.11221577 0.09310185 -0.15917565 -0.37495837 -0.122353725 0.28812408
00000000: 6dae 1e3e eb65 dd3e e36a 123e 421d adbd
00000010: 2c48 c1be 0e4e 3e3e 234f 11be 91c5 cdbe
00000020: a3b4 9b3e 02f8 a73e 7810 763d 6ffa d83e
00000030: 05b2 24be bc7d 5ebe f9f8 853e c11c f23e
00000040: 268b 023c 9cba a33e 5f2b 043f 0409 643e
00000050: d842 0abe 0a3c 00be 3711 67be 785c fa3e
00000060: 280b 023e b17d 8e3e f4d5 3a3d 6528 01bf
00000070: 815a 18bd 4dd6 55bc 6cbb a53e 8547 e63e
00000080: cc4f afbd 71e2 b9be 626d 823e fcc5 f93c
00000090: d53d 003f c4ac 993e daf3 33bc d4d4 353e
000000a0: 35f8 ef3e 2695 1b3d d014 bb3c d0d6 03be
000000b0: b896 de3e 6771 4f3c f7c3 c5be 7994 193e
000000c0: 9340 ee3d 7156 1dbe 8f0a 333e 941d dd3e
000000d0: 0c49 f23c 0bff 253e e2e4 e9bd d6c8 cdbe
000000e0: 0665 a43e 4099 1a3e b8c9 783e c50a 803e
000000f0: 5904 82be 65b6 34bd fd3c bf3e 1294 93bd
00000100: 8951 40be b361 f5be 5051 553e 90cd 013e
00000110: 5f27 393e 453a df3e 2ecc abbd 6497 a03e
00000120: b664 bcbd 866f f7be d6a5 233d 6a3b 0fbe
00000130: c908 9bbc 2479 213d 2027 d0be f3ce 0ebf
00000140: 5a71 2cbe f647 fa3e b207 4c3e 2e86 7cbe
00000150: 16c5 d03e fc79 12be 1584 3d3e c040 62be
00000160: bdc1 193e c084 05bf 6835 babd d424 84be
00000170: 0873 00be b969 6cbe 169d 9ebc 86fc 983e
00000180: 68cf 08be b8f0 5c3d 8334 d83d 4505 553d
00000190: de85 2a3d cb35 cebe 0afa a2be 5a1a 93be
000001a0: ac5f 14bc d929 77bd 0d23 a73e a0ad 073f
000001b0: 0dc2 9abe 5fda 9ebe 8ade a43e e94f 163e
000001c0: 858b 7d3e 7831 953e 41f7 693c d3bb c9bd
000001d0: 2a85 dabc 8cb8 e93e 141f 43be ac08 d23d
000001e0: ee08 263d c977 3dbe 62d1 e5bd 2fac be3d
000001f0: f1fe 22be 8bfa bfbe 9794 fabd 0085 933e

conv2.att f4 [1, 1, 64]
-0.36743176 0.4052581 -0.13218763 0.38991347 0.28446513 -0.099824056 -0.11723827 -0.31366953
0.43693313 -0.37017182 0.95084774 -0.20667824 0.9169734 -0.49331394 0.27543297 -0.30358744
0.72224736 -0.08728212 -0.28730664 -0.31248584 0.99494153 -0.42238814 -0.5717335 0.70203894
0.106160365 0.9126914 -0.085472874 0.3459776 -0.23702985 0.83520824 -0.43984398 -0.38967383
0.050579194 0.35275048 -0.22599325 0.38847554 -0.22256778 -0.60346437 -0.52661717 0.2456578
-0.7477394 0.65140116 0.7850242 0.18516982 -0.52818704 -0.32076228 -0.06121123 -0.27661934
0.24257945 1.0124878 0.323936 -0.5722089 -0.2221261 -0.54168165 0.27116004 -0.2506488
0.31622395 0.9263554 -0.38637933 -0.7306912 0.49643564 -0.41267684 0.47010648 0.24106428
00000000: 0420 bcbe fd7d cf3e 325c 07be bda2 c73e
00000010: 6aa5 913e 8e70 ccbd 9e1a f0bd 4b99 a0be
00000020: b3b5 df3e 2987 bdbe c26a 733f 76a3 53be
00000030: c5be 6a3f a593 fcbe 8d05 8d3e d06f 9bbe
00000040: 34e5 383f f8c0 b2bd db19 93be 25fe 9fbe
00000050: 7db4 7e3f 4243 d8be 205d 12bf d3b8 333f
00000060: 9b6a d93d 25a6 693f 670c afbd fa23 b13e
00000070: f4b7 72be 35d0 553f 3b33 e1be 5483 c7be
00000080: 212c 4f3d b69b b43e c66a 67be 44e6 c63e
00000090: cfe8 63be a47c 1abf 62d0 06bf b88d 7b3e
000000a0: d96b 3fbf 3ac2 263f 59f7 483f 289d 3d3e
000000b0: 4437 07bf f43a a4be a0b8 7abd 0da1 8dbe
000000c0: bf66 783e 3399 813f f0da a53e 487c 12bf
000000d0: 0675 63be a6ab 0abf 7dd5 8a3e 0a55 80be
000000e0: 1be8 a13e a125 6d3f 83d3 c5be 940e 3bbf
000000f0: d02c fe3e 614a d3be ccb1 f03e 8ed9 763e

conv2.bias f4 [64]
0.0037832565 -0.083066426 0.004991032 0.02833299 0.03086174 -0.07567758 -0.03464423 -0.041768007
-0.03602933 -0.07112513 -0.2235263 0.014856222 -0.1404887 0.015976015 -0.02518172 -0.07809676
-0.1206062 0.036375035 0.012659527 0.024892163 0.02933567 -0.04577144 0.0628033 -0.07357824
-0.05239566 -0.21890266 -0.020397544 0.101301 0.014532387 -0.32315275 -0.05639358 -0.02067855
0.059616197 -0.08240543 0.04173759 0.09971422 0.009942594 -0.22371437 -0.004050512 0.023215994
-0.08105094 0.023763733 0.13418266 -0.0092879785 -0.06381777 0.012515319 -0.05426219 -0.28758785
-0.0022469924 0.031589687 0.017262504 -0.18254282 -0.11132537 -0.04387784 -0.06864576 0.06378254
-0.020812541 0.03802994 0.014615713 -0.020833809 -0.046990268 -0.1082998 0.027300084 0.030850993
00000000: 83f0 773b bb1e aabd d08b a33b 961a e83c
00000010: c2d1 fc3c d9fc 9abd 1ce7 0dbd ee14 2bbd
00000020: 7e93 13bd 0daa 91bd 14e4 64be 8367 733c
00000030: 45dc 0fbe 22e0 823c e549 cebc 32f1 9fbd
00000040: 6200 f7bd fdfd 143d e869 4f3c a6ea cb3c
00000050: 5c51 f03c d57a 3bbd 049f 803d 30b0 96bd
00000060: d59c 56bd 0528 60be c018 a7bc e676 cf3d
00000070: 4019 6e3c 4774 a5be f4fc 66bd 1066 a9bc
00000080: 1d30 743d 2ec4 a8bd 09f5 2a3d f836 cc3d
00000090: 43e6 223c 6115 65be 28ba 84bb 782f be3c
000000a0: 09fe a5bd 29ac c23c 2e67 093e 9b2c 18bc
000000b0: e4b2 82bd 0d0d 4d3c 0842 5ebd b73e 93be
000000c0: 4742 13bb 3064 013d 186a 8d3c 81ec 3abe
000000d0: 8efe e3bd 40b9 33bd 2696 8cbd 6ca0 823d
000000e0: 107f aabc 48c5 1b3d be76 6f3c aaab aabc
000000f0: de78 40bd 49cc ddbd 6da4 df3c 39bb fc3c

conv2.lin_l.weight f4 [64, 64]
0.03315713 -0.12073188 -0.0971179 0.225645 0.24047503 0.09448085 -0.06549843 0.24600394
0.00088624784 0.03216909 0.024859495 -0.45252895 -0.27285466 -0.1716278 -0.18001238 0.15007837
0.21218452 0.059137587 0.22336255 0.2616038 -0.009144813 0.28359488 -0.2878533 -0.15703486
-0.27642682 0.53940535 -0.09667642 0.102253824 0.4835768 0.4634682 0.1446479 -0.026837202
-0.019413732 0.10695472 0.35342395 0.026023706 0.041263036 -0.27680737 -0.16404821 -0.06378574
-0.1722634 -0.17052908 -0.42644784 0.14916486 -0.01041101 0.07959835 0.09238293 -0.0457297
-0.09853081 -0.051697087 -0.08463422 -0.10401532 -0.36438474 -0.16873166 -0.015462844 -0.36636692
0.4022816 0.050832037 -0.17538138 -0.060633067 0.13019168 -0.053088386 0.010945767 -0.22720253
0.17615174 0.01491722 0.31265166 0.12126696 -0.09069705 -0.23447153 0.06696301 0.026131101
-0.054518797 0.011466862 0.430535 -0.053895473 0.13621703 -0.21708353 -0.31516925 -0.19994304
-0.00841469 -0.059481744 -0.12560305 -0.3344062 0.053111557 -0.33607757 0.031485632 0.17257866
-0.21995135 -0.27713388 0.13330299 -0.19556722 -0.30075827 0.0732069 0.08211932 0.1233346
0.20947394 -0.3093549 -0.09457299 0.01083799 -0.002739081 0.09267754 0.31373847 -0.030992081
-0.18944284 -0.39101368 -0.011937081 -0.43094748 0.20184477 -0.24935445 0.11228265 0.18556656
-0.269711 -0.1414498 -0.11823298 0.1791728 0.206902 0.41195288 -0.20803171 -0.31673798
-0.4166791 0.19722912 0.12862341 0.0012032543 -0.34068 -0.4328164 0.0035379003 0.12513681
-0.0482398 0.09333944 0.026132321 0.056406084 -0.16355918 -0.049825422 -0.43110615 0.09521284
0.05688758 -0.284985 0.00945586 0.213122 0.106860936 -0.003021374 0.09794947 0.16342816
-0.28214228 -0.17045164 -0.17546447 0.015970906 0.2518848 -0.13479914 0.21945669 0.3479454
0.055325896 -0.22312392 -0.04451206 -0.27278894 -0.34151822 -0.29291058 -0.17744316 0.021219283
0.07632133 0.17522724 0.020251408 0.026204517 -0.04081053 0.082257934 -0.07379901 0.2010065
0.19609393 -0.010134729 0.025952803 0.19737734 0.092621 -0.0028524455 0.18655097 -0.05265327
0.06923896 -0.26212674 0.37697268 -0.04839991 0.07830708 -0.22247905 -0.3009633 0.0966977
-0.106932856 -0.5086195 0.114252165 -0.04358098 0.02051822 -0.08332975 0.48303798 0.27715474
-0.0781174 0.13525745 0.32866758 -0.17438087 -0.20226379 0.11661937 -0.3656959 -0.007850195
0.23317254 -0.032194868 -0.23976786 0.21422762 0.22311056 -0.084223926 0.19962572 0.45567417
-0.03990822 -0.18778555 -0.22194736 -0.312011 0.35767698 -0.39044055 0.18519674 0.10618565
-0.13354509 -0.24284895 0.10079349 -0.3908204 -0.4377757 -0.23581041 -0.17966624 0.0056648925
-0.24979296 0.20546028 0.08884384 -0.27153498 0.037973687 0.043484766 -0.18823095 0.24593458
0.38920116 -0.07017947 -0.27626842 0.19140832 0.083243646 0.0791276 0.049481977 -0.020274023
0.09031211 -0.08516422 0.27348283 0.19705671 0.29383475 -0.18632206 -0.14528869 -0.24972966
0.09276065 -0.37417203 -0.04342889 -0.0057338867 0.070457295 0.13406199 0.5394323 0.036960896
00000000: c5cf 073d 4742 f7bd c0e5 c6bd 7c0f 673e
00000010: 163f 763e 2d7f c13d 0a24 86bd 75e8 7b3e
00000020: 1653 683a bcc3 033d 24a6 cb3c e0b1 e7be
00000030: 9bb3 8bbe 33bf 2fbe 2a55 38be 25ae 193e
00000040: e646 593e 413a 723d 27b9 643e eff0 853e
00000050: 20d4 15bc 5933 913e 8261 93be bfcd 20be
00000060: d187 8dbe 7816 0a3f 49fe c5bd 746a d13d
00000070: 6197 f73e b44b ed3e 941e 143e b1d9 dbbc
00000080: 8c09 9fbc 140b db3d fcf3 b43e ab2f d53c
00000090: 6e03 293d b2b9 8dbe 41fc 27be 19a2 82bd
000000a0: d165 30be 2d9f 2ebe 5f57 dabe acbe 183e
000000b0: f192 2abc 7604 a33d 4333 bd3d 114f 3bbd
000000c0: 85ca c9bd 53c0 53bd b554 adbd fc05 d5bd
000000d0: a390 babe fec7 2cbe de57 7dbc 7294 bbbe
000000e0: dbf7 cd3e 4135 503d 2d97 33be 615a 78bd
000000f0: f850 053e 3573 59bd e055 333c c8a7 68be
00000100: 1f61 343e 5b67 743c e113 a03e d05a f83d
00000110: 60bf b9bd 4e19 70be e723 893d e410 d63c
00000120: 1a4f 5fbd 81df 3b3c 156f dc3e 80c1 5cbd
00000130: 7a7c 0b3e 254b 5ebe dd5d a1be debd 4cbe
00000140: c5dd 09bc 21a3 73bd 169e 00be 4a37 abbe
00000150: 818b 593d 5c12 acbe 14f7 003d 76b8 303e
00000160: ed3a 61be 7ee4 8dbe 9480 083e c642 48be
00000170: fdfc 99be 80ed 953d 2d2e a83d da96 fc3d
00000180: 5680 563e c463 9ebe 7caf c1bd d391 313c
00000190: 2782 33bb b9cd bd3d 54a2 a03e 1be3 fdbc
000001a0: 4efd 41be f232 c8be bf93 43bc 26a5 dcbe
000001b0: 65b0 4e3e c656 7fbe 72f4 e53d 2905 3e3e
000001c0: 8f17 8abe 37d8 10be 2224 f2bd 1379 373e
000001d0: 1ede 533e 7deb d23e 4406 55be 7b2b a2be
000001e0: f756 d5be 6ef6 493e dbb5 033e 84b6 9d3a
000001f0: 9c6d aebe 1c9a ddbe 1edc 673b dd23 003e
00000200: 1997 45bd c028 bf3d 7313 d63c 110a 673d
00000210: 0f7c 27be be15 4cbd f2b9 dcbe f3fe c23d
00000220: f302 693d 8ee9 91be c0ec 1a3c a73c 5a3e
00000230: e8d9 da3d 3f02 46bb bb99 c83d b659 273e
00000240: f474 90be e08a 2ebe f5ac 33be 6bd5 823c
00000250: 0bf7 803e c908 0abe 41b9 603e e625 b23e
00000260: 689d 623d 997a 64be 4752 36bd feaa 8bbe
00000270: 7adb aebe 60f8 95be a9b3 35be 10d4 ad3c
00000280: 5c4e 9c3d c56e 333e 48e6 a53c dbaa d63c
00000290: f128 27bd d976 a83d ef23 97bd a6d4 4d3e
000002a0: d9cc 483e 220c 26bc f99a d43c 491d 4a3e
000002b0: 14b0 bd3d 18f0 3abb 3807 3f3e f5aa 57bd
000002c0: 28cd 8d3d 7a35 86be 9002 c13e fc3e 46bd
000002d0: 765f a03d 8cd1 63be dd17 9abe 7209 c63d
000002e0: 9dff dabd e334 02bf 0afd e93d f881 32bd
000002f0: d315 a83c caa8 aabd c150 f73e 3ae7 8d3e
00000300: 04fc 9fbd ee80 0a3e 1e47 a83e e690 32be
00000310: 3d1e 4fbe 23d6 ee3d 7e3c bbbe 1b9e 00bc
00000320: c8c4 6e3e c4de 03bd b585 75be 7c5e 5b3e
00000330: 1877 643e 987d acbd af6a 4c3e 204e e93e
00000340: cd76 23bd db4a 40be 2b46 63be e8bf 9fbe
00000350: 7021 b73e d3e7 c7be 37a4 3d3e dd77 d93d
00000360: 0bc0 08be 65ad 78be d16c ce3d 9d19 c8be
00000370: 2324 e0be 4978 71be 6dfa 37be 90a0 b93b
00000380: bac9 7fbe 2e64 523e c2f3 b53d a206 8bbe
00000390: 4c8a 1b3d 151d 323d 9dbf 40be 46d6 7b3e
000003a0: 6045 c73e 41ba 8fbd 0e73 8dbe 8b00 443e
000003b0: a57b aa3d a70d a23d 9dad 4a3d b515 a6bc
000003c0: 8ef5 b83d 946a aebd f105 8c3e 3cc9 493e
000003d0: 8271 963e 36cb 3ebe 8fc6 14be 22b9 7fbe
000003e0: 4cf9 bd3d 7a93 bfbe 7ee2 31bd 54e3 bbbb
000003f0: ea4b 903d 8c47 093e 3c18 0a3f 4f64 173d

conv2.lin_l.bias f4 [64]
0.10901772 -0.18929282 0.020381868 -0.09399837 0.09234347 -0.045495514 -0.1044296 -0.06929323
-0.018339675 0.03713288 -0.05402603 -0.10652693 -0.14539526 -0.046807338 -0.13936453 -0.15830414
-0.042925604 -0.02819909 -0.04161451 -0.03280688 0.13621874 -0.038400132 0.005580839 -0.079437435
-0.06429978 -0.05000722 -0.031027306 -0.0034023898 -0.015108637 0.0014464098 0.018591812 -0.13150865
0.15072004 0.05384065 -0.006984949 0.123336405 0.07161304 -0.22257239 -0.012909965 -0.08604643
-0.10208883 0.17844872 0.098339364 0.10605479 -0.07699522 -0.03591501 -0.13486823 -0.3276142
0.07159453 0.08567976 0.072988704 -0.22382842 -0.15698645 0.042806394 -0.124836996 0.038975686
-0.007763751 0.01059383 -0.09483602 0.06129314 -0.14228354 -0.12375317 -0.040403783 -0.012135877
00000000: af44 df3d fad5 41be e0f7 a63c 3882 c0bd
00000010: 931e bd3d 8159 3abd 30df d5bd 9ce9 8dbd
00000020: 163d 96bc a618 183d 664a 5dbd cb2a dabd
00000030: 7fe2 14be 0db9 3fbd 93b5 0ebe 7b1a 22be
00000040: c2d2 2fbd c701 e7bc fa73 2abd 8260 06bd
00000050: ed7c 0b3e 7549 1dbd 78df b63b 18b0 a2bd
00000060: 9aaf 83bd 5fd4 4cbd fa2c febc a1fa 5ebb
00000070: 378a 77bc 7695 bd3a db4d 983c 34aa 06be
00000080: 5b56 1a3e 0388 5c3d 00e2 e4bb cc97 fc3d
00000090: dca9 923d 04ea 63be 5184 53bc 1c39 b0bd
000000a0: f313 d1bd 43bb 363e 2666 c93d 4133 d93d
000000b0: abaf 9dbd 9e1b 13bd e61a 0abe 0cbd a7be
000000c0: 27a0 923d df78 af3d 1a7b 953d 4733 65be
000000d0: 0ec1 20be c255 2f3d 8aaa ffbd f8a4 1f3d
000000e0: 1067 febb be91 2d3c 6339 c2bd 840e 7b3d
000000f0: c7b2 11be 4d72 fdbd 707e 25bd 8fd5 46bc

conv2.lin_r.weight f4 [64, 64]
-0.19933777 -0.14789414 -0.20935862 0.03154657 0.033576436 0.19180448 0.14507614 -0.20789945
0.024987448 -0.1792363 -0.3349796 -0.27252653 -0.108292826 -0.00892072 -0.30121928 0.023421237
0.06785681 -0.13605095 -0.12019564 -0.2913554 0.11366124 -0.07182623 -0.7609944 0.07400096
-0.310312 -0.0021130643 0.2069073 0.11652802 0.014822284 -0.1010193 -0.090350375 -0.04519751
-0.31920895 -0.11930127 -0.261754 0.009356136 -0.36169082 -0.5832083 -0.13374747 0.21095066
-0.15421517 -0.41366333 -0.17790876 -0.21443632 -0.37039328 0.17175825 -0.1489679 0.24600835
-0.22384879 -0.5221925 0.29981142 -0.17465831 -0.3566687 -0.073426545 0.25185153 -0.87240666
0.021053117 -0.006056794 -0.09299462 -0.20306784 -0.17310393 -0.2718858 -0.065995425 -0.23796842
0.06929523 0.2801993 -0.051240616 0.22011915 0.004935838 -0.044330332 0.10791355 0.16337578
-0.11876727 0.03430429 0.09265318 -0.19190569 -0.034208443 -0.0430859 0.097242095 0.14390963
0.120671965 0.10114603 0.44956154 0.02977753 0.0672164 0.04912494 -0.106952064 0.010616517
0.24157777 0.07590373 -0.11895511 -0.019601854 0.28155133 -0.10895586 0.1575716 -0.2586355
-0.22825542 -0.20528007 0.10082456 0.18229733 -0.015081769 -0.16993354 0.11700228 -0.11138747
0.08135476 -0.18674624 0.07527263 0.20852783 -0.026337856 -0.08774658 -0.081862345 0.15024754
-0.16970228 -0.18720424 -0.556386 0.19333254 0.112716 -0.06218424 0.051915362 0.102797
0.14447351 0.0087817 0.27148938 -0.052291833 0.091631874 -0.062373783 0.16622345 -0.2534679
-0.28469163 0.0068025254 0.5944388 -0.106075056 -0.2681758 -0.0034134244 0.12029478 -0.037230913
0.026228173 0.45800048 0.31937724 0.014644338 -0.11498558 -0.14744906 0.09674635 0.0059920857
0.03879296 -0.2654415 -0.2950276 -0.09509605 0.067093804 0.17290767 0.28588474 -0.10142814
0.036774486 -0.028324066 -0.3203902 -0.37433344 -0.039664567 0.16578053 -0.3225543 -0.072310925
0.46006605 0.13573526 0.026449384 -0.17651415 0.46923143 0.11443925 0.2830468 -0.11229069
-0.099474184 0.039642792 -0.07906632 -0.103846885 0.47382033 -0.035541028 -0.0155221 -0.047982085
-0.004061704 -0.02082247 -0.25666437 0.57288855 0.84715396 0.7509596 -0.2384532 0.115561865
0.12506065 0.071520805 -0.19815683 -0.05935806 -0.07348079 0.06823203 -0.20210695 0.5680762
0.118667394 -0.1554462 -0.09630327 0.05279902 -0.16066681 -0.37376398 0.0648991 -0.11050373
-0.24843931 0.06734877 -0.15149629 -0.14880872 -0.265402 0.16545537 -0.17212458 -0.010124275
0.061468683 0.2351083 -0.41589388 -0.21318221 -0.1272247 -0.08724319 -0.011532348 0.06817025
-0.27004915 -0.5915435 -0.2643638 -0.16296661 -0.084737346 0.14741947 -0.099081144 -0.13894972
0.13910502 -0.078301646 -0.29918393 -0.16490401 0.32247433 -0.1933214 0.09729098 0.14466089
0.051779144 -0.16454722 -0.017336119 -0.012668086 0.079859376 -0.20044285 0.19766572 0.323082
0.16123927 0.051622458 -0.02984291 -0.20954832 0.16731541 0.3095423 -0.4104632 -0.41794014
-0.27088952 -0.09426639 -0.26843977 -0.025077453 -0.13546139 0.08196646 -0.119358465 -0.17121431
00000000: 331f 4cbe 9071 17be 1b62 56be fa36 013d
00000010: 7287 093d 6568 443e d78e 143e 98e3 54be
00000020: 7ab2 cc3c b889 37be 7282 abbe 9988 8bbe
00000030: a1c8 ddbd 3628 12bc 6a39 9abe e5dd bf3c
00000040: 83f8 8a3d f150 0bbe 2229 f6bd 892c 95be
00000050: 39c7 e83d a119 93bd 87d0 42bf d18d 973d
00000060: 37e1 9ebe 567b 0abb 82df 533e 3ea6 ee3d
00000070: 2ad9 723c 35e3 cebd 9e09 b9bd 0621 39bd
00000080: 5b6f a3be 3954 f4bd 9f04 86be 7b4a 193c
00000090: 8a2f b9be 244d 15bf 19f5 08be 7303 583e
000000a0: 95ea 1dbe aecb d3be b72d 36be 3295 5bbe
000000b0: 30a4 bdbe 65e1 2f3e 0b8b 18be 9de9 7b3e
000000c0: 9e38 65be 68ae 05bf e280 993e a1d9 32be
000000d0: 489d b6be a860 96bd aff2 803e 0b56 5fbf
000000e0: 9677 ac3c 1278 c6bb f773 bebd 04f1 4fbe
000000f0: 2842 31be 9e34 8bbe 9c28 87bd fead 73be
00000100: a8ea 8d3d 4876 8f3e aee1 51bd ea66 613e
00000110: cfbc a13b b993 35bd c801 dd3d fb4b 273e
00000120: 413c f3bd a882 0c3d f3c0 bd3d ed82 44be
00000130: 271e 0cbd d77a 30bd dd26 c73d 0c5d 133e
00000140: dd22 f73d a625 cf3d ee2c e63e 02f0 f33c
00000150: c0a8 893d 3c37 493d af09 dbbd e6f0 2d3c
00000160: 2a60 773e 6a73 9b3d bd9e f3bd 1194 a0bc
00000170: 7f27 903e 4024 dfbd 735a 213e df6b 84be
00000180: cabb 69be f034 52be 1b7d ce3d 27ac 3a3e
00000190: 8619 77bc 0f03 2ebe e49e ef3d 1d1f e4bd
000001a0: 539d a63d 683a 3fbe 8928 9a3d 5288 553e
000001b0: 7dc2 d7bc 7bb4 b3bd 72a7 a7bd 7eda 193e
000001c0: 6fc6 2dbe 78b2 3fbe 506f 0ebf f7f8 453e
000001d0: a5d7 e63d e7b4 7ebd 34a5 543d 3c87 d23d
000001e0: ddf0 133e 1fe1 0f3c a800 8b3e f62f 56bd
000001f0: 7ea9 bb3d a77b 7fbd 7b36 2a3e 8bc6 81be
00000200: 1ac3 91be b8e7 de3b 242d 183f e13d d9bd
00000210: 574e 89be c2b3 5fbb 1c5d f63d 717f 18bd
00000220: 77dc d63c 0a7f ea3e 6a85 a33e ceee 6f3c
00000230: 8f7d ebbd e3fc 16be f322 c63d 4259 c43b
00000240: 5ee5 1e3d f3e7 87be dc0d 97be b8c1 c2bd
00000250: 7a68 893d b50e 313e 7c5f 923e 8fb9 cfbd
00000260: d8a0 163d df07 e8bc 2f0a a4be a2a8 bfbe
00000270: 5077 22bd 5fc2 293e d625 a5be c017 94bd
00000280: c78d eb3e 2ffe 0a3e 61ac d83c 20c0 34be
00000290: 1a3f f03e 205f ea3d 83eb 903e a9f8 e5bd
000002a0: 1fb9 cbbd 7b60 223d 86ed a1bd adad d4bd
000002b0: 9498 f23e 7893 11bd 6850 7ebc dd88 44bd
000002c0: 0b18 85bb e293 aabc 8369 83be d3a8 123f
000002d0: 15df 583f e33e 403f 132d 74be b3ab ec3d
000002e0: e60f 003e 8079 923d a0e9 4abe 7021 73bd
000002f0: 197d 96bd 3cbd 8b3d 20f5 4ebe 716d 113f
00000300: e407 f33d 4a2d 1fbe a63a c5bd c943 583d
00000310: d785 24be fe5d bfbe d2e9 843d c84f e2bd
00000320: e066 7ebe 27ee 893d d821 1bbe 5061 18be
00000330: c5e2 87be 226d 293e 6d41 30be 4ae0 25bc
00000340: 96c6 7b3d 3bc0 703e 0bf0 d4be 704c 5abe
00000350: 3147 02be 8fac b2bd 2cf2 3cbc d89c 8b3d
00000360: e243 8abe 656f 17bf b15a 87be b8e0 26be
00000370: c68a adbd 21f5 163e 0eeb cabd d648 0ebe
00000380: 8c71 0e3e 9d5c a0bd a32e 99be 99dc 28be
00000390: 5b1b a53e 0cf6 45be 7e40 c73d fc21 143e
000003a0: 5e16 543d 117f 28be 7a04 8ebc ce8d 4fbc
000003b0: 508d a33d e440 4dbe e268 4a3e 016b a53e
000003c0: e81b 253e 1272 533d 1e79 f4bc d693 56be
000003d0: bb54 2b3e 547c 9e3e 3c28 d2be 40fc d5be
000003e0: 08b2 8abe bd0e c1bd f070 89be 3b6f cdbc
000003f0: 64b6 0abe 08de a73d 3672 f4bd ce52 2fbe

conv2.lin_r.bias f4 [64]
0.04975392 -0.004775353 0.050733387 0.08851645 -0.027812945 0.11828805 -0.06493585 -0.12779349
0.122113645 0.025944153 0.1417152 0.05671221 0.3938529 -0.10331089 -0.1857328 -0.053608354
0.1447322 -0.22318703 0.113238536 -0.004068716 0.27162713 -0.067485735 -0.32462132 0.13030498
0.07821331 -0.02260143 -0.14552565 -0.049144138 0.007778308 0.4143381 0.028422808 0.015722096
0.113781296 0.11509919 0.21271865 0.035992183 -0.15136346 0.053908315 0.032933228 0.16606289
0.06145294 0.30061433 -0.06270224 -0.014862314 0.16800185 -0.11926973 -0.042411458 0.2419065
0.23748387 0.022911176 -0.060509365 0.15344094 -0.026592152 0.12768564 -0.080078065 -0.094963945
-0.050965793 0.02608092 0.024796167 0.07487982 0.06395567 -0.0016797316 0.041936602 -0.005500365
00000000: c4ca 4b3d 907a 9cbb d0cd 4f3d 1d48 b53d
00000010: f9d7 e3bc 0141 f23d 16fd 84bd 4cdc 02be
00000020: b816 fa3d d588 d43c ca1d 113e 104b 683d
00000030: 16a7 c93e a994 d3bd bd30 3ebe 6f94 5bbd
00000040: ae34 143e 248b 64be 9be9 e73d dd52 85bb
00000050: b612 8b3e f635 8abd c434 a6be ab6e 053e
00000060: 4d2e a03d a226 b9bc ad04 15be 5d4b 49bd
00000070: 2de1 fe3b 2024 d43e f3d6 e83c a0cb 803c
00000080: 2b06 e93d 20b9 eb3d ebd2 593e 8a6c 133d
00000090: 06ff 1abe f7ce 5c3d fee4 063d 640c 2a3e
000000a0: 14b6 7b3d 1fea 993e 086a 80bd 1081 73bc
000000b0: ad08 2c3e b043 f4bd a3b7 2dbd 56b6 773e
000000c0: f92e 733e 38b0 bb3c abd8 77bd 9f1f 1d3e
000000d0: c9d7 d9bc 06c0 023e f8ff a3bd 757c c2bd
000000e0: 82c1 50bd a7a7 d53c 5521 cb3c 975a 993d
000000f0: 31fb 823d 712a dcba b7c5 2b3d 683c b4bb

conv2.lin_edge.weight f4 [64, 2]
0.1576294 -0.20489408 -0.4278365 -0.377618 -0.07458978 0.17148615 0.12319676 -0.79784346
-0.60871404 -0.67298096 0.021768166 0.2208551 -0.014899973 0.051035512 0.11592025 -0.009538896
-0.5464335 -0.7472861 -0.26078874 -0.22309521 0.043461096 0.35458836 0.096130185 0.028950147
0.3303608 -0.2927308 0.050399855 0.5080808 -0.5113102 -0.68995607 -0.2679651 -0.004047688
0.090968825 0.24736547 -0.08896021 -0.014946968 -0.0796125 0.08780531 -0.1862861 -0.42983788
0.003951263 -0.21212886 -0.120989256 0.031274058 -0.032588895 0.3686987 -0.17697234 0.25328737
-0.577991 -0.2379736 0.532886 0.040816847 0.24030857 -0.16074964 0.41623923 0.095094696
-0.3107661 0.34960654 -0.02041069 -0.25736195 -0.15034279 0.21838638 -0.11284913 0.19662768
0.14894019 -0.01010474 0.080587454 0.13933179 0.13646507 0.2653446 -0.016361061 0.3222431
0.048411112 0.17844854 0.10706277 0.3940049 0.1987093 -0.048384093 0.10628604 -0.10436216
0.15954337 0.2405763 0.6111875 0.33054405 0.39770836 0.24478725 0.38807926 0.43358237
0.08465473 0.1373112 0.03132959 -0.051435083 0.19591711 0.012042037 0.16802515 0.26624098
0.05311109 -0.11696596 0.21390204 -0.13150771 0.24599317 -0.2765866 -0.1648561 0.21082902
0.1620307 0.13069199 -0.25945565 -0.31020853 0.113542385 -0.08451354 -0.009837878 0.26420873
0.5213722 0.34651795 0.5270338 0.02319832 -0.04419369 0.22843802 -0.20483173 0.37371773
0.38839176 0.20134452 0.021465514 -0.04187106 0.18252729 0.21557039 0.18085556 -0.6536696
00000000: 9a69 213e c1cf 51be 630d dbbe 2657 c1be
00000010: 87c2 98bd 119a 2f3e 954e fc3d 783f 4cbf
00000020: afd4 1bbf 7b48 2cbf 2753 b23c d727 623e
00000030: 041f 74bc 9d0a 513d 9967 ed3d 0849 1cbc
00000040: 11e3 0bbf 244e 3fbf 1a86 85be 1273 64be
00000050: 4304 323d 9b8c b53e e7df c43d dc28 ed3c
00000060: 0d25 a93e d0e0 95be 1470 4e3d 9511 023f
00000070: 3ae5 02bf f6a0 30bf b932 89be 78a2 84bb
00000080: dd4d ba3d 604d 7d3e c530 b6bd 21e4 74bc
00000090: e10b a3bd 45d3 b33d c9c1 3ebe b613 dcbe
000000a0: 9979 813b 4f38 59be 37c9 f7bd 3a19 003d
000000b0: ef7b 05bd 13c6 bc3e 3d38 35be e2ae 813e
000000c0: 38f7 13bf 5aaf 73be 386b 083f 912f 273d
000000d0: 7313 763e 8e9b 24be 4f1d d53e 02c1 c23d
000000e0: bc1c 9fbe a1ff b23e 5234 a7bc f2c4 83be
000000f0: 76f3 19be aea0 5f3e 721d e7bd c458 493e
00000100: c783 183e 5a8e 25bc 090b a53d feac 0e3e
00000110: 80bd 0b3e 3fdb 873e a207 86bc 0cfd a43e
00000120: bb4a 463d 37bb 363e ba43 db3d 03bb c93e
00000130: 737a 4b3e 662e 46bd 7fac d93d d4bb d5bd
00000140: 565f 233e a259 763e c976 1c3f 123d a93e
00000150: 6ea0 cb3e 82a9 7a3e 53b2 c63e 82fe dd3e
00000160: 765f ad3d 4f9b 0c3e 7553 003d 98ad 52bd
00000170: 7f9e 483e f74b 453c c90e 2c3e bd50 883e
00000180: 048b 593d d98b efbd 2309 5b3e f5a9 06be
00000190: a2e5 7b3e c29c 8dbe 0ad0 28be 90e3 573e
000001a0: 60eb 253e 1fd4 053e 5fd7 84be a7d3 9ebe
000001b0: e988 e83d 6f15 adbd 0d2f 21bc 5e46 873e
000001c0: a678 053f cd6a b13e b0eb 063f 670a be3c
000001d0: 7104 35bd a8eb 693e 69bf 51be ee57 bf3e
000001e0: 49db c63e 422d 4e3e 72d8 af3c fd80 2bbd
000001f0: 6fe8 3a3e 7cbe 5c3e 3332 393e e456 27bf

fc.weight f4 [2, 64]
-0.004021024 0.26220742 0.16368258 0.27014354 0.21827063 0.03524193 0.16062793 -0.20830944
0.28699782 -0.05363744 -0.056468442 0.2615582 -0.002849773 0.0050513702 0.09707353 0.1786432
-0.033224873 -0.24508607 0.2504009 -0.12890834 -0.14300208 0.093039446 0.11191443 -0.0017073253
0.032186937 -0.011326041 0.10844041 -0.31013975 0.1889178 0.06078873 -0.17171644 0.02532193
-0.27381644 -0.029411342 -0.16539812 -0.20693086 -0.26106974 -0.22815469 0.15548632 -0.19165692
0.39240846 0.14278421 -0.14635558 0.022172464 -0.13011828 0.14229596 0.5715172 -0.1793022
-0.0931454 0.026655681 0.1704673 -0.12715824 -0.1215781 -0.076469466 -0.39251631 -0.20720486
0.11999177 -0.0114889955 0.26558402 -0.33973977 -0.33404663 -0.2231659 -0.268182 0.18037519
0.16252173 -0.18511851 -0.08214286 -0.10893214 -0.18438707 0.16048698 -0.043507714 0.2979423
-0.05942317 0.06719869 -0.058989584 -0.052860536 0.026769798 -0.16560042 -0.13730343 -0.14630193
-0.08139006 0.16142301 -0.059745606 0.095563464 0.09394458 -0.075428836 -0.27380684 -0.08958542
-0.065305255 -0.0075492035 -0.10264716 0.29634047 -0.05535436 0.08341694 0.14774652 -0.22432671
0.2721733 -0.017357014 0.14837822 0.32034284 0.108711764 0.0798745 -0.19922037 0.22322291
-0.25109297 -0.09440116 0.14922756 0.04977045 0.19582699 -0.04468412 -0.5669371 0.0994011
0.0023928613 -0.122435115 -0.21805215 0.2757473 -0.054224372 0.24341013 0.3964327 0.053562023
-0.20318207 0.16693011 -0.09128258 0.23237659 0.38763863 0.073327474 0.31590906 -0.15052533
00000000: cbc2 83bb 0d40 863e 689c 273e 4150 8a3e
00000010: 5682 5f3e d859 103d a67b 243e 124f 55be
00000020: 61f1 923e efb2 5bbd 744b 67bd f5ea 853e
00000030: 42c3 3abb f785 a53b 7dce c63d 3eee 363e
00000040: ce16 08bd d8f7 7abe 8c34 803e 8c00 04be
00000050: 236f 12be 778b be3d 6533 e53d 55c8 dfba
00000060: 73d6 033d dc90 39bc 0116 de3d a3ca 9ebe
00000070: ab73 413e 9afd 783d 6fd6 2fbe f06f cf3c
00000080: ab31 8cbe 0ef0 f0bc 205e 29be afe5 53be
00000090: efaa 85be 62a1 69be ce37 1f3e b641 44be
000000a0: c3e9 c83e 0636 123e 3dde 15be 07a3 b53c
000000b0: ba3d 05be 08b6 113e f44e 123f ff9a 37be
000000c0: 04c3 bebd 045d da3c fb8e 2e3e c535 02be
000000d0: f0fd f8bd 069c 9cbd e6f7 c8be 832d 54be
000000e0: 3fbe f53d 573c 3cbc a1fa 873e 5ff2 adbe
000000f0: 2908 abbe 9a85 64be 274f 89be 46b4 383e
00000100: 196c 263e b58f 3dbe 843a a8bd d017 dfbd
00000110: f7cf 3cbe b356 243e 2535 32bd e58b 983e
00000120: b665 73bd 779f 893d 109f 71bd 4a84 58bd
00000130: 564c db3c 2893 29be 4599 0cbe 2cd0 15be
00000140: d5af a6bd 134c 253e cfb7 74bd c7b6 c33d
00000150: 0466 c03d 6f7a 9abd 6930 8cbe 9078 b7bd
00000160: c3be 85bd 4f5f f7bb ad38 d2bd f0b9 973e
00000170: 41bb 62bd 80d6 aa3d dd4a 173e e7b5 65be
00000180: 4c5a 8b3e 4c30 8ebc 76f0 173e fa03 a43e
00000190: 46a4 de3d 3e95 a33d 6d00 4cbe 8c94 643e
000001a0: 428f 80be 6555 c1bd 1ccf 183e 19dc 4b3d
000001b0: df86 483e b206 37bd ca22 11bf ce92 cb3d
000001c0: 8dd1 1c3b 43bf fabd 1049 5fbe c02e 8d3e
000001d0: 601a 5ebd 8140 793e 3af9 ca3e da63 5b3d
000001e0: f60e 50be baef 2a3e 5cf2 babd 21f4 6d3e
000001f0: 9278 c63e b72c 963d d5be a13e 5023 1abe

fc.bias f4 [2]
0.007508053 0.044128224
00000000: 1d06 f63b ccbf 343d
