saved_models/dgat8_slic.pt (torch, 43938 bytes, 16 tensors)

conv1.att f4 [1, 1, 64]
000000 48 14 15 bf 8f 6b f0 be c6 47 a4 3f 48 d4 97 be
       -0.5823407 -0.4695706 1.2834404 -0.29654145
000010 c2 40 e7 3e 93 33 a6 bf 34 63 fb bd 46 b7 ad bf
       0.45166594 -1.2984489 -0.12274781 -1.3571556
000020 29 11 cc bf 15 89 01 bf ee 35 10 3f 6a 87 38 3f
       -1.5942737 -0.50599796 0.5633229 0.72081625
000030 ab 5d a5 be 3a 41 13 3e af 15 7c 3f 7d ae 07 bf
       -0.32298025 0.1438035 0.98470587 -0.53000623
000040 6c f7 d0 be 3f f1 39 3f c2 8a d3 be 74 ae 8b bf
       -0.40813768 0.7263374 -0.413168 -1.0912614
000050 a4 99 e4 be 99 68 e2 3e ed 77 d4 be 61 64 8f 3e
       -0.44648468 0.44220427 -0.41497746 0.2800627
000060 98 e4 1a 3f 6d f0 57 3f ed 64 b3 bf f4 45 b0 bf
       0.60505056 0.84351236 -1.4015175 -1.3771348
000070 36 f8 ad bf 8b 1c 10 3f 62 35 82 be 52 8c 0b bf
       -1.3591373 0.56293553 -0.25431353 -0.54510987
000080 67 96 9a bf 56 5c e9 3e e1 57 0c 3f 00 1e 06 3f
       -1.2077149 0.4557826 0.5482159 0.52389526
000090 a2 53 0d bf 16 99 44 bf 0f 77 ef 3e 6b 0a 35 3f
       -0.5520574 -0.7679609 0.46770522 0.7071902
0000a0 c0 d1 52 bf c8 45 3e 3f 68 2d 00 c0 74 b3 49 3e
       -0.82351303 0.7432523 -2.0027714 0.19697362
0000b0 b1 5b 82 bf b6 80 2f 3f 65 57 69 be e0 68 49 bf
       -1.0184232 0.6855577 -0.22787245 -0.7867565
0000c0 d8 58 1f bf 5a 4b 94 bf b5 3f e6 3e 7c 09 4d bf
       -0.6224494 -1.1585495 0.4497048 -0.80092597
0000d0 6c 55 76 3f c0 aa f9 be d7 d3 7e be 28 55 44 3d
       0.96224093 -0.48763084 -0.24885498 0.047932774
0000e0 70 dd c8 3e f5 b2 56 3f 5b 00 75 3f d2 a0 b9 3e
       0.39231443 0.83866817 0.9570367 0.3625551
0000f0 1d be 9d bf b4 0d 48 bf 90 eb 9f bf 4d 65 26 3f
       -1.2323643 -0.7814591 -1.2493763 0.6499832

conv1.bias f4 [64]
000000 cd 8b da be 81 6d 8e be 94 46 2f be 2d ca 44 bd
       -0.42684785 -0.2781792 -0.17116767 -0.048044372
000010 4b 9c 4b be 7d 93 88 3d 66 ad d4 bd af 48 52 be
       -0.1988384 0.06668756 -0.103846356 -0.20535539
000020 3f 86 40 bd 04 30 86 bd 10 4a 3d be af 71 96 bd
       -0.047003027 -0.06552127 -0.18485284 -0.07345902
000030 21 71 8f bd 4a 39 36 3e b0 8f 46 bd d4 26 56 3d
       -0.070039995 0.17795292 -0.048476875 0.052283123
000040 6b 90 4f be 01 78 f2 3d b6 98 ae be c6 73 c4 be
       -0.20269935 0.11839295 -0.34100884 -0.38369578
000050 5b 4a 32 3e e0 be 25 bd c4 c2 49 be 91 2b b3 be
       0.17411177 -0.040465236 -0.19703203 -0.34994176
000060 50 0e 1c be 93 ba ba bd de 77 19 be d9 ef eb be
       -0.15239835 -0.091176175 -0.14987132 -0.46081427
000070 f3 42 9c bd f0 ea 5c be 74 4d fb bd 1a c5 e8 be
       -0.07629957 -0.21573997 -0.122706324 -0.45462877
000080 5b 17 ba bc ce da a0 bd d3 ae 7a be 37 71 02 bf
       -0.022716215 -0.07854234 -0.24480753 -0.50954
000090 ae 89 3e be 84 42 ba be 92 18 92 be 54 94 aa bd
       -0.18607208 -0.36378872 -0.2853437 -0.083290726
0000a0 8f 70 d5 be 35 21 fe be a3 b5 29 be a3 ed 16 3d
       -0.41687438 -0.4963471 -0.16573195 0.03684772
0000b0 dc a1 17 be 85 05 1f be 45 c0 91 be 66 1a d9 bd
       -0.14807838 -0.1552945 -0.28467003 -0.10600738
0000c0 c1 b9 c0 be 27 2c ce be 83 1f 58 be 70 70 8c be
       -0.3764172 -0.4026806 -0.21105771 -0.27429533
0000d0 11 57 3f be 5c 3a d4 3d 60 57 21 be 5f 48 90 be
       -0.18685557 0.10362694 -0.15755987 -0.28180215
0000e0 d2 a6 05 be 4b 46 ae be de 23 72 be 83 f6 83 be
       -0.13051918 -0.34038004 -0.23646495 -0.2577401
0000f0 ad fd 22 be ff 3e 06 be c5 a8 6b be 04 8d 24 3d
       -0.15917082 -0.13109969 -0.23013599 0.040173545

conv1.lin_l.weight f4 [64, 4]
000000 63 63 1e 3e 31 50 68 bd 46 18 6e be 96 45 85 3d
       0.154676 -0.0567171 -0.23251447 0.06507413
000010 50 37 e7 3e eb 20 e6 3d 5f 03 e2 3e 0d c3 02 bf
       0.45159388 0.11236747 0.44143197 -0.51078874
000020 ea e7 24 be f0 16 d9 3d 2d 1e bb 3e ae c2 fd be
       -0.16104093 0.10600078 0.3654646 -0.4956259
000030 ef aa 21 3f 3c ae 2f be d6 ca c2 3d 81 98 00 3f
       0.6315145 -0.17156309 0.09511344 0.502327
000040 e4 40 aa 3e e8 1c a0 be e0 e9 23 be 09 13 88 3e
       0.33252633 -0.31272054 -0.16007185 0.26577023
000050 c6 ab 7b 3e 98 cb 2e be 0d cb f5 bd cd 7a 9d be
       0.24577245 -0.17069852 -0.120016195 -0.30757752
000060 d2 ed 78 be cb a4 aa 3c d0 53 1d bf 63 4d d1 3d
       -0.24309471 0.020830533 -0.6145601 0.102198385
000070 02 a2 c4 3c 18 47 e5 3e b3 10 7b be ff e5 07 be
       0.024003033 0.44780803 -0.24518089 -0.1327133
000080 9a 58 8f 3e c5 72 a3 bd 1c 23 5e bf 14 69 df 3e
       0.27997285 -0.07980875 -0.8677232 0.43634856
000090 17 31 43 3f 47 71 3e be 06 eb df 3d 19 b6 e9 be
       0.7624678 -0.185979 0.10933499 -0.45646742
0000a0 a3 16 e6 bb 28 83 27 bd 7e 45 e6 bd ea 73 27 bf
       -0.0070217415 -0.040896565 -0.11243723 -0.65411246
0000b0 3e ae 29 3f 1d 33 9f be 07 a1 27 3e b0 0f f6 3e
       0.662815 -0.31093684 0.16370021 0.48058844
0000c0 15 a7 d3 be 10 db e2 3e 02 f0 6e bd 70 55 43 be
       -0.4133841 0.44307756 -0.058334358 -0.1907556
0000d0 0c 50 46 3d a8 03 00 3f 6d ba ed be fa f7 63 3d
       0.048416182 0.5000558 -0.46431294 0.05565641
0000e0 fb bb 69 3e 60 87 ef be 1b 11 68 3e 66 9e 0e 3f
       0.22825615 -0.4678297 0.22662775 0.55710447
0000f0 ee 68 29 3f 17 37 f2 be 01 dc ad 3d dc d8 b7 3e
       0.66175735 -0.47307655 0.08489228 0.35907638
000100 21 54 2c 3d f2 62 c0 3e fe 79 02 3f df 60 b3 be
       0.04207242 0.3757549 0.50967395 -0.35034844
000110 6b a2 8b bd 41 6d 97 3e 26 67 d4 3e 33 b5 5c 3d
       -0.06818088 0.29575542 0.41484946 0.053883743
000120 62 a8 76 3e 8c 61 ed bd 0b cb fa bd c6 b5 10 3d
       0.2408767 -0.11590871 -0.122457586 0.035329603
000130 29 42 ae be f3 c6 36 3f 0d 5b 8a be 95 3b 24 3e
       -0.3403485 0.7139732 -0.2702259 0.16038354
000140 0b cf 7d 3e fc 7e 0e ba d9 f3 2b 3d c2 8f 64 be
       0.24786012 -0.0005435792 0.041980598 -0.22320464
000150 3c bf 27 be 13 e1 ac be 9f c6 13 bf fa 29 2f 3e
       -0.16381544 -0.33765468 -0.57724947 0.17105857
000160 60 d2 37 3f 2e 30 6e bd 1a 2e 3f bd 7e ff eb 3e
       0.7180538 -0.058151416 -0.046674825 0.46093363
000170 64 d2 59 be e0 e3 02 3f aa 19 73 be 48 51 0b 3e
       -0.21271664 0.5112896 -0.23740259 0.13605225
000180 dd 1c 15 3e 33 aa a8 3e a5 ca 6a 3e e6 fa 71 3c
       0.14561792 0.32942352 0.22928865 0.0147692915
000190 2d 72 c4 3d fd 4b 9c 3e 6f 32 6a 3e 46 26 d2 3e
       0.0959209 0.30526724 0.22870801 0.41044825
0001a0 a3 51 73 3e 80 27 8f 3c 68 95 d6 be 14 eb fd 3c
       0.2376161 0.01747489 -0.41910863 0.030995883
0001b0 48 00 25 3c c0 7c fa 3e ce 12 f1 3d a2 df 85 be
       0.010070868 0.48923302 0.11771165 -0.2614718
0001c0 8e ce 68 be 30 05 4f 3f eb b4 e3 3c d5 71 8d be
       -0.22735044 0.8086729 0.02779623 -0.2762591
0001d0 66 43 69 3e 32 a7 30 be a1 1c 58 3e c6 bb bf be
       0.22779617 -0.1725128 0.21104671 -0.37447947
0001e0 1d c3 71 3c 04 ca c3 3e 02 3f 00 3f 59 79 bc be
       0.014755991 0.38240063 0.5009614 -0.3681133
0001f0 4b 4f b3 3e bd af 5b be 62 e2 37 be 16 02 ad 3a
       0.35021433 -0.21453758 -0.17957452 0.0013199474
000200 81 88 80 3d 8f 71 8d 3e 75 f8 1f bf 90 23 bd bc
       0.06276036 0.276257 -0.6248849 -0.023088247
000210 90 18 ad 3d d8 bf ed bd dc ec da bc 19 ff 1e bf
       0.084519506 -0.11608857 -0.026724271 -0.62108
000220 a2 88 b6 be bd 96 e9 be 0e e7 80 be ba ff 12 be
       -0.35651118 -0.45622817 -0.2517628 -0.14355364
000230 3e 39 96 3e db a1 28 be 83 f9 5b 3d c0 a4 a5 3e
       0.29340547 -0.16467993 0.05370475 0.32352257
000240 2a f6 3e be a3 15 ef b9 6c e7 0e be ac 57 67 be
       -0.18648592 -0.00045601753 -0.13955468 -0.22592038
000250 2e 4a 63 be bd 57 bb 3e 4f 34 61 be 66 6a df 3d
       -0.22196266 0.36590376 -0.2199261 0.10908966
000260 2d de 3b be 76 27 be be 24 60 54 3d b4 89 6b be
       -0.18346472 -0.3713948 0.0518495 -0.23001748
000270 b2 73 d3 3d 68 60 15 be 2f 20 bb bd 45 77 3e bf
       0.103248015 -0.14587557 -0.09136998 -0.7440074
000280 c5 6a fd 3e 64 7a c6 be 70 9b 5c be 24 c4 9d be
       0.4949552 -0.38765252 -0.2154367 -0.30813706
000290 78 bb 85 be 96 87 fa bd 30 57 ac 3e 96 a2 06 3a
       -0.2611959 -0.12232892 0.3366027 0.00051359215
0002a0 85 6e 12 bf 37 a4 60 3f 53 af dc bd 04 83 95 bd
       -0.5719989 0.8775057 -0.10775628 -0.0730038
0002b0 1b 8a 0b 3f 88 ef 7c be 52 54 68 bd 22 00 75 be
       0.5450761 -0.24700749 -0.05672104 -0.23925832
0002c0 f9 95 d5 be bf c7 18 3f ec 6a 5b be 0a 88 7d be
       -0.41715983 0.5967979 -0.21427506 -0.24758926
0002d0 ff 4d 0c be 1b f5 01 bf 9c 06 06 be d9 6a 14 be
       -0.13701628 -0.50764626 -0.13088459 -0.14493884
0002e0 af ab f3 3e 34 01 e6 be 13 53 b5 bd 4e 2d 73 3e
       0.47591922 -0.44922793 -0.08853736 0.23747751
0002f0 94 21 88 3e 5b e1 84 be cd 9e 04 3e 3c 73 0a bf
       0.26588118 -0.25953183 0.12951203 -0.54082084
000300 e8 8c 7c 3e 27 07 94 bc 6a 43 60 be 24 df 13 3e
       0.24663126 -0.018069817 -0.21900716 0.1444059
000310 eb a2 0c be 5e c3 d8 3e a3 4a b4 be c8 b8 e7 3d
       -0.13734023 0.42336553 -0.35213193 0.11314541
000320 a2 c2 eb 3e 9c 43 ab be 4b 14 97 3e 61 5a ad be
       0.4604693 -0.3345002 0.2950767 -0.33858016
000330 5d 79 7e 3c eb e4 84 3d 9f a4 da 3c 36 15 8e bd
       0.015531865 0.06488975 0.026689826 -0.069376394
000340 b4 8d 3e 3f 41 f9 0e bf 9b 4b 0f ba 25 ee 15 bd
       0.7443497 -0.5584908 -0.0005466283 -0.036604065
000350 ce 4e 2d 3f 37 86 41 be c6 07 05 bd f0 e7 06 bf
       0.6769837 -0.18898855 -0.032478116 -0.5269766
000360 58 5a 1b 3f a2 75 ab ba f4 4b 65 3e df bd 06 3d
       0.6068473 -0.0013081322 0.22392255 0.03289592
000370 ef 28 f7 3e aa 58 c1 be c0 0e 7d 3b e5 4c d0 3d
       0.48273417 -0.37762958 0.0038613528 0.101709165
000380 16 87 b0 3d 05 61 dc bd 83 0c 05 3f 79 6c 2a be
       0.086195156 -0.107606925 0.51972216 -0.16642942
000390 f2 db 99 be 51 9b a1 be c9 55 8b be 7c 87 42 be
       -0.30050617 -0.3156381 -0.27213886 -0.18996996
0003a0 06 b5 91 bd 3b dd 08 3d 05 9d 9e 3e e7 d9 10 bf
       -0.071146056 0.033414107 0.3097917 -0.5658249
0003b0 e4 c6 2e 3e 95 65 8f be fa c7 63 bd 69 55 9c 3e
       0.17068058 -0.28007188 -0.055610634 0.30533913
0003c0 42 c6 ef 3c d7 3c 30 3e 49 2f 02 bf 44 0d f5 bc
       0.029269341 0.17210709 -0.508534 -0.029913552
0003d0 6b 9c 82 be 11 af b0 3e 7e e1 83 be d5 91 24 bc
       -0.25509962 0.34508565 -0.25757974 -0.010044535
0003e0 15 9c e1 3d 01 77 ab 3e 0b d2 96 3a 7f 79 48 3e
       0.110160984 0.3348923 0.001150669 0.19577597
0003f0 08 c7 84 3e 71 d4 b8 be bf 0a 19 3f 0d a8 28 3f
       0.259331 -0.3609958 0.5978202 0.65881425

conv1.lin_l.bias f4 [64]
000000 c9 82 06 be ec 23 56 3e 87 1e 2e bf 6c 23 a5 3d
       -0.13135828 0.2091214 -0.6801533 0.08063397
000010 b1 ee 22 bd d6 b1 d9 be e4 ab f5 be f6 9b 81 3e
       -0.039778415 -0.4251849 -0.47982705 0.253143
000020 08 ec d2 3c b1 f8 93 3e 07 01 3f be 6d 6d db 3d
       0.025747314 0.28900674 -0.18652736 0.10714231
000030 bd 30 ad 3e 23 f3 00 3f 41 84 95 be fd 68 93 bd
       0.33826247 0.50371 -0.29202464 -0.07197759
000040 50 cf c9 bd f4 e8 49 3e e5 de 67 be 53 07 3a be
       -0.09853995 0.19717771 -0.22643621 -0.18166856
000050 ae 41 a4 bd 89 00 31 be 73 6e 44 3e 19 6e b8 bd
       -0.0802034 -0.1728536 0.19182758 -0.090053745
000060 b6 bd 9a 3e e4 5b 92 3e 81 76 48 bf 14 e5 89 be
       0.30222863 0.28585732 -0.7830582 -0.26932585
000070 0c b8 e8 be bc 3d 10 be 62 43 0e be cd e3 82 be
       -0.45452917 -0.1408605 -0.13892892 -0.25564423
000080 c0 bf 30 bf ed 17 b2 be 6b 73 20 bf 27 f5 8c be
       -0.6904259 -0.3478388 -0.62676114 -0.27530786
000090 d9 35 32 be 51 da ec be 85 f4 01 bf fd 1c 91 be
       -0.17403354 -0.46260312 -0.5076373 -0.2834243
0000a0 c5 9b 0d 3d 9a ed a9 be 85 d5 a2 3e 91 47 ff bd
       0.03457238 -0.33189088 0.31803527 -0.12464822
0000b0 f3 30 cf bd d1 4d 19 bf 2b 20 73 3c e9 5e d5 be
       -0.10116758 -0.59884363 0.014839212 -0.41673973
0000c0 77 63 66 3d e1 e8 e5 bd 29 53 94 be af a9 5b bd
       0.0562472 -0.11226059 -0.28969696 -0.05362862
0000d0 27 cb 29 3e 32 5f 97 bc 79 60 d2 be 75 8b 28 be
       0.16581403 -0.01847801 -0.41089228 -0.16459449
0000e0 10 90 ca be 47 5f 07 bf 2b a9 e0 be 8a 1f 20 bd
       -0.39563036 -0.52879757 -0.43879065 -0.039092578
0000f0 95 1f 89 3e 69 3a 96 3e 1e 80 d1 be 87 f0 dc be
       0.26781908 0.29341438 -0.40918058 -0.43152258

conv1.lin_r.weight f4 [64, 4]
000000 9c 47 49 be 14 4d 38 3e de 5c a8 be 40 17 50 3e
       -0.19656223 0.17998153 -0.32883352 0.20321369
000010 76 9a 14 bf 1e 65 2d bf 27 a0 79 be 17 16 df 3e
       -0.5804819 -0.6773242 -0.243775 0.4357154
000020 a7 16 35 bf bb ec 9c be d7 5c 09 bf 34 1e b6 bd
       -0.7073769 -0.3064936 -0.5365729 -0.088924795
000030 77 76 53 3d 0e 85 40 3e cc e9 d0 bd 5b 62 85 be
       0.05162665 0.18800756 -0.10200843 -0.26051602
000040 a9 0f 94 3d 78 90 70 be f7 6e a4 3c 7c 4b bb 3e
       0.072295494 -0.2349261 0.020072443 0.36581028
000050 d7 81 b5 be 45 df f5 be 6d 40 50 3e 8e ba 9a 3f
       -0.35450622 -0.48021904 0.20337076 1.2088182
000060 5d a8 0e bf 7c 2a cb bd 97 90 82 3e 71 5b 0b be
       -0.5572565 -0.099202126 0.25500938 -0.13609101
000070 1c 46 b4 be 86 d1 9f be 3d ae 9e 3d c7 86 87 3f
       -0.3520974 -0.3121454 0.07748077 1.0588006
000080 2e c2 0a bf 9c 01 1d 3e d3 ec db bd 89 c1 87 3d
       -0.54202545 0.15332645 -0.1073853 0.06628711
000090 7b 4d 07 bf 82 2b b8 be 30 49 b8 3d 11 60 31 3f
       -0.528526 -0.35970694 0.089983344 0.6928721
0000a0 e3 10 2f 3f cd a7 a2 3e f9 91 bf 3b 1f df 25 3e
       0.6838514 0.31768647 0.0058462587 0.16198395
0000b0 dd 72 6a 3f c9 79 01 3f 0f 01 82 be f3 40 7d be
       0.9158152 0.50576454 -0.25391433 -0.24731807
0000c0 c0 51 46 be d5 e1 e0 be 52 6d c5 3d e9 c8 64 bd
       -0.19367123 -0.43922296 0.09639992 -0.055855665
0000d0 60 7a 7e be 8e 75 68 be 07 af a6 3e 15 8b 3b bf
       -0.2485137 -0.22701094 0.3255541 -0.732591
0000e0 98 38 0b 3e 7d e5 22 be cb 1d 9d 3e fc f3 8f 3e
       0.13595808 -0.15907855 0.30686793 0.28115833
0000f0 56 d4 12 bf b6 d5 6b be 92 af 47 bf 71 58 be be
       -0.5735525 -0.23030743 -0.78002274 -0.3717685
000100 2c c4 48 3e 9f 0b 23 3d 8d 63 40 3e 0a 74 ce 3e
       0.19606084 0.039806005 0.18787976 0.40322906
000110 e7 cb c0 3e f4 df b2 3d d8 48 b8 be df 0d 0d be
       0.37655565 0.08734122 -0.35993075 -0.13774823
000120 24 10 67 bf 97 a6 b1 bd 44 b8 31 bc ba 1b e1 3e
       -0.90259004 -0.086743526 -0.010847155 0.43966466
000130 a3 6c b7 3e 9c 65 58 3f 70 6b 87 3e aa 0c 68 3e
       0.3582507 0.84530044 0.26449156 0.22661081
000140 b4 5e 24 3f 78 a6 36 3f 27 88 f1 3e 1f 71 34 bd
       0.64207006 0.7134776 0.47174188 -0.044053193
000150 c8 01 1b 3f 03 02 a1 3e 96 c1 05 3f 95 42 2f be
       0.6054959 0.31446847 0.52248514 -0.17115243
000160 3e 90 3f 3e 0b a1 60 be cf df 38 bf 92 91 6c bf
       0.18707368 -0.21936433 -0.72216505 -0.9240962
000170 dd 85 08 3f 15 2b 89 bd ed 51 84 3e b3 56 03 bf
       0.5332926 -0.0669767 0.25843754 -0.5130417
000180 27 91 fa 3d a9 42 c3 3e 69 a3 a3 be 48 18 9f be
       0.12234717 0.38136795 -0.3196061 -0.31073213
000190 04 eb 22 3e 4e f4 81 be ea a4 49 3e 90 cf 85 3f
       0.15909964 -0.25381702 0.19691816 1.0453968
0001a0 21 a1 7f bf 04 b5 07 bf 3b 30 96 be 29 79 6d 3e
       -0.9985524 -0.5301058 -0.29333672 0.2319075
0001b0 1b 87 81 3e 23 0d 9b be dc 1d 4a 3f 28 c7 4c 3e
       0.2529839 -0.3028346 0.7895181 0.19997847
0001c0 ff 97 89 3e 83 fc 56 3f 0d e9 3c 3e e7 95 1c 3f
       0.26873776 0.8397905 0.18448277 0.6116623
0001d0 8c 57 12 bf 6b 8d a3 be da 8f a5 bd 15 1d 1c 3f
       -0.57164836 -0.3194383 -0.08084078 0.60981876
0001e0 79 8c 21 3e 12 e7 34 3e 6f 2a ae be b0 25 ab 3e
       0.15776242 0.17666271 -0.3401675 0.3342719
0001f0 2d fd 3b bf 17 a2 4d bf 6c ae ca be 9e 78 fe 3e
       -0.7343319 -0.80325454 -0.39586198 0.497014
000200 a2 b3 af bf a2 4b 7a bf 17 8b 90 bd e4 19 e7 3e
       -1.3726695 -0.97771657 -0.07057779 0.4513694
000210 0c 30 3c bd ae 18 db be 99 fa 73 bd cf 1e 18 bf
       -0.04594426 -0.42792267 -0.05956516 -0.5942201
000220 77 f9 7c 3e fb 4a 82 bd 46 68 b5 3e 14 e9 3b bf
       0.24704538 -0.06361958 0.35431117 -0.73402524
000230 c0 20 d8 3e b1 05 64 3e 9b ff 4a 3d a9 e5 52 be
       0.42212486 0.22267796 0.04956017 -0.20595421
000240 ae 26 7a 3c 92 bb d5 be bd f3 65 3f e9 8a f9 be
       0.015268011 -0.41744667 0.8982504 -0.48738793
000250 69 dc 85 bd 9f f0 8d 3d 78 cf db 3d 0b 37 b6 bf
       -0.065361805 0.069306605 0.10732931 -1.4235548
000260 ac 97 c2 be 8e 13 ba be 75 89 42 be 60 ce 7f be
       -0.3800634 -0.36343044 -0.18997748 -0.2498107
000270 8f c6 91 bd d1 99 ba be d9 4d 3f be b6 d9 08 bf
       -0.0711795 -0.36445478 -0.1868204 -0.534572
000280 56 67 66 be 06 26 8d be 3a 3a 08 bf 63 a9 a4 3f
       -0.22500357 -0.27568072 -0.53213847 1.2864193
000290 07 a2 1a 3e 45 33 98 3e 6b 5f 9e 3e f3 e9 ed 3b
       0.15100871 0.29726616 0.30932173 0.007260555
0002a0 bb 35 c8 3d ab da b8 3c 8d 57 40 3f 87 52 b3 bd
       0.09775873 0.022565207 0.7513359 -0.08755975
0002b0 2f 23 8e be 86 a5 d2 be 7c 95 db bd 5e ee 99 3e
       -0.27761218 -0.4114191 -0.10721871 0.30064672
0002c0 b2 57 b6 3f c7 d6 7a 3f 9c a9 f5 bc 82 11 a6 3e
       1.4245512 0.97983974 -0.029988103 0.32435232
0002d0 6e c5 67 3f e9 3f 1e 3e 76 da 8c bd e5 5f 66 be
       0.9053563 0.15454067 -0.068776056 -0.22497518
0002e0 13 c4 ae 3c 42 c9 2a 3e df c3 55 bf 92 ed 12 bc
       0.02133373 0.16678336 -0.83502 -0.008967774
0002f0 ee 4d c8 3e 98 f8 41 3c b6 2b 43 be fb 03 00 bd
       0.39121956 0.0118390545 -0.19059643 -0.031253796
000300 40 90 14 3f c3 b7 c5 3e 1b 2c 8a 3e d6 64 0f bf
       0.5803261 0.38616762 0.26986775 -0.5601324
000310 00 64 64 3f 0b 11 89 3f e8 70 e5 3d c3 f7 d1 bd
       0.8921509 1.0708326 0.11203176 -0.10252335
000320 91 52 10 3e 4a 51 15 3e 22 db 90 3e b6 83 bd be
       0.14093997 0.1458179 0.28292185 -0.3701455
000330 87 e0 f6 3d b9 6d 7b 3d 45 90 53 3f ba 61 81 be
       0.12054544 0.061383937 0.8264201 -0.25269872
000340 b0 24 89 3f 1f c5 5a 3e 3b 1d bc 3d 44 9a 0f bf
       1.0714321 0.21364258 0.09185263 -0.56094766
000350 e2 1a ea be 0d c7 68 bd 72 8a 91 3e a0 7f 4c 3f
       -0.45723635 -0.056830455 0.28425938 0.7988224
000360 55 30 ab 3e 9e c1 92 3e 3f 08 e8 3c dc a2 3f bf
       0.33435312 0.28663343 0.028324245 -0.7485788
000370 b4 72 26 bd 37 2e 3b bd 55 75 e5 3e 5d 47 01 bf
       -0.040636733 -0.04569837 0.4481608 -0.50499517
000380 ad ac e9 3e b0 6c ba 3e 88 d9 fb be dd 0f 7d be
       0.45639554 0.36411047 -0.491894 -0.24713083
000390 77 36 68 3f 71 13 09 3f ff 43 92 3e 4d 6c b6 3d
       0.90708107 0.5354529 0.28567502 0.089073755
0003a0 2a 37 7f bf 0d 60 2b bf f2 70 1b 3d 1a 7d a6 3e
       -0.9969355 -0.66943437 0.03794951 0.3251732
0003b0 f2 b8 5c 3e f7 8c dd 3e 84 ea 15 3e 8e 20 a6 be
       0.21554926 0.4327161 0.14640242 -0.32446712
0003c0 49 c4 0a be ae cd f1 be 67 53 60 be 62 6c 49 3f
       -0.1355144 -0.47227234 -0.21906815 0.78681004
0003d0 91 c5 7e bf 70 3b 49 bf ae 9c 1d bc f3 69 0e 3f
       -0.9952021 -0.7860632 -0.009619875 0.55630416
0003e0 e8 75 26 3f b9 45 18 3f 1b 2c 8b 3e 2a c6 1e 3e
       0.6502366 0.5948139 0.27182087 0.15505281
0003f0 65 16 65 3c ec 05 a4 3e 7d 29 0e be bf da 4b 3f
       0.01398239 0.32035768 -0.13883014 0.79630655

conv1.lin_r.bias f4 [64]
000000 d2 12 24 3d c1 e7 0c 3f 3a 35 bc 3e f8 d6 59 bf
       0.04005701 0.5504113 0.3675936 -0.8509364
000010 69 55 83 be 56 08 38 3f 24 16 2c bd 12 48 ab 3e
       -0.256511 0.7188772 -0.042013302 0.33453423
000020 14 42 f7 3b 0f 3c 5c 3e b1 a1 07 bf 02 3d 39 3c
       0.007545719 0.21507286 -0.52981097 0.011306049
000030 0d 3d ce 3e 70 e6 ab be e5 05 bb 3e b0 95 b5 be
       0.40280953 -0.33574247 0.36527935 -0.35465765
000040 23 82 63 be bd 96 5e be d7 95 bb be e1 b7 fc bc
       -0.22217612 -0.2173719 -0.36637756 -0.030849399
000050 56 9d bf 3e 61 a7 3e be 53 30 40 3e 6d 35 a5 be
       0.37424725 -0.18618537 0.18768434 -0.32267323
000060 2b aa 94 be 1c 8e e0 3d d4 e4 a4 3e 92 25 35 3f
       -0.29036078 0.10964605 0.32205832 0.7076045
000070 91 7c e1 3e f4 8a ac 3d 05 77 64 3f 37 b6 22 bd
       0.4404035 0.08424941 0.8924411 -0.039724555
000080 77 1e eb 3e fe 04 03 3e a9 34 4a 3e a5 c5 cb bd
       0.4592168 0.12794873 0.19746651 -0.09949807
000090 8f 00 09 3e 3a f5 01 3f d2 46 81 3e 1a f7 4a 3e
       0.1337912 0.5076481 0.25249344 0.19820824
0000a0 c8 ec 93 3e c7 f8 e0 3e f1 c2 48 3d 90 25 16 3e
       0.28891587 0.43939802 0.049014036 0.14662766
0000b0 52 a2 bd bd 39 80 6a be 61 21 49 be 9e 5f 0d bf
       -0.09259476 -0.22900476 -0.1964164 -0.55224025
0000c0 62 b7 80 be f4 23 44 be 3a 63 27 bf 3c 34 06 3e
       -0.2513991 -0.1915434 -0.6538578 0.13105863
0000d0 a7 02 bd bd dd 37 02 bf 9b 06 e9 3e fb a7 13 bf
       -0.092290215 -0.5086649 0.45512852 -0.5767819
0000e0 76 8a 59 3e b8 ca 0f 3e 48 4d 35 3e 9e af 3f be
       0.21244225 0.14042175 0.17705262 -0.18719336
0000f0 12 63 32 3e aa 67 09 bf b4 75 a2 3b 3f d1 eb 3e
       0.17420605 -0.53673804 0.004957879 0.4605808

conv1.lin_edge.weight f4 [64, 2]
000000 63 2b 97 3c 94 6f 30 3e 73 91 88 3e 8b 84 00 3e
       0.018453306 0.17230064 0.2667347 0.12550561
000010 36 d8 98 3d 8c 67 42 be f2 27 09 be 98 3b e6 bd
       0.07463114 -0.18984812 -0.13394144 -0.11241835
000020 43 cf da be 42 2f 34 bf 6f 8c b9 be 42 c7 8d 3e
       -0.42736253 -0.7038461 -0.36239955 0.27691084
000030 bd 52 95 3d a0 7d cc be 22 63 67 bd 7c f4 68 3d
       0.07291172 -0.39939594 -0.056491025 0.056873783
000040 ae 34 06 be c4 93 94 3e 2c c7 7e 3d f3 1c d1 3e
       -0.13106033 0.29018986 0.062201664 0.408424
000050 31 73 c2 3e d6 c2 f6 3e 4d d8 ca 3e 43 08 f7 3e
       0.3797851 0.48195523 0.3961815 0.4824849
000060 5d 2f 02 3e 95 38 f0 bd 0e 66 fa 3e aa af 6d 3d
       0.1271338 -0.11729542 0.48905987 0.058028854
000070 0b 70 d8 3e 16 19 28 3e 25 8a 4b be 51 f6 b1 3e
       0.42272982 0.1641582 -0.19876917 0.34758237
000080 82 b5 e0 3d e3 b9 8e 3e fb 7f c2 3e 40 5f 23 3f
       0.1097212 0.27876195 0.37988266 0.63817215
000090 b7 76 05 3e da 54 74 3e 8a 6a 85 3e 85 32 eb bd
       0.13033567 0.23860493 0.26057845 -0.11484245
0000a0 1e 2f 4a 3e 54 8f ed be 5f b8 01 3f 6e ff d3 3d
       0.19744536 -0.46398413 0.5067195 0.10351454
0000b0 3d 8b 8e bd 7c ce 15 be 25 fd 4e bd 58 6c 0c 3f
       -0.06960151 -0.14629549 -0.050534386 0.5485282
0000c0 71 6b 12 3f b5 e2 28 3f 0d 11 06 3e ea 4c 8d 3d
       0.5719519 0.6597093 0.13092442 0.06899436
0000d0 36 51 9c be 5a 58 5a 3e fe f4 fc 3e cc 34 b0 be
       -0.3053071 0.21322766 0.49405664 -0.3441528
0000e0 3c 3e 31 3e aa 61 a5 3c 4a ae 1a bf cd f8 61 bf
       0.17308897 0.020188171 -0.60422194 -0.88270265
0000f0 37 de 2c bc 2c d9 71 3e 44 6f 99 be fb 0e 83 3e
       -0.010551027 0.23618001 -0.299677 0.25597367
000100 89 fb a3 bd e7 ec 21 3f c6 16 ef 3e 1d cb 8f 3e
       -0.08006961 0.6325211 0.46697062 0.2808465
000110 a8 5b f9 3e 0c c1 c0 3e 9e c5 d6 3e 61 72 91 3e
       0.4870274 0.37647283 0.41947645 0.28407577
000120 cd ae 6c be d8 68 92 be 0d 7e 00 3e 86 7f 9e bd
       -0.23113556 -0.28595614 0.12548085 -0.07739167
000130 29 3e 45 3e b9 e0 58 be ef a5 d7 3e 35 12 10 3e
       0.19261993 -0.21179475 0.42118785 0.14069445
000140 3f 5d dd bd 09 a9 b0 3e 0e a2 8b 3e dd aa ab 3e
       -0.10808801 0.34503964 0.27272075 0.33528796
000150 e0 93 c2 3e 02 f4 d5 be ba 10 52 be a0 2a 2e bf
       0.38003445 -0.41787726 -0.20514193 -0.6803379
000160 fc 92 28 3e 28 b7 da be 55 9a 21 3f 19 b5 f1 3e
       0.1646232 -0.42717862 0.63126117 0.4720848
000170 e0 6e 2d be 5b 0c 2d 3e 6b 30 01 3e 2c 8f 4d be
       -0.16936827 0.16899244 0.12616126 -0.20074147
000180 7a ea de 3d 15 cd c3 be 9e 31 4c 3e 7a 22 f7 be
       0.108845666 -0.38242403 0.19940802 -0.4826849
000190 e9 01 51 be cb 5d 28 3e 4b 4f a1 3e 25 a1 25 bf
       -0.20410885 0.16442029 0.31505808 -0.6469901
0001a0 cf 49 55 3e 24 49 c6 3e bf f9 93 3d 78 fe 79 3e
       0.20828937 0.38727677 0.0722537 0.24413478
0001b0 93 aa 71 3e a3 39 d3 be a6 89 1a be 8e 6d 77 3d
       0.23600225 -0.4125491 -0.15091571 0.060407214
0001c0 e4 6b 0f bf d6 38 1d bd e1 2a 38 3e 80 86 2d 3f
       -0.56024003 -0.03838428 0.17985107 0.67783356
0001d0 82 d1 b6 3a 59 98 24 bf 50 0b 19 3f 64 ea 96 3e
       0.0013947936 -0.64294964 0.59782887 0.294757
0001e0 8a 21 a3 bd 2f 55 d5 3e 02 80 8d 3d aa 3e db 3e
       -0.079653814 0.41666552 0.06909181 0.42821246
0001f0 d5 15 1b 3f 7b eb ee be af 91 b0 be 79 60 5f be
       0.6058019 -0.46664032 -0.34486148 -0.21814145

conv2.att f4 [1, 1, 64]
000000 a8 07 8a bf a2 6f 00 3f a4 4b 6d 3f ed eb 0e bf
       -1.0783587 0.5017034 0.92693543 -0.55828744
000010 0f 6b e7 bb f5 9a 69 3c 12 6c 31 3f cd cc 84 be
       -0.007062323 0.014258136 0.6930553 -0.259375
000020 a7 4e 44 bf 0b 4d 02 3f 74 03 d2 3e 57 02 22 bf
       -0.76682514 0.5089881 0.4101826 -0.6328482
000030 eb 6b 45 bf 96 4f 8a bf 83 87 3a 3f 1d 68 90 3f
       -0.77117795 -1.0805538 0.72863024 1.1281773
000040 8b f9 4f 3f d5 fa 02 3e 69 de 1b bf e7 5a 16 bf
       0.8124015 0.12790997 -0.60886246 -0.58732456
000050 27 aa 1e 3f 6f 56 2c bd 74 d6 ed 3e 0b 6a 6b 3f
       0.6197838 -0.042074617 0.46452677 0.91958684
000060 24 e6 9e be cb ba d5 3a f7 64 07 bf 8e a3 c7 3f
       -0.31034958 0.0016306279 -0.52888435 1.5596788
000070 0d ce 3d bf 3e ba 25 3f 4f ab c2 3e 12 94 c0 be
       -0.74142534 0.6473731 0.38021323 -0.3761297
000080 d9 2d f4 bb 7c 6a 2a 3f 60 56 8a bc 2b 9a 70 3f
       -0.0074517545 0.6656873 -0.01688689 0.9398524
000090 12 a7 3f 3f d1 87 3d bf 1e 48 e4 be 83 fd 06 bf
       0.74864304 -0.74035364 -0.4458627 -0.5273058
0000a0 cc 95 5c bf 13 62 b5 3c b9 f4 31 bf ec 1d db 3e
       -0.8616607 0.022141492 -0.6951404 0.42796266
0000b0 fc a1 8e ba 61 1a 1a 3f e0 d3 96 bf f3 9a 01 bf
       -0.0010882015 0.601965 -1.1783409 -0.5062706
0000c0 19 cc 25 3f 8c a0 90 3f b8 44 1f bf e4 ba 43 3e
       0.64764553 1.1298995 -0.6221423 0.19114262
0000d0 7e 19 7e bf 11 a0 74 bf 82 6b 09 bf 0c 1d 24 3f
       -0.9925765 -0.9555674 -0.5367967 0.6410682
0000e0 7c 8b 7f 3f ed d2 56 3f ca 90 a7 3e 30 02 dc 3e
       0.9982221 0.839156 0.32727653 0.4297042
0000f0 92 6f 07 3f 44 ad 80 be 36 a0 37 3f 11 06 5c 3f
       0.5290462 -0.2513219 0.7172884 0.85946757

conv2.bias f4 [64]
000000 8e ab c3 be b4 37 a0 bd 8e 5c e5 be 45 87 f3 bd
       -0.38216823 -0.078231245 -0.44797176 -0.11891035
000010 3d d9 ab be 16 af 9a be 21 80 06 bf ab fb c9 bd
       -0.33564177 -0.30211705 -0.5253926 -0.09862455
000020 3a 11 8d 3e 35 32 2f be dd a8 63 3e f0 03 06 be
       0.27552205 -0.17108996 0.22232385 -0.1308744
000030 2d 9d 1c bd 66 b8 d5 be ed 99 1f be 17 32 35 be
       -0.038235832 -0.41742247 -0.15586062 -0.17694889
000040 94 7f d8 be e6 64 ee bd a4 4e 27 bd ec 0c 9e 3d
       -0.42284834 -0.116403386 -0.040846482 0.077173084
000050 20 93 b7 3b cd 32 ac be ad 07 62 be b7 8a d3 be
       0.0056022555 -0.33632508 -0.2207324 -0.4131677
000060 48 25 37 3e cf 0a 35 be f3 6b b9 be d8 7d 25 be
       0.17885315 -0.17679904 -0.3621517 -0.16161287
000070 43 70 97 bd 88 68 ae be 5c 03 2c bd 11 a7 83 3d
       -0.07394459 -0.34064126 -0.04199539 0.0642835
000080 cc 56 13 be c0 ad 0f 3c 94 f7 6a be 33 74 0f be
       -0.14388579 0.008769453 -0.22946006 -0.1400917
000090 5f a3 01 bf 14 d7 bb 3d 79 02 fa bd 2e 9c 1d be
       -0.5063991 0.09171882 -0.12207503 -0.15391609
0000a0 89 e0 db bb 63 9b 45 be 2a 37 1d 3e 96 50 ef bd
       -0.0067101163 -0.19297557 0.15353075 -0.116852924
0000b0 9a 66 96 3d 2a ec 85 be f1 a6 9a 3c ac 99 bf 3d
       0.073437884 -0.2615674 0.018878432 0.093554825
0000c0 b6 94 a1 bd 04 f4 28 be 1b bc 77 bd e8 29 0a be
       -0.078896925 -0.16499335 -0.060482126 -0.13492548
0000d0 5b 14 ba be e0 04 72 bd 1d da 41 bc 7b 9a ea bd
       -0.36343655 -0.05908668 -0.011831787 -0.11455246
0000e0 c2 20 11 be 1a 77 30 be 57 8c 53 3d 0c d0 7c be
       -0.14172652 -0.17232934 0.05164751 -0.24688739
0000f0 87 38 ba 3c 60 f6 91 be d3 4a fa 3c cf c8 e5 be
       0.022732032 -0.28508282 0.030553257 -0.44879767

conv2.lin_l.weight f4 [64, 64]
000000 03 84 45 3e 98 a1 a7 bd b7 5d cb 3e 25 e9 15 3e
       0.1928864 -0.081851184 0.39719936 0.14639719
000010 3a 33 cc 3e 0f 7b 12 bd e6 b0 e6 be 19 fc a1 3e
       0.39882833 -0.03576189 -0.45056838 0.31637648
000020 11 da fc 3e 37 de 11 bf 5a 15 91 be 76 07 02 3e
       0.4938512 -0.569797 -0.28336602 0.12698159
000030 0d ce 44 bd 82 43 1a be e3 ca 89 bd d8 36 e9 3e
       -0.048048068 -0.15064815 -0.06728151 0.45549655
000040 df 15 33 3f c4 8f 80 bf 1c a8 f5 3e d5 f3 59 3f
       0.6995525 -1.0043874 0.4797982 0.85137683
000050 25 98 bc bd ca 83 8e bc 22 4f b8 3e 2d 39 48 3e
       -0.09208707 -0.017396826 0.35997874 0.19553061
000060 88 e7 2e bf 45 36 04 bf 0c f8 03 bb a2 f4 32 3f
       -0.6832204 -0.5164531 -0.002013686 0.6990453
000070 91 5c e4 3e 3e 0c 5b be a5 ef 27 3f 31 a1 91 3e
       0.44601873 -0.21391389 0.65600044 0.28443292
000080 56 92 df 3e 7f 12 d2 bd 60 52 0a bf e5 9f 07 3e
       0.43666333 -0.10257434 -0.54031944 0.13244589
000090 29 48 78 3e dd 86 7f be 18 e9 94 be 8b 2f 2d bf
       0.24246277 -0.2495379 -0.29084086 -0.6765067
0000a0 61 bd eb be 4e b5 29 bf b1 c8 9a 3d da e8 ff be
       -0.46042922 -0.66292274 0.0755781 -0.4998234
0000b0 0a cd 1a bd 1d 23 23 bf 28 70 dc 3e c4 e2 e0 3d
       -0.037793197 -0.63725454 0.43054318 0.10980752
0000c0 53 43 a7 3e 7c c3 1c 3e a3 03 55 bc 74 48 0a 3e
       0.32668552 0.15308946 -0.013001355 0.13504201
0000d0 57 0a 5e be f6 ee 84 be ee 64 63 3e 0b 6d 83 3e
       -0.21683632 -0.25963563 0.2220647 0.2566913
0000e0 af 75 96 3e cd a0 14 bf 2f ea a9 be 77 5f 79 be
       0.2938666 -0.5805786 -0.3318648 -0.24352823
0000f0 dd da 3d 3d 2b c9 cb bd 62 71 f4 3e c9 35 6a bd
       0.046351302 -0.09950479 0.47742754 -0.0571802
000100 e7 9f b1 3d 82 a0 0e bf e7 19 83 be 8c 5e 80 bf
       0.08673077 -0.55713665 -0.256057 -1.0028853
000110 3a 24 15 3a cb ef ab bb a5 63 d0 3e 51 13 c2 3d
       0.0005689297 -0.0052470914 0.40701023 0.094763406
000120 66 d0 04 3f 05 32 73 bf 76 26 b1 bf 45 8d 8d bf
       0.5188049 -0.949982 -1.3839862 -1.1058737
000130 4f 9b 68 3b 54 e8 53 3e db 44 2a bd 65 04 a9 bf
       0.0035492962 0.20694095 -0.041569572 -1.3204466
000140 28 14 a4 bf e4 22 6f bf df 32 ca be 7d 2c 00 c0
       -1.2818651 -0.93412614 -0.39491937 -2.0027153
000150 67 f6 6c bf 3e 8d 96 3e 19 44 83 bf 33 7e 64 bf
       -0.9256348 0.29404634 -1.0255157 -0.89255065
000160 e8 3c 03 bf 47 03 4d 3d 00 10 6c bf d7 35 ad bf
       -0.5126481 0.050051954 -0.92211914 -1.3532056
000170 df 2b e0 bf 68 42 ae 3d 07 c6 71 bf e3 e8 50 bf
       -1.7513388 0.0850876 -0.9444279 -0.81605357
000180 3c d6 d3 be 44 0b ad bf 87 d3 89 be 23 a4 1d be
       -0.41374385 -1.3519063 -0.26919195 -0.15394644
000190 82 51 17 bf 76 d8 ae bd 98 a7 0d bf 51 63 98 bf
       -0.59108746 -0.085373804 -0.5533385 -1.1905309
0001a0 ae d5 4b bf 8c b8 f7 be 1e d4 fe bd 26 8b f6 be
       -0.79622924 -0.48382986 -0.12442802 -0.48153037
0001b0 d2 01 e3 bf 05 eb 85 be 48 5f 5d bf 67 13 e5 be
       -1.773493 -0.26155868 -0.8647351 -0.44741365
0001c0 84 09 ef 3d b9 93 a7 bf 6c 79 19 be c8 67 cb be
       0.11671737 -1.3091956 -0.14987725 -0.39727616
0001d0 ba 37 36 be b0 73 ba bf ee 8f cc be 56 dd 56 bf
       -0.17794695 -1.4566555 -0.3995356 -0.8393148
0001e0 9c 55 a2 bf 05 06 7a 3d 7e 2c 13 bc 10 9b 23 bf
       -1.2682376 0.061040897 -0.008982776 -0.6390848
0001f0 83 07 e8 3e 15 e2 69 3e a3 2b 4e bf 6a b9 8c bf
       0.4531823 0.2284015 -0.80535334 -1.0994084
000200 19 fd 95 be cf a2 98 be 22 55 c0 3d 2d 40 37 be
       -0.2929466 -0.29811713 0.09391238 -0.17895575
000210 d5 e8 4e be 30 b5 b7 be b5 99 87 3e 03 e6 07 bf
       -0.20206006 -0.35880423 0.26484457 -0.53085345
000220 3a 67 28 bf 42 f5 e9 bb 04 cf 37 3e b0 4f 67 be
       -0.6578251 -0.0071398327 0.17950064 -0.22588992
000230 e9 ab 21 bf bc b8 f0 be 50 07 3b 3e 1d 6b d0 be
       -0.6315294 -0.4701594 0.18264508 -0.4070672
000240 74 48 84 bf aa ac de 3d 6d 13 91 be 99 b0 87 bf
       -1.0334611 0.10872777 -0.28335133 -1.0600768
000250 37 d3 9a be e8 c4 3c be de bf 0b bc 8b ff 42 bf
       -0.3023927 -0.18434489 -0.008529631 -0.7617118
000260 d1 cf 6a 3e 8e c7 d1 bd 76 a0 33 bf d5 2c 9a bf
       0.22930838 -0.1024314 -0.7016672 -1.2044932
000270 b1 72 ca bf 40 92 02 bb fe cd 59 bf d0 f1 13 bf
       -1.5816251 -0.0019923598 -0.85079944 -0.5779085
000280 9d d5 9c be 18 5c b6 3e 9f 02 19 bd dc b1 61 be
       -0.30631724 0.35617137 -0.037356015 -0.22040504
000290 2e 1e dd be c7 6e 9a be 21 a4 3b be d1 42 48 3e
       -0.43187088 -0.3016264 -0.18324329 0.19556738
0002a0 21 b8 91 be 63 4c 58 3e 9d 5a 20 bf 45 7a 46 be
       -0.28460792 0.21122889 -0.62638265 -0.1938258
0002b0 da 23 cc be 02 c6 a0 be af a6 be be 1d 36 c8 be
       -0.39871103 -0.31401068 -0.37236544 -0.39103785
0002c0 b9 20 82 be 82 9d fd be ee e6 7a be d4 f3 10 bf
       -0.2541559 -0.4953423 -0.24502155 -0.5662205
0002d0 f1 63 1c 3e 18 58 bc be 72 1e 04 bf 60 64 21 bf
       0.152725 -0.3678596 -0.51608956 -0.63043785
0002e0 6d 26 09 bf 67 ca f1 be 2a 07 5a 3e fe 12 e1 3d
       -0.5357426 -0.47224733 0.21291795 0.109899506
0002f0 a2 c4 e0 be a2 0e 2f bf 01 39 7d bf e5 ec b4 3e
       -0.4390002 -0.683817 -0.98915106 0.35336986
000300 16 c6 28 3e 5d 8c 8a be ac e6 13 3f 90 18 3c be
       0.16481814 -0.27060214 0.5777385 -0.18368745
000310 bd 6e 2c 3e 45 90 57 bc cd 56 f1 3d 3d 76 c1 be
       0.16839118 -0.013156955 0.11784134 -0.3778552
000320 fe e4 66 3e b6 69 96 be 1e 76 5a be 9d fa 22 3b
       0.22548291 -0.29377526 -0.2133412 0.0024868615
000330 39 f7 01 bf 54 3a 66 bc 5e 20 e2 bd da 43 91 3e
       -0.50767857 -0.014051992 -0.1104133 0.2837208
000340 9f 65 8b 3e 3c 52 94 be e1 90 da 3e 00 c1 3a bf
       0.27225968 -0.2896899 0.4268866 -0.72950745
000350 49 a0 d9 3e 50 db 3a 3c 73 8d c7 bd 5c 12 8b be
       0.425051 0.011404827 -0.09743776 -0.27162445
000360 2c 5b 10 bc 44 ca 27 3d a2 c0 40 be e1 9a 4f 3f
       -0.0088108 0.04096438 -0.18823484 0.810957
000370 dd a2 0c 3f 66 61 ac be 6c ff 56 bd 7c e0 0e be
       0.5493601 -0.3366806 -0.052489683 -0.13952821
000380 31 77 da bc 61 8a b9 be e3 9e 2b bf 30 d2 92 bd
       -0.026668163 -0.36238387 -0.67039317 -0.07168996
000390 ca 29 8a 3e 28 e2 50 3e 52 32 f7 be f6 35 04 bf
       0.26985008 0.20398772 -0.4828058 -0.5164484
0003a0 30 25 de bd d7 03 5c bd 93 dc 1e bf e5 93 e1 3b
       -0.10846937 -0.0537146 -0.6205532 0.0068840855
0003b0 f5 9e 86 be 45 d5 09 bf 39 2e 10 3c d2 08 98 be
       -0.2629315 -0.5384105 0.008800083 -0.2969423
0003c0 62 0a 6f 3d 2c dc e4 be 1d 35 de be 54 3c 58 3f
       0.05835951 -0.44699228 -0.43399897 0.84467053
0003d0 7a 0a 32 bf e7 a0 92 3d 50 3e c2 3e 23 13 9a 3e
       -0.69547236 0.07159596 0.37938166 0.30092725
0003e0 df 5c b1 3e eb a6 06 bf 75 26 90 be 3c 6a 75 3e
       0.34641168 -0.52598447 -0.2815434 0.23966306
0003f0 2a e5 52 bd ed 33 51 be 61 eb 1a be a8 2e 92 3e
       -0.05148808 -0.20429964 -0.15128852 0.2855122

conv2.lin_l.bias f4 [64]
000000 94 94 80 be 96 64 6d 3c de 53 93 be 43 24 4e be
       -0.25113356 0.014489314 -0.28774923 -0.2013102
000010 a6 9a 14 bf 21 45 92 be d5 12 01 be 6c 54 42 be
       -0.58048475 -0.28568366 -0.1260484 -0.18977517
000020 82 77 b5 be a0 06 80 be 51 96 b0 3e e0 f7 ae ba
       -0.3544274 -0.25005054 0.34489682 -0.0013349019
000030 70 97 60 bd 5a 9f bc be 04 b4 7e bd 3d 1d 20 be
       -0.054831922 -0.36840326 -0.062183395 -0.15636154
000040 e4 02 8b be ef 64 30 be ba 1b b3 be da 9a 8e be
       -0.27150643 -0.17226003 -0.3498209 -0.27852517
000050 15 c6 b5 bd 98 38 9e be 96 67 98 be ae 0b fd be
       -0.08875672 -0.30902553 -0.2976653 -0.49422973
000060 7a 15 97 be b1 92 43 be 89 94 09 be a5 e3 68 be
       -0.29508573 -0.19098927 -0.13435568 -0.2274309
000070 f0 27 d3 be 1c 15 49 be 3f f7 2e be 60 39 05 3d
       -0.41241407 -0.19636959 -0.17086504 0.03252542
000080 99 50 3b be 33 b4 59 3d 48 d5 01 bf 5e c8 b7 bc
       -0.18292464 0.053150367 -0.50716066 -0.02243441
000090 f7 cb a4 be 24 9c 8c be 69 a3 12 be 68 81 89 be
       -0.32186863 -0.27462876 -0.14320149 -0.26856542
0000a0 11 84 c4 be 7f b1 88 be cf 46 ad be aa 17 b9 bd
       -0.3838201 -0.2669792 -0.33843085 -0.09037717
0000b0 c5 f8 31 bd 9f 7c 16 be 3b 98 4f bd e4 33 ec bd
       -0.043450136 -0.14695977 -0.050682288 -0.11533335
0000c0 f8 d1 b1 be a9 fb b3 bc e5 6a 59 be 60 34 42 be
       -0.34730506 -0.021970587 -0.21232183 -0.18965292
0000d0 ef 19 41 be be 62 ab be 0a 8d 79 be 36 03 53 be
       -0.18857549 -0.33473772 -0.24370208 -0.20606694
0000e0 b0 28 fa bd c4 9f d1 bd f9 d0 d9 bd 27 a2 84 be
       -0.12214792 -0.10235551 -0.106355615 -0.25904962
0000f0 3d d8 59 bd 36 c3 9f be 02 d9 e4 be 00 b8 f9 be
       -0.053184737 -0.31203622 -0.44696814 -0.48773193

conv2.lin_r.weight f4 [64, 64]
000000 47 b4 e1 3d 6f 8c 21 3f ca c5 1b 3f b8 39 8a 3e
       0.11020713 0.6310491 0.6084868 0.2699716
000010 3a 9f 47 be b8 11 6e 3d da 35 90 3e 1e ff 33 3f
       -0.19494334 0.058122367 0.28166085 0.7031115
000020 08 ce 22 3e 52 ec 97 3e 8b 70 f2 3d 35 b9 0d 3e
       0.15898907 0.29672486 0.11837872 0.13840182
000030 c7 8e 3b 3e d9 92 f5 3d 10 d2 4c 3d a3 1f 6c 3f
       0.18316184 0.119908996 0.05000502 0.92235774
000040 ec 3f 29 3f 6b b8 c8 3d 42 b8 2a 3f 0b ee e9 be
       0.6611316 0.098008 0.66687405 -0.45689425
000050 8d 7a c3 3d 23 a6 ea 3d 3f c9 1b 3f 21 b2 40 ba
       0.09544859 0.11457469 0.6085395 -0.0007350762
000060 40 c5 7c 3e 90 a9 4d 3e 64 00 35 bd 3b 86 46 3f
       0.2468462 0.20084214 -0.044189826 0.7754857
000070 ab d0 3c 3e c5 98 b9 3e 96 0f 01 3f 7f 92 05 3f
       0.18438976 0.36249366 0.5041441 0.5217666
000080 7c c6 21 3f 4c 2a 9d 3d eb 6e 0a bf e9 f9 8a bd
       0.6319349 0.07674083 -0.540755 -0.06785948
000090 19 f9 ae bd 02 92 19 3d ce 84 da bd 90 26 6d be
       -0.08543605 0.03749276 -0.10669862 -0.23159242
0000a0 78 bf 6e 3e 44 03 d5 3e ce 5f 37 3f 3b b1 1b 3f
       0.23315227 0.41604054 0.7163056 0.6081731
0000b0 1c 4f 37 3f d6 cc 07 bf a0 d0 94 3e a1 bd 02 3f
       0.71605086 -0.5304693 0.29065418 0.510706
0000c0 14 83 97 3e 0a 80 c8 bc 0a f9 40 3f 7c 7b d5 3e
       0.29592192 -0.024475116 0.75380003 0.41695774
0000d0 0d f7 5f 3e 8f 79 20 3d 39 8a c8 bd 45 c6 e3 3e
       0.21871586 0.039178427 -0.09791989 0.44487205
0000e0 49 36 28 3f 79 e6 0f bf c6 be 5a 3f 9c 3e 3b 3d
       0.6570783 -0.5621105 0.8544735 0.045714006
0000f0 0f ea 7a 3e ee bd 45 3f 80 b2 b2 3e 7d b6 9e be
       0.24503349 0.77242935 0.3490181 -0.30998603
000100 14 e9 ef 3e 0e 56 b9 3e e2 70 49 be 09 16 3e 3f
       0.46857512 0.36198467 -0.19671968 0.7425237
000110 7c 94 63 3f bc 40 e4 3e 2f 40 c3 bd 1b 76 bf bd
       0.88898444 0.44580638 -0.095337264 -0.09348699
000120 68 ef fc 3e be 54 1c 3f fd b7 70 3e d0 d7 26 3f
       0.49401402 0.61066806 0.23507686 0.65173054
000130 7c 8a 14 be 4c 0a 4a 3e 8c 2b 3b 3f 10 ec 1e 3f
       -0.14505953 0.1973049 0.7311332 0.6207895
000140 23 52 02 3f 4a 86 91 3d 95 2e 71 3e 44 b4 06 bf
       0.5090658 0.07105692 0.23552926 -0.52618814
000150 69 d3 ef bd 19 94 b8 bd 70 7b 11 3f ba ef ce be
       -0.11710245 -0.090126224 0.56828976 -0.40417272
000160 0f 48 13 3f 93 c6 bc 3e 79 10 cd 3e 70 cd 01 3f
       0.5753183 0.3687025 0.4005163 0.507041
000170 a5 29 32 3f dc 0f 7d 3f 81 d4 a8 3e 30 3d 46 3e
       0.69594795 0.98852324 0.32974628 0.19359279
000180 75 85 f6 3e 01 84 e9 3e 2e f4 19 be 36 3b a4 be
       0.48148695 0.45608523 -0.15034553 -0.32076424
000190 b8 51 a5 3e ca 49 90 3d 1e 74 4b bf 32 c8 27 3e
       0.3228891 0.07045324 -0.79474056 0.16384962
0001a0 7c a6 12 3f 6b 53 a6 be cd 4d a3 be 8c 8b 6b 3f
       0.57285285 -0.32485518 -0.31895295 0.92009807
0001b0 77 91 ef bd 34 0b e0 be ec c8 89 3f 89 7e 66 3f
       -0.11697667 -0.43758547 1.0764441 0.9003683
0001c0 cd 7a 04 3f 16 b2 b7 be 93 13 83 3f 0d b4 1d 3f
       0.5174988 -0.35878056 1.0240349 0.6160286
0001d0 47 04 7e 3f 7d d3 20 3f 77 5c 75 3e 24 b7 33 3f
       0.99225277 0.62822706 0.23961054 0.70201325
0001e0 ec e8 23 3f 8f 5f 1f be 9e db 40 3e 40 da 52 3e
       0.64027286 -0.15563796 0.18833777 0.20591068
0001f0 4c 70 36 3d 10 7d 01 be 70 38 40 3e 58 a2 94 3e
       0.04454069 -0.12645364 0.18771529 0.29030108
000200 66 2a dd 3d 02 5a 3d 3f 6e 29 12 bf 18 20 61 3f
       0.107991025 0.73965466 -0.57094467 0.87939596
000210 69 9c df 3d b6 2f 21 3f 2c 83 d8 be 9d 4a ea 3e
       0.10918505 0.62963426 -0.42287576 0.4576005
000220 95 bd 23 3e 54 cb dc 3e 2c 9b c4 3e 45 9d 26 3f
       0.15990289 0.43123877 0.38399637 0.65083724
000230 96 8b f9 3e f7 43 cd 3e 58 21 19 3e a6 e1 df 3e
       0.48739308 0.40090916 0.14954126 0.43726844
000240 3e 01 23 3e cb 8a 3a 3e 3d 04 ea 3e d4 1a 55 3f
       0.15918443 0.18217008 0.4570636 0.8324406
000250 5f 42 10 3f 93 d7 27 bd 45 1a 49 3f c4 1c fa 3e
       0.56351274 -0.040977072 0.7855571 0.4885007
000260 01 2b c6 3e 4f ea fb 3e e5 09 78 3c d0 37 a4 3f
       0.38704684 0.492022 0.015139078 1.2829533
000270 7d 59 91 3f e3 22 78 3e 04 f2 4f 3e e1 31 b0 3e
       1.1355435 0.24232058 0.20307165 0.34413055
000280 81 bd 4f bc 8d 4d 1f 3f dc 67 29 bc c2 ab ef 3d
       -0.012679459 0.6222771 -0.010339703 0.11702682
000290 85 b5 4d 3f 7f 45 1b 3e b1 ec d2 bc 5f 54 b3 3e
       0.803551 0.1516323 -0.025747629 0.35025308
0002a0 3a ca f1 3e f8 5e d4 bd 89 0e 6b 3f b1 6c f4 3e
       0.472246 -0.10369676 0.91819054 0.47739175
0002b0 d7 77 66 3f 2b 05 4b be 9a 78 a1 3e 19 d0 2a 3f
       0.9002661 -0.1982619 0.31537324 0.6672378
0002c0 99 f0 d7 3e d1 f1 31 3f d3 b9 26 3c dd 04 31 3f
       0.4217575 0.6950961 0.01017614 0.69148046
0002d0 d1 b4 13 3d a4 40 0c 3f 02 05 ec 3d f6 72 00 3f
       0.03606111 0.54786134 0.11524393 0.50175416
0002e0 26 36 56 be a1 49 1d 3e 9d de a4 be 3e 30 23 3d
       -0.20919093 0.15360118 -0.3220109 0.03984093
0002f0 ca 45 74 3e 86 c6 bf 3e 78 80 87 3e b1 bb 6c 3e
       0.23854747 0.3745615 0.264652 0.23118474
000300 ba 65 4a be 6f 64 0e 3f a7 38 13 bf 0b 97 16 3e
       -0.19765368 0.55622 -0.5750832 0.14706056
000310 29 97 8b 3e 31 07 fe be ff 0c fe 3e b3 91 09 bf
       0.27263764 -0.49614862 0.4961929 -0.53737944
000320 42 91 05 3f d6 09 0e 3f 9b d7 fe be 88 ac 8e 3e
       0.5217477 0.5548376 -0.4977387 0.27866006
000330 86 66 12 bf b2 77 c1 be 21 3a f3 3d 58 8d f6 3e
       -0.5718769 -0.37786633 0.118763216 0.48154712
000340 1f 19 3d 3f 76 15 85 be 6b e3 17 be b3 86 22 bf
       0.73866457 -0.25992936 -0.14832847 -0.63486785
000350 99 03 9c 3d 50 28 b7 3c 08 e6 9a 3d 40 c8 02 bf
       0.07617874 0.02235809 0.07563406 -0.5108681
000360 6f 5a 90 3e 0d 46 5f 3e 7a 36 3c be e4 82 35 be
       0.28193995 0.21804066 -0.18380156 -0.17725712
000370 99 f0 ec bd e2 50 05 3f ad 03 28 3c a8 d8 59 be
       -0.11569328 0.5207654 0.010254783 -0.21274054
000380 89 7f 32 bf be c2 35 be 15 da eb bd dd b8 f4 3d
       -0.69725853 -0.1775007 -0.11516205 0.119493224
000390 6b 73 f9 3d d6 25 47 3d 58 8e 62 bb 0e 3a ec be
       0.12180217 0.048620068 -0.0034569707 -0.46138042
0003a0 a0 d5 a8 3e 37 85 90 be 9d 1c 80 bf 13 5e 16 3f
       0.32975483 -0.28226635 -1.0008732 0.58737296
0003b0 74 cc 80 bf 0c 83 04 3e d8 7d 0e 3e 5e 66 9e 3e
       -1.0062394 0.12940615 0.13915193 0.30937475
0003c0 b7 87 28 bd e5 4c 0f bf c9 fc 22 3f e7 34 5a 3b
       -0.041145053 -0.55976707 0.6366697 0.0033295692
0003d0 ce 9f f1 3e a9 83 59 3e 0f 85 3d 3f 4c 22 c8 3e
       0.47192234 0.2124163 0.74031156 0.39088666
0003e0 4f e3 f8 3e f6 4c 09 be b2 94 f6 be 22 2f 08 3e
       0.48610923 -0.13408265 -0.4816032 0.1329923
0003f0 3c 3f 67 be 87 ca e4 be 39 2c cd be eb b5 07 3e
       -0.22582716 -0.44685766 -0.40072802 0.1325299

conv2.lin_r.bias f4 [64]
000000 62 77 89 3d 3a cd db 3e b3 7d 00 3f d3 96 00 bc
       0.067122236 0.42930013 0.501918 -0.007848459
000010 d4 41 85 be ab fa 40 be a4 ec 36 3e 1f c3 c4 3d
       -0.26026785 -0.18845622 0.17863709 0.09607529
000020 64 c8 85 3d 83 0e f2 bc 2d 07 64 3e a3 49 91 3d
       0.06532362 -0.029547935 0.22268362 0.07094123
000030 f3 c3 e3 bc 6f 79 10 3d 09 0c 3d 3f 4c 60 c0 3e
       -0.027803397 0.035272058 0.7384649 0.3757347
000040 2d 28 04 3e e0 6d e4 3d 2f 35 4e 3e a3 be 7e 3e
       0.12905951 0.111537695 0.20137475 0.2487741
000050 b8 34 f8 3e e3 14 ae be df 93 29 3d 0a 7b a9 3c
       0.4847772 -0.3400031 0.041400786 0.020688552
000060 d5 9f bc 3e 6b 96 17 be 14 f7 a1 3e 93 34 88 3d
       0.36840692 -0.14803474 0.31633818 0.06650653
000070 75 19 80 3d 2d d5 c5 3e 04 fa b6 be 91 18 4c 3e
       0.062548555 0.38639203 -0.35737622 0.19931246
000080 bb 7f 79 bc 4e 75 e6 3d b1 45 4a be 7d 22 1e 3e
       -0.015228207 0.11252843 -0.19753148 0.15442844
000090 8f d9 2f 3e 83 7c 51 3e c3 3c 41 3e 8f 34 53 bd
       0.17172836 0.20457654 0.18870835 -0.051563796
0000a0 f2 f9 91 bd 24 eb de bd 25 c4 c8 3c 92 4f 21 be
       -0.071277514 -0.10884693 0.024507592 -0.1575301
0000b0 9d f7 37 bf dc 64 68 3e 66 f8 18 be ce 3c 86 3d
       -0.718622 0.22694725 -0.14938506 0.06554566
0000c0 ef 4e dd 3e 16 bd 24 3e f0 59 ac bd 08 ae 0a 3e
       0.43224284 0.16087756 -0.08415592 0.1354295
0000d0 a7 53 c8 bb ea 03 b4 3d 4b 9e 1b 3c 46 8a fb 3d
       -0.0061134878 0.08789809 0.009498189 0.12282233
0000e0 bc 90 36 3e 60 6e b4 3e 86 d5 9b 3e f7 f9 b9 3e
       0.1782865 0.3524046 0.30436343 0.3632352
0000f0 97 d0 31 be 58 9c ea 3d 33 59 64 3e 7e fa a9 3d
       -0.17364727 0.114556015 0.22299652 0.08299731

conv2.lin_edge.weight f4 [64, 2]
000000 df 37 96 3e 31 64 88 3e 08 a3 87 be 07 c5 06 3c
       0.293395 0.2663894 -0.2649157 0.008225686
000010 8d 05 00 be 59 ee c0 3d 84 78 09 3e 9b 59 4e bd
       -0.12502117 0.09420461 0.1342488 -0.050378423
000020 88 cf 94 3d 91 11 4f be 0e 2b 9b 3d f3 b6 5e be
       0.07266146 -0.20221545 0.075765714 -0.21749477
000030 a9 29 53 3e be b1 47 3e c2 84 3f 3e 9a e8 99 3d
       0.20621361 0.19501397 0.18702987 0.07515068
000040 e7 f7 e3 3e 96 de be 3d b9 f4 ce be 44 9c 7b bb
       0.44525072 0.09319799 -0.40421084 -0.0038392702
000050 68 bc b0 be 65 74 3f 3e 25 e3 e9 3d cb bf 48 3e
       -0.34518743 0.18696745 0.114202775 0.19604413
000060 ca dc 9a 3e 8c 97 31 be 1d f1 5c bd cc ec f0 3e
       0.30246574 -0.17342967 -0.05394088 0.47055662
000070 e3 a8 12 3e 01 8e f0 bd d7 4a db 3e 0d 40 81 3e
       0.14322238 -0.11745835 0.42830536 0.2524418
000080 b7 3f 31 3e c5 b9 c3 3e 7a a2 98 3d e4 1c 7f bd
       0.17309462 0.38227668 0.07452865 -0.06228341
000090 a7 b8 e2 be 20 6c 07 bf 20 c2 8a 3e 56 08 06 bd
       -0.44281504 -0.5289936 0.2710123 -0.032722794
0000a0 68 d0 ad 3e 46 ef 1d bd bb 6b 22 3e e4 ba a5 bd
       0.33948064 -0.038558267 0.15861408 -0.08092287
0000b0 20 48 14 be 07 42 e7 be 0d 8c 38 be c7 69 32 bf
       -0.14480639 -0.45167562 -0.18022175 -0.69692653
0000c0 a8 64 9a be ca 3d b4 be 01 81 bb bc 72 62 22 3c
       -0.3015492 -0.3520339 -0.022888662 0.0099111665
0000d0 19 8a b8 bc 94 4f 6e bd d5 b5 91 be 0e ad 82 be
       -0.022526788 -0.05818136 -0.2845904 -0.25522655
0000e0 20 f9 d8 3e d5 46 c8 3d 5c 2f 69 3e b8 ca 52 3e
       0.42377567 0.09779135 0.22771972 0.20585144
0000f0 28 47 b6 3e ba 2c f8 3d ab 56 74 3e 41 71 ea bd
       0.35601163 0.12117906 0.23861186 -0.11447383
000100 e5 71 42 be ca ae b6 3c 9a dd 54 be 7b 82 5e 3e
       -0.1898876 0.022300143 -0.2078766 0.21729462
000110 41 88 e5 bd f1 a0 06 3e 00 e5 b2 3c 63 09 29 3e
       -0.11207629 0.13147332 0.021837711 0.16507487
000120 0a 04 77 bd 7a 0e 7d be 50 0b 9d 3d 4d c3 c5 3e
       -0.060306586 -0.24712554 0.07668173 0.38625565
000130 f9 2d e7 bd 31 d1 48 3e 5f eb 74 be 6f 5b b7 3d
       -0.112880655 0.1961105 -0.23917912 0.089529864
000140 3f 63 12 3e b9 0a d3 3e ac 9e 07 3e c4 b8 c6 bd
       0.14295672 0.41219118 0.13244122 -0.0970321
000150 ea e0 01 be 94 f2 ac bd 2b bb 80 3e 80 6c 1a 3e
       -0.12683454 -0.084447056 0.25142798 0.15080452
000160 fa 71 1d bf 22 30 19 bf 1f 91 9f bd c1 bd 98 3e
       -0.6150204 -0.5983907 -0.077913515 0.2983227
000170 7f 5e cf be a4 de 03 3f 8d 88 63 be f7 e4 f5 3b
       -0.40501782 0.515116 -0.22220059 0.0075041014
000180 d7 ea e4 3e 9c a6 71 be fa c9 ea 3e 79 f0 d4 3e
       0.4471042 -0.23598713 0.4585722 0.41589716
000190 7a 77 b0 bd 41 69 c2 3d 66 37 c6 bd 25 2b ab bc
       -0.08616538 0.09492732 -0.09678535 -0.020894596
0001a0 88 dd ab 3e d5 65 eb 3d 7e d7 ac 3e 7e 9a 9a 3e
       0.33567452 0.11494032 0.33758157 0.30195993
0001b0 ce ea a9 bd 99 e1 1b 3f 5f 64 9e 3e 2d 6f 12 bd
       -0.082967386 0.6089111 0.30935952 -0.035750557
0001c0 49 20 a1 3e a6 98 6a 3e ac f3 5e bc ae 44 ba be
       0.31469944 0.22909793 -0.013607901 -0.36380523
0001d0 8c 50 54 3e 87 d2 a0 bd eb 00 ab 3e b1 36 14 bd
       0.20733851 -0.07852655 0.33399138 -0.03618497
0001e0 36 4b 19 be ea 02 7f bd 70 7b 12 be 72 2a 9b 3e
       -0.14970097 -0.06225864 -0.143049 0.3030582
0001f0 b6 86 21 bd ca a7 b6 be e2 72 ee 3d 7f 86 82 3e
       -0.03943511 -0.35674888 0.11643006 0.25493237
