saved_models/dgat3.pt (torch, 42878 bytes, 16 tensors)

conv1.att f4 [1, 1, 64]
00000000: 325f aebe 7c31 153e 397e 78bd 4351 57be
00000010: e019 44be b9c3 9abc 84a3 92be af4a ed3c
00000020: 60b3 c6bd 3f4a 843e de0c 163e 453e 6b3e
00000030: 9202 6dbe 4f20 9a3e 8dac 983e 28f9 00be
00000040: 6888 b73d 1087 733e ed41 bd3d 5997 853e
00000050: 4410 c73d 2fad 11be a2ee 863d 54f2 7bbd
00000060: 14c7 a1bd 8c53 c13e 77cc 1cbd 5aa4 1fbe
00000070: def3 a23d 416f aabd 7da3 24be 132d 0f3e
00000080: 3870 95bd ba3a 7abe c467 08be 1645 7a3d
00000090: 4e1f 663d 3581 193e 8cd7 f73c f3db 893e
000000a0: 5918 a43d e1fb a5be daef 3d3e fbc1 393e
000000b0: 88e3 053e d240 30be b38f 993d 23fa 60bd
000000c0: 1e89 613e a656 0d3e 30a7 85be 2592 6e3e
000000d0: 6a68 13be c6c5 793e bd9c 433e afa2 f6bd
000000e0: 5f64 913e ec58 19be d19d 3dbd f399 503d
000000f0: dfa5 e5bd a2f9 a4bc 4044 82be deae 2e3e
-0.34057003 0.14569658 -0.06066725 -0.21027093 -0.19150496 -0.018892156 -0.28640378 0.028966276
-0.09702182 0.25837895 0.14653346 0.22972973 -0.23145512 0.30102775 0.29819146 -0.12595046
0.08961564 0.23781991 0.0924109 0.26092032 0.09719899 -0.1422622 0.06588484 -0.0615104
-0.07899299 0.37759054 -0.03828093 -0.15590039 0.0795667 -0.08322001 -0.16077991 0.13982038
-0.07296795 -0.24436465 -0.13320833 0.06110104 0.0561822 0.14990695 0.030254148 0.2692562
0.080124564 -0.3241873 0.18548527 0.18140404 0.13075078 -0.17212227 0.074981116 -0.05492605
0.22024962 0.13802585 -0.26104116 0.23297937 -0.143953 0.24391851 0.1910276 -0.12042748
0.2839689 -0.14975327 -0.046293084 0.050928067 -0.11213278 -0.020138565 -0.25442696 0.17058894

conv1.bias f4 [64]
00000000: 43d3 b5be ac9d 23bd eaec 21be 0fd2 4e3e
00000010: 07c7 3abe 17c8 2fbc cd92 0bbe 0000 0000
00000020: 3f7d 46bb 3f7d 77be 690d 1fbd 7245 063d
00000030: b6a3 70bd d189 bebc b0ab 31bd 0000 0000
00000040: 0000 0000 a2d4 1abe e78b 5fbc 1d4d 18bd
00000050: 62ed 5dbd 916e 18be b18d d53d d2a9 c1bd
00000060: 34e4 223d d942 e0bc 0e4b 5abd e37a dfbd
00000070: 0aef ddbd 973b 06be 2877 243b 8ed3 41be
00000080: e6bc 84be 49fe 223d 65b1 b1bd 47d9 2dbd
00000090: e3d6 1d3d 36a3 2d3e f621 bebc 712f 90bd
000000a0: e22f 813d 64a7 d8bd ea4c 373e 1cc9 73bd
000000b0: a903 ddbd 01ba 163d fd46 a13c a3a1 2ebc
000000c0: 67d2 473d 8424 85bd dfa5 a7bd 7511 193d
000000d0: 8767 20be 466b f6bb cdc5 00be fc3a afbd
000000e0: 269d f1bc bd46 f4bd 58ce 8dbe b890 7ebd
000000f0: 2deb 06be d617 64bc e866 0c3d 6663 cbbd
-0.35512742 -0.03994529 -0.15813032 0.20197318 -0.18239985 -0.0107288575 -0.13630219 0.0
-0.0030287055 -0.24168871 -0.03883115 0.032781072 -0.058749877 -0.023259075 -0.043376625 0.0
0.0 -0.15120175 -0.013644195 -0.037182916 -0.054181464 -0.14885928 0.10427416 -0.09456219
0.039768413 -0.027375625 -0.053294234 -0.10912111 -0.10836609 -0.13108669 0.0025095437 -0.18928358
-0.25925368 0.039793286 -0.086764134 -0.04244354 0.03853501 0.16956791 -0.023209553 -0.07040299
0.06307961 -0.10578802 0.17900434 -0.059517965 -0.10791714 0.03679848 0.01968717 -0.010658654
0.04878464 -0.065011054 -0.08185934 0.037370164 -0.15664493 -0.007520112 -0.12575455 -0.08556172
-0.02949388 -0.11927555 -0.2769649 -0.062149733 -0.1317565 -0.013921699 0.034277827 -0.09931068

conv1.lin_l.weight f4 [64, 4]
00000000: dcbe 283e 206b 293e 1d8d ba3d 259c 8dbd
00000010: 4c9c c1bd 8d7c 15bc 9906 9f3d 4c4a 813d
00000020: ef4e 063e 8f5f 233e b5bc 21bd 7447 a6be
00000030: 077a fcbd 5d78 673e 8b46 76be 2fe7 823e
00000040: 6028 0c3e 2092 56be 0d31 213d 51d1 99be
00000050: 1373 173c 4c29 01be 0158 153e 132c 1e3e
00000060: 9dde 803e 0a7d 19be 619e 20bd 7f9b 57be
00000070: 1107 32be d7be 83be 1587 07be 3f14 1bbe
00000080: aa60 023d 1f51 4dbe 0f29 20be 820e cf3d
00000090: a46a d5be d512 643d 753a 0b3d b7a5 cfbd
000000a0: 0e5f bfbe 251b 9ebe e522 9cbd a7ef ffbd
000000b0: cff0 33be 4bb7 79bc bae4 073e 348f 0abe
000000c0: 3c23 23be a5b4 063e 6387 c8bd a5f4 063e
000000d0: ec1b 9fbe 3bb4 febd effc 7bbc 3308 1a3e
000000e0: 6039 a4be 7c15 0bbd a878 ddbe 0033 743e
000000f0: a59c 85bd 1e66 6abd 6d6a 0fbe cc93 91be
00000100: 9c3d 123d 9345 6abe a24c 4dbe 9d5c 75be
00000110: d9bd 913e af31 86be 8896 88bc 6403 de3c
00000120: 7b04 9ebe c39e 133c cb2d a3be 151c 39be
00000130: d542 e6bd 3456 8bbd 8150 68be db67 79be
00000140: 4fc0 09be 2165 a23d 5370 393e 7713 f539
00000150: 86f1 253e 9f73 f2bd 4f56 e8bd 4285 733e
00000160: 6644 b4bd 1aaa 363e e64a 333e 758f 903d
00000170: 1ebf cabe a8e1 09be d416 e63d edcf a2bd
00000180: b8e4 74bc cbb8 6fbc 81df 203e 9d5a 7abe
00000190: 7f17 5a3d 1faa 87bd 48de a8bd e1a0 9a3d
000001a0: 922d a83d 9a9b 97be e921 bb3d b278 7c3e
000001b0: 254f 583e af3e 2f3e a246 533d 4075 843d
000001c0: 2e13 a2be 0851 d13d 548c 4e3e 82fc 11bd
000001d0: 033f 0c3e fda4 15be dd4d 073e 43fb 203e
000001e0: c342 96bd ddcd 89bd 67d8 38bd 5c86 493e
000001f0: e7a2 243e 714d d23d e4b6 48bd 60ec 5dbe
00000200: 3eb5 553e 24ef fd3c 124b 86be 8ca1 3abe
00000210: e33a 423d 4bea 4a3e 1373 a83d 20ff 133d
00000220: 6847 fbbb 3631 91be 3b86 f9bd 515f 263e
00000230: 9e7f 723e e26e 9cbd a152 8b3d 39d6 b2be
00000240: 142f adbe ee7d 35be eddf a83d d42f bf3d
00000250: dd22 043e 143d a13e adf6 73be 4b11 b8bd
00000260: d823 3abe 1ba3 c5be 148c 683e 7086 2e3e
00000270: 13cd 6d3e efb9 68be f8ef d03c 2b1f aa3d
00000280: fdb5 b6be 6532 883e 540e 2c3e ca1b 1a3e
00000290: 3717 9e3e 056f f73d 3bef 873d fb24 34be
000002a0: e5e3 91bd 6127 8e3e a38a 96be d9e0 43be
000002b0: f4df 983d 462d 77bd 340b e03d 914d 8cbe
000002c0: 3cd0 973c d833 8f3c 73c6 38be eedf 273d
000002d0: aeac 42be e106 103e 0bfb 25be e858 9b3e
000002e0: 1f19 b73d 5654 c5bd 9e2e 393e 41ce a7be
000002f0: 1d7b 2d3e 5786 73be e0a7 c5bd d9f1 a73e
00000300: 6029 2fbe 0baa ddbc cfc0 2e3e 0871 3fba
00000310: 2e87 683d 7b00 533e 1564 5bbe 2323 88be
00000320: 8050 743e a56e 2ebe 8958 a93c 63e4 f2bd
00000330: 06a6 1bbe 8d68 c0be 8997 bd3d 9f99 a63d
00000340: f4eb 363e a122 ba3d 7df3 e43c f3b0 3dbd
00000350: 6150 9cbe be2c 5e3e cd1f 413e 668d f9bd
00000360: bb26 be3d 135e a0bd 33ea 30be 5568 23bc
00000370: f0e6 593e 54b5 81bd 0216 4c3d 03c5 f23d
00000380: 85bb 08be 3604 4dbe fe76 d93d e9b0 0cbd
00000390: 235c 433d 5cc5 813d 3dba d2bd d1e6 90be
000003a0: 70de a13d 60e0 4a3e f72f 00be 9eb3 00bc
000003b0: 10a1 c8bd a308 3c3e 9803 92bd 30c2 1a3e
000003c0: 0774 98bd 162c a9bd 1c4b 4b3d 2c38 e13d
000003d0: 98ce 75be 72d5 1ebe 7753 d43c 83c9 053e
000003e0: b8eb 91bd fd81 5bbc c29c 8d3d a472 7b3e
000003f0: 1196 04bd 413d 81be f4ad 9bbc fc96 34be
0.16479057 0.16544771 0.091089465 -0.06914548 -0.094536394 -0.0091239335 0.0776493 0.06312999
0.13116048 0.15954421 -0.039486606 -0.3247639 -0.12327962 0.22604509 -0.24050348 0.25567004
0.13687277 -0.2095418 0.03935342 -0.30042508 0.009243744 -0.1261341 0.14584352 0.154465
0.2516984 -0.14989105 -0.039213542 -0.21055411 -0.17385508 -0.25731537 -0.13235123 -0.15144442
0.031830467 -0.20050476 -0.15640663 0.10110189 -0.41682923 0.055682022 0.033991296 -0.101390295
-0.37377208 -0.30880085 -0.07623843 -0.12496882 -0.1757233 -0.015241454 0.13270846 -0.1353119
-0.1593141 0.13154848 -0.09791448 0.13179262 -0.3107599 -0.1243672 -0.015380128 0.1504219
-0.32075024 -0.033956036 -0.43256116 0.2384758 -0.06524018 -0.057226293 -0.14005442 -0.28433073
0.035703287 -0.22878103 -0.20048764 -0.2396111 0.28465155 -0.2620978 -0.016673341 0.027101226
-0.30862793 0.00901002 -0.31870875 -0.18077119 -0.11243216 -0.06803551 -0.2268696 -0.24356024
-0.13452266 0.07929445 0.18109255 0.00046744544 0.16205415 -0.11838459 -0.11344587 0.23781303
-0.088021085 0.17838326 0.1750904 0.07058612 -0.39598936 -0.13464987 0.11234823 -0.07949815
-0.014947109 -0.01463146 0.1571026 -0.24448629 0.053245064 -0.06624245 -0.08245522 0.075502165
0.08211817 -0.29610902 0.09137327 0.24655417 0.21123941 0.17113756 0.051581033 0.06467676
-0.31655258 0.102205336 0.20170718 -0.0356412 0.13695912 -0.1461372 0.13213296 0.15720849
-0.073369525 -0.067287184 -0.045128252 0.1968016 0.16077767 0.10268677 -0.049002543 -0.21672201
0.2086992 0.03099782 -0.2622915 -0.18225688 0.04741944 0.19815938 0.08225074 0.036131978
-0.0076684244 -0.28357857 -0.121838056 0.16247298 0.23681495 -0.07638337 0.068028696 -0.34929064
-0.3382498 -0.1772382 0.082458355 0.09335294 0.12903924 0.3149191 -0.23824568 -0.08987673
-0.18177736 -0.38601002 0.22709686 0.17043471 0.23222761 -0.22727178 0.025505051 0.08306726
-0.3568572 0.26600948 0.16802341 0.15049663 0.30877087 0.12081722 0.066374265 -0.17592232
-0.071235456 0.2776442 -0.29402646 -0.19128741 0.07464591 -0.06034591 0.10939637 -0.27402928
0.018531911 0.017480776 -0.18044452 0.04098504 -0.19011185 0.14065124 -0.16209047 0.30341268
0.08940338 -0.096352264 0.1808419 -0.32774547 0.16941495 -0.23781715 -0.0965116 0.32801703
-0.17105627 -0.027058622 0.17065738 -0.0007302915 0.056769542 0.20605652 -0.21424897 -0.26589307
0.23858833 -0.17034395 0.0206721 -0.118599676 -0.15200052 -0.37579766 0.09257419 0.0813477
0.17863446 0.09088636 0.027948136 -0.04631133 -0.30530074 0.21696755 0.18859787 -0.12185173
0.09284731 -0.07830443 -0.1727684 -0.009973605 0.21279502 -0.06333414 0.049825676 0.11853983
-0.13352783 -0.20021138 0.10618399 -0.034348402 0.04769529 0.063364714 -0.102894284 -0.283011
0.07903755 0.19812155 -0.12518297 -0.007855324 -0.09796345 0.1836267 -0.07129592 0.15113139
-0.074440055 -0.08260362 0.049632177 0.10997042 -0.2400459 -0.1551111 0.025918705 0.13065152
-0.07125038 -0.013397691 0.06914665 0.2455545 -0.032369677 -0.25242046 -0.019003846 -0.17635721

conv1.lin_l.bias f4 [64]
00000000: 8cfd f9be 5228 27be 6ec6 13bd 7407 d1bd
00000010: 42a2 583e b971 f1be f14f b63c be4b a43d
00000020: c955 61bd 88d0 35bf 6fe6 ad3d ee7c 5d3c
00000030: d373 a43e ba6a ba3c dbc7 b03d e520 f3be
00000040: 05bf 113e e971 95be 2b9c e1bd 81d7 de3d
00000050: c378 a03d ab54 e8be 49b5 fc3e 1d69 b0bd
00000060: 511b f13d cec6 ebbe 1d17 b33e 00eb 13be
00000070: 9ba3 d33d 2906 3bbe 5966 c63e b165 39be
00000080: 6225 083e 7ad3 9939 8d81 b53e 0e90 9e3c
00000090: a010 e2be 460b 193f 2f98 c2be 2401 0abf
000000a0: 2ba0 09be 0738 cabe 4c58 e63d a82b bf3e
000000b0: 0d28 d8be 477e 9fbd c3eb d7be 223e 5bbe
000000c0: 1f42 2f3c 46f4 d9be bd56 a53e 1c45 f4bd
000000d0: ead0 fdbd b062 de3e a712 b0be d129 91be
000000e0: 8e30 af3d a890 27bd 98da aebe ecd9 e43c
000000f0: 507d 01bf b83f c0bd 66a9 403e ebdd 1c3e
-0.48826253 -0.16323975 -0.03607791 -0.102065 0.21155646 -0.47157076 0.022254916 0.08022259
-0.05501345 -0.7102132 0.08491217 0.013518555 0.32119617 0.02275597 0.086318694 -0.47486034
0.14233024 -0.2918847 -0.11016115 0.10880948 0.078355335 -0.45377097 0.4935706 -0.08613799
0.11772788 -0.46050113 0.34978572 -0.14445114 0.1033394 -0.18264069 0.3874996 -0.18105198
0.1329551 0.00029339996 0.35450402 0.0193558 -0.4415331 0.59782827 -0.38006732 -0.5390799
-0.13440005 -0.3949587 0.1124731 0.37337995 -0.42218056 -0.07787757 -0.4217206 -0.2141042
0.010696917 -0.42569178 0.3229274 -0.11927244 -0.12393363 0.43434668 -0.3438923 -0.28352216
0.08554183 -0.04090944 -0.3415115 0.027935944 -0.50581837 -0.093871534 0.1881462 0.1531903

conv1.lin_r.weight f4 [64, 4]
00000000: b4b3 213e d780 9d3c 717b 29bd 69e6 013e
00000010: 2e82 fdbd c8a4 94be 9827 d3bd a2e5 083d
00000020: 716a 8fbe 4116 53be a6e5 303e baf9 df3d
00000030: 2b33 8fbe bef6 dfbd 30fb 1e3e f94b 723e
00000040: e4b0 7ebe 9683 563e 4194 5f3e 751a 1b3d
00000050: 307e b03d 29b8 26be d78c 10bd 3784 a5be
00000060: b2a1 3ebe a2c9 86be 740f 303d 61c0 85bd
00000070: 3d36 2b3e 161b 183e 0b88 243e f4bd 61be
00000080: 7975 023d 2568 fd3b 22aa dd3d 0f7a 793d
00000090: a2b5 73be 9db4 d1bd ad50 b3bd d428 e0bd
000000a0: f410 fdbc 6fbd 7d3d 4690 513c 4a2a 7cbe
000000b0: 32bb 87bd 8a78 783d f74d 41be 9ee2 f73d
000000c0: 6059 f73c 33b7 94be 0e79 013d 692b 9a3e
000000d0: 5f06 593e 5a7c ef3d bc9f a73e f01a dd3e
000000e0: d1d6 05bd 1629 3cbe 2102 8abd d065 19bd
000000f0: 85c3 de3d ab0e 20be 1122 163d d3cc 033e
00000100: abe8 493e 2a18 4ebe 502a ecbd a518 843e
00000110: a12d 99bd ea76 51bd 1748 c03d 00f2 853e
00000120: e478 febd d07e c03d 59d2 28be bcfc c33d
00000130: 30b1 7b3d 084a e63c 1586 e33d edc7 8abe
00000140: 6cab 913e f36a 4c3d 1552 5e3e 80ae 52bc
00000150: b4f8 d43d f70e a2be 097a bcbd 57e8 553e
00000160: 4a93 0a3d 4e44 943e 604a 5cbe ab6a 723e
00000170: 264c 553c f63f 51be af83 7a3e dd03 093e
00000180: e8cc 393e fb75 bbbe 72fb 86be 8d5f 7e3d
00000190: d9e3 743e 1338 043e d798 6f3d 51ce 8abe
000001a0: 25ee 92be 9fd6 1e3e 923b 6abe 147b 9bba
000001b0: a4be a83d a345 983e 98fa 893e 0f93 e8bc
000001c0: 2377 88bd f068 76be 8050 b4bd 47ad 13bc
000001d0: 51eb d9bd c765 803e cb27 3ebd a56a 2fbc
000001e0: e352 69bd fbf9 823e 1b77 283e a554 273d
000001f0: 26eb 12be 8d5c 99be 822b fe3d 9a19 943e
00000200: 19cf adbd 541d 4cbe 89e7 83be 7af5 17be
00000210: f91a 15be 2f24 75be 6733 e73d 9199 aabe
00000220: 748c a93e 9c2f 55be 7406 9dbc cb2c 743e
00000230: 00fc 903d fa78 b03d e2c5 543e 453e 2cbe
00000240: 9ac3 b23d 5f64 84be 0b7a 763d 833a 42be
00000250: 77a6 49be 465c 093e 4aee ba3e 744a 243d
00000260: 5dd0 a4be 4a13 1a3e 25e7 77bd 612b 8fbe
00000270: 53b1 253e 2cd3 aa3c 6f89 003d 283b 653e
00000280: f70c 0b3e d0d6 ff3c f2d2 dcbe da73 abbe
00000290: de3d 143e bf47 d9bd 79a8 3f3e 5fc1 6e3e
000002a0: 58de 753e c486 703e 6da9 f5bd 200d aa3d
000002b0: bd1e 17be eeaa a4bd 9b02 693e 2880 61be
000002c0: 3f2c d8bd 76dd 18bc 56c5 1cbe d12b 40be
000002d0: 1b22 143e 165e da3c b710 5dbe 7acd 313e
000002e0: 3ad1 58be 14c1 1b3e 2df0 023e 21ff a33e
000002f0: 218b b93d d347 8abe 583a b7bd 766b 613e
00000300: 135b 0cbc 82be 0cbe 0716 64be e51c 44be
00000310: 8fda d5bd 724f 973e affc 843e 3ab2 ae3e
00000320: 9d0b a03e 9d7a 1e3e 42d8 863e ff07 a33e
00000330: 4f2f 033e 4a31 7cbe 40da c73b f246 dabd
00000340: 0a17 9c3e d8f9 a03d fa0e c63e 023c 83bd
00000350: 43cb 443d df3d 2cbd d115 dd3d 6bb0 953d
00000360: 1549 923e 48f5 a8bd fe03 39be f911 0a3e
00000370: 223e 3abc 2726 453e d344 5abd d951 b4be
00000380: 1a99 94be d4fa 7ebd 6cdd 943e f789 3b3e
00000390: 8d9b 293d 36bb 71be 8f9b 42bd f951 b53a
000003a0: 1739 fcbd b666 aabc f03d 4ebd 3318 cd3e
000003b0: 06ca 6abe 018c c0bd e14a 8bbd d70e c73c
000003c0: 08ec 1abe 36b1 393c 9d0e d0bd 743c c53d
000003d0: 3718 1dbd 6ed4 643e 0573 853d e768 92bd
000003e0: 9d99 1fbe 10a4 44be ef07 913d 9185 71bc
000003f0: 5749 adbd ab15 57bd da45 95bd 3f3e c53e
0.15791208 0.019226475 -0.04137749 0.12685551 -0.123783454 -0.29031968 -0.10310286 0.03342212
-0.28010896 -0.20613958 0.17275104 0.109363034 -0.27968726 -0.10935734 0.15525508 0.23661794
-0.24872166 0.20948634 0.21833898 0.03786703 0.08617818 -0.16281189 -0.035290565 -0.32327434
-0.1861637 -0.2632571 0.042983487 -0.06530834 0.16719909 0.14854082 0.16067521 -0.22045118
0.031850312 0.0077333623 0.10823466 0.06090742 -0.23799756 -0.102395274 -0.08755622 -0.10945287
-0.030891873 0.061948236 0.012790745 -0.24625507 -0.066275015 0.06066183 -0.18877397 0.12103771
0.030193985 -0.2904602 0.031609587 0.30111244 0.21193837 0.1169364 0.32739055 0.43184614
-0.032675568 -0.18375048 -0.06738687 -0.03745061 0.10877136 -0.15630595 0.036653582 0.12871103
0.19717662 -0.20126405 -0.11531508 0.25800052 -0.07479406 -0.051138796 0.0938875 0.26161194
-0.12425402 0.093991876 -0.16486491 0.0956969 0.061448276 0.028111473 0.111095585 -0.27105656
0.28451097 0.049906682 0.21711 -0.012858987 0.10398999 -0.31652042 -0.09202964 0.20889412
0.033831872 0.28958362 -0.21512747 0.23673503 0.0130186435 -0.20434555 0.24464296 0.1338038
0.18144572 -0.3661345 -0.26363713 0.062102843 0.23915042 0.12912016 0.05849537 -0.27110532
-0.28697315 0.15511559 -0.22874287 -0.0011862242 0.08239487 0.2974063 0.26949 -0.028390436
-0.066633485 -0.24063468 -0.08804417 -0.0090134805 -0.10640586 0.2507765 -0.04642467 -0.010706578
-0.056963813 0.25581345 0.16451685 0.040852208 -0.14347515 -0.29953423 0.12410642 0.28925782
-0.08486766 -0.19933063 -0.25762585 -0.14839736 -0.1456107 -0.23939584 0.11289101 -0.33320287
0.3311497 -0.20818943 -0.019168116 0.23845212 0.07079315 0.086168244 0.20778611 -0.16820629
0.08728714 -0.25857827 0.060174983 -0.18967633 -0.19692408 0.13414106 0.36509925 0.040110067
-0.3219022 0.1504642 -0.06052317 -0.27962783 0.16180925 0.020852648 0.031381067 0.22385848
0.13579164 0.03123036 -0.43129689 -0.33486825 0.14476725 -0.106093876 0.18716611 0.23315953
0.24010599 0.23488909 -0.11995206 0.08303285 -0.1475782 -0.08040415 0.227549 -0.22021544
-0.10555314 -0.009330144 -0.15309653 -0.18766715 0.14466135 0.026656192 -0.21588407 0.1736354
-0.21173564 0.15210372 0.12786932 0.32030585 0.0905974 -0.27007923 -0.08946675 0.2201365
-0.008566636 -0.13744548 -0.22274028 -0.19151647 -0.10442077 0.295528 0.25974032 0.3412035
0.3125886 0.15476461 0.26336867 0.31842038 0.12811016 -0.24628177 0.0060990155 -0.10658063
0.30486327 0.07860154 0.386833 -0.0640793 0.048045408 -0.042051192 0.10795177 0.0730904
0.28571382 -0.08249909 -0.18067929 0.13483419 -0.011367353 0.19252835 -0.053288292 -0.35218695
-0.29023057 -0.062250927 0.2907518 0.18314348 0.04140811 -0.23606572 -0.047511633 0.0013833634
-0.123155765 -0.02080093 -0.050352037 0.40057525 -0.22928628 -0.094017036 -0.068013914 0.024299068
-0.15129101 0.011333754 -0.10159037 0.09630671 -0.03835317 0.2234666 0.06516079 -0.07148915
-0.15585943 -0.1920321 0.07081591 -0.014741317 -0.08461254 -0.0525109 -0.07288714 0.38524053

conv1.lin_r.bias f4 [64]
00000000: e3d2 cdbc 47e6 0ebf 7769 f23d df0f a8be
00000010: 98ec bdbe aacf c13e dffa 46be 3552 543e
00000020: 3f9c 183e ddd9 ac3e 833c 243d e1f7 b5be
00000030: daa5 50be d229 8cbe 154b 5e3e 7bc9 313e
00000040: ba08 42be 9773 c73e 012b af3b b019 103e
00000050: 9492 ae3d 1271 ba3e 6be1 c2be 9c88 823e
00000060: d942 373e 352b 163e d0b9 dc3e 1caf a9be
00000070: 35b3 72be 90ca b43d 143a f9be 910e b2be
00000080: 8a71 5a3d e1df 82be 1305 a2be d21f 9abe
00000090: 70b1 013d a0f5 58be 0b90 e2be 3d90 a03e
000000a0: 600e 473e 6837 483d ce1f 513c 0f90 a43d
000000b0: fdfa aabe e7eb 00be 3a2c b4be 1aee 09be
000000c0: 2ce4 d7bd a363 4bbd 31e8 073e 42e9 f3be
000000d0: 808e f63e a6fe 403d a5b9 83be 30fe 32bd
000000e0: 8613 3b3e a6f2 c4be ef2b bd3e 5ccf ccbd
000000f0: 9644 3e3e b4da b7be ef6a bcbd 7548 053f
-0.025124973 -0.55820125 0.11836522 -0.3282461 -0.3709457 0.37853748 -0.19431637 0.20734484
0.14903353 0.33759966 0.04009677 -0.3554068 -0.20375767 -0.27375656 0.21708329 0.17362015
-0.18948641 0.38955376 0.0053457026 0.14072299 0.08524051 0.3641439 -0.38062605 0.2549485
0.17896594 0.1466492 0.43110514 -0.3314141 -0.23701175 0.08827698 -0.48677123 -0.34776738
0.053330936 -0.2556143 -0.31644496 -0.30102402 0.03166336 -0.21187449 -0.4425052 0.31360045
0.19439077 0.048880965 0.0127639305 0.080352895 -0.33394614 -0.1258999 -0.35189992 -0.13469735
-0.10541567 -0.049655568 0.13272168 -0.476389 0.48155594 0.04711785 -0.25727573 -0.043699443
0.18269166 -0.38466376 0.3694758 -0.10000488 0.18580851 -0.35909045 -0.092000835 0.52063686

conv1.lin_edge.weight f4 [64, 2]
00000000: cf57 d6bd 7d70 c43d 38e0 1e3e 3f30 45bd
00000010: 3c3d 88be 77a5 1cbe 53ac 3a3e f931 5cbe
00000020: 38b3 45be ebe3 8d3d 43d6 a0bd cbd2 99be
00000030: 39c9 6fbe f6ff 8e3d ea6a 85bc a7e5 48be
00000040: 403f d3bd c6f5 d0be d4a3 9e3d 084c 08be
00000050: 4889 063e 1ad4 4d3d 4ff6 16be 68c1 353e
00000060: 50d1 34be d914 78be c57f b23e 8adf b2bd
00000070: d8a9 61ba 4ffb 943e 930f 96be bd6f bcbe
00000080: 12d7 dbbd 3428 4b3d 00f5 263e d530 3f3e
00000090: 70f9 813e 199e 063d 233a 4dbe 8c73 b53e
000000a0: 7365 4a3e d679 d3bc ac98 183d a738 16bd
000000b0: 08c0 0dbd 9034 1f3e 008b 1d3d 5d69 37be
000000c0: 5411 093e 449e 473e 2603 133e 7039 913e
000000d0: 8d20 06be 6cf4 4e3d 7aee 6ebd 75a7 a2be
000000e0: 74bc 3cbe 454c aabd 2173 313d a1b0 72bd
000000f0: 0ff3 623e 6ca9 65be 738e 7c3d cbb1 923e
00000100: 9557 7dbe 5463 ccbd 6892 6ebb 3eed 96be
00000110: 2e98 a4be 0e71 a2be efde 2e3b 02f7 833e
00000120: 065d 343e 13d9 5a3d 4ea6 3f3e 0196 ad3e
00000130: b45f d33c f00c 5abd 5d90 903e cc99 a63e
00000140: 625f 10be b3b9 78be f23e 55bd 5a4a 0ebe
00000150: 9ef5 8dbe 0c00 a53e 47e2 563e e7c8 b5bd
00000160: 389d c83e 40e2 363e 8487 b3be 5744 58be
00000170: 4c1e e23c e03e 85bd 6536 8abe 948c a0bd
00000180: 1601 423e cb25 05be cc09 d6bd 97b3 1cbc
00000190: 1a84 a0be f937 bebd 074b 3abe f03b 903d
000001a0: 3d48 40be aee5 d7bd 20a5 9a3e 8853 4bbe
000001b0: b680 4bbe 183d 943e e024 4f3d fbd9 33be
000001c0: a928 953c 4f8f 5b3e ac08 b63d 566f 33be
000001d0: 81d3 80bc 486e f0bd d031 a83c b0d8 873d
000001e0: cf47 adbe 83f6 87be fb29 55be cf33 dfbd
000001f0: 2114 88be 5c36 54bd 4738 6fbd 8c15 423e
-0.10465967 0.09591768 0.1551522 -0.048141714 -0.26609218 -0.15297495 0.18229799 -0.21503438
-0.19306648 0.069282375 -0.07853367 -0.30043635 -0.23416604 0.069824144 -0.016286332 -0.19618855
-0.10314798 -0.4081251 0.077460915 -0.13310254 0.13138306 0.050251104 -0.14742397 0.1774956
-0.17657971 -0.24226703 0.34863105 -0.08734043 -0.00086083775 0.29097983 -0.29308757 -0.36804
-0.10734381 0.049598888 0.16304398 0.18670972 0.25385618 0.032865617 -0.20041709 0.35439718
0.19765262 -0.025814932 0.037254974 -0.03667512 -0.034606963 0.15547395 0.03846264 -0.17911287
0.13385516 0.19493967 0.1435667 0.28364134 -0.13098355 0.050526068 -0.058332898 -0.31768385
-0.18431264 -0.083153285 0.043322686 -0.059250478 0.22163032 -0.2242791 0.061659288 0.2865127
-0.24740441 -0.09979883 -0.0036403183 -0.29477876 -0.32147354 -0.3172688 0.0026683172 0.2577439
0.1761361 0.053429674 0.18715784 0.33903506 0.02580247 -0.053234994 0.2823514 0.32539213
-0.14098886 -0.24289589 -0.052061982 -0.1389555 -0.27726454 0.32226598 0.20984755 -0.0887621
0.39182448 0.17859745 -0.35064328 -0.2111982 0.027602337 -0.06506133 -0.26994625 -0.07839313
0.18945727 -0.13002698 -0.10451087 -0.009564302 -0.31350785 -0.0928802 -0.18192683 0.07042682
-0.18777557 -0.10541855 0.30204105 -0.19856083 -0.19873318 0.2895286 0.050572276 -0.17563622
0.018207865 0.21441387 0.08888373 -0.1752294 -0.015725853 -0.117397845 0.020531565 0.06633127
-0.33843848 -0.2655526 -0.20816796 -0.108985536 -0.26577857 -0.051809654 -0.05840328 0.18953532

conv2.att f4 [1, 1, 64]
00000000: 1a59 c8bd 5fb0 053f 74b4 98be 0510 1cbd
00000010: 59bc b83e 430f b3bd e999 1b3e 106f 25bc
00000020: 608e e9bd fd7d ee3d e253 74be 1724 c83c
00000030: b14d e4bd 0e30 42bd 3e66 b8bd dc8e 8ebe
00000040: 0f1a e63c 52d4 293e e8a0 13bb bb50 8ebe
00000050: 3eda 22be dde1 a73e bfd6 293e 81f6 b9bc
00000060: b85c dbbd cf35 373e 94e8 77bd 4c1c 4f3e
00000070: 71e5 6e3c 6507 15be 27b6 54bd c3b8 253e
00000080: d513 5e3e 6ebe c23e 0de8 443e 6846 aabd
00000090: bb78 7fbc 4f1a 90bd 2910 1ebe dbfe 73bb
000000a0: 3e1d a0be c927 16be 7762 cabe 88c3 4abd
000000b0: 642a 1f3e 760a fa3d ea64 f8be d88a 92bc
000000c0: 8392 ab3e 1996 b6be 956e 4d3e 469e 84be
000000d0: d45c 21be 80bf e33d fd88 f2bd 2aa3 2ebc
000000e0: ab69 b2bc 2afa 6c3e 0dd2 f4bd 7d56 8a3e
000000f0: 0073 3f3e fad3 96be 3ae8 3bbe e630 f03c
-0.0978262 0.52222246 -0.29825175 -0.038101215 0.36081198 -0.08743145 0.15195431 -0.01009728
-0.11404109 0.11645124 -0.23860124 0.024431271 -0.11147631 -0.04740911 -0.09003876 -0.27843368
0.028088598 0.165849 -0.0022526328 -0.27795967 -0.15903565 0.32789508 0.16585825 -0.02270055
-0.10711044 0.1789162 -0.06052454 0.20225638 0.01458107 -0.14553602 -0.051931527 0.16183762
0.21687253 0.3803591 0.19229145 -0.0831421 -0.015592749 -0.07036268 -0.15435852 -0.0037230763
-0.3127231 -0.14663614 -0.39528248 -0.04950288 0.15543514 0.122090265 -0.4851449 -0.017888471
0.33510217 -0.3566139 0.20061715 -0.25902003 -0.15758067 0.1112051 -0.11842535 -0.0106590185
-0.021778902 0.23142305 -0.119541265 0.2701911 0.18696213 -0.294586 -0.18350306 0.029320192

conv2.bias f4 [64]
00000000: 63db e2bd 7c1c a73d 2645 2abd 1dfc 8ebd
00000010: ed2e e2bc 8447 9ebd 54eb e63b 2739 ddbc
00000020: 493e 3abe d68c a8bd 0715 bcba d46d afbc
00000030: e237 90bd 0b8d 6cbd bf5b 353e b574 61bd
00000040: 2194 2cbd d962 b0bc cde2 2bbb 186f 12be
00000050: b36a 4e3c 7085 57bc 2ab9 31bc ee77 8cbc
00000060: dfc3 10be 547c c2bb c3f8 27bd 0000 0000
00000070: 72a2 9dbd cbe3 9fbc 2dad 3f3d b388 04bc
00000080: 0000 0000 0000 0000 8282 96bc 0737 17bd
00000090: dce6 14bd c229 d3bd 7596 31bc 0c79 12bd
000000a0: c908 61bd fbc4 2abd b7a4 09bd 9647 1e3b
000000b0: 1334 6bbc 1c1f 04bc 38ad 1bbc 5642 f13b
000000c0: 0000 0000 866f c6bd 0000 0000 8cec 87bc
000000d0: 5150 5ebc 0000 0000 c0a3 c63d 5004 41bd
000000e0: 6cce 49bd 7e8f 12bc 5417 c2bc 6b5d 7a3d
000000f0: 0000 0000 7d63 d0bc 04fc 21be 455a 0ebd
-0.11077001 0.0815973 -0.04156985 -0.069816805 -0.027610267 -0.07728484 0.0070470963 -0.027004791
-0.18187822 -0.08229987 -0.0014349528 -0.021414675 -0.07041909 -0.057751697 0.1771078 -0.05504294
-0.042133454 -0.02153151 -0.0026227713 -0.14300191 0.012598681 -0.013154373 -0.010847369 -0.01714703
-0.14137219 -0.005935231 -0.041008722 0.0 -0.076969996 -0.0195178 0.046796013 -0.008089232
0.0 0.0 -0.018372778 -0.036917713 -0.036352977 -0.10310699 -0.010839094 -0.03575997
-0.05494002 -0.04169176 -0.03360435 0.0024151555 -0.014355677 -0.008064058 -0.009501748 0.007362644
0.0 -0.0968924 0.0 -0.016592287 -0.013568954 0.0 0.096992016 -0.047123253
-0.049269125 -0.008945344 -0.023692764 0.061124247 0.0 -0.025438065 -0.15818793 -0.034754056

conv2.lin_l.weight f4 [64, 64]
00000000: c26d 7a3d 6405 a03d 3b5d 583e 0f99 213e
00000010: c15c 3a3e 89be fabd dfa5 843c 66ff 933d
00000020: 8043 d1bc a71c 60bd 0b14 d6bc ec5a 34be
00000030: 317d 24bd be23 49be ce2d 1d3e 5d68 5a3e
00000040: 5f8d 0e3e 6002 07be e6e1 763c be3c 8cbd
00000050: 4a63 f33d 6f67 b03b a762 25bd 81a4 93bd
00000060: a6ad acbd c021 dcbd 4b47 89bd 1c88 22be
00000070: dc31 c03d 9f53 debd b2b8 453e ef14 90bd
00000080: 8743 6fbe 8acb bbbd f512 fabc d88d b2bc
00000090: 06ac 373e 8012 6fbc 78c5 ce3d 5dbe 473e
000000a0: 95a5 c63d 7319 3e3d 07f0 8fbb 8e01 2c3d
000000b0: e310 903b 95ce 883c c417 b1bd d36d f7bd
000000c0: 82af 81be bcfb cdbd 45cf 963d e719 03b9
000000d0: f536 983d c2df 16be 3b13 bebd 0a04 e5bd
000000e0: b1c5 92be 9e2e 1c3e bfbd 343e c704 3ebe
000000f0: da40 243e 7c63 e13d 5bdb 20be 3530 d8bd
00000100: f0b4 8abe 3932 e9bd 56ab 143d e3be 32bd
00000110: 8d7a e83d 838f 55be 96c5 383e 875c 16be
00000120: 9e95 813d ac39 853e 2105 d53d 2b10 273d
00000130: e3dc dabd 9013 2b3e ea36 bf3d 4b9f 433e
00000140: 167e 39be 03f1 44be 2873 ccbd 7f45 cb3d
00000150: 23fe bebd 2da1 c4bd fa54 78be dfc8 6a3d
00000160: b812 88bc f19c a23d f4f5 f23d 65e5 583c
00000170: 63a7 953e d8a0 b3bd ceb1 4f3e 1807 0f3d
00000180: c8d0 0f3b 25fe 4ebe 8547 e1bd bbf7 a3bd
00000190: ab80 15be 3b68 87bd f4f9 fa3c e5db adbd
000001a0: 2b0f 0abe 6670 25bd 27d8 40be b4e1 553e
000001b0: a160 2abe 6234 92bd 8688 373e 21ff b7bd
000001c0: 6f2e 78bc 1f52 043e ee30 60be 184d d6bc
000001d0: 0b2f 5dbe b227 883e 6faf 65be 0b7e 40be
000001e0: 59bc 7f3e 4ec2 44bd a9a9 82be 8709 0dbe
000001f0: 26a6 e53d 8a35 2c3e f2b7 7f3c b7e5 5ebe
00000200: 03f7 cd3c f758 cabd 1f85 223d 6c1d 7f3d
00000210: 5bc2 46be 3062 75bd 5faa 373d 5798 023e
00000220: 8bb7 39be 8569 853d 3edc f1bc 8c91 40be
00000230: 8cbd 103e 4360 c33d bb66 ed3d 02fc afbd
00000240: ba91 07be e898 b83d e28d 083e 36c7 b33d
00000250: abca 26be 80ef aebd d3cf 0b3d 3186 433e
00000260: b4ff 4c3e b703 06be c568 44be d712 153e
00000270: 5c85 7a3b 415c 1e3e 529b 183d ed80 14be
00000280: 2ffa 8d3d ed3c 123e 7c10 4dbc e984 023e
00000290: 4e3e 053e 906f f8bd 04cb 983d c862 a5bd
000002a0: bd30 1dbe daf3 9ebb fa4e 803d e062 9f3e
000002b0: 07da a7bd f1aa 65be 98e5 1e3e 5621 c33d
000002c0: 03d5 36be f7b6 cd3d 4d32 c83e a1e8 103e
000002d0: bf16 073e 92f6 63bd 7bd0 a83d a306 30be
000002e0: 2c15 9ebd fca3 b1bd f729 8b3d 78f7 a3bd
000002f0: 1985 d2bd e2cb e43d 658c df3d fb8d 353d
00000300: a4bd bbbb 2f53 8f3d 3af9 483e 7930 713d
00000310: 21ff 0bbe a050 123e e8a5 8dbe 40f6 5bbe
00000320: 9510 f13d f7d8 59be 19df 31be 5023 64be
00000330: 70cb ccbc 4a42 193e 3427 4d3d 2dde 49be
00000340: 044e e5bd 2f82 a63d a939 c53c ef2d 753d
00000350: 6be7 2c3e 03f8 c63d 85b9 46bd 4d4b 453d
00000360: f0d1 1b3e 11c6 90bd b124 0dbe ca61 893d
00000370: ec6c 23bc 2b43 1fbe 920e e1bb 7375 1e3e
00000380: 8454 fb3d 779c 52be 18be a6bd 88fa 8cbd
00000390: 871d 6f3d a9da 89be f9b7 1abe c123 3fbe
000003a0: 9e07 c93d 98e0 dc3c d7a1 3fbb 6d77 c0bd
000003b0: 5e51 3abe feb9 2a3e b5cd d0bd 6727 d5bc
000003c0: 5120 3dbe 5cfd 7dbd 6056 15bc 94ab b93d
000003d0: d281 15be 7df8 153d b9cd 273d aa65 343d
000003e0: cb19 cc3c efc6 2abe df61 963d 39b1 b4bd
000003f0: c90a 10be cf72 953d 5378 58be dbf4 733e
0.06113983 0.07813528 0.21129315 0.15781043 0.18199445 -0.12243373 0.016192375 0.07226448
-0.025544882 -0.054714825 -0.026132604 -0.17612809 -0.040158454 -0.19642541 0.15349504 0.21328874
0.13921116 -0.131845 0.015068507 -0.06847523 0.11884172 0.005383424 -0.040377285 -0.07209111
-0.08431558 -0.10748625 -0.06703051 -0.15872234 0.0938451 -0.10855793 0.19308737 -0.07035243
-0.23365603 -0.09169681 -0.030526618 -0.021796152 0.17936715 -0.014591813 0.10096258 0.19506212
0.09699551 0.04641099 -0.004392627 0.04199367 0.0043965443 0.016700068 -0.08647111 -0.12081494
-0.25329214 -0.1005778 0.07363752 -0.00012502783 0.07432357 -0.14733794 -0.09281012 -0.11182411
-0.28666452 0.15252158 0.17650507 -0.1855651 0.16040364 0.11005303 -0.15708677 -0.1055607
-0.2709117 -0.11386532 0.03629621 -0.043639075 0.113515 -0.20855527 0.18044123 -0.14683734
0.06327365 0.26020563 0.10401369 0.040786903 -0.10686662 0.16706681 0.09336646 0.19103734
-0.18114504 -0.19232564 -0.09982902 0.09925365 -0.093258165 -0.09601054 -0.24251166 0.05732047
-0.016610488 0.079400904 0.11863318 0.013238286 0.29229268 -0.08770913 0.20282671 0.034918875
0.0021944512 -0.20214136 -0.109999694 -0.08006235 -0.14599864 -0.06611677 0.030636765 -0.08489207
-0.13482349 -0.040390395 -0.18832456 0.2088688 -0.16638424 -0.071388975 0.17923173 -0.08984209
-0.015147789 0.12921952 -0.21893665 -0.026159808 -0.21599977 0.26592785 -0.22430204 -0.18798082
0.24974193 -0.048036866 -0.25520065 -0.13773166 0.11213331 0.16817299 0.015607821 -0.21767317
0.025142198 -0.0988025 0.039677735 0.06228392 -0.19410078 -0.059908092 0.044840213 0.12753426
-0.18136422 0.06514267 -0.029523965 -0.18805522 0.14134806 0.09539845 0.1159186 -0.085929886
-0.13239184 0.090135396 0.13335374 0.08778231 -0.16288249 -0.08541775 0.034133743 0.19094159
0.20019418 -0.13087355 -0.19180591 0.14557968 0.003822646 0.1546488 0.0372575 -0.14502306
0.06932484 0.14281054 -0.012516137 0.12746014 0.13012049 -0.12130654 0.07460597 -0.08075482
-0.15350623 -0.0048508467 0.062650636 0.31130123 -0.08195882 -0.2242849 0.1551727 0.09527843
-0.17854695 0.100446634 0.39100876 0.14151241 0.1319227 -0.05565507 0.082428895 -0.17190032
-0.07718882 -0.08673856 0.067951135 -0.08006185 -0.102792926 0.111717 0.1091545 0.044324856
-0.005729394 0.06998288 0.19626322 0.058884118 -0.13671543 0.14288568 -0.2766564 -0.21480656
0.11770741 -0.21274172 -0.17370261 -0.22279096 -0.02499935 0.14966694 0.050086215 -0.1971366
-0.11196521 0.08130299 0.024075346 0.05985826 0.16885154 0.09715273 -0.04851677 0.048167516
0.15216804 -0.07069028 -0.13783528 0.06708105 -0.0099746995 -0.15552966 -0.006868192 0.15474491
0.122719795 -0.20567499 -0.08141726 -0.068837225 0.05837777 -0.26924637 -0.15109242 -0.18665983
0.09815906 0.026962563 -0.0029240751 -0.09397779 -0.18195102 0.16672513 -0.101954855 -0.026019765
-0.18469359 -0.0620092 -0.009114832 0.09065929 -0.14600304 0.03661393 0.040967677 0.044042267
0.024914643 -0.1667745 0.07342886 -0.08822865 -0.14066614 0.072972886 -0.2113965 0.23823874

conv2.lin_l.bias f4 [64]
00000000: 2449 53be c244 16bd d105 103c a001 70bd
00000010: a4c8 dd3c bef7 0abd c62f 933d 8d1a 0fbd
00000020: 51cb 8bbe c2de 15be a044 8fbd 1e4a 3bbc
00000030: 8880 99bd a6e4 7abd 33ec 7b3d 8b15 433d
00000040: d20e 8bbd 4dab 2b3e 343d f63d ac35 29be
00000050: cca8 c23b dc1c 87bd 1a1f 14be 6400 ea3c
00000060: 6936 22be f383 12bd 3e17 073b 7269 89bd
00000070: e625 8fbd 9db7 9bbc b934 13bd cf7a 093d
00000080: 17b4 18bd a25c e83d 1b53 bdbd dada 14be
00000090: 20a2 cbbd 3184 5ebe d09a ac3d 7f73 34be
000000a0: 23b6 403d f060 d53c 1b34 11be 0dd7 45bd
000000b0: b4d0 4c3c d0bc 203d 57cf eabc 4168 4ebc
000000c0: 4612 2838 3154 f8bd e361 133e 6236 c93d
000000d0: 02ae 18be edac 573e 9ea8 f13d 182b 21bd
000000e0: 44ed f0bc f224 a0bd 34ac b23a 3eda 933d
000000f0: a5a3 1c3e 9a05 3cbd 0605 4bbd 68e1 1fbe
-0.2063337 -0.036686666 0.008790449 -0.0585953 0.027073212 -0.03392767 0.071868464 -0.03493743
-0.27303556 -0.14635757 -0.06995511 -0.011431245 -0.074952185 -0.061253212 0.061504554 0.047627967
-0.06789936 0.16764565 0.12023392 -0.1652438 0.0059405323 -0.06597301 -0.1446499 0.02856464
-0.15841068 -0.035770368 0.0020613219 -0.06709565 -0.069896504 -0.019008452 -0.035938952 0.033564385
-0.037281122 0.11345793 -0.09244367 -0.1453661 -0.09943032 -0.21730115 0.08427966 -0.17622183
0.0470487 0.0260472 -0.14180033 -0.04830079 0.012500931 0.039242566 -0.02866332 -0.012598098
4.007134e-05 -0.12125433 0.1439281 0.09824826 -0.14910129 0.2106206 0.11799739 -0.039347738
-0.029410012 -0.07819547 0.0013631643 0.07219361 0.152968 -0.04590378 -0.049565338 -0.1561333

conv2.lin_r.weight f4 [64, 64]
00000000: edd6 163d 52ca 23bd 5b44 693d 9dc7 89bd
00000010: 11b8 6dbe 50ba fd3d 5bec 0abe 2192 243e
00000020: 6934 4bbd 76dd 653d 291a 3c3e 197b 1bbe
00000030: bb57 09be e107 6a3c c9ee 8ebd 84a0 5a3d
00000040: b1be 4d3e 12f7 4dbe 12ff 923d dc46 293e
00000050: 5e00 f83d 8d4e d33d f4a0 0c3e 598a 1c3d
00000060: c0f7 af3d 9d0b 643d d693 70be bc16 fdbd
00000070: 5b58 9c3d 0af4 42be 91e5 b1bc 240e dbbd
00000080: 0774 9e3d 3060 b73d b708 c63d 8214 f23d
00000090: 9545 0abe fd3a 283e f6c0 173e dddc 53be
000000a0: 5fb2 34be 0b2a cbbd 1cde 213e e419 903d
000000b0: 0e59 b93d fa6d eebd 9012 253e dba5 6b3d
000000c0: d7e7 cebd 4039 933d 627d 3dbe ffda 12bd
000000d0: 237e 07be c749 bd3d c2fe 41be 7a13 13be
000000e0: 0f9f ff3d 05ed 433e 39d6 29bd 8937 1cbe
000000f0: 2a1c 81be b299 df3d 518e 5cbe 0f17 cc3d
00000100: 6433 6dbe ef4d 3c3e 10de 493c 8444 b93e
00000110: 04e4 3f3e e2cf 773d 6c5e 23be e0c8 04bd
00000120: 58c8 37be fd1e febd 42c5 763c e477 b7bc
00000130: cf19 9a3e ae02 8bbd b024 da3b 64bd 16bd
00000140: 0aca 50be d075 dfbd 23b4 073e 64c9 843d
00000150: d2af c93d 13be 893e e74f 31bc f9bd 043e
00000160: ae2c 4abe c0d2 aa3e 8b9a 4b3c 6e73 70bd
00000170: f85d 94bd 6573 473e d1ce c03b 23e6 73bb
00000180: f33c 2e3e 0f60 2d3e 4714 0fbd 4457 abbd
00000190: ceaf 9e3e 709d 5a3e 6718 a9ba 0151 013d
000001a0: e444 1e3e c44e bdbc d546 903e 90e2 10be
000001b0: e9f0 1f3d adec b43e e53a 3a3d ff03 953e
000001c0: 8df1 92bd 7e3a 3ebd 4deb 9ebe f3ea 3ebc
000001d0: a48c 00be 4618 84be 4571 913e 500b b33c
000001e0: 2fdd b63e dd06 2dbd 82ac a73d a2a5 9a3e
000001f0: d1d5 babd d7e8 493e 816d 843e dadd 41be
00000200: 3c71 023e de2f d9bd 4482 3d3e d526 42be
00000210: 0c1c 4abe 157f 64be 0520 383c c055 9abb
00000220: 9f39 4fbc 0e89 8f3d bd48 2cbe 853a 983c
00000230: 30d8 1bbd 6c59 603d 9c5c ba3d 3f37 383e
00000240: 4bb9 13be 9949 be3d 55ab 58be 7bbb 2a3e
00000250: 42fb be3b f294 25be 4dd6 263d d341 8bbe
00000260: f67d 413e 9df3 3abe 0408 493c fb29 f83d
00000270: 43e6 80be b28b 96bd 4ee9 20be 16db 0f3e
00000280: 9b69 acbd 2727 6e3c 1045 ed3d 6075 213e
00000290: 91f9 74bd 9612 0cbd f884 bc3d 5ba4 0b3e
000002a0: 1364 d1bd 09d2 b23d 806b 1cbe 0219 343e
000002b0: 6eac 48be 1920 adbe a686 0cbe c853 82be
000002c0: 48a3 80be 744e d9bd ee6d 2bbd 68e1 c1be
000002d0: 5a2f 303e 2f6e 7d3e e6f3 d7bd c40e 64bd
000002e0: 7aaf 9ebe a33c 91bd 3e4b 1f39 f429 c63d
000002f0: 27da 2a3d 388d b9be 486c 72bd 6949 0bbe
00000300: 69f7 c638 8c1f 0e3e d93a dd3d 1eaf 78be
00000310: d2bf 793c c8c2 0cbc 97b4 153e 5011 7d3c
00000320: 4442 bf3d 6b27 b43c 0e93 163d ad6c 96bd
00000330: 7f1c 153e e417 13be 614a 45be bf14 febd
00000340: f9a1 0f3e a477 10be ae99 323e a6a2 61bd
00000350: bc33 503e 398c e4bd 6526 11be 793b 263e
00000360: a824 a3bd 1512 e5bd 6c0b 39be 2702 3abe
00000370: 3076 463e 7178 44be 77e3 963d 8fe2 85bd
00000380: 46b6 2ebe 6b47 abbd a872 c63d 9556 72be
00000390: 71d8 5d3e 7e1f e9bc 9a29 893d 185a 2cbe
000003a0: a8bf e1bd 3962 58be 57ca 0a3e 5249 243d
000003b0: c4bf cd3b 4fc4 a63c 94cf 4abe dae8 e7bd
000003c0: c0f7 9bbd 6a9d ac3c 9240 e6bd b692 d13d
000003d0: cfc2 143e 82a7 17be abc4 60be 95a9 2dbe
000003e0: ce9a 4a3d 3766 903d 2c10 ebbd 0aa1 28be
000003f0: 89d6 c63d 438d cebd 57c0 a13d 9792 1bbe
0.036826063 -0.03998787 0.056949954 -0.06727526 -0.23214747 0.12389052 -0.13566725 0.16071369
-0.04961053 0.056119405 0.18369354 -0.15183677 -0.13412373 0.014284105 -0.069791384 0.053375736
0.20092274 -0.20113781 0.07177557 0.16530937 0.12109445 0.10317717 0.13733274 0.038217876
0.085921764 0.055675138 -0.23493895 -0.12357852 0.0763404 -0.19038406 -0.021715911 -0.106960565
0.07736974 0.08953893 0.09669631 0.11820318 -0.13503106 0.16428752 0.14819703 -0.20689721
-0.17646168 -0.099201284 0.15807384 0.07036188 0.09050189 -0.1164207 0.16120362 0.05753122
-0.10102814 0.07188654 -0.18504861 -0.035853382 -0.13231711 0.092425875 -0.18944839 -0.14362898
0.1248151 0.19133385 -0.041464064 -0.1525556 -0.252168 0.10917987 -0.21538664 0.099653356
-0.23164135 0.18389104 0.01232101 0.36185086 0.18739325 0.060500987 -0.15953988 -0.03241813
-0.17947519 -0.12408254 0.015061678 -0.022396035 0.30097815 -0.067876205 0.0066572055 -0.03680171
-0.20389572 -0.10911143 0.1325231 0.06483725 0.09847988 0.26902828 -0.010822273 0.12963094
-0.19743606 0.33363914 0.012426983 -0.058703832 -0.072444856 0.19477613 0.0058840294 -0.003721603
0.17015438 0.16931175 -0.034931447 -0.08366254 0.30993503 0.2134912 -0.0012900949 0.031571392
0.15455967 -0.023108847 0.2817904 -0.14148927 0.03904811 0.3533682 0.045466322 0.2910461
-0.071749784 -0.0464425 -0.31038895 -0.011652696 -0.1255365 -0.2579977 0.2840673 0.02185598
0.35715625 -0.042242873 0.081872 0.30204493 -0.091228135 0.19717728 0.25864795 -0.18932286
0.12738508 -0.10604833 0.18506724 -0.18960126 -0.19737262 -0.22314103 0.011238103 -0.004709929
-0.012648015 0.07008563 -0.16824622 0.018582592 -0.03804797 0.05477278 0.09099695 0.17989825
-0.14426152 0.092913814 -0.21159108 0.1667308 0.005828292 -0.161701 0.040731717 -0.27198657
0.18895707 -0.18256994 0.0122699775 0.12117382 -0.25175676 -0.073508635 -0.15713999 0.14048418
-0.0841858 0.014535702 0.11585438 0.15767431 -0.059808318 -0.034197412 0.09205049 0.13636915
-0.10224166 0.08731467 -0.15275383 0.17587665 -0.19597027 -0.3381355 -0.1372324 -0.25454545
-0.25124574 -0.10610667 -0.041852884 -0.37867284 0.17205563 0.24749063 -0.10544567 -0.055678144
-0.30993253 -0.07091644 0.00015191452 0.09675971 0.041711953 -0.36240554 -0.059185296 -0.13602223
9.4874595e-05 0.13879222 0.1080224 -0.24285552 0.015243487 -0.008591361 0.14619671 0.015446022
0.09338811 0.021991452 0.036761336 -0.07344947 0.14561652 -0.14364582 -0.19266655 -0.12406301
0.14026631 -0.1410814 0.17441437 -0.055086754 0.20332235 -0.11159558 -0.14174803 0.16233625
-0.07965976 -0.111850895 -0.18070763 -0.18164884 0.19381022 -0.1918657 0.07367604 -0.06537353
-0.1706172 -0.08363231 0.09689838 -0.23665841 0.21664597 -0.0284574 0.06697388 -0.16831243
-0.11022884 -0.21131219 0.13553749 0.040108986 0.0062789638 0.02035728 -0.19805747 -0.1132371
-0.07615614 0.021071155 -0.112427846 0.10233061 0.14527439 -0.14809993 -0.21950023 -0.16959222
0.04946404 0.07050746 -0.11477694 -0.16467682 0.09708888 -0.10085537 0.07898014 -0.15192638

conv2.lin_r.bias f4 [64]
00000000: 8a2e ab3d 1070 12bb 07b3 ee3c 4d2f 7e3b
00000010: 421e 3a3e 4f4d 303d 17ee ac3d 9eb4 05be
00000020: 9cfc 81bd ca86 81bc 5708 1ebb ef66 c2bd
00000030: eb67 6fbc 9b5c 053e 3462 8abd a21b 6a3d
00000040: 8b8e be3d e8f4 a03d 6848 e03d da46 043d
00000050: 16bb 82bd dfc7 56bc 170a 8c3d 45d7 dfbd
00000060: 87ca 0a3d 4494 e73d 6113 3b3e ddef 0abe
00000070: 5eac a0bd fa3d 3dbd 4a96 623d c81e a5bb
00000080: d568 94bc 3b51 bd3d 59bc 9b3d d5ad 2ebe
00000090: eddd b03d c457 4c3c fb69 1abe db38 7839
000000a0: 426a 323d 5784 133e 8cc2 15be 9153 863d
000000b0: 1f0c b4bc 1675 1c3e b87c 29be f3cc 35be
000000c0: 0817 ee3d 70af 083e b168 963c 8a2b 18be
000000d0: b3e6 f8bb 69e7 533d 0b3b c03c c753 29bd
000000e0: 7ac5 073c cfef 80bd f44f e2bd 14e7 ecbd
000000f0: d239 73bb 9308 173e 8eb2 963a 092b b63d
0.08358486 -0.0022344626 0.029138101 0.0038785518 0.18175605 0.043042477 0.084438495 -0.13057181
-0.063470095 -0.015811343 -0.0024113858 -0.09492289 -0.014612178 0.13023607 -0.06757012 0.05715526
0.09304532 0.07859212 0.109513104 0.03229413 -0.0638334 -0.013109176 0.06837862 -0.10929731
0.03388455 0.11307576 0.18269111 -0.13568063 -0.078453764 -0.046201684 0.055319108 -0.00503907
-0.018116394 0.09244009 0.07604284 -0.17058499 0.08636079 0.012472097 -0.15079491 0.00023672303
0.043558367 0.14405952 -0.14624995 0.06558908 -0.021978436 0.1527904 -0.16551483 -0.17753963
0.116254866 0.13348174 0.018360468 -0.14860359 -0.007595861 0.05173436 0.023465654 -0.041339662
0.008286828 -0.0629574 -0.11050406 -0.11567512 -0.003711332 0.14749365 0.0011497305 0.08894927

conv2.lin_edge.weight f4 [64, 2]
00000000: 58eb 6abd f1e9 5d3d dc02 b03e 87f7 03be
00000010: aa3b 2a3e 7328 12bc 5229 aebd 2ff6 4e3e
00000020: e2a1 3b3d 19e0 2cbe 5874 9ebe 38d9 55bc
00000030: b3ac 6e3e 5255 9dbd 4692 d5bd b416 4e3d
00000040: be04 2e3e d0b5 90be c0bb 783d 4c1d 5dbe
00000050: c68c 453e 6ceb 2bbe ab5f 4fba b273 843d
00000060: aa2b 253e 860b 4fbe 5b50 cebe 6178 c13d
00000070: 88ff 56bd 9b7a 67be 77ab 0d3e 265f ca3d
00000080: 9079 e43d a638 17bd 2cd5 fbbd 618f 67be
00000090: 7211 423e d58f 633d 9dac 80bd 4a33 c83d
000000a0: e5fe a53e 4cdf 983e 6011 ad3e a9c0 6b3e
000000b0: 7dc0 563e 82de 8ebd 6e88 073e 3331 90be
000000c0: 8e56 503e 810d 873e 7d42 b53e 27d9 8dbe
000000d0: 1ffd 0dbd 18a0 443e cdd8 163e 5020 20be
000000e0: 1939 0a3e 248e 61bd df70 3abd 6fd6 32bd
000000f0: fb46 e2bd a42c 0d3e 3031 373e fb8b 41bd
00000100: efa3 6b3e e3d7 803e a439 95bd eab5 6bbe
00000110: 3ac3 6b3e 0327 40be 47ce 1c3e 5701 0abc
00000120: 658c 91be d10c 39be 187b 593c d69c debd
00000130: bfd7 98be be38 54be 9da9 893c d661 88be
00000140: 2d94 b5be 6403 99be 7806 0bbd 8cc4 013e
00000150: e380 b1be f794 8e3e 3582 0a3e 4dde 433e
00000160: be0f fabd 629b b73d b24a 2f3e 1f6b c5bd
00000170: 8f98 c13e 82d4 5c3e 45ea f5bd d6b9 9ebe
00000180: 50a7 683e 2f4b 4fbe bf19 dbbe 36d2 92be
00000190: 9335 5cbb f859 26bd 6e2b 013e f65e b63d
000001a0: 05f9 053e 57ee 913e 592b 0f3d 7961 90be
000001b0: b72d 61be 0a91 b3bd 503e 57be 1f1e 03be
000001c0: 6e9f 223e 0efe 0ebe 69ef b4bd 0ed6 4f3e
000001d0: f872 d7be 0cd6 27bd 3c84 873e 949b 63be
000001e0: fd0b ccbb 9a07 be3d 8982 e0be bbb2 86be
000001f0: f3a0 6fbe 6921 91bd 1252 acbd 60e5 be3c
-0.057353348 0.054178182 0.34377182 -0.12887393 0.16624323 -0.008920777 -0.08503975 0.20211099
0.04580868 -0.16882361 -0.30948138 -0.013052277 0.23308067 -0.07682289 -0.1042829 0.05031462
0.16993997 -0.28263712 0.060725927 -0.21593207 0.19291982 -0.16789025 -0.0007910679 0.0646738
0.16129938 -0.2021924 -0.4029568 0.094467886 -0.052489787 -0.22605364 0.1383494 0.098814294
0.11155999 -0.03691926 -0.12296519 -0.22613288 0.18951967 0.05555709 -0.06282923 0.097754076
0.32421032 0.29857862 0.3380232 0.23022713 0.20971866 -0.06976034 0.13235638 -0.28162536
0.20345518 0.2637749 0.3540229 -0.27704737 -0.034665223 0.19201696 0.1473114 -0.15637326
0.13498344 -0.055067196 -0.0455178 -0.04366153 -0.11048695 0.1378656 0.17889857 -0.047252636
0.23011754 0.25164708 -0.07286385 -0.23018613 0.23023692 -0.18764882 0.15313064 -0.008423171
-0.28427425 -0.18071295 0.013273977 -0.10869758 -0.298521 -0.2072477 0.01680451 -0.26637143
-0.35464612 -0.298854 -0.033941716 0.12672633 -0.34668645 0.27848026 0.13526233 0.1912777
-0.12210034 0.08965184 0.17118338 -0.09639572 0.37811705 0.2156544 -0.12007574 -0.31001157
0.22720075 -0.20243524 -0.4279308 -0.28676003 -0.0033601269 -0.040613145 0.12614223 0.08904831
0.13083275 0.2850215 0.03495345 -0.28199366 -0.21990095 -0.087678984 -0.21019864 -0.12804459
0.1588113 -0.13964102 -0.08834726 0.20296499 -0.42079902 -0.040975615 0.26468074 -0.22227317
-0.006227015 0.09278794 -0.4384959 -0.26308236 -0.23401241 -0.070864506 -0.08414091 0.023302734

fc.weight f4 [2, 64]
00000000: d4a7 89bd 1c21 32be ed9d 003d 51ae 953d
00000010: 899e 733b 3e7a 703d 3aa3 15bd 9abc 9b3d
00000020: 2464 c2bd 2a5b 9dbd 55ba b6bd d0ca e43c
00000030: a0dc bc3d b818 ebbc 519b 313c b682 f53c
00000040: 36f5 1cbb 6cf7 efbd 5c1d d4bd c8d4 473e
00000050: ec92 35bd 9b5a da3d 4350 a8bd 44aa 34be
00000060: c27f a5bd 3cbb 2f3d c662 833d aace e63d
00000070: 6f01 d23d a073 f03c 855f 10be 7b88 3b3d
00000080: b4dc dd3d 6a23 e4bd 94f9 0bbd ad54 afbc
00000090: bd70 b23d f7eb 663d 9846 9d3d 6451 d03d
000000a0: 664f 81bd 3070 20bd f5fc b63b 7f2d de3d
000000b0: 1f8c bebc cd38 cabb 1e26 8a3d d1c0 2ebd
000000c0: 56dc e53d 2369 4cbd 1883 fabc 9e56 813d
000000d0: ef0b 443d 8073 8a3a 1890 f1bd c109 41bd
000000e0: 0cb9 1dbe 23e8 9fbd fb89 813d ef70 e9bd
000000f0: d04e 4abc c6a0 813c 8f67 bb3d a16a 743d
00000100: a7ae b5bd 9cd1 d33c 4ba6 ffbc 7487 923d
00000110: 3e1f 523d 7adf 943d 63c1 fbbb 7cf8 803d
00000120: 2d0f bdbd 7ad2 42bd 410d 223c 5dc2 833c
00000130: b6e1 9abd 2d40 debc c2e7 e23d 3b27 c23d
00000140: 9f81 b13b e956 8bbc d611 3e3d ca18 56be
00000150: 63c9 9e3d 6196 dd3d c2b4 f739 7e8a 583d
00000160: c933 0abe 432e 44bc 86ef ccbc 3200 83bd
00000170: 2bcb 083d af7a 8c3d 8cab 6dbc cf76 cfbc
00000180: 3cf0 1c3d c4f7 19bd fe58 18bd afd6 a03c
00000190: 9e3e 7c3d d306 a43d 3770 233d a318 e53d
000001a0: 3384 d63d c003 aebc d651 1c3d 6d77 303d
000001b0: bbe8 aebd 965b 98bd 62cd 263b 5694 c2bd
000001c0: 00f2 66bb d5c9 f0bd 72bc e2bd 69cf a8bc
000001d0: 57db 81ba cca8 1bbd 7ed3 33bd 3698 a4bc
000001e0: 56fe 8fbc 1727 a83d 54f2 cd3c ea9a 013e
000001f0: 9099 50bc c5a8 9f3d 3d0d dcbc 1587 71bd
-0.06721464 -0.17395443 0.03140061 0.07308639 0.0037173352 0.05871033 -0.036532618 0.07604332
-0.094917566 -0.07683404 -0.08922259 0.02792874 0.092217684 -0.02869831 0.010840253 0.029969554
-0.0023949868 -0.11717114 -0.10357162 0.19514763 -0.04432957 0.10661813 -0.08218434 -0.17643076
-0.080810085 0.04290317 0.06415324 0.11269887 0.1025418 0.02935201 -0.14098938 0.045784455
0.108331114 -0.11139567 -0.034173563 -0.021402681 0.08712909 0.056377377 0.0767948 0.10171774
-0.06313972 -0.03916949 0.005584354 0.108485214 -0.023260174 -0.006171322 0.067455515 -0.042664353
0.11223666 -0.049904954 -0.030580088 0.06315349 0.047862943 0.0010562986 -0.11795062 -0.047128443
-0.15402621 -0.078079484 0.06325146 -0.113984935 -0.012347892 0.015823733 0.091506116 0.059672
-0.08871203 0.025856785 -0.031207224 0.07154742 0.051299326 0.07269187 -0.0076829656 0.06297395
-0.0923141 -0.047564007 0.009890855 0.01608389 -0.07562582 -0.02713021 0.110793605 0.09480139
0.0054170634 -0.017009215 0.04640373 -0.20907894 0.07753255 0.10819698 0.00047246186 0.05286645
-0.13496317 -0.01197392 -0.025016557 -0.06396522 0.03339688 0.068593375 -0.014506232 -0.025325207
0.038315043 -0.037589803 -0.037194245 0.01963362 0.061583154 0.08009114 0.03990194 0.1118634
0.10474434 -0.021242023 0.038163982 0.043082643 -0.085404836 -0.07439344 0.0025452008 -0.09500949
-0.0035239458 -0.117572464 -0.11071099 -0.020606713 -0.0009907287 -0.038002774 -0.043902867 -0.020092111
-0.017577332 0.08210581 0.025139965 0.12656751 -0.012731925 0.07795862 -0.026861781 -0.058966715

fc.bias f4 [2]
00000000: 3867 6ebc 2bce ae3c
-0.014550976 0.021338543
