saved_models/dgat6.pt (torch, 42878 bytes, 16 tensors)

conv1.att f4 [1, 1, 64]
000000 91 64 ad be 5c 75 93 3d 7a ff 4d 3c 7a ee a2 be
       -0.3386579 0.07200119 0.012573117 -0.31822568
000010 bb e9 22 3f 37 75 aa 3e 92 3b 38 3d 3e 65 75 be
       0.63637894 0.33292553 0.044978686 -0.23964402
000020 6e 08 58 3f f3 b1 df 3e ec c6 29 bf 33 5b 11 3f
       0.8438786 0.43690452 -0.66319156 0.56779784
000030 25 41 63 bf f1 f4 3e bf cd 0b d2 3e 46 e6 37 bf
       -0.8877128 -0.745925 0.41024628 -0.71835744
000040 d9 d5 0d bf 26 0e 07 3f e2 09 12 bf 3b 69 4d be
       -0.5540443 0.52755964 -0.5704633 -0.20059673
000050 49 fc 3f 3e 8f 2f 0f bf 21 09 c3 3e ca 3c 22 bf
       0.18748583 -0.55931944 0.38092902 -0.63374007
000060 f7 fb 42 bf 92 c5 c3 be a6 71 30 bf 7f a1 38 bf
       -0.7616572 -0.38236672 -0.68923414 -0.72121423
000070 3e 13 3c 3f bb 64 00 bf 07 25 9c be a4 71 10 bf
       0.7346686 -0.501537 -0.30497 -0.564234
000080 42 28 11 3f 6b 85 2b 3e d3 8c 31 bf e0 19 96 3f
       0.56702054 0.16750114 -0.69355506 1.1726646
000090 48 49 e9 3e 81 2b bf 3e 5b 6a 34 bf bd 0e 67 bf
       0.45563722 0.37337878 -0.70474786 -0.90256864
0000a0 1e a7 90 be 28 3d aa be e9 fb 38 bf d3 33 16 3f
       -0.282525 -0.33249784 -0.72259384 0.5867283
0000b0 90 0d b8 3e e4 c0 8c 3e d6 d7 b9 bc b4 3a 38 3e
       0.35947847 0.27490914 -0.022685926 0.17991143
0000c0 91 75 15 bf e3 5a f9 be d6 b4 8c 3f a7 63 e7 3e
       -0.5838252 -0.48702154 1.0992687 0.45193216
0000d0 25 36 b2 3e 38 32 08 bf bc 58 5c 3f 37 3f 8a 3e
       0.34806934 -0.5320163 0.860729 0.27001354
0000e0 40 e5 47 bf 72 3d bc 3e aa 78 29 be 7a 01 08 bf
       -0.7808418 0.3676563 -0.16549936 -0.53127253
0000f0 36 4c 8b be a7 8a 24 3e 7b 94 dd bd 60 bb 52 bf
       -0.27206582 0.16068517 -0.10819336 -0.8231716

conv1.bias f4 [64]
000000 c1 88 23 3d c6 94 b7 bc 39 9a 2b bd b3 b4 a1 3b
       0.03992534 -0.022409808 -0.041895125 0.004934871
000010 fd c5 a4 3d 54 d2 24 bd 6a fa 49 bd 00 1b 99 bd
       0.08045576 -0.040239647 -0.04931108 -0.07475853
000020 f2 52 90 bd 7c 27 5b bc e7 b1 a8 bd 9f 09 a5 bc
       -0.070470706 -0.013376113 -0.08237057 -0.02014619
000030 2c d3 c1 bd 87 65 d1 3d ba 25 ab bd e8 57 84 bd
       -0.09464106 0.10224443 -0.08356805 -0.06462079
000040 77 1d 40 bd e6 81 61 bd 9f ae 1c 3d a0 00 bd 3c
       -0.0469031 -0.05505552 0.03825247 0.023071587
000050 fa 0c a2 bd d3 52 f2 bd 76 56 ff bc f7 06 43 3d
       -0.07912631 -0.11832204 -0.031169157 0.047614064
000060 e6 3c 83 3b d2 7e 04 3e 2f eb 53 3e 32 9c 85 bd
       0.0040050624 0.12939003 0.20695184 -0.065239325
000070 c2 18 fd bd 98 35 b2 bd 85 66 be ba 00 b7 0c be
       -0.12358238 -0.087016284 -0.0014526403 -0.13741684
000080 de e3 90 bd 01 36 40 bd 69 7c a5 bd e5 e0 75 bd
       -0.07074712 -0.046926502 -0.0808037 -0.06002893
000090 ce 4e 9f bd 83 84 3c bd 49 42 c3 bd 0b 5f bf 3d
       -0.07778703 -0.04602481 -0.09534127 0.093443
0000a0 45 25 d6 bd 98 cb dd 3d 2e a6 5f bd 13 5b b6 3d
       -0.10456327 0.10829848 -0.05460184 0.0890409
0000b0 7f 76 74 3d 8c 94 51 bc 12 27 b4 3d 6a ff 42 3d
       0.05968332 -0.012791764 0.087965146 0.047606863
0000c0 7a 48 aa 3d e0 fe 95 bc db 00 89 bd 18 d8 ee bd
       0.08314605 -0.01831001 -0.06689616 -0.1166231
0000d0 22 9b 40 be b5 ae 70 3d 20 cb 8b bd 5c 28 12 be
       -0.18809178 0.058760364 -0.068258524 -0.14273208
0000e0 38 eb 1f bd 76 be f2 bd b2 91 ff bd 99 ee a8 3c
       -0.03904268 -0.11852734 -0.12478961 0.020621585
0000f0 2e 13 a3 bc 08 9d 6e bd 76 30 f0 bd 42 13 e4 bc
       -0.019906607 -0.058255225 -0.11727993 -0.027841214

conv1.lin_l.weight f4 [64, 4]
000000 ab 5b bd 3e 42 a9 9a be ed ab a6 3d fb 11 9e 3d
       0.36984 -0.30207258 0.08138261 0.07718273
000010 07 95 85 be 65 4b 6d bd ba a6 ea 3a b9 58 9d be
       -0.2609026 -0.05793323 0.0017902472 -0.30731753
000020 92 ad 5d 3e c8 cd f7 3d 8e 18 26 be 99 b4 11 3f
       0.21648243 0.120997965 -0.16220304 0.56916195
000030 1c db bb bd c3 e1 07 3f 2a 55 98 bd a8 e2 aa bb
       -0.09172651 0.5307886 -0.07438119 -0.005215008
000040 fb a8 83 be dd 66 55 3e 3c fa c8 be ed 4d 48 bd
       -0.2571486 0.2084002 -0.39253414 -0.04890244
000050 c8 88 9d 3c 62 fd aa 3d d1 9b b6 3d 72 21 72 3e
       0.019230261 0.0834911 0.08916438 0.23645571
000060 e2 18 9f 3e 33 32 e9 bd e6 1f 91 bd 5f 65 82 be
       0.31073672 -0.11386528 -0.07086162 -0.25467965
000070 93 82 60 3e 8e c5 b9 be 43 b8 70 be 8f ab 71 3e
       0.2192481 -0.36283535 -0.2350779 0.236006
000080 e3 92 0b bf 1a 86 33 be b7 44 36 3e 80 89 0e 3e
       -0.54521006 -0.17531624 0.1779965 0.1391964
000090 c9 68 05 3c 11 fb 6b be 99 aa 49 3e 57 cf d4 3e
       0.0081426585 -0.23044993 0.19693984 0.41564438
0000a0 cb 0c 2e bd c0 8a 0c 3e 26 4c e1 3e ac 3d 15 bf
       -0.04249267 0.13724804 0.4400341 -0.5829723
0000b0 7f 2b ba be fe 87 c5 be 39 8e 21 be 92 7d 27 be
       -0.3636131 -0.38580316 -0.1577691 -0.16356495
0000c0 a0 0e 4b bd cd 2d 26 3e 88 7c 1a be dc ff da be
       -0.049574494 0.16228409 -0.15086567 -0.4277333
0000d0 4d d9 a3 3e 4b f8 bf 3d d3 af 83 bd 9b df 07 bf
       0.32001725 0.0937353 -0.0643002 -0.5307557
0000e0 46 d0 94 bc c1 67 9f be 21 ab 4c be 3b 28 f1 3c
       -0.018165719 -0.31133845 -0.19987155 0.029438129
0000f0 21 a4 b2 3e b8 6e a8 bd 2d c9 f1 be 75 30 fa be
       0.34890845 -0.08224243 -0.47223797 -0.48865095
000100 4a 34 a0 3d e5 76 3f 3d c6 ac 08 bf cc 2d 03 bd
       0.07822473 0.046744246 -0.5338863 -0.032026097
000110 b0 d1 5a be 8a 94 4a 3e b3 10 9a 3e 4f 2a 8a be
       -0.21369052 0.19783226 0.30090865 -0.26985404
000120 15 83 f9 3e 5a 27 29 be 22 83 61 be f6 06 d0 3e
       0.4873282 -0.16518918 -0.2202268 0.4063031
000130 0d 4f 31 be cc 20 0c be d7 8f de be 9e 4e 38 be
       -0.17315312 -0.13684386 -0.43469116 -0.1799874
000140 21 8d 5a be e1 6c b8 3e 4c 90 95 3e 7f c1 dd bc
       -0.21342899 0.36020568 0.29211652 -0.027069805
000150 31 14 fb 3e 10 c1 c2 3c ca 59 34 3e c2 ff da be
       0.49038842 0.0237737 0.17612377 -0.42773253
000160 3b 63 12 be 83 6f 26 bd 7a 06 e7 be 38 98 23 3e
       -0.14295666 -0.04063369 -0.4512213 0.15976036
000170 dc 79 9a bd c3 46 e0 3d b7 24 2a bf 43 17 95 3c
       -0.07542774 0.10950997 -0.6646227 0.018199569
000180 c8 01 f9 bd 0f 5a d5 3e 2c 46 c6 bd b8 49 29 be
       -0.12158543 0.41670272 -0.09681353 -0.16532028
000190 ac 0a cb 3e 92 62 bf 3d eb 2b 74 3d d4 2c ed 3e
       0.3965658 0.09344973 0.059612196 0.46323264
0001a0 31 ec c8 3e 13 6a 01 be 4d 64 8f 3d ba ce d7 be
       0.392427 -0.1263812 0.07001553 -0.42149907
0001b0 bf 57 b7 3e d5 e6 4c be 6d 26 d2 bd 69 06 ee be
       0.35809132 -0.2000993 -0.102612354 -0.46489266
0001c0 3b db 5f be ce 3e d3 bd f6 e3 6c 3e 7b 13 62 3e
       -0.21860974 -0.103147134 0.23133835 0.22077744
0001d0 74 76 8d be f4 f1 b6 3e 44 f9 8c be f5 de 9b be
       -0.27629435 0.3573147 -0.27533925 -0.3044354
0001e0 ff 47 50 be ae 70 70 3e 57 6a 04 bf 1a 03 40 3d
       -0.20339964 0.23480484 -0.5172476 0.046877958
0001f0 a3 23 d2 3e ab 59 6c be 95 74 72 be 22 3b d9 3e
       0.41042814 -0.2308108 -0.23677285 0.42427927
000200 ec 6f 26 be fa bf df bd 7d 96 40 3d 56 d2 45 bd
       -0.16253632 -0.109252885 0.047018517 -0.048296295
000210 84 fd 67 be 78 5b 1a be 5f 3e 04 3d 3b c7 b5 be
       -0.22655302 -0.15073955 0.032286044 -0.35503563
000220 4f c2 b8 3e 20 25 83 3e 8d 79 c7 be e2 41 64 be
       0.36085746 0.25614262 -0.38959923 -0.22290757
000230 ae 45 5f be d7 f2 9d be 13 81 fd 3e 7e 8b f3 bd
       -0.21803924 -0.30849335 0.49512538 -0.118918404
000240 74 17 20 be f4 c1 0a be ac 1a b9 3e 8f ea 0a 3e
       -0.15633947 -0.1355055 0.36153162 0.1356604
000250 86 15 9b 3e 20 69 a1 be 74 6c df 3e 1e a6 27 3e
       0.3028986 -0.31525517 0.4363743 0.16371962
000260 04 65 43 be 51 44 0a be c1 fe d5 be 8f 59 ca 3e
       -0.19081503 -0.13502623 -0.41795924 0.39521453
000270 d3 aa 79 bd b5 9a 0a 3f cd e8 f0 be 69 4a a5 3c
       -0.060953926 0.54142314 -0.47052613 0.020177083
000280 d0 89 b9 3e 18 90 90 3e 1a f2 50 3e 2d cd 02 bf
       0.36237955 0.28234935 0.20404854 -0.51094323
000290 ea 2a 62 be b9 f9 7a 3e e6 64 09 bf 5a 7a e1 bd
       -0.22086683 0.24509324 -0.53669584 -0.11009665
0002a0 7c d4 46 3e 94 06 a8 3e ac 1e ca be 14 10 15 3e
       0.19416994 0.3281752 -0.39476526 0.14556915
0002b0 48 ea fa 3e cc 25 08 be 8f 8d 21 3e d0 c1 eb 3e
       0.49006867 -0.13295668 0.15776657 0.46046305
0002c0 7d 80 b7 3e d0 42 30 3d 49 29 3f 3e 91 60 0e 3f
       0.35840216 0.043032467 0.18668093 0.556161
0002d0 fc bf 41 3e 4e 02 5f 3c 46 11 34 3e 6b 22 d5 3e
       0.18920892 0.013611389 0.17584714 0.4162782
0002e0 80 78 ad be ff 2d 2a 3e 0d 22 be be 6c 11 0e be
       -0.33880997 0.16619109 -0.37135354 -0.13873833
0002f0 1f 9a 66 be eb 12 55 3e 21 db 7b be ec 32 94 bd
       -0.2251973 0.20807998 -0.2459531 -0.07236275
000300 b2 e3 57 be 49 3c a5 3e 83 15 e8 be 46 29 a5 bd
       -0.21082953 0.32272556 -0.45328912 -0.08064513
000310 f3 19 51 bc bc c8 a4 be a9 fe 12 bf ac 6c ec 3e
       -0.012762534 -0.32184398 -0.5741983 0.4617666
000320 c5 62 b4 be 8c 92 86 bd 26 8a 82 3e d2 2a 8b bd
       -0.35231605 -0.0657092 0.25496024 -0.06795277
000330 80 d0 be be d4 fe 8a 3c 13 d7 c3 3e 2f 9d a5 3d
       -0.37268448 0.016967215 0.38250026 0.08086621
000340 43 d2 04 be 56 80 67 3d 10 46 80 3d 8f 96 d2 3d
       -0.12970833 0.056518875 0.06263363 0.10282623
000350 a6 67 50 be ad 97 02 3f 88 07 ec bd 4c e8 11 be
       -0.20352039 0.5101269 -0.11524874 -0.1424877
000360 bd 25 9f 3e 44 ca bf be 0b 3c b3 3e 02 6e d8 3e
       0.3108348 -0.37459004 0.35006747 0.4227143
000370 f7 a6 a2 3e a7 2c 70 be 1b 0e 28 3e d0 a7 4b 3d
       0.3176801 -0.23454534 0.16411631 0.049720585
000380 44 63 8d be 5a 64 08 3f d2 42 46 be 03 61 96 be
       -0.27614796 0.53278124 -0.19361427 -0.2937089
000390 3c 33 b0 be e3 70 26 bc 75 32 36 bd f9 38 17 be
       -0.3441409 -0.01015875 -0.044481713 -0.14767827
0003a0 e2 c7 b5 3e d8 77 55 be ae 49 40 3e 16 13 2f bd
       0.3550406 -0.20846498 0.18778107 -0.04274281
0003b0 96 f6 db 3e 36 3a 35 be 6a 26 01 3e 67 fa af 3e
       0.42961568 -0.17697987 0.1261231 0.3437073
0003c0 c1 52 18 3e 43 4a 34 3e c8 b8 35 be 3b 58 bc 3d
       0.14875318 0.17606454 -0.1774627 0.09196516
0003d0 77 4a 02 3e 8d 7a cf be c9 da 96 3d 58 5f cc be
       0.12723719 -0.40523186 0.07365949 -0.39916492
0003e0 2b d8 4d 3e 86 9e 2b 3d e0 f1 cd 3d 1d 60 b0 3e
       0.20101993 0.041899227 0.100558996 0.3444833
0003f0 83 20 43 be 57 b1 8f 3e 6b 9e 6c be 47 f6 96 bd
       -0.19055371 0.28064987 -0.23107307 -0.073711924

conv1.lin_l.bias f4 [64]
000000 f1 7d 69 3d df 52 87 3e c7 29 f7 be f8 3d b8 3e
       0.057004873 0.26430413 -0.4827406 0.35984778
000010 6d fe 7a be 95 98 0a 3e 95 5d 75 3c 42 2b 25 bd
       -0.24511118 0.13534768 0.014975925 -0.040324457
000020 db 67 0a be 9f ba f4 bd 9c a5 d4 be aa 93 de be
       -0.1351618 -0.11949658 -0.415326 -0.43472034
000030 4a b1 92 3d 45 e4 5e bd 5f 75 d5 be 6a 69 85 3e
       0.071627215 -0.054416914 -0.4169111 0.26056987
000040 19 41 6b 3e 0f dc 99 be 12 e5 b7 be 62 06 a6 3e
       0.22974052 -0.30050704 -0.35916954 0.32426745
000050 53 67 a3 be 74 b1 81 3e a8 34 08 3e af 19 07 3e
       -0.31914768 0.25330698 0.13301337 0.13193391
000060 a8 9a a6 3e 30 9e 05 be 8b f9 a2 be 40 20 42 3d
       0.32539868 -0.13048625 -0.3183101 0.047394037
000070 1d 8a a2 3e 12 e2 13 be 5a 6e ae 3d f3 dc 9a 3e
       0.31745997 -0.14441708 0.08517142 0.30246696
000080 c7 7a d4 be 97 9f b1 3e 95 92 8c 3e 21 d3 93 be
       -0.41499922 0.3469207 0.27455583 -0.28872016
000090 35 7b c9 bd 28 e9 c8 3e 8d 84 66 be fc 2d c9 be
       -0.09837953 0.39240384 -0.22511502 -0.39292896
0000a0 45 4c 44 3e 7b af 58 be 43 bc 11 3e d8 1d 29 bd
       0.1916972 -0.2116069 0.14231972 -0.041288227
0000b0 28 01 80 bc 47 7d 01 3e 30 4f dd 3d 26 bc 76 3e
       -0.015625551 0.12645446 0.108061194 0.2409521
0000c0 82 21 f5 3e 12 4d 55 be ac b8 14 bf 6a 75 5f be
       0.47877127 -0.20830181 -0.58094287 -0.21822134
0000d0 02 c0 04 3e 73 aa 72 3e 01 e1 31 be e3 93 75 3e
       0.1296387 0.23697834 -0.17370988 0.23982196
0000e0 94 bd d0 be d3 b9 ad be bf 2e 95 3e 56 9d a4 3c
       -0.40769637 -0.33930835 0.29137227 0.020094555
0000f0 0f a6 c9 3c 6d af 43 bd c8 a2 fb 3d a3 b7 b3 3e
       0.024615316 -0.04777472 0.122869074 0.3510104

conv1.lin_r.weight f4 [64, 4]
000000 88 87 32 bf f3 6e 25 be 49 60 53 3e 3a 49 b1 be
       -0.69738054 -0.16155605 0.20642199 -0.3462618
000010 48 32 ea 3e 27 71 07 3e cd 2c cc be cd e1 29 be
       0.45741487 0.13226758 -0.3987793 -0.16590042
000020 d5 db 22 3b cb a9 3c be e2 33 37 3e 8a 18 ce bd
       0.0024850268 -0.18424146 0.17890885 -0.10063274
000030 2b 1a a8 3d a8 08 9b be 93 49 7c be d5 8a e9 bc
       0.08208116 -0.30280042 -0.24637441 -0.028508583
000040 ae 6a a7 3e 16 7d ee 3d 16 f6 92 3e d3 91 87 3b
       0.32698578 0.11644952 0.28703374 0.0041372566
000050 37 92 1d 3e 05 54 64 be 6b 14 da bd 74 b9 1b bf
       0.15387808 -0.22297676 -0.10648426 -0.60829854
000060 79 17 bf be ee 2d 89 3d 3e dc 81 3e d5 79 8d 3e
       -0.37322596 0.066982135 0.25363344 0.27632013
000070 52 2e 52 be 5e f5 12 bf cd de 1f 3e 93 cc 9b be
       -0.20525482 -0.5740565 0.15612336 -0.30429515
000080 6f 97 62 be d8 73 be 3e 34 19 2c bd ce d7 7d bc
       -0.2212808 0.37197757 -0.042016223 -0.015493346
000090 b3 9f fb 3e a1 58 da 3d e1 4e 67 be 56 d3 01 bf
       0.49145278 0.10661436 -0.22588684 -0.507131
0000a0 47 3d 99 be 77 80 81 3e f6 82 73 3e 4a 7c 0d 3d
       -0.29929563 0.25293323 0.23780426 0.03454236
0000b0 14 82 51 3d d3 f2 c9 3d a0 1b ab be 4b 8d 91 be
       0.051149443 0.09860768 -0.33419514 -0.2842811
0000c0 40 6a 6f bd 69 5f 83 3e f3 9f 04 3f 7b 26 01 bc
       -0.058450937 0.2565873 0.51806563 -0.00788271
0000d0 4a 05 09 3f ee 3b 0f 3f 98 e5 a2 bc 91 f2 2a be
       0.53523695 0.5595082 -0.01988487 -0.16694094
0000e0 a9 46 33 3e 8d b7 41 3e a3 81 b9 3c 66 de 2b 3e
       0.17507423 0.18917675 0.022644823 0.16784057
0000f0 bf e9 1d 3e af ff 2a be bd 43 0a bf 59 59 25 3e
       0.15421198 -0.16699098 -0.5400961 0.16147365
000100 fe a6 3c 3e ad 26 07 3e 44 4a e6 bd d7 d9 2a be
       0.18423077 0.13198347 -0.11244634 -0.16684662
000110 1b 4a 16 3e f2 c7 af 3c 5c c4 08 bf 7e 25 aa bd
       0.14676706 0.021457646 -0.5342462 -0.08307932
000120 f1 a7 92 be ab e9 92 3d 61 3b 24 bf 83 28 b5 3e
       -0.28643754 0.07173475 -0.64153105 0.3538247
000130 bd 1b 71 3e 80 09 e5 3c ac 8e 2f 3e ae 14 15 3e
       0.23545738 0.027958632 0.17144269 0.1455867
000140 5b 77 84 be 40 df 75 be a8 a5 4a bc 6b 7d e1 3e
       -0.2587231 -0.24010944 -0.012368597 0.44041
000150 ca ae 2d 3c aa 08 64 3e cf ce c4 bc 98 db 90 be
       0.010600755 0.2226893 -0.024024395 -0.28292537
000160 0e 3b 36 bd 64 19 6c 3e 05 6f 06 3f 01 9a d9 be
       -0.044489913 0.23056561 0.5251315 -0.42500308
000170 0d c1 56 3d df b8 81 bd bd aa 0e 3e 7c 39 28 3e
       0.0524302 -0.063340895 0.13932319 0.16428179
000180 a2 bf ef 3c 21 df c5 3e 4a f3 eb bd 02 14 b2 be
       0.029266182 0.38646796 -0.11521013 -0.3478089
000190 52 7c 05 be ea 8c ba 3d fb e4 fc 3d fe 67 d5 3c
       -0.13035706 0.091089085 0.12348362 0.026050564
0001a0 55 0e 1f 3e af ce e5 3e 44 6a 9b 3e 4d f8 c5 3c
       0.15532811 0.4488425 0.30354512 0.02416625
0001b0 65 95 69 be 4d 7a 6a be 53 88 44 3e 4b aa 78 bd
       -0.22810896 -0.22898217 0.19192629 -0.06070928
0001c0 71 2e d7 be e9 d9 35 be 5d b4 82 3e 48 55 3d bb
       -0.4202762 -0.17758907 0.2552823 -0.0028889943
0001d0 c4 22 27 3d e6 f2 7d be 88 a7 f4 3e db df 5b 3e
       0.04080464 -0.2479969 0.47784066 0.21472113
0001e0 0c aa 59 3c 0d c7 c2 3d ce 1a fe be 06 7f 0b be
       0.013285171 0.09510622 -0.49629825 -0.13622674
0001f0 72 13 af bc fe 7a 39 bd df d1 17 bf 23 d4 99 bd
       -0.021371577 -0.04528331 -0.5930461 -0.07511165
000200 22 09 11 3e 67 32 ae 3e 9b de 5a be 14 63 1a be
       0.1416364 0.3402283 -0.2137398 -0.15076858
000210 44 01 39 be 08 19 e2 be bb 4a 54 3e 7d a1 59 3d
       -0.18066889 -0.44159722 0.20731632 0.053132523
000220 19 36 21 be 6c 08 92 bd 58 fd 31 3e e5 ca 2f bd
       -0.15743293 -0.071305126 0.17381799 -0.042918105
000230 a4 2f 29 bf 98 22 6a be 8c 34 e4 be 14 c9 0c 3f
       -0.6608832 -0.22864759 -0.4457134 0.5499432
000240 9c 9f 4d be 02 92 15 be 7c a8 04 3e a8 04 38 3e
       -0.20080417 -0.14606479 0.12954897 0.17970526
000250 a0 54 ee be 3b 74 ef bc 4c 5f 9c 3e 63 1d ab 3c
       -0.4654894 -0.029230228 0.30541456 0.020888036
000260 5a e2 69 3e d3 37 a3 3c a5 99 b0 bc 4e f4 87 3d
       0.22840253 0.01992408 -0.021557638 0.06638394
000270 f1 36 f1 3c 08 ef 81 be e5 d0 7c 3d 5b cc 18 3f
       0.029445143 -0.2537768 0.061722655 0.5968682
000280 05 20 49 3d cb 20 f3 3d 80 6a 8b bc 93 aa 80 3d
       0.0491028 0.11871489 -0.017018557 0.062825345
000290 aa 3b 7a be 65 c6 1d bf 97 87 f7 3e b6 2a d1 3e
       -0.24436823 -0.6163085 0.48345634 0.40852898
0002a0 cc c6 cc bd e2 53 fb bd 15 24 c9 be f9 52 0a 3d
       -0.09998855 -0.12271859 -0.3928534 0.033770535
0002b0 c7 55 41 3f 22 c8 ed 3e 43 5e 22 3e 78 98 e4 be
       0.7552151 0.46441752 0.1585627 -0.44647574
0002c0 f7 c3 20 bd 52 9b 15 3d 34 9a 1b 3e a4 86 98 bc
       -0.039249387 0.036525078 0.15195543 -0.01861889
0002d0 df 24 6b 3e 9b 8e 5b 3d df 93 a8 3d 1a 8a 5e 3e
       0.22963284 0.053602796 0.08231329 0.21732369
0002e0 17 6d bf 3d c0 31 24 be e7 08 08 be 2b c5 c1 3e
       0.09346979 -0.16034603 -0.13284646 0.3784574
0002f0 c6 0c 31 3e 8a fd b9 3c a2 32 86 be db 9d ae be
       0.17290029 0.022703905 -0.26210505 -0.3410481
000300 ef 4b ef be e2 a2 a7 3c e2 be 9d 3e e2 e3 15 3e
       -0.4673762 0.02046341 0.30809695 0.14637712
000310 6e d2 85 3d d3 0e 49 3d ab 7f 59 be e4 4d 13 bd
       0.06534277 0.049086403 -0.21240108 -0.035962954
000320 eb 6c 43 bf 11 fe 99 be 73 fb 26 be d8 ac 0a 3e
       -0.7633807 -0.3007665 -0.16306858 0.13542497
000330 86 11 e4 3e 70 ce a1 3e 33 14 26 bf 34 94 9d bb
       0.4454462 0.31602812 -0.6487457 -0.004808927
000340 73 5f 96 bc 2e e3 59 3c 6e ec e3 3d aa 1a d0 bd
       -0.01835606 0.013298793 0.1112908 -0.10161336
000350 e2 0b 9d 3e 8c 6f 1a 3f f6 27 c5 be d3 70 af be
       0.30673128 0.6032646 -0.3850705 -0.34265766
000360 0f 41 8f 3e 59 47 3c 3e 98 4e 9a 3d 9f 60 0b be
       0.27979323 0.18386592 0.07534522 -0.13611077
000370 c4 0f 3f 3e 82 60 f9 3d 93 38 1d be bb 63 f2 3d
       0.18658358 0.121766105 -0.15353613 0.11835428
000380 32 54 71 3e ef 08 e2 3e 69 c1 91 3e 34 fe 21 bf
       0.23567274 0.4414744 0.28467873 -0.6327851
000390 67 a0 91 bd 53 5a 4e 3e 48 23 5f be b5 0c d0 bd
       -0.071106724 0.20151643 -0.21790802 -0.10158674
0003a0 1f 9d 62 3e 3e 1f 04 3d db 69 96 be ff 0e 94 bc
       0.2213025 0.032256357 -0.29377636 -0.018073557
0003b0 de 80 18 bf 4e d0 0a bf d1 8b 68 be b3 6a c3 bd
       -0.59571636 -0.542241 -0.22709586 -0.09541836
0003c0 42 bb 22 bf 97 fe 02 be 19 c1 00 3f 97 77 5c be
       -0.6356698 -0.12792431 0.50294644 -0.21529995
0003d0 87 12 3a 3f 16 38 88 3e ac 79 fa 3c ce b6 59 bd
       0.7268452 0.2660529 0.030575596 -0.05315285
0003e0 3f 80 ae 3e 66 0a 8b 3e 5f d0 da bb 6e 73 df 3e
       0.3408222 0.2715637 -0.006677672 0.43642753
0003f0 80 70 4c 3d 0f ad c1 3e 94 c7 7e 3d 6b 97 af be
       0.049911976 0.37827346 0.06220205 -0.3429521

conv1.lin_r.bias f4 [64]
000000 e4 a7 44 be 48 51 22 3e 74 31 a6 be 89 31 0d bd
       -0.1920467 0.15851319 -0.32459605 -0.03447107
000010 62 d4 bc be 56 ae 0a be a8 d2 40 bd a3 33 1a 3e
       -0.36880785 -0.13543066 -0.047075897 0.1505876
000020 f1 38 17 3f 70 68 53 bc 18 4c d1 3c a0 30 b1 3d
       0.5907126 -0.012903318 0.02554898 0.086518526
000030 e5 55 0c bd cd 37 85 bc e1 d7 d2 be ab cb 25 3e
       -0.034261603 -0.01626196 -0.41180328 0.16190974
000040 7c f1 49 3f 37 1c 1e be 7a c4 bb 3e 2a 8c a1 3e
       0.788841 -0.1544045 0.36673337 0.3155225
000050 56 67 4c 3e ff 5e 43 3e 4b 69 29 be d3 de cb 3e
       0.19961295 0.19079207 -0.16544072 0.3981844
000060 3d 7f 29 3e 8c 0f 24 bf 82 b8 c9 be f3 e1 1b bd
       0.16552444 -0.6408622 -0.3939858 -0.03805728
000070 cf 84 04 3f 66 98 86 3d f4 2c 1f 3e f7 3b ad 3d
       0.5176515 0.065720364 0.15544492 0.08458703
000080 3a d6 c2 bd 36 32 77 be 4f 0d 52 3f 76 c6 b6 3e
       -0.09513517 -0.24140248 0.8205156 0.3569829
000090 8c c5 a5 3e 8b 54 7a bd 44 ad 29 3d a7 89 d9 bd
       0.3237728 -0.061115783 0.041425005 -0.10621958
0000a0 43 db 86 3e fe 0f ff 3c 53 fd 0a 3f 0e 7f 96 bd
       0.26339158 0.031135555 0.5429279 -0.073484525
0000b0 93 b4 9e 3e 65 07 a1 be ac 1e 02 3f 38 dd 61 be
       0.30997142 -0.31450954 0.5082805 -0.22057045
0000c0 cb cf 52 3e bf b6 48 3e e9 60 f1 3e ef f7 51 3e
       0.20587079 0.19600962 0.4714425 0.20504735
0000d0 34 4a 04 3e e5 a3 d2 3e 7a 85 c9 3e c2 4f f8 be
       0.12918931 0.41140667 0.39359647 -0.4849835
0000e0 6f 81 79 3f 1f 7f 6a 3e e4 22 cc 3e c4 25 a9 3e
       0.97463125 0.22900055 0.3987037 0.33036625
0000f0 01 be 0f be 9d d4 5c 3e b6 ba 7e be a5 a6 bb 3c
       -0.14037324 0.2156548 -0.24875912 0.02290661

conv1.lin_edge.weight f4 [64, 2]
000000 98 c6 12 3d 8b ef d5 3d 9d 03 c1 be 91 e5 93 3d
       0.035833925 0.1044608 -0.3769807 0.07221521
000010 2f d8 46 bc 7d 96 13 bd 08 52 3b be d6 66 19 3e
       -0.012136503 -0.03603219 -0.18293011 0.14980635
000020 09 ef 6a 3e 56 7c 92 3e ab cc 1d be 84 77 ca bd
       0.22942747 0.28610486 -0.15410106 -0.09886077
000030 76 07 1e be 49 bf d1 be 0b c8 7e be 48 ad 7c 3e
       -0.15432534 -0.40966251 -0.24880998 0.24675477
000040 90 53 4e 3e 43 c1 90 bd 98 ac 6b 3e da d3 e1 3e
       0.20149064 -0.07068112 0.23015058 0.44106942
000050 c3 8a ba be b4 5d 0c be d2 a5 3b 3e 91 26 4a 3d
       -0.36433992 -0.1370762 0.18324974 0.049353186
000060 27 b3 e8 bb 4b 9f ae be c0 3f 89 3b cc 97 ef be
       -0.0071014347 -0.34105906 0.004188508 -0.467955
000070 96 1b 35 3d fb 18 24 3e 41 ce 9b be 7f db 75 be
       0.04421576 0.16025154 -0.30430797 -0.24009512
000080 1f a8 a6 be c9 cf b1 be dd 7b 18 3f aa 64 97 3e
       -0.3255014 -0.3472884 0.59564 0.29568988
000090 78 c2 df bd 8b fe dc bd 32 37 ec bd cd b9 81 be
       -0.10925764 -0.10790738 -0.11533965 -0.25337067
0000a0 1f 88 a0 3e dd c5 b9 bd f3 3b 0c 3e 29 25 9d be
       0.31353852 -0.090709426 0.13694744 -0.30692413
0000b0 d5 25 47 3d b0 b8 8f 3e ac 2c 30 3d 7c e4 f5 bc
       0.048620064 0.28070593 0.043011352 -0.030016176
0000c0 fe e7 cc 3d 18 dc f9 be a3 ec 23 be e2 b2 b8 3d
       0.100051865 -0.4880073 -0.16008238 0.09018494
0000d0 72 08 37 3e e7 ed c1 be 1d e6 b2 be 49 3b 3f be
       0.17874315 -0.37876818 -0.34941188 -0.18674959
0000e0 a8 3f 5f 3e 77 8b 10 be be be c1 bc d7 52 f2 3d
       0.21801627 -0.14115702 -0.023650523 0.11832207
0000f0 6e f0 a8 3d 2a 9d 4c 3e ec 63 0f 3b aa 4f 20 3e
       0.08248983 0.19981828 0.0021879626 0.1565539
000100 73 55 09 3f f1 0d bf 3e 23 35 e9 3b cd 33 10 3b
       0.5364601 0.37315324 0.00711693 0.0022003532
000110 5b 0b 54 be 9c 10 39 be eb c2 e5 bd f6 5b f3 be
       -0.20707457 -0.18072742 -0.11218818 -0.47531098
000120 c4 44 22 bd 9e 68 95 3e df 39 bd 3c 4e df a5 3d
       -0.03961636 0.2918138 0.023098884 0.080992326
000130 8f 33 a0 be a3 4b cb 3c 87 1e 86 be 7a 81 04 be
       -0.31289336 0.02481634 -0.26195166 -0.12940016
000140 ca 72 ac 3d 95 cc 99 be cc 35 0a 3d f9 c1 b0 3e
       0.08420332 -0.30038896 0.03374271 0.3452299
000150 72 31 b1 3d 15 8d 10 be ab 4b b8 3e 09 1b 99 3e
       0.08652009 -0.14116319 0.3599523 0.2990344
000160 6c 31 6a be ed db b1 3a 48 42 06 bf bc c7 db be
       -0.22870415 0.0013569571 -0.5244489 -0.42925823
000170 d5 a9 12 bd b9 f5 46 3d b0 9d 99 bd 93 10 d1 3d
       -0.035806496 0.048574183 -0.0750078 0.102082394
000180 c2 b0 b3 bd ef bf 1f bd 02 45 7c 3e 27 70 00 be
       -0.08773948 -0.0390014 0.246357 -0.12542783
000190 8c 98 31 be 2e 48 ef be 5a ed 40 3e c8 02 c8 3e
       -0.17343348 -0.46734756 0.18840542 0.39064622
0001a0 41 bd 9a 3e 96 83 bb 3e 01 49 ec bd 12 e5 c5 be
       0.30222514 0.3662383 -0.11537362 -0.3865133
0001b0 77 a4 65 bb b6 f2 55 3e 83 43 3f be b7 80 92 bd
       -0.0035040656 0.20893368 -0.18678097 -0.07153457
0001c0 41 39 95 be 7a 8d e4 be 58 8d 02 3f 00 7a 8a 3e
       -0.29145244 -0.44639188 0.50996923 0.27046204
0001d0 30 7a 0f 3d 46 77 ef bd 6c 4d 6f be e3 18 b3 3e
       0.035028636 -0.116926715 -0.23369378 0.34979925
0001e0 7c 2a be 3d 53 3b 48 3e 7a 52 be 3d f5 0b bf 3e
       0.09285447 0.1955388 0.09293075 0.3731381
0001f0 e4 d6 1b 3e 4e 8c a2 be ec 40 a9 bd 82 0e cb be
       0.15218693 -0.3174767 -0.08264336 -0.39659506

conv2.att f4 [1, 1, 64]
000000 e8 3f 5b 3d 77 c3 8d be 1c 2c 97 bd bb 20 c7 be
       0.053527743 -0.2768819 -0.0738146 -0.3889216
000010 00 e1 3a 3f 00 74 a5 be aa e2 c4 be 25 f6 b9 be
       0.7299957 -0.32315063 -0.3845418 -0.36320606
000020 16 ac 97 3e 4d 6f 50 3f 0b 4f 8a 3e fc ab 38 3e
       0.2962348 0.8141983 0.2701343 0.18034357
000030 b7 32 de 3e 7b a4 7e 3e 82 61 c4 3e 28 fb dc be
       0.43398067 0.24867432 0.38355643 -0.43160367
000040 04 ad 89 3e 93 3a 64 3f a4 7b 37 bf 8c 29 02 3f
       0.26889813 0.8915188 -0.71673036 0.50844646
000050 58 1a 86 be 87 f5 58 3e 22 bf 36 be 99 8f 02 be
       -0.26191974 0.21187411 -0.17846349 -0.1275009
000060 57 ff 48 be b1 d1 aa 3e 18 a5 f1 bd c5 0f 64 3f
       -0.19628654 0.33363107 -0.11799067 0.8908656
000070 4d 22 22 3f 1b 01 34 3f 7e 4b c5 be 21 2b 04 bf
       0.6333359 0.70314187 -0.38534158 -0.5162831
000080 55 af 79 bf bd b9 f8 3e 68 ea 28 3f 4a c0 83 be
       -0.9753316 0.48579207 0.65982676 -0.25732642
000090 88 c0 0a bf 39 3b fc be 1f 18 e3 3d a8 e3 09 bf
       -0.5420003 -0.49263933 0.11088585 -0.53863
0000a0 b1 f3 10 bf 5e 71 ef be 32 b9 28 be 25 f7 6d 3e
       -0.56621844 -0.4676618 -0.16476896 0.2323881
0000b0 26 d2 e2 be 16 0d e7 be 99 8f 80 3e c1 06 ac 3e
       -0.44300956 -0.4512717 0.25109556 0.33598903
0000c0 33 de 8c be d4 5f f9 be 88 78 d9 3e 59 70 bb 3e
       -0.27513275 -0.48705924 0.4247477 0.36609152
0000d0 17 1c e3 be 09 dd 3f 3f 39 fc 20 bf 0e 81 b0 3e
       -0.44357368 0.7494665 -0.6288486 0.3447346
0000e0 bd 91 b8 be 67 ab ce bc 98 94 8a bc c6 3a 37 bf
       -0.3604869 -0.025228215 -0.016916558 -0.71574056
0000f0 74 13 82 3f 35 4d 7e bf 80 35 94 be 16 af 01 3e
       1.0162187 -0.9933656 -0.28947067 0.12664446

conv2.bias f4 [64]
000000 8f 31 8e bb ec 71 da bd d4 75 01 bd 46 09 42 3c
       -0.004339404 -0.1066626 -0.03160651 0.011843031
000010 c5 a7 93 bd 28 a1 81 bd be a8 d8 3c 42 70 24 be
       -0.07209734 -0.06329566 0.02644765 -0.16058448
000020 47 a2 19 3d 5e de e9 bd 59 0d c4 3d 57 8c f3 3a
       0.037508275 -0.11419366 0.09572858 0.0018581253
000030 b7 c2 ca bc 0c f9 9c bb 60 3a 7f bd ce 69 41 bd
       -0.02475105 -0.004790431 -0.06231153 -0.047220044
000040 08 a9 41 3d 04 85 26 bd 53 ac 95 bd 8a 26 6c be
       0.04728034 -0.040654197 -0.07308259 -0.23061576
000050 aa 8d ca 3b 5a 63 88 3b 71 7c 93 bd 59 b6 55 bd
       0.0061814385 0.0041622343 -0.0720147 -0.052175853
000060 9b 1d dc bc f1 20 c1 3d 58 b8 2e bd 0c bd 9a bc
       -0.026869586 0.09430111 -0.042656273 -0.018888973
000070 ea 94 1d be 68 1d 0c bc a2 12 94 bc 84 07 85 bd
       -0.15388837 -0.008551933 -0.018075291 -0.06495574
000080 84 d0 60 bd 6a d5 90 bd fb 09 f6 3c f6 01 a0 bd
       -0.054886356 -0.070719555 0.030034056 -0.07812874
000090 43 90 cc bc df 33 be bc 95 8b 3f 3c 8e ca cc 3d
       -0.024971133 -0.023218093 0.011690994 0.09999572
0000a0 c1 3b e4 bc b4 6a 39 bd 4d f1 6a bd 68 bc 68 bd
       -0.027860524 -0.045267776 -0.05735903 -0.056820303
0000b0 c8 48 15 3d 59 a0 f8 3d 60 55 3b bd e9 d4 98 3d
       0.036446363 0.12139959 -0.045735717 0.074624844
0000c0 b9 3d 9b bd c5 d9 dd ba 9b 18 50 3d ea bf b7 ba
       -0.07580132 -0.0016925862 0.050804716 -0.0014018987
0000d0 8c 30 a9 bc 58 86 3f bc fc e8 93 bd 60 0f 33 bd
       -0.020653032 -0.011689745 -0.072221726 -0.043715835
0000e0 cd cd 12 bb 38 32 a3 bc 9e 44 b6 bd f2 5e b4 b9
       -0.00224005 -0.019921407 -0.088998064 -0.00034403015
0000f0 f9 cc 58 be 16 54 81 be 8c 3d 92 bd 33 49 04 3d
       -0.21171941 -0.25259465 -0.071406454 0.03229637

conv2.lin_l.weight f4 [64, 64]
000000 c2 1f e0 bd cc 40 83 bd 1d 75 ef 3d 38 2e dd 3d
       -0.10943557 -0.064088434 0.116922595 0.10799831
000010 e5 8a b7 3e d0 bb 30 be e2 6b ca bc 9b 0c 04 be
       0.35848156 -0.17259145 -0.024709646 -0.12895434
000020 cb 66 69 bd 7d c4 82 be 23 a7 4a bf 75 d2 19 be
       -0.056982797 -0.25540534 -0.7916128 -0.15021689
000030 c4 ba 4f 3d 1f 0f 2e bf 7c 14 ec bb 68 a5 a7 3e
       0.050715223 -0.6799182 -0.0072045904 0.32743382
000040 4d 4c 81 3e a3 8f 88 be 34 01 75 3c 82 c8 02 3e
       0.25253525 -0.26672086 0.0149539 0.127718
000050 ea ee 49 bd ff c6 14 3c bb ba 78 3e 02 c3 b9 3e
       -0.04930011 0.0090806475 0.24289982 0.36281592
000060 e7 e4 2c bd 71 24 3e 3e c9 0e 21 bf 6d b5 90 bc
       -0.042210486 0.18568589 -0.62913185 -0.017664636
000070 94 ba f0 3d 42 ba 4f be 20 61 28 3e a2 d7 14 3d
       0.11754337 -0.20285895 0.164433 0.036338456
000080 21 cc 15 be d2 1b e4 bd 94 dd 89 3e 3c 15 cb bc
       -0.1462865 -0.11138119 0.26926863 -0.024790399
000090 22 c3 f7 bd e1 32 cf be bf ed 1f 3e 3f 03 b4 3e
       -0.120977655 -0.40468505 0.15618037 0.35158727
0000a0 c7 2b e8 bd b5 e7 9c 3e ad 32 b4 3e 58 19 02 bf
       -0.11336475 0.30645528 0.35194913 -0.5081992
0000b0 a1 ef fc bd 15 f7 13 3d 2e 0b 67 3d 6a bc 1d 3e
       -0.12350393 0.036124308 0.056407146 0.15403906
0000c0 e3 b4 0d bd 08 cc 59 3d 71 4a 8f be 75 c1 d9 be
       -0.034596335 0.053173095 -0.27986482 -0.42530409
0000d0 ad ec fc bd bd 7b 2c 3e 38 e4 83 be 0c a1 3d 3d
       -0.1234983 0.16844077 -0.25760055 0.046296164
0000e0 65 45 ad be 59 73 e2 3d a3 fc 66 be 99 e6 87 be
       -0.33842006 0.11057157 -0.22557311 -0.2654312
0000f0 b1 43 35 3e c0 8d f1 bd ee 07 2d 3e f1 3a 00 be
       0.17701603 -0.11794615 0.16897556 -0.12522484
000100 49 1b 24 3d ba 4b 99 3d 8e 2c cc 3e 73 82 99 3e
       0.040065084 0.07485147 0.39877743 0.29982337
000110 0d 06 77 be 68 07 24 be 69 ca 02 be ee c2 d0 be
       -0.24123402 -0.1601845 -0.12772526 -0.4077372
000120 cd b4 10 3e e0 f6 df be 24 ed b0 3e 19 cb 63 bd
       0.1413147 -0.43743038 0.34555924 -0.05561361
000130 ec 64 63 3e c0 dd 29 bf fe 11 14 be 85 94 70 bd
       0.22206467 -0.6635399 -0.14459988 -0.05873539
000140 47 23 46 3e 88 05 af 3e a2 fd c2 3e 0c 81 b4 be
       0.19349395 0.34183908 0.3808413 -0.35254705
000150 c0 21 a9 3d df fc 86 be 65 ae 7d be d3 67 d6 3d
       0.082583904 -0.263648 -0.24773557 0.10469022
000160 ca a1 da 3d bf d7 aa 3d a4 43 2a 3e 54 b9 35 be
       0.1067539 0.083419316 0.16627365 -0.17746478
000170 c8 35 76 be 9c 7b 35 bc 2e ab 3d 3e cf 36 d6 3c
       -0.24043953 -0.011076834 0.18522331 0.026149182
000180 d7 44 12 bd ea 6c 21 be a9 09 8f bd 0f 89 84 3e
       -0.035710182 -0.15764204 -0.069842644 0.25885817
000190 55 43 ae bd ca 2f ea bd ba 3a 0d be 04 b2 ab 3e
       -0.08508936 -0.11434896 -0.13791934 0.33534253
0001a0 84 f5 45 be 0d 81 18 be 80 1e 84 3e 46 7c 8c 3e
       -0.19331938 -0.14892979 0.2580452 0.27438563
0001b0 82 a8 93 3e eb 6e 93 3d d9 98 08 be 68 cb 6a be
       0.288395 0.0719889 -0.13339557 -0.22929156
0001c0 bd 99 a4 bd 52 71 06 be 07 da 99 3d ee 44 16 3c
       -0.08037136 -0.13129166 0.075122885 0.009171708
0001d0 48 2d 92 be cf 55 76 3d f9 d0 8b be 1a d4 3d be
       -0.28550172 0.060140427 -0.2730787 -0.18537942
0001e0 85 00 af 3e 6e bc 82 be bc e0 24 be 28 0b 5d 3c
       0.34180084 -0.25534385 -0.16101354 0.013491429
0001f0 04 2e 43 3e 9d ef 0d 3e 11 f5 d0 bc ea d4 53 be
       0.19060522 0.13860936 -0.025507482 -0.20686689
000200 b7 f9 eb 3c 7e ba cc bd 84 ab 2a 3e de 78 3e be
       0.028805597 -0.09996508 0.1666699 -0.18600795
000210 12 ba 76 be 3c eb 7f 3e 33 13 79 bd a1 e1 2e 3e
       -0.24094418 0.24992079 -0.060809325 0.17078258
000220 25 0b d8 3d b1 01 58 3d a8 4c c0 3e 1d 91 d1 be
       0.10549001 0.052735988 0.37558484 -0.40931025
000230 f9 04 ad 3b c2 e3 ba 3e 25 39 c4 be 9e 67 96 3e
       0.005280134 0.3650189 -0.38324848 0.2937593
000240 0b 94 64 3d 25 46 3d 3c b4 67 69 3e dc 3a a3 bb
       0.055805247 0.011552368 0.22793466 -0.004981382
000250 ac 3e 12 be f7 e8 cb bd 35 9e 60 3d a8 f5 ee bc
       -0.1428172 -0.09956544 0.054838378 -0.029169872
000260 16 5f 37 be 45 b0 0f 3e 7d 71 c3 3e 22 f6 0e 3d
       -0.17907366 0.14032085 0.38172522 0.0349027
000270 57 42 94 bd bb cd 8e bd d2 16 8e bd aa ad 8a ba
       -0.07239216 -0.06972834 -0.069379464 -0.001058032
000280 27 33 c4 be ab 11 8c bd 30 82 0f 3e eb 94 11 3e
       -0.38320276 -0.068393074 0.14014506 0.14216964
000290 15 2f 31 3e 3f eb a7 3c 7d a7 c1 3d 3b d5 00 bf
       0.17303117 0.020497916 0.09455774 -0.50325364
0002a0 4b f2 26 3e c0 89 02 be 4a da e3 3d da 4e 01 3f
       0.16303365 -0.1274786 0.1112562 0.5051094
0002b0 62 9c bb 3e b1 6a 3f 3e 0e a3 89 be 26 8c 79 be
       0.36642748 0.18693043 -0.26882213 -0.24369869
0002c0 93 37 91 be 70 86 c5 3d 45 cc bc be 7c 35 0e be
       -0.28362712 0.096447825 -0.36874595 -0.1388759
0002d0 f0 73 61 3c 6c ee e9 3a 9d 1c 8e 3e 7c 84 65 bd
       0.013760552 0.0017847545 0.27756205 -0.05603455
0002e0 68 1b 59 be 00 26 be be 8c 94 67 3e ee c3 ef 3e
       -0.21201861 -0.37138367 0.2261526 0.4682917
0002f0 9d db 66 3d cb fb 4a bd 1f 2a f0 3d 88 c0 9f 3d
       0.056361783 -0.049556535 0.11726784 0.07800394
000300 3a 6a c8 3c 26 98 7c bd 8d f9 00 be 98 d0 b9 3e
       0.024464715 -0.061668538 -0.12595196 0.36291957
000310 04 e9 9b 3e 55 fd 5f be 94 af 0d be 71 d6 9f 3e
       0.30451214 -0.21873982 -0.13836509 0.31218293
000320 b6 4b a0 3d 1e 95 0b bd 50 fb 01 be 38 86 3a 3e
       0.07826941 -0.034077756 -0.12693524 0.18215263
000330 09 a7 7d 3e 9e 56 94 3c 65 24 a8 3b 6b 26 81 3e
       0.2477075 0.018107709 0.0051312917 0.25224623
000340 6d c6 00 3e cf db 4b 3d d5 7d 82 be 9b 55 5f 3e
       0.12575693 0.049770173 -0.25486627 0.2181
000350 aa f0 a4 3e 35 33 ac bc aa 9d 9a 3b cc d3 e3 3e
       0.32214862 -0.021020511 0.004718502 0.44497526
000360 53 b9 86 3e e5 e8 03 bf 25 59 04 be 62 d0 0f 3e
       0.26313266 -0.51527244 -0.12924631 0.14044335
000370 c8 87 6d be ce d0 80 3d 1d ac c8 3d 7f ba b6 bc
       -0.23196328 0.06289826 0.09798453 -0.022305725
000380 0f 67 6e 3c b9 36 82 bd e6 de 61 bd 16 38 e2 be
       0.014550938 -0.06358094 -0.055144213 -0.44183415
000390 2b c6 ae be 0c 17 ad be 9d 37 8e 3e 23 e6 a9 3d
       -0.34135565 -0.33806646 0.27776805 0.08295848
0003a0 4b 63 27 3d 12 d0 bc 3e cf 9c 29 3d 7a 6e 40 bf
       0.040866178 0.36877495 0.04140931 -0.75168574
0003b0 93 bf 39 bf 66 90 11 bf 39 ba be 3c bb 54 cc 3c
       -0.72557944 -0.5686096 0.023282157 0.024942746
0003c0 d4 06 ac 3e 7f 48 88 3e a1 38 27 be 3a c4 c4 be
       0.3359896 0.2661781 -0.16330196 -0.3843096
0003d0 ee 02 0b be dd b8 f9 3d 03 de bf be dd e6 33 be
       -0.13575336 0.12193463 -0.3747407 -0.17568536
0003e0 a9 34 e3 3e 79 94 08 3e f2 08 a2 bb 38 0f 29 bf
       0.44376114 0.13337888 -0.004944914 -0.66038847
0003f0 4b 0d 3f be fa c9 ea bd 91 42 b9 be ff 1f bf bd
       -0.18657415 -0.11464305 -0.361836 -0.09332275

conv2.lin_l.bias f4 [64]
000000 d6 47 12 bd 09 a6 57 bc 4f 08 84 bd 40 01 31 bd
       -0.03571304 -0.013162144 -0.06446897 -0.043214083
000010 b1 75 2a be 92 5c 29 be d4 36 be bd 88 1d 81 be
       -0.16646458 -0.16539219 -0.092878014 -0.25217843
000020 24 ac 50 3d ac c6 e8 bc 85 06 80 3d c7 28 35 bd
       0.050945416 -0.028415047 0.062512435 -0.04422834
000030 4c 7f 86 3d 55 1c f3 bd ab 36 6c 3d e5 79 b2 bb
       0.06567249 -0.11870638 0.057669323 -0.00544666
000040 a0 ab 8a bd 9e b3 d2 bb 8d a8 1d bd 80 13 42 bd
       -0.06771016 -0.0064301034 -0.03849082 -0.047381878
000050 61 ea e1 bd 38 1f fd 3b a5 4b 54 3b b3 9f 38 bd
       -0.11031032 0.007724669 0.003239372 -0.045074176
000060 4a 54 bc bd 39 e2 f4 3d 77 eb 2c bd b6 bc ad bb
       -0.09195764 0.11957211 -0.042216744 -0.005302037
000070 e0 77 62 bd 1b 9c a0 3d 15 d1 b8 bc 36 b4 6f 3c
       -0.055290103 0.07842275 -0.022560636 0.014630368
000080 21 d1 c8 bd 33 04 54 3c 36 36 0d 3d d2 49 27 3d
       -0.09805513 0.012940454 0.034475528 0.040841885
000090 c9 92 ab bd 48 ff a0 b9 e7 d3 3c 3d ed 11 42 3e
       -0.083776064 -0.00030707777 0.046100523 0.1895215
0000a0 69 d5 ff bd d8 df cd 3c 88 38 10 be 4b f7 7e 3d
       -0.12491877 0.025131151 -0.14084065 0.062247556
0000b0 e2 2c 9c 3d 22 88 11 3e d6 b9 f3 bd e2 3c 6c 3d
       0.07625748 0.14212087 -0.1190068 0.05767525
0000c0 9b 0f 39 be a8 df f6 bd 5c 42 98 bc b2 e7 13 bc
       -0.1807236 -0.12054378 -0.01858633 -0.009027408
0000d0 42 2a 9b 3b db bc c1 3b 5e 30 17 3d 1d 31 86 bd
       0.004735262 0.005912406 0.03691136 -0.06552336
0000e0 5e 02 f9 bd 50 89 bd bd 5a aa f4 3c 51 04 38 3d
       -0.12158655 -0.09254706 0.029866386 0.04492599
0000f0 79 85 7c be fb 8f 2b bd 86 a1 88 3b fa 83 80 bc
       -0.24660291 -0.041885357 0.0041696457 -0.015687931

conv2.lin_r.weight f4 [64, 64]
000000 e6 28 a5 3e 77 3e 77 bd 65 cc d4 3e bf 6b 05 3f
       0.32257766 -0.060362305 0.4156219 0.5211753
000010 7b 13 a4 bd 92 a6 74 bd fd c3 20 be b2 6f a2 bd
       -0.08011528 -0.059729166 -0.15699764 -0.079314604
000020 b1 6a 17 be dc 59 31 be 6d d5 9a 3e cc 00 5b bd
       -0.14786793 -0.17319435 0.30240956 -0.053467557
000030 03 57 ce 3d 7d 95 b3 bd 89 fa 8d be 7e d5 3f 3e
       0.1007519 -0.08768747 -0.27730206 0.18733785
000040 ed 85 5a 3e cd 88 ba 3e a5 39 ab 3e 65 31 57 bd
       0.21340151 0.36432496 0.33442417 -0.05253734
000050 af 07 0d 3f 22 67 77 3e 45 c2 7e 3d 61 ed 89 3d
       0.5508985 0.24160436 0.06219699 0.067347296
000060 57 3c d0 3e a5 35 06 3e 54 04 4b 3e 5d de f9 3d
       0.40671036 0.13106401 0.1982587 0.122006156
000070 2b 43 be 3d cf 6b 9f 3e 05 85 81 be 1c ad 9e bd
       0.09290155 0.3113694 -0.25296798 -0.07747862
000080 1f 14 a5 be 49 6b fb bd 9d 56 75 3c d4 71 d8 bd
       -0.32241914 -0.122763224 0.0149742635 -0.10568586
000090 5d e3 05 be 74 e3 c7 3d 6b 09 1f be b3 20 2d 3e
       -0.13075013 0.0976018 -0.15530936 0.16907005
0000a0 b9 4b 18 3f 10 ba 9f be 27 06 d6 3e 44 e4 87 3e
       0.59490544 -0.31196642 0.4180157 0.2654134
0000b0 fb b1 ff 3d ab 05 8b 3e e2 20 1f 3d 55 ca 4e be
       0.12485119 0.27152762 0.03884972 -0.20194371
0000c0 11 21 8d 3d f8 c0 9c be c9 e2 0c be 48 23 38 be
       0.068910725 -0.30615973 -0.13758387 -0.17982209
0000d0 7b 57 18 3d 76 be f8 3e fe eb 77 bd 54 76 96 bc
       0.037192803 0.4858281 -0.060527794 -0.01836697
0000e0 0c 84 3c 3e d3 d0 63 3e cf 70 e9 3e 74 19 67 3e
       0.18409747 0.22247629 0.4559388 0.22568303
0000f0 8d cd 83 3e 60 80 a0 bd 72 fc a2 3d b0 d3 a3 3e
       0.2574276 -0.078369856 0.07958306 0.31997442
000100 79 4c 22 3e 03 18 cf bd 58 b2 50 3f 0d 8c f8 3d
       0.15849485 -0.10112002 0.8152213 0.121360876
000110 75 30 61 3e 96 8d d9 3d 09 07 ac be a8 8a 10 3e
       0.21991141 0.106227085 -0.33599117 0.14115393
000120 3a 97 cf be a3 f0 3b be 38 7e d2 3e 51 25 6f be
       -0.40545064 -0.18353514 0.41111922 -0.23354079
000130 0a 5e c7 bd 1a 3b 88 3d 57 ec 95 3e af 17 e6 be
       -0.097347334 0.06651898 0.29281875 -0.44939944
000140 71 da b0 3d 36 ed c4 3e 85 8f 97 3f 8b 41 36 3e
       0.086354144 0.38462228 1.1840674 0.1779844
000150 81 6f 0d 3e 44 fd 88 3c 14 55 8f 3e e3 fc 42 3e
       0.13812067 0.016722329 0.27994597 0.19041781
000160 be c1 a5 be 4a b1 f3 3d ee 97 b0 3d d8 9f af be
       -0.32374376 0.118990496 0.08622728 -0.3430164
000170 71 c4 46 be 0c ee 14 be f8 5b 4d bd 21 47 9b ba
       -0.19410874 -0.14543933 -0.050136536 -0.001184676
000180 f8 6b 3b be 24 6b 12 be 4a 70 a8 bd 90 c1 95 be
       -0.18302906 -0.14298683 -0.082245424 -0.2924924
000190 6a 1b e7 be 19 4e 3f bb 2b 3c bc 3e 39 60 10 3c
       -0.45138103 -0.0029190837 0.36764655 0.008812004
0001a0 8f a8 92 bd 2f 6e 88 3e 10 c4 62 3e 33 16 aa 3e
       -0.07161056 0.26646563 0.22145104 0.33220062
0001b0 0c 76 c9 3e 3b 17 6f 3e 52 f0 9a be 4a 02 e2 bd
       0.39347875 0.23348705 -0.30261475 -0.11035593
0001c0 a0 6f 84 bd a8 32 16 3f 05 ea 7c be b7 fc bd be
       -0.06466603 0.58671045 -0.24698646 -0.3710687
0001d0 ba 73 05 bd 83 7b 20 be d0 96 56 bd 58 0c 17 3e
       -0.03258107 -0.15672116 -0.05238992 0.14750803
0001e0 9f 52 8c 3e 43 f4 1b be 83 24 11 3e 5c c6 a4 3e
       0.27406785 -0.15229897 0.14174084 0.32182586
0001f0 4e b6 00 3e b6 20 c8 be ed 6d b8 3e df c0 c1 3d
       0.12569544 -0.39087456 0.36021367 0.09460615
000200 96 50 67 3d db 9f 0a 3e e2 ba 18 bc 3e 14 15 3e
       0.056473337 0.13537543 -0.0093219 0.14558503
000210 8d 13 eb 3d 80 9e 5d 3e 92 1c ef b9 1d 0a 5b 3e
       0.114783384 0.21642494 -0.0004560692 0.21390577
000220 94 10 83 bd b5 01 8f 3e 8d 4d 61 3e c3 33 a9 bc
       -0.063996464 0.2793099 0.2200224 -0.020654565
000230 97 59 be 3c a2 ec a6 3c c8 d7 54 be be b3 ce 3d
       0.02323608 0.020376507 -0.20785439 0.10092877
000240 24 76 79 3e 7f 0c 01 3e a6 0e b4 3e 9d ac 7b 3e
       0.24361473 0.12602423 0.35167426 0.24577565
000250 0a b0 62 3e f1 77 33 3e 27 92 89 3d 57 3d 24 3d
       0.22137466 0.17526223 0.067173295 0.04009756
000260 2c 3c 97 3e 5b dc 13 3e 31 43 25 3e 76 ac ac 3e
       0.29538095 0.14439528 0.16138913 0.33725327
000270 69 c9 d0 bd 1b 6d 30 3e 1e a6 23 3e d9 af 70 3d
       -0.10194666 0.1722912 0.15981337 0.05876145
000280 58 41 de 3d 8c d3 23 3e ef 73 4b 3e 77 ad ae 3d
       0.10852307 0.15998667 0.19868444 0.085291795
000290 ea a0 9a bd 92 0d 93 3d ca 9b c9 bd 41 e1 8a 3e
       -0.07550223 0.07180323 -0.098441675 0.2712498
0002a0 e1 9f 74 bd 12 71 92 3d 1b 0e 96 3d 7d 51 45 3e
       -0.059722785 0.07150473 0.07326909 0.19269367
0002b0 1e 41 f4 3d 1a 43 c0 3e f2 4e c2 bd 3a 84 e2 bb
       0.119264826 0.37551194 -0.09487714 -0.0069127353
0002c0 19 0e 29 3e 61 25 93 3e bf ce 78 bd f7 6a 07 3e
       0.16509284 0.28739455 -0.060744043 0.13224398
0002d0 14 29 f3 3d df da b8 3e 72 8d d3 3e 1f 55 cb 3d
       0.118730694 0.36104485 0.41318852 0.09928345
0002e0 cc 1a 41 3e 48 51 6d be 37 6c 4d 3b 72 31 d3 3d
       0.18857878 -0.23175538 0.0031345019 0.10312165
0002f0 2f 04 bb bc b5 ef f9 3d 34 49 b7 3d 6b f4 93 3e
       -0.022829143 0.122039236 0.08949509 0.28897414
000300 3c 53 2f 3e 69 5d 8a 3d 73 a6 20 bf 8f a6 10 3e
       0.17121595 0.06756098 -0.6275398 0.14126037
000310 4c 3f 86 3d 13 6b 2e 3e 20 b6 d3 3d b1 41 cb 3d
       0.06555042 0.17033033 0.10337472 0.09924639
000320 06 54 b2 3e 57 75 4b 3e 0f fc b4 be b9 c3 87 bc
       0.3482973 0.1986898 -0.35348555 -0.01657282
000330 65 54 99 3d c0 a3 08 3e ae f6 35 3e b7 36 60 3e
       0.074868 0.13343716 0.17769882 0.21895872
000340 e3 33 0a 3d 38 b3 68 be 2e a5 d8 be a9 83 ed 3e
       0.03374089 -0.22724617 -0.42313522 0.4638951
000350 36 41 42 bd 93 a4 09 3e ce 70 40 3e c9 f8 99 3e
       -0.04742547 0.13441686 0.18793032 0.3007262
000360 d0 ba 30 3e e7 54 ae 3c 7c 4d 89 3e 42 72 b6 3e
       0.17258763 0.021280719 0.26816928 0.35634047
000370 10 14 e5 3e 63 b6 12 3e 4b b5 98 3e d3 9e ad 3e
       0.4474187 0.14327388 0.29825816 0.33910236
000380 81 da 95 bd 6c d5 94 3e 11 c5 d6 3b 6e 9b 0f 3e
       -0.07317067 0.29069078 0.006554254 0.14024135
000390 0f f4 09 3e c9 22 02 3e 2a c0 2f 3e 35 2c f2 be
       0.13472007 0.12708582 0.17163149 -0.47299352
0003a0 72 8a 9b 3d 28 81 6f 3e 46 56 22 3e a7 e8 0c 3e
       0.07594766 0.23389113 0.15853223 0.13760625
0003b0 d8 20 8e bd 71 7b f2 bc 4a 13 32 3f a7 ab 09 3f
       -0.06939858 -0.029599877 0.6956068 0.53777546
0003c0 c0 b0 ac 3d 5d 74 4c bd 1b 9c 3b 3e 28 75 f9 3e
       0.0843215 -0.04991566 0.18321268 0.48722196
0003d0 4f 05 bf 3e 47 47 85 3e fa 65 35 bd b6 d2 07 3e
       0.37308738 0.26030943 -0.044286706 0.13263974
0003e0 73 94 0f 3e e4 86 40 3e 90 2c 72 3e 0c 6f cf bd
       0.14021473 0.18801457 0.23649812 -0.101286024
0003f0 ff bf 15 3d 32 d2 be 3a 07 98 48 3e c4 e4 3c 3e
       0.036560055 0.0014558493 0.19589244 0.18446642

conv2.lin_r.bias f4 [64]
000000 99 e7 3d 3d 08 5d 10 be e5 22 e5 3d 11 fc 5a 3e
       0.046363447 -0.14097989 0.11188296 0.21385218
000010 e3 71 05 bd 09 76 af 3d f5 7a e5 bd b0 20 40 bc
       -0.032579314 0.08567435 -0.11205093 -0.011726543
000020 27 0a 4b bd 47 0c 55 3e ae a1 2f be 6e 43 25 3d
       -0.04957023 0.20805465 -0.1715152 0.04034751
000030 c8 e9 b0 bc de 8c 2b bd 78 c3 96 3e 5c 5e 30 3d
       -0.02159585 -0.04188239 0.29446006 0.043058738
000040 16 fe 1f be d4 70 ff 3d 09 0a c8 3d 69 f5 9a 3d
       -0.1562427 0.12472692 0.09767539 0.075663395
000050 31 55 0d be af ee fc 3b 40 39 84 bd d7 9c ca bc
       -0.13802029 0.007718883 -0.06456232 -0.02473299
000060 58 a7 aa bd d4 31 d8 3d 85 49 eb bd 94 03 8d 3e
       -0.083326995 0.10556379 -0.11488632 0.27541792
000070 77 13 4a 3e 68 f7 08 3c ac cd e6 3c 61 ba 3f bd
       0.19733988 0.0083597675 0.028174244 -0.046808604
000080 25 9c 10 3c a7 cc b8 bd d6 42 a3 bd ff 7b 61 3d
       0.00882629 -0.09023409 -0.07971732 0.055049893
000090 4c 36 35 3c 39 33 9e bd 56 fe 09 be 28 02 4a 3d
       0.011060309 -0.07724614 -0.13475928 0.049318463
0000a0 64 91 e4 bd 24 7b 16 be 56 8b 1e be 49 25 6e 3d
       -0.111605436 -0.14695412 -0.1548284 0.058141027
0000b0 9c 51 7e 3c 67 6a af 3d 68 a7 fa 3c 13 da 5c be
       0.015522387 0.085652165 0.030597404 -0.21567564
0000c0 3d 25 13 be f6 47 66 3a 14 74 98 bd 2c f6 ce bd
       -0.14369674 0.0008784527 -0.07444015 -0.10105547
0000d0 6e 56 fa bd 47 9e 8e 3e 1b 21 9b bc cd 73 37 3e
       -0.122235164 0.2785513 -0.018936684 0.17915268
0000e0 e7 72 ba bc 1a ee e3 bd ac b9 48 3e 18 73 8e bd
       -0.022759868 -0.11129399 0.19602078 -0.06955546
0000f0 cf 38 ae 3e 6e 99 01 3e 86 f0 a3 bc b0 ed 93 3e
       0.34027717 0.12656185 -0.020012151 0.2889228

conv2.lin_edge.weight f4 [64, 2]
000000 57 ab cc bd bb 1a e0 be f7 fe b0 3d 32 1b d8 bd
       -0.09993618 -0.43770394 0.08642381 -0.10552062
000010 ce af 31 3e 4b 99 e1 bc 25 7f 9e be de 3c 07 be
       0.1735222 -0.027538916 -0.3095638 -0.13206813
000020 58 3c 56 be e4 59 30 3d 86 12 4f be a7 50 7d 3b
       -0.20921457 0.043054476 -0.2022191 0.003865281
000030 35 c8 1b bd 61 81 89 3e f9 c8 a4 3c ca df 28 3e
       -0.03803273 0.2685652 0.020115362 0.16491619
000040 0c 90 f7 bc 14 bd ba 3e e7 d1 8b bd df 23 7d be
       -0.030220054 0.3647238 -0.06827145 -0.24720715
000050 98 43 dd 3c 75 1f d1 3e f8 b2 2a 3e a4 ce c0 be
       0.02700977 0.40844312 0.16669834 -0.37657654
000060 07 92 c3 3e f4 22 2c 3d 53 af 02 be c3 79 ed be
       0.38197348 0.04202552 -0.12762193 -0.4638196
000070 cf 74 17 3e b7 8d 00 bf da 0d 5b be 5c 1d a6 be
       0.14790653 -0.5021624 -0.21392003 -0.32444274
000080 9d 37 23 be f2 a4 58 3e 2e 25 62 3d c1 49 fc be
       -0.15939184 0.21156672 0.05521124 -0.4927502
000090 2b 54 8c be 64 55 80 3e bf ea e0 3e 8e 0d d8 3c
       -0.27407965 0.25065148 0.43929097 0.02637365
0000a0 c6 8a 9e bd 24 2c 05 3d 7b 8c 91 3e 91 b3 48 3e
       -0.07741313 0.0325128 0.2842749 0.19599749
0000b0 79 3a e0 3d ec 30 55 3e ea ab 00 3e 83 87 26 3d
       0.10948653 0.20819443 0.1256558 0.040656578
0000c0 d8 8e 2a be f0 08 dd 3e 34 70 8c 3e f0 ac 8e 3e
       -0.16656053 0.4317088 0.27429354 0.27866316
0000d0 44 fe ba 3c c3 01 90 bc b4 fa 45 3e 20 47 11 be
       0.022826321 -0.017578965 0.19333917 -0.14187288
0000e0 6b 84 9f 3e 3a ee e8 3e c3 3f 7e bd db 89 57 3e
       0.31155714 0.45494252 -0.062072527 0.21048681
0000f0 67 61 94 be 01 76 ba 3e dd 62 5f bd d7 4b 82 3e
       -0.28980562 0.36418155 -0.054537643 0.25448486
000100 ed 10 93 bd 2e e4 4f 3e be 90 ed 3e a6 4c 6e 3e
       -0.07180963 0.20301887 0.46399492 0.23271427
000110 72 59 12 be f4 fc 2a bd 9e 4c 8f be 95 b0 6f 3e
       -0.14291933 -0.04174514 -0.27988142 0.23407204
000120 88 bf b1 be ab b1 b3 3e 87 56 81 3e 58 d8 c6 bd
       -0.3471644 0.35096487 0.25261328 -0.09709233
000130 6c b3 66 3e 27 17 61 3e 84 a3 fe bd b9 b1 ed bc
       0.22529382 0.21981488 -0.12433532 -0.029015409
000140 67 68 27 be 98 92 9c 3e 5d 0e 0d be c3 c7 93 3e
       -0.1634842 0.30580592 -0.1377501 0.28863344
000150 f1 6f 81 bd a8 b0 66 3e 04 39 85 3d 9b 41 8d 3d
       -0.06320179 0.22528327 0.065050155 0.06897279
000160 85 d1 5c be 9d b6 8a be a7 ca d0 be a6 82 49 3e
       -0.215643 -0.27092448 -0.4077961 0.19678745
000170 33 19 9c be 3f 84 0e bf 21 07 bb 3c b5 ac 85 3e
       -0.30487975 -0.5567054 0.022830548 0.26108328
000180 ce a4 59 3e af b8 19 bd 61 b1 f6 ba 58 e3 e0 3d
       0.21254274 -0.037529644 -0.0018821174 0.109808624
000190 eb 99 48 3e b6 00 70 be 99 a7 b0 3e 13 0c af 3d
       0.19589965 -0.23437771 0.34502867 0.08547225
0001a0 5f b9 63 bd f4 78 02 3e 02 de d8 bd 54 e7 f4 be
       -0.055596706 0.12741452 -0.1058922 -0.4783274
0001b0 84 42 2b 3d 07 50 be 3d 15 fb 6c 3d 8f 96 ec bd
       0.04181148 0.09292608 0.057856638 -0.11552154
0001c0 b1 42 9d bd ab 12 6b 3e 6e ae 40 3e 1c 9e c3 bd
       -0.07678736 0.2295634 0.1881654 -0.09551641
0001d0 cf d8 e3 3c c1 cb 13 3c 95 4b cf bd 65 af cf 3c
       0.027813343 0.009020747 -0.10121838 0.02535219
0001e0 6e 18 97 3d 86 5b 98 bd 15 05 04 bf 9f 5f 16 3a
       0.073777065 -0.07439332 -0.51570255 0.00057362946
0001f0 0e aa db bd e9 f1 d6 3d a1 ff fb 3a 23 3d 73 be
       -0.10725795 0.104953595 0.0019225964 -0.2375379
