saved_models/dgat1.pt (torch, 42878 bytes, 16 tensors)

conv1.att f4 [1, 1, 64]
0.24812794 -0.058378596 -0.31574616 -0.0030866193 -0.14091313 0.27137852 0.061994087 -0.0307296
0.12402276 0.14826286 -0.12777483 0.13222015 0.15838623 -0.16250305 -0.20889278 -0.22960527
0.19208507 0.15929814 0.21238604 -0.22300364 0.3288303 -0.24354744 -0.29822993 -0.2369771
0.06298251 -0.06335638 0.2679338 0.078230515 0.29406506 -0.22292645 -0.15084027 0.1320745
0.017930366 -0.017470405 -0.1811363 -0.059322584 0.17277628 -0.023651859 0.13024983 -0.34093615
-0.25265276 0.036574062 -0.04683086 0.063424475 0.06101754 0.06134487 -0.15530947 -0.21483006
-0.030986726 0.22402145 0.16323091 0.08200811 -0.18876691 -0.2032138 -0.33983493 0.13525124
0.024797317 0.07146695 -0.3259513 0.08621946 -0.1615991 0.11581899 -0.1812764 -0.25713137
00000000: 4015 7e3e 651e 6fbd 7ba9 a1be e148 4abb
00000010: 884b 10be 20f2 8a3e 83ed 7d3d a4bc fbbc
00000020: a5ff fd3d 38d2 173e 68d7 02be b864 073e
00000030: 0030 223e 3367 26be fde7 55be a51d 6bbe
00000040: f3b1 443e 0d1f 233e ba7b 593e 115b 64be
00000050: 725c a83e 8064 79be 98b1 98be 20aa 72be
00000060: f9fc 803d fdc0 81bd 9e2e 893e 5237 a03d
00000070: b28f 963e d546 64be df75 1abe 8a3e 073e
00000080: b4e2 923c 181e 8fbc cb7b 39be 3dfc 72bd
00000090: 44ec 303e 8bc1 c1bc 3660 053e 2f8f aebe
000000a0: b45b 81be afce 153d b7d1 3fbd b1e4 813d
000000b0: 87ed 793d c244 7b3d 7209 1fbe 69fc 5bbe
000000c0: e0d7 fdbc e165 653e 0126 273e def3 a73d
000000d0: 1d4c 41be 4717 50be d8fe adbe 4d7f 0a3e
000000e0: be23 cb3c 445d 923d 17e3 a6be d493 b03d
000000f0: 3c7a 25be 8232 ed3d 85a0 39be b9a6 83be

conv1.bias f4 [64]
0.0 -0.11953379 -0.104002945 0.015487047 -0.011698551 -0.0041222614 -0.0025454152 -0.007995015
-0.15735488 0.045851607 0.004224974 0.10368918 -0.07465459 0.0 -0.09200968 -0.14469604
-0.02140758 0.010044608 0.0 0.11885159 0.0 0.0 -0.019388005 -0.17684707
-0.081857875 0.00050938496 0.059703022 -0.040310394 0.15922582 0.03442067 -0.02131028 -0.030655146
0.010645089 -0.0781898 0.035319053 -0.038396664 0.0028880173 0.05127251 -0.012633101 0.021235049
-0.07687509 -0.012046534 0.0 0.0 0.0 -0.027799388 0.06178888 -0.031558026
-0.04468075 -0.06644029 -0.044786826 -0.04334712 0.09819452 -0.106912114 -0.04546757 0.020639071
-0.08728925 -0.034437295 0.017908596 -0.068063475 0.0 0.04179665 -0.05152958 -0.05773957
00000000: 0000 0000 22ce f4bd 7fff d4bd 62bd 7d3c
00000010: 47ab 3fbc 0914 87bb fbd0 26bb 86fd 02bc
00000020: a321 21be e5ce 3b3d a771 8a3b fe5a d43d
00000030: 81e4 98bd 0000 0000 926f bcbd 332b 14be
00000040: f35e afbc 2492 243c 0000 0000 7668 f33d
00000050: 0000 0000 0000 0000 98d3 9ebc 6617 35be
00000060: 1aa5 a7bd 3f88 053a 288b 743d 831c 25bd
00000070: 180c 233e b0fc 0c3d e592 aebc 8020 fbbc
00000080: bd68 2e3c f921 a0bd b6aa 103d d245 1dbd
00000090: e444 3d3b 2003 523d 11fb 4ebc 20f5 ad3c
000000a0: b070 9dbd d35e 45bc 0000 0000 0000 0000
000000b0: 0000 0000 8bbb e3bc 5616 7d3d fd42 01bd
000000c0: 2a03 37bd d911 88bd 6472 37bd c08c 31bd
000000d0: 351a c93d bdf4 dabd 343c 3abd 4513 a93c
000000e0: b5c4 b2bd 1f0e 0dbd 0cb5 923c dd64 8bbd
000000f0: 0000 0000 f732 2b3d ae10 53bd 5480 6cbd

conv1.lin_l.weight f4 [64, 4]
-0.13934669 -0.026691763 -0.07948591 -0.20999932 0.24268259 0.21772096 -0.18092525 -0.009879086
0.20970412 0.25019032 0.1287031 0.24386452 -0.12265735 -0.2541355 -0.026651058 0.042636868
-0.04065182 0.21758963 0.07043702 0.19208407 0.3158881 -0.035216615 0.04294672 -0.16357595
0.13126177 -0.028727312 0.26274988 -0.056590404 -0.2189813 0.2582754 0.20308906 0.2574187
0.082353465 0.19700396 -0.2616376 -0.18908685 -0.15636364 -0.19385862 -0.13714921 0.14907058
-0.037509553 0.18502702 0.124188915 -0.1502591 -0.082065076 -0.23906784 0.17947079 -0.050649554
-0.2469086 0.0110601 0.09640342 0.13168298 0.019141456 -0.03381215 -0.31709543 -0.20413797
0.0056919972 -0.17537545 0.00071603584 0.18833448 0.14267853 0.11337733 -0.14233282 -0.35106763
0.20442383 -0.1789298 -0.025415068 -0.18998526 -0.100611575 0.22214714 -0.01523495 0.04732164
-0.20655796 -0.09072526 -0.17228843 -0.08234582 -0.1760295 0.34313986 -0.2386623 -0.0003369159
-0.26849797 -0.25121596 -0.24412282 -0.20646885 -0.20678788 0.17125198 -0.19173276 -0.06747197
0.23526861 -0.2526265 -0.1690691 0.18625484 0.11674196 0.06370148 -0.015092131 0.12507412
-0.27707508 0.15753323 -0.28156483 0.20565972 0.021809757 -0.23699784 -0.017323233 -0.036408875
-0.06871891 0.24103086 -0.22313988 -0.20478109 0.014298089 -0.06767392 -0.14952227 0.25330377
-0.038308848 -0.2907182 0.030116932 0.02895813 0.046241328 0.08001355 -0.15891998 0.25736076
0.1692981 -0.15460983 -0.14670746 0.09198338 -0.23829713 -0.14638086 -0.3158986 0.17684564
-0.25786427 0.12955007 0.19078402 -0.12314439 0.21519332 0.21473071 -0.069382355 -0.11683119
0.33587703 -0.24646616 0.18320698 -0.08482608 -0.10657868 -0.028594857 -0.10196746 0.1584212
-0.20765693 -0.036592223 -0.09586329 0.27486756 -0.06557587 -0.26194245 -0.17374377 0.09359584
0.3177388 -0.15436572 0.15973595 -0.1704768 0.25315905 0.0017624872 0.03166233 0.07513838
0.23558365 -0.021683818 -0.19656351 -0.01966753 -0.27271867 0.09506219 0.030241856 -0.111179106
-0.14885138 -0.052034657 -0.1250176 -0.1059979 -0.22420715 -0.17011447 -0.09058988 -0.10703793
-0.21127024 -0.22962867 -0.06196652 -0.09511852 0.06983633 0.11377745 0.21124214 -0.066318564
-0.2026658 0.21425779 0.23312503 -0.07560306 -0.22127105 -0.04387063 0.251976 -0.033660624
-0.17461932 0.168342 0.10379925 -0.010427323 0.08681 -0.12717116 0.05683221 0.22735217
0.10697909 -0.04078172 -0.03174435 -0.12162781 0.1873944 0.004249127 0.07931216 -0.23473895
-0.18942554 0.35833418 -0.0839314 0.09894847 0.09226922 0.047787834 0.07384163 0.06451952
-0.039410383 -0.26020002 -0.19861375 0.23049863 -0.21348338 -0.15273586 -0.33696398 0.18353836
0.19438198 0.06626548 -0.2517797 0.0041940487 -0.25579393 -0.3159236 0.17597413 -0.21719077
-0.044134367 0.06384084 -0.25724563 0.13197038 -0.07815511 0.08042449 -0.2605911 -0.014557558
-0.025751246 -0.19860493 -0.27434173 -0.044759873 0.03805337 -0.16331124 0.0017121942 0.050849464
0.26504245 -0.17183633 -0.06650353 -0.0150117725 0.24183713 0.20037726 0.040936932 -0.38719514
00000000: e6b0 0ebe afa8 dabc 82c9 a2bd 100a 57be
00000010: c981 783e 3ef2 5e3e 7844 39be e4db 21bc
00000020: adbc 563e f218 803e bfca 033e 9fb7 793e
00000030: c733 fbbd 0c1e 82be 5253 dabc ffa3 2e3d
00000040: 8682 26bd d1cf 5e3e 4941 903d b0b1 443e
00000050: 16bc a13e 4c3f 10bd e6e8 2f3d 7480 27be
00000060: 7c69 063e 8a55 ebbc 2787 863e 57cb 67bd
00000070: a23c 60be ac3c 843e 94f6 4f3e 62cc 833e
00000080: efa8 a83d 68bb 493e 5df5 85be fc9f 41be
00000090: ca1d 20be e082 46be d870 0cbe f5a5 183e
000000a0: 9ea3 19bd b977 3d3e c256 fe3d 86dd 19be
000000b0: bc11 a8bd 33ce 74be 31c7 373e e875 4fbd
000000c0: 9cd5 7cbe 6c35 353c 286f c53d e7d7 063e
000000d0: 8bce 9c3c 9c7e 0abd 555a a2be 8b09 51be
000000e0: ef83 ba3b 9f95 33be 5ab4 3b3a c1da 403e
000000f0: 521a 123e 6032 e83d b2bf 11be 23bf b3be
00000100: 7b54 513e 6039 37be 4333 d0bc 7f8b 42be
00000110: 710d cebd 8a7a 633e 039c 79bc 56d4 413d
00000120: ee83 53be 2ace b9bd 616c 30be eda4 a8bd
00000130: 1441 34be 07b0 af3e e463 74be 16a4 b0b9
00000140: 9178 89be 619f 80be 55fb 79be 926c 53be
00000150: 34c0 53be ae5c 2f3e 9855 44be bf2e 8abd
00000160: 41ea 703e 4358 81be 7320 2dbe 97b9 3e3e
00000170: 6916 ef3d ec75 823d fc44 77bc 6e13 003e
00000180: c9dc 8dbe 6450 213e 4429 90be 7698 523e
00000190: 60aa b23c 90af 72be 74e9 8dbc 7921 15bd
000001a0: 80bc 8cbd cbd0 763e c87e 64be 22b2 51be
000001b0: 8842 6a3c a098 8abd 5e1c 19be 08b1 813e
000001c0: bde9 1cbd 04d9 94be c9b7 f63c 9a39 ed3c
000001d0: 8c67 3d3d 25de a33d ebbb 22be cac4 833e
000001e0: 7b5c 2d3e 0a52 1ebe 7b3a 16be c861 bc3d
000001f0: 2a04 74be dde4 15be 76bd a1be 0617 353e
00000200: c906 84be c6a8 043e e35c 433e 2033 fcbd
00000210: a35b 5c3e 5ee2 5b3e 5618 8ebd 3145 efbd
00000220: 13f8 ab3e a061 7cbe 9c9a 3b3e 4cb9 adbd
00000230: ec45 dabd c33f eabc 51d4 d0bd 2b39 223e
00000240: 05a4 54be bae1 15bd f953 c4bd 71bb 8c3e
00000250: a44c 86bd 521d 86be e3e9 31be 2daf bf3d
00000260: a9ae a23e 0c12 1ebe d291 233e 7891 2ebe
00000270: 109e 813e 4203 e73a 5cb0 013d 27e2 993d
00000280: d73c 713e 43a2 b1bc f247 49be cd1d a1bc
00000290: c8a1 8bbe f7af c23d c5bd f73c dfb1 e3bd
000002a0: 7f6c 18be 4b22 55bd 9d04 00be 6d15 d9bd
000002b0: 8f96 65be 7d32 2ebe 3087 b9bd b436 dbbd
000002c0: 3a57 58be c723 6bbe 9bd0 7dbd 80cd c2bd
000002d0: 5a06 8f3d 2704 e93d dc4f 583e 07d2 87bd
000002e0: a087 4fbe 6566 5b3e 54b8 6e3e c7d5 9abd
000002f0: e194 62be b1b1 33bd 0003 813e b9df 09bd
00000300: 68cf 32be d861 2c3e b494 d43d 5dd7 2abc
00000310: 71c9 b13d 2839 02be e4c8 683d 02cf 683e
00000320: da17 db3d bc0a 27bd 5d06 02bd 0018 f9bd
00000330: 51e4 3f3e 433c 8b3b 6a6e a23d 685f 70be
00000340: c5f8 41be 9477 b73e 3ae4 abbd 7fa5 ca3d
00000350: a5f7 bc3d 2dbd 433d 483a 973d cf22 843d
00000360: c86c 21bd f038 85be 6761 4bbe d507 6c3e
00000370: 639b 5abe ca66 1cbe 8b86 acbe 7bf1 3b3e
00000380: 120c 473e 32b6 873d 45e9 80be 3b6e 893b
00000390: 6cf7 82be bdc0 a1be 9032 343e 4267 5ebe
000003a0: 3dc6 34bd fcbe 823d b3b5 83be 3e23 073e
000003b0: c90f a0bd 98b5 a43d 326c 85be d382 6ebc
000003c0: 47f4 d2bc 175f 4bbe 8576 8cbe 2156 37bd
000003d0: dadd 1b3d 103b 27be b46b e03a 8747 503d
000003e0: a5b3 873e ddf5 2fbe 0133 88bd f0f3 75bc
000003f0: 27a4 773e b22f 4d3e 7cad 273d 713e c6be

conv1.lin_l.bias f4 [64]
0.13005005 0.15719679 -0.24158265 0.24144131 0.3936512 0.3001117 0.20516452 -0.042170696
0.37599626 0.49198 0.36270878 0.4232429 0.12776153 0.098254435 0.31272036 -0.021029836
-0.14671607 0.17546609 0.07400631 -0.10677004 0.09126399 0.33589175 -0.34783316 -0.49877876
0.31181127 -0.476177 0.45139512 -0.44826347 -0.04893957 -0.25744823 0.2975531 -0.3752411
0.45964226 0.19576237 -0.13247718 -0.053723745 -0.2514557 -0.25265852 -0.08771183 -0.2453655
0.3429752 0.15393163 -0.36212873 -0.0014273488 0.114300914 0.07505852 0.3245998 -0.061944187
-0.5422164 0.11079217 0.4518501 -0.31029147 -0.35527894 -0.07362747 -0.2436789 0.041956004
0.29820353 0.37571573 0.4980946 0.002422514 -0.4148567 -0.100299895 -0.48704955 0.28856528
00000000: d72b 053e 32f8 203e 7161 77be 643c 773e
00000010: a68c c93e 3ea8 993e a616 523e 2ebb 2cbd
00000020: 9582 c03e cde4 fb3e f7b4 b93e 4bb3 d83e
00000030: ebd3 023e 9f39 c93d e21c a03e c346 acbc
00000040: bd3c 16be 62ad 333e 9f90 973d 40aa dabd
00000050: 9de8 ba3d 01fa ab3e 3017 b2be ee5f ffbe
00000060: baa5 9f3e 79cd f3be 431d e73e ca82 e5be
00000070: dc74 48bd 41d0 83be e158 983e 9a1f c0be
00000080: 3b56 eb3e ee75 483e 19a8 07be 6e0d 5cbd
00000090: cdbe 80be 755c 81be 43a2 b3bd 1841 7bbe
000000a0: 729a af3e 41a0 1d3e f068 b9be e115 bbba
000000b0: 9916 ea3d 48b8 993d f231 a63e 30b9 7dbd
000000c0: b2ce 0abf 01e7 e23d e558 e73e 86de 9ebe
000000d0: 1fe7 b5be 00ca 96bd f686 79be 0fda 2b3d
000000e0: 22ae 983e d05d c03e 4106 ff3e 0ac3 1e3b
000000f0: 1968 d4be 086a cdbd 8f5e f9be d4be 933e

conv1.lin_r.weight f4 [64, 4]
0.24496135 -0.1269671 0.13853389 -0.24236856 0.22473219 0.13977276 -0.09263663 0.25815365
0.061061546 0.033973422 -0.086475044 0.3931195 0.20127259 -0.13274947 0.39104873 0.010247841
0.2742064 0.2836056 0.07437787 -0.18832664 -0.112523906 0.06699967 -0.30773005 -0.146861
0.0107657965 0.14213054 -0.19743943 0.05757072 0.03745315 0.051256318 -0.003839713 0.33894637
0.13904908 0.18817131 0.013220835 -0.16064066 0.18742467 0.13590516 0.22994569 0.31412995
-0.08301129 -0.21766517 0.23681848 -0.10864301 -0.13505791 0.087310016 0.15361267 0.12957284
-0.17325534 0.26088467 -0.28840688 0.0187201 -0.058518328 0.2544865 0.09454708 0.0519907
-0.19794829 -0.25074065 -0.18440387 -0.24441755 -0.04416596 -0.014632116 -0.05216665 0.0011798684
0.28774163 0.16834667 -0.00045746786 0.056919448 -0.12335482 0.08596102 -0.13995953 -0.17128424
-0.36673248 -0.031740826 -0.11233837 0.21001217 -0.1481407 0.20476857 0.14809586 0.076525666
-0.13861403 -0.21550281 0.068041645 -0.21453305 0.15339433 -0.30909282 -0.09061847 0.07394992
-0.14456591 -0.23834696 0.12659158 0.10583606 0.018985845 0.24475317 0.23544553 0.2711606
0.27057862 0.15339427 -0.25108215 0.10535384 0.015797842 -0.15641133 -0.13752766 0.0100179715
0.23473592 0.3078043 0.25878447 0.0034512922 -0.13176064 0.055818796 0.345801 0.35201275
-0.13333055 0.102435395 0.031869903 -0.016080765 0.2232933 -0.2894078 -0.13100061 0.24713024
0.35665962 0.009202265 0.21182945 -0.051915172 0.09993707 -0.09745745 -0.077992864 0.06590939
-0.0056147366 -0.0044809734 0.018341051 0.32169825 0.3792229 -0.15258755 -0.17488618 0.29498768
-0.17689724 0.2593944 -0.18749103 0.23260023 0.17245013 0.31253228 0.33932802 -0.14482173
0.24667671 0.29888692 0.14196452 0.15506054 -0.32619402 -0.30014485 0.16343556 -0.024562027
0.2865414 -0.025580399 -0.19906911 0.10287811 0.11224442 -0.030174734 0.106074475 -0.16846041
0.05879063 0.18587139 -0.22526406 0.1617478 0.2535072 0.31800324 -0.27153462 -0.06591145
-0.050602566 0.053448953 0.16542704 -0.20548046 0.07906801 0.2879774 0.22071111 0.14413822
-0.2683032 0.23860654 -0.2622795 0.05258544 0.3085689 0.1761401 0.0593631 -0.25599322
-0.04666747 -0.0020793467 0.09042885 -0.20847178 0.2415246 0.18390074 -0.039572183 -0.011521254
0.044844944 -0.32646626 -0.080433205 0.026420053 0.072277464 0.03909882 -0.11172965 0.11292008
0.030130101 -0.22519967 -0.030015353 0.27770564 -0.08177899 0.28036746 0.32664567 0.3511929
-0.12783757 -0.12313873 0.221377 0.13345195 -0.13396086 0.082465716 -0.28869918 0.04346275
0.30348465 -0.2787199 0.12735738 0.08196316 -0.24064024 -0.09238609 -0.22903049 -0.1609778
0.121470734 -0.15186058 0.20690848 -0.18704386 0.21973972 -0.31958398 -0.3596165 0.12133691
-0.20988539 -0.02276083 0.17734557 0.14121859 0.12764908 0.14802495 0.26982868 0.26877233
-0.10403859 -0.22300367 -0.06598177 -0.096298724 0.24968836 -0.06319832 0.15803158 0.10106646
0.10959481 0.004903981 -0.24364527 0.21339288 -0.26968116 -0.22772755 0.11515977 0.16682482
00000000: 26d7 7a3e aa03 02be d4db 0d3e 772f 78be
00000010: 3220 663e 9720 0f3e 46b8 bdbd b72c 843e
00000020: ac1b 7a3d b727 0b3d d419 b1bd f646 c93e
00000030: 671a 4e3e 7aef 07be 8a37 c83e 8fe6 273c
00000040: c864 8c3e c134 913e 6d53 983d b3d8 40be
00000050: ef72 e6bd 1f37 893d cb8e 9dbe bb62 16be
00000060: 0663 303c ab8a 113e 902d 4abe 46cf 6b3d
00000070: 7968 193d 25f2 513d b2a3 7bbb 618a ad3e
00000080: e262 0e3e fbaf 403e 339c 583c fc7e 24be
00000090: 41ec 3f3e b92a 0b3e e276 6b3e a4d5 a03e
000000a0: d301 aabd 9ee3 5ebe 8b80 723e 3a80 debd
000000b0: 9f4c 0abe 98cf b23d a44c 1d3e beae 043e
000000c0: d969 31be ad92 853e 11aa 93be e55a 993c
000000d0: eab0 6fbd 0e4c 823e e6a1 c13d 33f4 543d
000000e0: f5b2 4abe 1461 80be 5ed4 3cbe 9848 7abe
000000f0: 5ee7 34bd 8bbb 6fbc b2ac 55bd d0a5 9a3a
00000100: df52 933e 1263 2c3e 4cd8 efb9 5e24 693d
00000110: 74a1 fcbd 550c b03d 8d51 0fbe 2365 2fbe
00000120: 5cc4 bbbe ab02 02bd a911 e6bd 6e0d 573e
00000130: 32b2 17be daae 513e 71a6 173e 7db9 9c3d
00000140: d6f0 0dbe c5ac 5cbe 6b59 8b3d 8dae 5bbe
00000150: 6713 1d3e 6a41 9ebe 2d96 b9bd 0e73 973d
00000160: 1609 14be 3a11 74be 39a1 013e 94c0 d83d
00000170: 3488 9b3c 93a0 7a3e a218 713e 90d5 8a3e
00000180: 4889 8a3e 6313 1d3e d78d 80be c1c3 d73d
00000190: 7a6a 813c 4b2a 20be 0dd4 0cbe 6b22 243c
000001a0: 9d5e 703e 8698 9d3e 667f 843e 132f 623b
000001b0: 43ec 06be 40a2 643d d40c b13e 043b b43e
000001c0: ce87 08be a6c9 d13d 048a 023d cfbb 83bc
000001d0: 00a7 643e 422d 94be 0625 06be b60f 7d3e
000001e0: 179c b63e 19c5 163c d2e9 583e 01a5 54bd
000001f0: ceab cc3d c697 c7bd b9ba 9fbd 81fb 863d
00000200: d3fb b7bb 21d5 92bb f93f 963c a2b5 a43e
00000210: 8129 c23e e93f 1cbe 5d15 33be a008 973e
00000220: 8d24 35be 58cf 843e a6fd 3fbe c12e 6e3e
00000230: c496 303e 3b04 a03e 67bc ad3e 264c 14be
00000240: d298 7c3e b507 993e 265f 113e 31c8 1e3e
00000250: e702 a7be 96ac 99be a75b 273e 4e36 c9bc
00000260: 8eb5 923e fc8d d1bc c6d8 4bbe c2b1 d23d
00000270: 67e0 e53d 0131 f7bc 933d d93d e380 2cbe
00000280: 72ce 703d 1255 3e3e 9fab 66be 37a1 253e
00000290: b2cb 813e 52d1 a23e 9606 8bbe 95fc 86bd
000002a0: a344 4fbd 4aed 5a3d b565 293e 7869 52be
000002b0: 69ee a13d c671 933e 1802 623e f898 133e
000002c0: 095f 89be 4655 743e 8049 86be d563 573d
000002d0: befc 9d3e 125e 343e b926 733d 8b11 83be
000002e0: 6426 3fbd a645 08bb c332 b93d a079 55be
000002f0: 3a52 773e 7a50 3c3e 7116 22bd a4c3 3cbc
00000300: 55af 373d 9626 a7be 2aba a4bd de6e d83c
00000310: 3506 943d 1626 203d 84d2 e4bd a542 e73d
00000320: 67d3 f63c be9a 66be c2e2 f5bc 6f2f 8e3e
00000330: be7b a7bd 538c 8f3e 1a3e a73e 8ecf b33e
00000340: dae7 02be 2930 fcbd a7b0 623e a1a7 083e
00000350: 092d 09be c9e3 a83d 61d0 93be ff05 323d
00000360: 5762 9b3e 60b4 8ebe f969 023e 4ddc a73d
00000370: 656a 76be eb34 bdbd f886 6abe 5dd7 24be
00000380: a6c5 f83d 5781 1bbe d1df 533e 6d88 3fbe
00000390: 7303 613e 83a0 a3be a71f b8be 7c7f f83d
000003a0: 32ec 56be ec74 babc 149a 353e 9b9b 103e
000003b0: 71b6 023e da93 173e fc26 8a3e 879c 893e
000003c0: 2f12 d5bd 135b 64be 7321 87bd 4438 c5bd
000003d0: 4eae 7f3e 1f6e 81bd 08d3 213e effb ce3d
000003e0: 3e73 e03d 93b1 a03b 257e 79be aa83 5a3e
000003f0: a613 8abe 6931 69be e3d8 eb3d 20d4 2a3e

conv1.lin_r.bias f4 [64]
-0.22215538 0.44822893 0.13238017 -0.09308083 0.0094931945 -0.33406997 -0.32313305 0.3330253
0.30955482 -0.30837828 -0.4219989 0.05432752 0.38888416 0.4222504 -0.20145436 0.2926892
0.15485825 0.10709096 -0.116153985 0.3438222 -0.18831202 -0.15709347 -0.01491142 0.114149414
0.45373577 -0.18723595 -0.026689995 -0.30828765 -0.4837533 -0.26096913 0.32857072 0.46534503
0.016761053 0.51346254 -0.4551807 0.41216817 0.009753419 0.039525088 -0.44319472 -0.4157835
0.15424818 -0.46070945 0.12952654 -0.08015146 0.2117103 -0.14914718 -0.20040236 -0.3645636
-0.4281738 -0.42197442 -0.20968175 0.50728595 -0.48535293 -0.36081243 0.39973092 -0.54583436
-0.37397537 0.072444595 -0.18298268 -0.4765359 -0.37246916 -0.3816669 0.43752226 0.3817401
00000000: b37c 63be 437e e53e ab8e 073e 2aa1 bebd
00000010: 5889 1b3c 380b abbe b271 a5be 4b82 aa3e
00000020: f87d 9e3e c2e3 9dbe 3d10 d8be 8986 5e3d
00000030: d31b c73e 3431 d83e 0d4a 4ebe 5cdb 953e
00000040: 2993 1e3e 8152 db3d 24e2 edbd 7709 b03e
00000050: ded4 40be 1cdd 20be 074f 74bc 2bc7 e93d
00000060: 0e50 e83e c8ba 3fbe faa4 dabc e1d7 9dbe
00000070: 83ae f7be bf9d 85be 6c3a a83e b441 ee3e
00000080: 7a4e 893c 4872 033f 720d e9be b507 d33e
00000090: cecc 1f3c 0fe5 213d 6bea e2be 93e1 d4be
000000a0: 3cf3 1d3e 1ce2 ebbe 9ba2 043e 7326 a4bd
000000b0: 96ca 583e 0aba 18be 4736 4dbe 15a8 babe
000000c0: 9939 dbbe 080d d8be d0b6 56be 7edd 013f
000000d0: 2e80 f8be 68bc b8be 88a9 cc3e cdbb 0bbf
000000e0: b379 bfbe d55d 943d d05f 3bbe 83fc f3be
000000f0: 47b4 bebe d869 c3be eb02 e03e 7073 c33e

conv1.lin_edge.weight f4 [64, 2]
-0.037416503 -0.24625058 -0.1931985 0.17270955 -0.29936016 0.10874344 -0.103821106 -0.29000902
-0.40965602 0.1778987 0.30065224 0.12646079 0.20835161 0.19096595 0.042312838 -0.06315652
0.012138798 0.07326447 0.15641555 -0.23958659 0.013312046 -0.2739033 0.31024414 -0.23221141
0.04790325 -0.03538389 -0.28748906 -0.14694461 0.20875625 0.11955292 -0.29265165 -0.14541385
0.2131813 0.05739926 -0.00026525173 -0.038244613 -0.057230968 0.0461934 0.057013273 0.05855537
0.18749008 0.007811319 -0.35852405 -0.0044146357 0.13173808 0.2533789 -0.33769566 0.22052306
-0.08203234 0.3719153 0.0056695165 0.12729925 0.4218307 0.037300438 0.289351 0.21496345
0.062678404 -0.24179445 -0.26439327 0.20062096 -0.36347553 0.14670368 -0.007903233 -0.11845094
-0.0607182 0.23053579 0.33236092 0.4574918 -0.35885394 0.26477182 -0.24996066 0.19050087
0.23276861 0.19751629 0.11319274 -0.060692467 0.073974766 0.30684054 -0.33571106 -0.31678
-0.1267479 -0.11002973 0.012084621 -0.18028632 -0.18938775 0.08174051 0.102426976 0.15530317
0.12381173 0.23592317 -0.17996344 0.051846903 0.10087851 -0.0710339 -0.24012716 -0.0023362616
-0.16144428 -0.0622509 -0.03740283 -0.19950922 0.3115076 0.06589839 0.13703832 -0.036483817
-0.22795969 0.07257658 0.11482998 -0.2651646 -0.29001853 -0.07841685 0.15262493 -0.016155992
-0.07143844 -0.10519172 -0.11976116 0.24626799 0.018231152 -0.015513895 0.299354 -0.102155164
-0.11838799 0.06065614 -0.1642052 0.1768684 -0.1374813 -0.28175968 -0.33736798 0.18383053
00000000: 0c42 19bd 1d29 7cbe d4d5 45be c6da 303e
00000010: bc45 99be e1b4 de3d 29a0 d4bd 107c 94be
00000020: 6fbe d1be 142b 363e 17ef 993e f07e 013e
00000030: 205a 553e 948c 433e 3a50 2d3d 3558 81bd
00000040: cfe1 463c af0b 963d 662b 203e 3056 75be
00000050: c51a 5a3c 0e3d 8cbe 52d8 9e3e d4c8 6dbe
00000060: 3336 443d b3ee 10bd c431 93be a678 16be
00000070: 33c4 553e 29d8 f43d 70d6 95be 5ee7 14be
00000080: 334c 5a3e 7d1b 6b3d 7c11 8bb9 62a6 1cbd
00000090: 056b 6abd 4a35 3d3d c086 693d c1d7 6f3d
000000a0: 66fd 3f3e 18f6 ff3b 7790 b7be a6a8 90bb
000000b0: 59e6 063e e1ba 813e 72e6 acbe ccd0 613e
000000c0: 9200 a8bd af6b be3e 5ac7 b93b bc5a 023e
000000d0: 32fa d73e 58c8 183d d025 943e 611f 5c3e
000000e0: 895d 803d f798 77be 8e5e 87be 956f 4d3e
000000f0: 7719 babe 7d39 163e 907c 01bc 6896 f2bd
00000100: a6b3 78bd 9311 6c3e 362b aa3e 5d3c ea3e
00000110: b4bb b7be 2c90 873e b0f5 7fbe a912 433e
00000120: e55a 6e3e b641 4a3e 98d1 e73d aa98 78bd
00000130: 1580 973d 341a 9d3e 52e2 abbe fd30 a2be
00000140: 34ca 01be 4457 e1bd 93fe 453c fa9c 38be
00000150: ddee 41be 9267 a73d 3cc5 d13d cb07 1f3e
00000160: 0191 fd3d d895 713e 5648 38be 6b5d 543d
00000170: 6499 ce3d 397a 91bd e5e3 75be f71b 19bb
00000180: a651 25be cdfa 7ebd b633 19bd 254c 4cbe
00000190: ed7d 9f3e bcf5 863d c653 0c3e 0e70 15bd
000001a0: 446e 69be 08a3 943d fb2b eb3d a8c3 87be
000001b0: 4f7d 94be 0399 a0bd b649 1c3e 9259 84bc
000001c0: 514e 92bd c26e d7bd 5745 f5bd ad2d 7c3e
000001d0: 7f59 953c fe2d 7ebc ed44 993e ba36 d1bd
000001e0: 6775 f2bd 9372 783d 6825 28be fd1c 353e
000001f0: e6c7 0cbe ce42 90be 7fbb acbe 123e 3c3e

conv2.att f4 [1, 1, 64]
-0.29816046 0.1924078 -0.029362882 -0.09488677 -0.15225817 0.20555682 -0.13886172 -0.001288198
-0.063904084 0.08682952 -0.3095903 0.2345932 0.3408529 0.25846964 -0.1983889 0.09564923
0.16065517 0.0023777157 0.001085024 -0.030377856 -0.15279709 0.3274916 0.13482332 0.23762572
0.19420683 0.0020929412 -0.3464191 0.0545515 -0.10043951 -0.12642714 0.056136146 0.32870358
0.13827951 -0.081783324 0.11897718 -0.100290224 -0.25203758 0.14337364 0.14802547 -0.011959742
-0.19893 0.03280984 -0.1318368 0.16499814 -0.0397687 -0.1468537 0.28491813 -0.15220949
0.12041668 0.30330217 -0.052195683 -0.20166418 -0.007505045 -0.113443166 0.29795584 0.17560722
0.3846041 -0.036919728 0.53516257 0.03388178 -0.25236586 0.0046652653 0.3175599 -0.063246794
00000000: 7da8 98be 8d06 453e 6d8a f0bc ff53 c2bd
00000010: 91e9 1bbe 7d7d 523e c431 0ebe c1d8 a8ba
00000020: 25e0 82bd add3 b13d 9f82 9ebe 3339 703e
00000030: 4584 ae3e 2256 843e 7626 4bbe bee3 c33d
00000040: ca82 243e 73d3 1b3b 5d37 8e3a fbda f8bc
00000050: d776 1cbe fbac a73e 200f 0a3e 2854 733e
00000060: 28de 463e ba29 093b d85d b1be 6571 5f3d
00000070: 3bb3 cdbd 1e76 01be 04ef 653d d64b a83e
00000080: 2599 0d3e 047e a7bd 4faa f33d f664 cdbd
00000090: 120b 81be 8ad0 123e fd93 173e cbf2 43bc
000000a0: 4eb4 4bbe 9c63 063d 3a00 07be 46f5 283e
000000b0: 81e4 22bd d160 16be cae0 913e cedc 1bbe
000000c0: 059d f63d 6c4a 9b3e 24cb 55bd 0e81 4ebe
000000d0: e1ec f5bb e454 e8bd ab8d 983e 61d2 333e
000000e0: d4ea c43e 2439 17bd 6a00 093f 9fc7 0a3d
000000f0: 1936 81be 15df 983b 3697 a23e 8987 81bd

conv2.bias f4 [64]
-0.01348715 -0.027581051 -0.032562863 0.0035543835 -0.03931791 0.021439316 -0.029816521 -0.024607223
-0.042517707 -0.04255018 -0.064722635 0.0 0.0 0.0 -0.05731848 -0.0075960355
-0.013705791 0.0745131 -0.023489775 -0.052248605 -0.12036474 -0.03088249 -0.018584844 -0.033711568
-0.04112375 -0.03289956 -0.03714742 -0.02023612 -0.060792807 -0.034476243 -0.03426391 0.0
-0.014425364 -0.039740052 0.040234834 -0.064646974 -0.06974247 0.01448692 -0.004882146 -0.03469854
0.0247578 -0.02200708 -0.06412992 0.03888879 -0.026146576 -0.027958168 0.0 0.015170718
-0.009504566 0.0 -0.054166205 -0.016743831 -0.0075944797 -0.02771814 -0.015825454 -0.012212207
-0.027322466 -0.049836006 0.0 -0.039577857 -0.020260448 -0.023539048 -0.044420876 -0.08990833
00000000: 35f9 5cbc a8f1 e1bc a360 05bd a9f0 683b
00000010: d10b 21bd 81a1 af3c c741 f4bc 1695 c9bc
00000020: 0c27 2ebd 1949 2ebd 4d8d 84bd 0000 0000
00000030: 0000 0000 0000 0000 c8c6 6abd 2ae8 f8bb
00000040: 418e 60bc 539a 983d a16d c0bc a202 56bd
00000050: ca81 f6bd 47fd fcbc 3e3f 98bc 2415 0abd
00000060: 6171 28bd b0c1 06bd e527 18bd 38c6 a5bc
00000070: e101 79bd f636 0dbd 5058 0cbd 0000 0000
00000080: 5d58 6cbc 77c6 22bd 48cd 243d a265 84bd
00000090: 24d5 8ebd 8c5a 6d3c 69fa 9fbb 0e20 0ebd
000000a0: dfd0 ca3c 3148 b4bc 8c56 83bd da49 1f3d
000000b0: 5831 d6bc 8708 e5bc 0000 0000 9a8e 783c
000000c0: 0ab9 1bbc 0000 0000 62dd 5dbd 5c2a 89bc
000000d0: 1ddb f8bb 2711 e3bc 62a4 81bc b515 48bc
000000e0: 5dd3 dfbc d720 4cbd 0000 0000 641c 22bd
000000f0: 3df9 a5bc f6d4 c0bc aaf2 35bd dc21 b8bd

conv2.lin_l.weight f4 [64, 64]
-0.1516737 -0.20209971 -0.042926494 -0.20231515 0.03982509 0.19590506 0.19417292 -0.026500631
-0.008811612 -0.041786574 -0.03308945 0.040918645 -0.23731683 0.1754048 -0.011470825 0.08849327
-0.18212533 0.053161636 0.1629119 -0.24442509 0.077051654 -0.024149626 0.2265209 -0.17268543
0.2034209 -0.03385279 -0.31767705 0.12190944 0.11718645 -0.19522822 0.19485556 -0.17520212
0.054630622 -0.007952773 0.18360731 0.039885417 0.09026036 0.022633664 0.07937177 -0.088599704
0.025670554 0.27367455 0.020648614 0.20789452 -0.11461273 0.06360753 -0.19845293 -0.2267634
-0.2013819 -0.14176619 0.077666335 -0.0057535227 -0.33737868 0.10713659 0.015284047 -0.0739314
0.19875498 -0.36862776 -0.215252 0.09496893 0.20038156 -0.09238116 0.35559317 0.288702
-0.18198563 0.106242985 0.11923155 -0.1973523 -0.24335323 0.1664295 -0.17402618 -0.043258734
0.12039373 0.10415306 0.11184469 -0.13774869 -0.014100187 0.09067623 -0.05924582 0.15351781
-0.14812216 -0.18720117 -0.09088571 -0.41727573 0.08388604 -0.03136258 0.026084835 -0.043390647
0.052533016 0.1660852 -0.19603637 0.055167943 -0.07307426 -0.028271949 0.15837651 -0.09245171
0.11861897 0.18751563 0.23585393 0.028857782 -0.23258568 0.09407183 -0.0010021176 -0.041546836
0.26538932 0.00016272384 0.07239954 0.041039214 -0.18020983 0.0064304476 -0.1414648 -0.028260838
-0.24143599 0.08789276 0.019213319 0.026836704 -0.34497342 0.19001426 0.13942003 0.26314893
-0.18115427 0.13015983 -0.016717002 -0.19106498 -0.014533207 0.074867256 0.156852 -0.15941803
-0.20619148 -0.10244057 0.12773532 -0.06443318 -0.12650333 0.094986685 -0.21201381 0.10354887
-0.0086837355 -0.046971973 0.13088758 -0.11613227 -0.002522825 0.028295308 0.14213888 -0.007074002
-0.20790991 0.17236826 0.08786045 0.05958463 0.1776265 -0.061983123 -0.10649406 0.04020714
0.21489292 -0.038569387 0.18306427 0.029438496 0.037100937 -0.111923814 0.1165408 -0.20543379
0.14203127 0.10652929 -0.25181407 -0.1441341 -0.11498769 -0.027567403 0.11205332 -0.049917303
-0.009635682 -0.11869631 -0.0003053546 -0.0858531 -0.07546991 -0.050965957 -0.10826142 0.12452373
-0.1481789 -0.15252942 -0.004699051 -0.12950683 0.20746821 0.066008866 -0.043707896 -0.010635753
-0.107380554 -0.18245025 -0.07761534 0.1855042 0.15211366 -0.21585877 -0.11578503 -0.1984398
-0.00983572 -0.15498847 -0.09272814 0.112091124 -0.010101891 -0.07594317 -0.0035973953 -0.029715106
-0.016917337 0.11161904 0.13598052 0.1751629 0.16139874 0.0788935 0.20370549 0.11882471
-0.114671126 -0.17571299 -0.028360888 -0.027895464 0.050218984 -0.07809572 0.033739664 -0.08886867
-0.09910645 0.08317632 0.054307677 -0.21127602 0.0788674 0.1680581 -0.22459568 -0.1235479
-0.05175658 0.09348534 -0.11198614 -0.109778695 -0.035681892 -0.05670031 0.14808366 -0.047445975
-0.12298036 -0.21161875 -0.14083442 0.054542944 -0.09000705 0.08028598 -0.17207335 0.1203037
0.11737029 -0.16298085 0.019873142 0.004141533 -0.031607334 0.01693181 -0.048660807 -0.13148166
-0.20504177 -0.07908953 0.09001946 0.21772917 -0.15125576 0.14263943 -0.24448155 -0.23119026
00000000: 5a50 1bbe 3af3 4ebe b1d3 2fbd b42b 4fbe
00000010: a21f 233d 569b 483e 44d5 463e da17 d9bc
00000020: 945e 10bc 6628 2bbd ce88 07bd 4f9a 273d
00000030: 2f03 73be 519d 333e 21f0 3bbc f63b b53d
00000040: 107f 3abe 04c0 593d 61d2 263e 924a 7abe
00000050: 42cd 9d3d 70d5 c5bc 18f5 673e 73d4 30be
00000060: 924d 503e 39a9 0abd 91a6 a2be a8ab f93d
00000070: 73ff ef3d e8e9 47be 3788 473e 2f68 33be
00000080: 5cc4 5f3d 594c 02bc 8e03 3c3e e45e 233d
00000090: 6cda b83d 3c6a b93c ab8d a23d c373 b5bd
000000a0: 0e4b d23c 121f 8c3e 4827 a93c 4de2 543e
000000b0: 14ba eabd aa44 823d 3f37 4bbe aa34 68be
000000c0: 0f37 4ebe 282b 11be 870f 9f3d 0c88 bcbb
000000d0: e6bc acbe 6e6a db3d f169 7a3c 5969 97bd
000000e0: 6d86 4b3e c7bc bcbe 056b 5cbe 127f c23d
000000f0: d330 4d3e 5532 bdbd 4f10 b63e c0d0 933e
00000100: 715a 3abe ec95 d93d ac2f f43d b916 4abe
00000110: 9731 79be 7f6c 2a3e eb33 32be 1230 31bd
00000120: fd90 f63d 334e d53d d40e e53d fe0d 0dbe
00000130: 7904 67bc 76b4 b93d bfab 72bd c633 1d3e
00000140: 56ad 17be aab1 3fbe 4a22 babd 2aa5 d5be
00000150: 72cc ab3d 0c76 00bd ddaf d53c 64ba 31bd
00000160: dc2c 573d 3d12 2a3e c2bd 48be c8f7 613d
00000170: f5a7 95bd 939a e7bc 742d 223e 5257 bdbd
00000180: 81ee f23d 1904 403e b183 713e 2867 ec3c
00000190: f12a 6ebe bba8 c03d 7d59 83ba 042d 2abd
000001a0: 1ce1 873e d9a0 2a39 3646 943d bc18 283d
000001b0: ed88 38be 81b6 d23b 26dc 10be 4683 e7bc
000001c0: ff3a 77be 1f01 b43d 4065 9d3c a6d8 db3c
000001d0: 5ba0 b0be 1993 423e 20c4 0e3e 75bb 863e
000001e0: 8180 39be 9e48 053e 18f2 88bc 8aa6 43be
000001f0: b01c 6ebc 0154 993d d09d 203e 7b3e 23be
00000200: dc23 53be 5dcc d1bd 0ccd 023e 8bf5 83bd
00000210: 178a 01be 6188 c23d 261a 59be 6e11 d43d
00000220: 3a46 0ebc af65 40bd 6507 063e c1d6 edbd
00000230: fb55 25bb 90cb e73c db8c 113e 08cd e7bb
00000240: 56e6 54be 4e81 303e 2ef0 b33d 030f 743d
00000250: b9e3 353e 04e2 7dbd 8f19 dabd 3eb0 243d
00000260: e40c 5c3e effa 1dbd 3375 3b3e 0029 f13c
00000270: 27f7 173d 5038 e5bd f1ac ee3d 3c5d 52be
00000280: a570 113e 072c da3d c6ed 80be e497 13be
00000290: aa7e ebbd 09d5 e1bc 367c e53d 1676 4cbd
000002a0: fbde 1dbc 0d17 f3bd 0018 a0b9 c0d3 afbd
000002b0: f88f 9abd aec1 50bd 2ab8 ddbd 4c06 ff3d
000002c0: 36bc 17be ac30 1cbe 7ffa 99bb 709d 04be
000002d0: 8c72 543e a82f 873d 0d07 33bd 9541 2ebc
000002e0: 56ea dbbd 3dd4 3abe cbf4 9ebd d0f4 3d3e
000002f0: afc3 1b3e 150a 5dbe b420 edbd ce33 4bbe
00000300: 0026 21bc 4cb5 1ebe 40e8 bdbd 0890 e53d
00000310: 6782 25bc 1888 9bbd 47c2 6bbb 186d f3bc
00000320: 3a96 8abc 8698 e43d 7a3e 0b3e e75d 333e
00000330: b645 253e ea92 a13d 2c98 503e 5f5a f33d
00000340: b2d8 eabd 1bee 33be 1855 e8bc 0785 e4bc
00000350: 6cb2 4d3d a6f0 9fbd 9a32 0a3d c700 b6bd
00000360: 53f8 cabd 5958 aa3d ba71 5e3d be58 58be
00000370: 3b85 a13d 6c17 2c3e 69fc 65be ae06 fdbd
00000380: b5fe 53bd 3e75 bf3d fd58 e5bd a7d3 e0bd
00000390: 2d27 12bd 963e 68bd 3ea3 173e b656 42bd
000003a0: 21dd fbbd 96b2 58be e636 10be 6c68 5f3d
000003b0: 9e55 b8bd fa6c a43d ff33 30be c961 f63d
000003c0: d65f f03d 74e4 26be 00cd a23c b2b5 873b
000003d0: b176 01bd 94b4 8a3c 8e50 47bd 21a3 06be
000003e0: 78f6 51be b1f9 a1bd 1f5c b83d 65f4 5e3e
000003f0: cae2 1abe 1210 123e 5f59 7abe 24bd 6cbe

conv2.lin_l.bias f4 [64]
0.03274045 -0.11632701 0.00023067232 0.04713736 -0.12028733 -0.080386385 -0.124736786 -0.13844283
-0.10475715 -0.117232434 -0.018907746 0.06457139 0.022890877 -0.048169404 0.04906698 0.087784834
9.772216e-05 0.18718792 0.055256806 -0.14600694 -0.099469535 -0.02169265 0.015943898 -0.11670156
-0.14634581 -0.03786596 -0.13977814 0.01094026 -0.114966206 -0.03362318 0.00886441 0.07270906
-0.16159086 0.07542979 0.08124506 0.035456125 -0.117660485 -0.03953176 0.004958468 0.008139708
0.05327133 0.07119686 0.005430727 0.008913052 0.0011982039 -0.044018503 -0.075457014 0.13658029
-0.030701391 0.05829169 -0.17098501 0.100745015 0.09558258 0.068945356 0.08868226 -0.07654103
0.0131620085 -0.044401564 -0.12312456 -0.12827832 0.042437192 0.0010442539 -0.0025943462 0.013272179
00000000: da1a 063d db3c eebd a1e0 7139 1b13 413d
00000010: 3459 f6bd 9ea1 a4bd 0076 ffbd f5c3 0dbe
00000020: eb8a d6bd 8f17 f0bd 6be4 9abc 013e 843d
00000030: a685 bb3c 484d 45bd 75fa 483d 89c8 b33d
00000040: 2ff0 cc38 31ae 3f3e f654 623d d882 15be
00000050: afb6 cbbd c9b4 b1bc c79c 823c 3a01 efbd
00000060: addb 15be 5619 1bbd 0022 0fbe c73e 333c
00000070: 6773 ebbd 76b8 09bd 083c 113c 7de8 943d
00000080: 1378 25be ef7a 9a3d cf63 a63d 713a 113d
00000090: fbf7 f0bd 0eec 21bd a57a a23b 695c 053c
000000a0: 0a33 5a3d a9cf 913d 3df4 b13b 0d08 123c
000000b0: 0d0d 9d3a bf4c 34bd 3589 9abd b4db 0b3e
000000c0: 7c81 fbbc 44c3 6e3d b216 2fbe 6753 ce3d
000000d0: cdc0 c33d 3933 8d3d 0b9f b53d 8bc1 9cbd
000000e0: 77a5 573c 6ade 35bd bb28 fcbd 645b 03be
000000f0: 9fd2 2d3d 59df 883a e805 2abb 8e73 593c

conv2.lin_r.weight f4 [64, 64]
0.12393896 -9.0433256e-05 -0.061831687 0.014243181 0.017964505 -0.04034496 0.060294706 -0.059924956
0.07912959 -0.3018034 0.057596285 -0.09425862 0.06530536 -0.11570494 -0.15606584 0.21376212
-0.283425 -0.18102357 0.20548959 0.016643291 -0.1275402 -0.17154112 -0.05108537 -0.1900364
-0.050725464 -0.11763333 0.072043 -0.19491291 0.09901783 -0.055415038 -0.1264479 0.104854144
0.2168205 -0.03687325 -0.14386544 -0.2426253 -0.16408382 0.008549255 0.19391812 0.11574728
-0.05400837 -0.14974639 0.0210343 -0.20798756 -0.046611458 -0.14521086 0.0644714 0.18536586
-0.13485576 0.03479863 -0.14049062 0.16197994 -0.10726926 -0.189315 0.03922836 -0.32393917
-0.13543178 -0.25885478 -0.23632501 -0.07814788 -0.12498539 -0.15932798 -0.22055605 -0.07264058
-0.19570714 0.0754344 0.13250856 -0.1622626 0.14677042 0.16520862 0.22148676 -0.14686382
0.105652496 0.05818803 0.12191677 0.1774718 0.006322651 0.17149614 0.17396973 -0.05389565
-0.018111998 -0.014796955 0.109896764 -0.18325019 -0.056730226 0.13932614 -0.19951342 -0.11454178
0.14960569 0.016407104 0.24725105 0.17036745 0.19229494 -0.10881537 -0.13629538 -0.12394224
0.29705617 0.19671671 -0.042344715 0.15534738 0.19239321 0.10868796 0.31424809 0.100095026
0.011149009 0.01148595 -0.017988876 -0.024403676 -0.17115326 0.04014419 -0.06819821 -0.17869847
-0.038513202 0.07143889 0.14031628 0.15387371 0.11476713 -0.032352827 0.14838763 0.18078296
-0.14959316 0.10758076 -0.04993661 0.1598687 0.102518454 -0.12757033 0.13310479 -0.018637089
-0.14569496 -0.039405458 0.16919252 -0.18589506 -0.18058941 0.100410305 -0.16526616 -0.2101998
0.027699327 0.15813924 -0.04282952 -0.11749434 -0.050219625 0.036202475 -0.23162614 -0.031016773
0.092486985 0.19627975 0.083067045 -0.1418774 0.07070194 0.053936973 -0.12592788 0.16740228
-0.18953735 -0.001000273 0.18834786 0.02987525 -0.086606726 0.07730547 0.0546492 -0.043146335
0.028669855 0.012345336 0.05498578 0.038816776 0.15848856 0.04206025 0.18847197 -0.009172655
-0.08905017 0.14074665 0.2122082 -0.16866043 0.13242008 0.12965523 -0.17169903 -0.26306453
-0.05759335 0.101312086 -0.12454781 -0.22415313 0.2187211 -0.20342307 -0.0923613 -0.0623301
0.3091715 -0.27909708 -0.05525149 0.2030524 -0.035070166 -0.0898908 0.21190368 0.0743704
-0.1343587 -0.26720223 -0.12851699 -0.0932228 -0.09142519 -0.010441584 -0.16576982 0.10721194
0.005957692 0.07896665 0.12869477 -0.14987609 0.16719027 -0.076566815 -0.04104545 -0.13929203
0.03399053 0.0014405116 -0.0021524876 0.055162948 0.06321485 -0.069210395 0.16067627 0.03049155
0.02836986 0.06726117 0.032028235 -0.17000349 -0.12270247 0.15485339 -0.16637865 -0.108656205
-0.10042266 0.059145626 0.18610391 0.092362024 -0.14996141 0.17215936 0.1399362 0.0574982
-0.014187541 0.04977957 -0.17086574 0.10841997 0.027310789 0.000514726 0.061112713 -0.1674792
0.16080604 -0.23471582 0.14926884 -0.16403586 -0.015631832 -0.047186818 0.12350732 0.11955644
0.16076182 -0.06270152 0.008711848 0.0056623323 0.0025847703 0.13080093 0.13657555 -0.15320872
00000000: b6d3 fd3d fca6 bdb8 3943 7dbd 3b5c 693c
00000010: 4c2a 933c c240 25bd 95f7 763d df73 75bd
00000020: b20e a23d fa85 9abe 15ea 6b3d aa0a c1bd
00000030: d1be 853d b6f6 ecbd b9cf 1fbe 75e4 5a3e
00000040: 151d 91be 3e5e 39be dd6b 523e 8357 883c
00000050: e699 02be 7aa8 2fbe e53e 51bd e798 42be
00000060: 81c5 4fbd bee9 f0bd 488b 933d 4097 47be
00000070: dcc9 ca3d e1fa 62bd 8f7b 01be c5bd d63d
00000080: 3106 5e3e 6808 17bd 7651 13be c472 78be
00000090: 9705 28be 2d12 0c3c 7992 463e e90c ed3d
000000a0: e137 5dbd 1e57 19be 2050 ac3c b1fa 54be
000000b0: a8eb 3ebd 28b2 14be 9509 843d 8cd0 3d3e
000000c0: a117 0abe 0289 0e3d c6dc 0fbe 12de 253e
000000d0: fcaf dbbd cbdb 41be ebad 203d 5bdb a5be
000000e0: a1ae 0abe 9d88 84be 2fff 71be ff0b a0bd
000000f0: 57f8 ffbd e026 23be 72d9 61be 96c4 94bd
00000100: 7467 48be 5a7d 9a3d 53b0 073e 2b28 26be
00000110: fc4a 163e 732c 293e 6dcd 623e 7863 16be
00000120: 5660 d83d 9256 6e3d 80af f93d 2bbb 353e
00000130: 3e2e cf3b af9c 2f3e 1f25 323e afc1 5cbd
00000140: 9d5f 94bc ed6e 72bc 8e11 e13d f0a5 3bbe
00000150: f45d 68bd 83ab 0e3e 3f4d 4cbe e194 eabd
00000160: 3c32 193e 3168 863c 612f 7d3e ce74 2e3e
00000170: f7e8 443e 98da debd 0491 0bbe 6ed5 fdbd
00000180: bf17 983e 1b70 493e a771 2dbd 6213 1f3e
00000190: ba02 453e cb97 de3d 20e5 a03e 9ffe cc3d
000001a0: 55aa 363c 912f 3c3c 685d 93bc 38ea c7bc
000001b0: cd42 2fbe 3c6e 243d 81ab 8bbd bbfc 36be
000001c0: 05c0 1dbd 8e4e 923d 12af 0f3e 1291 1d3e
000001d0: 070b eb3d 6684 04bd edf2 173e 2b1f 393e
000001e0: f32e 19be 4d53 dc3d 558a 4cbd 9fb4 233e
000001f0: 32f5 d13d cca1 02be 9f4c 083e cfac 98bc
00000200: 0f31 15be 9e67 21bd ce40 2d3e 465b 3ebe
00000210: 6eec 38be eba3 cd3d 883b 29be 9e3e 57be
00000220: b3e9 e23c 41ef 213e 026e 2fbd dfa0 f0bd
00000230: 18b3 4dbd 0c49 143d 672f 6dbe e316 febc
00000240: d169 bd3d 8ffd 483e 0e1f aa3d 4f48 11be
00000250: 2ecc 903d 04ed 5c3d 3df3 00be 816b 2b3e
00000260: 1416 42be 981b 83ba 43de 403e f1bc f43c
00000270: de5e b1bd 5552 9e3d d7d7 5f3d 36ba 30bd
00000280: 0bdd ea3c 1844 4a3c c538 613d 57fe 1e3d
00000290: d34a 223e 5e47 2c3d ccfe 403e e748 16bc
000002a0: ef5f b6bd e41f 103e 1b4d 593e 52b5 2cbe
000002b0: 2199 073e 57c4 043e dfd1 2fbe 65b0 86be
000002c0: 01e7 6bbd b67c cf3d ec12 ffbd 6688 65be
000002d0: 6df8 5f3e 234e 50be ec27 bdbd d94d 7fbd
000002e0: ba4b 9e3e d0e5 8ebe 634f 62bd f8ec 4f3e
000002f0: bca5 0fbd ab18 b8bd 47fd 583e 824f 983d
00000300: 5495 09be bbce 88be f599 03be 98eb bebd
00000310: 213d bbbd 2d13 2bbc 90bf 29be ef91 db3d
00000320: be38 c33b 44b9 a13d 90c8 033e 1e79 19be
00000330: ed33 2b3e 10cf 9cbd 461f 28bd 92a2 0ebe
00000340: a739 0b3d 8ccf bc3a c010 0dbb 8bf2 613d
00000350: ca76 813d 2ebe 8dbd 5288 243e 6ac9 f93c
00000360: e967 e83c 39c0 893d 0a30 033d 6515 2ebe
00000370: 6f4b fbbd e391 1e3e 2a5f 2abe 2587 debd
00000380: 65aa cdbd af42 723d 0692 3e3e 4d28 bd3d
00000390: 7c8f 19be 8b4a 303e 6f4b 0f3e 3c83 6b3d
000003a0: dc72 68bc aae5 4b3d 6ef7 2ebe 4a0b de3d
000003b0: e0ba df3c adee 063a 5351 7a3d ab7f 2bbe
000003c0: 57aa 243e 5859 70be eed9 183e 04f9 27be
000003d0: 540e 80bc f746 41bd 68f1 fc3d 02da f43d
000003e0: bf9e 243e a869 80bd 24bc 0e3c 168b b93b
000003f0: 4065 293b aef0 053e 76da 0b3e bfe2 1cbe

conv2.lin_r.bias f4 [64]
-0.18871206 0.11826794 0.1041931 -0.12768643 0.11779906 0.064924575 0.0318159 -0.056634635
-0.024805946 0.06293197 0.01489379 0.04071825 0.08468301 -0.021669216 -0.1335115 -0.13105795
0.13724762 0.026134519 -0.091107026 -0.087855846 -0.099654585 0.042464882 -0.056610752 0.06258193
0.11475204 -0.048781168 -0.12599318 0.01830907 -0.10613275 0.020151163 -0.12167187 -0.015139988
-0.14133626 0.02534499 -0.04611535 -0.16664319 -0.044035938 0.08945249 0.11667309 -0.025788058
-0.02272489 0.02419525 -0.013850804 0.048935864 -0.059218824 0.1396635 0.026124418 -0.10051672
0.034772754 0.060584772 -0.050911237 -0.0011600273 0.02976326 -0.103238724 -0.09355586 -0.07260287
-0.061640237 0.024744157 -0.034242358 -0.07474561 0.01619838 -0.12072539 -0.052372146 -0.02151487
00000000: bc3d 41be 7636 f23d 3163 d53d 3bc0 02be
00000010: a240 f13d 2df7 843d 6451 023d b8f9 67bd
00000020: d735 cbbc 7ae2 803d 1505 743c 2ec8 263d
00000030: 496e ad3d a483 b1bc 3db7 08be 0e34 06be
00000040: a48a 0c3e 0f18 d63c 5296 babd c4ed b3bd
00000050: b417 ccbd a8ef 2d3d ade0 67bd f42a 803d
00000060: 1e03 eb3d c3ce 47bd 5b04 01be e7fc 953c
00000070: 215c d9bd 0d14 a53c 1a2f f9bd b60d 78bc
00000080: 74ba 10be 4ca0 cf3c 73e3 3cbd 83a4 2abe
00000090: 075f 34bd de32 b73d 4df2 ee3d 7a41 d3bc
000000a0: 8c29 babc 1e35 c63c 7cee 62bc f970 483d
000000b0: 708f 72bd f303 0f3e e002 d63c b6db cdbd
000000c0: e06d 0e3d bd27 783d 4d88 50bd 0f0c 98ba
000000d0: 15d2 f33c d36e d3bd 379a bfbd d0b0 94bd
000000e0: 797a 7cbd 42b4 ca3c b741 0cbd 3a14 99bd
000000f0: 77b2 843c e03e f7bd 2d84 56bd f43f b0bc

conv2.lin_edge.weight f4 [64, 2]
0.23662145 0.25385135 0.12931532 -0.24386318 -0.03117309 -0.06380616 -0.25944486 0.12349094
0.012239866 0.08093808 0.39382306 0.13586701 -0.26221895 -0.2255297 0.04543237 0.0035253884
-0.0008915394 0.24705294 -0.1702183 0.29859698 -0.07063602 -0.18228783 -0.04223212 0.053858187
-0.2734076 0.067284465 -0.08575468 0.19306904 0.3750319 0.2763405 0.07280779 -0.24538332
-0.28617826 -0.05243392 -0.26255977 0.15852205 -0.2424083 0.03152565 0.023279304 0.13777775
-0.24492256 -0.09577478 -0.13040279 0.08361538 0.07718528 0.284171 0.14888233 -0.07456269
0.10453852 0.24973384 -0.22713782 -0.11950371 -0.14730503 -0.09707779 0.32951313 0.115309335
-0.18629125 0.24617462 -0.12544607 0.17692411 0.14893763 0.011546452 -0.05911205 -0.25863984
-0.112056434 -0.16983783 -0.248705 0.19754933 0.207574 0.14001709 -0.28476962 0.03769278
-0.105370246 -0.21798974 0.10976559 0.23115267 -0.2346781 -0.012476729 -0.06725732 0.27128443
0.027497344 0.072057135 -0.21425545 0.12726039 -0.08214969 -0.039600957 0.017567867 -0.094710924
0.20950358 -0.17474079 -0.2884061 -0.05266457 0.2405395 -0.13949993 -0.1113202 -0.193058
-0.07966587 -0.24132133 0.09388198 -0.23602848 0.16466239 -0.020325527 0.061100993 -0.28484857
-0.1401116 0.13273177 -0.10242163 0.09743737 -0.01892328 -0.20660536 -0.12876834 0.08402625
0.10733734 0.3147301 0.07707847 0.21778575 0.21878481 -0.011552468 -0.17463167 -0.14950727
0.14220205 -0.16818964 -0.09623084 -0.08741814 0.10640973 -0.09264661 -0.27332476 0.09455986
00000000: e54c 723e cef8 813e 3c6b 043e 45b7 79be
00000010: b55e ffbc ceac 82bd f5d5 84be d1e8 fc3d
00000020: b889 483c ddc2 a53d 2da3 c93e b920 0b3e
00000030: 9041 86be 42f1 66be 4b17 3a3d 340a 673b
00000040: 32b6 69ba 72fb 7c3e b54d 2ebe b4e1 983e
00000050: 9ea9 90bd a9a9 3abe 96fb 2cbd 679a 5c3d
00000060: 15fc 8bbe 70cc 893d 26a0 afbd e4b3 453e
00000070: 2e04 c03e 817c 8d3e 401c 953d c445 7bbe
00000080: f585 92be f3c4 56bd 3c6e 86be 9b53 223e
00000090: e239 78be 0a21 013d 3db4 be3c 9c15 0d3e
000000a0: fbcc 7abe 9125 c4bd 4f88 05be 8a3e ab3d
000000b0: 5113 9e3d dc7e 913e 9c74 183e 53b4 98bd
000000c0: 4b18 d63d 3aba 7f3e d196 68be 5cbe f4bd
000000d0: 21d7 16be b8d0 c6bd f2b5 a83e 4d27 ec3d
000000e0: 22c3 3ebe 3315 7c3e ef74 00be 982b 353e
000000f0: 1b83 183e 542d 3d3c 7a1f 72bd 716c 84be
00000100: d87d e5bd f8e9 2dbe 86ac 7ebe 5f4a 4a3e
00000110: 478e 543e a460 0f3e 53cd 91be bf63 1a3d
00000120: 5bcc d7bd b438 5fbe c8cc e03d 49b3 6c3e
00000130: 754f 70be 326b 4cbc 35be 89bd cbe5 8a3e
00000140: 1c42 e13c b192 933d c865 5bbe 8c50 023e
00000150: 193e a8bd 9d34 22bd 7dea 8f3c cdf7 c1bd
00000160: 1b88 563e 40ef 32be f7a9 93be ceb6 57bd
00000170: fd4f 763e 12d9 0ebe d8fb e3bd ffb0 45be
00000180: dc27 a3bd f01c 77be 3245 c03d 73b1 71be
00000190: 429d 283e b881 a6bc 0945 7a3d acd7 91be
000001a0: 6a79 0fbe d6ea 073e 6ec2 d1bd 3e8d c73d
000001b0: ff04 9bbc 5b90 53be d9db 03be f415 ac3d
000001c0: aed3 db3d 4e24 a13e 51db 9d3d 3a03 5f3e
000001d0: 2009 603e 9046 3dbc a5d2 32be 6f18 19be
000001e0: 6a9d 113e e839 2cbe ad14 c5bd 4808 b3bd
000001f0: 58ed d93d 82bd bdbd 39f1 8bbe 9aa8 c13d

fc.weight f4 [2, 64]
0.041250683 0.09070044 -0.06419681 -0.101106435 -0.035380777 0.17672534 0.029088516 -0.022298308
-0.045976073 0.067166135 -0.02874024 0.07840897 -0.102767825 -0.08986339 0.06006153 -0.010258971
0.025925523 -0.025278479 -4.2533273e-05 0.023401944 0.052754365 0.047688868 0.01652812 0.010450331
-0.06871644 -0.0025969888 -0.007248 -0.07655237 -0.05028202 0.08214893 -0.012535202 -0.062763065
-0.054302752 0.04958561 -0.068839796 -0.09789412 0.19435988 0.081692554 0.07300727 -0.07018699
0.009547793 0.09000838 -0.08690026 -0.027361471 0.023316903 0.024170412 -0.06654279 0.08942129
0.11553631 -0.039993122 0.116121225 0.13329303 -0.0190572 0.07358769 0.077962995 0.067975566
0.015056084 -0.0005599208 0.1192293 0.08958027 0.017904948 0.068042606 -0.0644585 -0.0070402054
-0.20138977 -0.055977363 -0.053336993 -0.001783694 0.016358208 0.005203698 0.103916526 -0.103001386
-0.0856328 0.06716585 -0.024055777 -0.042540923 0.023232207 -0.11390056 0.07257054 -0.014465834
-0.04206794 -0.106410414 0.044656046 0.025867753 -0.012183222 0.061245684 0.06312482 0.023731204
-0.103551224 0.005827676 0.04180682 -0.0144755235 -0.07918302 -0.09911202 0.100209475 0.059795752
0.021610247 0.002491223 0.041811932 -0.095054105 -0.04211745 -0.029738208 0.096377656 -0.010587814
0.086524315 -0.031209292 -0.06906387 0.09033718 -0.03469953 0.07121858 -0.09142673 0.014308398
-0.0964485 -0.09395452 0.06989115 -0.008554662 -0.024811165 -0.04952844 0.07792964 0.05654087
0.09164441 0.011394431 0.059889898 0.09227372 -0.0014358031 0.06977994 -0.00501836 -0.041861963
00000000: 7af6 283d 27c1 b93d 9e79 83bd e410 cfbd
00000010: 6feb 10bd 7df7 343e 0a4b ee3c f1aa b6bc
00000020: 6851 3cbd 668e 893d a770 ebbc e294 a03d
00000030: f077 d2bd 4c0a b8bd 1403 763d 3e15 28bc
00000040: c361 d43c d014 cfbc c165 32b8 6fb5 bf3c
00000050: f614 583d 6755 433d fb65 873c dd37 2b3c
00000060: 34bb 8cbd 3e32 2abb a180 edbb 7dc7 9cbd
00000070: 85f4 4dbd b33d a83d 7360 4dbc ec89 80bd
00000080: 906c 5ebd 481a 4b3d e1fb 8cbd b67c c8bd
00000090: 4706 473e 6d4e a73d d684 953d 32be 8fbd
000000a0: 596e 1c3c 5056 b83d c3f8 b1bd 2a25 e0bc
000000b0: 1703 bf3c 0701 c63c 9647 88bd 8222 b73d
000000c0: 4d9e ec3d d4cf 23bd f7d0 ed3d f87d 083e
000000d0: d81d 9cbc 25b5 963d 10ab 9f3d c636 8b3d
000000e0: cbad 763c a6c7 12ba 7e2e f43d dc75 b73d
000000f0: 66ad 923c ec59 8b3d d102 84bd 86b1 e6bb
00000100: 1f39 4ebe 8548 65bd e477 5abd d7ca e9ba
00000110: a601 863c c883 aa3b 30d2 d43d 64f2 d2bd
00000120: 4060 afbd 408e 893d 9f10 c5bc 643f 2ebd
00000130: 7851 be3c b244 e9bd dd9f 943d 1b02 6dbc
00000140: 6f4f 2cbd b4ed d9bd 42e9 363d 9ce8 d33c
00000150: 239c 47bc c1dc 7a3d 9647 813d f167 c23c
00000160: aa12 d4bd 17f6 be3b a13d 2b3d bf2a 6dbc
00000170: b52a a2bd 3efb cabd a03a cd3d 64ec 743d
00000180: f907 b13c c943 233b fd42 2b3d baab c2bd
00000190: 5983 2cbd 8b9d f3bc a661 c53d 8378 2dbc
000001a0: a933 b13d a1aa ffbc 5c71 8dbd b302 b93d
000001b0: 1821 0ebd 0cdb 913d f03d bbbd c56d 6a3c
000001c0: cb86 c5bd 3a6b c0bd 1723 8f3d da28 0cbc
000001d0: c940 cbbc 55de 4abd 9399 9f3d 6697 673d
000001e0: 10b0 bb3d b5af 3a3c 1c4f 753d 01fa bc3d
000001f0: 8f31 bcba c9e8 8e3d 0e71 a4bb 7377 2bbd

fc.bias f4 [2]
-0.0066892575 0.075426005
00000000: 8f31 dbbb f378 9a3d
