saved_models/edgat8_slic.pt (torch, 43958 bytes, 16 tensors)

conv1.att f4 [1, 1, 64]
0	0x3e070c50	0.1318829
1	0x3e96c784	0.29449093
2	0xbde2c4d8	-0.11072701
3	0x3e446c14	0.19181854
4	0xbe4b8d6d	-0.19878168
5	0xbe019624	-0.1265493
6	0xbe824a6d	-0.25447407
7	0xbe71b0ec	-0.23602647
8	0x3dd704b8	0.10498947
9	0x3e30cfb4	0.17266732
10	0xbd74b2c8	-0.05974081
11	0xbe4d3398	-0.20039213
12	0xbe69d216	-0.22834048
13	0x3da9ef80	0.08297634
14	0xbb575f00	-0.003286302
15	0xbe566220	-0.20935869
16	0x3e3669b0	0.17813754
17	0xbc9ba230	-0.018998235
18	0xbe1e0a93	-0.15433721
19	0xbe506723	-0.20351844
20	0xbe85b4f4	-0.2611462
21	0x3e29388e	0.1652548
22	0x3e04482e	0.1291816
23	0xbe8c95a1	-0.27457908
24	0x3d8e4b28	0.06947929
25	0xbe17cc7b	-0.14824097
26	0xbd347ab0	-0.044062316
27	0x3e997644	0.29973042
28	0x3e3fb770	0.1872232
29	0x3e7c4c8c	0.24638575
30	0xbba49d40	-0.0050236285
31	0x3d0d6fc0	0.0345304
32	0xbe96dd9c	-0.2946595
33	0xbe47e31a	-0.19520226
34	0xbe5d1910	-0.21591592
35	0x3e194592	0.14967945
36	0xbe0b960f	-0.13631462
37	0x3d8f18f0	0.06987178
38	0xbe1c6c13	-0.15275602
39	0x3e985f44	0.29760182
40	0xbe6485c3	-0.22316651
41	0xbe6c446b	-0.23072974
42	0x3d08cd30	0.033398807
43	0x3de90f08	0.1137982
44	0x3e16f4bc	0.14741796
45	0x3e4b4118	0.1984905
46	0x3e76e32c	0.24110097
47	0xbbce3ec0	-0.0062941015
48	0xbc6d9d60	-0.014502853
49	0xbd8142c0	-0.0631156
50	0xbe8b9a38	-0.27266097
51	0xbe7e8d70	-0.24858642
52	0x3e0b9972	0.13632753
53	0xbe12d4f0	-0.14339042
54	0x3e29862c	0.16555089
55	0x3e245432	0.16047743
56	0x3cab5b90	0.020917684
57	0x3c0c4360	0.008560985
58	0x3df07a78	0.11742109
59	0x3e229ee8	0.1588093
60	0x3d2182b0	0.039431274
61	0x3e6e3354	0.23261768
62	0xbe8b3e88	-0.27196145
63	0xbe834260	-0.25636578

conv1.bias f4 [64]
0	0xbe806b6c	-0.25081956
1	0xbe09624d	-0.13416405
2	0xbef956d0	-0.48699045
3	0xbf001f85	-0.50048095
4	0xbec9a942	-0.39386946
5	0xbec21f2d	-0.3791441
6	0xbe3d5925	-0.18491037
7	0xbe6b76bb	-0.22994511
8	0xbd9a7ecb	-0.07543715
9	0xbea10cc8	-0.31455064
10	0xbe94c5b1	-0.29057077
11	0xbe93885a	-0.28814965
12	0xbe9b69fa	-0.3035429
13	0xbe9b0c15	-0.30282655
14	0xbf09a2b1	-0.5376387
15	0xbec43994	-0.3832518
16	0xbec3a088	-0.38208413
17	0xbebefad8	-0.37300754
18	0xbe9628e6	-0.29328078
19	0xbec1f1a0	-0.37879658
20	0xbeb182bf	-0.34670064
21	0xbee898d7	-0.45429108
22	0xbeb32741	-0.34990886
23	0xbeba509a	-0.3638962
24	0xbe2e6089	-0.17029013
25	0xbe8823fe	-0.2658996
26	0xbe4128be	-0.18863198
27	0xbe896e9c	-0.268422
28	0xbe39a189	-0.18128027
29	0xbf181c2f	-0.59418005
30	0xbed8ba95	-0.4232985
31	0xbe150666	-0.14553222
32	0xbee1be7f	-0.4409065
33	0xbe58ae17	-0.2116016
34	0xbed14610	-0.40873766
35	0xbe6fa95f	-0.23404454
36	0xbf19246c	-0.598212
37	0xbe986f26	-0.297723
38	0xbe08badd	-0.13352533
39	0xbe806bac	-0.25082147
40	0xbea86c40	-0.32895088
41	0xbe6989fc	-0.22806543
42	0xbe6dcb43	-0.2322207
43	0xbf22abe6	-0.63543546
44	0xbe18c07d	-0.14917178
45	0xbeb5da33	-0.35518035
46	0xbec751d4	-0.38929617
47	0xbd28a4d1	-0.041172806
48	0xbeb9f2eb	-0.36318144
49	0xbe753a7b	-0.2394809
50	0xbed01240	-0.40638924
51	0xbeb671a8	-0.35633588
52	0xbe93e69e	-0.28886884
53	0xbee55016	-0.44787663
54	0xbe8eefd6	-0.27917355
55	0xbec5a04d	-0.38598862
56	0xbdf93329	-0.12167961
57	0xbeca8b37	-0.39559337
58	0xbf00b8b0	-0.5028181
59	0xbde6b15a	-0.11264296
60	0xbed5ac2e	-0.41732925
61	0xbed4ba09	-0.41548184
62	0xbe819f0b	-0.25316653
63	0xbe9815dd	-0.2970418

conv1.lin_l.weight f4 [64, 4]
0	0x3dfba895	0.12288014
1	0xbdc5da27	-0.0966075
2	0xbe035d67	-0.12828599
3	0x3e10a42f	0.14125131
4	0xbbf6f529	-0.0075365496
5	0xbd2a9cf7	-0.0416536
6	0x3be14acc	0.0068753716
7	0x3c28c875	0.010301699
8	0x3ca09dd6	0.019606512
9	0x3bcd1213	0.006258258
10	0x3c2bd3f0	0.010487542
11	0x3ce8e500	0.028429508
12	0x3f20f681	0.62876135
13	0xbeba7c64	-0.36423028
14	0xbdc23f8f	-0.09484779
15	0x3d8949a4	0.06703499
16	0xbe06f183	-0.13178067
17	0x3e15f1e8	0.14643061
18	0x3c0756e2	0.008260461
19	0xbd4863f9	-0.048923466
20	0x3d31240e	0.043247275
21	0xbdc4f526	-0.09617071
22	0x3c18865b	0.009309377
23	0xbdddf09c	-0.10836908
24	0xbe0d9871	-0.13827683
25	0x3e293ea0	0.16527796
26	0xbe3a9b2d	-0.18223257
27	0xbcd4959b	-0.025950244
28	0xbd8b751d	-0.06809447
29	0x3da2e570	0.07953918
30	0x3dc666bb	0.09687563
31	0xbb3edd46	-0.0029123588
32	0x3ded5af7	0.11589616
33	0xbdcdce4b	-0.10049113
34	0x3d11b820	0.035575986
35	0x3e7e16bd	0.24813361
36	0xbe8f4d13	-0.2798849
37	0x3e994a3d	0.29939452
38	0xbbb310ac	-0.005464634
39	0x3e2db513	0.16963606
40	0x3d889f5d	0.06671021
41	0xbc04666c	-0.00808106
42	0x3e10bc3a	0.14134303
43	0xbd9e1dd4	-0.07720533
44	0xbe2706f4	-0.16311246
45	0x3e113121	0.14178897
46	0x3b31076e	0.0027012485
47	0xbe8bb7e3	-0.27288732
48	0xbe0a9037	-0.13531576
49	0x3e0e6e25	0.13909204
50	0xbda0722f	-0.07834279
51	0xbc378784	-0.011201743
52	0x3e071682	0.1319218
53	0xbdfa157b	-0.12211128
54	0xbd1fe4dc	-0.039036617
55	0x3d1ff016	0.039047323
56	0x3e0577c0	0.13033962
57	0xbdde12a6	-0.10843401
58	0x3d28c096	0.04119929
59	0x3b0cd9f1	0.0021492208
60	0x3b82d2a1	0.003992394
61	0xbbbdb7a3	-0.0057897135
62	0xbb606218	-0.0034238156
63	0xbb8749e7	-0.004128683
64	0x3e1bcaea	0.15214124
65	0xbddba459	-0.10724706
66	0xbc04d052	-0.008106308
67	0xbcd8344f	-0.02639213
68	0xbed15788	-0.40887094
69	0x3ebc9eff	0.36840054
70	0x3b295167	0.0025835873
71	0x3d4c745a	0.04991565
72	0xbea17549	-0.31534794
73	0x3e9f4e48	0.3111441
74	0xbbc68d62	-0.0060593346
75	0xbd910a15	-0.07082001
76	0xbe14eeb4	-0.14544183
77	0x3df0558d	0.117350675
78	0x3da0e884	0.07856849
79	0x3d2a83ab	0.041629475
80	0x3e3a606b	0.18200843
81	0x3d81eeb3	0.063443564
82	0xbd393623	-0.045217644
83	0xbd093265	-0.033495326
84	0xbe1b1dae	-0.1514804
85	0x3e16d6a0	0.1473031
86	0xbd18ac4d	-0.037273694
87	0x3cd75028	0.026283339
88	0xbddd4fce	-0.10806237
89	0x3dd60dd9	0.1045186
90	0xbb2eb8b2	-0.002666038
91	0xbd52c3ef	-0.051456388
92	0xbe9b610a	-0.30347472
93	0x3e9b38d0	0.30316782
94	0xbbea3058	-0.0071468763
95	0x3c31335a	0.010815466
96	0xbe5ac862	-0.21365502
97	0x3e95c32f	0.29250476
98	0x3dcd3b0e	0.100210294
99	0xbecab288	-0.39589334
100	0xbe189887	-0.14901935
101	0x3e10c0d9	0.14136066
102	0xbdfd68b6	-0.12373488
103	0x3d20a60b	0.03922085
104	0x3d68bb7b	0.05681942
105	0xbd802026	-0.06256132
106	0xbd058279	-0.03259513
107	0xbb34ef85	-0.0027608585
108	0x3e9b5d43	0.3034459
109	0xbe8771cf	-0.26454017
110	0xbdc485c7	-0.095958285
111	0x3cefda57	0.029278917
112	0xbe75ac46	-0.23991498
113	0x3eb491ab	0.35267386
114	0x3c3b3009	0.011425027
115	0x3ea675d3	0.32511768
116	0x3eb2220e	0.34791607
117	0xbe8e7e01	-0.27830508
118	0xbcf1f1b3	-0.029534196
119	0x3b078027	0.002067575
120	0x3d24b71b	0.040213685
121	0xbccc66fa	-0.024951447
122	0xbc502551	-0.012704209
123	0x3d8a4f11	0.06753362
124	0xbd4f2303	-0.0505705
125	0x3d86c563	0.06580617
126	0x3e47c331	0.19508053
127	0x3a39ef46	0.00070928445
128	0x3d70c9c4	0.05878617
129	0xbd494e06	-0.049146675
130	0xbdb41c4b	-0.08794459
131	0xbd5fee46	-0.054670595
132	0x3e9e6aaf	0.30940768
133	0xbeb1a236	-0.3469407
134	0x3c6762eb	0.014122705
135	0x3e3a5928	0.18198073
136	0x3e4e7b2e	0.20164177
137	0xbd58f05c	-0.0529636
138	0x3d2f3e63	0.042784106
139	0x3c920662	0.01782531
140	0xbe253783	-0.16134457
141	0x3de9e057	0.114197426
142	0x3d6900c9	0.056885514
143	0xbe67619d	-0.2259583
144	0x3e64b1c9	0.22333445
145	0xbcaf39f6	-0.021389943
146	0x3d9d43cc	0.07678947
147	0xbd063ab1	-0.032770816
148	0x3dea643d	0.114449
149	0xbe522882	-0.20523265
150	0x3c47801e	0.012176542
151	0xbb818cee	-0.0039535677
152	0xbd0e6e08	-0.034772903
153	0x3db152e5	0.08658389
154	0x3e276db3	0.1635044
155	0xbd73f4b0	-0.059559524
156	0xbec6e6f1	-0.3884807
157	0x3ec71062	0.38879687
158	0x3de1c8a7	0.110245995
159	0xbcb6229b	-0.022233298
160	0xbdb75d12	-0.08953299
161	0x3d6d28fb	0.05790041
162	0xbc6ecbb3	-0.014574933
163	0xbdd3dbf8	-0.1034469
164	0x3f3ca2e0	0.7368603
165	0xbf257576	-0.64632356
166	0x3be27377	0.006910737
167	0x3dc6353a	0.09678121
168	0x3e20cdd1	0.15703513
169	0x3d8f16e2	0.069867864
170	0xbe8b643e	-0.27224916
171	0x3e942821	0.28936866
172	0x3ecb3e37	0.39695904
173	0xbe9eb9d8	-0.31001163
174	0x3b4e3b53	0.0031468465
175	0x3c67c4e8	0.014146067
176	0x3d45404c	0.04815702
177	0xbeafc641	-0.34330943
178	0x3e6d0cee	0.23149464
179	0x3e1b8f77	0.15191446
180	0x3e6b69e4	0.22989613
181	0xbe3dc90c	-0.18533725
182	0x3d4eb247	0.050462987
183	0x3c006299	0.0078360075
184	0x3d2bcfac	0.0419461
185	0xbdc10950	-0.09425604
186	0xbe1d110b	-0.15338533
187	0xbdecddf8	-0.11565775
188	0xbeb3b991	-0.35102513
189	0x3eb49785	0.3527185
190	0xbd13f444	-0.03612162
191	0x3cd80b3d	0.026372546
192	0x3cba98c5	0.022777924
193	0xbda22196	-0.07916562
194	0xbc1876d1	-0.009305672
195	0xbd43ec95	-0.047833044
196	0x3e0c3e70	0.13695693
197	0x3e2666fc	0.16250223
198	0xbb6d7cfb	-0.0036237824
199	0x3ef62407	0.48074362
200	0xbdf2b93f	-0.11851739
201	0x3df0a94b	0.1175104
202	0x3c8ce997	0.017201228
203	0xbcd37dab	-0.02581676
204	0xbd56e972	-0.052468725
205	0xbc01df3b	-0.007926757
206	0x3d912653	0.07087388
207	0xbd97d6de	-0.074140295
208	0x3ce451da	0.027871061
209	0xbc97d967	-0.018536283
210	0x3d18c7a0	0.037299752
211	0xbb600f4d	-0.0034188807
212	0x3e595f6a	0.21227804
213	0xbe2698d9	-0.16269244
214	0x3c155f94	0.009117026
215	0xbd60d69f	-0.05489218
216	0xbe252628	-0.16127837
217	0x3e1499e2	0.14511827
218	0x3d62180d	0.055198718
219	0xbe16e379	-0.14735211
220	0xbd23dec7	-0.04000738
221	0x3d3695ff	0.04457664
222	0x3bc21f6a	0.005924155
223	0x3dd54023	0.10412624
224	0x3df6c851	0.12049926
225	0x3e079f8d	0.13244458
226	0xbe8a37eb	-0.26995787
227	0xbe742a21	-0.23844196
228	0xbc90be07	-0.017668737
229	0x3cc7b9ba	0.024380554
230	0x3a554db2	0.00081368827
231	0xbd578e1f	-0.05262577
232	0x3e1cfc1f	0.15330552
233	0xbe0cc75a	-0.13747922
234	0xbd5faed5	-0.054610092
235	0x3d04b2e8	0.03239718
236	0xbdbeafa5	-0.09310845
237	0x3c671b76	0.014105668
238	0x3e063164	0.13104779
239	0x3d973354	0.07382837
240	0xbe14e007	-0.14538585
241	0x3e0c2c2d	0.13688727
242	0xbbc8f3e7	-0.006132591
243	0x3c1c556c	0.009541851
244	0xbe0f2198	-0.13977659
245	0x3e1fb704	0.15597159
246	0xbd9e2738	-0.07722324
247	0xbce970ca	-0.028496165
248	0xbeb4c435	-0.35305944
249	0x3eb3a4b2	0.3508659
250	0xbd239c69	-0.039944086
251	0x3d81bcb3	0.0633482
252	0xbe02ff84	-0.12792784
253	0x3e1686c3	0.14699845
254	0x3e15169f	0.1455941
255	0xbd2db6b8	-0.042410582

conv1.lin_l.bias f4 [64]
0	0xbebe77e0	-0.37200832
1	0xbe59bdc4	-0.21263796
2	0xbd8d8bb4	-0.06911412
3	0xbc6fbb28	-0.014632024
4	0xbdd89249	-0.10574777
5	0xbea562af	-0.32301852
6	0xbecc6c2a	-0.39926273
7	0xbe932fa0	-0.28747272
8	0xbee63037	-0.4495866
9	0xbee84619	-0.4536598
10	0xbebbfded	-0.36717167
11	0xbf0ef399	-0.5584045
12	0xbe30957e	-0.17244527
13	0xbe28157f	-0.1641445
14	0xbd847546	-0.06467681
15	0x3a8f621b	0.0010939272
16	0xbd838479	-0.064217515
17	0xbeb2f812	-0.34954888
18	0xbea6b702	-0.325615
19	0xbe88f827	-0.26751825
20	0xbf1af78c	-0.60533977
21	0xbde1cb5a	-0.11025114
22	0xbdd19af3	-0.10234632
23	0xbe76639d	-0.24061437
24	0xbed547f5	-0.4165646
25	0xbe8668fe	-0.26251978
26	0xbdc3e193	-0.09564509
27	0xbe8717f4	-0.26385462
28	0xbf138ed3	-0.5763981
29	0xbdfc5e94	-0.12322727
30	0xbdc7f428	-0.09763366
31	0xbed3514d	-0.41272965
32	0xbe202f95	-0.15643151
33	0xbee1fb87	-0.44137213
34	0xbeba40b9	-0.36377504
35	0xbf17e202	-0.59329236
36	0xbe79c11a	-0.24390069
37	0xbeadcf8b	-0.33947405
38	0xbecbb0e9	-0.3978341
39	0xbf12d6c1	-0.5735894
40	0xbe85ad7e	-0.26108927
41	0xbe7cb83a	-0.24679652
42	0xbf550802	-0.83215344
43	0xbe0c88d2	-0.13724068
44	0xbf44dd45	-0.7690013
45	0xbe178510	-0.14796853
46	0xbf40452a	-0.75105536
47	0xbeabe329	-0.33571747
48	0xbee93680	-0.45549393
49	0xbf33a92a	-0.7018
50	0xbdf5687c	-0.119828194
51	0xbf0e3185	-0.5554431
52	0xbd15114d	-0.036393452
53	0xbe582767	-0.21108781
54	0xbef49596	-0.47770375
55	0xbe22da52	-0.15903595
56	0xbf51d560	-0.8196621
57	0xbd4bca0d	-0.049753238
58	0xbdf864e8	-0.12128621
59	0xbf16bc35	-0.5888093
60	0xbddfba70	-0.10924232
61	0xbe81433a	-0.25246602
62	0xbea7b19b	-0.3275269
63	0xbeb9e40b	-0.36306795

conv1.lin_r.weight f4 [64, 4]
0	0xbeaa65b8	-0.3328073
1	0xbe8ad25a	-0.2711361
2	0xbe8c6034	-0.27417147
3	0x3d0b0240	0.033937693
4	0x3ef237f4	0.47308314
5	0xbea7dd8e	-0.3278622
6	0x3e0aa344	0.13538843
7	0x3e5df088	0.21673787
8	0x3e5da82c	0.21646184
9	0xbdf68a60	-0.12038112
10	0xbe3b11b4	-0.18268472
11	0x3ea2a33c	0.31765163
12	0xbec6297a	-0.3870352
13	0xbe1392a4	-0.14411408
14	0xbe02b6e0	-0.12765074
15	0x3eb0c67c	0.34526432
16	0x3d3bd4b0	0.04585713
17	0x3e845e5c	0.2585324
18	0x3cb25100	0.02176714
19	0xbeae03e6	-0.3398735
20	0x3ea12516	0.31473607
21	0x3e4b6094	0.1986106
22	0x3e64e054	0.223512
23	0xbeeff3a2	-0.46865565
24	0x3ee5d334	0.44887698
25	0x3e26abb0	0.16276431
26	0x3eccf83e	0.40033144
27	0xbeea9c24	-0.4582225
28	0xbcd4efe0	-0.025993288
29	0xbe98b518	-0.29825664
30	0x3e01f840	0.12692356
31	0xbd1197e0	-0.03554523
32	0x3ebccdf0	0.36875868
33	0x3e87e764	0.26543725
34	0x3c814120	0.015778124
35	0x3e264f30	0.16241145
36	0x3e0afb90	0.13572526
37	0x3d30b980	0.043145657
38	0x3ed0d718	0.40789104
39	0xbeb3d41a	-0.35122758
40	0x3d728000	0.0592041
41	0x3eb48a82	0.35261923
42	0x3cf1a0e0	0.029495656
43	0x3e03eab0	0.12882495
44	0xbea0ccfc	-0.3140639
45	0x3daa4f08	0.08315855
46	0x3b1df100	0.0024099946
47	0xbe465370	-0.19367766
48	0xbd1fd250	-0.03901893
49	0xbedf7bc4	-0.43649113
50	0x3dc64500	0.096811295
51	0x3e2ac1fc	0.16675562
52	0x3e7316bc	0.23739141
53	0xbda696d0	-0.08134234
54	0x3eeaa116	0.45826024
55	0x3c0fb3c0	0.008770883
56	0xba938000	-0.0011253357
57	0xbd5ecd80	-0.0543952
58	0xbe27a968	-0.16373217
59	0x3e9efcf2	0.31052357
60	0xbeebd51a	-0.4606102
61	0x3dfbba88	0.122914374
62	0xbec0a4c6	-0.37625712
63	0x3db12318	0.08649272
64	0xbe89667a	-0.26835996
65	0x3ef9ba7a	0.48775083
66	0x3eed3bb0	0.463346
67	0x3ee25622	0.4420634
68	0x3dddf630	0.10837972
69	0x3ec0dbee	0.37667793
70	0x3d658490	0.056034625
71	0x3e788e50	0.24273038
72	0xbedaf412	-0.42764336
73	0x3eee454c	0.46537244
74	0x3e8cdd16	0.27512425
75	0xbec3cafc	-0.38240802
76	0xbd8faa88	-0.07014948
77	0xbe6225e8	-0.22084773
78	0xbd896bc8	-0.06710011
79	0x3eb75a8a	0.35811263
80	0x3ea8040e	0.32815593
81	0x3ebad8ac	0.36493433
82	0x3e98284c	0.29718244
83	0xbee79fbe	-0.4523906
84	0x3ee787be	0.4522075
85	0xbee7d47a	-0.45279294
86	0x3e8e1fae	0.27758545
87	0xbecf81b8	-0.40528655
88	0xbe5c6190	-0.21521592
89	0x3c90a200	0.017655373
90	0xbee41e5c	-0.44554412
91	0xbd951638	-0.072796285
92	0xbeca192e	-0.39472336
93	0xbd219cc0	-0.03945613
94	0x3e9e4d86	0.3091852
95	0x3e00fd00	0.12596512
96	0x3e9c5426	0.3053295
97	0xbe8e8140	-0.27832985
98	0x3e95ba7a	0.29243833
99	0xbed9d8e0	-0.42548275
100	0x3ee556c6	0.44792765
101	0xbc8f1f20	-0.017470896
102	0x3ef08038	0.46972823
103	0x3ec15706	0.37761706
104	0x3e4af780	0.19820976
105	0x3ea52198	0.32252192
106	0x3eea84c4	0.45804417
107	0x3ec27148	0.37977052
108	0xbd46f310	-0.048571646
109	0xbea038ba	-0.3129328
110	0xbe9c661c	-0.30546653
111	0x3c837ae0	0.016049802
112	0xbe8d65d8	-0.27616763
113	0x3e50b084	0.20379835
114	0xbe135b80	-0.14390373
115	0x3e0c71dc	0.13715309
116	0x3eebbf6e	0.46044487
117	0x3e720550	0.23634839
118	0x3ea2fe46	0.3183462
119	0xbd7c4b80	-0.06159544
120	0xbe010d44	-0.12602717
121	0xbed1c8fc	-0.4097365
122	0x3eb69958	0.35663867
123	0x3e9db9bc	0.30805767
124	0xbefe63dc	-0.49685562
125	0xbeb8bf48	-0.36083436
126	0xbef922ea	-0.4865945
127	0x3d9f3f18	0.07775706
128	0x3e7e40c4	0.24829394
129	0x3eafc12a	0.3432706
130	0x3ecef436	0.40420693
131	0x3ef4876a	0.47759563
132	0x3ea84438	0.32864547
133	0x3d99d940	0.0751214
134	0xbb1a1800	-0.002351284
135	0xbe787950	-0.24265027
136	0xbca044c0	-0.019564033
137	0x3e432ba8	0.19059622
138	0x3e51d270	0.20490432
139	0xbded5b98	-0.11589736
140	0xbe789514	-0.24275619
141	0xbdf79e68	-0.120907605
142	0x3ee53f62	0.4477492
143	0x3eebacb4	0.460302
144	0xbee927c0	-0.4553814
145	0x3eec62cc	0.46169126
146	0xbecdd490	-0.40201235
147	0xbed3a892	-0.41339546
148	0xbe2491d4	-0.16071254
149	0x3ebf0a06	0.37312335
150	0x3ee954a2	0.45572382
151	0xbe2cf5f8	-0.16890705
152	0xbc82ee80	-0.015982866
153	0x3e6155b0	0.22005343
154	0x3e4655f0	0.1936872
155	0x3de4c7e8	0.111709416
156	0xbeb8e084	-0.36108792
157	0x3eb13784	0.34612668
158	0xbeb5ef36	-0.35534066
159	0xbed4a47c	-0.41531742
160	0xbd445030	-0.047928035
161	0xbe835dba	-0.25657445
162	0xbe86e72c	-0.26348245
163	0x3ec2bcee	0.38034767
164	0x3ec1acf0	0.37827253
165	0xbdec1548	-0.115274966
166	0x3e874e72	0.26427037
167	0x3db5dca8	0.088799775
168	0x3e2d82fc	0.16944498
169	0xbed813f0	-0.4220271
170	0xbee20b2a	-0.44149143
171	0xbedbcaea	-0.4292825
172	0x3d940c40	0.07228899
173	0x3e434740	0.19070148
174	0xbea263b4	-0.31716692
175	0x3df05620	0.11735177
176	0xbe1a1160	-0.1504569
177	0x3e728d8c	0.23686808
178	0xbcc45880	-0.023967981
179	0x3b0c4900	0.0021405816
180	0x3e7addb0	0.2449863
181	0x3eb536b6	0.35393304
182	0xbe2849d4	-0.16434413
183	0x3eafa1d6	0.3430316
184	0x3ef351aa	0.47523242
185	0xbef4afd2	-0.4779039
186	0x3d3362a0	0.043795228
187	0x3c1d6580	0.009606719
188	0x3e466458	0.19374216
189	0xbe276994	-0.16348869
190	0xbd194a50	-0.037424386
191	0x3dfb4a60	0.12270045
192	0xbdcc1070	-0.09964073
193	0x3d4df6a0	0.050284028
194	0x3e1f6600	0.15566254
195	0xbee96bb4	-0.45589983
196	0xbe339720	-0.17538118
197	0x3e1147a0	0.14187479
198	0x3ed209c8	0.41023088
199	0xbe0e5c08	-0.13902295
200	0xbda50050	-0.080567
201	0x3e25eec4	0.16204363
202	0xbe88e834	-0.26739657
203	0x3e90fab8	0.28316283
204	0x3e14a87c	0.14517397
205	0xbeb64a88	-0.35603738
206	0xbe34d5f4	-0.17659742
207	0xbed2f180	-0.41199875
208	0xbde2d210	-0.110752225
209	0x3d1be710	0.038062155
210	0xbed0b99a	-0.40766603
211	0xbee10cb0	-0.43954992
212	0x3ecbcc2a	0.39804202
213	0x3e035898	0.12826765
214	0xbca4b960	-0.020107925
215	0xbda5fb60	-0.081045866
216	0x3e7d5350	0.24738812
217	0xbe757ac0	-0.23972607
218	0xbd7ca120	-0.0616771
219	0x3c1bfd80	0.009520888
220	0x3ec0fb8e	0.3769192
221	0xbe08f748	-0.1337558
222	0xbe78e104	-0.24304587
223	0xbdc14228	-0.094364464
224	0x3b15b000	0.00228405
225	0xbe612714	-0.21987563
226	0x3dade460	0.08490825
227	0x3e2ad478	0.16682613
228	0x3eae2022	0.3400889
229	0xbe2d55e8	-0.16927302
230	0xbdaa7e48	-0.083248675
231	0xbe5897c8	-0.2115165
232	0xbcd3b380	-0.025842428
233	0x3ea72a56	0.32649487
234	0xbe8bcf9a	-0.27306825
235	0xbee7c3e2	-0.45266634
236	0x3e45b9b4	0.19309121
237	0x3e733f3c	0.23754591
238	0x3eeca7f2	0.46221882
239	0xbeaa1be8	-0.33224416
240	0xbed3e31a	-0.41384202
241	0x3d2a27a0	0.041541696
242	0x3d2b0b90	0.041759074
243	0x3ee8ea06	0.45491046
244	0x3e3b3880	0.18283272
245	0x3e52c1cc	0.2058174
246	0x3ede535e	0.4342298
247	0x3c00cd00	0.007861376
248	0x3e991aca	0.2990325
249	0x3dcce600	0.100048065
250	0x3ee43c3c	0.44577205
251	0xbe719858	-0.23593271
252	0x3eae82c2	0.34084135
253	0x3eed599e	0.46357435
254	0x3eb6ba72	0.3568912
255	0xbede30ac	-0.4339651

conv1.lin_r.bias f4 [64]
0	0xbd819060	-0.063263655
1	0xbeace3b2	-0.33767468
2	0x3cc740e0	0.024322927
3	0xbef82a5e	-0.48469824
4	0xbd6f13a0	-0.058368325
5	0x3ed9c756	0.42534894
6	0x3ed9c20e	0.42530864
7	0xbd13a500	-0.036046028
8	0x3eecbea6	0.46239203
9	0xbe928eca	-0.28624564
10	0xbed48862	-0.41510302
11	0xbd9c70f0	-0.076387286
12	0x3de48e78	0.11159986
13	0x3e968d4e	0.29404682
14	0xbe38fa30	-0.18064189
15	0x3e2657fc	0.16244501
16	0x3ec8b1ba	0.39198095
17	0x3cf6ba40	0.030118108
18	0xbefadfba	-0.48998815
19	0x3e190484	0.14943129
20	0x3d86d178	0.06582922
21	0x3dba1920	0.090868235
22	0xbe675e98	-0.22594678
23	0x3e4a239c	0.19740146
24	0x3d9bacf8	0.076013505
25	0xbd8cb1e0	-0.068698645
26	0x3dc8a078	0.09796232
27	0x3e12c41c	0.14332622
28	0x3ef6730e	0.48134655
29	0x3eee0a28	0.46492124
30	0x3ea80e3e	0.32823366
31	0xbe091da0	-0.13390207
32	0xbe74f5e0	-0.23921919
33	0x3ece995e	0.40351385
34	0xbecd6dda	-0.40122873
35	0xbe58a4e4	-0.21156651
36	0xbee9803e	-0.45605654
37	0x3ea13fde	0.3149404
38	0x3e2f2eac	0.17107648
39	0xbee21214	-0.44154418
40	0x3da48ba8	0.0803445
41	0x3e321df4	0.17394239
42	0xbde8b558	-0.113627136
43	0x3cde5200	0.02713871
44	0xbe324824	-0.17410332
45	0xbe879a74	-0.26485026
46	0xbede1944	-0.4337865
47	0x3d6cf450	0.057850182
48	0x3e66299c	0.2247681
49	0xbd212020	-0.039337277
50	0x3d985588	0.07438189
51	0xbed5c82a	-0.41754276
52	0x3e3c48bc	0.18387121
53	0x3e381200	0.17975616
54	0xbe5068fc	-0.20352548
55	0x3e1c4d60	0.15263891
56	0xbe648374	-0.2231577
57	0x3e0f905c	0.14019912
58	0xbe163e38	-0.14672172
59	0xbea97192	-0.3309446
60	0x3ee63326	0.44960898
61	0xbeabbeb0	-0.3354392
62	0x3eb7da3a	0.3590868
63	0xbd256dc0	-0.04038787

conv1.lin_edge.weight f4 [64, 2]
0	0x3e830cfe	0.2559585
1	0x3f14b43d	0.5808752
2	0xbf04a8a2	-0.51819813
3	0xbeb57676	-0.3544194
4	0xbccdd900	-0.025127888
5	0xbe6087f0	-0.21926856
6	0xbe3cff80	-0.1845684
7	0x3f2b43b3	0.66900176
8	0x3f349ddb	0.7055337
9	0xbe567578	-0.20943248
10	0x3ebf53fe	0.37368768
11	0x3efd02ca	0.4941619
12	0x3ee41b12	0.44551903
13	0xbd262b70	-0.04056877
14	0xbe39de14	-0.18151122
15	0x3f211c81	0.6293412
16	0xbc483740	-0.012220204
17	0x3e5db240	0.21650028
18	0xbefdcd39	-0.49570635
19	0x3eba88be	0.3643245
20	0x3f306343	0.6890146
21	0x3eb16dfa	0.34654218
22	0x3d1c63e0	0.038181186
23	0xbe447278	-0.19184291
24	0x3c5a4940	0.013323128
25	0xbf01243b	-0.5044591
26	0x3e2e2660	0.17006826
27	0x3d9b8008	0.075927794
28	0x3cfbb0c0	0.03072393
29	0x3ec75caa	0.38937885
30	0xbd9381f0	-0.07202518
31	0xbf3313fa	-0.69952357
32	0xbeeb749f	-0.45987412
33	0x3f29ee2f	0.66379064
34	0x3e43c2f0	0.19117332
35	0xbdd8cbf8	-0.10585779
36	0x3f01246d	0.50446206
37	0xbe1e6f98	-0.15472257
38	0x3f16b549	0.5887037
39	0xbdbc5ad8	-0.091970146
40	0xbf26b46f	-0.6511907
41	0x3f2c3039	0.6726108
42	0x3e807830	0.25091696
43	0xbe2a2924	-0.16617256
44	0x3f192201	0.5981751
45	0x3ee59462	0.4483977
46	0xbf310cee	-0.69160354
47	0x3ee8941a	0.45425493
48	0xbf2bcecb	-0.67112416
49	0x3f2379af	0.6385755
50	0xbe41d9cc	-0.18930739
51	0xbf33ad43	-0.7018625
52	0x3da675a0	0.08127904
53	0xbd1f8ea0	-0.038954377
54	0x3e9b0d96	0.30283803
55	0x3eda1cde	0.4260015
56	0xbf069af0	-0.52580166
57	0x3f0b16b5	0.54331523
58	0xbbec0080	-0.007202208
59	0xbe180df0	-0.14849067
60	0xbee64797	-0.44976494
61	0x3ea68fa6	0.3253147
62	0x3e94e8de	0.29083914
63	0xbed14aa1	-0.4087725
64	0x3f3431f7	0.7038874
65	0xbe1b87cc	-0.15188521
66	0x3f263a87	0.64933056
67	0x3e960e9a	0.29308015
68	0xbe79e4ae	-0.2440364
69	0xbdb989d0	-0.09059489
70	0xbdb2b908	-0.08726698
71	0xbdccec70	-0.100060344
72	0x3f220fdd	0.63305455
73	0x3e0881c4	0.13330752
74	0xbf0828e9	-0.53187424
75	0xbebc8ab3	-0.3682457
76	0x3f2689d1	0.6505404
77	0xbcec7ba0	-0.028867543
78	0x3d90f518	0.07077998
79	0xbf1460b0	-0.57960033
80	0xbf0ee94c	-0.5582473
81	0xbef0cc24	-0.47030747
82	0xbefd75e2	-0.49504
83	0xbf115ac4	-0.5677912
84	0x3f16825b	0.58792657
85	0xbf3440b3	-0.70411223
86	0xbf2ac2f8	-0.6670375
87	0xbf126594	-0.57186246
88	0x3e8d1d94	0.2756163
89	0x3e570d64	0.21001202
90	0xbf0d78ec	-0.5526264
91	0x3dab6058	0.083679855
92	0x3ef9c8ea	0.48786098
93	0x3ec03d1a	0.37546617
94	0xbf315d08	-0.6928258
95	0x3f24f0c1	0.6442986
96	0x3f282ab1	0.6569014
97	0xbf1601f9	-0.5859676
98	0x3dbdcfc0	0.09268141
99	0x3ceadae0	0.02866882
100	0xbf32c05f	-0.69824785
101	0xbe9758ef	-0.29560038
102	0xbf32f7f3	-0.6990959
103	0xbf1a7eba	-0.6034962
104	0xbf0e10df	-0.55494493
105	0xbe2ca81c	-0.16861004
106	0xbe9df381	-0.3084984
107	0x3e886f70	0.2664752
108	0xbf156c5c	-0.5836847
109	0xbead46d7	-0.3384311
110	0xbeb58d36	-0.35459298
111	0xbe8b25b8	-0.27177215
112	0x3e93f1da	0.28895456
113	0xba064400	-0.0005121827
114	0xbf07a81d	-0.52990896
115	0x3f0e7b95	0.5565732
116	0x3ec8b0ee	0.39197487
117	0xbf05ac0d	-0.52215654
118	0x3e9a73b2	0.30166394
119	0xbd040e70	-0.03224033
120	0x3ea0f74e	0.31438679
121	0x3e87f8e0	0.26557064
122	0x3dc6fe30	0.09716451
123	0x3df3a8e8	0.11897451
124	0xbf27d6e5	-0.6556228
125	0x3e380e2c	0.17974156
126	0xbd949cd0	-0.07256472
127	0xbec8e22f	-0.39235064

conv2.att f4 [1, 1, 64]
0	0xbe05b9f7	-0.13059221
1	0x3d89311c	0.0669882
2	0xbe9978a0	-0.29974842
3	0xbe835de5	-0.25657573
4	0xbda3a21e	-0.07989906
5	0xbe6673b6	-0.22505078
6	0xbcfbc420	-0.030733168
7	0xbc6ea120	-0.014564782
8	0x3dbbb678	0.091656625
9	0xbdddbf20	-0.1082747
10	0x3e7580a8	0.2397486
11	0xbdd7e8ea	-0.10542472
12	0xbe8c94d6	-0.27457303
13	0xbe36a356	-0.17835745
14	0x3cd429c0	0.025898814
15	0x3de785e0	0.113048315
16	0x3e086b24	0.13322121
17	0x3d880df4	0.06643286
18	0x3c908410	0.017641097
19	0x3e0deec8	0.13860619
20	0x3e999230	0.29994345
21	0xbe9a0e26	-0.3008892
22	0xbe7bf6b8	-0.24605834
23	0x3dab7228	0.08371383
24	0xbe7079af	-0.23483919
25	0x3cb442d0	0.022004515
26	0xbe104157	-0.14087425
27	0x3e146f00	0.14495468
28	0xbe873599	-0.2640808
29	0xbcd41360	-0.025888145
30	0xbe1bff4a	-0.15234104
31	0xbd5afcf0	-0.053463876
32	0x3d97c364	0.07410315
33	0xbd159068	-0.03651467
34	0x3e000632	0.12502363
35	0xbdb7bfee	-0.089721546
36	0x3d2060f8	0.039154977
37	0x3dbd49c0	0.09242582
38	0xbe81d06f	-0.25354335
39	0xbd718de0	-0.058973193
40	0x3d5b4748	0.053534776
41	0x3e3e5d10	0.18590188
42	0xbe8124e6	-0.25223464
43	0xbda3a002	-0.079895034
44	0x3e3e24fe	0.18568799
45	0x3e02e674	0.12783223
46	0x3e8e4642	0.27787977
47	0xbe7805ef	-0.24221013
48	0xbdd9677c	-0.10615441
49	0x3d9c3e4c	0.0762907
50	0x3e99edce	0.30064243
51	0xbe8451d6	-0.25843686
52	0xbe48687a	-0.19571105
53	0xbd8546f6	-0.06507675
54	0x3e1b6978	0.15176952
55	0xbe7aff59	-0.2451147
56	0xbbad0f40	-0.005281359
57	0x3d18cb18	0.03730306
58	0x3e8ceaf4	0.27523005
59	0x3e990c0e	0.2989201
60	0x3e150986	0.14554414
61	0x3da1fd74	0.079096705
62	0xbc631440	-0.013859808
63	0x3d525d78	0.05135867

conv2.bias f4 [64]
0	0xbd9ff2df	-0.07809996
1	0x3d05d5f8	0.03267476
2	0xbd82d51c	-0.06388304
3	0x3c994b2a	0.018712599
4	0x3d0c7f01	0.034300808
5	0x3d143dbe	0.036191694
6	0xbd707687	-0.058706786
7	0xbd898096	-0.06713979
8	0xbd1289b8	-0.03577587
9	0x3c7f3b7c	0.015578147
10	0x3cfe279e	0.03102475
11	0x3d1a5ac0	0.037684202
12	0x3d3914aa	0.045185722
13	0x3d7f8593	0.062383246
14	0x3d80a05a	0.06280585
15	0xbd3b9edd	-0.0458058
16	0xbd230131	-0.039796058
17	0x3d854b5d	0.06508515
18	0x3c6339df	0.013868778
19	0x3c1cf77a	0.009580487
20	0xbd637c4b	-0.055538457
21	0x3daf389a	0.08555718
22	0xbdb6d1ef	-0.089267604
23	0x3db5caa7	0.088765435
24	0x3d835a0b	0.06413659
25	0x3d1d0681	0.03833628
26	0x3ca5c072	0.020233367
27	0x3cae50a1	0.021278681
28	0x3dcfb941	0.10142756
29	0x3d84abc2	0.06478073
30	0x3d29543c	0.041340098
31	0xbdd92db6	-0.10604422
32	0x3da79f5b	0.081846915
33	0x3b9f6e5b	0.0048654503
34	0x3d6a1a60	0.05715406
35	0xbd49632d	-0.049166847
36	0xbd8f319f	-0.06991886
37	0xbd9d7818	-0.07688922
38	0xbd0cd758	-0.034385055
39	0x3da1c05f	0.0789802
40	0xbdb668c7	-0.089067034
41	0xbd6a8360	-0.057254195
42	0x3c949415	0.018137017
43	0x3da0b553	0.07847085
44	0xbdb6d729	-0.08927757
45	0x3c90ab28	0.017659739
46	0x3db0644d	0.08612881
47	0xbc8467a7	-0.016162707
48	0x3d0f4441	0.0349772
49	0x3d543ffd	0.051818836
50	0xbd921268	-0.07132417
51	0xbde2724a	-0.11056955
52	0x3dd82653	0.10554185
53	0xbda7ad7f	-0.08187389
54	0x3d9f866d	0.077893116
55	0x3d231aaf	0.03982037
56	0x3d96ca99	0.07362861
57	0xbd768235	-0.06018277
58	0x3d380dd6	0.04493507
59	0x3c44e658	0.012017809
60	0xbcfbd3e9	-0.030740695
61	0xbd0becce	-0.03416138
62	0x3c66c511	0.01408507
63	0x3dc8898a	0.097918585

conv2.lin_l.weight f4 [64, 64]
0	0x3d9aa63e	0.075512394
1	0xbdc0e157	-0.0941798
2	0xbdc74b09	-0.09731109
3	0xbcde6091	-0.027145656
4	0xbcd8b5aa	-0.026453812
5	0x3d648187	0.05578759
6	0xbdc42184	-0.09576705
7	0x3d80cb80	0.062888145
8	0x3dddca3f	0.10829591
9	0xbdc40f64	-0.09573248
10	0xbcecff1b	-0.028930238
11	0xbda891dc	-0.082309455
12	0x3b7684ac	0.00376157
13	0x3b9b0fbd	0.0047321008
14	0xbd9cbd1c	-0.07653257
15	0x3d448b1c	0.047984228
16	0xbdc1002e	-0.094238624
17	0xbd9e225d	-0.07721398
18	0xbe1caff1	-0.15301491
19	0x3d9f239a	0.07770462
20	0x3d88444d	0.06653652
21	0x3d9ba7d9	0.07600374
22	0xbca13f75	-0.019683579
23	0x3e07517c	0.13214678
24	0x3ceb9407	0.028757108
25	0xbd20c5d0	-0.03925115
26	0x3d6c1340	0.057635546
27	0xbdd91542	-0.10599758
28	0x3d2ccb79	0.042186234
29	0x3cea5987	0.028607143
30	0xbc89e420	-0.016832411
31	0x3dcdae54	0.10043016
32	0x3d7519fe	0.05983924
33	0x3bd7b0b7	0.0065823453
34	0xbd207d33	-0.0391819
35	0x3bf98947	0.0076152417
36	0x3d2a2adc	0.04154478
37	0xbc07e69e	-0.0082947295
38	0xbcb3dd01	-0.021955969
39	0xbd042168	-0.03225842
40	0x3da11766	0.07865791
41	0x3db6f414	0.08933273
42	0xbe27a2f2	-0.16370752
43	0xbc254fad	-0.010089797
44	0x3b9a23c8	0.0047039725
45	0xbce12c05	-0.02748681
46	0x3cd67136	0.02617703
47	0xbd888410	-0.06665814
48	0x3d8219b1	0.063525565
49	0x3d806434	0.06269112
50	0x3d8f5849	0.06999261
51	0xbdb0dd08	-0.08635908
52	0xbdc5253f	-0.09626245
53	0x3e005f3e	0.12536332
54	0xbd42c884	-0.047554508
55	0xbdb02810	-0.08601391
56	0x3d0260ea	0.031830706
57	0xbd59751f	-0.05309021
58	0xbdaf19d4	-0.08549848
59	0x3dd60611	0.10450376
60	0xbcf2677d	-0.029590363
61	0x3dbf9094	0.09353748
62	0xbdddf9dd	-0.10838673
63	0x3d82c3d4	0.063850075
64	0x39fd9a7d	0.00048371023
65	0xbbd1124d	-0.0063803555
66	0xbd68ef07	-0.05686858
67	0xbcf98d36	-0.030462842
68	0x3d7074ca	0.05870513
69	0x3d7a0935	0.061043937
70	0x3d90b04f	0.07064878
71	0xbdb9c442	-0.09070636
72	0xbd271039	-0.040786956
73	0x3dc1c054	0.09460512
74	0xbc04bea3	-0.008102092
75	0xbd388381	-0.045047287
76	0x3d79733e	0.06090092
77	0xbde5becd	-0.11218033
78	0xbdab6e2e	-0.083706245
79	0xbd75142e	-0.059833698
80	0xbd295843	-0.04134394
81	0x3c92efa9	0.017936544
82	0x3e3582f8	0.17725742
83	0x3e275bc3	0.16343598
84	0x3d623a66	0.055231474
85	0xbdac7fcf	-0.08422815
86	0x3b608d99	0.0034264086
87	0xbd089969	-0.03334943
88	0xbd733b72	-0.059382863
89	0x3d1c2d10	0.038128912
90	0xbddf1480	-0.10892582
91	0xbd8b516f	-0.068026416
92	0x3d924224	0.071415216
93	0xbce4ad5b	-0.027914694
94	0x3dcc489e	0.09974788
95	0x3aaf53b5	0.0013376387
96	0xbd99e6c0	-0.07514715
97	0x3e25041e	0.16114852
98	0xbce55ebb	-0.027999273
99	0xbdda0f8e	-0.10647498
100	0x3d6b423e	0.05743622
101	0x3d9538d6	0.07286231
102	0xbe04d4b3	-0.12971763
103	0x3dd412e4	0.103551656
104	0x3d5d7700	0.054068565
105	0xbe3b53c4	-0.18293673
106	0x3c9a7634	0.018855192
107	0x3d255f8a	0.040374316
108	0x3cfebc1f	0.031095563
109	0xbde98e78	-0.11404127
110	0xbc6d8179	-0.014496201
111	0xbdb20017	-0.086914234
112	0xbd01b685	-0.031668205
113	0xbdae2bec	-0.08504471
114	0xbdb740b5	-0.08947889
115	0x3d39800f	0.04528814
116	0xbdd5cfb7	-0.10440009
117	0xbc934fe1	-0.017982425
118	0xbddbb165	-0.10727195
119	0x3d451642	0.04811693
120	0x3c9eff6f	0.01940891
121	0x3db262cb	0.087102495
122	0x3ace06ed	0.0015718617
123	0xbd003440	-0.03129983
124	0xbded6bab	-0.11592802
125	0xbd389928	-0.045067936
126	0x3e13c33a	0.14429942
127	0x3c9c703a	0.019096483
128	0x3e12aff6	0.14324936
129	0xbda2729b	-0.079320155
130	0xbd2b6550	-0.041844666
131	0x3b5b2679	0.003343968
132	0x3e00e5fb	0.1258773
133	0x3d9a2a56	0.07527606
134	0xbd24f46b	-0.040272158
135	0x3da8f01a	0.08248921
136	0x3d3d433b	0.046206694
137	0xbdd9d295	-0.106358685
138	0xbdbcef16	-0.092252895
139	0xbce9bcbc	-0.028532378
140	0xbbb87f78	-0.00563043
141	0x3e3c0752	0.18362167
142	0x3c82696c	0.01591941
143	0xbb05fbd1	-0.0020444284
144	0xbd220bd3	-0.039562058
145	0x3dcf3248	0.10117012
146	0x3d4363af	0.047702488
147	0xbe204ffb	-0.1565551
148	0x3e03c25c	0.12867111
149	0xbcb471d1	-0.022026928
150	0xbd707d69	-0.05871335
151	0xba672e89	-0.0008818885
152	0x3d377f76	0.04479929
153	0x3ce24daa	0.027624924
154	0x3d3fc2ca	0.046816625
155	0xbdad179a	-0.08451767
156	0xbc681c4b	-0.014166902
157	0x3e113a17	0.14182316
158	0x3dca67ad	0.09883056
159	0x3d6a3120	0.057175756
160	0xbdb35c93	-0.087578915
161	0xbdbcf4e1	-0.092263944
162	0x3d5a4b56	0.053294502
163	0x3d07356a	0.033009924
164	0xbdad1eb4	-0.08453122
165	0x3dcb824a	0.0993696
166	0xbdd00fb3	-0.101592444
167	0x3d338bef	0.043834623
168	0x3c748253	0.01492365
169	0x3b204322	0.0024454077
170	0x3c49577e	0.012288926
171	0xbd42f2aa	-0.047594704
172	0xbd4b5635	-0.04964276
173	0x3c9a351b	0.01882415
174	0x3cb5aa6e	0.022175994
175	0x3d53f0d7	0.051743355
176	0x3cb0a820	0.021564543
177	0x3db833a6	0.08994226
178	0x3b054559	0.0020335524
179	0xbd625863	-0.055260073
180	0x3a604ea9	0.0008556643
181	0xbbce4fbe	-0.006296127
182	0x3dee70a1	0.11642576
183	0xbc40eff0	-0.011775956
184	0xba8d60a4	-0.0010786247
185	0x3c1b2dfa	0.009471411
186	0xbd70ee57	-0.05882105
187	0x3dce78ce	0.100816354
188	0xbc9454b3	-0.018106794
189	0xbde4129f	-0.11136364
190	0xbd8cfc06	-0.06884007
191	0xbe00a40f	-0.12562583
192	0x3dbe07ac	0.09278807
193	0xbd4046fc	-0.046942696
194	0x3dc45156	0.09585826
195	0x3da0a392	0.078436986
196	0x3d5d9695	0.054098684
197	0x3a9b7dec	0.0011863089
198	0xbd79adbb	-0.060956698
199	0x3e039c71	0.12852646
200	0xbd8bb032	-0.06820716
201	0x3bb68084	0.0055695195
202	0x3d51ac47	0.051189687
203	0x3e0b8c51	0.13627745
204	0x3cf67ef0	0.030089825
205	0x3db0da04	0.08635333
206	0x3c637a90	0.013884202
207	0xbd767175	-0.060166795
208	0x3cfd1e69	0.03089829
209	0x3d378e68	0.044813544
210	0xbe1aaa3f	-0.15104006
211	0x3d88b495	0.06675068
212	0xbe119d38	-0.1422013
213	0xbd045f64	-0.032317534
214	0xbe0ee6d8	-0.13955247
215	0xbd9b2de0	-0.07577109
216	0xbd194b4a	-0.037425317
217	0x3e06e63c	0.13173765
218	0xbdf2e4e6	-0.11860065
219	0xbd8767ab	-0.0661157
220	0xbe2051b6	-0.1565617
221	0x3c3c5050	0.011493757
222	0xbd55868c	-0.052130267
223	0x3db29e8a	0.08721645
224	0x3d3a3bbc	0.045467123
225	0xbe3158a5	-0.17318971
226	0xbdd753be	-0.105140194
227	0x3cb5c288	0.022187486
228	0xbd131eba	-0.035917975
229	0xbc31bd74	-0.010848392
230	0xbd384a26	-0.04499259
231	0xbc82d759	-0.015971826
232	0xb8f4f6f8	-0.00011680828
233	0x3d938dba	0.072047666
234	0x3cc7efbf	0.024406312
235	0x3d9e9ae4	0.07744387
236	0x3c042030	0.008064315
237	0xbc29f95f	-0.010374396
238	0x3dbf758e	0.09348594
239	0xbe39736b	-0.18110435
240	0xbbc739f1	-0.006079905
241	0xbcd46d5f	-0.025931058
242	0xbd5ea549	-0.054356847
243	0xbca99a70	-0.020703524
244	0xbca6af00	-0.020347118
245	0xbdcfb911	-0.101427205
246	0xbd63a01d	-0.055572618
247	0x3d1b61ce	0.03793507
248	0xbdb5ec6b	-0.08882984
249	0x3c11e4a0	0.008904606
250	0x3ca70af0	0.020390958
251	0x3e00a429	0.12562622
252	0x3e121ba3	0.14268355
253	0x3d7ce23c	0.06173919
254	0x3d861011	0.06546033
255	0xbdedbb3b	-0.11607977

conv2.lin_l.bias f4 [64]
0	0x3c411279	0.011784189
1	0xbd47a3f7	-0.048740353
2	0xbbafa136	-0.005359794
3	0xbd17702b	-0.036972206
4	0x3b947d9a	0.0045315744
5	0x3baf4746	0.0053490726
6	0x3c06a0cc	0.008217048
7	0x3bd2beb0	0.006431423
8	0x3c0b4d24	0.0085022785
9	0xbbe353ef	-0.006937496
10	0xbb92fd90	-0.0044857934
11	0x3b56f288	0.0032798368
12	0xbca127fb	-0.019672384
13	0xbbf62257	-0.007511418
14	0x3b1c32ba	0.0023833946
15	0x3c311ee6	0.010810589
16	0x3b7fa66b	0.0039009105
17	0xbc869bc3	-0.016431695
18	0x3b93d850	0.0045118704
19	0x3c6b4c5a	0.014361465
20	0xbd7dd1e6	-0.061967753
21	0xbc48586d	-0.012228114
22	0x3c84c6a4	0.016208
23	0xbb027fe3	-0.0019912652
24	0x3b8684f9	0.004105207
25	0xbc03e6d4	-0.008050639
26	0x3c22a4bd	0.009926972
27	0xbbaaa2c9	-0.005207394
28	0xbb2e5911	-0.002660338
29	0xbc24b9c4	-0.010054056
30	0xbc612c46	-0.013743466
31	0x3cc9499c	0.024571232
32	0xbc1fa248	-0.009743281
33	0x3b24f0a6	0.0025167852
34	0xbcb53c21	-0.022123398
35	0x3c9bee12	0.01903442
36	0x3cbb2cc6	0.022848498
37	0x3c94f9d3	0.018185532
38	0x3bd8c6b4	0.006615484
39	0xbca2f528	-0.01989229
40	0xbb32c695	-0.0027279009
41	0xbb91ed45	-0.0044533336
42	0xbc380949	-0.0112326825
43	0xbcd59db5	-0.026076177
44	0x3c3d0062	0.011535736
45	0x3c19aedf	0.009380071
46	0xbc25b3a6	-0.010113632
47	0x3907b2d2	0.00012941219
48	0xbb806e70	-0.003919415
49	0xbc8daea3	-0.017295187
50	0x3cac72e1	0.021050872
51	0x3c523a0c	0.012831222
52	0xbbafb625	-0.0053622895
53	0x3c62c318	0.013840459
54	0xbc9f8596	-0.019472878
55	0xbb6ae653	-0.003584285
56	0xbc9b9db6	-0.0189961
57	0xbb6c7ea1	-0.003608622
58	0xbc16b288	-0.009197839
59	0xbb937853	-0.0045004277
60	0x3a9ce657	0.0011970502
61	0x3c975f6d	0.01847812
62	0x395f0dbb	0.00021272052
63	0xbc8a90db	-0.016914776

conv2.lin_r.weight f4 [64, 64]
0	0xbdf1357c	-0.117777795
1	0xbd556c98	-0.052105516
2	0x3c8838b0	0.016628593
3	0x3dd0da98	0.101979434
4	0xbdeb558c	-0.11490926
5	0xbde0e8b4	-0.109818846
6	0xbdf2d776	-0.11857502
7	0xbdd4c656	-0.10389392
8	0xbd6be668	-0.05759278
9	0xbc7e9d60	-0.015540451
10	0x3dfd207a	0.1235971
11	0x3d797b50	0.060908616
12	0xbda92c60	-0.08260417
13	0xbdc23ccc	-0.09484252
14	0x3dd7f052	0.10543884
15	0x3bbadf00	0.005702853
16	0xbdd3878a	-0.103285864
17	0x3d813756	0.063093826
18	0x3da0cc04	0.07851413
19	0xbd2aeb34	-0.041728213
20	0x3dc50c04	0.096214324
21	0xbd8b817e	-0.06811808
22	0x3db6b41e	0.089210734
23	0xbdeea80e	-0.11653148
24	0xbdfff30e	-0.12497531
25	0x3ce8c730	0.028415293
26	0x3c9460e0	0.0181126
27	0xbc770ef0	-0.015079245
28	0x3d62fee8	0.05541888
29	0x3d8e8096	0.069581196
30	0x3dd2d1ae	0.102938995
31	0xbcd46790	-0.025928289
32	0x3cd459a0	0.025921643
33	0xbdc9065c	-0.09815666
34	0x3d81d974	0.06340304
35	0x3cc7dc40	0.024397016
36	0xbd530b80	-0.05152464
37	0xbac77800	-0.0015218258
38	0xbdb6b0a8	-0.08920413
39	0xbdc03c00	-0.09386444
40	0xbcddad40	-0.027060151
41	0x3d26d264	0.040727988
42	0x3dbac5f2	0.09119786
43	0xbdbb5856	-0.09147708
44	0x3d3062e4	0.04306306
45	0xbd8ea524	-0.06965092
46	0xbb277f00	-0.0025557876
47	0xbcdba288	-0.0268109
48	0x3dd93f08	0.106077254
49	0x3dbab978	0.091174066
50	0x3cc11a00	0.023571968
51	0x3cf05408	0.029336944
52	0xbd9ab2c8	-0.07553631
53	0xbc56fed0	-0.0131222755
54	0xbd6b2b98	-0.05741462
55	0x3da09d14	0.0784246
56	0xbd7911f8	-0.060808152
57	0x3d91e5e0	0.07123923
58	0x3d328ed4	0.043593243
59	0x3daa0d9e	0.083033785
60	0xbdc21e24	-0.09478405
61	0xbddb1930	-0.106981635
62	0x3d84b5da	0.06479998
63	0xbc164f20	-0.009174138
64	0xbc148180	-0.009064078
65	0x3b858960	0.0040752143
66	0x3d9d3b5a	0.07677336
67	0xbd80c4fc	-0.06287572
68	0x3da8de44	0.08245519
69	0x3d96bd0c	0.073602766
70	0xbcfa6ef8	-0.030570492
71	0xbd886780	-0.06660366
72	0x3bdea0e0	0.00679408
73	0x3ce884b8	0.028383598
74	0x3c9edaa8	0.019391373
75	0x3a54c500	0.00081165135
76	0xbd50cb1c	-0.05097495
77	0xbdc5c5ec	-0.09656891
78	0xbc44b9c0	-0.012007177
79	0x3db37574	0.08762637
80	0xbd783524	-0.060597554
81	0xbd3d2b7c	-0.046184048
82	0x3b768ec0	0.0037621707
83	0x3db55dde	0.08855794
84	0x3da1571c	0.07877943
85	0xbdb8d090	-0.09024155
86	0x3daa138c	0.083045095
87	0xbd3981dc	-0.04528986
88	0x3c5a5da0	0.013327986
89	0x3c945838	0.018108472
90	0xbde97cda	-0.11400767
91	0x3aaf4780	0.0013372749
92	0x3dc79d60	0.09746814
93	0x3b584c80	0.0033004582
94	0x3dd97cac	0.106194824
95	0xbda8efb6	-0.08248846
96	0xbdbae452	-0.0912558
97	0xbc483dc0	-0.012221754
98	0x3c344fe0	0.011005372
99	0x3c32e250	0.010918215
100	0x3d962840	0.07331896
101	0xbcfb3590	-0.030665189
102	0xbd20517c	-0.03914021
103	0x3d806cc2	0.06270744
104	0x3dd98da2	0.106227174
105	0xbd092e9c	-0.033491716
106	0x3cdec820	0.027195036
107	0xbda4edb6	-0.08053152
108	0x3d3b64b4	0.045750335
109	0xbd409184	-0.047013775
110	0x3ba29620	0.004961744
111	0x3d22fd4c	0.039792344
112	0xbda747ac	-0.08167967
113	0x3da37498	0.07981223
114	0x3debb48c	0.11509046
115	0xbc507410	-0.012722984
116	0xbd2e7400	-0.042591095
117	0x3d0b7170	0.03404373
118	0x3d9f3e7a	0.07775588
119	0xbdaac3c8	-0.083381236
120	0xbd090d8c	-0.033460185
121	0xbdecc6de	-0.115613684
122	0x3b4d0f40	0.0031289607
123	0x3d3588d0	0.044319928
124	0xbd136880	-0.03598833
125	0xbd2eeabc	-0.04270433
126	0x3df98c22	0.12184931
127	0x3d6e4970	0.058175504
128	0x3d8aed14	0.067835
129	0xbd3c5c50	-0.045986474
130	0x3d6bc0f0	0.057557046
131	0xbd90b724	-0.07066181
132	0xbd0aaa04	-0.033853546
133	0x3db68a6c	0.089131206
134	0xbd8f7d22	-0.07006289
135	0x3dafd2d4	0.08585134
136	0x3a8c7b00	0.0010717809
137	0x3d825b22	0.063650385
138	0x3d94134a	0.072302416
139	0xbd73d144	-0.059525743
140	0x3db43f5a	0.08801146
141	0x3defd3b2	0.117102996
142	0xbc963c38	-0.018339261
143	0xbd91a258	-0.07111043
144	0x3dae598c	0.085131735
145	0xbc9b84e0	-0.018984258
146	0xbda872e0	-0.08225036
147	0x3dd0f736	0.10203402
148	0x3d978e84	0.074002296
149	0xbdd88a18	-0.10573214
150	0x3d05cf1c	0.032668218
151	0xbce0d538	-0.02744542
152	0xbda96fec	-0.082733005
153	0x3d9d59d6	0.076831505
154	0xbcd2df70	-0.025741309
155	0x3cf06660	0.029345691
156	0x3d741c48	0.059597284
157	0xbd781c64	-0.06057395
158	0x3da3b506	0.07993512
159	0xbdebeb24	-0.11519459
160	0x3c1a9ce0	0.009436816
161	0xbd4b3fd8	-0.049621433
162	0xbcf719b8	-0.03016363
163	0x3d0d5360	0.03450334
164	0xbd634590	-0.05548626
165	0xbc9a3250	-0.018822819
166	0x3d5835e8	0.052785784
167	0x3d5899f8	0.05288121
168	0x3d889c02	0.06670381
169	0xbc172e90	-0.00922741
170	0x3dd8fbd2	0.10594906
171	0x3cc806d0	0.024417311
172	0xbdb6ec18	-0.0893175
173	0x3dcf9d98	0.101374805
174	0x3bea7640	0.00715521
175	0xbdd92a64	-0.106037885
176	0xbcf6cef8	-0.030127987
177	0xbc844050	-0.016143948
178	0xbdad726c	-0.0846909
179	0x3da93250	0.082615495
180	0x3dbabdb4	0.09118214
181	0xbd047db0	-0.032346427
182	0xbdba0b76	-0.09084217
183	0x3d9c60ce	0.076356515
184	0xbcd5e080	-0.026108027
185	0xbd85294c	-0.065020174
186	0xbd82b1ec	-0.06381592
187	0x3a03f400	0.0005033612
188	0xbc42f440	-0.011899054
189	0xbdf09d06	-0.117487
190	0x3df5e6b0	0.12006891
191	0xbdbc193a	-0.09184499
192	0xbdb55dde	-0.08855794
193	0xbd73575c	-0.059409484
194	0x3ca18000	0.019714355
195	0x3d121a34	0.03566952
196	0xbac57e80	-0.0015067607
197	0x3d2fb508	0.042897254
198	0x3da864a2	0.08222319
199	0xbd005bc0	-0.0313375
200	0x3df2cbb2	0.11855258
201	0xbd98c3d6	-0.07459228
202	0xbd693844	-0.056938425
203	0xbd35a4d0	-0.04434663
204	0xbd9acf36	-0.075590536
205	0x3cc473c8	0.02398099
206	0x3de030a4	0.109467775
207	0xbdca925a	-0.098911956
208	0x3d8ec9ec	0.06972107
209	0x3c8fa5d0	0.01753512
210	0xbdd63c60	-0.10460734
211	0x3d47de7c	0.048796162
212	0x3da37c06	0.0798264
213	0x3d89dbc0	0.06731367
214	0xbb89de60	-0.0042074174
215	0xbdaa842e	-0.083259925
216	0xbd9379f2	-0.072009936
217	0x3d9fb02c	0.07797274
218	0x3d294610	0.041326582
219	0x3de4cd70	0.111719966
220	0x3d0f7630	0.03502482
221	0xbbc08ce0	-0.0058761686
222	0xbd646450	-0.055759728
223	0x37ea8000	2.7954578e-05
224	0x3d4b4b00	0.049632072
225	0xbd1bc8bc	-0.038033232
226	0x3dc84a9a	0.09779854
227	0xbdbb0c84	-0.091332465
228	0x3dbdfa30	0.09276235
229	0x3dc64206	0.09680562
230	0x3de69bc2	0.11260177
231	0xbbac0980	-0.005250156
232	0xbd1bb298	-0.038012117
233	0xbdc2245e	-0.09479593
234	0x3d76842c	0.060184643
235	0x3b2c34c0	0.0026276559
236	0xbdff8af6	-0.124776766
237	0x3d1693a4	0.036761895
238	0x3cfcaf68	0.030845359
239	0xbdd00e14	-0.10158935
240	0x3d5ce8a8	0.053932816
241	0xbd8d6174	-0.06903353
242	0x3c4cb1c0	0.012493551
243	0xbdd63d26	-0.10460882
244	0x3df8cda0	0.12148595
245	0x3d1e4a80	0.038645267
246	0x3dad0374	0.08447924
247	0x3dea5d7e	0.114436135
248	0x3b411e80	0.0029467642
249	0x3dc0e50c	0.09418687
250	0x3df98b6a	0.12184794
251	0xbddb3286	-0.10702996
252	0x3d8c9c48	0.06865746
253	0x3cb561f8	0.022141442
254	0x3d4e16d8	0.050314754
255	0xbde685de	-0.11256002

conv2.lin_r.bias f4 [64]
0	0x3d421740	0.047385454
1	0xbdfec5de	-0.12440084
2	0xbdd07b2c	-0.10179743
3	0x3cd4e000	0.025985718
4	0x3dc8d8e8	0.098069966
5	0xbd934ed4	-0.0719277
6	0x3c17f7c0	0.009275377
7	0xbd9419e8	-0.07231504
8	0x3d828a64	0.06374052
9	0x3d201c98	0.03908977
10	0x3da2e654	0.07954088
11	0x3db157f4	0.08659354
12	0xbd8e22f8	-0.069402635
13	0xbc632870	-0.0138646215
14	0xbbafeba0	-0.005368665
15	0xbd52e844	-0.051491037
16	0xbdccf81a	-0.10008259
17	0xbdc7f0de	-0.09762739
18	0xbccc5070	-0.0249407
19	0x3da002a4	0.07813004
20	0x3a833c00	0.0010012388
21	0x3ced9cc0	0.029005408
22	0xbd7e6448	-0.062107354
23	0x3de84a56	0.113423035
24	0x3d9ba94e	0.07600652
25	0x3dc16414	0.094429165
26	0x3c0c1be0	0.008551568
27	0xbdd88810	-0.10572827
28	0xbc843e68	-0.016143039
29	0xbd8cd08e	-0.06875716
30	0xbd830602	-0.0639763
31	0x3d83bed6	0.064328834
32	0x3db738a8	0.08946353
33	0x3d8667cc	0.065627664
34	0xbc27b790	-0.010236636
35	0x3df2cbf2	0.11855306
36	0xbcc75450	-0.024332196
37	0xbd8ffa88	-0.07030207
38	0xbc95b778	-0.018275961
39	0x3d9c84ca	0.07642515
40	0x3daa3ec4	0.08312753
41	0x3d691424	0.056903973
42	0x3dd5c41c	0.104377955
43	0x3d6885bc	0.056768164
44	0x3d9f6a8e	0.077839956
45	0x3dc97130	0.09836042
46	0x3da97c68	0.08275682
47	0x3de2a622	0.110668436
48	0xbd3ed5ac	-0.046590492
49	0xbce341c0	-0.027741313
50	0x3c95f090	0.018303186
51	0x3ca9fba0	0.020749867
52	0xbd7ca76c	-0.061683103
53	0xbdf5e6d4	-0.120069176
54	0x3cdd4038	0.027008161
55	0xbdda86fc	-0.106702775
56	0x3b3d8040	0.0028915554
57	0x3a309b00	0.0006736964
58	0x3db9a390	0.090644
59	0x3dd5a992	0.104327336
60	0x3dad9ae0	0.08476806
61	0xbdd00d8e	-0.10158835
62	0xbd4ec2c8	-0.050478727
63	0x3d87674c	0.06611499

conv2.lin_edge.weight f4 [64, 2]
0	0xbedd2377	-0.4319112
1	0x3dc740e8	0.09729177
2	0xbe77a59a	-0.24184266
3	0xbd416f60	-0.047225356
4	0xbeb2a5a2	-0.34891993
5	0x3c8a9160	0.016915023
6	0xbe1d3358	-0.15351617
7	0xbf25ac55	-0.6471608
8	0xbf168d0b	-0.58808964
9	0xbf209603	-0.627289
10	0x3eb9cd36	0.36289376
11	0x3f1a5f21	0.60301405
12	0x3f195267	0.5989136
13	0x3ea93b2e	0.33052963
14	0xbe4c87a4	-0.19973618
15	0xbe0a5370	-0.13508391
16	0xbe38d898	-0.18051374
17	0xbd74d980	-0.059777737
18	0x3e861168	0.26185155
19	0x3d2a58a0	0.041588426
20	0xbdb91ad0	-0.09038317
21	0xbf1657c0	-0.58727646
22	0x3f05a047	0.5219769
23	0xbed17aa8	-0.40913892
24	0x3ef76d3e	0.48325533
25	0xbed138ff	-0.40863797
26	0x3eb4771a	0.35247117
27	0x3ef60916	0.48053807
28	0xbd9d6880	-0.076859474
29	0x3d76f420	0.06029141
30	0x3f301819	0.6878677
31	0x3f178fb5	0.59203655
32	0xbe9157ea	-0.28387386
33	0xbf0143dd	-0.50494176
34	0x3f1090af	0.5647077
35	0xbe554646	-0.20827588
36	0x3d991838	0.074753225
37	0xbdda7ab8	-0.10667938
38	0xbf1b4b73	-0.60662
39	0x3f08fc9d	0.5351046
40	0x3f199f97	0.6000914
41	0x3f241411	0.6409312
42	0x3f1fccc7	0.6242184
43	0xbec6439e	-0.38723463
44	0xbe8a1984	-0.26972592
45	0xbf2c844f	-0.67389387
46	0x3f31511f	0.69264406
47	0x3ec625ba	0.38700658
48	0x3dd7d878	0.10539335
49	0xbedcc963	-0.43122396
50	0xbf268af3	-0.6505577
51	0x3e8df486	0.2772562
52	0x3e763648	0.24044144
53	0xbe8822d4	-0.26589072
54	0x3f0c2c09	0.5475469
55	0xbf2de76c	-0.67931247
56	0xbecbc33c	-0.3979739
57	0x3cb3cbc0	0.021947742
58	0xbee6a677	-0.45048878
59	0x3e95fb32	0.2929321
60	0x3f153bdf	0.5829448
61	0xbee31923	-0.44355115
62	0xbefa1e08	-0.48851037
63	0x3eceef7a	0.4041708
64	0xbd963680	-0.07334614
65	0x3d8cbd40	0.06872034
66	0x3ef132a2	0.47108942
67	0xbea4969a	-0.3214615
68	0x3d1df600	0.038564682
69	0x3ed6f17e	0.4198112
70	0x3f1f554f	0.62239546
71	0x3e3c77ec	0.18405122
72	0xbe681e1e	-0.22667739
73	0xbe886b8a	-0.26644546
74	0xbf2ba8be	-0.67054355
75	0xbea58ddc	-0.32334793
76	0x3ea920ee	0.33032936
77	0x3ef95f62	0.48705584
78	0x3f0016ad	0.500346
79	0xbec89281	-0.39174274
80	0xbe263918	-0.16232717
81	0xbe6c4946	-0.23074827
82	0xbdb5a388	-0.08869082
83	0xbf0c52aa	-0.54813635
84	0xbefa11c8	-0.4884169
85	0xbe9e84e4	-0.30960763
86	0x3f2399ab	0.63906354
87	0x3ec646ce	0.38725895
88	0xbf0a633a	-0.5405766
89	0x3e22cb8c	0.1589796
90	0xbf00d0d3	-0.5031864
91	0xbf13d941	-0.5775338
92	0xbe30c034	-0.1726082
93	0xbebdf2ed	-0.370994
94	0xbe979de3	-0.29612646
95	0xbeebfc32	-0.46090847
96	0x3dc2fb98	0.09520644
97	0xbf074bad	-0.5284985
98	0xbe0bec00	-0.13664246
99	0x3eac075a	0.3359936
100	0xbf043f8c	-0.51659465
101	0xbef097a4	-0.46990693
102	0x3f0f6767	0.56017154
103	0xbf1bc78d	-0.60851365
104	0xbf275580	-0.6536484
105	0xbe65ef1a	-0.22454491
106	0xbe9e1262	-0.308734
107	0xbf1a127b	-0.6018445
108	0x3e0f407c	0.13989443
109	0xbe91a3f9	-0.28445414
110	0xbefd9d87	-0.49534246
111	0x3e741628	0.23836577
112	0x3e332f78	0.17498577
113	0x3ede59be	0.43427843
114	0x3ea37bae	0.31930298
115	0xbd139fb0	-0.03604096
116	0xbf2461de	-0.64211833
117	0x3f1ed3d7	0.6204199
118	0xbd5551e0	-0.052080035
119	0xbf3217ba	-0.69567454
120	0x3ed0907e	0.4073524
121	0xbefcaeb1	-0.4935203
122	0x3f2ebcf5	0.68257076
123	0x3f25f371	0.6482459
124	0xbf148723	-0.580187
125	0xbf111d67	-0.5668549
126	0xbf1d3fc0	-0.614254
127	0xbe91c036	-0.28466958
