saved_models/edgat1.pt (torch, 42898 bytes, 16 tensors)

conv1.att f4 [1, 1, 64]
0	0xbe1e0fcb	-0.15435712
1	0xbbdb4300	-0.0066913366
2	0xbe89ef14	-0.26940215
3	0xbdb4e2bc	-0.08832309
4	0x3e960e92	0.2930799
5	0x3e7a6a98	0.24454725
6	0xbd900b36	-0.07033388
7	0x3e8b561e	0.2721414
8	0xbdbfb74c	-0.09361133
9	0x3e2ca568	0.16859972
10	0xbe116a36	-0.14200673
11	0x3e4bf344	0.19917017
12	0x3e898b12	0.26863915
13	0xbe380ea6	-0.17974338
14	0xbd6b3418	-0.057422727
15	0xbe46def9	-0.19420995
16	0xbe0bbb5d	-0.13645692
17	0x3e8c8952	0.27448517
18	0x3c931990	0.017956525
19	0x3c9f2550	0.019426972
20	0xbe4c1032	-0.19928053
21	0x3dc20f24	0.09475544
22	0xbde37ff6	-0.11108391
23	0xbe56afb6	-0.20965466
24	0xbe313926	-0.17306957
25	0xbdb9e37a	-0.09076591
26	0xbdb673a6	-0.08908777
27	0xbe645c1a	-0.22300759
28	0xbe32cb55	-0.17460378
29	0xbe7ac228	-0.24488127
30	0xbe177c12	-0.14793423
31	0x3e58b194	0.2116149
32	0xbe3c10ec	-0.1836583
33	0xbd9b1bfe	-0.075736985
34	0xbe933c18	-0.28756785
35	0xbe544209	-0.20728315
36	0x3cc30aa0	0.023808777
37	0xbd13f420	-0.036121488
38	0x3d7590b8	0.059952468
39	0xbdaa6d58	-0.08321637
40	0xbd262aa0	-0.040567994
41	0x3d06f2a8	0.03294626
42	0x3c66b940	0.014082253
43	0x3cf2fbf0	0.029661149
44	0x3e8537d2	0.2601915
45	0xbe752f3b	-0.23943798
46	0x3df5d884	0.12004188
47	0x3e2a6882	0.16641429
48	0xbe55e58c	-0.20888346
49	0x3e603b58	0.21897638
50	0x3e945ad8	0.28975558
51	0xbe946524	-0.28983414
52	0x3e121190	0.14264512
53	0xbe3679d6	-0.17819914
54	0x3dc15adc	0.09441158
55	0x3e54bf14	0.20776016
56	0xbc4e0ee0	-0.012576789
57	0x3dec7bd0	0.11547053
58	0xbe82a24d	-0.2551445
59	0x3df7c6b4	0.120984465
60	0x3e893eee	0.26805824
61	0xbc954860	-0.018222988
62	0x3e79d830	0.24398875
63	0xbe213b9e	-0.15745398

conv1.bias f4 [64]
0	0xbc803150	-0.015648514
1	0x00000000	0.0
2	0xbdff3e86	-0.12463097
3	0x3d5a48cf	0.053292092
4	0xbd5b4677	-0.053533997
5	0x3d326920	0.043557286
6	0x00000000	0.0
7	0xbd99a819	-0.07502765
8	0xbd181ef6	-0.0371389
9	0xbd10a558	-0.035313934
10	0xbd791553	-0.060811352
11	0x3c5d7ab1	0.013518021
12	0xbd7349d7	-0.05939659
13	0x3ca31344	0.019906648
14	0x00000000	0.0
15	0xbe22b4a3	-0.1588922
16	0xbddfc74e	-0.10926686
17	0xbd347752	-0.044059105
18	0xbc914f9c	-0.017738156
19	0xbd4981d4	-0.04919608
20	0x00000000	0.0
21	0xbd898671	-0.06715096
22	0xbd0def78	-0.034652203
23	0xbd2234a2	-0.039600976
24	0xbd5152e2	-0.051104434
25	0xbc807864	-0.015682407
26	0x3b9ae58e	0.004727072
27	0xbd68aabb	-0.056803446
28	0xbd96590a	-0.073412016
29	0xbd25c6c5	-0.040472765
30	0xbd88bd15	-0.066766895
31	0xbd8ef196	-0.069796726
32	0x00000000	0.0
33	0xbcb87387	-0.022516025
34	0xbd95d805	-0.07316593
35	0xbd5ab0f3	-0.05339141
36	0xbe030e90	-0.12798524
37	0x3aa1747d	0.0012318041
38	0xbd351e8a	-0.044218577
39	0x00000000	0.0
40	0xbce507ea	-0.027957875
41	0xbc7a78b4	-0.015287567
42	0xbdd1216d	-0.102114536
43	0xbd84430c	-0.06458101
44	0xbda3af08	-0.07992369
45	0x3b994ba3	0.004678206
46	0xbd613d7d	-0.05499028
47	0x00000000	0.0
48	0xbca405b0	-0.020022243
49	0xbd09c767	-0.03363743
50	0xbd0ea4f8	-0.034825295
51	0xbcddf5f0	-0.027094811
52	0x00000000	0.0
53	0xbd9b69b8	-0.075885236
54	0x00000000	0.0
55	0xbc8911af	-0.016732065
56	0xbe9a3729	-0.3012021
57	0xbcb72d82	-0.022360567
58	0x00000000	0.0
59	0xbd18c3a1	-0.03729594
60	0xbd05be52	-0.032652207
61	0xbe28d150	-0.16486096
62	0xbd1dfd1b	-0.03857146
63	0xbd5d420d	-0.05401807

conv1.lin_l.weight f4 [64, 4]
0	0xbeffea15	-0.49983278
1	0xbe86165f	-0.26188943
2	0x3c89ad13	0.016806161
3	0xbe624722	-0.22097448
4	0xbe73b40c	-0.23799151
5	0xbd960548	-0.07325226
6	0x3c47f0c0	0.012203395
7	0xbe28dee8	-0.16491282
8	0xbead5336	-0.33852547
9	0x3e2baf15	0.16766007
10	0xbd12e700	-0.03586483
11	0x3ea56562	0.3230391
12	0xbecd7fa4	-0.40136445
13	0x3f03065c	0.5118158
14	0xbe33cbbe	-0.1755819
15	0x3d2c7d42	0.042111643
16	0xbeac693d	-0.3367404
17	0x3e27ce02	0.1638718
18	0xbdb7bfdd	-0.08972142
19	0x3e07871a	0.13235131
20	0xbecba459	-0.39773825
21	0xbec7a286	-0.38991183
22	0xbecce485	-0.40018097
23	0x3e913624	0.2836162
24	0xbe8291c8	-0.25501847
25	0xbb114400	-0.0022165775
26	0x3c463900	0.012098551
27	0xbe1fd9a0	-0.15610361
28	0x3e63a44c	0.22230643
29	0xbe91cba9	-0.28475693
30	0x3e0362b5	0.12830622
31	0x3e8667e7	0.26251146
32	0x3e68345f	0.22676228
33	0x3cfc9c02	0.03083611
34	0xbe820ebb	-0.25401863
35	0x3e2c717d	0.16840167
36	0x3c55b860	0.013044447
37	0x3e0ec282	0.13941386
38	0x3e9af7a4	0.3026706
39	0xbe75b44b	-0.23994558
40	0x3eb7bf32	0.35888058
41	0x3e058db4	0.13042337
42	0xbee9277b	-0.45537934
43	0x3de2ba5c	0.110707015
44	0xbb224d61	-0.002476536
45	0xbefa30e9	-0.4886544
46	0x3e098f34	0.13433534
47	0xbee34b6c	-0.4439348
48	0xbc837899	-0.016048716
49	0x3e38087c	0.17971987
50	0x3e2edf67	0.17077409
51	0x3ee6e75c	0.45098388
52	0x3e5cd4ce	0.21565554
53	0x3d7bcfc7	0.06147745
54	0x3c87b435	0.016565422
55	0xbef1dbff	-0.47238156
56	0x3e696b38	0.22794807
57	0xbe69ad14	-0.2281993
58	0xbc1fbe40	-0.009749949
59	0xbe80e1fe	-0.25172418
60	0xbeb2a57f	-0.34891888
61	0xbe4a6a7b	-0.19767182
62	0x3e601777	0.21883951
63	0x3e99a6b3	0.30009994
64	0x3e910f4f	0.28331992
65	0x3e31c590	0.1736052
66	0x3ea960ff	0.33081815
67	0xbf084d8e	-0.5324334
68	0x3e29e352	0.16590622
69	0x3e792b86	0.24333009
70	0xbe375e08	-0.17906964
71	0x3ecbabef	0.39779612
72	0x3ddbb0cf	0.10727083
73	0xbe8a8d61	-0.2706099
74	0xbdf35c95	-0.11882893
75	0x3e0d7560	0.13814306
76	0x3de82c00	0.11336517
77	0xbe0dc7ba	-0.13845721
78	0x3d28499b	0.04108582
79	0x3eade3a2	0.33962733
80	0x3e8bdff8	0.27319312
81	0xbe956cb4	-0.29184496
82	0xbdb32788	-0.08747774
83	0xbe98e352	-0.29860932
84	0x3e216c74	0.15764028
85	0xbd20f278	-0.039293736
86	0xbee7f7c3	-0.45306215
87	0x3e086494	0.13319618
88	0xbda5fd6f	-0.08104979
89	0x3e7ecbbe	0.24882409
90	0xbc296443	-0.010338846
91	0x3e1662c3	0.14686112
92	0x3e8362ce	0.2566132
93	0x3e454e5a	0.1926817
94	0xbdfef8b2	-0.124497786
95	0x3ec9553b	0.39322838
96	0xbee0272b	-0.43779883
97	0x3e86f338	0.26357436
98	0xbf04be66	-0.51853025
99	0x3e535632	0.2063835
100	0xbe633eb3	-0.22191887
101	0x3e452a23	0.19254355
102	0x3e9eee97	0.31041405
103	0x3e9051ab	0.28187308
104	0x3e68f008	0.22747815
105	0x3e936d5e	0.28794378
106	0xbe5248ef	-0.20535634
107	0xbece3ccc	-0.4028076
108	0xbe05ee8a	-0.13079277
109	0xbe05a51a	-0.13051262
110	0x3eb8a3b9	0.3606241
111	0xbd491625	-0.049093384
112	0x3cca44b7	0.024690969
113	0x3e5a6ad6	0.21329817
114	0xbdbf2d22	-0.0933478
115	0x3db5919a	0.08865662
116	0x3e41223c	0.18860716
117	0x3edaf3a3	0.42764005
118	0xbdd1c2d2	-0.10242237
119	0xbe960b63	-0.29305562
120	0x3edf7af0	0.4364848
121	0x3e9e198e	0.30878872
122	0xbdcad419	-0.09903736
123	0xbe7c6f4d	-0.24651833
124	0xbef67c9d	-0.48141947
125	0xbe21a017	-0.15783726
126	0x3e7b52c9	0.24543299
127	0x3e3b259c	0.18276066
128	0xbeafcf52	-0.3433786
129	0xbeb5d2f8	-0.3551252
130	0xbe6b81f0	-0.22998786
131	0xbd1ad8e0	-0.037804484
132	0x3e218943	0.15775017
133	0xbee238d3	-0.44183978
134	0x3ea9e6d5	0.33183923
135	0x3ea78b25	0.32723346
136	0xbe7d76ab	-0.247523
137	0xbe6310d8	-0.22174394
138	0xbf160291	-0.58597666
139	0x3eb231e7	0.34803697
140	0xbe4d98c9	-0.20077814
141	0x3eaeef26	0.3416683
142	0xbed509d8	-0.41609073
143	0x3eb7f3bd	0.35928145
144	0xbe6c147c	-0.23054689
145	0x3e0ca05a	0.13733044
146	0xbcb662fe	-0.022264
147	0x3e8a16c4	0.26970494
148	0xbe61b06d	-0.22039957
149	0x3edd633b	0.4323977
150	0xbe1a3c64	-0.150621
151	0x3ec7bd15	0.39011446
152	0x3e9b0cd7	0.30283234
153	0xbe598a51	-0.2124417
154	0x3ebe909f	0.37219712
155	0xbe45fc52	-0.19334534
156	0xbed4810e	-0.4150471
157	0xbd332500	-0.043736458
158	0xbb791600	-0.0038007498
159	0xbe491d38	-0.19640052
160	0xbeb1204d	-0.34594956
161	0x3ee0832d	0.4385008
162	0x3bf83738	0.007574942
163	0x3e0687b5	0.13137706
164	0xbd9384a7	-0.07203036
165	0x3ed4a920	0.41535282
166	0xbeaaa61a	-0.3332985
167	0x3dad88fb	0.084733926
168	0xbea41533	-0.32047424
169	0x3ebab6c0	0.36467552
170	0xbda55507	-0.08072858
171	0x3ead9a38	0.33906722
172	0xbdce342a	-0.10068543
173	0xbdbe074f	-0.09278738
174	0x3ec8d0d6	0.3922183
175	0xbec3f0ef	-0.38269755
176	0x3c1d9e3a	0.009620244
177	0xbd740a1f	-0.059579965
178	0x3ea57f84	0.3232385
179	0x3b12eaa1	0.0022417682
180	0xbe4251eb	-0.18976562
181	0x3e5433ef	0.20722936
182	0x3ee134da	0.43985635
183	0xbe34f4af	-0.17671464
184	0xbdc9b5c4	-0.09849122
185	0xbd90a467	-0.07062607
186	0x3ec9d4c9	0.39420155
187	0x3eb3518e	0.3502316
188	0xbcf9a320	-0.030473292
189	0xbe1a5a98	-0.15073621
190	0xbe95c8c6	-0.2925474
191	0xbe8aa834	-0.27081454
192	0x3e046e75	0.12932761
193	0xbe384b09	-0.17997374
194	0x3d92a0a9	0.0715955
195	0xbeb01c19	-0.34396437
196	0x3edd7706	0.4325487
197	0xbd3b2168	-0.045686156
198	0xbd133447	-0.035938527
199	0x3e075d81	0.13219263
200	0x3e8ec99d	0.27888194
201	0xbd8058ec	-0.062669605
202	0xbe1c2d7a	-0.15251723
203	0xbd004f81	-0.03132582
204	0xbef92356	-0.48659772
205	0xbeb6586b	-0.35614333
206	0xbeaf4c2f	-0.3423781
207	0x3ef8b7c0	0.4857769
208	0x3b95b380	0.004568517
209	0xbda87208	-0.08224875
210	0xbbae2b80	-0.005315244
211	0xbee5ce64	-0.44884026
212	0x3e42301b	0.18963663
213	0xbef971dc	-0.4871968
214	0x3eda755f	0.42667672
215	0xbe14dd10	-0.14537454
216	0xbead7b34	-0.3388306
217	0x3e27d160	0.16388464
218	0xbec4f48a	-0.38467818
219	0xbefa1b0c	-0.4884876
220	0x3e6a959c	0.22908634
221	0xbefd76b4	-0.49504626
222	0x3e266415	0.16249116
223	0xbe44a28b	-0.1920263
224	0xbe3283e8	-0.1743313
225	0xbe1bf7f7	-0.1523131
226	0x3dbec6ce	0.09315263
227	0x3cb07ac9	0.021542924
228	0xbf10adf6	-0.56515443
229	0xbecc857a	-0.39945585
230	0x3e461ed2	0.19347695
231	0xbea77543	-0.3270665
232	0x3dce4c20	0.100731134
233	0xbe097644	-0.13424021
234	0xbee7dbdc	-0.45284927
235	0xbdce6528	-0.10077888
236	0x3eb889c2	0.360426
237	0x3e007085	0.12542923
238	0x3e82e815	0.2556769
239	0x3ece3ac1	0.402792
240	0x3da3d066	0.07998733
241	0x3dec93de	0.11551641
242	0xbf035fd4	-0.513181
243	0x3dbc3c34	0.0919117
244	0xbda724ba	-0.08161302
245	0x3e812539	0.2522371
246	0x3d9910cb	0.07473906
247	0x3e7e5654	0.24837619
248	0xbade7cdd	-0.0016974468
249	0xbecc16be	-0.398611
250	0x3e1c93ba	0.15290728
251	0x3ea630ba	0.3245905
252	0x3e9399f3	0.2882839
253	0xbe8e2148	-0.27759767
254	0xbe65e1cb	-0.22449414
255	0x3e948c93	0.290135

conv1.lin_l.bias f4 [64]
0	0x3dd030f4	0.10165587
1	0xbe2c76b4	-0.16842157
2	0x3e868c69	0.26279
3	0xbe59ad74	-0.21257573
4	0xbef580e6	-0.47949904
5	0xbea394c5	-0.3194944
6	0xbe89e7e6	-0.26934737
7	0x3e80b561	0.2513838
8	0xbe86528b	-0.2623485
9	0xbe1d40d8	-0.15356767
10	0x3e29aad0	0.16569066
11	0xbe27eb2b	-0.16398303
12	0xbec0e0be	-0.37671465
13	0x3e15560b	0.14583604
14	0xbe347b24	-0.176251
15	0x3dd5339d	0.10410235
16	0x3e92e1b2	0.28687817
17	0xbdb31cd1	-0.08745731
18	0x3e6a398f	0.2287352
19	0xbed56ed3	-0.41686115
20	0xbc0d7680	-0.00863421
21	0xbdccaf54	-0.09994379
22	0xbe9b6e22	-0.30357462
23	0xbcb66372	-0.022264216
24	0x3e00eea3	0.12591033
25	0x3bbf494b	0.0058375946
26	0xbefbff2e	-0.49218124
27	0x3e09e620	0.13466692
28	0x3d9b4837	0.07582133
29	0x3e8abf9b	0.27099308
30	0xbc9fbf5c	-0.019500427
31	0xbf04bcdf	-0.51850694
32	0xbed20f10	-0.41027117
33	0xbda5b3a4	-0.08090904
34	0xbea2387c	-0.3168372
35	0xbe1eee5a	-0.15520611
36	0x3e567f70	0.20947051
37	0x3e2064f4	0.1566351
38	0xbe99fa90	-0.30073977
39	0x3d1a0b40	0.037608385
40	0xbe98c475	-0.29837385
41	0xbe864859	-0.26227072
42	0xbf0b4473	-0.5440132
43	0x3daf2684	0.08552268
44	0xbf0e47f2	-0.5557853
45	0xbed19a0f	-0.4093785
46	0xbe700f06	-0.23443231
47	0xbe234b2c	-0.15946645
48	0x3e5c09c9	0.21488108
49	0x3d9a4354	0.07532373
50	0x3e974243	0.2954274
51	0x3eea6476	0.4577977
52	0x3e8782fc	0.2646712
53	0xbb11430b	-0.0022165205
54	0xbeb87b34	-0.36031497
55	0x3ea9df7d	0.3317832
56	0xbdbcbe7c	-0.092160195
57	0x3d6dcd89	0.05805734
58	0x3e85366e	0.2601809
59	0xbe3f6548	-0.1869098
60	0x3ecd46c2	0.40093046
61	0xbdba38d5	-0.09092871
62	0xbd89f9b9	-0.06737084
63	0xbefef50b	-0.49796328

conv1.lin_r.weight f4 [64, 4]
0	0x3ef3a5aa	0.4758733
1	0xbef7f23a	-0.48426992
2	0x3edf4de2	0.43614107
3	0x3e5be5b4	0.21474344
4	0xbe9ab848	-0.3021872
5	0xbe58b748	-0.21163666
6	0xbe832bc4	-0.25619328
7	0xbd8087d8	-0.0627591
8	0xbe778c7c	-0.24174684
9	0xbde481a8	-0.111575425
10	0x3ea7ec10	0.3279729
11	0xbe8409aa	-0.25788623
12	0x3df334c8	0.118753016
13	0xbeebfd4e	-0.46091694
14	0xbe701fa8	-0.23449576
15	0xbe09f488	-0.13472188
16	0x3dbed960	0.09318805
17	0x3ec8041c	0.39065635
18	0x3e989ee0	0.29808712
19	0x3ecce14a	0.40015632
20	0x3ef3ea62	0.47639757
21	0xbe3b0a38	-0.18265617
22	0xbd2e3880	-0.04253435
23	0xbd84f5b8	-0.0649218
24	0x3e9e9c12	0.30978447
25	0x3df3e038	0.11908001
26	0x3df8fa10	0.12157071
27	0x3e93e050	0.28882074
28	0x3ef7961a	0.48356706
29	0x3edda8ec	0.4329294
30	0x3ed00b3a	0.40633565
31	0xbefd581a	-0.4948128
32	0x3e8247de	0.25445455
33	0xbe59fafc	-0.21287149
34	0x3de443b0	0.11145723
35	0x3e89d2d2	0.26918656
36	0x3e6ce1c8	0.23133004
37	0xbea05f42	-0.31322676
38	0x3db4d280	0.08829212
39	0x3efbfff4	0.49218714
40	0x3ec08d28	0.37607694
41	0x3e89d420	0.2691965
42	0x3e428efc	0.18999857
43	0xbdf32920	-0.11873078
44	0x3e556f14	0.20843154
45	0x3eff0662	0.49809557
46	0xbe024d98	-0.12724912
47	0xbeae8d4c	-0.34092176
48	0x3e7f4858	0.2492994
49	0x3e398904	0.18118674
50	0x3e8b2a0e	0.27180523
51	0x3dc2ecd8	0.095178306
52	0x3e83f414	0.25772154
53	0xbe702ecc	-0.23455352
54	0xbe6c9f10	-0.23107553
55	0xbec6ff5c	-0.388667
56	0xbcd6a840	-0.026203275
57	0x3dc807e0	0.09767127
58	0xbe0fc1b8	-0.14038742
59	0x3eacd612	0.33757073
60	0xbee1b364	-0.44082177
61	0x3e96a71c	0.2942437
62	0xbeaa4fb2	-0.33263928
63	0x3efe0ec8	0.49620652
64	0xbdff62e8	-0.12470037
65	0xbe0c2748	-0.1368686
66	0x3d7237f0	0.059135377
67	0xbeaee306	-0.3415758
68	0x3e506d80	0.20354271
69	0xbe7c2f34	-0.24627382
70	0x3e9bdaec	0.30440462
71	0x3e1f31ac	0.15546292
72	0xbee25f1a	-0.44213182
73	0xbdce72a8	-0.10080463
74	0x3daae978	0.08345312
75	0xbe288bdc	-0.16459602
76	0x3dbc32f8	0.09189409
77	0x3eb75b38	0.35811782
78	0xbde4cef0	-0.11172283
79	0xbd0a75a0	-0.033803582
80	0xbeee329e	-0.46522993
81	0xbefc56e2	-0.49285036
82	0xbe12f5d4	-0.14351588
83	0xbe1a9040	-0.1509409
84	0x3e1c7f98	0.15283048
85	0x3e0f3090	0.13983369
86	0xbe804bc0	-0.25057793
87	0xbee35490	-0.44400454
88	0xbe5ea1a8	-0.21741354
89	0xbed6ef02	-0.41979223
90	0xbe6b6aa0	-0.22989893
91	0x3e564e40	0.20928288
92	0x3e2f1e20	0.17101336
93	0xbeab6186	-0.33472842
94	0x3cb53020	0.022117674
95	0xbee51924	-0.44745743
96	0x3e98bf7c	0.2983359
97	0x3ef7c6ca	0.48393852
98	0x3e5296e4	0.20565373
99	0xbe8e8d22	-0.2784205
100	0x3ef24cf8	0.47324347
101	0x3e03d168	0.12872851
102	0x3d3bebc0	0.045879126
103	0x3dadd978	0.084887445
104	0x3ecb0c5a	0.3965786
105	0x3e8b6110	0.2722249
106	0x3e8d6590	0.2761655
107	0xbec55cbc	-0.38547313
108	0x3efb176c	0.49041307
109	0x3df58f80	0.11990261
110	0x3eced8ee	0.4039988
111	0xbd98b7c0	-0.074569225
112	0xbea37088	-0.31921792
113	0x3905a000	0.00012743473
114	0x3e546458	0.20741403
115	0x3c074d00	0.008258104
116	0xbe07698c	-0.13223857
117	0xbef94676	-0.4868657
118	0x3e11cddc	0.14238685
119	0xbde9b600	-0.11411667
120	0xbe489c64	-0.19590908
121	0xbde7bae8	-0.113149464
122	0xbe127050	-0.14300656
123	0x3e2d1ae4	0.16904789
124	0x3e0066c0	0.12539196
125	0xbe23fbf0	-0.16014075
126	0xbc4a9b40	-0.012366116
127	0x3e6ad7fc	0.22933954
128	0x3cc4d8a0	0.024029076
129	0x3e88bf32	0.2670837
130	0x3d504b20	0.050852895
131	0x3e9c98d4	0.3058535
132	0xbe45d244	-0.19318491
133	0x3cef3620	0.029200613
134	0x3e4d0004	0.20019537
135	0xbe0b4e5c	-0.1360411
136	0xbe1a45bc	-0.15065664
137	0x3eb57ee6	0.35448378
138	0xbebca2b6	-0.3684289
139	0x3e0ae7d8	0.13565004
140	0x3e0a7b04	0.13523489
141	0x3df76900	0.12080574
142	0x3eea4de4	0.4576255
143	0x3ed49488	0.4151957
144	0xbebe7e60	-0.3720579
145	0x3eb46d6a	0.35239726
146	0xbcab4380	-0.02090621
147	0xbefc5ab2	-0.49287945
148	0xbe72f468	-0.23726046
149	0xbed48fde	-0.41516012
150	0xbe68b0d0	-0.22723699
151	0x3e9e0832	0.30865628
152	0xbd348650	-0.044073403
153	0xbea43cba	-0.3207758
154	0xbed15d26	-0.4089138
155	0xbd60d180	-0.054887295
156	0x3dba0a68	0.09084016
157	0xbe282fdc	-0.16424507
158	0x3e1cfbac	0.1533038
159	0x3e94be88	0.29051614
160	0x3e70fb04	0.23533255
161	0xbe3dba2c	-0.1852805
162	0xbecc152a	-0.39859897
163	0x3e6a5c6c	0.22886819
164	0x3e3f79a4	0.18698746
165	0xbddb7618	-0.10715884
166	0x3ed0a8ba	0.40753728
167	0xbe2e241c	-0.17005962
168	0xbefc5a78	-0.49287772
169	0x3ebd1a8c	0.36934316
170	0xbdd778a8	-0.1052106
171	0x3edae83e	0.42755312
172	0xbe154cb8	-0.14580047
173	0x3ed51840	0.41620064
174	0xbdd36d90	-0.10323632
175	0x3e332640	0.1749506
176	0x3d12e080	0.03585863
177	0xbc24cec0	-0.010059059
178	0xbd4b8d60	-0.049695373
179	0x3e43aa80	0.1910801
180	0x3edb31fe	0.4281158
181	0x3ee82cc4	0.45346653
182	0xbecea1d8	-0.40357852
183	0xbec5a90e	-0.3860554
184	0xbe84d938	-0.25946975
185	0x3e0185ec	0.12648743
186	0xbd518260	-0.051149726
187	0xbc3da3c0	-0.011574686
188	0xbe6f95a4	-0.23396927
189	0x3d910fd0	0.07083094
190	0x3ebd6930	0.36994314
191	0xbcc03b00	-0.023465633
192	0xbe534a08	-0.2063371
193	0x3eb2af2c	0.3489927
194	0xbeeb0076	-0.4589879
195	0x3ea57172	0.32313114
196	0x3e96d888	0.29462075
197	0xbef8c502	-0.48587805
198	0x3e9afd0a	0.30271178
199	0x3ea11064	0.31457818
200	0x3eed8058	0.4638698
201	0x3da79c08	0.081840575
202	0xbe5fc660	-0.21853018
203	0xbe6e0bc4	-0.23246676
204	0x3eddd4c8	0.43326402
205	0xbddcf9c8	-0.107898295
206	0xbe5fe324	-0.21863991
207	0x3e40d644	0.18831736
208	0xbe95c3d8	-0.2925098
209	0xbed75080	-0.42053604
210	0xbed761a6	-0.42066687
211	0x3dabacb8	0.08382553
212	0x3eee6f78	0.4656942
213	0xbe926db0	-0.2859931
214	0xbec7a910	-0.38996172
215	0xbe7c26f4	-0.24624234
216	0x3e44179c	0.19149631
217	0x3edbe148	0.42945313
218	0x3ecd0fcc	0.40051115
219	0xbe3c4c08	-0.18388379
220	0x3ef130f8	0.47107673
221	0x3997c800	0.00028949976
222	0x3efc5f98	0.49291682
223	0x3e6a5518	0.22884023
224	0xbee0b9aa	-0.4389165
225	0x3c44e340	0.012017071
226	0xbe622f24	-0.22088295
227	0x3dc409a8	0.09572154
228	0xbe8b2750	-0.2717843
229	0xbe937a08	-0.2880404
230	0x3eb9aaf6	0.36263245
231	0x3ef57e0c	0.4794773
232	0xbd3acc30	-0.045604885
233	0x3e8beb0c	0.27327764
234	0xbef9f062	-0.4881621
235	0x3e9617aa	0.2931493
236	0x3ddaf590	0.106913686
237	0x3e65d4cc	0.22444457
238	0xbef10974	-0.47077525
239	0x3e882af6	0.26595277
240	0x3b9c2c00	0.0047659874
241	0x3ee44bca	0.44589072
242	0x3e75d810	0.24008203
243	0x3e59b158	0.21259058
244	0xbedb78b2	-0.4286552
245	0x3e9aac76	0.30209702
246	0xbecde26c	-0.4021181
247	0x3eaea874	0.34112895
248	0xbe51dd30	-0.20494533
249	0xbca333a0	-0.019922078
250	0xbcfdbe80	-0.030974627
251	0x3ee7b466	0.4525482
252	0xbe79d70c	-0.2439844
253	0xbe31e014	-0.17370635
254	0xbecab862	-0.39593798
255	0x3e904828	0.2818005

conv1.lin_r.bias f4 [64]
0	0x3eeaa134	0.45826113
1	0xbdb98bb8	-0.09059852
2	0x3ea8c242	0.32960707
3	0xbef1b7d8	-0.47210574
4	0xbc9018c0	-0.017589927
5	0x3db16e58	0.086636245
6	0xbeff1e86	-0.49827975
7	0xbe07b64c	-0.13253134
8	0x3c76a7c0	0.015054643
9	0x3eb4e1e2	0.35328585
10	0x3d5fe750	0.054663956
11	0x3cf9e9c0	0.030506968
12	0xbe325d68	-0.17418444
13	0x3ef21fd4	0.47289908
14	0xbc9ba5e0	-0.018999994
15	0xbe576510	-0.21034646
16	0x3e853ba8	0.26022077
17	0x3e84c5e4	0.2593223
18	0x3efca506	0.49344653
19	0xbd494b00	-0.04914379
20	0x3ef5f3b6	0.480375
21	0xbe8a1886	-0.26971835
22	0xbe98b410	-0.29824877
23	0xbecbca86	-0.3980295
24	0xbd3ebb30	-0.046565235
25	0x3e593218	0.21210515
26	0xbe892a5e	-0.26790136
27	0x3e746c14	0.23869354
28	0xbe9874ba	-0.29776555
29	0xbe21ef30	-0.15813899
30	0xbe68c85c	-0.22732681
31	0xbd9fad90	-0.07796776
32	0xbe196d54	-0.14983112
33	0xbec849a0	-0.3911867
34	0xbdfa4880	-0.122208595
35	0x3daee010	0.0853883
36	0x3daf1e48	0.085506976
37	0x3e758488	0.23976338
38	0x3e571c04	0.21006781
39	0xbebd79fc	-0.3700713
40	0xbef98024	-0.48730576
41	0xbdb6e6e0	-0.08930755
42	0x3ea0c9ec	0.31404054
43	0xbeb5f65e	-0.35539526
44	0x3dad5650	0.084637284
45	0x3efb8c6a	0.49130565
46	0x3ef78aac	0.48347986
47	0x3e1fdb1c	0.15610927
48	0x3e0326c4	0.12807757
49	0x3e21a5b8	0.15785873
50	0xbeb430a6	-0.35193366
51	0xbeb4ea76	-0.3533513
52	0xbef3d9b0	-0.4762702
53	0x3eba7de4	0.36424172
54	0xbefb8a34	-0.49128878
55	0xbbab1780	-0.0052213073
56	0x3eda7118	0.4266441
57	0xbad1cc00	-0.0016006231
58	0x3ebb5eba	0.36595708
59	0xbdac0fb8	-0.084014356
60	0x3e9f9f66	0.311763
61	0x3e80c554	0.2515055
62	0x3e2131b8	0.15741622
63	0x3e98d19a	0.29847413

conv1.lin_edge.weight f4 [64, 2]
0	0x3e6f850c	0.23390597
1	0xbe6ea1a6	-0.23303851
2	0xbd4a42a0	-0.049379945
3	0xbe190854	-0.14944583
4	0x3e3b7554	0.18306476
5	0xbf09a9dd	-0.53774816
6	0xbe6b0aca	-0.22953334
7	0x3e705b08	0.23472226
8	0xbeacf991	-0.33784154
9	0x3f0ebd39	0.5575748
10	0x3eb72346	0.357691
11	0x3c069640	0.008214533
12	0x3f2765ed	0.653899
13	0x3f0c0a6d	0.5470341
14	0xbe9c5397	-0.30532524
15	0x3e9bd1ca	0.30433494
16	0xbeda8b8c	-0.4268459
17	0x3eddc036	0.43310708
18	0x3dd3ac30	0.103355765
19	0x3d193bd0	0.037410557
20	0xbea15410	-0.31509447
21	0x3f0d75ad	0.55257684
22	0xbe55717a	-0.20844069
23	0xbec84664	-0.39116204
24	0xbe9ea004	-0.30981457
25	0x3ea82c02	0.32846075
26	0x3bba0f80	0.0056781173
27	0xbf138ea3	-0.5763952
28	0xbf31cca9	-0.6945291
29	0xbf112313	-0.56694144
30	0x3dcabd28	0.0989936
31	0x3f31551b	0.69270486
32	0xbf07fb86	-0.5311817
33	0x3f055c87	0.5209431
34	0x3f0626d9	0.52403027
35	0xbee4bb6a	-0.44674236
36	0xbf149088	-0.5803304
37	0xbef8de33	-0.48607025
38	0xbe827263	-0.25477895
39	0xbf0a724d	-0.5408066
40	0xbe880f7c	-0.26574314
41	0xbeb9ad68	-0.3626511
42	0xbf2f403d	-0.68457395
43	0x3f20c8a9	0.62806183
44	0xbda69728	-0.081342995
45	0xbeb6d067	-0.35705873
46	0xbf336f00	-0.7009125
47	0xbe396684	-0.18105513
48	0xbf328811	-0.6973887
49	0x3e803de8	0.2504723
50	0x3beae600	0.0071685314
51	0x3f04bbd9	0.5184913
52	0xbc818200	-0.01580906
53	0xbe00406c	-0.12524575
54	0xbecf4605	-0.40483108
55	0xbf236bc3	-0.63836306
56	0xbef8a6e4	-0.48564827
57	0xbf0e4c6a	-0.5558535
58	0xbf20fda1	-0.62887007
59	0xbea51264	-0.32240593
60	0xbf3092ec	-0.68974185
61	0xbf0ff394	-0.56231046
62	0xbc8869e0	-0.016652048
63	0x3f2df723	0.67955226
64	0xbece1f17	-0.40258095
65	0x3ea72606	0.32646197
66	0x3c382e80	0.011241555
67	0xbf17d8c4	-0.59315133
68	0x3ed9b706	0.42522448
69	0x3f065bfb	0.524841
70	0x3da60e60	0.081082106
71	0xbdf395a8	-0.11893779
72	0xbf34fe7c	-0.7070081
73	0x3f10a113	0.5649578
74	0xbe7f71f0	-0.24945807
75	0xbe5d999c	-0.21640629
76	0xbea82e16	-0.3284766
77	0xbe5a1422	-0.21296743
78	0xbecff0db	-0.40613446
79	0xbe41f798	-0.18942106
80	0xbb35b900	-0.0027728677
81	0xbf1e0853	-0.6173145
82	0xbf0407fb	-0.5157468
83	0x3ec13e86	0.37743014
84	0xbec791d6	-0.38978451
85	0x3f0d950f	0.5530557
86	0x3f025135	0.5090516
87	0x3f0478b5	0.51746684
88	0xbdcd72b0	-0.100316405
89	0x3e1c1514	0.15242416
90	0xbf02a316	-0.510301
91	0x3eef8b36	0.46785897
92	0xbebbd466	-0.36685485
93	0xbe416d3c	-0.18889326
94	0xbf2bcfc8	-0.67113924
95	0xbe8e48ac	-0.2778982
96	0xbccc15e0	-0.024912775
97	0x3e47cc48	0.19511521
98	0x39c5e800	0.00037747622
99	0x3e9ef99a	0.31049806
100	0x3f252f67	0.64525455
101	0x3e1cb878	0.15304744
102	0x3dc39110	0.09549153
103	0xbf320cc0	-0.69550705
104	0xbea73d92	-0.32664162
105	0x3f0d33a9	0.5515695
106	0x3e07d8ec	0.13266343
107	0xbe5e0e64	-0.21685177
108	0xbe3ac9a0	-0.18240976
109	0x3e8e007e	0.2773475
110	0x3ea3851e	0.31937498
111	0x3f29c3b3	0.6631424
112	0xbdcd4808	-0.100235045
113	0x3ef990b2	0.48743206
114	0xbdd07f98	-0.101805866
115	0xbf24da3b	-0.64395493
116	0x3e8dbd5c	0.27683532
117	0xbf25980e	-0.6468514
118	0x3f339a0b	0.70156926
119	0xbed3add6	-0.41343564
120	0x3ece3856	0.40277356
121	0x3db4c018	0.088257015
122	0xbce8a820	-0.02840048
123	0xbee94834	-0.455629
124	0x3f31e82b	0.69494885
125	0xbed966f0	-0.42461348
126	0x3e902718	0.28154826
127	0xbdb16e80	-0.08663654

conv2.att f4 [1, 1, 64]
0	0x3d961a1c	0.07329199
1	0xbcd39c40	-0.025831342
2	0x3e7af494	0.24507362
3	0x3dd14864	0.102188855
4	0xbe420580	-0.1894741
5	0x3dc93614	0.09824768
6	0x3c312ae0	0.010813445
7	0xbe904b1b	-0.281823
8	0x3e837d76	0.25681657
9	0x3d2b12e0	0.041766047
10	0x3e66fe58	0.22557962
11	0x3e003608	0.12520611
12	0xbe4b5ee2	-0.19860414
13	0xbc9eb270	-0.019372195
14	0x3c5a50e0	0.013324946
15	0x3e502cc0	0.20329571
16	0x3db3bba0	0.08776021
17	0xbc9b4ab0	-0.018956512
18	0x3e147afe	0.14500043
19	0xbe228bcb	-0.1587364
20	0xbd7796e4	-0.060446635
21	0xbe64d519	-0.22346915
22	0x3d7180c0	0.058960676
23	0x3e4f61fc	0.20252222
24	0xbe29daff	-0.16587447
25	0x3e68e9e4	0.22745472
26	0xbd137140	-0.035996675
27	0xbd982a88	-0.07429987
28	0x3e9448ce	0.28961796
29	0xbe6db27c	-0.23212618
30	0xbe6fc48f	-0.23414825
31	0x3e84d908	0.25946832
32	0xbd9fab38	-0.07796329
33	0x3e4f2920	0.20230532
34	0x3df4e85c	0.119583815
35	0xbe402a94	-0.18766242
36	0xbe7aaab0	-0.24479175
37	0x3e58e914	0.21182662
38	0x3db80098	0.08984488
39	0x3e771830	0.2413032
40	0x3e225726	0.15853557
41	0x3e8208ba	0.25397283
42	0xbe8c0b96	-0.2735259
43	0xbd8203ec	-0.06348404
44	0xbcc15770	-0.023601264
45	0x3e55ba9c	0.20871967
46	0x3d1aee40	0.03782487
47	0x3e8e2dbc	0.27769268
48	0xbe839163	-0.2569686
49	0xbdda2d94	-0.106532246
50	0xbe9853b9	-0.29751375
51	0x3de47a90	0.111561894
52	0x3e8fd9e0	0.28095913
53	0xbd38fae8	-0.045161158
54	0xbe641aaa	-0.22275797
55	0x3cf8da50	0.030377537
56	0xbe9b836f	-0.30373713
57	0xbe8a6be4	-0.2703544
58	0xbe40651d	-0.18788572
59	0x3e29256e	0.16518185
60	0x3d65feb0	0.056151092
61	0x3e6b44c0	0.22975445
62	0x3e22171c	0.15829128
63	0x3e918f66	0.28429717

conv2.bias f4 [64]
0	0xbba1cb16	-0.00493754
1	0xbb54b985	-0.003245921
2	0xbb170257	-0.0023042166
3	0x3c24d5e0	0.010060757
4	0x3ce2b162	0.027672473
5	0xbb6dd02b	-0.0036287408
6	0x3bcf6584	0.0063292403
7	0xbadd662d	-0.0016891413
8	0x3c8f7bb9	0.01751505
9	0x3bc70c24	0.0060744453
10	0x3c01766f	0.007901772
11	0xbbc83c43	-0.0061106994
12	0x3b9d8aaa	0.00480779
13	0xbc372c4a	-0.011179993
14	0xbc31c50b	-0.010850201
15	0x3b2d1c9f	0.0026414765
16	0x3c327fb3	0.010894704
17	0x3c028fc3	0.007968846
18	0x3bf4b6de	0.0074680885
19	0x3cfa6688	0.030566469
20	0x3d0bbb58	0.03411421
21	0x3c959f94	0.01826457
22	0x3b7ce428	0.003858814
23	0x3c843f58	0.016143486
24	0x3a43cc05	0.0007469061
25	0xb9d4dfa4	-0.00040602416
26	0xbd14c50c	-0.03632073
27	0xbac26bfa	-0.0014833205
28	0xbbda123c	-0.0066550057
29	0x3b88c3ab	0.004173716
30	0xbcd295fa	-0.02570628
31	0xbbc6fb18	-0.006072413
32	0x3b934214	0.004493961
33	0x3c12dd63	0.0089639155
34	0xbc414e64	-0.011798475
35	0x3c434eb0	0.011920616
36	0xbc8a0a69	-0.016850667
37	0xbcda15e2	-0.026621763
38	0x3b4ddf72	0.0031413701
39	0x3a318d39	0.0006773058
40	0xbc04c7b7	-0.008104256
41	0x3bbe54de	0.005808457
42	0xbb69ac84	-0.0035655806
43	0x3be544e1	0.0069967364
44	0x3bd4af5e	0.006490632
45	0xbc033f18	-0.008010648
46	0x3be42a6d	0.0069630654
47	0xbcf2e1a6	-0.029648613
48	0xbb2fc28a	-0.0026818835
49	0x3bce326d	0.0062926323
50	0x3c36c92c	0.011156362
51	0xbc46d140	-0.01213485
52	0x3c1fc35b	0.009751166
53	0x3c469bc7	0.012122101
54	0xbc2eef95	-0.010677238
55	0xbc49a129	-0.01230649
56	0xbc941ba2	-0.018079583
57	0xbba49b40	-0.00502339
58	0x3a0d3f26	0.0005388133
59	0xbb29d55f	-0.0025914533
60	0xbce701c5	-0.028199086
61	0xbc0a567e	-0.008443473
62	0x3cda9ddb	0.0266866
63	0x3b73a099	0.003717458

conv2.lin_l.weight f4 [64, 64]
0	0xbc411c48	-0.011786528
1	0x3cc87e50	0.024474293
2	0xbc7d4954	-0.015459377
3	0xbd88b7e2	-0.06675698
4	0x3d2a5132	0.04158134
5	0x3dc4ce4c	0.096096605
6	0x3c8f5718	0.017497584
7	0xbc72f34c	-0.014828514
8	0x3cfbe72d	0.030749882
9	0x3db150be	0.086579785
10	0xbcb11179	-0.021614777
11	0x3cbf6541	0.023363711
12	0x3cc61770	0.024181098
13	0xbe3cfe48	-0.18456376
14	0xbdebf7f6	-0.11521904
15	0xbd88ac4f	-0.0667349
16	0xbd9a437a	-0.075324014
17	0x3dbf9e32	0.09356345
18	0x3dd3ea85	0.103474654
19	0x3d88b012	0.06674208
20	0xbdf7025e	-0.120609984
21	0xbdfc7fe9	-0.123290844
22	0xbd1051da	-0.03523431
23	0x3dd76086	0.10516457
24	0x3c897f03	0.016784197
25	0xbd8d846b	-0.06910022
26	0xbdedb9f4	-0.11607733
27	0xbaf8e770	-0.0018989872
28	0x3df79c35	0.12090341
29	0x3db3843b	0.08765455
30	0xbdcea7cb	-0.10090598
31	0xbcadba4e	-0.021207001
32	0x3d5c28c8	0.05374983
33	0xbdbb37dd	-0.091415145
34	0x3db6ceb3	0.089261435
35	0xbd2fee87	-0.042952087
36	0xbde820ab	-0.11334356
37	0xbd092879	-0.033485863
38	0xbd8f692d	-0.070024826
39	0xbdd32eaa	-0.10311635
40	0x3d3230cf	0.04350358
41	0xbc861f03	-0.01637221
42	0x3b8d8d49	0.004319821
43	0x3d576c23	0.05259336
44	0xba810847	-0.0009844386
45	0x3db1f4bb	0.08689257
46	0x3d5e3e9a	0.05425892
47	0x3d5d5c90	0.054043353
48	0x3d8247fa	0.06361385
49	0xbde6c365	-0.11267737
50	0x3dd33571	0.103129275
51	0x3da793c7	0.08182483
52	0xbd84a86c	-0.064774364
53	0x3d33cd24	0.04389681
54	0x3d170e60	0.036878943
55	0xbce5b1d1	-0.028038891
56	0xbd30ae88	-0.043135196
57	0xbc93fac7	-0.018063916
58	0x3dfa3c46	0.122185275
59	0xbb30d5b8	-0.0026982855
60	0x3b2c1207	0.0026255862
61	0xbd03e871	-0.032204095
62	0xbd86d6f8	-0.06583971
63	0x3de4c434	0.11170235
64	0x3db05278	0.0860948
65	0x3cf1f788	0.029536977
66	0xb9bba338	-0.00035789027
67	0xbe23f8d9	-0.16012897
68	0x3dc813be	0.097693905
69	0xbdecb0cc	-0.11557159
70	0xbdc2eb2e	-0.09517513
71	0x3d24262d	0.04007547
72	0x3cc1618a	0.02360608
73	0xbdb16358	-0.086615264
74	0x3dae1399	0.08499832
75	0xbabf2d47	-0.0014585637
76	0x3dd21138	0.102571905
77	0xbe196d9a	-0.14983216
78	0x3d266600	0.04062462
79	0xbdc59cc4	-0.09649041
80	0x3db6c3b4	0.08924046
81	0xbdc730d8	-0.09726113
82	0xbd1ef2cd	-0.03880577
83	0x3dd5b587	0.10435014
84	0x3d960f7e	0.07327174
85	0xbd00be22	-0.031431325
86	0x3d1cc671	0.038275186
87	0xbcc3ee39	-0.023917304
88	0xbd7ef166	-0.062241934
89	0x3da2fcee	0.07958399
90	0x3daeb0f2	0.085298434
91	0xbd387850	-0.045036614
92	0x3db30f89	0.087431975
93	0x3b9d1b02	0.0047944793
94	0x3dbaab77	0.091147356
95	0x3d0b817e	0.03405904
96	0xbdf333d8	-0.11875123
97	0xbdc1d7bd	-0.09464977
98	0xbdcd2372	-0.10016526
99	0xbce7f1e0	-0.028313577
100	0xbd916d6d	-0.071009494
101	0xbdd5e2f2	-0.10443677
102	0x3d025353	0.031817745
103	0xbd5a3ed0	-0.05328256
104	0xbd9b8ec2	-0.07595588
105	0x3c9653c9	0.018350499
106	0x3dd1f4cb	0.10251769
107	0xbdb943a9	-0.09046108
108	0xbd6d60f5	-0.057953794
109	0x3de54e0d	0.11196528
110	0xbca2165d	-0.019786054
111	0xbdb13826	-0.086532876
112	0x3d8b2a4c	0.06795177
113	0x3c60c9b8	0.0137199685
114	0xbd326586	-0.04355385
115	0x3cb16bdb	0.021657875
116	0x3da3ce1a	0.07998295
117	0xbccdad44	-0.025107034
118	0x3dabeb24	0.08394459
119	0xbd56b550	-0.052419007
120	0x3c03b5aa	0.008038918
121	0xbd86bdf2	-0.06579198
122	0x3dc792a0	0.097447634
123	0xbcf0901a	-0.029365588
124	0xbdcb59e0	-0.09929252
125	0xbdd1da1f	-0.102466814
126	0x3dae0a97	0.084981136
127	0x3d7b9af3	0.061427068
128	0xbd9b122a	-0.07571824
129	0x3d01b2d4	0.031664684
130	0xbdd181e7	-0.10229855
131	0x3e2633dc	0.1623072
132	0xbd871b4a	-0.06597002
133	0x3d98646f	0.07441031
134	0x3a889980	0.0010421723
135	0xbd0538ca	-0.03252486
136	0xbd82def3	-0.063901804
137	0xbdd99ee2	-0.106260076
138	0xbcbcd55e	-0.02305096
139	0x3d3062bb	0.043062907
140	0x3d94de50	0.07268965
141	0x3db88e07	0.090114646
142	0x3df3022c	0.118656486
143	0x3d7b3d31	0.061337654
144	0x3d920e5c	0.07131645
145	0xbd16f85b	-0.036857944
146	0xbcd9327d	-0.026513333
147	0xbcf8d97a	-0.030377138
148	0xbd98fce4	-0.0747011
149	0xbdba0566	-0.09083061
150	0xbcf99e10	-0.030470878
151	0xbda8f16c	-0.082491726
152	0x3cd4e20c	0.025986694
153	0xbcb678a5	-0.022274325
154	0xbbdf77cd	-0.0068197013
155	0x3d07cac1	0.033152346
156	0x3d842b4c	0.06453571
157	0x3dcdd74e	0.10050832
158	0xbd84b30b	-0.06479462
159	0x3ada4f19	0.0016655653
160	0x3dcfa60c	0.10139093
161	0x3d5275d6	0.05138191
162	0xbd96cc99	-0.07363243
163	0xbdb0432b	-0.08606561
164	0x3d9fb730	0.07798612
165	0xbd0042a1	-0.031313542
166	0x3d1f0297	0.03882083
167	0x3d37e188	0.044892818
168	0xbc10e584	-0.008843783
169	0xbdd1fe43	-0.10253575
170	0x3ce8dce2	0.028425638
171	0x3dd23ac3	0.10265114
172	0x3cc18141	0.023621203
173	0xbcbf645d	-0.023363287
174	0xbce4030b	-0.027833482
175	0xbd9bae3a	-0.076015905
176	0x3d227252	0.039659806
177	0x3c88e09f	0.01670867
178	0xbd9bf7c0	-0.07615614
179	0xbd95bdbe	-0.07311581
180	0x3d92a916	0.07161157
181	0x3dd23673	0.102642916
182	0x3dc8fd84	0.09813979
183	0x3d9aed85	0.075648345
184	0xbd3488e7	-0.044075873
185	0x3d8cde54	0.06878343
186	0xbdb993c8	-0.0906139
187	0x3ba7e80a	0.0051240968
188	0xbdee2aea	-0.11629279
189	0x3db81650	0.08988631
190	0xbcea0f76	-0.028571825
191	0x3c694a9b	0.014238979
192	0x3da7a244	0.081852466
193	0xbc040290	-0.008057252
194	0x3d512497	0.051060285
195	0x3d42aedf	0.04753005
196	0x3dfc157c	0.12308785
197	0x3dc4173d	0.09574745
198	0xbca15188	-0.019692197
199	0xbd96bb3d	-0.073599316
200	0xbc4b2339	-0.012398534
201	0xbcfbdbe8	-0.030744508
202	0x3d080078	0.033203572
203	0xbc830675	-0.01599429
204	0x3de2d727	0.11076193
205	0x3d19dad0	0.03756219
206	0x3c77eba0	0.015131861
207	0x3d528542	0.051396616
208	0x3d82f6e1	0.06394745
209	0xbdbb4463	-0.09143903
210	0x3dcff7c9	0.10154683
211	0xbdc5e620	-0.096630335
212	0x3d090378	0.033450574
213	0xbd3de9e9	-0.046365652
214	0x3d96fd70	0.07372558
215	0x3dcaa93a	0.09895559
216	0xbd739085	-0.059463996
217	0xbc97ffe7	-0.018554641
218	0x3e0398c9	0.12851252
219	0xbca778c9	-0.020443337
220	0xbd299865	-0.0414051
221	0xbda70b70	-0.081564784
222	0xbd2687f6	-0.040657006
223	0x3d0c725e	0.034288757
224	0x3d46ace4	0.048504725
225	0xbc62c6e2	-0.013841363
226	0x3dfc5091	0.12320054
227	0xbd673f4c	-0.05645685
228	0xbcb61276	-0.0222256
229	0xbdd9ce5d	-0.10635064
230	0xbcd92516	-0.026506942
231	0xbd5b0a78	-0.05347678
232	0x3c9970a1	0.018730463
233	0x3df4297b	0.11921974
234	0x3ca80a9d	0.020512873
235	0x3ca74a92	0.0204213
236	0xbd0f0b82	-0.034923084
237	0x3de3299b	0.1109192
238	0x3d3c8b57	0.046031322
239	0x3d3c6034	0.045990184
240	0x3bd15317	0.006388079
241	0xbcf27821	-0.029598298
242	0x3cf933c1	0.030420186
243	0xbce0af90	-0.027427465
244	0xbd628f2c	-0.05531232
245	0xbce9b4de	-0.028528627
246	0xb99e3e00	-0.00030182302
247	0xbe01fda7	-0.12694417
248	0xbc5628df	-0.013071268
249	0xbd175ad5	-0.03695186
250	0xbd61cd74	-0.055127576
251	0xbd8cd5c9	-0.06876714
252	0x3d44077c	0.0478587
253	0x3df8912b	0.121370636
254	0xbd90bbbe	-0.07067059
255	0xbd8cbd18	-0.06872004

conv2.lin_l.bias f4 [64]
0	0xbd3d1c1c	-0.046169385
1	0x3ded6b21	0.11592699
2	0xbddb22ab	-0.10699972
3	0x3d9c6188	0.0763579
4	0x3dcd4f75	0.10024921
5	0xbd5a8d2c	-0.05335729
6	0x3d850dda	0.064967826
7	0xbdddcd8c	-0.108302206
8	0x3cc2b3ad	0.023767317
9	0xbdba2170	-0.09088409
10	0xbd9bc544	-0.07605985
11	0xb9fc6b2d	-0.00048145038
12	0xbdeb992f	-0.11503827
13	0xbd97b7c7	-0.074080996
14	0x39e6d5da	0.0004402835
15	0x3da2bd8b	0.07946309
16	0x3d449fc2	0.04800392
17	0xbc2b7b4d	-0.010466409
18	0xbd11f340	-0.035632372
19	0x3d8aab84	0.06770995
20	0x3dd400dc	0.103517264
21	0x3c2fca27	0.010729349
22	0xbca69b07	-0.020337595
23	0x3dccdf3a	0.100035146
24	0x3db862a5	0.0900319
25	0x3d1e26cf	0.03861123
26	0xbda9509a	-0.08267327
27	0x3d760c68	0.060070425
28	0x3dacff4f	0.08447134
29	0xbd2f3897	-0.042778578
30	0x3da9b116	0.082857296
31	0xbdfa2e76	-0.12215893
32	0xbbed4339	-0.0072406796
33	0x3dfd27c0	0.12361097
34	0xbd9bb4c1	-0.076028354
35	0x3d3ff9cb	0.04686908
36	0x3d8fc5d2	0.07020153
37	0x3d0c0e38	0.034193248
38	0x3defd14b	0.11709841
39	0xbdb41f1c	-0.08794996
40	0x3d45bb6b	0.04827444
41	0xbcecc932	-0.028904531
42	0xbd8a0e07	-0.06740957
43	0x3c1e1ba7	0.0096501475
44	0x3d85dc32	0.065361395
45	0xbd31f7f7	-0.04344937
46	0xbd02b138	-0.03190729
47	0xbddbd55c	-0.107340544
48	0x3d8ae9ff	0.067829125
49	0xbda85306	-0.082189605
50	0xbde88717	-0.11353891
51	0x3db79042	0.08963062
52	0x3db0d054	0.086334854
53	0x3da2a681	0.07941914
54	0x3d07f361	0.03319109
55	0x3c6c3141	0.01441604
56	0xbdf031de	-0.117282614
57	0x3dead02f	0.11465489
58	0xbac5cc60	-0.0015090816
59	0xbdffc940	-0.12489557
60	0x3cedd38c	0.029031537
61	0xbd85efe7	-0.06539898
62	0xbc85cc66	-0.016332816
63	0xbde14ac5	-0.11000589

conv2.lin_r.weight f4 [64, 64]
0	0xbdf99978	-0.12187475
1	0xbd9522be	-0.07282017
2	0x3c1833b0	0.009289667
3	0xbdb36e22	-0.087612405
4	0xbdcdefbc	-0.10055491
5	0xbdaa7f6c	-0.08325085
6	0x3dfa9a60	0.12236476
7	0xbd85934a	-0.06522234
8	0xbd91c5f2	-0.07117833
9	0x3c849298	0.016183183
10	0x3dd662e2	0.10468079
11	0x3c007680	0.007840753
12	0xbd7e75ec	-0.062124178
13	0x3d8cb8ec	0.068712085
14	0xbd4fa49c	-0.050694093
15	0x3de184be	0.11011647
16	0x3d7201d4	0.059083775
17	0xbdc9b35e	-0.09848665
18	0x3c4782a0	0.0121771395
19	0xbdf0f230	-0.117649436
20	0xbd2b8b40	-0.041880846
21	0xbdc7a6f8	-0.09748644
22	0xbded42cc	-0.11585006
23	0xbd798860	-0.060921073
24	0x3dde9e32	0.10870017
25	0x3d0fc548	0.03510025
26	0xbc2455f0	-0.010030255
27	0xbdc883f0	-0.0979079
28	0xbdbbe00a	-0.091735914
29	0xbddf09f6	-0.10890572
30	0xbdb34a6e	-0.08754431
31	0x3d833e30	0.06408346
32	0x3ae00f00	0.0017094314
33	0xbd8f0daa	-0.06985028
34	0x3d2a16b4	0.041525558
35	0xbdc06bc6	-0.09395556
36	0x3de35168	0.110995114
37	0x3d903006	0.0704041
38	0xbd8aacda	-0.0677125
39	0x3dcb4f72	0.09927262
40	0x3c9e5748	0.019328728
41	0xbd5b2b24	-0.05350794
42	0xbc095890	-0.008382931
43	0x3d2a65dc	0.041601047
44	0xbc0a00b0	-0.0084230155
45	0x3d887b68	0.06664163
46	0xbc863cc8	-0.016386405
47	0x3dc30598	0.09522551
48	0xbda8a1b4	-0.082339674
49	0x3a7c3d00	0.0009622127
50	0xbca870f8	-0.02056168
51	0x3d9f5ae0	0.07781005
52	0xbdad7e2a	-0.084713295
53	0x3d292370	0.04129356
54	0x3db64382	0.08899595
55	0x3d130e80	0.0359025
56	0x3c92e4f8	0.017931446
57	0xbd50c5e4	-0.050969973
58	0xbd169e2c	-0.03677194
59	0x3d0dc890	0.0346151
60	0xbcbf7c90	-0.023374826
61	0xbdf74bbe	-0.120749936
62	0xbd5af508	-0.053456336
63	0xbdea2198	-0.11432189
64	0xbd0b033c	-0.03393863
65	0x3dc7beda	0.09753199
66	0xbdfe185e	-0.124069914
67	0x3d1525c0	0.036412954
68	0xbda70364	-0.081549436
69	0x3d9440ac	0.07238898
70	0xbdab661c	-0.08369085
71	0x3ca12c80	0.01967454
72	0xbde648a2	-0.11244322
73	0x3dbbe0e8	0.09173757
74	0x3cf03600	0.029322624
75	0x3dfb9124	0.12283543
76	0xbceeca58	-0.02914922
77	0xbc25ca80	-0.010119081
78	0x3d7cc2b0	0.061709106
79	0x3d9768c8	0.07393032
80	0x3d9ee35a	0.077582076
81	0xbde877b0	-0.113509536
82	0x3ca57798	0.020198628
83	0xbda04cbc	-0.07827136
84	0x3c76f430	0.015072867
85	0xbd871726	-0.06596212
86	0xbd987a0c	-0.074451536
87	0xbcf76938	-0.03020154
88	0x3d9ccf12	0.07656683
89	0x3d85284e	0.06501828
90	0xbc556200	-0.013023853
91	0xbca54ed8	-0.020179197
92	0x3d18cb9c	0.037303552
93	0xbdfa11d4	-0.12210432
94	0xbdd99712	-0.106245175
95	0xbdba6740	-0.091017246
96	0x3d63a3a0	0.055575967
97	0x3cbef9b0	0.02331242
98	0xbd8795bc	-0.066203564
99	0xbd7b7bf4	-0.061397508
100	0x3ddfd116	0.10928552
101	0xbdad81a0	-0.0847199
102	0xbce9c120	-0.028534472
103	0x3de8a72a	0.11360009
104	0x3dc6c832	0.09706153
105	0x3d80ea88	0.06294733
106	0x3dff4468	0.12464219
107	0x3dd73118	0.10507411
108	0x3d299f50	0.041411698
109	0x3dc1065c	0.09425041
110	0xbd548668	-0.051885992
111	0x3de21026	0.11038236
112	0x3c2e6680	0.010644555
113	0xbd4437e8	-0.04790488
114	0x3dc08b82	0.09401609
115	0x3d25f8c4	0.040520445
116	0xbcdd8ec0	-0.027045608
117	0x3c978b68	0.018499091
118	0xbc876dd0	-0.016531855
119	0x3c455aa0	0.012045532
120	0xbdfacba8	-0.122458756
121	0x3d7fd26c	0.062456533
122	0xbd2f3230	-0.042772472
123	0xbcfc8dc0	-0.03082931
124	0x3ca51cd0	0.02015534
125	0x3c9730c8	0.018455878
126	0x3dd67036	0.10470621
127	0x3cf493f0	0.029855698
128	0x3dce4d56	0.100733444
129	0xbc8e00d0	-0.017334372
130	0xbd89dde0	-0.067317724
131	0xbd248a64	-0.040171042
132	0xbddcd032	-0.107818976
133	0x3d33e3b8	0.04391834
134	0x3de3446c	0.11097035
135	0xbdf0b144	-0.11752561
136	0x3df0367e	0.117291436
137	0xbdfc7a76	-0.12328045
138	0xbdedf8d6	-0.11619727
139	0x3db66162	0.08905293
140	0xbddfd91c	-0.10930082
141	0x3decbbbc	0.11559245
142	0x3c1b8a80	0.00949347
143	0xbde24758	-0.11048764
144	0x3cb0b6f0	0.021571606
145	0xbd01be3c	-0.031675562
146	0x3d875e40	0.06609774
147	0xbd32b914	-0.043633536
148	0x3b0429c0	0.0020166487
149	0x3d8f3cd8	0.06994027
150	0xbde01e74	-0.109433085
151	0x3d694bb4	0.05695696
152	0xbd26e4c0	-0.040745497
153	0xbd7eb020	-0.062179685
154	0xbd51a554	-0.05118306
155	0x3d03c158	0.03216681
156	0x3c700370	0.014649257
157	0xbdb90c4a	-0.09035547
158	0xbcfc4318	-0.030793712
159	0xbced0850	-0.028934628
160	0x3dc7912e	0.09744488
161	0x3db4ff62	0.08837773
162	0x3d7aea94	0.061258867
163	0xbde7ef2a	-0.11324914
164	0xbcfbb2e8	-0.030724958
165	0xbd813000	-0.063079834
166	0x3dd95440	0.106117725
167	0xbda43918	-0.08018702
168	0xbdbe82b2	-0.09302272
169	0xbcd934c8	-0.026514426
170	0x3de1d4e4	0.11026934
171	0x3d1930d4	0.03740008
172	0x3de1032e	0.109869346
173	0xbdec98fc	-0.11552617
174	0xbdfc994a	-0.12333925
175	0xbd6ede08	-0.058317214
176	0xbcf654c0	-0.030069709
177	0x3dd47b3c	0.103750676
178	0xbb82e580	-0.0039946437
179	0x3de68d74	0.11257449
180	0x3d74a7cc	0.059730336
181	0x3ca294f8	0.019846424
182	0x3df6e232	0.12054862
183	0xbdfd4832	-0.12367286
184	0xbc06ca50	-0.008226946
185	0x3be247a0	0.006905511
186	0x3c7782a0	0.015106827
187	0x3c96ae00	0.018393517
188	0xbc7c2480	-0.015389562
189	0xbc6bd270	-0.014393434
190	0xbd52d360	-0.051471114
191	0xbdc08d88	-0.09401995
192	0x3da87c0c	0.08226785
193	0x3dc72282	0.09723379
194	0xbcd83c00	-0.026395798
195	0x3dd52fee	0.104095325
196	0xbd1273fc	-0.035755143
197	0xbd329434	-0.04359837
198	0xbd06a4e4	-0.032872096
199	0x3c998150	0.018738419
200	0xbd00a850	-0.031410515
201	0xbd063200	-0.032762527
202	0xbdfc929a	-0.123326495
203	0x3dd0d168	0.10196191
204	0xbda5501a	-0.08071919
205	0xbd19b1e4	-0.037523165
206	0xbd02b080	-0.031906605
207	0xbd972006	-0.07379155
208	0xbdf8380c	-0.12120065
209	0xbb86d3e0	-0.004114613
210	0xbde1bfec	-0.11022934
211	0xbde88738	-0.11353916
212	0x3d444cbc	0.047924742
213	0x3ba8a000	0.0051460266
214	0x3ca3ed58	0.020010635
215	0x3cd71490	0.026254922
216	0x3c1a8210	0.009430423
217	0xbba179a0	-0.004927829
218	0xbcb1ed08	-0.02171947
219	0xbdcf1c42	-0.101128116
220	0xbdaf8252	-0.085697785
221	0xbb8b9cc0	-0.0042606294
222	0xbc8268d8	-0.015919134
223	0x3c87ff98	0.016601369
224	0x3d74295c	0.059609756
225	0x3dfb7906	0.12278943
226	0xbde2a192	-0.11065973
227	0x3d93fe5e	0.07226251
228	0x3d8c2f40	0.0684495
229	0xbdbb13e2	-0.09134652
230	0xbdb740a8	-0.08947879
231	0x3dd4222e	0.10358082
232	0x3d8d3290	0.0689441
233	0xbd900b40	-0.07033396
234	0x3d166b7c	0.0367236
235	0xbd79a0f4	-0.060944512
236	0x3d7c0514	0.06152828
237	0xbda826d4	-0.08210531
238	0x3dfe1b78	0.12407583
239	0x3ddce694	0.10786167
240	0xbdcb0f3a	-0.099150136
241	0x3df70ff4	0.1206359
242	0xbd8047ee	-0.062637195
243	0x3d684600	0.056707382
244	0xbd94198e	-0.07231437
245	0x3dbf2718	0.093336284
246	0xbd25c820	-0.040474057
247	0xbd5b40ac	-0.053528473
248	0xbdf555ee	-0.119792804
249	0x3d9b3662	0.07578732
250	0xbda9293a	-0.082598165
251	0xbd01cb14	-0.03168781
252	0xbdf7ebe8	-0.121055424
253	0x3de22138	0.11041492
254	0xbdaf9fb4	-0.08575383
255	0xbdee2806	-0.116287276

conv2.lin_r.bias f4 [64]
0	0x3d265a3c	0.040613398
1	0xbdaf1544	-0.08548978
2	0xbd0aa870	-0.03385204
3	0x3d5d1eb8	0.053984374
4	0x3d28c578	0.041203946
5	0x3d92df6e	0.07171522
6	0xbdcf96ce	-0.101361856
7	0xbc0397d0	-0.0080318
8	0x3d9bb5d6	0.07603042
9	0x3df43758	0.119246185
10	0xbd1a299c	-0.037637338
11	0x3dc1fc70	0.09471977
12	0xbde4115a	-0.11136122
13	0xbd8ce66c	-0.06879887
14	0x3ddab7b4	0.1067957
15	0xbd252888	-0.040321857
16	0x3da4c3c0	0.08045149
17	0xbd9ce0b8	-0.07660049
18	0x3d084c24	0.03327574
19	0xbdf30e50	-0.11867964
20	0xbdd758f6	-0.10515015
21	0xbd989600	-0.07450485
22	0xbde655ea	-0.112468556
23	0x3dd446de	0.10365079
24	0x3d60a308	0.05484298
25	0x3d42b3c0	0.047534704
26	0xbd445988	-0.047936946
27	0xbd116858	-0.0354999
28	0xbd92f47c	-0.07175538
29	0xbc7c7c40	-0.015410483
30	0x3d787894	0.060661867
31	0xbd6ca420	-0.05777371
32	0x3dc7f380	0.09763241
33	0x3c8fee40	0.017569661
34	0x3c1b68a0	0.009485394
35	0xbd04baf0	-0.03240484
36	0xbdccc81c	-0.09999105
37	0x3dd662b0	0.10468042
38	0xbdae5ab4	-0.08513394
39	0x3ddca756	0.10774104
40	0x3d7fcd54	0.062451676
41	0xbdfed1b4	-0.124423414
42	0x3dc410ba	0.09573503
43	0xbd7b673c	-0.06137775
44	0xbdd49138	-0.10379261
45	0xbdc20b00	-0.09474754
46	0x3d6b5498	0.05745372
47	0xbdfe9e9a	-0.124325946
48	0x3d1f5338	0.038897723
49	0xbdfb0468	-0.122567
50	0x3d0743dc	0.0330237
51	0x3cbc3f68	0.022979453
52	0x3d0066ec	0.031348154
53	0xbdb2dff2	-0.087341204
54	0xbdeb46bc	-0.11488101
55	0xbc405030	-0.011737868
56	0xbdabcf8c	-0.08389196
57	0xbdb1b59c	-0.08677217
58	0xbbf0bb20	-0.007346526
59	0x3d3b0f90	0.04566914
60	0x3db7a456	0.089668915
61	0xbd837baa	-0.064200714
62	0x3d9fcf84	0.07803252
63	0xbde02ba6	-0.10945825

conv2.lin_edge.weight f4 [64, 2]
0	0xbe3ef688	-0.18648732
1	0xbd219da0	-0.039456964
2	0xbe816854	-0.2527491
3	0x3d2354d0	0.039875805
4	0x3dd59670	0.10429084
5	0xbe14c7b4	-0.14529306
6	0x3f1c879b	0.6114442
7	0xbec286b6	-0.379934
8	0xbf2319dc	-0.63711333
9	0x3f340be7	0.7033066
10	0xbf11c7eb	-0.56945676
11	0x3deedd20	0.1166327
12	0x3ed9a1b6	0.42506188
13	0xbe5cc114	-0.21558028
14	0x3ce2e100	0.027695179
15	0x3ebc3b22	0.36763865
16	0x3eb99f3a	0.36254293
17	0x3e420888	0.18948567
18	0x3ded3398	0.11582106
19	0x3e9da55e	0.30790228
20	0xbea74c44	-0.32675374
21	0x3edccc72	0.4312473
22	0x3e49e794	0.19717246
23	0x3f0c627f	0.54837793
24	0xbdb7add8	-0.08968705
25	0xbf2d2f0c	-0.6764991
26	0xbf12c154	-0.57326245
27	0x3f2d0511	0.67585856
28	0x3e35f140	0.17767811
29	0x3f28a13b	0.6587102
30	0xbd084b80	-0.033275127
31	0x3ed69792	0.41912514
32	0x3eaa825e	0.33302587
33	0x3df9c2c0	0.12195349
34	0xbee563ac	-0.44802606
35	0xbf11011a	-0.56642306
36	0xbf0872ea	-0.53300345
37	0xbdfd9530	-0.12381971
38	0x3f126ab3	0.5719406
39	0xbf1e4e5f	-0.61838335
40	0x3dfe21f8	0.12408823
41	0xbef3326e	-0.47499412
42	0x3f133e7f	0.57517236
43	0xbed2827f	-0.41115186
44	0x3f0bd56f	0.5462255
45	0xbf1d1b76	-0.6137003
46	0xbe82cdce	-0.25547642
47	0x3f23f97b	0.6405255
48	0xbe0eaf8c	-0.13934153
49	0x3e5c5f20	0.21520662
50	0x3f02ff57	0.5117087
51	0x3eb20a36	0.34773415
52	0xbbb66800	-0.005566597
53	0xbf25e9a1	-0.64809614
54	0x3edbcdfe	0.42930597
55	0x3f2f420b	0.6846015
56	0xbe8bffc6	-0.27343577
57	0xbeb3cfa8	-0.35119367
58	0x3d81be70	0.06335151
59	0x3e24b2e4	0.16083866
60	0x3f1e4019	0.61816555
61	0x3f2e886d	0.6817692
62	0x3f09d3bb	0.538387
63	0x3de929a0	0.113848925
64	0x3f0dd749	0.55406624
65	0x3f17bbc5	0.5927089
66	0xbf057064	-0.5212462
67	0xbed6d0d2	-0.41956192
68	0xbd995030	-0.07485998
69	0x3e1fff28	0.15624678
70	0x3eae77f6	0.34075898
71	0xbe848945	-0.25885978
72	0x3e5a53f8	0.21321094
73	0xbde08c20	-0.10964227
74	0x3f347db5	0.70504314
75	0xbf09b7ef	-0.53796285
76	0x3eee78be	0.46576494
77	0xbf0df6cc	-0.5545471
78	0x3f08c929	0.53431946
79	0x3eed944e	0.4640221
80	0xbef7c613	-0.48393306
81	0x3e528d70	0.20561767
82	0xbd89ccf0	-0.06728542
83	0xbe7960ce	-0.24353334
84	0x3f2c5b43	0.67326754
85	0xbe0cc844	-0.1374827
86	0x3e348540	0.17628956
87	0x3d72a110	0.059235632
88	0xbda725c8	-0.08161503
89	0xbd0ad4a0	-0.03389418
90	0x3e031fdc	0.12805122
91	0x3eda920e	0.42689556
92	0x3f14fbab	0.58196515
93	0xbe4fc340	-0.20289326
94	0x3e161714	0.14657241
95	0x3f30260f	0.6880807
96	0xbf0c8dfd	-0.54904157
97	0x3ebb5a3e	0.36592287
98	0x3e2af3e0	0.16694593
99	0x3f2200ad	0.6328228
100	0x3f027ff5	0.50976497
101	0xbd8fb1b8	-0.07016319
102	0x3ec60a6a	0.3867982
103	0xbe822454	-0.2541834
104	0xbd3df880	-0.046379566
105	0xbf2d817f	-0.6777572
106	0xbe8a8691	-0.2705579
107	0x3f011535	0.50422984
108	0xbf01c54c	-0.50691676
109	0x3f32fde1	0.6991864
110	0x3dbc66c0	0.091992855
111	0x3ba48100	0.005020261
112	0xbe2c1d98	-0.16808164
113	0x3f131dc3	0.5746729
114	0xbee98206	-0.45607013
115	0xbee70022	-0.4511729
116	0xbeafd12b	-0.3433927
117	0x3e0d18c4	0.13778979
118	0x3efb4886	0.49078768
119	0x3d7a1950	0.061059296
120	0xbed27c36	-0.4111039
121	0x3ecba476	0.3977391
122	0x3edd597a	0.43232328
123	0x3f127019	0.572023
124	0xba212800	-0.0006147623
125	0xbad36200	-0.0016127229
126	0x3ee9674a	0.45586616
127	0x3d27ff30	0.04101485

fc.weight f4 [2, 64]
0	0xbc5e71cc	-0.013576936
1	0x3c341b1f	0.010992794
2	0xbce0a2e6	-0.027421426
3	0xbd9932d8	-0.07480401
4	0xbd1f9973	-0.0389647
5	0xbbfb520d	-0.0076696933
6	0xbd21bf3f	-0.039489027
7	0x3d0eb4fe	0.034840576
8	0xbd7bcc04	-0.06147386
9	0xbba3af95	-0.0049952962
10	0xbcea0081	-0.028564693
11	0xbce990b5	-0.028511385
12	0x3d804d44	0.06264737
13	0x3d879dfb	0.06621929
14	0xbc3a87d5	-0.011384924
15	0xbd211b0c	-0.039332435
16	0xbd986c8a	-0.07442577
17	0xbb5fb471	-0.003413465
18	0xbca5fcf6	-0.020262223
19	0x3db30d32	0.08742751
20	0x3caa2f8d	0.020774627
21	0x3d985b22	0.07439257
22	0xbd4c0b95	-0.049815733
23	0x3dac6f81	0.08419705
24	0x3d0a5da2	0.0337807
25	0xbcecaff2	-0.028892491
26	0x3ce8a579	0.028399216
27	0xbd9fe21c	-0.07806799
28	0xbcbdffad	-0.023193205
29	0x3d861431	0.0654682
30	0x3d09e33c	0.033663973
31	0xbd54c2fe	-0.05194377
32	0x3b0182ef	0.001976188
33	0xbc3b69d7	-0.011438808
34	0x3c9c0150	0.019043595
35	0x3dce6e25	0.10079602
36	0x3dd5aea1	0.104336984
37	0x3d43bb9f	0.04778635
38	0x3d332813	0.04373939
39	0xbd82e249	-0.06390817
40	0x3da0e96b	0.07857021
41	0x3babe3f5	0.0052456805
42	0x3d8d11e5	0.06888179
43	0xbc53934f	-0.012913539
44	0xbc8fc46e	-0.01754972
45	0x3d411639	0.047140334
46	0xbc86763e	-0.016413804
47	0x3d7090b6	0.058731757
48	0x3c7b66c9	0.01534433
49	0x3bf1a81f	0.007374778
50	0x3d78297d	0.06058644
51	0xbd797262	-0.0609001
52	0xbc874a95	-0.016515056
53	0x3de8f2d0	0.11374438
54	0xbc68a91f	-0.014200478
55	0x3d001178	0.03126666
56	0x3c28fecc	0.010314655
57	0x3d5e8e60	0.054334998
58	0x3d1d7aa8	0.038447052
59	0xbb3846b2	-0.002811831
60	0x3c8ca193	0.017166888
61	0xbd2f774f	-0.04283839
62	0xbd948ceb	-0.072534405
63	0x3dbd2ad6	0.09236686
64	0xbc58ba46	-0.013228005
65	0x3c790322	0.015198501
66	0xbcafc37c	-0.021455519
67	0xbda52d72	-0.08065309
68	0x3d86cd23	0.065820955
69	0xbc48bc22	-0.012251886
70	0xbd1dd0db	-0.03852926
71	0x3d103ccc	0.03521423
72	0xbd7bf999	-0.06151733
73	0xbb89efce	-0.004209495
74	0xbce17974	-0.027523734
75	0xbd7ca522	-0.06168092
76	0x3d7fc471	0.0624432
77	0xbca75088	-0.020424142
78	0xbbf98a2f	-0.0076153497
79	0xbd2cb939	-0.04216883
80	0xbc167ecb	-0.009185503
81	0xbbd0a5eb	-0.006367435
82	0x3c9a7d9b	0.018858721
83	0x3daf3b5d	0.085562445
84	0x3cf73251	0.03017536
85	0x3d92262d	0.07136188
86	0xbd4c31a1	-0.049852017
87	0x3dae0967	0.08497887
88	0x3d0a17c2	0.033714063
89	0xbcdd2517	-0.026995225
90	0x3c430439	0.011902862
91	0xbda39bda	-0.07988711
92	0xbd146f42	-0.036238916
93	0x3d982011	0.07427991
94	0x3d09bca4	0.033627167
95	0xbd49abc4	-0.049236074
96	0xbc0c14b4	-0.008549858
97	0x3d49854e	0.049199395
98	0x3c9557f7	0.018230421
99	0x3dcedb22	0.1010039
100	0x3ddc1343	0.107458614
101	0xbda8a6fd	-0.082349755
102	0x3d46559f	0.0484215
103	0xbd819d1e	-0.06328796
104	0x3da2446e	0.07923208
105	0x3bae20af	0.005313955
106	0x3cdbfe57	0.026854677
107	0x3cb346b6	0.021884304
108	0xbc92e1df	-0.01792997
109	0x3d3fd021	0.046829347
110	0xbc9b153d	-0.018931026
111	0x3c026eb7	0.007960967
112	0x3c662635	0.014047195
113	0x3d616de6	0.055036448
114	0x3d795905	0.06087591
115	0xbd795ec1	-0.06088138
116	0xbc82307f	-0.015892265
117	0x3de18ca6	0.11013155
118	0xbc82f56f	-0.015986172
119	0x3d0200a7	0.031738903
120	0x3c852eb8	0.016257629
121	0x3d438d95	0.047742445
122	0x3d305c54	0.0430568
123	0xbbc29b06	-0.0059388904
124	0xbd5019d3	-0.050805878
125	0xbd30309b	-0.043015104
126	0xbc361fab	-0.011115949
127	0x3da8e1ee	0.08246218

fc.bias f4 [2]
0	0x3d30cf47	0.043166425
1	0xbdb8bde6	-0.09020595
