saved_models/edgat4.pt (torch, 42898 bytes, 16 tensors)

conv1.att f4 [1, 1, 64]
000000 92 76 88 3e fc 25 65 bd 08 61 42 bd f2 2d 9c bd
       0.26652962 -0.055944428 -0.047455817 -0.07625951
000010 a8 75 d0 3d a4 1e 4f 3e c0 21 3a 3e 1c 1f fc 3d
       0.10178691 0.20226532 0.18176937 0.12310621
000020 5e 46 13 be 30 06 fb bc 48 ee 2f 3e 10 df 61 be
       -0.14382312 -0.030642599 0.17180741 -0.22057748
000030 68 e8 35 3e c6 17 91 be 88 85 8b be 60 7f 61 3e
       0.17764437 -0.2833845 -0.27250314 0.22021246
000040 a2 16 c9 bd 2c 2f fa bd aa 26 6a be e9 23 0a be
       -0.0981877 -0.122160286 -0.22866312 -0.13490261
000050 50 6d fc 3c 6c ea 83 3d 9e 1c a5 bd 24 fe 1f 3e
       0.030813843 0.06441197 -0.08062099 0.1562429
000060 78 59 4d 3e c8 6a 96 3d 0a c4 10 be 2b 5d 80 be
       0.20053661 0.07344586 -0.14137283 -0.25071082
000070 42 10 30 3e 24 5f 8b 3e 00 95 77 3e 18 23 69 3e
       0.17193702 0.27221024 0.24177933 0.22767293
000080 c0 e9 d9 bd 74 01 8f be f6 dd 38 3e 28 69 31 bd
       -0.106402874 -0.27930796 0.18053421 -0.043313175
000090 2a a0 19 3e 17 d5 97 be 63 22 45 be 90 c5 e5 3c
       0.15002504 -0.29654762 -0.19251399 0.028048307
0000a0 be 49 9a 3e d4 eb 71 3e 4a 95 3e be 04 40 86 3d
       0.30134386 0.23625118 -0.18611637 0.06555179
0000b0 6c ba 2a 3e 2a f6 03 be 3c 9f b9 3d dc 18 61 bd
       0.16672677 -0.12886873 0.09063575 -0.05495535
0000c0 2c e4 8d 3d 60 c4 64 3e a1 b9 96 be 70 45 3d bd
       0.06928286 0.22340536 -0.294385 -0.0462088
0000d0 b8 3a 52 3d 1d 53 8a be b8 40 1b 3e 6a 9f 88 bd
       0.05132553 -0.27016535 0.15161407 -0.06671031
0000e0 46 00 67 be 9c ca 81 3e e0 11 17 bc cc c8 6e bd
       -0.22558698 0.2534989 -0.00922057 -0.058296964
0000f0 e2 b4 34 3e 3e b0 62 be 6c 1b 73 3e 08 32 9a 3d
       0.17647126 -0.22137544 0.2374093 0.07529074

conv1.bias f4 [64]
000000 de 13 6d bd b1 71 13 be 9b 16 7c be f4 c3 20 bd
       -0.057880275 -0.14398839 -0.24617998 -0.039249375
000010 c2 8e e6 bc 50 29 b2 bd d9 fd 98 bd d5 e1 85 bd
       -0.028144244 -0.08699286 -0.074702926 -0.06537215
000020 a8 78 c2 bd 34 06 e5 bd 28 68 b4 bd b2 4e 19 bd
       -0.094956696 -0.11182824 -0.08808929 -0.037428565
000030 aa 8c 6c bd 9c f6 02 be f3 b9 14 be 0d db f8 bc
       -0.057751335 -0.12789387 -0.14524059 -0.030377889
000040 46 5e d3 bc 52 37 18 be a0 7b f0 bd 06 f3 dd bc
       -0.025801789 -0.14864853 -0.117423296 -0.027093422
000050 8b 2b de bc a9 b8 23 bd bb f5 b2 bd f0 e4 0e bd
       -0.027120372 -0.039971028 -0.087382756 -0.0348863
000060 39 9f bf bd 40 a3 53 bd 05 34 c9 bc c6 c1 73 bd
       -0.09356541 -0.05166936 -0.024560938 -0.05951097
000070 8d d2 be bd ad ca 08 bd 19 96 ff bd de 81 50 bd
       -0.09317503 -0.03339641 -0.12479801 -0.0509051
000080 1f a5 82 be 58 28 ab bd d3 36 ba bc 86 8f 01 be
       -0.25516602 -0.08357304 -0.02273122 -0.12652406
000090 53 0b e4 bd 0f 32 90 3c 69 23 e8 bd 17 4a 36 bc
       -0.111349724 0.017601995 -0.11334879 -0.011126063
0000a0 75 cc 3a bc 78 0e ae bd ff 2e 85 be f5 aa eb bd
       -0.011401285 -0.084988534 -0.26012418 -0.11507217
0000b0 57 bf 9c bd c4 9c f7 bd 80 e3 01 ba 45 4d 23 be
       -0.07653683 -0.120904475 -0.00049548596 -0.15947445
0000c0 70 5d cc bc 78 70 0b bd cc ed 92 bd f9 1b 0b bd
       -0.024946898 -0.034042805 -0.071742624 -0.033962224
0000d0 6b d4 09 be a0 32 d8 bd 8f 7c be bd c2 8d fc bd
       -0.13459937 -0.10556531 -0.093011014 -0.12331726
0000e0 d4 e8 aa bd 5f cc 18 be 0e 94 2e be bd 62 ae bc
       -0.0834519 -0.14921711 -0.17048666 -0.021287316
0000f0 b0 0e d8 bd 0e dc 3a bd f1 41 1f be 3a b4 97 3c
       -0.105496764 -0.045620017 -0.15552498 0.018518556

conv1.lin_l.weight f4 [64, 4]
000000 e2 2e fb bd 22 60 77 3e d0 18 21 be 2a b2 4a be
       -0.122648016 0.24157766 -0.15732121 -0.19794527
000010 35 f5 95 be f1 9e 9b be 4d 10 63 3d 7d 47 a9 be
       -0.2928864 -0.303947 0.055435468 -0.33062354
000020 3a 5d ce be 51 cf 99 3e 1b e6 41 be f2 e1 33 be
       -0.403055 0.30040982 -0.18935435 -0.1756666
000030 30 f8 ac 3d ca 54 54 bd ad 0b dd be 79 2f 0b 3e
       0.084457755 -0.051838674 -0.4317297 0.13592328
000040 08 4f 21 be 54 f1 b6 be ff 42 f1 3d 65 90 1f 3e
       -0.15752804 -0.35730994 0.117803566 0.15582426
000050 11 fd cd be d1 cc da 3e 7c 6e 21 be 5b f4 7c be
       -0.40232137 0.42734388 -0.15764803 -0.24702589
000060 bb 6c b5 be 7b c8 12 3e 69 9f 92 3e 57 ff a0 be
       -0.35434517 0.1433429 0.28637245 -0.3144481
000070 74 77 a4 3d cc c5 10 be 75 1e 93 be 32 88 15 3e
       0.080305964 -0.14137954 -0.28734174 0.14602736
000080 30 64 10 3e 8e 06 0d bc 29 54 c2 3e 92 cd c7 3e
       0.14100718 -0.00860752 0.37954834 0.39024025
000090 34 7f 11 be 3f 32 3a 3e 01 22 86 be c6 99 05 be
       -0.1420868 0.1818323 -0.26197818 -0.13046941
0000a0 01 1e 46 be 91 9e 77 3c 9e 31 c7 bc 8b 0d a3 3e
       -0.19347383 0.015113489 -0.024315652 0.3184627
0000b0 0b bf 42 be 47 f0 eb 3e e0 8b 62 3e cb 7b f0 3e
       -0.1901819 0.46081755 0.2212367 0.46969447
0000c0 57 84 de 3d 97 91 e3 be 45 08 b2 be b0 ad 2d bd
       0.108650856 -0.44447014 -0.34771934 -0.04240197
0000d0 0c d5 5f be da 57 12 3c 4e db a3 be 0e 2f 77 be
       -0.21858615 0.008932078 -0.32003254 -0.24139044
0000e0 20 02 b5 3e c6 38 88 be 75 72 7a 3a 96 65 d8 bd
       0.35353184 -0.26605815 0.00095537986 -0.10566251
0000f0 ea a3 10 3e 02 2a 38 be 64 47 9b be 24 d6 be be
       0.14125028 -0.17984775 -0.30327904 -0.3727275
000100 a9 ba 1b be 75 ed b3 3e 6c 3d a8 be e1 c6 d1 3e
       -0.15207924 0.35142103 -0.3285936 0.40972045
000110 0f a6 31 be d8 e5 ac 3e d9 ab 8b 3e 6d e1 07 bd
       -0.17348503 0.33769107 0.27279547 -0.033173967
000120 a9 3b 0e be 6f cd 88 be a3 12 b3 3d 51 ff 0d 3d
       -0.13889946 -0.26719233 0.08743789 0.034667317
000130 f6 0a 80 3e 99 55 5f be 18 4f 9a 3d 36 93 3a be
       0.25008363 -0.21809997 0.07534617 -0.18220219
000140 57 3c 33 be cd 95 f3 3e bd f2 50 3c 64 4c df bd
       -0.17503487 0.47575226 0.012753186 -0.10903242
000150 84 e6 0e 3b 5a 91 4c bb 6e f9 d8 3e 97 44 6d bd
       0.0021804878 -0.0031214566 0.423778 -0.05792674
000160 eb b4 9e 3e a0 17 cc 3d 4f 9f 7d 3e 74 08 ac be
       0.30997404 0.099654436 0.24767803 -0.336002
000170 e4 c4 ad 3b 7b ec 9c 3e cd 88 e4 3c 70 d8 70 bc
       0.005303012 0.3064917 0.027897263 -0.01470004
000180 5d 3a 4b 3d ae b1 9f be 36 8f 27 3d 6c e9 f3 3d
       0.049616206 -0.31190246 0.04090806 0.11909756
000190 f7 08 be 3c d1 4d aa 3d 8c af a8 3e cf 71 5a be
       0.023197634 0.083156236 0.32946432 -0.21332477
0001a0 99 5e de 3e 0e 5b 23 be 4e 7e 5d be b8 1d ca 3e
       0.43431547 -0.15952703 -0.21630213 0.394758
0001b0 69 48 e6 be 62 df 41 3e 2f ee a2 be 76 bb 4a be
       -0.4497712 0.1893287 -0.31822345 -0.19798073
0001c0 f6 61 2f bc 62 51 d9 3e 53 13 8f 3e c7 7f c7 bb
       -0.010704508 0.42444903 0.2794443 -0.0060882303
0001d0 a8 aa da 3e bd 33 82 be 89 61 94 3e 4a 84 86 be
       0.42708325 -0.25430098 0.28980663 -0.26272804
0001e0 28 18 f3 3e 33 07 f0 3d 41 7d bd 3d 73 8f e1 be
       0.47479367 0.11720123 0.09252406 -0.44054756
0001f0 27 53 a0 bd e6 e5 96 3e 52 3c fb 3c 1c b7 a1 be
       -0.0782836 0.29472274 0.030668411 -0.31585014
000200 fc 17 d2 be 99 2a ad 3e 88 1e d7 bc a9 fe 10 be
       -0.41033924 0.33821562 -0.026259676 -0.14159645
000210 1d 29 06 3f 0e bd be be c6 30 0b 3e d0 e3 49 be
       0.52406484 -0.37253612 0.13592824 -0.1971581
000220 49 2e 29 3e 81 de 51 3e a9 06 17 be 57 79 4e 3e
       0.16521563 0.20495035 -0.14748634 0.20163475
000230 35 c6 29 3d e6 aa d5 3d 8d 2f f5 3d 24 d1 3d 3e
       0.04144879 0.10432987 0.1197196 0.18536812
000240 e0 39 8f 3e 5e d2 20 bd 1c 70 1c be 20 19 11 bc
       0.27973843 -0.03926312 -0.15277141 -0.008856088
000250 22 90 09 be a9 a0 bc 3e a3 c6 f9 be 0c 1c b3 3e
       -0.13433889 0.36841324 -0.4878436 0.34982336
000260 a7 5d ce 3e b1 ec a7 be 85 05 6e 3e 3e 3b e6 3b
       0.40305826 -0.3279777 0.23244293 0.007026105
000270 44 49 65 bc d9 b4 aa be 8e ed 88 bd da 3b e2 3d
       -0.013994519 -0.333411 -0.06685935 0.11046572
000280 20 ff a5 be 5f e2 a2 bd 9a 20 97 be bf dc 82 be
       -0.32421207 -0.07953333 -0.2951706 -0.2555904
000290 e5 79 bb be 32 ad b0 3c 1f b8 0c be d7 ef ab bd
       -0.36616436 0.021566961 -0.13742112 -0.08395355
0002a0 84 14 f2 3d d8 67 0c 3e 2a b5 ae 3e 64 fb 5d be
       0.11820319 0.13711488 0.34122592 -0.21677929
0002b0 1e 24 01 3e 03 3e a5 3e e9 48 09 3c 70 12 86 3e
       0.12611434 0.32273874 0.0083792 0.26185942
0002c0 46 32 9a be a9 af aa b6 7b 7f 21 3e 39 fb 16 be
       -0.3011648 -5.0868443e-06 0.15771286 -0.14744271
0002d0 47 3a 34 3e 9a 91 ba be 23 ef 8d 3e 14 46 5d b9
       0.17600356 -0.3643921 0.2772151 -0.00021102309
0002e0 a0 ef 07 3f a0 90 12 be da 64 4e be da c4 29 be
       0.53100014 -0.14312983 -0.2015566 -0.16578999
0002f0 eb 01 66 be fc 04 ad 3e dd be 4a 3e 55 be 5b bd
       -0.22461669 0.33792865 0.19799371 -0.05364831
000300 94 8b f7 3d 0d d6 d4 be c4 87 eb be 85 f2 9c 3e
       0.12087169 -0.41569558 -0.46002018 0.30653778
000310 a2 6c 5e be 2a d8 a1 bd 29 cc cc be 33 31 8b bc
       -0.21721128 -0.07902558 -0.39999512 -0.016991233
000320 ce 44 2f 3e bd 04 90 bd 31 46 ac be 0e e5 e7 bd
       0.1711609 -0.07032154 -0.33647302 -0.113229856
000330 83 ac 67 be 31 1a e1 3e 23 da e4 be fe e0 83 be
       -0.22624402 0.43965295 -0.44697675 -0.25757593
000340 6f ef 84 bd 15 45 1e bc 58 bb a3 be 31 b7 57 3e
       -0.06490981 -0.009660025 -0.3197887 0.21065976
000350 ef b7 d7 3e dc 3c be bd a8 37 56 be 2c 74 4b be
       0.42132518 -0.09288952 -0.20919669 -0.19868535
000360 a0 98 1c be c7 e7 ad 3e 92 9d 4c 3d 54 7f ed be
       -0.15292597 0.33965895 0.04995496 -0.46386206
000370 2a 49 83 3e fa 31 26 3e 3f d9 6b 3e 44 b2 e5 3e
       0.25641757 0.16230002 0.23032092 0.44862568
000380 23 41 2a be ea 34 42 3e ea c1 89 3e e6 28 ce 3c
       -0.1662641 0.18965498 0.26905757 0.025165986
000390 53 bc 99 3d c9 7f 03 be 56 b5 46 be 99 4b f5 bd
       0.07506623 -0.12841715 -0.19405112 -0.1197731
0003a0 e9 6c 0b 3e 35 f4 43 3e f0 c7 14 be ce 35 33 3e
       0.13615765 0.19136126 -0.14529395 0.17500994
0003b0 61 32 06 3e 44 b4 aa 3e ae 40 4f 3e 4e 78 01 be
       0.13105156 0.33340657 0.20239517 -0.12643549
0003c0 34 43 9c be 6f bb 2f be df 03 a8 3e 73 f4 bb 3e
       -0.30520022 -0.17161344 0.32815453 0.36709937
0003d0 d0 c4 07 3e bb 18 0c be 2d 38 4f 3e 09 03 53 3e
       0.13258672 -0.13681309 0.20236273 0.20606627
0003e0 a7 12 8d 3e 8e 1d 26 3e e8 35 70 3e f7 3d 4d 3e
       0.27553293 0.16222212 0.23458064 0.20043169
0003f0 bb 15 17 3f 46 14 93 3e c2 e8 99 be 60 8a b3 3e
       0.59017533 0.28726405 -0.30060393 0.3506651

conv1.lin_l.bias f4 [64]
000000 bd 40 04 be 0f 4a c3 bd 3c 3a 15 3e 79 d6 8b 3e
       -0.1291532 -0.0953561 0.14572996 0.27312067
000010 a2 bc 1f be 63 40 37 3e cf a7 25 3e 96 b9 e3 be
       -0.15599301 0.17895655 0.16177295 -0.44477528
000020 99 86 90 be a1 47 8a be 32 50 d4 be dd 49 c6 be
       -0.2822769 -0.27007774 -0.41467434 -0.38728228
000030 fd d4 4a 3e f0 84 96 be 34 72 bb bb 55 eb 31 be
       0.19807811 -0.29398298 -0.005720401 -0.17374928
000040 3a d9 a2 be 05 6c 97 3e d0 ec e0 3d 0f f3 e8 be
       -0.31806356 0.295746 0.109826684 -0.4549794
000050 0a f7 9b 3e cd 0e d1 be cc cd 0d bf 26 b0 23 3e
       0.30461913 -0.40831605 -0.55392146 0.15985164
000060 21 a2 9a be 23 4c 60 be c2 7b b6 bd 6d d6 d3 3e
       -0.3020182 -0.21904044 -0.08910324 0.4137453
000070 26 5e 04 bf f7 bd c8 3e 9c 8e 45 3e 3e a2 b7 be
       -0.5170616 0.39207432 0.19292682 -0.35865968
000080 90 55 27 3e b4 1d 24 3e 3e 3e 36 be fd e3 55 3e
       0.16341233 0.16026956 -0.17797181 0.20887752
000090 03 0e 6b bd 53 41 cf be 17 b7 b8 3e 17 5f d1 be
       -0.05738641 -0.40479526 0.36077186 -0.4089286
0000a0 71 e4 e5 3e d7 64 95 be 52 1c 73 3e df f3 80 3d
       0.4490085 -0.29178497 0.23741272 0.06296515
0000b0 ee 8d aa 3e 39 a4 65 be e5 70 97 be 26 5a fc bd
       0.3331141 -0.22425927 -0.2957832 -0.12321882
0000c0 84 cb 25 be 93 4c b4 3e 4d 13 ea 3b 8b 6c b2 3d
       -0.16190916 0.35214671 0.007143414 0.08712109
0000d0 22 42 1e 3e 41 ff 8d be df c4 85 3e 04 0d 61 3e
       0.15454915 -0.27733806 0.26126763 0.21977621
0000e0 99 d3 e8 3d 43 cf 1a 3d a1 fc a0 3e 87 24 80 3e
       0.11368484 0.037795316 0.3144274 0.25027868
0000f0 ff 8d 9a be a1 fe 05 bf 53 7b 1d bf dd 16 3b be
       -0.3018646 -0.5234166 -0.615163 -0.1827044

conv1.lin_r.weight f4 [64, 4]
000000 58 53 c4 be a8 53 aa bd 06 b5 b0 be a0 1e 3f 3d
       -0.38344836 -0.083167374 -0.3451311 0.046660066
000010 c2 a4 c9 be be 97 bb 3e 80 98 96 bb 00 9f 4a bb
       -0.39383513 0.36639208 -0.004595816 -0.0030917525
000020 3c c3 09 be 84 1d be be f8 ff 81 3d b8 7b 3d 3e
       -0.13453382 -0.37131894 0.0634765 0.18504226
000030 d2 1c 9d be 00 36 cf 3a 06 6b df be 3e c5 cd 3e
       -0.3068605 0.001580894 -0.4363634 0.40189546
000040 d8 e6 32 3e 8e 73 dc be 40 9d 3b bc d6 25 f8 be
       0.17470872 -0.4305691 -0.011451066 -0.48466367
000050 c0 f4 44 3d 20 43 8f 3d 22 28 9c 3e 1c a2 1d be
       0.048084974 0.06995225 0.3049937 -0.15393871
000060 ac 20 8c 3e 90 e0 7d bd 08 5e 9d 3e ba 11 84 3e
       0.27368677 -0.061981738 0.30735803 0.25794774
000070 be a5 ef be ce 14 fa be 1e ff f5 be f0 92 dd be
       -0.4680614 -0.48843998 -0.480462 -0.43276167
000080 60 5c ba bc 50 06 b5 be 7c e9 01 3e 58 71 8b 3e
       -0.022749126 -0.3535638 0.12686723 0.27234912
000090 10 60 ec be 00 08 21 3d 66 50 8e be 8c 98 ab be
       -0.4616704 0.03931427 -0.27795714 -0.33514822
0000a0 d8 2f ce bd 16 80 d2 be 00 68 4f 3e e4 38 ff be
       -0.10067719 -0.41113347 0.20254517 -0.49848092
0000b0 04 6e 2a 3e d8 8c 7d be 88 d6 ec 3d 96 38 9b be
       0.1664353 -0.24760759 0.11564356 -0.3031661
0000c0 dc fe 8b be a0 ea 65 3e 10 62 24 3d 34 6f 99 be
       -0.2734288 0.22452784 0.040132582 -0.29967654
0000d0 78 cd f2 3d a4 ce ad 3e 90 93 0f be 58 1f c1 3d
       0.11855596 0.33946717 -0.14021134 0.094298065
0000e0 e2 c2 9b 3e 4c 6b fd be c8 98 a7 be b8 60 b4 3e
       0.3042212 -0.49495924 -0.3273375 0.3523004
0000f0 00 09 2a 3b 98 3c 94 3d 60 11 50 bd dc 33 c5 be
       0.0025945306 0.0723812 -0.05079782 -0.38516128
000100 9c f3 b5 be f8 e6 30 be a0 3b e1 3c e0 81 3f be
       -0.35537422 -0.17275608 0.027494252 -0.18701887
000110 5a 8b fe 3e 2c 10 28 3e d0 82 04 3d 80 74 c4 3e
       0.49715692 0.16412419 0.032351315 0.38370132
000120 d4 43 9c be 9a b9 a0 be a0 6d 25 3d c8 4e 35 3e
       -0.305205 -0.31391603 0.04038775 0.17705834
000130 b8 3a d1 bd 1c a5 4c be b0 7c a3 3d 30 d8 7c be
       -0.10216278 -0.19984859 0.07982767 -0.24691844
000140 74 0b 3a 3e a8 65 e3 3d 8a 0c b9 3e 70 fa 2f 3e
       0.18168432 0.11103374 0.3614238 0.17185378
000150 e6 e0 c3 3e 22 c5 a3 be f2 9e b2 be 74 b7 70 be
       0.3825752 -0.31986338 -0.3488689 -0.23507482
000160 60 ea 49 3d 2c e8 40 be 12 72 98 3e e0 ba a4 be
       0.049295783 -0.18838567 0.2977453 -0.32173824
000170 9c c9 a3 3e 98 8a 64 be a0 ba 88 bd ec a6 44 3e
       0.31989753 -0.22318494 -0.06676221 0.192043
000180 ec e1 87 3e ec 63 68 be f8 95 fa 3d 72 56 bb 3e
       0.26539552 -0.22694367 0.122356355 0.3658939
000190 94 0c 52 be 40 1f df 3c e4 5d 7a 3e ca 17 f1 3e
       -0.2051261 0.02723658 0.24449879 0.47088462
0001a0 b4 93 6c 3e 00 be 10 3b 40 c9 92 3e ce 7a d4 be
       0.2310322 0.0022085905 0.28669167 -0.41499943
0001b0 c4 22 58 3e 5e 9b ed be cc c4 82 be 22 03 c9 be
       0.21107012 -0.46407598 -0.2554077 -0.39260203
0001c0 18 a8 e0 be 24 cb 40 be c6 6c 9f 3e b0 e7 1e 3e
       -0.43878245 -0.18827492 0.31137675 0.1551807
0001d0 c0 41 07 3e 2c a2 c2 3e 20 19 e4 3d 9a 86 ef be
       0.13208675 0.38014352 0.11137605 -0.4678238
0001e0 d6 a5 8f 3e 9c c7 f4 3e 82 7f c6 3e ec d4 37 3e
       0.2805621 0.4780854 0.38769156 0.17952317
0001f0 b2 49 f3 3e e8 24 27 3e c0 f3 57 be 00 90 30 bc
       0.47517163 0.16322672 -0.21089077 -0.01077652
000200 44 4d cb be 24 d4 d4 3e 74 a5 f6 3e 40 05 d3 3c
       -0.39707386 0.415681 0.48173106 0.02575934
000210 64 60 bb 3e c0 ab 60 bd 62 b7 9d be a6 ec f1 3e
       0.36596978 -0.054851294 -0.30803972 0.4725086
000220 8e cc eb 3e a0 e1 96 bd 62 4f 8d 3e 46 fd 88 3e
       0.460545 -0.07367253 0.27599627 0.26755732
000230 a0 b3 99 3d 38 51 7e be 98 05 a6 3d d0 af 91 3d
       0.07504964 -0.2483567 0.08106536 0.07113612
000240 4e 91 a5 be d0 c0 d0 3e 76 8f d7 be 5a de b8 be
       -0.3233742 0.40772104 -0.4210164 -0.3610714
000250 40 9e ad bd 30 fa 0c 3e ce 33 cd 3e b8 70 41 3e
       -0.084774494 0.13767314 0.40078586 0.18890655
000260 28 c5 bd 3e 18 b3 b7 be 5c c0 ea be c4 71 b4 be
       0.3706448 -0.35878825 -0.45849884 -0.35243046
000270 e0 e4 17 3e 20 17 99 3e e6 bb 82 3e dc 5e d2 be
       0.14833403 0.29900455 0.2553398 -0.41087997
000280 f4 d3 f6 3e c0 8c 88 be 20 6c 52 be 18 67 9b 3e
       0.48208582 -0.26669884 -0.20549059 0.30352092
000290 ec 1b 88 3e 8a 69 94 be 7c 24 28 3e 22 7b 88 3e
       0.26583803 -0.2898677 0.16420168 0.26656443
0002a0 70 71 dd bd ea 25 fd 3e 40 0d 25 3c 2c 5e bd be
       -0.10812652 0.4944299 0.01007396 -0.3698591
0002b0 aa 39 9d 3e 28 b4 e6 3e 48 be 8d 3e dc 04 93 be
       0.30708057 0.45059323 0.27684236 -0.28714645
0002c0 80 f9 f1 3b 00 33 c1 3c 00 e0 92 bd a8 2e 2b 3e
       0.007384479 0.023583889 -0.07171631 0.16717017
0002d0 b4 92 ee be 60 ee 02 bd a8 26 a9 bd 08 ea b1 bd
       -0.465963 -0.031965613 -0.08259326 -0.08687216
0002e0 bc a8 a5 3e f0 f0 ad 3e ca 97 c0 3e 20 8e 26 3e
       0.32355297 0.33972883 0.37615806 0.16265154
0002f0 9a 98 d1 3e 14 41 ae be 20 21 0f be ee 14 fa 3e
       0.40936738 -0.34034026 -0.1397748 0.48844093
000300 a0 53 ce 3e 88 79 e7 3e 40 e1 e4 3e 78 e4 8a 3d
       0.40298176 0.45209908 0.44703102 0.06781858
000310 f0 da 65 bd 00 6a 57 bb 50 7f 6c 3d d0 ba c5 3d
       -0.056117 -0.0032869577 0.057738602 0.09654772
000320 b0 77 db be b0 0d 21 be e0 c8 87 3c 90 ae 06 3d
       -0.42864752 -0.15727878 0.016575277 0.03288132
000330 de f2 ef 3e 4a 00 f5 3e f2 2f a1 be b0 e2 44 3d
       0.4686498 0.47851783 -0.31481892 0.04806775
000340 c0 1b 60 3c c0 07 54 3d b8 97 28 be 80 ca 15 3d
       0.013678491 0.051765203 -0.16464126 0.036570072
000350 8a 2a 9e be a2 4b bb be 92 09 9e 3e 8e 09 e8 be
       -0.3089183 -0.3658114 0.30866677 -0.4531979
000360 cc 3d 3e 3e 70 3d f8 bd f0 e4 24 3e 70 7e 01 3d
       0.18578261 -0.12121093 0.16102958 0.03161472
000370 a8 33 a2 3d 36 a0 9d 3e 68 49 66 3e 78 b0 29 3e
       0.07920009 0.30786294 0.2248894 0.16571224
000380 10 d8 bd bd 52 37 d7 3e 00 3f 50 bc 9a 13 e7 be
       -0.09269726 0.42034394 -0.012710333 -0.45132142
000390 b4 11 f8 3e 8c fe 02 be b8 26 70 3e 5c 3c 2d be
       0.48451006 -0.12792414 0.2345227 -0.16917557
0003a0 c8 18 31 be 60 d4 76 3e f0 de 99 3d e0 68 d7 be
       -0.1729461 0.24104452 0.07513225 -0.420722
0003b0 44 b8 2e 3e 9e 5d 9b be 7a ce be be 38 a8 29 be
       0.1706248 -0.30344862 -0.37266904 -0.16568077
0003c0 72 d7 98 3e b0 c9 ef 3d 7a 28 a8 be c0 db f4 3e
       0.29851872 0.11708391 -0.3284338 0.47823906
0003d0 14 a6 0d 3e f4 f3 ba be 38 9a 4c be 02 9a bb 3e
       0.13832885 -0.36514246 -0.19980705 0.36640936
0003e0 0c 0a 24 be 7e af 80 be 10 d1 7f 3e 80 21 eb 3b
       -0.16019458 -0.2513389 0.24982095 0.0071756244
0003f0 1e 37 c2 3e 36 e5 95 3e 4c 2b 9d 3e bc 38 ac be
       0.37932676 0.29276437 0.30697095 -0.33637035

conv1.lin_r.bias f4 [64]
000000 98 df a8 bd 24 98 28 be 60 66 34 bd a8 96 8d be
       -0.08245772 -0.16464287 -0.044042945 -0.27654004
000010 1a 04 c2 3e fe f3 e5 3e 24 fb 2d 3e 20 7e 33 3e
       0.37893754 0.44912714 0.16990334 0.17528582
000020 28 c2 56 3e 78 91 4a 3e e0 4c b2 bd 18 b6 13 be
       0.20972502 0.19782054 -0.08706069 -0.14424932
000030 94 64 28 3e c0 e7 7a 3e a0 70 92 3d c8 fd 0c be
       0.16444618 0.24502468 0.07150388 -0.13768685
000040 60 29 bd bc 7a e0 c6 3e 4c ea 59 3e e0 f2 d7 bd
       -0.023091018 0.38843137 0.21280783 -0.105443716
000050 90 7b 9b 3d 80 e3 be bd c2 ea 98 be 08 f1 cb be
       0.07591927 -0.09320736 -0.29866606 -0.3983233
000060 7a 72 e9 3e f4 9e 6e 3e 8e 72 cc be 20 e4 ae bd
       0.4559515 0.23302823 -0.39931148 -0.08539605
000070 94 9f 58 3e de 37 e3 3e 40 fb 0d bc e2 26 80 3e
       0.21154624 0.4437856 -0.00866586 0.25029665
000080 44 a6 23 be c8 8c ea 3d e0 fd c8 3c c8 7b be be
       -0.15981394 0.11452633 0.02453512 -0.37203813
000090 f4 66 c1 3e 20 20 23 3e e0 44 05 be 8c f1 a5 be
       0.3777386 0.15930223 -0.13014555 -0.32410848
0000a0 1e 47 e4 be f4 ea 5b be 8e 34 e5 be 08 f1 be bd
       -0.44585508 -0.21476346 -0.4476666 -0.09323317
0000b0 b8 ce 70 be c0 2a f4 3d 8e 0e da be 8e ad bc be
       -0.23516357 0.119222164 -0.4258923 -0.36851162
0000c0 3c a0 27 3e 30 43 af 3e 24 26 c9 3e 1a e5 92 be
       0.16369718 0.34230947 0.3928691 -0.28690416
0000d0 40 86 ad 3d 6a 9a e6 be f0 77 ba bd 34 27 67 be
       0.08472872 -0.45039684 -0.091049075 -0.22573549
0000e0 00 01 10 3e 60 5c 61 be 28 5c 75 3e 06 f1 e7 be
       0.14062881 -0.22007895 0.23960936 -0.45301074
0000f0 7a 39 e0 be 90 e9 92 3e a0 74 ad 3d e8 50 c2 be
       -0.4379385 0.2869382 0.0846951 -0.37952352

conv1.lin_edge.weight f4 [64, 2]
000000 11 7e 93 be 24 24 f0 be b0 4b 7f 3d ee 46 d3 be
       -0.2880712 -0.46902573 0.06232804 -0.41265053
000010 28 1c a1 3d 04 99 a3 be 59 11 86 be 51 df c9 be
       0.078666985 -0.3195268 -0.2618511 -0.3942819
000020 7c 89 f0 be 58 38 08 be 16 09 02 bf 91 67 07 bf
       -0.46979892 -0.13302743 -0.50795114 -0.52892405
000030 40 31 07 be 79 7d 04 3f 17 93 23 3f f2 fd f8 3e
       -0.13202381 0.51753956 0.63896316 0.48631245
000040 00 d5 4c 3c 46 aa cb be b8 ad 30 bf ac 92 8f 3e
       0.012501955 -0.39778346 -0.69015074 0.2804159
000050 c7 a2 20 bf fb e2 04 3f 48 75 7a 3e 54 43 8b be
       -0.6274838 0.51908845 0.24458802 -0.27199805
000060 e8 07 31 3e 08 51 4b 3e f2 8c d5 be ae cf be 3e
       0.17288172 0.1985513 -0.41709095 0.37267822
000070 b1 18 29 3f 07 9c 24 bf 45 0a dc be ae 2d 82 3e
       0.660533 -0.6430058 -0.42976585 0.25425476
000080 e0 83 4f be 56 8f 91 3e ff ca 2e bf e6 47 a8 3e
       -0.2026515 0.2842967 -0.682785 0.32867354
000090 39 ec 2a 3f fe 7c e4 3e 24 e6 1c be ba 96 f5 3e
       0.667667 0.4462661 -0.15322167 0.47966558
0000a0 f0 42 3d bd 46 b8 f3 be a0 7f 73 3d af f0 33 3f
       -0.046206415 -0.47601527 0.059447885 0.7028913
0000b0 dc b2 cf be 8d 38 29 3f 35 cf 1b bf da 24 f7 3e
       -0.40566146 0.66101915 -0.6086305 0.48270303
0000c0 80 a8 ec 3c 0f 05 8d be 59 80 2d 3f e6 76 21 bf
       0.02888894 -0.27542922 0.6777397 -0.6307205
0000d0 60 5d 8f bd c4 dd 4f be 63 5e cc be c0 f9 54 3d
       -0.07000232 -0.2029944 -0.3991576 0.051995993
0000e0 1b 42 0b 3f 58 e1 4f be f2 d5 f9 3e 90 ad 50 bd
       0.54397744 -0.20300806 0.4879604 -0.050946772
0000f0 70 27 17 3d 9b 55 33 3f e0 f8 74 bd 80 2d c3 bd
       0.036902845 0.700525 -0.05980766 -0.09530163
000100 a0 3e 1d bd 20 84 3f 3d 80 55 fd 3d 21 ee 05 3f
       -0.038389802 0.046756864 0.123698235 0.5231648
000110 4c 74 b1 be 6b a0 2d 3f 04 6e 15 be dc 21 1e be
       -0.3465904 0.67822903 -0.14592749 -0.15442604
000120 8e 37 f5 3e 21 12 03 3f 20 7b ff be 97 43 f3 be
       0.47893947 0.5119954 -0.49898624 -0.47512504
000130 20 6a e7 bd 56 f3 1c bf 26 ed 9a 3e 60 5f e8 3d
       -0.112995386 -0.613088 0.30259055 0.11346316
000140 9e 38 d5 3e 08 e2 87 bd 90 23 98 bd 7b b3 2e bf
       0.41644758 -0.06634909 -0.07428658 -0.68242615
000150 f6 cc d8 3e 75 4a 23 3f 03 0a 1a bf 38 ae f9 bd
       0.42343873 0.6378549 -0.60171527 -0.12191433
000160 e0 e6 dc bc c8 f6 88 bd 48 7f c5 be 68 11 3f 3e
       -0.026965559 -0.06687695 -0.3857367 0.18658984
000170 76 a3 9b 3e 98 6a 34 bf 60 f4 d4 3c 36 5f e0 3e
       0.30398148 -0.7047515 0.025995433 0.4382264
000180 a2 cd c2 3e 1e 07 bd be 43 88 b5 be e0 15 3a 3e
       0.3804751 -0.36919492 -0.35455522 0.18172407
000190 a6 bd d6 3e 49 4d 1b 3f 90 91 bf 3d a6 33 a4 3e
       0.41941565 0.606648 0.09353936 0.32070655
0001a0 a0 20 ed bd 88 8e a1 3d 5f 61 2a 3f 44 39 2f 3e
       -0.11578488 0.07888514 0.66554826 0.17111689
0001b0 4a 9e 14 bf c2 56 8a be de ec b0 3e 58 60 8a 3e
       -0.5805403 -0.27019316 0.34555715 0.2702663
0001c0 2c 62 6c be 40 e5 22 bc 3e 05 ee 3e c2 d1 0d bf
       -0.23084325 -0.009942353 0.46488374 -0.5539819
0001d0 f3 85 0c 3f 80 c8 f4 bd 32 70 dc 3e d4 67 f5 be
       0.5489189 -0.11952305 0.43054348 -0.47930777
0001e0 c3 e4 01 bf 60 92 a1 be c8 69 10 bf b7 d7 29 3f
       -0.5073969 -0.31556988 -0.5641141 0.6634478
0001f0 66 09 d8 3e f0 36 60 3d 00 90 7d be 06 91 cd 3e
       0.4219467 0.054739892 -0.24761963 0.40149707

conv2.att f4 [1, 1, 64]
000000 c0 19 15 bc 88 7c 35 3e 3d 15 44 be cc 75 a5 3d
       -0.009100378 0.17723286 -0.19148727 0.080791086
000010 18 8a 90 3d c6 16 87 be 40 e9 23 3c 00 e6 6b bb
       0.07057589 -0.26384562 0.010004342 -0.0035995245
000020 a0 f3 5e 3c 30 7b dd 3d d8 ff 41 3e 69 b5 33 be
       0.013607889 0.10814512 0.18945253 -0.17549671
000030 bc f4 a1 3d 72 b9 44 3e 50 46 0b 3d e6 c0 97 3e
       0.079080075 0.19211367 0.034002602 0.29639357
000040 40 4e 64 bc f0 10 c6 3d 3e 8e 39 3e 92 a4 8d 3e
       -0.013934672 0.09671199 0.18120667 0.2766462
000050 b0 2c 8d 3e b6 c2 72 be 98 e4 d5 3d c0 87 2a bd
       0.27573156 -0.23707089 0.104439914 -0.041633368
000060 c9 82 8d be f8 0a 1c 3e b4 65 8f 3e 9e 44 8d be
       -0.27638844 0.15238559 0.2800728 -0.27591413
000070 d3 c5 17 be b8 a8 3d 3e f4 80 5e 3e 76 09 47 3e
       -0.14821558 0.18521392 0.21728879 0.19437203
000080 00 b4 29 bb 84 57 cf 3d ba 0a 04 3e e4 1f 9c 3d
       -0.0025894642 0.10124114 0.12894717 0.0762327
000090 d8 1a b4 3d e0 15 b4 3c 58 50 51 3e 90 9c a4 3d
       0.087941825 0.021983087 0.20440805 0.080376744
0000a0 43 1c 83 be d4 c6 4f 3e 22 86 22 3e 91 f0 18 be
       -0.256075 0.2029069 0.1587148 -0.14935519
0000b0 06 60 82 bd d0 a5 ce 3c 8e 04 36 3e 39 8a 08 be
       -0.06365971 0.02522555 0.17775175 -0.13333978
0000c0 c0 07 02 bc 38 f4 7e 3e b0 df 2e 3d 40 15 88 3d
       -0.007936418 0.2489785 0.042693794 0.06644678
0000d0 a8 55 28 bd c0 a9 ea bc a4 e4 8b 3e a2 ae 87 be
       -0.041097313 -0.028645396 0.27322876 -0.26500422
0000e0 fc f9 a9 bd 67 07 07 be 00 bf e3 bb 80 ee a0 3b
       -0.08299634 -0.13186418 -0.006950259 0.004911244
0000f0 b3 54 85 be 8c 88 52 3e 98 02 84 bd 90 ad 05 3d
       -0.26041183 0.20559901 -0.06445807 0.032636225

conv2.bias f4 [64]
000000 d8 ce 72 3c 4e 41 20 3c b8 be 89 3b 25 6e cf 3b
       0.014819823 0.009781195 0.0042036436 0.006330269
000010 d3 ed b0 3b 58 ad a4 bb 50 1d 83 bc 37 3b 61 bb
       0.0053994446 -0.005025547 -0.016005188 -0.003436757
000020 bb c1 06 3c d3 3f 7a 3c e7 dc 74 bc 7f 9d b0 bb
       0.0082249 0.015274006 -0.014945245 -0.0053898687
000030 34 b4 97 3b 0e 63 0f ba 39 45 9e 3c ba c2 76 39
       0.004629636 -0.00054697774 0.019320117 0.0002353293
000040 d6 7c 22 bc 00 fc 97 3b e1 65 4e 3c 37 12 64 3c
       -0.0099174585 0.004638195 0.012597532 0.013920358
000050 07 30 80 3c 9c 3a 5f b9 c1 91 39 3c af 65 c3 3c
       0.015647901 -0.00021288771 0.011326254 0.023852197
000060 00 c7 1f bc 39 12 05 bd 57 5b a3 bc 4b 49 41 3c
       -0.009752035 -0.03248808 -0.019941015 0.01179726
000070 61 9f a8 bc 37 2d 07 3d 23 c5 17 bb ef 08 ff bc
       -0.02058381 0.033002105 -0.0023158274 -0.03113219
000080 c5 e6 18 bb 46 8e 38 bc 8a 86 8c ba f4 5b f3 3a
       -0.0023330909 -0.011264389 -0.0010721248 0.0018566833
000090 33 13 45 3c e0 7a 72 ba df c0 1d bc 12 8a 47 bb
       0.012028503 -0.0009249877 -0.009628504 -0.0030447287
0000a0 91 10 01 3c f8 97 e5 bb ad a3 19 bc b3 c5 70 bc
       0.007877485 -0.0070066415 -0.009377402 -0.014695573
0000b0 2d a2 03 bc 0f 87 d1 bb ee 6b 99 bc 7b 42 8c bc
       -0.008034271 -0.006394274 -0.018728223 -0.017121544
0000c0 b1 b4 73 bc a6 e7 fc b9 de 4d 22 b9 04 6d 93 3c
       -0.014874623 -0.00048237777 -0.00015478532 0.017996319
0000d0 6b a2 31 bd 14 87 86 bc fe 71 8d 3c 8f 27 ad ba
       -0.043367784 -0.016421832 0.01726627 -0.0013210642
0000e0 a4 06 fc bb 6a 63 d7 bc f7 2f 5a 3a de 90 fb bc
       -0.0076912213 -0.026292522 0.00083231874 -0.030708726
0000f0 f2 c1 c2 ba ee 28 53 b9 46 d9 b7 bc 54 21 cd bc
       -0.0014858826 -0.00020137776 -0.022442471 -0.025040306

conv2.lin_l.weight f4 [64, 64]
000000 7d 7c 1f 3d 59 ff 9c 3d 83 2c ca bd b3 d0 86 3d
       0.03893708 0.07665891 -0.09871771 0.06582775
000010 04 00 38 bc c7 68 21 3d 00 ee 25 bd e7 38 79 b9
       -0.0112304725 0.039406564 -0.040510178 -0.00023767688
000020 f2 a9 67 3b 0b 13 11 3d f7 24 8b 3c 8b 60 8d bd
       0.0035349098 0.03541855 0.0169854 -0.0690318
000030 ab f7 d4 3c 5a d0 06 be 0c b4 be 3d aa ee 03 bd
       0.025997004 -0.13165417 0.09311685 -0.03221003
000040 14 7a f6 39 a0 48 a4 bd 65 34 d1 3d ba 60 c2 bd
       0.00047011732 -0.080216646 0.102150716 -0.094911054
000050 73 17 ff 3d 9f 8e d1 bd 4b 07 14 bd 60 39 80 3c
       0.124556445 -0.10232281 -0.036139768 0.015652359
000060 35 bd 08 be 95 fc ca 3d af e4 e7 3d 70 32 13 bd
       -0.13353427 0.099114574 0.11322915 -0.035936773
000070 a6 f2 1d be 54 ac c6 3d 09 87 87 3c 23 21 52 bc
       -0.15424594 0.09700838 0.016543882 -0.012825283
000080 55 b9 34 3d 26 c2 d3 bd ab 96 7b bd f1 c1 b4 bd
       0.04412206 -0.10339765 -0.061422985 -0.08826054
000090 d7 92 52 3d 15 a5 a0 bd 9c 4f 51 3d 7b 24 d6 bd
       0.05140957 -0.07843987 0.051101312 -0.10456177
0000a0 d2 f8 cb 3d e9 0d 1f be 33 d6 e4 3b 77 04 92 bd
       0.09959568 -0.1553265 0.0069835423 -0.07129758
0000b0 3b 27 7c bd f2 b5 e5 bd fc 07 9e 3d af aa bf 3d
       -0.06156085 -0.11216344 0.07716367 0.09358727
0000c0 d1 b8 5d 3d 1f 18 af bd b0 d7 27 bd 18 5e e8 bd
       0.054131333 -0.085495226 -0.04097718 -0.11346072
0000d0 57 6e 2e 3c e9 9c e7 3d 17 65 59 bd 58 e5 82 bc
       0.010646424 0.11309225 -0.053074922 -0.0159785
0000e0 af 0a af bd 9d 34 e7 bd d0 2e 8f bc 33 e7 ba bd
       -0.085469596 -0.11289332 -0.017478377 -0.09126129
0000f0 28 09 87 bc a8 1a cd bb 1d da 31 be 0d 13 ea 3d
       -0.016483858 -0.006259281 -0.1736836 0.11429415
000100 11 92 a0 bc f9 24 96 3d 62 17 89 bc 15 66 e0 3d
       -0.0196009 0.07331271 -0.016734783 0.109569706
000110 de 09 9c 3d d6 e3 20 3d ce d7 81 bc b6 31 ba 3d
       0.076190695 0.03927978 -0.015849974 0.09091513
000120 fa b2 e6 bd 73 87 c1 3d e2 c2 85 bd 78 6e 85 3c
       -0.11264606 0.09449663 -0.065313116 0.016288027
000130 ca 07 ff bc 4b 66 e9 3c c5 29 8a bd d6 ab 32 bc
       -0.031131644 0.02849116 -0.06746248 -0.010905227
000140 3f 2d 90 bd 8a 02 a3 3d 38 7b 3a 3d 2a 45 5e bd
       -0.0703988 0.07959469 0.045527667 -0.05426518
000150 59 22 a9 bd e3 ff e5 3d b5 9c 7f bd 8e 0e 27 3d
       -0.082585044 0.11230447 -0.062405307 0.040785365
000160 01 37 8f bd 80 fc e9 bd 49 27 6b bd e8 2b 81 bd
       -0.06992913 -0.11425114 -0.057410512 -0.063072026
000170 b4 db 1e be 7d 38 ba 3d 81 aa a2 bd 3f 02 59 be
       -0.15513498 0.090928055 -0.07942677 -0.21192263
000180 2a c4 87 3d 7f f5 fa 3d 4f ad 26 3d d4 12 ea 3a
       0.06629212 0.12253856 0.040692624 0.0017858394
000190 91 de 85 bd a1 71 8a bc 04 6c 12 bd 60 f7 e9 bb
       -0.06536592 -0.016899886 -0.035747543 -0.007140085
0001a0 f3 90 84 bd 43 bb c9 3c bb c0 c2 3d ef 6b 2e 3c
       -0.06472959 0.024625426 0.09509417 0.010645851
0001b0 80 30 8e bd ee a8 ed bd 00 64 d2 3d 56 b3 f3 bd
       -0.069428444 -0.116044864 0.1027298 -0.1189944
0001c0 31 8a 18 3d 93 98 18 3c 2a 23 e2 bc 57 f2 be bd
       0.037241165 0.00931372 -0.027604658 -0.093235664
0001d0 3e 7a 7a bc 7c 11 5d 3d 6e f6 cc bb c8 9d be bc
       -0.015287934 0.053971753 -0.0062549626 -0.023268595
0001e0 d8 ca 92 bd 4d a3 88 3c 96 d4 24 3d 94 2c a3 bc
       -0.071675956 0.01667943 0.0402418 -0.019918717
0001f0 b8 d4 48 3d 7f da 78 bd 7f 2b 2d 3d 3d de 91 3d
       0.04903099 -0.06075525 0.04227781 0.07122467
000200 80 c9 88 3d 32 29 20 bd 05 f5 cf bd df 44 4f 3d
       0.06679058 -0.039101787 -0.10154156 0.05060279
000210 4f 17 92 bc 36 f4 5d bc a0 47 e3 bc aa ac 1e bc
       -0.01783338 -0.013546994 -0.027744114 -0.009684721
000220 ee 9e 2b bd bb 85 cc bd ec 36 67 3d 5d 9d d9 3c
       -0.041899614 -0.099864446 0.056448862 0.026564294
000230 44 2c 1a bd bd 36 bc bd 39 b9 38 3d 54 12 33 bc
       -0.03763987 -0.09190128 0.045098517 -0.010929663
000240 27 e7 c4 3d d0 fe 7f 3d 75 5d 2e 3d c9 f5 9e 3d
       0.09614401 0.062498868 0.042569596 0.077617235
000250 e0 52 01 bd 45 45 15 3d 12 54 6f bd 3a e3 85 3c
       -0.031573176 0.036443014 -0.058429785 0.016343702
000260 7e cc 0e 3e 69 0c 11 3d ae 74 18 bd 13 1d 82 3d
       0.13945195 0.035412226 -0.03722065 0.06353202
000270 fb 84 78 bd 80 19 2b 3c 1e 5c 16 3d 3a 00 0c 3e
       -0.060673695 0.010443091 0.036708944 0.13671961
000280 8a 1e d1 bc 92 74 14 bc f3 6b b6 3d 69 56 e4 3d
       -0.025527257 -0.009060996 0.089073084 0.11149294
000290 a9 e9 40 bb dd 12 f6 bb f0 e2 9a bd 5c 39 ef 3d
       -0.0029436147 -0.007509573 -0.07562816 0.11680862
0002a0 91 39 27 bc 3f b8 9e 3d 51 6d c6 bd af 86 be bd
       -0.010206596 0.07749986 -0.09688819 -0.093030326
0002b0 79 83 71 bd d6 7a f0 3d d3 eb b2 3d 54 e5 b4 bd
       -0.058963273 0.11742179 0.08736386 -0.08832803
0002c0 12 5f 59 3b bb 8c 27 3c a8 b2 a6 bd 3c f8 7e 3d
       0.0033168239 0.010226424 -0.08139545 0.062248453
0002d0 79 fb f1 3c bd 30 14 bc ad fb ac 3d 8d fd ca bd
       0.029538857 -0.009044823 0.08446441 -0.09911642
0002e0 13 3a ae 3d 69 34 8a bd a8 a2 2e 3d c9 1a 5d 3d
       0.085071705 -0.06748278 0.04263559 0.053980622
0002f0 6b 96 8d 3c 77 9f 56 bd 03 66 9e bd e8 d7 a9 bd
       0.017283639 -0.05239817 -0.07734301 -0.08293134
000300 19 38 a3 bd f4 9d 35 3c 0b 13 01 3d d6 e6 03 3e
       -0.07969684 0.011085022 0.0315123 0.12881026
000310 10 78 b7 bc 32 22 06 bc 0e e1 3a 3d 42 00 62 3c
       -0.022396117 -0.008186864 0.045624785 0.013794007
000320 00 e8 d3 3c 7f 5b ce bc 45 05 04 bc b8 29 e5 3b
       0.025867462 -0.025190113 -0.008057897 0.0069934987
000330 ac 92 92 bd ae 6a d1 bd fd 82 4e bd 17 2c 5d 3c
       -0.07156882 -0.10225426 -0.05041789 0.013499281
000340 cd 6f 2e 3b c6 a7 bd bc 0b 50 34 bd 94 21 66 bc
       0.0026616931 -0.02315129 -0.044021647 -0.014046092
000350 63 b6 8e bd a0 85 dc 3d b6 7c ed 3c fa d7 1f 3d
       -0.06968381 0.107676744 0.02899013 0.03902433
000360 52 55 1b bd 60 3d 67 bd e8 a8 28 3c 5a 26 30 3c
       -0.037923165 -0.056455016 0.010294177 0.010751331
000370 37 66 43 3d 48 ab 73 bd 58 83 88 3d 08 2f 22 bd
       0.0477049 -0.05948952 0.06665677 -0.039595634
000380 b6 f8 3f 3d 79 68 d5 3d e5 fe a6 bd 88 b9 40 bd
       0.04686805 0.10420317 -0.08154086 -0.047051936
000390 71 33 c6 bd ed 44 ae bd f4 7b 7e 3d 60 ad 4c 3d
       -0.096777804 -0.0850924 0.06212993 0.04997003
0003a0 e7 ea be ba 12 57 46 bd 27 5c 80 bd 33 df 21 bd
       -0.0014565856 -0.04842288 -0.06267577 -0.0395195
0003b0 48 72 0c 3d 18 a3 05 3e 21 47 d5 3c a2 a7 ea bd
       0.034288675 0.13050497 0.026034893 -0.11457755
0003c0 bd 20 2d bd 85 d1 24 3d 4e d3 dc bd ac ed da bd
       -0.04226755 0.040238876 -0.10782491 -0.106898636
0003d0 1c 50 b0 bd a6 b2 ac bc c1 44 dc 3d e6 ba 8c 3d
       -0.0860903 -0.02108128 0.10755301 0.068715855
0003e0 b7 2c d5 bd 47 58 b9 bc 2f 86 79 bd aa 2c 78 3d
       -0.10408919 -0.022625102 -0.060918983 0.06058947
0003f0 e3 81 dd bb 0a 32 56 3d 76 17 a1 3d 9b dc e9 bb
       -0.0067598685 0.052293815 0.07865803 -0.007136894

conv2.lin_l.bias f4 [64]
000000 0f a3 94 3d 06 fd ab bc 77 93 a3 3d 76 73 0a 3c
       0.072576635 -0.020994674 0.07987111 0.00845038
000010 bd bf d8 bd bd 0f f2 bd a5 6c d2 bc 07 60 4d 3c
       -0.10583446 -0.11819408 -0.025686571 0.012535102
000020 31 bc 03 bd c4 a1 d8 3d 60 1f b0 3d 3d 0b ca 3c
       -0.032161895 0.10577729 0.08599734 0.024663562
000030 dd 14 ae bd 1f dd 0c 3d f4 99 5b bc ff af 3c bd
       -0.08500073 0.034390565 -0.0134034045 -0.04606628
000040 64 69 a5 bc a0 65 c3 3d 65 6c 6c 3d 5f 21 1e 3d
       -0.020191856 0.09540868 0.05772056 0.038606044
000050 e6 21 cd 3d e2 ac d9 bd 49 94 ad bd ed 29 18 3e
       0.10016231 -0.10628678 -0.08475549 0.14859743
000060 1b b0 b9 bd 07 37 47 bd 35 c9 99 bc 8d dd d7 3d
       -0.090667926 -0.048636463 -0.0187727 0.10540304
000070 84 38 cf bd 47 c1 e1 3c 14 9c b8 3c a7 36 04 be
       -0.101182014 0.027557982 0.022535361 -0.12911473
000080 87 48 73 3d 9b b3 7b 3d a1 ef cf 3d 81 15 56 bc
       0.05939534 0.061450582 0.101531275 -0.01306665
000090 66 e5 89 3d 8e db 30 bd f4 f4 3e 3c e4 06 dd bd
       0.067332074 -0.043178134 0.011655081 -0.1079233
0000a0 b1 02 e8 3c dc 7a 0c 3d 7a 9c 96 bc d4 00 a8 bc
       0.028321596 0.034296855 -0.01838516 -0.020508207
0000b0 84 ad a7 bd 24 96 1e bd c7 7e a1 3d ea ef 2b bd
       -0.08187392 -0.038717404 0.07885509 -0.041976847
0000c0 c9 08 76 bd a6 ec 26 3c 3d 01 84 bd 5d 84 9f bc
       -0.060066972 0.010188257 -0.06445549 -0.019472295
0000d0 59 9a 25 bc a9 b5 8d bc fb ca 95 3b 70 35 cf 3d
       -0.0101076 -0.017298536 0.0045713163 0.10117614
0000e0 41 79 8c bc 8d b3 60 bd 5b 9d 92 bd 1b 9b bc 3c
       -0.017147662 -0.054858733 -0.071589194 0.023023179
0000f0 7c c7 c5 3d f2 76 18 bd e2 f3 cc bb 39 72 5b bb
       0.09657189 -0.03722281 -0.006254659 -0.003348483

conv2.lin_r.weight f4 [64, 64]
000000 40 a6 b0 bb c8 b6 f2 bc 1c 76 44 bd c0 2a bf 3d
       -0.0053909123 -0.029628173 -0.0479642 0.09334326
000010 f0 4c 1f bd 2a ad b1 bd ec 4e bc bd bc eb 09 bd
       -0.038891733 -0.086756065 -0.09194741 -0.03367208
000020 e0 a9 a9 3b a2 63 91 bd 00 93 06 bd 00 04 96 3a
       0.0051777214 -0.070990816 -0.032855034 0.0011445284
000030 d4 a3 db 3d 60 9d dd bd 50 6e 5f 3d 28 17 95 3c
       0.10724607 -0.108210325 0.05454856 0.018199518
000040 04 0e 86 3d 46 f6 d2 bd e2 3a 9a bd 88 a3 cd bd
       0.06545642 -0.10300879 -0.07530762 -0.10040957
000050 e4 f8 83 3d 0c 3e df bd e0 b4 95 3d 04 b9 90 bd
       0.064439565 -0.109005064 0.0730989 -0.07066539
000060 58 15 71 3d 38 a6 c6 bc 54 ab ec 3d 76 a3 cd 3d
       0.058858246 -0.024249181 0.11556116 0.10040943
000070 8e 4a bb 3d f0 19 d5 3d b4 cd bc bd 74 2f 6d 3d
       0.091450796 0.10405338 -0.09218922 0.057906583
000080 96 ba 88 3d 1c b4 17 3d 80 71 d1 3a b8 57 0d 3d
       0.066762134 0.037037 0.001597926 0.034507483
000090 12 aa dd bd 28 e4 4e 3d 6c b0 a7 bd 18 f9 00 3d
       -0.10823454 0.050510556 -0.08187947 0.031487554
0000a0 84 f8 8e bd 42 8b 80 3d 8c bc eb 3d 24 15 62 bd
       -0.06980994 0.06276561 0.11510572 -0.055195943
0000b0 c0 24 91 bb 38 44 98 bd d4 92 d8 bd a0 e7 74 bd
       -0.00442943 -0.07434887 -0.1057488 -0.059791207
0000c0 1e c4 b8 bd 48 18 76 bd 66 2b ac bd 36 c2 97 bd
       -0.090217814 -0.06008175 -0.08406715 -0.0741009
0000d0 d8 6e fb bc e0 33 5d bc 1c 28 64 3d b0 08 00 3d
       -0.030692503 -0.0135011375 0.055702314 0.031258285
0000e0 00 b7 56 bb 18 57 8a 3d 90 9d d9 bd 06 25 de bd
       -0.0032762885 0.06754893 -0.10625756 -0.108469054
0000f0 80 e1 21 3d 0a 6b a4 3d 3a 5e ca 3d 00 51 70 3c
       0.039521694 0.080282286 0.098812535 0.014667749
000100 d6 9c b1 bd 3c 27 07 bd ec bf eb bd c0 db f2 bb
       -0.08672492 -0.0329964 -0.115112156 -0.00741145
000110 08 0b 8c 3c d0 f4 5d bc c8 b3 15 3d 7c c0 0e 3d
       0.017095104 -0.013547137 0.036548406 0.034851536
000120 46 57 f3 bd f0 a7 35 3d 40 8d f5 bb b4 e0 6d 3d
       -0.118818805 0.04434961 -0.007493645 0.05807562
000130 b6 d7 a5 bd a0 46 89 bb 40 90 46 3b e0 c7 1f 3d
       -0.08097784 -0.0041893274 0.0030298382 0.039008975
000140 28 98 3a 3d 5a 75 f7 bd 3c 63 17 3d c0 13 42 3d
       0.045555264 -0.1208293 0.03695987 0.047382116
000150 d0 0c c0 bc 30 9b 62 3c 7a 95 d7 bd 58 d3 9d 3c
       -0.02344361 0.013830945 -0.10526557 0.019265816
000160 6c b2 10 bd 8c e6 28 3d 32 28 d7 3d 32 09 c5 bd
       -0.035326406 0.04123549 0.105057135 -0.096208945
000170 36 1b e1 3d c8 76 31 bd f4 f0 58 bd 40 11 49 bd
       0.10991518 -0.04332617 -0.052964166 -0.049088717
000180 a8 4a c5 3c 6e 32 d4 3d 3c 87 ab 3d 18 2b 94 bd
       0.02408345 0.10361181 0.08375403 -0.07234782
000190 4e 23 d0 bd fc 47 37 3d c2 9c 9a 3d 58 7e 98 bc
       -0.10162984 0.044746384 0.075494304 -0.018614933
0001a0 aa df c8 bd a8 9e 9f 3c c0 3c 09 3d 3c d0 7c 3d
       -0.098082855 0.019484833 0.0335052 0.061722025
0001b0 50 ff 74 bd 4c 7d d7 3d 4e fd f2 bd a0 94 b9 3c
       -0.059813797 0.10521945 -0.1186472 0.022653878
0001c0 04 3b 1e bd a0 04 ec bc 12 7d d0 bd 4e e2 8e bd
       -0.0386305 -0.0288108 -0.10180105 -0.06976758
0001d0 ac bc a6 3d d2 bd d3 3d 20 95 58 bd 90 24 00 bd
       0.08141455 0.1033894 -0.05287659 -0.03128487
0001e0 00 c1 f0 3d 44 03 61 bd 90 c0 cd bc 90 e4 5c 3c
       0.11755562 -0.054934755 -0.025116235 0.013482228
0001f0 00 cf dd bc 60 17 62 bc 00 7f f4 3a 14 6f 5e 3d
       -0.027076244 -0.013799518 0.0018653572 0.05430515
000200 98 a2 4a 3d 40 fc fe 3c 1a f4 a5 bd 2c 0a 66 bd
       0.049471468 0.031126142 -0.08103199 -0.056162044
000210 48 c8 2e bd 52 8a a0 bd c0 61 58 3d 94 fb 36 bd
       -0.04267147 -0.078388825 0.052827597 -0.044673517
000220 f0 e8 ff 3d f8 9e 5c bd a8 ee e7 3d 42 9a e6 bd
       0.12495601 -0.053862542 0.11324817 -0.11259891
000230 70 5a d0 bd 50 5b d5 3d 04 6e 92 bd c2 f6 ed bd
       -0.101734996 0.10417807 -0.0714989 -0.11619331
000240 26 63 ef 3d dc 39 54 3d 4c 92 25 bd d0 a4 23 3d
       0.11688833 0.05181299 -0.040422723 0.0399521
000250 b8 8b cb bd 04 35 56 bd a0 a4 90 3b 64 6f 6f 3d
       -0.099387586 -0.052296653 0.004414156 0.05845584
000260 d2 c0 a9 3d 32 3b c6 3d 9c 27 d7 3d 7a 54 b7 bd
       0.08288731 0.09679259 0.10505602 -0.089516595
000270 4c d2 91 bd 20 2d a2 bd a4 23 52 bd 52 10 ca bd
       -0.07120189 -0.07918763 -0.05130352 -0.09866394
000280 f8 73 f7 bc b0 e9 c0 bd 54 4d da bd 48 29 cd bd
       -0.030206665 -0.09419572 -0.106592804 -0.100176394
000290 0c 3c 26 bd 6c 6a 1c bd 2a 59 85 3d d8 34 e9 bd
       -0.04058461 -0.03818743 0.06511147 -0.11387032
0002a0 d8 b7 d1 bd aa 98 ae bd 02 e7 ec bd 30 29 e6 bc
       -0.102401435 -0.08525212 -0.11567499 -0.028095812
0002b0 2c c8 c7 bd c6 5f 92 bd 58 39 00 3d aa 4c a4 3d
       -0.09754977 -0.071471736 0.031304687 0.08022435
0002c0 20 19 11 3d b4 64 fa 3d bc 1c 6f bd 20 cf bd bb
       0.03542435 0.12226239 -0.058377013 -0.0057925135
0002d0 b8 22 bc 3c b8 bc 9b bc 6c 2b b0 bd b0 65 7a 3d
       0.022965774 -0.019010887 -0.08602032 0.061132133
0002e0 ca ad d8 bd ba d0 b8 3d 30 09 84 3c b0 bd 15 3c
       -0.10580023 0.090241864 0.016117662 0.009139463
0002f0 20 dd f5 3c 20 82 4f 3d 58 90 e3 bd 8e 16 e7 bd
       0.030012667 0.050661206 -0.11111516 -0.11283599
000300 5a d7 f7 3d c0 28 09 bb 80 9c a9 bd 84 96 19 3d
       0.12101622 -0.002092883 -0.08281803 0.03749706
000310 ca a9 d2 3d 90 22 16 3c d8 39 fe bc 50 a1 ae 3d
       0.10286291 0.009163514 -0.031033441 0.08526862
000320 80 4a 5e bc 74 22 de bd ea 7b e6 bd c4 64 84 3d
       -0.013567567 -0.10846415 -0.112541035 0.06464532
000330 5c 46 e7 bd 64 af be bd 80 57 9c 3b 20 ca 5e bc
       -0.11292717 -0.09310797 0.004771173 -0.013597995
000340 e6 d2 8b bd 0c a7 54 3d d0 a4 51 3c ec c4 ee bd
       -0.06827335 0.05191712 0.012795642 -0.116586536
000350 60 e9 ef 3d c0 1f 8f 3b c4 31 6a bd c0 31 5b bd
       0.117144346 0.0043677986 -0.057176366 -0.053514242
000360 00 04 15 ba c2 2c a3 bd f8 b6 80 bd 40 13 00 bc
       -0.0005684495 -0.07967521 -0.062848985 -0.00781709
000370 00 8a 98 3d 12 f2 e4 bd 38 df bd 3d 2e 38 fc 3d
       0.074481964 -0.11178984 0.09271091 0.12315403
000380 20 b3 0e bc 94 66 a8 3d 5a 9d bf 3d 60 12 de 3d
       -0.008709699 0.0822269 0.09356184 0.108433485
000390 b0 02 46 bd 2e 1d 8e 3d 2c 79 05 bd 80 b2 fb bb
       -0.048342407 0.06939159 -0.03258626 -0.007681191
0003a0 66 68 d7 3d 7c 1c c2 3d b0 92 a6 3c 5c 31 82 3d
       0.10517959 0.09478089 0.020333618 0.06357071
0003b0 ee 3f c1 bd c6 5e a1 bd 8e 20 b7 bd 60 ea 6f bc
       -0.09436022 -0.07879405 -0.08941756 -0.014643282
0003c0 de 1c a0 bd 68 f9 ee 3c c0 04 03 bd 78 99 cc bd
       -0.07818006 0.02917166 -0.03198695 -0.09990209
0003d0 06 5c 97 bd 70 d9 35 3c 56 e4 a9 3d f0 b3 d2 3d
       -0.07390599 0.011099204 0.08295505 0.102882266
0003e0 76 29 e4 3d 84 39 a4 bd bc a6 05 3d fc 7c e3 bd
       0.111407205 -0.08018783 0.032629713 -0.11107823
0003f0 de da b9 3d 40 4b 9a 3c 00 b9 ad bd 2e ee a5 3d
       0.09074949 0.01883471 -0.084825516 0.0810207

conv2.lin_r.bias f4 [64]
000000 70 cd 83 bc 3a fd a0 bd 88 5a c3 bd 04 42 c2 3d
       -0.016089171 -0.07860799 -0.09538752 0.09485248
000010 ec ba dd bd c0 2d 02 3d dc 22 3c 3d 14 36 e0 bd
       -0.10826668 0.03178191 0.045931682 -0.109478146
000020 3a a2 e3 3d 80 54 ed 3b 18 6e cd bc c0 56 f2 bc
       0.11114927 0.007242739 -0.02507691 -0.029582381
000030 00 68 6f 3b c0 1c 26 bc 30 3f 44 3d c0 6a 5b 3c
       0.0036530495 -0.0101386905 0.047911823 0.01339215
000040 32 51 f8 3d 04 2b 3e 3d 30 78 ec bd f4 70 55 3d
       0.12124862 0.04642774 -0.115463614 0.052109674
000050 c8 c5 87 bd 40 b0 02 3b d0 57 c9 3c 6e e3 af bd
       -0.06629521 0.001994148 0.024578005 -0.08588301
000060 0c fc 1a 3d 44 d5 0c bd 54 d4 dc bd 24 00 67 bd
       0.037838027 -0.034383073 -0.10782686 -0.05639662
000070 68 4a fb 3c a8 21 e8 bd b6 fb f4 bd fa 91 b4 3d
       0.030675128 -0.113345444 -0.119620726 0.08816905
000080 14 59 93 3d e2 09 e2 3d c0 90 a4 3b 80 aa ab bb
       0.07194725 0.11037041 0.0050221384 -0.005238831
000090 18 77 ad bc 4c fb 1a 3d 6c f0 dc bd 56 b3 b6 bd
       -0.021174952 0.03783731 -0.10788044 -0.08920924
0000a0 ac 4c 8a 3d 64 b0 ab 3d d4 1f 97 3d 50 84 f3 bc
       0.06752905 0.08383253 0.073791176 -0.029726177
0000b0 c0 db 26 bd ec 92 17 3d 48 b5 96 3d bc 17 4f 3d
       -0.040736914 0.03700535 0.073587954 0.050559744
0000c0 c4 1f e0 3d 58 dd 02 bd ee 17 fd bd 74 d0 a9 3d
       0.10943559 -0.03194937 -0.1235808 0.082917124
0000d0 aa 8c c6 bd 72 1b f5 3d 48 e1 cf bd aa b8 ec bd
       -0.09694798 0.119681254 -0.10150391 -0.115586594
0000e0 00 89 11 3d 86 bf f9 3d bc 7d 2f 3d 54 96 a8 3d
       0.035531044 0.12194733 0.04284452 0.08231798
0000f0 f0 b0 ce 3c 66 49 c0 bd 80 f6 ae bc cc e0 e3 bd
       0.025230855 -0.09389 -0.021357775 -0.11126861

conv2.lin_edge.weight f4 [64, 2]
000000 98 ba 84 3d f7 09 2b 3f a6 35 d0 3e 8a 43 e1 3e
       0.064809024 0.6681208 0.4066593 0.4399684
000010 9c 82 6d 3e 40 f0 c7 bc 05 04 29 bf 48 e8 00 be
       0.23194355 -0.024406552 -0.6602176 -0.12588608
000020 25 e8 13 3f 9d 3d 2c 3f 60 54 19 3d 80 eb 37 be
       0.577761 0.67281514 0.037433982 -0.1796093
000030 00 44 40 ba a2 dc de be 68 1c 80 bd bb a8 db be
       -0.00073343515 -0.43527704 -0.06255418 -0.4290217
000040 24 32 80 3e 99 f0 0e bf f2 76 f6 3e 99 1a 2e bf
       0.25038254 -0.5583587 0.48137623 -0.68009335
000050 98 84 80 3e d2 b6 59 be 30 dc 08 3d bc 86 d5 be
       0.2510116 -0.21261147 0.033413112 -0.41704357
000060 e6 bb 5a be 98 98 ae be 8b b7 f3 be b2 ea f3 3e
       -0.2136074 -0.34100795 -0.4760097 0.47639996
000070 db e7 bd be d0 97 26 3d 1b ba ed be fa bc fe be
       -0.37090954 0.040672123 -0.4643105 -0.49753553
000080 44 d3 41 be 69 11 0d 3f fa ee e9 3e 76 ca 01 bf
       -0.18928248 0.5510469 0.45690137 -0.50699556
000090 40 b0 24 be f4 3a 6d 3e a2 dd ef 3e 2d b6 07 3f
       -0.16082859 0.2316702 0.4684878 0.53012353
0000a0 c0 52 d3 3c 9f 44 28 3f 4b 23 27 3f 20 7a c4 bc
       0.025796294 0.6572971 0.6528823 -0.023984015
0000b0 fa 79 f8 be a8 24 14 be f0 49 1c bd f6 b4 83 3e
       -0.4853056 -0.14467108 -0.03815645 0.25724
0000c0 ab be 1b bf ed fd 2d bf 5d 42 10 3f 00 44 72 3d
       -0.6083781 -0.67965585 0.5635126 0.05914688
0000d0 67 f4 25 3f 9c e9 38 3e 90 03 0b be 28 0c 00 bf
       0.64826053 0.18057865 -0.13575578 -0.5001855
0000e0 f9 a9 1a bf c8 dc 80 bd dc b0 1c be 22 48 91 3e
       -0.6041561 -0.06292111 -0.15301841 0.28375345
0000f0 7e 34 b1 3e 5c ad 7b 3e c8 72 cb bd f8 ed 13 bf
       0.3461036 0.2457785 -0.09934002 -0.57784986
000100 60 6e c6 bd b0 08 b2 3d 2c 91 1a bf 90 f2 67 bd
       -0.09689021 0.08693063 -0.60377765 -0.05662781
000110 22 a7 d3 3e 93 84 27 3f 81 5b 03 3f ba 96 97 be
       0.4133845 0.6543667 0.513115 -0.29607183
000120 f5 34 17 bf b4 ef 32 be 37 5e 34 3f 90 35 5f 3d
       -0.5906518 -0.17474252 0.7045626 0.05449444
000130 9c 37 31 be 1a 8a a1 3e ce 5e f7 be b0 75 e5 bd
       -0.1730637 0.31550676 -0.48314518 -0.11204088
000140 54 c4 94 3e ce ca 05 bf 3a 72 ef 3e 16 ee ff 3e
       0.29056036 -0.5226258 0.46766835 0.49986333
000150 87 86 2b 3f 40 17 34 bc d2 c0 8f be 7e 34 7e be
       0.6700215 -0.010991871 -0.28076798 -0.24824712
000160 70 9a 7c bd 40 4b 05 3e 18 0e 8b 3e 90 d9 54 be
       -0.06167072 0.13016987 0.2715919 -0.20786119
000170 4a 8b 9e be c0 f6 56 bd 1c 26 14 bf 4b 78 27 3f
       -0.30965644 -0.052481413 -0.5787065 0.6541793
000180 a5 31 bf be 40 9d 19 3e f6 d4 fd 3e 70 bd fb be
       -0.37342563 0.15001392 0.4957654 -0.49167967
000190 58 5f 04 bf f0 4c 5b 3e ee cd 8e 3e f6 86 08 bf
       -0.51707983 0.21416068 0.27891487 -0.53330934
0001a0 dd d2 84 be 32 3b a9 3e 23 98 19 3f 96 e4 ae be
       -0.25942126 0.33052975 0.5999777 -0.34158772
0001b0 25 d3 f9 be f2 b4 16 bf 28 9d 56 3e 3a a3 c0 3e
       -0.48793903 -0.5886985 0.20958388 0.37624532
0001c0 e0 1e 0e 3d f9 d1 e2 be 20 70 f6 3d b0 44 25 bf
       0.034697413 -0.4430082 0.12033105 -0.64557934
0001d0 40 f0 42 bd b2 a6 b4 be 83 a9 8a be 1a 5e 05 bf
       -0.0475924 -0.35283428 -0.27082452 -0.5209671
0001e0 d8 49 07 be a4 9b ee be 37 35 ba be 35 13 13 3f
       -0.13211763 -0.4660312 -0.36368725 0.5745118
0001f0 c6 5f 0c bf 15 5e 29 3f fa f9 8c be e4 cd 11 bf
       -0.5483364 0.6615918 -0.27534467 -0.5695479
