saved_models/edgat.pt (torch, 15486 bytes, 16 tensors)

conv1.att f4 [1, 1, 32]
0	0x3ea202b8	0.316427
1	0xbd8e1c68	-0.06939012
2	0xbd4a4368	-0.04938069
3	0xbe4e5f61	-0.20153572
4	0x3da8d878	0.08244413
5	0xbe7f757b	-0.24947159
6	0x3c97b970	0.01852104
7	0x3dc9a0e0	0.098451376
8	0x3e615c74	0.22007924
9	0x3e42cd64	0.19023663
10	0xbe42131c	-0.18952602
11	0xbd596c78	-0.05308196
12	0x3e987d94	0.29783309
13	0xbeafa941	-0.34308818
14	0xbeb00818	-0.34381175
15	0xbbb88b80	-0.005631864
16	0x3e300c04	0.17192084
17	0x3da97190	0.082736135
18	0x3ec4c706	0.38433093
19	0xbe92a79c	-0.286435
20	0xbe57901a	-0.21051064
21	0xbe0de1a6	-0.1385561
22	0x3ea84486	0.3286478
23	0x3eab5264	0.33461297
24	0xbea666ca	-0.32500297
25	0x3dc90178	0.09814733
26	0x3e1df0a4	0.15423828
27	0x3e237238	0.1596154
28	0x3ed06152	0.4069925
29	0xbe9966a2	-0.29961115
30	0x3d8e3df8	0.06945413
31	0xbecd8d80	-0.40147018

conv1.bias f4 [32]
0	0xbbbad83b	-0.005702046
1	0xbd23747b	-0.039906006
2	0xbc86d8fb	-0.016460886
3	0xbdd2631e	-0.10272811
4	0xbd20f837	-0.039299216
5	0x00000000	0.0
6	0x00000000	0.0
7	0xbc52cea4	-0.01286665
8	0xbd176216	-0.036958776
9	0xbce04f18	-0.027381465
10	0xbc35bc3b	-0.011092241
11	0xbc11026f	-0.008850678
12	0x00000000	0.0
13	0x00000000	0.0
14	0xbce483b0	-0.027894825
15	0xbe0241a4	-0.12720352
16	0xbd600a2d	-0.054697204
17	0x00000000	0.0
18	0xbcab92ed	-0.020944083
19	0xbc09598c	-0.008383166
20	0xbc9b3af0	-0.018949002
21	0xbbf03448	-0.007330451
22	0xbca27e5d	-0.019835645
23	0xbd6306c0	-0.05542636
24	0xbc96d1cf	-0.018410591
25	0xba0d3152	-0.00053860724
26	0xbd4645f4	-0.048406556
27	0xbca198ca	-0.019726176
28	0xbc8ebb1f	-0.01742321
29	0xbc4f1431	-0.012639091
30	0x00000000	0.0
31	0xbcaeaf55	-0.02132384

conv1.lin_l.weight f4 [32, 4]
0	0xbeb8a571	-0.36063722
1	0xbe1020f3	-0.14075069
2	0xbd0aceef	-0.033888754
3	0x3c80f17c	0.015740149
4	0x3da8eb0e	0.08247958
5	0x3ebd94a5	0.3702747
6	0xbd1a11be	-0.037614577
7	0x3d8ca14a	0.06866701
8	0x3e330623	0.1748281
9	0xbedafe71	-0.42772248
10	0xbed9e3fe	-0.42556757
11	0x3ebf850d	0.37406197
12	0x3e8a7f53	0.27050266
13	0x3ea8e9ab	0.32990775
14	0x3d4e03d4	0.05029662
15	0xbe421a5a	-0.18955365
16	0x3ee082f2	0.43849903
17	0x3ea2cc60	0.3179655
18	0xbe8fe20d	-0.2810215
19	0x3e5858a3	0.21127562
20	0xbd6696c0	-0.05629611
21	0xbec6a6be	-0.3879909
22	0xbdb2eb18	-0.08736247
23	0xbeee7bca	-0.4657882
24	0x39190000	0.00014591217
25	0xbe5351a8	-0.20636618
26	0xbee622de	-0.44948477
27	0xbe652fd8	-0.22381532
28	0xbe08bc8a	-0.13353172
29	0x3ee55201	0.44789127
30	0x3d3a22c7	0.045443323
31	0xbea18e03	-0.3155366
32	0x3e4a7150	0.19769788
33	0xbd4f4cd0	-0.050610363
34	0xbeab9838	-0.3351457
35	0xbe93ba62	-0.28853136
36	0xbe9a6697	-0.30156395
37	0x3d23e08d	0.04000907
38	0xbe9439a1	-0.28950217
39	0x3e3c0443	0.18361
40	0xbed3624c	-0.41285932
41	0x3e53a91e	0.20669982
42	0x3e850dd3	0.2598711
43	0x3e5e5b51	0.21714522
44	0xbe21e914	-0.15811568
45	0x3d337740	0.043814898
46	0xbe023ecd	-0.12719269
47	0x3e57851e	0.21046874
48	0xbeb9b348	-0.36269593
49	0xbea50964	-0.32233727
50	0xbc1c1340	-0.009526074
51	0xbede5a1e	-0.4342813
52	0xbe1f3724	-0.15548378
53	0x3de01120	0.10940766
54	0xbe034414	-0.12818938
55	0xbdc66950	-0.096880555
56	0xbf00e515	-0.5034955
57	0xbea3dfbf	-0.32006642
58	0x3eeb8338	0.4599855
59	0x3ed9b1a5	0.42518345
60	0x3e85a926	0.26105613
61	0x3d42e157	0.047578182
62	0x3caf4117	0.021393342
63	0x3e1da650	0.15395474
64	0xbed22306	-0.41042346
65	0x3e3b75db	0.18306677
66	0x3e627646	0.2211543
67	0xbe2b15d1	-0.16707541
68	0x3d46dae0	0.04854858
69	0xbe89f974	-0.2694813
70	0xbe837e78	-0.25682425
71	0xbd4dfc00	-0.050289154
72	0xbecb8a71	-0.3975406
73	0x3eb7203e	0.35766786
74	0x3ea3b76d	0.3197588
75	0xbeafcff7	-0.34338352
76	0xbeb97201	-0.3621979
77	0x3df118c0	0.11772299
78	0x3e6ae0fe	0.2293739
79	0x3df2094a	0.11818178
80	0xbdc13d77	-0.094355516
81	0xbe959a66	-0.2921936
82	0x3e5fc824	0.21853691
83	0xbe0bac9e	-0.13640067
84	0x3e81a7a5	0.25323215
85	0xbec0999e	-0.376172
86	0xbeb4f680	-0.35344315
87	0x3e102431	0.14076306
88	0xbd85cead	-0.06533561
89	0xbe45fdbc	-0.19335073
90	0x3edc373d	0.43010893
91	0x3e02fe95	0.12792428
92	0xbe507103	-0.2035561
93	0xbe136577	-0.14394175
94	0x3e89c89c	0.26910865
95	0xbdadf197	-0.08493345
96	0x3db00222	0.08594157
97	0x3e90f523	0.28312024
98	0x3eb0ff3a	0.34569722
99	0x3e405d14	0.18785506
100	0x3eee1cec	0.4650644
101	0xbca16890	-0.01970318
102	0xbd9e1a04	-0.07719806
103	0xbe908b73	-0.2823139
104	0xbdb1aebd	-0.08675907
105	0x3d834e22	0.06411387
106	0x3e18072e	0.14846489
107	0x3df007f2	0.117202654
108	0xbedaf48f	-0.42764708
109	0xbeac4852	-0.33648926
110	0xbec9a7e9	-0.39385918
111	0x3ea34725	0.31890216
112	0xbed863ed	-0.42263737
113	0xbec7217d	-0.38892737
114	0xbeed8e72	-0.4639774
115	0x3eb29d56	0.34885663
116	0x3ec1c93a	0.37848836
117	0x3eef6b31	0.46761468
118	0xbe41a1d4	-0.18909389
119	0x3eb4cf67	0.35314485
120	0xbe537fc0	-0.20654202
121	0xbe502aa0	-0.2032876
122	0xbef5521a	-0.479142
123	0xbec9f792	-0.39446694
124	0x3e31f487	0.17378436
125	0xbeb54c31	-0.35409692
126	0x3e9f2de8	0.3108971
127	0x3e6cf78b	0.23141305

conv1.lin_l.bias f4 [32]
0	0x3e4a7e5f	0.19774769
1	0xbe9c4f55	-0.30529276
2	0x3cccfb21	0.025022091
3	0xbcd6bd9f	-0.026213465
4	0xbe69a00d	-0.22814961
5	0xbdb60f30	-0.088896155
6	0xbd81b928	-0.06334144
7	0xbe58ad17	-0.21159779
8	0xbedc07d0	-0.4297471
9	0xbdbbab0c	-0.09163484
10	0xbe83285f	-0.25616738
11	0x3d21e70a	0.039526977
12	0xbdd1dfa8	-0.10247737
13	0xbe2f1a24	-0.17099816
14	0x3ec356db	0.38152203
15	0xbc8148d3	-0.015781796
16	0xbec710df	-0.3888006
17	0x3e1f27f8	0.1554259
18	0x3d317211	0.043321673
19	0x3e6a20ec	0.22864121
20	0xbe3b4314	-0.18287307
21	0x3e9708a0	0.29498768
22	0x3edfad72	0.43687016
23	0x3cac0dce	0.021002676
24	0xbee53c40	-0.4477253
25	0xbdb664da	-0.08905955
26	0xbdb17d40	-0.08666468
27	0xbecee301	-0.40407565
28	0x3e2b4e15	0.16729005
29	0xbe5395c3	-0.20662598
30	0xbe09bc70	-0.1345079
31	0x3e62b451	0.22139098

conv1.lin_r.weight f4 [32, 4]
0	0xbee71fb8	-0.45141387
1	0x3e30aa44	0.17252451
2	0x3ed4f75a	0.41594964
3	0xbeab947a	-0.33511716
4	0xbe28a0a4	-0.1646753
5	0x3e7f0ff0	0.24908423
6	0xbe0d089c	-0.13772815
7	0x3e03a720	0.12856722
8	0xbe8b2a30	-0.27180624
9	0xbea28546	-0.31742305
10	0x3e970964	0.29499352
11	0x3ef2f010	0.47448778
12	0x3ee414d4	0.4454714
13	0x3e0f38a8	0.13986456
14	0x3efd708c	0.4949993
15	0x3e52bc6c	0.2057969
16	0x3ebeca06	0.37263507
17	0xbd767800	-0.060173035
18	0xbee09214	-0.4386145
19	0xbd0c47e0	-0.034248233
20	0xbe6c5fe4	-0.23083454
21	0x3d164380	0.036685467
22	0x3e108fc4	0.14117342
23	0x3e4fbc58	0.20286691
24	0x3eb73986	0.35786074
25	0x3eb8ec88	0.3611796
26	0xbee32a9e	-0.44368452
27	0xbe0a59d8	-0.13510835
28	0xbefd320c	-0.49452245
29	0x3e15d7d4	0.14633113
30	0xbdb0d6d8	-0.08634728
31	0x3ec874fc	0.39151752
32	0xbd5aeb50	-0.053447068
33	0xbea586a0	-0.32329273
34	0xbeebd9c8	-0.4606459
35	0xbe464120	-0.1936078
36	0xbe8c5f94	-0.2741667
37	0xbe7f327c	-0.24921602
38	0xbeefdff2	-0.46850544
39	0x3caf0e60	0.02136916
40	0xbe9f8c6e	-0.31161827
41	0xbecef852	-0.40423828
42	0x3cef28a0	0.029194176
43	0x3e44f460	0.19233847
44	0xbedb1926	-0.42792624
45	0xbe601860	-0.21884298
46	0xbe7f64f8	-0.2494086
47	0xbe49942c	-0.1968543
48	0xbe975c68	-0.29562688
49	0xbe6a0280	-0.22852516
50	0xbe894944	-0.2681371
51	0xbd8eff08	-0.06982237
52	0x3e9f68c2	0.3113461
53	0x3e54a7cc	0.20767134
54	0xbed49dd0	-0.4152665
55	0x3cd4d800	0.025981903
56	0x3eb4a8f6	0.35285157
57	0xbdc96d58	-0.09835309
58	0xbdd44ca0	-0.103661776
59	0xbee6c5dc	-0.4507283
60	0xbe17dc9c	-0.1483025
61	0xbe35a6ec	-0.17739457
62	0x3ea00efc	0.31261432
63	0x3e9ab392	0.30215126
64	0x3e414c18	0.18876684
65	0x3ebdd1bc	0.37074077
66	0xbdaa6950	-0.08320868
67	0xbef7a232	-0.48365933
68	0x3ec931a8	0.39295697
69	0x3e5d2a94	0.21598274
70	0xbe10548c	-0.14094752
71	0xbed96070	-0.42456388
72	0xbebdc5e4	-0.3706504
73	0xbe53ab34	-0.20670778
74	0x3ec2ae4c	0.38023603
75	0xbdbd2a08	-0.092365324
76	0x3e317fb8	0.17333877
77	0x3e961eca	0.29320365
78	0xbea222f8	-0.31667304
79	0x3c5a8400	0.013337135
80	0xbe6711c0	-0.22565365
81	0x3e0ae658	0.13564432
82	0x3ed744ba	0.42044622
83	0x3e8b60dc	0.27222335
84	0xbea4125a	-0.3204525
85	0x3ecc0536	0.39847726
86	0x3e42ceb4	0.19024163
87	0x3e4a9084	0.19781691
88	0xbc536940	-0.0129035115
89	0x3e8cc456	0.27493542
90	0x3ea21ec8	0.3166411
91	0x3eed9f30	0.46410513
92	0xbe5b0f5c	-0.21392578
93	0x3cd3ace0	0.02583927
94	0x3d659d00	0.05605793
95	0x3e755758	0.239591
96	0x3ca18f00	0.019721508
97	0x3e8edea0	0.27904224
98	0xbdc1a1a0	-0.09454656
99	0xbef78f10	-0.48351336
100	0xbe87e04e	-0.26538318
101	0xbd8ba210	-0.0681802
102	0x3e873940	0.26410866
103	0x3e12a390	0.14320207
104	0x3e45f7d8	0.19332826
105	0xbec88e3c	-0.39171016
106	0xbeb350c6	-0.35022563
107	0xbd848f08	-0.064725935
108	0xbe66ed04	-0.22551352
109	0x3df02378	0.11725515
110	0x3e65cec0	0.2244215
111	0xbe40ae5c	-0.18816513
112	0x3e7d37cc	0.24728316
113	0x3ebeef68	0.37292027
114	0x3ef2e6b8	0.4744165
115	0x3e6bf8a4	0.23044068
116	0xbd462630	-0.048376262
117	0xbee6a1f6	-0.4504544
118	0x3e153744	0.14571863
119	0x3ebc835a	0.36818963
120	0x3ed8c35e	0.42336553
121	0xbd1c2040	-0.038116693
122	0xbc7a3200	-0.01527071
123	0xbe651cb8	-0.22374237
124	0xbe1079b0	-0.1410892
125	0xbe9a77f2	-0.30169636
126	0xbe59007c	-0.21191591
127	0x3df341d8	0.11877793

conv1.lin_r.bias f4 [32]
0	0xbef2a09a	-0.47388154
1	0xbe396908	-0.18106472
2	0xbecdf320	-0.40224552
3	0xbbab6600	-0.005230665
4	0x3daded80	0.08492565
5	0xbbf8ab00	-0.007588744
6	0x3e95c8b2	0.2925468
7	0x3ed8b4de	0.4232549
8	0xbebbde66	-0.36693114
9	0xbe9f639e	-0.3113069
10	0xbed26c38	-0.4109819
11	0x3ea1b85e	0.31585974
12	0x3eae434c	0.34035718
13	0xbe9c1e74	-0.30491984
14	0x3ea6c88c	0.3257488
15	0x3eaff85c	0.3436917
16	0x3dc6b128	0.097017586
17	0x3ea48804	0.32135022
18	0xbe82afc2	-0.25524718
19	0x3e8cfe32	0.27537686
20	0x3ee15e48	0.44017243
21	0xbecd9be2	-0.40157992
22	0x3e900c22	0.28134257
23	0xbef497a6	-0.4777195
24	0x3eaa7bd0	0.33297586
25	0x3effcd96	0.49961537
26	0x3ef1bede	0.47215933
27	0x3eb3bb22	0.35103709
28	0x3e4f4d48	0.20244324
29	0xbefc63dc	-0.49294937
30	0x3ef2d7d4	0.4743029
31	0xbd612b20	-0.054972768

conv1.lin_edge.weight f4 [32, 2]
0	0x3f00a009	0.50244194
1	0xbd8363d8	-0.06415528
2	0x3f1cc025	0.6123069
3	0x3f2a3fe9	0.6650377
4	0x3e880064	0.26562798
5	0xbf323b38	-0.6962161
6	0xbeb0207d	-0.34399787
7	0x3e702b38	0.23453987
8	0x3ef95882	0.4870034
9	0xbeb4ad36	-0.352884
10	0xbf0fafa9	-0.5612741
11	0xbe88da25	-0.2672893
12	0x3d9e2690	0.07722199
13	0x3f3297ff	0.6976318
14	0x3f042025	0.5161155
15	0x3f173b15	0.5907453
16	0x3e9a9e82	0.30199057
17	0xbedc2409	-0.42996243
18	0x3d146660	0.036230445
19	0x3e6e93ec	0.23298615
20	0x3f24767d	0.642433
21	0xbeb7888f	-0.35846373
22	0xbecffb13	-0.40621242
23	0xbf18b34f	-0.59648603
24	0xbf2579c4	-0.64638925
25	0xbe6e5d64	-0.23277813
26	0xbf1c013e	-0.60939395
27	0x3ea1e0d6	0.3161685
28	0x3d283ae0	0.041071773
29	0x3f26ce3f	0.65158457
30	0xbee4a1b7	-0.4465463
31	0xbe18b648	-0.14913285
32	0x3f0100fd	0.50392133
33	0xbeed64e0	-0.46366024
34	0xbebf43b5	-0.37356344
35	0x3dc334c8	0.095315516
36	0x3e0e8c18	0.13920629
37	0xbf06bf8d	-0.52636033
38	0x3ddc7310	0.10764134
39	0x3e804116	0.25049657
40	0xbf0ff632	-0.5623504
41	0x3e9bad7a	0.3040579
42	0x3e494784	0.19656187
43	0xbe6abd6c	-0.22923821
44	0x3f27394d	0.6532181
45	0xbe81d139	-0.25354937
46	0xbe067a48	-0.13132584
47	0xbf2aed87	-0.6676869
48	0xbea4f35e	-0.32216924
49	0xbec01e1b	-0.3752297
50	0x3e88daaa	0.26729327
51	0x3e581754	0.21102649
52	0xbf01fb82	-0.50774395
53	0xbebb2fe3	-0.36559972
54	0xbe20a054	-0.1568616
55	0xbf2d3cdd	-0.67670995
56	0x3ee08b66	0.43856353
57	0x3f06be3f	0.5263404
58	0xbe447614	-0.19185668
59	0x3ebf5f9a	0.37377626
60	0xbf2cd1e4	-0.6750777
61	0xbe525164	-0.2053886
62	0xbd7d15d0	-0.06178838
63	0xbed5b342	-0.41738325

conv2.att f4 [1, 1, 32]
0	0xbdccdf40	-0.10003519
1	0x3de80aa8	0.113301575
2	0xbe1db74a	-0.1540195
3	0xbcba48a0	-0.022739708
4	0xbeaf852e	-0.34281296
5	0xbd6d4028	-0.057922512
6	0x3e0119bc	0.12607473
7	0xbe96339c	-0.2933625
8	0x3c7210e0	0.014774531
9	0x3de0dc68	0.10979539
10	0x3e8b146a	0.27164012
11	0x3df95080	0.12173557
12	0xbd8abc8c	-0.06774244
13	0xbdcb9f80	-0.099425316
14	0xbed36794	-0.4128996
15	0x3e8a0628	0.26957822
16	0x3d8f0450	0.069832444
17	0xbeca572e	-0.39519638
18	0x3e660814	0.22464019
19	0xbe2dbad4	-0.169658
20	0xbe07ad6c	-0.13249749
21	0xbd966d00	-0.07345009
22	0x3e0150d0	0.12628484
23	0xbe811f80	-0.25219345
24	0x3e79e268	0.24402773
25	0x3df7f3e0	0.12107062
26	0xbe95d38e	-0.29262966
27	0xbdfdd630	-0.12394369
28	0xbe6b041c	-0.22950786
29	0x3e1c5534	0.15266877
30	0x3e70538c	0.2346937
31	0xbe949d52	-0.29026276

conv2.bias f4 [32]
0	0xb757c090	-1.2859833e-05
1	0xbb44eadf	-0.003004722
2	0x3b023419	0.0019867478
3	0xbbc42701	-0.005986095
4	0xbb223d39	-0.002475573
5	0xbbaace68	-0.005212594
6	0x3a6c0276	0.0009003052
7	0x3aef241e	0.0018245017
8	0x3b69a330	0.0035650246
9	0xba43f0fd	-0.000747457
10	0xbaad4694	-0.0013219886
11	0xbd5e3821	-0.054252747
12	0xbba36bae	-0.0049872017
13	0xba472630	-0.0007596938
14	0x3b121620	0.002229102
15	0xbacfc8c6	-0.0015852682
16	0xbafd5fe4	-0.0019330946
17	0xbc7f9bef	-0.015601142
18	0x3c2cf200	0.010555744
19	0xbadb1240	-0.0016713813
20	0x3c08d7b5	0.00835221
21	0xbb6d7a4d	-0.0036236227
22	0xbc130a1a	-0.008974576
23	0xbafe1a1a	-0.0019386441
24	0xbb9bc62f	-0.00475385
25	0xbb843efa	-0.0040358277
26	0xbc15fbb0	-0.009154245
27	0xbc181510	-0.009282365
28	0x3b8fb669	0.0043857587
29	0x3b553756	0.0032534203
30	0xbb6e9a88	-0.0036408026
31	0xba23da50	-0.00062504876

conv2.lin_l.weight f4 [32, 32]
0	0x3dc7c2c6	0.09753947
1	0xbe1f4444	-0.15553385
2	0xbc296a62	-0.010340305
3	0xbe057b6f	-0.13035367
4	0xbcac404b	-0.021026751
5	0xbbe57520	-0.007002488
6	0xbd80375b	-0.06260558
7	0x3db800f3	0.08984556
8	0xbda6df23	-0.08148029
9	0xbc91705c	-0.017753772
10	0x3de8a33a	0.11359258
11	0xbd79dcf7	-0.061001744
12	0xbd4eef00	-0.050520897
13	0x3d7ad678	0.06123969
14	0x3d14db05	0.036341686
15	0xbddc3a87	-0.10753351
16	0x3d19f836	0.037590228
17	0x3dc1a436	0.09455149
18	0x3e03b54f	0.12862132
19	0x3d171fb3	0.036895465
20	0x3e0367b3	0.12832527
21	0x3d059621	0.032613877
22	0xbd69aa15	-0.05704697
23	0xbd59a2b0	-0.053133667
24	0x3dddafb6	0.1082453
25	0xbcf0f4b6	-0.029413562
26	0xbdd099a2	-0.10185553
27	0x3d776970	0.060403287
28	0x3e0f83d1	0.14015128
29	0x3e2031ea	0.1564404
30	0x3e1967ab	0.14980952
31	0xbe088132	-0.13330534
32	0xbcfe8ab5	-0.031072
33	0x3dbaf6a8	0.09129077
34	0x3d772baf	0.060344394
35	0x3c8d8c61	0.017278852
36	0x3bac1447	0.0052514407
37	0x3b8e4100	0.0043412447
38	0x3c21dc00	0.009879112
39	0xbd82980b	-0.06376656
40	0x3da7ec6c	0.08199391
41	0x3e221522	0.15828374
42	0xbe1220b6	-0.1427029
43	0xbe0c4a09	-0.13700117
44	0xbdb9e167	-0.09076195
45	0xbdfcf172	-0.123507395
46	0x3e039e33	0.12853317
47	0x3d646118	0.05575666
48	0x3deaf66d	0.11472783
49	0x3ddf45b2	0.10901965
50	0xbc390669	-0.011293032
51	0xbe341211	-0.17585017
52	0x3dc3af69	0.09554941
53	0xbe0eb1e6	-0.1393505
54	0x3d8033cc	0.062598795
55	0xbdcf769b	-0.10130044
56	0xbd7dc639	-0.061956618
57	0xbe40cbc7	-0.18827735
58	0xbe1e5d2a	-0.15465227
59	0xba8cdf54	-0.0010747709
60	0x3e03d468	0.12873995
61	0x3d69dfe5	0.057098288
62	0x3d7bcd0c	0.061474845
63	0x3db067cf	0.0861355
64	0xbe259123	-0.16168647
65	0x3d29d90a	0.04146675
66	0x3c39f483	0.0113498
67	0xbde18219	-0.11011142
68	0x3db1d7a6	0.0868371
69	0xbe1d4f8b	-0.15362374
70	0xbd836ad6	-0.06416862
71	0x3d156fc8	0.036483556
72	0xbdbfab35	-0.09358827
73	0x3d8eae20	0.069668055
74	0xbda8b9a8	-0.08238536
75	0x3d5f6ddb	0.054548126
76	0x3e3479e5	0.17624624
77	0xbe086623	-0.13320212
78	0xbc2c5640	-0.0105186105
79	0xbb53165d	-0.0032209374
80	0x3d20ea82	0.039286144
81	0xbdd80968	-0.10548669
82	0xbda11008	-0.07864386
83	0x3dfab608	0.12241751
84	0x3bb9c906	0.005669716
85	0xbc5f0537	-0.013612083
86	0x3deb4fa9	0.11489803
87	0x3da9e0bf	0.0829482
88	0xbddf7f80	-0.109129906
89	0xbd5432c7	-0.051806238
90	0x3d2481df	0.040162917
91	0x3ced0dc1	0.028937222
92	0xbdaaf7ed	-0.08348069
93	0xbd235b0d	-0.039881755
94	0x3d67331c	0.056445226
95	0xbe2fb8a3	-0.17160277
96	0xbd9bb465	-0.07602767
97	0xbc854e15	-0.016272584
98	0x3d4aaf37	0.049483504
99	0xbc81069a	-0.015750218
100	0xbd32e10e	-0.04367166
101	0xbd627fd6	-0.055297695
102	0x3b6cc480	0.0036127865
103	0x3d81b5fa	0.063335374
104	0x3e0901c5	0.13379581
105	0xbd4fce61	-0.050733928
106	0xbddd7e72	-0.10815133
107	0x3d64f75d	0.055899967
108	0x3d9797ae	0.074019775
109	0xbe12b7ba	-0.14327899
110	0x3d31d74b	0.04341821
111	0x3e14b8af	0.14523576
112	0x3ca570b9	0.020195352
113	0xbe13eda1	-0.14446117
114	0x3d0be7a0	0.03415644
115	0x3ce3c872	0.02780554
116	0x3c9e8c6c	0.019354068
117	0x3da190e2	0.07888962
118	0x3e11425b	0.14185469
119	0xbe220c79	-0.1582507
120	0x3e0980f9	0.13428105
121	0xbe14ae55	-0.14519627
122	0xbe10e459	-0.14149608
123	0x3e496b7c	0.19669908
124	0xbe18d318	-0.14924276
125	0xbd7ba391	-0.061435286
126	0x3e33e39f	0.175673
127	0xbd0b0ae0	-0.033945918
128	0x3e16f457	0.14741646
129	0x3d887e62	0.066647306
130	0xbdb86911	-0.09004415
131	0x3e0c2b89	0.13688482
132	0x3dcaca06	0.09901814
133	0x3c9324c8	0.017961875
134	0xbc578d20	-0.013156205
135	0xbe2c7de8	-0.16844904
136	0x3c352cf1	0.011058078
137	0x3dc0c108	0.09411818
138	0x3d1ae626	0.037817143
139	0xbe236154	-0.15955096
140	0xbbcb3e60	-0.006202504
141	0x3e18b9cf	0.1491463
142	0x3d9975ab	0.074931465
143	0x3e111f1a	0.1417202
144	0x3d15bc50	0.036556542
145	0x3def8c56	0.11696689
146	0x3d8704fb	0.06592747
147	0xbc93a723	-0.018024033
148	0x3e0905db	0.1338114
149	0xbc823d76	-0.015898447
150	0x3db7e22a	0.08978684
151	0xbe04ead8	-0.12980211
152	0xbd20bef2	-0.0392446
153	0xbcf604cb	-0.030031582
154	0xbe2737eb	-0.16329925
155	0xbd95d8ea	-0.07316764
156	0x3e13c493	0.14430456
157	0xbd5f6043	-0.05453516
158	0x3d90bf72	0.07067765
159	0xbda02202	-0.078189865
160	0x3d7baf1d	0.061446298
161	0xbe03fc3c	-0.12889189
162	0x3e303d61	0.17210914
163	0xbc332c8a	-0.010935912
164	0x3da1f643	0.07908299
165	0xbe0316fc	-0.12801737
166	0x3dda7436	0.10666697
167	0x3dc687ba	0.096938565
168	0xbe2dc657	-0.16970192
169	0x3c4033ae	0.011731071
170	0xbc393923	-0.011305126
171	0x3c1e47c3	0.009660664
172	0xbd8ffe0a	-0.07030876
173	0xbe1f6830	-0.15567088
174	0x3df752e0	0.12076354
175	0xbdb501e6	-0.08838253
176	0x3cd3a4f9	0.025835501
177	0x3def6062	0.116883054
178	0x3e05f1c9	0.13080515
179	0x3dad0b26	0.08449392
180	0x3d909360	0.070593596
181	0xbdd1b63e	-0.10239838
182	0x3cc32365	0.023820588
183	0xbddcee6a	-0.107876614
184	0x3de9404c	0.11389217
185	0xbdac7746	-0.08421187
186	0x3db2c8fc	0.08729741
187	0xbd83b729	-0.064314194
188	0x3df3d5c2	0.119060054
189	0x3d758733	0.05994339
190	0xbcafc770	-0.021457404
191	0x3d41c198	0.047303766
192	0xbdd4b3f4	-0.10385886
193	0xbe167694	-0.14693671
194	0xbe08bc18	-0.13353002
195	0xbe20d294	-0.15705329
196	0xbdf055bb	-0.11735102
197	0x3e17fce3	0.14842562
198	0x3d954e46	0.0729032
199	0xbd222809	-0.03958896
200	0xbce81b92	-0.028333459
201	0x3df5428d	0.11975584
202	0x3d485191	0.048905913
203	0x3ddc8b9c	0.10768816
204	0xbd91b6d2	-0.07114948
205	0x3e027769	0.12740864
206	0xbc43c2f1	-0.011948333
207	0x3e2f89db	0.17142431
208	0xbcee7fe1	-0.029113712
209	0xbe053a16	-0.1301044
210	0xbe176262	-0.14783624
211	0xbdc6cbf7	-0.09706872
212	0xbe10bd2f	-0.14134668
213	0x3a79ba4a	0.00095263554
214	0x3d1350a2	0.03596557
215	0x3d9af195	0.07565609
216	0x3c043f0f	0.008071675
217	0x3e28d826	0.16488704
218	0xbe054e04	-0.13018042
219	0xbe0f5cfd	-0.14000316
220	0x3cdd3ca0	0.027006447
221	0x3d367054	0.04454072
222	0x3ca733a8	0.020410374
223	0xbcf88c91	-0.030340465
224	0x3d5760cf	0.05258256
225	0xbe1ee95b	-0.15518706
226	0xbdfd13ab	-0.12357267
227	0x3c80bd1b	0.015715173
228	0xbc3a5a1d	-0.011374024
229	0xbdc87b14	-0.097891
230	0xbda2037b	-0.0791082
231	0xbd5e22d9	-0.054232452
232	0xbde6d8d0	-0.112718225
233	0xbde40f0d	-0.11135683
234	0xbc84d1c3	-0.016213303
235	0xbe0d9cf7	-0.13829409
236	0xbe1b38d6	-0.151584
237	0x3cb3a1d8	0.021927759
238	0xbdcc423b	-0.0997357
239	0x3d105f7b	0.035247307
240	0x3dd04254	0.10168901
241	0x3d8a344c	0.06748256
242	0xbcc2b697	-0.023768706
243	0xbddfc429	-0.109260865
244	0x3e2b9fee	0.16760227
245	0x3e3d4b02	0.18485644
246	0x3c9afd66	0.018919658
247	0x3d054cbc	0.032543883
248	0xbe145902	-0.14487079
249	0xbe01c758	-0.126737
250	0x3d88101e	0.06643699
251	0x3d1a51ce	0.03767567
252	0x3ddad5f6	0.10685341
253	0xbe0eebea	-0.13957182
254	0x3d9fcc5a	0.07802649
255	0x3e094171	0.1340387

conv2.lin_l.bias f4 [32]
0	0xbd3d1970	-0.046166837
1	0xbccf302b	-0.025291523
2	0xbbb14d3c	-0.0054108184
3	0x3dc07c36	0.09398691
4	0xbc037c3c	-0.008025225
5	0xbdbffbe3	-0.093742155
6	0x3e015ba2	0.12632611
7	0x3dfc1ef6	0.12310593
8	0x3da2a01a	0.07940693
9	0xba0b1102	-0.00053049636
10	0xbda97678	-0.08274549
11	0x3c8e8de5	0.017401645
12	0xbccabc41	-0.02474797
13	0x3c6660df	0.014061182
14	0xbc99c492	-0.01877049
15	0x3e101fb1	0.1407459
16	0xbe256a24	-0.1615377
17	0x3d8dca68	0.069233716
18	0x3d5ec5eb	0.054387968
19	0x3db85ec4	0.0900245
20	0x3e3c9df3	0.18419628
21	0xbe2a3e0d	-0.16625233
22	0x3d9e6b74	0.07735339
23	0x3e14eade	0.1454272
24	0xbdfe391f	-0.12413239
25	0xbde924ea	-0.11383994
26	0xbde4f35b	-0.11179229
27	0x3d86d91a	0.065843776
28	0x3dc107fc	0.09425351
29	0xbe260f6f	-0.16216825
30	0x3e21d160	0.15802526
31	0xbdd11dd3	-0.10210767

conv2.lin_r.weight f4 [32, 32]
0	0x3c86d120	0.01645714
1	0xbe20bf25	-0.15697916
2	0xbe19a80e	-0.15005514
3	0xbdd62ff4	-0.10458365
4	0x3e28b969	0.16476978
5	0x3cc83410	0.024438888
6	0x3da82b76	0.082114145
7	0x3e0b286b	0.13589637
8	0xbd8f879f	-0.070082895
9	0xbe0d738c	-0.13813609
10	0x3e10ac79	0.14128293
11	0xbd92adf7	-0.071620874
12	0x3d4e52dc	0.05037199
13	0x3c6a5ea0	0.014304787
14	0xbda1db95	-0.0790321
15	0xbd4f4f60	-0.050612807
16	0x3e099c41	0.13438512
17	0xbd28895c	-0.04114662
18	0xbd48deec	-0.04904072
19	0x3c6e7b50	0.014555767
20	0xbe20afa2	-0.15691999
21	0xbde49927	-0.11162024
22	0x3d60ec7c	0.05491303
23	0xbc320ac0	-0.010866821
24	0x3e01d125	0.12677439
25	0xbd0bf4c4	-0.034168974
26	0x3daee5fa	0.08539958
27	0xbdfc2994	-0.12312618
28	0xbe2670f2	-0.16254023
29	0xbe111aed	-0.14170428
30	0xbd27b014	-0.040939406
31	0x3cbfd850	0.023418576
32	0x3d6105fc	0.054937348
33	0xbdfa5c20	-0.12224603
34	0x3db185ba	0.086680844
35	0xbc6f4a50	-0.01460512
36	0xbd5300c4	-0.051514402
37	0x3d71b628	0.05901161
38	0x3c8c0e40	0.017096639
39	0x3e24af4b	0.16082494
40	0xbdd318a8	-0.10307437
41	0xbe0498e7	-0.12948953
42	0xbe203bae	-0.15647766
43	0xbdf3dcee	-0.11907373
44	0x3c55bb10	0.013045087
45	0xbe106834	-0.1410225
46	0x3d571890	0.05251366
47	0x3d853690	0.065045476
48	0x3e2767e5	0.16348226
49	0xbd836139	-0.06415028
50	0xbba90dc0	-0.00515911
51	0x3e090357	0.1338018
52	0xbc7b7370	-0.015347347
53	0x3d83d438	0.06436962
54	0x3e33be19	0.17552985
55	0xbe2f50cf	-0.1712067
56	0xbd68c466	-0.056827925
57	0x3e29c099	0.16577376
58	0xbdab8059	-0.0837409
59	0xbd2bbb14	-0.04192646
60	0xbd131c98	-0.03591594
61	0x3cbb7088	0.022880808
62	0xbe2e09c8	-0.16995919
63	0x3d997cea	0.074945286
64	0x3de1cdbe	0.1102557
65	0xbd2e3ee0	-0.04254043
66	0xbde4dd0b	-0.11174973
67	0x3e26d53b	0.16292278
68	0x3c8bc118	0.017059848
69	0xbd28fdfc	-0.041257843
70	0xbda70eec	-0.08157143
71	0xbdd7d7f9	-0.105392404
72	0x3d113de4	0.035459414
73	0xbd35c73c	-0.044379458
74	0x3d95fb4e	0.07323323
75	0xbdb91f83	-0.090392135
76	0x3c18fe90	0.009338036
77	0x3dd2981e	0.1028292
78	0x3d73db58	0.059535354
79	0x3c088160	0.008331627
80	0x3dee45b6	0.1163439
81	0xbd2c4180	-0.042054653
82	0xbdc2a6fc	-0.09504506
83	0x3e2d5d11	0.16930033
84	0xbe0f7131	-0.14008023
85	0xbca8b2b0	-0.020593017
86	0x3bce2a40	0.0062916577
87	0xbddb980c	-0.1072236
88	0xbd7ffa80	-0.062494755
89	0x3d744ad8	0.05964169
90	0xbcfcd3c8	-0.030862704
91	0xbbc768e0	-0.0060855
92	0xbe28cb0c	-0.16483706
93	0xbd9de022	-0.077087656
94	0xbe2ff779	-0.17184247
95	0x3d85043a	0.06494947
96	0xbd91785a	-0.07103033
97	0xbe2d3e73	-0.16918354
98	0xbda5eedb	-0.08102199
99	0x3e327ca1	0.17430355
100	0x3dd70d8e	0.10500632
101	0xbdd9a19e	-0.10626529
102	0x3d88f7bc	0.066878766
103	0x3de85d4a	0.113459185
104	0x3e2dd00f	0.169739
105	0xbd164218	-0.036684126
106	0xbe0fc90c	-0.14041537
107	0xbe0fb36f	-0.14033292
108	0x3d8f2b0e	0.06990634
109	0x3e26c575	0.16286261
110	0xbe30b23c	-0.17255491
111	0x3e04d56f	0.12972043
112	0x3cbdb1a0	0.023155987
113	0x3d1671c8	0.036729604
114	0xbd692a98	-0.056925386
115	0xbcaba5e0	-0.020953119
116	0x3cffdd40	0.03123343
117	0x3df74fae	0.120757446
118	0x3d823a4e	0.06358777
119	0x3e14e5d9	0.14540805
120	0x3e1c0571	0.1523645
121	0x3e04983f	0.12948702
122	0xbdb6f433	-0.08933296
123	0xbe29ac6e	-0.16569683
124	0x3b511680	0.003190428
125	0xbd946709	-0.07246215
126	0x3e0d4d79	0.13799085
127	0x3d7b76c0	0.061392546
128	0x3de55e7a	0.111996606
129	0x3df8af9a	0.12142868
130	0x3e1db243	0.15400033
131	0xbe045c00	-0.1292572
132	0x3e1cbaa7	0.15305577
133	0xbd60ca4c	-0.054880425
134	0xbc81bab0	-0.01583609
135	0x3d0e36bc	0.034720168
136	0x3df7ebee	0.12105547
137	0x3d65b4e8	0.05608073
138	0x3dc5571a	0.09635754
139	0x3dcf0f96	0.10110395
140	0xbbbed6c0	-0.00582394
141	0x3d1b4368	0.03790608
142	0xbd00d1f0	-0.031450212
143	0x3d503c94	0.05083902
144	0x3d481e14	0.04885681
145	0x3cfd2eb8	0.030906066
146	0xbe1d1f56	-0.15343985
147	0x3dbe2332	0.09284057
148	0x3dd46ad6	0.1037194
149	0xbe25c128	-0.16186965
150	0xbc9a50d0	-0.018837363
151	0xbda00f69	-0.07815439
152	0x3df01e4a	0.11724527
153	0xbb80d040	-0.0039310753
154	0xbe255fbc	-0.16149801
155	0x3e215113	0.15753584
156	0xbe09a1ac	-0.13440579
157	0x3e17cd2f	0.14824365
158	0xbd40e39c	-0.047092065
159	0x3e1aed5b	0.15129606
160	0xbe27fb25	-0.16404398
161	0x3dd22c6a	0.102623776
162	0xbc6b5430	-0.014363334
163	0x3ca1f088	0.019768015
164	0xbd4cad50	-0.04996997
165	0x3db71f66	0.08941536
166	0x3e044533	0.12917022
167	0x3c46c500	0.012131929
168	0x3cd6c348	0.026216164
169	0xbe187191	-0.14887072
170	0x3e2b1e07	0.16710673
171	0x3d015b70	0.031581342
172	0x3df88fda	0.121368125
173	0x3e1837b9	0.14865007
174	0xbe32f04e	-0.17474481
175	0xbdfb2c1d	-0.12264273
176	0x3e1fa53d	0.15590377
177	0xbdbc95a9	-0.09208233
178	0x3e26614d	0.16248055
179	0x3b687b80	0.0035474002
180	0x3e04410f	0.12915443
181	0x3e0b6a63	0.13614802
182	0x3e0873eb	0.13325469
183	0x3e0fe455	0.14051946
184	0xbd69f726	-0.057120465
185	0xbcbf3878	-0.023342356
186	0x3e08aa81	0.13346292
187	0x3e265b07	0.16245662
188	0xbd35aeec	-0.04435627
189	0xbd8eb983	-0.06968977
190	0x3dd3b146	0.103365466
191	0xbe235da2	-0.15953687
192	0x3daa392a	0.083116844
193	0x3d94fed2	0.072751656
194	0xbe259a85	-0.16172226
195	0x3dbac42e	0.091194496
196	0x3ce78a10	0.028264076
197	0xbda147dd	-0.07875035
198	0xbe20c60e	-0.15700552
199	0x3d2b174c	0.041770265
200	0x3c9ffa98	0.019528672
201	0xba4bf500	-0.00077803433
202	0xbdbbfa6b	-0.09178623
203	0x3db2ec92	0.087365285
204	0x3e17372d	0.14767142
205	0xbd6c7fc4	-0.057739034
206	0x3e13643b	0.14393704
207	0x3e29ba0d	0.16574879
208	0x3d9a5726	0.075361535
209	0xbdceca7d	-0.10097215
210	0xbc36efb0	-0.011165544
211	0x3d101804	0.035179153
212	0xbdadf735	-0.084944166
213	0x3dfe4a7a	0.12416549
214	0xbc48d010	-0.012256637
215	0x38aa3000	8.1151724e-05
216	0xbdab1e53	-0.08355393
217	0x3d304e30	0.043043315
218	0x3ca3c7d8	0.019992754
219	0xbd5ec0f0	-0.05438322
220	0x3d83dff4	0.064392
221	0xbe2701fd	-0.16309352
222	0xbc23e7b0	-0.010003969
223	0x3c89dc68	0.01682873
224	0xbdda41b3	-0.106570624
225	0xbdaa5ab9	-0.08318085
226	0x3bb15cc0	0.005412668
227	0x3dc2f456	0.0951926
228	0xbdf9b036	-0.12191813
229	0xbe197c29	-0.1498877
230	0x3dbb660e	0.09150325
231	0x3ca2ef40	0.019889474
232	0xbe22224e	-0.15833399
233	0x3e2b2db1	0.16716649
234	0xbd58ed2a	-0.052960552
235	0xbde7a0d9	-0.11309976
236	0x3d870cd6	0.06594245
237	0xbe0c05c0	-0.13674068
238	0x3e31db17	0.17368732
239	0xbc6e09b0	-0.014528677
240	0x3e2f42f5	0.17115386
241	0xbe0449a0	-0.1291871
242	0xbde5e161	-0.11224628
243	0x3ddca40e	0.107734784
244	0x3e2d72b9	0.16938294
245	0x3dc3f93e	0.095690235
246	0x3d3b0cbc	0.04566644
247	0xbe312fc9	-0.17303385
248	0x3dff5e02	0.124691024
249	0x3de6ca42	0.11269046
250	0xbd55d292	-0.05220277
251	0x3d395848	0.045250207
252	0x3e0f147d	0.1397266
253	0x3d4086f4	0.0470037
254	0x3d9f4c16	0.07778184
255	0xbe11f1ff	-0.1425247

conv2.lin_r.bias f4 [32]
0	0x3c4d9ba0	0.012549311
1	0xbdffa482	-0.12482549
2	0x3e0361b7	0.12830244
3	0x3a6a9e00	0.00089499354
4	0x3cb2ebb0	0.0218409
5	0x3df2062a	0.11817582
6	0x3cae98a8	0.021313027
7	0xbe323190	-0.17401719
8	0x3d4f856c	0.05066435
9	0xbdfcd872	-0.12345971
10	0x3d4d6e68	0.05015412
11	0x3db3757e	0.08762644
12	0x3ca4e248	0.02012743
13	0x3e2da2a1	0.16956569
14	0xbde366ee	-0.11103617
15	0xbd99c042	-0.075073734
16	0xbe1d017e	-0.153326
17	0xbc348c90	-0.011019841
18	0x3e0ce3fd	0.13758846
19	0xbab94480	-0.0014134794
20	0xbda863ce	-0.08222161
21	0x3e2c2c23	0.16813712
22	0x3dba07de	0.09083532
23	0x3d558230	0.05212611
24	0x3e04d611	0.12972285
25	0xbe04b958	-0.12961328
26	0xbde6af86	-0.11263947
27	0xbe13ed5a	-0.14446011
28	0x3d155438	0.03645727
29	0xbd98d18b	-0.07461842
30	0xbde41a1d	-0.11137793
31	0xbdf99b70	-0.121878505

conv2.lin_edge.weight f4 [32, 2]
0	0xbf1efabd	-0.62101346
1	0xbe01ee68	-0.12688601
2	0x3ec5238e	0.3850369
3	0xbef8b2d0	-0.48573923
4	0x3ea3532a	0.31899387
5	0x3e5ce374	0.21571141
6	0xbe8112fa	-0.2520979
7	0xbeb48c47	-0.35263273
8	0xbf1f99ec	-0.6234424
9	0xbec5a27c	-0.38600528
10	0x3ec0fe2a	0.37693912
11	0xbe91f57d	-0.28507605
12	0xbedb6f0f	-0.42858168
13	0x3eba86e2	0.36431032
14	0xbef2552a	-0.473306
15	0x3e95743e	0.29190248
16	0xbf0c8218	-0.5488601
17	0xbe397d74	-0.18114263
18	0x3f2d6761	0.6773587
19	0xbf0acfdb	-0.5422341
20	0xbed7a12a	-0.42115146
21	0xbed82f80	-0.4222374
22	0x3f12b957	0.57314056
23	0xbdb438d0	-0.087998986
24	0xbed590a5	-0.41711918
25	0x3e14bd3c	0.14525312
26	0xbf06927f	-0.52567285
27	0xb9a9b800	-0.00032371283
28	0xbf10dde2	-0.56588566
29	0x3f0e7f41	0.55662924
30	0xbf02cdf7	-0.5109553
31	0xbe2283b0	-0.15870547
32	0xbe9e5860	-0.309268
33	0xbee93dcf	-0.4555497
34	0xbe935a88	-0.28780007
35	0xbebc037d	-0.3672141
36	0x3ef88b92	0.48543984
37	0x3e76eedc	0.24114555
38	0x3ea62066	0.32446593
39	0x3db24b58	0.08705777
40	0x3ee0e78e	0.43926662
41	0x3f0ca36f	0.5493688
42	0xbf086852	-0.5328418
43	0x3ebef8c6	0.37299174
44	0xbe245ecc	-0.16051787
45	0xbf25936d	-0.6467808
46	0x3ee2b36e	0.4427752
47	0xbefd2705	-0.49443832
48	0x3ef9c7ce	0.4878525
49	0xbe0f8510	-0.14015603
50	0x3eec0f72	0.46105534
51	0xbe0e5d74	-0.13902837
52	0xbf07006c	-0.5273502
53	0xbec37c9f	-0.38181016
54	0xbf228f56	-0.63499963
55	0x3f08d453	0.5344898
56	0x3d145890	0.036217272
57	0x3e3ed524	0.18635994
58	0x3f141649	0.57846504
59	0xbf2e49d0	-0.6808138
60	0xbf070c0c	-0.5275276
61	0x3eec283a	0.4612444
62	0xbf0ca938	-0.5494571
63	0xbf02a7ca	-0.51037276

fc.weight f4 [2, 32]
0	0xbdd01f3b	-0.10162207
1	0x3dab6f08	0.08370787
2	0xbe0b84e8	-0.13624918
3	0xbd4d815e	-0.050172202
4	0x3d38ebc2	0.04514671
5	0xbd8f9205	-0.07010273
6	0x3e0d0c68	0.13774264
7	0x3d6f1a1a	0.0583745
8	0xbcd938ea	-0.026516397
9	0x3d776e29	0.06040779
10	0x3e08f180	0.13373375
11	0x3e2946c6	0.16530904
12	0xbbee9e41	-0.007282049
13	0xbd63d62f	-0.055624183
14	0xbe1c61f9	-0.15271749
15	0xbdda793a	-0.106676534
16	0xbdb89ec4	-0.09014657
17	0x3d81770c	0.063215345
18	0x3e0239f0	0.12717414
19	0xbde2530e	-0.11050998
20	0xbc6bb66d	-0.014386755
21	0xbce917bb	-0.028453698
22	0xbde613ce	-0.11234246
23	0xbd6f8407	-0.05847552
24	0x3e11014d	0.14160652
25	0xbd17d1b2	-0.037065215
26	0xbd92db6a	-0.07170756
27	0xbd0c412a	-0.034241833
28	0xbdd76a05	-0.105182685
29	0xbbd4da6a	-0.0064957635
30	0x3cced612	0.025248561
31	0x3d899d61	0.06719471
32	0xbda01bce	-0.07817803
33	0x3e0f167c	0.13973421
34	0x3e112107	0.14172755
35	0xbdde389b	-0.108506404
36	0xbde9bee2	-0.11413361
37	0xbe24db50	-0.16099286
38	0xbe09a401	-0.13441469
39	0xbe08457b	-0.13307755
40	0xbdedaeb9	-0.11605591
41	0xbd6fa4c4	-0.058506742
42	0x3d90a1d6	0.07062118
43	0x3e298d02	0.16557696
44	0xbdb1ae8a	-0.08675869
45	0xbcbd24ff	-0.02308893
46	0x3ded246f	0.11579215
47	0xbe1563e4	-0.14588886
48	0x3cbacf31	0.022803875
49	0x3d8013df	0.0625379
50	0x3dd53c5b	0.104119025
51	0x3db14197	0.086550884
52	0x3c0e091f	0.008669167
53	0xbe226d2b	-0.15861957
54	0xbdea1f9e	-0.11431812
55	0x3d31f033	0.043441962
56	0x3e109995	0.14121087
57	0xbe1e8c4c	-0.15483207
58	0xbd93b1d0	-0.072116494
59	0xbd094120	-0.033509374
60	0xbd188a0a	-0.03724102
61	0xbdff691a	-0.124712184
62	0x3ddd482e	0.10804783
63	0xbd4075c5	-0.046987314

fc.bias f4 [2]
0	0xbd486774	-0.048926786
1	0x3e0896b2	0.13338736
