saved_models/edgat4.pt (torch, 42898 bytes, 16 tensors)

conv1.att f4 [1, 1, 64]
000000 a2 a9 8d bd 1a 17 97 3e a0 b9 9c bc 06 85 8e 3e
       -0.069171205 0.29509813 -0.019131482 0.27835864
000010 bc de 18 3e c0 9f af bb 60 67 1b 3c b0 b7 e2 bc
       0.14928716 -0.00535962 0.009485096 -0.02767548
000020 88 8d 62 be b6 9d 98 3e 88 fc 55 3e cb 0a 8e be
       -0.22124302 0.29807824 0.20897114 -0.2774261
000030 88 8c 8e bd 5a 73 2a 3e 90 8f 54 bd 49 60 80 be
       -0.06960398 0.16645566 -0.051894724 -0.2507346
000040 00 db 22 bd b8 f2 82 3e ad 33 1d be be cd 07 3e
       -0.039759636 0.25575805 -0.15351744 0.13262078
000050 38 19 3c be 80 e6 6f 3b 98 b7 19 bd fe 65 1a 3e
       -0.18368995 0.0036605895 -0.037528604 0.1507797
000060 89 71 9b be 12 d0 7d be 04 43 6c 3e c0 a3 5f bc
       -0.30360058 -0.24786404 0.2307244 -0.013649881
000070 36 b0 25 be b0 e3 d3 3d 14 4a 1a be 12 c1 93 bd
       -0.161805 0.10346162 -0.15067321 -0.072145596
000080 94 f5 49 3e 72 c3 95 3e 10 9d a3 3d 32 c1 42 be
       0.19722587 0.29250675 0.07988942 -0.1901901
000090 6f d2 88 be 62 1c 64 be c8 90 d9 3d 24 c6 86 3d
       -0.26723048 -0.22276452 0.10623318 0.06580761
0000a0 8a ae 8c bd dc f8 bf 3d 5c 1f 62 bd 02 31 b8 bd
       -0.06869228 0.09373638 -0.055205688 -0.089937225
0000b0 14 d4 e9 3d 5d 49 8d be 20 5b 5a 3d bf c5 82 be
       0.11417404 -0.27595034 0.05330956 -0.25541493
0000c0 77 61 25 be c6 fe 33 be 98 47 1f bd ca 25 8e be
       -0.16150461 -0.17577657 -0.038886636 -0.27763206
0000d0 1c 7d 59 3e bc f5 87 3d 22 36 88 3e 6a 63 88 bd
       0.21239132 0.06638667 0.266038 -0.06659587
0000e0 44 9a 8c 3e 8c 0b b8 3d 10 8b 70 bd 80 cc 0a bb
       0.27461445 0.089865774 -0.05872637 -0.002117902
0000f0 40 94 ed bc a0 a0 6c 3c 69 97 9a be 28 cd 40 bd
       -0.029001355 0.014442593 -0.30193642 -0.047070652

conv1.bias f4 [64]
000000 75 b8 15 bc 84 25 30 bd d5 a9 f1 3d e9 26 6c bd
       -0.009138216 -0.043004528 0.11799971 -0.057654295
000010 c7 51 19 bd fe d7 3e bd 68 dc ce bc ab d0 52 bd
       -0.037431505 -0.046592705 -0.025251582 -0.051468533
000020 e4 0c 24 bd 67 ab b7 be 02 81 31 bc 2b d9 af bd
       -0.040051356 -0.35872957 -0.0108339805 -0.085863434
000030 76 9f 21 bd 36 a8 91 bd 07 bb 1d be dc 6b 0d be
       -0.039458714 -0.07112162 -0.15403377 -0.13810676
000040 9e 9e 84 bd 25 48 0d be 11 a6 a4 bd d2 01 ab bd
       -0.06475566 -0.13797052 -0.08039487 -0.083499566
000050 bf ab 9c bd 8c 47 00 be 7b 30 c3 be ec b9 b8 bd
       -0.076499455 -0.12527293 -0.38122925 -0.09019837
000060 80 f3 83 be cf ac 7d bd 67 33 72 bd 70 aa 04 bd
       -0.25771713 -0.06193238 -0.059131052 -0.032389104
000070 62 8a 56 be 53 64 69 bd 29 95 8e 3c 25 21 be bd
       -0.20951226 -0.056980442 0.01740511 -0.092836656
000080 07 51 5c be 0f a3 9a bc 12 1e df bc bf 21 cd bd
       -0.21515284 -0.01887658 -0.027236018 -0.10016202
000090 05 44 56 bd 23 90 c0 bd 9a 8c b3 bd a1 f5 c1 3c
       -0.052310962 -0.09402492 -0.08767052 0.023676695
0000a0 4d df fa bd 26 c3 e9 bd fc f9 42 be 50 25 d7 bd
       -0.122496225 -0.11414175 -0.19040674 -0.10505164
0000b0 21 00 bf bd a1 c8 dc bc ce c0 8d bc a8 ca 37 be
       -0.093261965 -0.026951136 -0.01730385 -0.17948401
0000c0 20 08 8f bd 6d 85 d4 bd 8c 9a d4 bd 49 1a 05 be
       -0.069839716 -0.103770114 -0.1038104 -0.12998308
0000d0 66 f2 8d bd 99 62 39 bd b9 92 a7 bd 79 ef bd bd
       -0.069309995 -0.045260046 -0.08182282 -0.092741914
0000e0 4e d2 1b bc 2a 6c 19 be 78 bc 54 be bb fa 5d be
       -0.00951059 -0.14982668 -0.2077502 -0.21677677
0000f0 07 3c e6 bd 80 6b 9d bc a3 89 89 bd be 70 c9 bd
       -0.11241918 -0.019216299 -0.06715705 -0.09835957

conv1.lin_l.weight f4 [64, 4]
000000 c3 4c cd bc a0 57 78 be f5 53 f6 be a0 f2 d0 bc
       -0.025061017 -0.24252176 -0.4811093 -0.025506318
000010 7c c8 5f be b5 c6 aa 3e d7 ba 8b be df ce a1 3d
       -0.21853822 0.33354726 -0.27290985 0.07900786
000020 c7 ba 19 3f 9a 8d 91 be c4 72 ea 3d 7e a3 6d 3d
       0.60050625 -0.28428346 0.11447671 0.058017246
000030 49 df 01 bf 0d 94 e4 3e 20 3a c4 3d 36 b8 31 3e
       -0.5073133 0.44644204 0.09581399 0.17355427
000040 49 b5 27 3c ee 8d 21 3e 9d 0a 89 be 01 31 f0 3e
       0.010236093 0.15776798 -0.2676591 0.46912387
000050 ec 36 d6 be 99 ed 12 3f f7 20 61 bc ed fc 20 be
       -0.41838777 0.57393795 -0.01374077 -0.15721484
000060 5b c7 6d 3e 5e 6f a6 be cf 43 37 be 6b 8a a3 be
       0.2322058 -0.3250684 -0.1789696 -0.31941542
000070 93 b9 b8 3e 8c 04 4f be 83 86 38 3e ea 84 a3 3e
       0.36079082 -0.20216578 0.18020062 0.31937343
000080 b2 11 81 3e e0 7f 58 be 0c b3 e8 3d 99 93 58 3e
       0.25208813 -0.2114253 0.113622755 0.21150054
000090 ac 20 b6 3a 1d ed 09 3e 9c ea 9c 3d 06 23 91 3e
       0.0013895235 0.13469358 0.07661936 0.28347033
0000a0 7b 5c 27 3e 3c a8 4a 3e 3e da 90 3d d6 2e 36 be
       0.16343872 0.19790739 0.070728764 -0.17791304
0000b0 df ba 80 be 2e 04 83 bd 48 50 18 3d ff ae 7a be
       -0.2514257 -0.063972816 0.037185937 -0.24480818
0000c0 fb 4f 6b be f6 ea 80 3e e7 e3 c3 be 5c 52 7a be
       -0.22979729 0.2517926 -0.38259813 -0.2444548
0000d0 f4 3d 56 be f8 68 97 be 3a 33 ac be 1c da 9d 3d
       -0.2092207 -0.29572272 -0.33632833 0.07707617
0000e0 68 db ee b9 0f 3a e5 3e 0e 6a 23 3c ff 43 97 3d
       -0.00045558368 0.44770858 0.009974016 0.07386016
0000f0 a8 47 6e be a6 1a 1b 3e e2 55 9f bd 8a 26 85 3e
       -0.23269522 0.15146884 -0.07780053 0.26005965
000100 35 2c 3e 3d 0e 5e 3d 3e 13 a6 a3 3e 3a 34 9d 3e
       0.046428878 0.1849291 0.31962642 0.30703908
000110 50 82 1b be 59 4e dc 3d f4 72 23 3d 43 a8 d5 bd
       -0.15186429 0.10757131 0.03990455 -0.10432484
000120 05 c9 60 3d 1b aa 4e be fa 78 6f be 4a 8b ce be
       0.054879207 -0.20182078 -0.23385993 -0.40340644
000130 3a 8b b3 bd 78 4f 03 3e a6 52 ab be 5b f3 88 bd
       -0.0876679 0.12823284 -0.33461493 -0.06687041
000140 79 60 9a be 04 ff 77 3e 1c cb ce 3e 75 dc b8 3e
       -0.30151728 0.24218374 0.40389335 0.36105695
000150 c3 2a db 3e 28 99 a8 be 11 8d 00 be 1e e2 71 be
       0.42806062 -0.3292935 -0.12553813 -0.23621413
000160 9a 39 8f be 42 20 92 3d f3 fe e8 3d de 1b 75 bd
       -0.27973634 0.07135059 0.11376753 -0.05984103
000170 93 e4 f4 3e d2 40 67 3e 55 a4 2a bd 97 22 02 3f
       0.47830638 0.2258332 -0.041660625 0.5083403
000180 a2 36 5d be 5b 32 7f 3e b3 62 d4 3a 45 97 98 3d
       -0.21602872 0.24921553 0.0016203731 0.074507274
000190 0d 55 c2 3e 23 67 26 3d a1 84 4a be cf 0a 2d be
       0.37955514 0.040625703 -0.19777156 -0.16898654
0001a0 ff 75 c5 3e e7 5b 8f 3e ea 35 6b be 35 f6 0d 3e
       0.38566586 0.27999803 -0.22969785 0.13863452
0001b0 85 b4 67 be c9 02 64 be 84 f7 90 be aa 54 b4 3b
       -0.22627456 -0.22266687 -0.2831384 0.005503257
0001c0 4a cd b9 3d 62 23 1c be 39 73 08 bb 64 e8 6c be
       0.09072359 -0.15247872 -0.0020820631 -0.23135525
0001d0 fa 88 75 be 76 86 7b be d0 cb 30 3b 56 77 7b be
       -0.23978034 -0.24563012 0.002697695 -0.24557242
0001e0 10 93 c2 3e 9c 91 49 3e 1e 5e ce 3b 0f 71 dd 3e
       0.38002825 0.19684452 0.0062978407 0.4325032
0001f0 80 1b d7 3e 51 88 32 be 6d a9 0e be f1 54 bc 3e
       0.42013168 -0.17434813 -0.13931818 0.36783555
000200 bf 03 a9 3e 21 f0 a4 3d 94 be e5 3c bc cf ad 3e
       0.3301067 0.080536135 0.028044976 0.3394755
000210 6e 79 48 3e 0f 83 01 bf af 77 95 3e ca 95 a3 bc
       0.19577572 -0.50590605 0.29192874 -0.019968886
000220 5e 6d fa be 6e 5f 6e be e6 67 8e 3e 1c 9a da 3c
       -0.48911566 -0.23278591 0.27813643 0.026684813
000230 a8 0e 6e 3e f2 c5 eb 3b 6e 5e a8 3e ec a8 61 be
       0.23247778 0.007195228 0.32884544 -0.22037095
000240 70 47 fb be 12 ff b2 3e c4 54 0e 3d e8 1b d8 3e
       -0.4907794 0.34960228 0.034748808 0.4220879
000250 97 52 e2 3e 4b ba a4 bd 71 d9 90 3d 65 6e c5 be
       0.44203636 -0.08043345 0.07072724 -0.38560787
000260 6e d3 82 be 95 be 86 be 70 91 c0 bb 9c fc 7c be
       -0.25551933 -0.26317278 -0.0058767125 -0.24705738
000270 e0 aa 91 be dc 96 d8 3e 2e d6 18 bd 48 ab a9 3d
       -0.2845068 0.42302597 -0.037313633 0.082846224
000280 be e3 be 3e ad 97 e0 be ad 1a af 3e 3a 2e bd 3e
       0.37283128 -0.4386572 0.3420004 0.3694933
000290 47 5f bf be 8e c9 ac bd 83 77 a9 bd 56 a1 f7 bd
       -0.37377378 -0.08436881 -0.08274748 -0.12091319
0002a0 54 35 c9 be b6 68 cf 3e 76 e5 7b 3e 03 ab 40 bc
       -0.392985 0.40509576 0.24599251 -0.011759522
0002b0 38 45 22 3e 6d 25 80 3e 28 31 75 3e 20 6d 88 3e
       0.15846717 0.25028554 0.23944533 0.26645756
0002c0 01 57 5a 3e 69 0c 0f be de 84 53 be ca 0c b6 bd
       0.21322252 -0.13969578 -0.20656154 -0.08889158
0002d0 d6 4b 2c be 51 a5 a4 3e 9b ba ea be c5 f3 ce be
       -0.16825804 0.32157376 -0.45845494 -0.40420356
0002e0 02 89 0c 3e b7 28 0e be 43 28 9b 3d 94 c7 64 3e
       0.1372414 -0.13882719 0.07576039 0.22341758
0002f0 4e 38 c3 bd ae 32 15 3d 0c f6 2f be cd e4 b4 bd
       -0.09532224 0.036425285 -0.17183703 -0.08832703
000300 23 97 c1 bd 65 05 65 be 50 b7 36 3e 92 76 09 3e
       -0.09452655 -0.22365339 0.17843366 0.13424137
000310 1c d8 89 be 13 b2 a3 3e f4 7f b3 3d 02 c0 08 bd
       -0.2692269 0.31971797 0.087646395 -0.033386238
000320 52 8a ce 3d ab e8 2c 3e 72 01 4a 3e 6f a9 a2 be
       0.10084976 0.16885631 0.19727114 -0.31769893
000330 fc 71 39 be f1 77 d9 3e 6d 18 7b be 87 cf b2 3b
       -0.18109888 0.4247432 -0.24521036 0.005456868
000340 38 ea 2d be 01 2c a2 be 0f 7a 18 3d 19 bb 80 be
       -0.16983879 -0.31674197 0.03722578 -0.25142744
000350 c9 c1 47 be 6a 71 22 3c 4b 00 c5 be 0f 47 96 3e
       -0.19507517 0.009914735 -0.38476786 0.29351088
000360 3e f7 1a be e1 0b b3 be 2c b2 e0 be d1 18 5e 3e
       -0.15133378 -0.3497 -0.43885934 0.21689154
000370 4e 9a 98 3d 93 aa 93 be dc e5 7c be 8b 6c 65 3e
       0.07451306 -0.28841075 -0.2469706 0.22404687
000380 4b 64 8a bd d5 da 5b 3e 06 80 3d be ba 2c c0 3e
       -0.067574106 0.21470197 -0.18505868 0.37534124
000390 bf df e4 be 2b 27 f1 3e c5 c1 94 3e fe 95 46 bb
       -0.44701955 0.47100195 0.29054084 -0.0030301805
0003a0 54 c7 84 bd 26 65 22 be 13 c1 a9 bd 1b a5 b4 3d
       -0.06483331 -0.15858898 -0.08288779 0.08820554
0003b0 6e b5 53 bd fa 6e 68 be e7 06 8a be e2 b1 63 bd
       -0.051686697 -0.22698584 -0.2695839 -0.055589564
0003c0 55 76 0d bd a2 40 85 bd 4d f9 4a 3d f9 0f 0c be
       -0.03453668 -0.06506468 0.049554158 -0.13677968
0003d0 b8 d4 a5 bd e5 6f f4 bd 93 76 1d bd de 44 51 3e
       -0.080972135 -0.11935405 -0.03844316 0.20436427
0003e0 a7 fe bf 3d 3c d0 31 3d 62 2b 6e 3e 59 b5 3f be
       0.09374743 0.04341148 0.23258737 -0.18721522
0003f0 c2 5b 46 be c2 52 d4 3d fe 2c 1c 3e d4 21 4c be
       -0.1937094 0.10367347 0.15251538 -0.1993478

conv1.lin_l.bias f4 [64]
000000 67 83 f6 be 52 58 c8 bc 35 7d 43 be 39 0d 4a be
       -0.48147127 -0.024456177 -0.19090731 -0.19731607
000010 f1 b8 62 be 14 c3 76 3e 5b 9b 9d be 49 b4 99 3e
       -0.22140862 0.24097854 -0.3078259 0.3002036
000020 b8 ca 95 be a3 d2 1d 3e 05 16 c6 3e db ca bc be
       -0.29256225 0.15412383 0.38688675 -0.36873516
000030 74 44 cc 3e fd 46 e9 be 62 ce cf be d5 24 86 3e
       0.39895976 -0.45561972 -0.40587145 0.26199976
000040 dc ec 63 bc 56 fa d9 bd 0f 7c af be 7c a1 b6 be
       -0.013911452 -0.10643451 -0.34274337 -0.35670078
000050 d1 4b 2b be c3 21 92 3e 4c 3a 6b 3c 9a 35 5c 3d
       -0.1672814 0.28541383 0.014357161 0.053762056
000060 c8 3b 15 bd 5f 40 95 be 9e ac 0e be 9e de ee be
       -0.036433965 -0.29150674 -0.13933036 -0.46654218
000070 71 23 34 be 5b 7c 07 bf 71 a9 3a be 7c c5 0c 3d
       -0.17591645 -0.52924126 -0.182287 0.034368023
000080 58 f5 0c bf db ba cc be ef 3a 88 be 83 72 c4 3e
       -0.55061865 -0.3998631 -0.26607463 0.38368616
000090 06 06 a7 be 18 3e f2 3c 9c bc 11 bf c7 1b 12 3e
       -0.32621783 0.029570624 -0.5692842 0.14268409
0000a0 84 5d f4 be ae 6a c5 be ef 93 52 3e 02 80 d6 be
       -0.47727597 -0.38557953 0.20564245 -0.41894537
0000b0 8f d3 0e 3e b6 4a 90 3e 05 30 ca be cb ac 65 be
       0.1394789 0.28182 -0.3948976 -0.22429197
0000c0 1e bd 19 3e 54 76 8d 3d 37 ef e8 bd 14 ca ac 3e
       0.15013549 0.06907335 -0.113737516 0.33747923
0000d0 0c 73 4b be b4 fb 9e 3e 81 2f 01 be 39 ac 14 bf
       -0.19868106 0.3105141 -0.12615778 -0.5807529
0000e0 d1 78 94 be ac 6f 84 3e aa 90 86 be 0a e6 e5 3d
       -0.28998426 0.2586645 -0.26282245 0.11225517
0000f0 93 ef cf bd 9c f8 84 3e 29 aa 80 3e b5 8f 36 be
       -0.10153117 0.25970924 0.25129822 -0.17828257

conv1.lin_r.weight f4 [64, 4]
000000 0c 78 d4 3e e8 44 e6 be 60 8a d5 3c 30 e6 d2 3e
       0.41497838 -0.44974446 0.026066959 0.41191244
000010 c0 65 e3 3c 8a 33 8e be 16 16 e7 be 78 31 e3 3e
       0.02775848 -0.27773696 -0.45134038 0.4437368
000020 28 9f 1f be aa 78 8a 3e 6c 04 6f be 50 55 9f 3e
       -0.15588057 0.27045184 -0.2334153 0.31119776
000030 b0 73 db 3e a2 6d 88 be a8 4e 76 3e 0c a2 a0 be
       0.428617 -0.26646143 0.24053442 -0.31373632
000040 58 55 59 be 90 fd 91 3d f2 92 be 3e 30 ff ee be
       -0.21223962 0.07128441 0.37221485 -0.46679068
000050 d4 6b 45 be a8 2c b2 3d e0 17 cd bc 50 e8 ed be
       -0.19279414 0.08699924 -0.025035799 -0.46466303
000060 12 ef f8 be a4 94 f1 3e d6 6e f9 be 72 86 b5 3e
       -0.48619896 0.47183716 -0.48717374 0.35454136
000070 c6 11 b6 3e 58 e9 19 be 16 d4 88 be bc 99 2d 3e
       0.35560435 -0.1503042 -0.2672431 0.16953176
000080 e8 50 96 3e 70 25 5b be d8 bb 94 bd c6 1d cc be
       0.29358602 -0.21401 -0.07262391 -0.39866465
000090 28 dc ce 3e 40 ae 04 3e e4 53 f5 3e 80 af 7b 3c
       0.4040234 0.12957096 0.47915566 0.015361667
0000a0 c8 20 a4 bd d0 48 47 be 08 72 a3 3d 5a 75 d1 3e
       -0.08014065 -0.1946137 0.07980734 0.40909845
0000b0 5c 29 ad be 10 4e 14 3d 7e e3 ef be ee 85 b8 be
       -0.33820617 0.03620726 -0.4685325 -0.3603968
0000c0 aa b1 9f 3e 90 cc ec be 38 07 a8 bd e4 1f 7b be
       0.31190234 -0.4624982 -0.08204502 -0.24523884
0000d0 b4 f1 43 be f0 c5 81 3e 08 66 6c 3e 38 eb 88 3e
       -0.19135171 0.25346327 0.23085797 0.26741958
0000e0 10 24 12 bd 98 ee f1 be 6e 05 8b 3e 74 25 d9 3e
       -0.035678923 -0.47252345 0.2715258 0.42411387
0000f0 98 52 f2 3d 58 f7 e8 3e 38 e8 40 be f8 d0 95 be
       0.1183216 0.45501208 -0.18838584 -0.29260993
000100 68 57 50 be e0 7d c4 be 84 f3 89 3e b2 42 df 3e
       -0.20345843 -0.38377285 0.269436 0.43605572
000110 80 77 2c be 92 68 bc be e2 be d3 be 90 70 8e 3e
       -0.1684246 -0.3679853 -0.4135657 0.27820253
000120 2e 38 fe be 5e 92 d7 be 30 af 39 bd 56 87 e8 3e
       -0.49652237 -0.42103857 -0.045333087 0.45415753
000130 30 9f 8f 3e fa d1 9d 3e ec f8 c9 be 86 91 b7 be
       0.28051138 0.30824262 -0.39447725 -0.35853213
000140 1c 1e e8 3e 80 ca 50 be 88 39 be 3d c8 83 86 be
       0.45335472 -0.20389748 0.09288317 -0.26272416
000150 1c 5e b3 3e f0 c5 f2 3d 38 96 a4 3e f0 78 8d bd
       0.35032737 0.1185416 0.32145858 -0.069078326
000160 f4 e6 d6 3e 76 e4 ff be a4 1d 7c 3e dc a3 38 3e
       0.41973078 -0.4997899 0.24620682 0.18031257
000170 90 be 7d 3e 98 96 da be a0 fe de 3c c0 4e a3 3c
       0.24779725 -0.4269302 0.027221024 0.019935012
000180 7c 28 51 be 0c 6f 61 3e 18 07 bd be 54 7c 75 be
       -0.204256 0.22015017 -0.36919475 -0.23973209
000190 e8 11 d1 3d b6 42 cf be dc 07 d8 be 22 6f a0 be
       0.102084935 -0.40480584 -0.42193496 -0.31334788
0001a0 00 74 d1 be 60 02 f1 3c a4 03 7a 3e 06 82 b4 3e
       -0.40908813 0.029420078 0.24415451 0.3525545
0001b0 2e 72 c7 3e 30 01 f0 bd 98 1a a8 be d0 6d 57 bd
       0.389543 -0.117189765 -0.3283279 -0.05259496
0001c0 08 b6 54 be c2 0c 99 3e 56 bd a7 3e 94 d2 22 be
       -0.20772564 0.29892546 0.3276164 -0.15900642
0001d0 b0 79 1f be 00 6c 5b 3c b6 39 d8 be 70 03 be be
       -0.15573764 0.013392448 -0.4223153 -0.37111998
0001e0 50 d8 b8 3e 00 8b c5 bc 80 22 de be ca 77 a4 3e
       0.36102533 -0.024114132 -0.43385696 0.32122642
0001f0 70 4e 34 be 60 33 ac 3e 30 e9 8e 3d 8a f5 c7 be
       -0.17608047 0.33632946 0.06978071 -0.3905452
000200 a0 1d b1 3d 7e 4b 86 be c0 cb e3 be 08 8c c9 3e
       0.08648229 -0.2622947 -0.44491386 0.39364648
000210 6c 78 19 be 20 9a f1 be f8 e8 aa 3d 90 35 4c 3d
       -0.14987344 -0.471879 0.083452165 0.04985577
000220 18 98 f7 3e 5e f1 e3 be 12 91 97 be 50 9c fd 3d
       0.48358226 -0.44520086 -0.29602867 0.1238333
000230 40 7c 1f 3c d0 99 cc 3d 26 2b ec 3e aa 2e cc be
       0.009734213 0.09990275 0.4612667 -0.39879352
000240 c0 01 7b bc 88 bd 05 be a0 ca 7c be 8a 6a 89 be
       -0.015320241 -0.13060582 -0.2468667 -0.26839095
000250 70 f2 73 be d0 f2 90 3d 06 46 f4 3e 40 85 09 3e
       -0.23822951 0.07077563 0.47709674 0.13429737
000260 60 03 b9 be 58 8e ae 3d b8 dc 93 3d 50 09 9e 3d
       -0.36135387 0.08523244 0.07219833 0.0771662
000270 64 4f 87 be 40 19 38 3d 18 3c a7 bd 34 7a 0d be
       -0.26427758 0.044945955 -0.08165759 -0.13816148
000280 e8 9b f9 bd cc 93 83 3e de f7 ad 3e 12 85 f9 3e
       -0.1218794 0.25698698 0.3397817 0.48734337
000290 90 ad 97 be 84 df cf be 28 61 5b 3e 14 3c a2 be
       -0.29624605 -0.40600216 0.21423781 -0.3168646
0002a0 68 18 d7 3d 20 b2 b1 3d 90 0a 34 bd 72 1c f0 be
       0.10502702 0.08676553 -0.043955386 -0.46896702
0002b0 80 b2 71 bd 78 a0 16 3e f0 fd cb 3e 4e 7c d3 3e
       -0.05900812 0.14709651 0.39842176 0.41305774
0002c0 c0 c2 e4 be 10 31 ca be a4 05 97 3e 10 f6 d2 3d
       -0.44679832 -0.39490557 0.2949649 0.10300839
0002d0 78 65 ab bd 80 a9 d1 bb 3c 1a 41 3e f8 49 fd be
       -0.08368963 -0.00639838 0.18857664 -0.49470496
0002e0 26 50 e0 3e 60 61 54 3e ec b2 b3 3e 38 da dd 3d
       0.43811148 0.2074027 0.35097444 0.108326375
0002f0 70 53 46 3d 5c 1b ae be b8 f5 9b be 8a f9 cd 3e
       0.048419416 -0.3400525 -0.30460906 0.40229446
000300 40 85 75 bd 98 6f b7 be 24 75 7c 3e 04 15 29 be
       -0.05994153 -0.35827327 0.2465406 -0.16511923
000310 78 eb b8 3d a0 50 a0 3e 90 0f 1f 3d c4 7e b6 be
       0.09029287 0.31311512 0.0388332 -0.3564359
000320 40 3c d6 bd 28 71 35 be 80 4b 03 3c f8 1c 5c 3e
       -0.104607105 -0.17718947 0.008013606 0.21495426
000330 26 90 c3 be c4 55 d9 be a0 ea 93 bd 1c 86 94 be
       -0.38195914 -0.42448246 -0.072224855 -0.29008567
000340 f6 4f 94 be 4c 39 4f be a2 35 b0 be 60 43 d5 3e
       -0.28967255 -0.20236701 -0.3441592 0.41652966
000350 d8 72 90 3d 70 a5 7b 3e fe 04 cc be 88 18 33 3e
       0.07053155 0.24574828 -0.3984756 0.17489827
000360 54 c2 0e 3e 5a c9 b3 be c8 2f 0a be 00 7f 93 3c
       0.13941318 -0.35114557 -0.1349479 0.018004894
000370 8e 12 fb be 38 2a 65 be 9a 59 ba be 10 cf db be
       -0.49037594 -0.22379386 -0.36396486 -0.42931414
000380 68 75 c5 bd c8 af c7 3d c8 ca 78 3e d4 62 0f 3e
       -0.09641534 0.097503245 0.24296105 0.14002544
000390 5a d0 82 be d8 f8 a3 3e 36 9d 80 be b0 a0 66 3e
       -0.25549585 0.3202579 -0.25119942 0.22522235
0003a0 78 f1 e6 3d 2c a5 f2 3e 02 2e a9 be 2e fa a9 be
       0.11276525 0.4739164 -0.33042914 -0.33198684
0003b0 7c d2 3b 3e 40 de 84 3d 90 9a b4 be e0 bd 25 be
       0.18342012 0.06487703 -0.35274172 -0.16185713
0003c0 22 01 d3 be 58 fb b7 3d 8e 89 83 be a8 7d 89 be
       -0.41211802 0.08983487 -0.25690883 -0.2685368
0003d0 5a 2d 8a 3e d8 cf e0 3d c2 82 97 be 2c e1 4e 3e
       0.26987725 0.10977143 -0.29591948 0.20203084
0003e0 0c 3e d7 3e 20 3f 49 3e 36 9e bb 3e 3a 9a c6 be
       0.42039526 0.19652987 0.36644143 -0.3878954
0003f0 68 48 d0 be e6 b9 a6 be 20 60 c8 3e 22 2d e0 3e
       -0.40680242 -0.32563704 0.39135838 0.43784434

conv1.lin_r.bias f4 [64]
000000 54 c0 38 be 48 c1 52 3e a6 07 ce 3e f4 b8 2b be
       -0.18042117 0.20581543 0.4024021 -0.16769773
000010 0e 1e 98 be 00 d9 42 3d 50 2c 04 3d ac df 23 be
       -0.2971043 0.04757023 0.032268822 -0.16003293
000020 34 e7 5d be e0 41 44 3e 8e be f9 3e 20 6e c4 3c
       -0.21670228 0.19165754 0.48778194 0.023978293
000030 7a 46 ea be 42 26 b0 3e 02 bf 8d be 1a 61 ff 3e
       -0.45756894 0.34404188 -0.2768479 0.4987877
000040 40 62 20 3c 5a 4d c0 be c0 7a ea be e6 35 d9 3e
       0.00978905 -0.37559015 -0.45796776 0.42423934
000050 70 d6 a3 3e b4 cf 0c 3e a0 96 82 be 80 13 e4 3d
       0.3199954 0.13751107 -0.25505543 0.11136532
000060 f8 2a 75 3e b8 59 3d 3e ce b2 ee be 16 de d5 be
       0.23942173 0.18491256 -0.46620792 -0.41771
000070 d0 da 8f 3e 44 e9 1c be f6 28 8c 3e 00 7a a3 3a
       0.28096628 -0.15323359 0.27375 0.0012472272
000080 d0 40 ea 3d fc ff e3 3e 5c 7d db be f4 63 9d 3e
       0.11438143 0.44531238 -0.4286908 0.3074032
000090 90 06 67 3d 40 d2 99 3e 9a 43 be be 00 bb 9c 3c
       0.056402743 0.3004322 -0.3716095 0.019132137
0000a0 00 f9 6d 3d f0 97 02 bd ae 1f e9 3e a0 87 1b bd
       0.058098793 -0.03188318 0.45531982 -0.03797114
0000b0 de 96 e0 be 20 ed c9 3d 60 c1 a0 bc 24 ce 48 be
       -0.43865103 0.09859681 -0.019623458 -0.19609886
0000c0 40 76 2b 3e 60 8c 7f 3e 28 02 b9 bd 20 1f f2 be
       0.16744328 0.24955893 -0.090336144 -0.47289371
0000d0 80 5b 78 be 6a bc ff 3e ac 23 96 be 80 de 15 3d
       -0.24253654 0.49948436 -0.2932409 0.036589146
0000e0 80 09 24 bd 96 79 93 3e 80 f1 f0 bb c0 6f 77 be
       -0.040048122 0.288037 -0.007353008 -0.24163723
0000f0 78 01 84 bd 34 8a c3 3e 80 35 99 3c 08 d0 94 3d
       -0.06445593 0.38191378 0.018702269 0.07266241

conv1.lin_edge.weight f4 [64, 2]
000000 40 79 7a bc 95 82 14 3f 24 a9 ca be 90 af ff bd
       -0.015287697 0.5801175 -0.3958217 -0.12484658
000010 bc 15 38 be a0 ba 03 bd ba 0e 2f bf 56 ed cf 3e
       -0.17977041 -0.0321604 -0.68381846 0.4061076
000020 8c cf 8f 3e 84 57 10 3e 3b d2 10 3f 40 18 38 3c
       0.28088033 0.14095885 0.56570786 0.01123625
000030 88 97 4f be b0 a9 a7 3d 9a 67 a6 3e ab f3 26 3f
       -0.20272648 0.08186662 0.32500917 0.6521556
000040 dc 18 74 be f2 34 57 be 0a 2b fa 3e e2 69 de be
       -0.23837608 -0.21016291 0.4886096 -0.43440157
000050 fe c3 d3 3e f4 d3 00 3e 18 27 c3 bd 85 eb 15 bf
       0.41360468 0.12580854 -0.09528941 -0.585625
000060 78 49 c8 bd ec 4d 13 bf aa 6d bc 3e 46 02 e7 3e
       -0.09779638 -0.57540774 0.36802417 0.45118922
000070 d1 3b e5 be 63 ab 91 be 50 9b 16 be 24 c9 e9 be
       -0.447722 -0.2845107 -0.14707685 -0.4566127
000080 c0 3f 4b 3c b7 0b da be a6 8c 93 3e 2e 9d 29 bf
       0.012405336 -0.42587063 0.28818244 -0.6625546
000090 7a f5 00 bf 51 d6 2c 3f c0 8b ba bd 16 2d ca 3e
       -0.5037457 0.6751452 -0.091086864 0.39487523
0000a0 00 61 0d 3b b4 12 66 3e 4e 4a e8 3e 48 7b 89 3d
       0.002157271 0.22468072 0.4536919 0.06712967
0000b0 7d 3f 03 3f dc 6e 6c 3e 9a b3 ff 3e 18 59 57 be
       0.5126875 0.23089164 0.49941713 -0.2103008
0000c0 7f 5f 9f be bf 58 29 3f 6f 3e 2b 3f e2 11 18 bf
       -0.31127545 0.6615104 0.6689214 -0.59402287
0000d0 1c 16 5c be 95 e2 2b bf e8 4c dd bd 16 9d 60 be
       -0.21492809 -0.6714261 -0.10805684 -0.21934924
0000e0 81 64 0b 3f 6e 19 c0 3e a6 3e e6 3e 74 ed 83 be
       0.5445023 0.375194 0.44969672 -0.257671
0000f0 d8 e1 b8 bd 54 5d 27 3e 20 6c fd 3c 83 79 19 3f
       -0.09027451 0.16344196 0.030935347 0.5995104
000100 bc 90 45 3e f1 4c f2 be 48 e2 2a bf df b7 21 3f
       0.19293493 -0.47324327 -0.6675153 0.6317119
000110 ed fb 34 3f 82 e9 bc be b9 31 03 3f 6f 49 cf be
       0.7069691 -0.36896902 0.51247746 -0.40485713
000120 31 7e 27 3f 0e ed b6 3e 6f 38 15 3f 01 57 1a bf
       0.6542693 0.35727733 0.58289236 -0.6028901
000130 d8 97 e7 be 10 30 44 be b0 a7 08 bd 31 6f 89 be
       -0.45233035 -0.1915896 -0.033363044 -0.26842645
000140 1d 0c 15 3f a6 d6 94 be 20 67 74 bd bc 9c a8 be
       0.5822161 -0.29070014 -0.05966866 -0.3293208
000150 8e 9a c0 3e f8 d1 c5 bd 2c f8 58 3e 59 3c 93 be
       0.37617916 -0.09659189 0.2118842 -0.2875698
000160 7f 1b 18 3f 87 09 99 be e0 ce 26 bd 55 86 11 3f
       0.59416956 -0.2989008 -0.040724635 0.568456
000170 7c 99 73 3e ab dd 05 3f a6 7f b2 be c5 36 00 bf
       0.23789018 0.52291363 -0.34863013 -0.5008357
000180 23 be 13 bf 52 dc f3 3e 36 0a fd 3e f6 ac a7 3e
       -0.57712 0.4762903 0.49421853 0.32749146
000190 ec 35 05 be d7 88 2c 3f 90 11 0d be 6d 3a b9 be
       -0.13008851 0.673963 -0.13776231 -0.36177388
0001a0 00 c0 06 be d8 ec 04 be 7b 27 bf be f4 4b a3 be
       -0.1315918 -0.12980974 -0.3733481 -0.31893885
0001b0 d8 36 8f 3e 30 2f 3c be bb 08 26 bf 66 31 ba 3e
       0.2797153 -0.18377376 -0.6485707 0.36365813
0001c0 6b db da be 58 1b 3a 3e ca 99 9e 3e d6 cb d0 3e
       -0.42745528 0.18174493 0.30976707 0.40780514
0001d0 c8 2d 1d be 7d 49 11 3f 76 6f c9 3e ee 5d ee 3e
       -0.15349495 0.5675276 0.3934285 0.46556038
0001e0 e1 bb 08 3f 71 5f 2b 3f 0f 6e 0f 3f 38 a6 81 3d
       0.5341168 0.6694251 0.5602731 0.06330532
0001f0 2a b6 6d be a8 47 e7 bd b2 5d fc be 49 11 14 3f
       -0.23214021 -0.11292964 -0.49290234 0.57838875

conv2.att f4 [1, 1, 64]
000000 f0 88 82 be 86 c8 0f 3e bb dc 1e be f4 86 87 be
       -0.254951 0.14041337 -0.1551389 -0.2647015
000010 4a 90 99 3e 27 b2 3f be e0 2b 5e bc ec db 95 3e
       0.29992896 -0.18720303 -0.013560265 0.2926935
000020 e0 d2 50 3d ae e3 8a be ad f0 9a be 6e f8 56 be
       0.050982356 -0.2712683 -0.30261746 -0.20993206
000030 2e b4 bc bd 84 7a b8 bd 44 bc a3 bd 00 4a 16 bb
       -0.09214054 -0.09007743 -0.07994893 -0.002293229
000040 d0 2e 64 be 30 b3 40 3e 64 81 93 3e 58 ef 14 3d
       -0.22283483 0.18818355 0.28809655 0.03636107
000050 a6 e5 47 be 20 5e ad bc b2 ef 0d 3e 60 da 57 bc
       -0.19521198 -0.021163046 0.13860968 -0.013174623
000060 12 ed 6a be cc 4a 57 be 34 ac 49 3e aa eb a4 bd
       -0.22941998 -0.21024626 0.19694597 -0.08052762
000070 40 71 51 bd dc a4 90 3e 00 aa d9 3d 04 17 77 3e
       -0.051133394 0.28250778 0.10628128 0.24129874
000080 c5 c8 98 be 60 8a 8c 3d 78 4c 22 3e c4 f1 88 3e
       -0.29840675 0.068623304 0.15849483 0.26746953
000090 e6 89 3d be 50 7c 9f 3c 0c 86 54 be c4 bb 78 3e
       -0.18509635 0.019468457 -0.2075426 0.24290377
0000a0 0b 83 49 be b8 ef f7 3d 30 4b 4f 3d 00 e8 77 3a
       -0.19678895 0.121062696 0.050608814 0.0009456873
0000b0 2e 7e 38 be 6c a6 52 3e 38 d5 8a be a4 47 be 3d
       -0.18016884 0.20571297 -0.27115798 0.09291008
0000c0 80 7d 26 3e 80 3b ef bb 38 6b 50 3d f0 e6 81 be
       0.16258812 -0.007300794 0.0508835 -0.25371504
0000d0 e0 5c 72 be 50 50 ca bd 18 90 29 3e 72 54 91 3e
       -0.23668242 -0.098786 0.16558874 0.2838474
0000e0 d8 fb 97 3d 8f bd 0a be 62 ee 2e be 98 7f 66 3e
       0.07421082 -0.13548873 -0.17083123 0.2250961
0000f0 50 11 c0 bc da f1 45 3e 6c 20 95 3d 20 35 7e 3c
       -0.023445755 0.1933054 0.072815746 0.015515596

conv2.bias f4 [64]
000000 8b 16 36 bc 2d 59 9b 3b 4b be 89 3c 00 00 c4 3a
       -0.011113773 0.004740855 0.016814372 0.0014953613
000010 a4 1f 89 b9 c8 68 52 bc e8 b1 c8 3b 80 bb 7f 3c
       -0.0002615425 -0.012842365 0.0061247237 0.015608668
000020 e9 5d 8f 3c 01 c3 b1 3c a0 9f 43 3b eb 69 b3 3c
       0.017500835 0.02169943 0.0029849783 0.021901092
000030 c7 05 db 3c d8 a4 6a 3c 14 4c c4 3b 07 d4 e9 bc
       0.026736153 0.014321528 0.0059905145 -0.028543485
000040 04 83 ca 38 a2 f3 c9 3c ef 5f 9a bc 6f 71 1d bc
       9.656514e-05 0.024652306 -0.018844573 -0.009609564
000050 41 7f 49 3c db cd b1 3c a8 fb d4 bb d4 2e b0 3b
       0.012298406 0.021704605 -0.0064997263 0.005376676
000060 8c 48 09 3c 62 64 06 bc 1b b0 82 ba ab 42 0d bc
       0.008379113 -0.008202644 -0.0009970696 -0.008621852
000070 95 38 32 39 01 2f 83 bc 7a eb fe bb 44 92 1b bb
       0.00016996481 -0.016013624 -0.007779536 -0.0023738304
000080 89 cf 8e bc af c3 e4 3c 8d 8d e2 3b 88 19 90 bc
       -0.017432945 0.02792534 0.006913847 -0.0175903
000090 85 d1 a0 3c 8a 10 88 3c 4a d0 b8 bb ce 1a 1d 3a
       0.019631157 0.016609449 -0.0056400644 0.0005993069
0000a0 3c 3c a9 bc 5a 2f 17 bb 5c 7f ff 3c 24 c3 12 bd
       -0.020658605 -0.0023068995 0.03118866 -0.03583063
0000b0 f1 4a 69 bc 3c 73 e1 3c 15 a2 00 3c 9d e8 e4 3c
       -0.014239059 0.027520768 0.007851143 0.02794295
0000c0 34 15 08 bc 24 fb f7 3c c5 fc 05 bc 7f d8 20 bc
       -0.0083058365 0.03027112 -0.008177941 -0.009817242
0000d0 04 cc f3 bc 69 d7 b9 3c c0 9a 6c 3c bc be 50 bb
       -0.029760368 0.022685723 0.014441192 -0.0031851968
0000e0 52 14 95 bb d8 c8 89 bb ec d5 47 3c 2f 40 51 bb
       -0.0045495415 -0.0042048506 0.012196999 -0.0031929126
0000f0 f0 51 bd 3a 59 2b b0 3c c1 d8 8f 3c dc a8 a6 bb
       0.0014443975 0.021505045 0.017559411 -0.0050860476

conv2.lin_l.weight f4 [64, 64]
000000 1d 34 80 bd 25 6d 6e 3c 69 6d 2f 3e 2a b5 0f 3c
       -0.0625994 0.014552389 0.1713158 0.00877122
000010 47 85 10 bd a2 21 92 3c a9 7a fc 3c 4e 48 c5 3d
       -0.035283353 0.017838303 0.030820208 0.09632932
000020 c2 79 56 3d 33 0c 2e bd 0c 40 3a bd 97 0d 32 bd
       0.05236221 -0.042492103 -0.045471236 -0.04346999
000030 42 0f cf bd a8 fb 5c bd 3c dd 43 3c c3 8a 61 3d
       -0.10110332 -0.053950936 0.011954602 0.055063974
000040 3f 0c a3 bd a9 e2 93 bb e3 9d ce 3d d0 af 01 be
       -0.0796132 -0.004513104 0.10088708 -0.12664723
000050 32 bd d1 bd 2f 6c 75 3d 54 0c 0e 3e 05 cd 38 3c
       -0.10241164 0.059917625 0.1387189 0.011279349
000060 bf e6 c1 3d 56 43 43 3d 24 55 e4 bc b2 7c 48 bc
       0.094678394 0.04767164 -0.02787263 -0.012236761
000070 29 bb 1e bd 04 ed c0 bd 79 c7 b1 3c af 3a 8c bd
       -0.03875271 -0.09420207 0.021701561 -0.068471305
000080 40 5e 80 be 40 3c 3f bc b0 5f ea 3d df da 6b 3d
       -0.25071907 -0.01167208 0.11444032 0.05758178
000090 c8 05 32 bc 13 f4 a7 3d 90 60 e8 bc be 2d bf bd
       -0.010865636 0.0820085 -0.028366357 -0.093348965
0000a0 70 33 aa 3c 2c bd 11 bc 97 00 03 bd 8e 90 57 bc
       0.02077648 -0.0088952 -0.031982984 -0.013157023
0000b0 0d 5b c1 bc 6e 27 89 bb 2f ef 2c bd 64 17 85 3d
       -0.023602987 -0.0041856086 -0.04222029 0.06498602
0000c0 d2 5e 02 3c 30 b6 e5 3d 40 58 16 3d 66 c0 b1 bc
       0.007957177 0.1121639 0.036705256 -0.021698188
0000d0 bc c7 59 3d 0b a3 2c 3d 8e fe 9b bd a3 82 7e bc
       0.053168997 0.042147677 -0.07616912 -0.015534076
0000e0 42 c0 c1 3c e6 7d 9a 3c df 7e 7f 3d 25 d3 8f bd
       0.023651246 0.018858861 0.062376853 -0.070226945
0000f0 08 91 01 ba 00 df 93 bd e8 52 0e 3d 6f a9 46 bd
       -0.0004942571 -0.07220268 0.034747034 -0.04850143
000100 9c 5b ed 3d 89 93 0b 3d f1 5d 21 bc d1 a6 25 be
       0.11589739 0.034076247 -0.0098490575 -0.16176917
000110 e6 bd 04 3d 28 c2 be bd c9 6f f4 3d 00 d1 97 3c
       0.032407664 -0.09314376 0.11935384 0.018532276
000120 5d 48 a9 bb 82 0f b8 bd f9 19 13 ba 1f 61 12 be
       -0.005166097 -0.08987333 -0.0005611475 -0.14294861
000130 ca c8 53 3d 50 56 8f 3d ad 36 a9 bd af 9d db 3d
       0.05170516 0.06998885 -0.08262382 0.10723435
000140 fd 6d ac bd 2b 85 f6 bc 8a a5 6c bd 42 7d 62 bd
       -0.08419416 -0.030092796 -0.057775058 -0.055295236
000150 1d 6d 01 be 99 76 d5 bd b2 5b 63 bd 47 a8 e7 bd
       -0.1263928 -0.10423011 -0.05550737 -0.11311393
000160 0a 69 0a bd 3d 79 19 bc b8 4f 3e bd bb de 53 bd
       -0.03379158 -0.009367284 -0.046462744 -0.051726084
000170 9a 64 ff bd f9 13 bc 3d a3 fb fa 3c 23 7f a2 bc
       -0.1247036 0.09183497 0.030637568 -0.019836014
000180 aa 52 59 3e ef 87 c2 3d 4a ec 1a 3d 2e 1e 24 bc
       0.2122294 0.094985835 0.037823 -0.010016961
000190 f0 5c f6 bd 57 cd 5f 3d 99 75 73 bd 89 4f 01 3e
       -0.12029445 0.054639187 -0.05943832 0.12627997
0001a0 87 33 34 bc e7 62 8b bd 8e bc 0d 3d e8 ce 9c 3b
       -0.010998613 -0.068059735 0.034603648 0.0047854073
0001b0 b5 e3 0d bd 44 80 5e bc 56 41 dc 3d 70 91 b2 3c
       -0.034640986 -0.013580386 0.10754649 0.021797866
0001c0 6e 4f ee bd eb fc 5e bd 04 ac 97 3d 74 38 be 3d
       -0.11636244 -0.05444042 0.07405856 0.09288111
0001d0 ed 5d b6 3d 01 4b e5 bc 2d 4f 0c 3b c3 e4 25 3c
       0.08904634 -0.027989866 0.0021409497 0.010125342
0001e0 ec 01 8a 3d 03 23 c9 3d 45 bc a7 3d fb ee 3a bc
       0.06738648 0.09821131 0.081902064 -0.011409516
0001f0 0e 84 b6 3d 79 df 6d bd 71 fa 9f 3d 16 14 9d bd
       0.08911906 -0.05807445 0.0781144 -0.07669847
000200 ff a9 5e 3d 1e b5 c1 3d 89 47 fa bd 84 f8 1d be
       0.05436134 0.094583735 -0.122206755 -0.15426832
000210 07 5c e8 3b 29 09 22 3d 01 82 7e 3c 06 28 c7 bd
       0.0070910486 0.039559517 0.015533925 -0.09724431
000220 78 40 84 3d db 16 60 bd 02 67 8a bd 22 e5 19 bd
       0.06457609 -0.054709297 -0.067579284 -0.037572034
000230 a4 b4 a7 3d a6 49 2a 3d ce a5 c7 3d ae f5 a2 bc
       0.08188751 0.041574143 0.097484216 -0.01989254
000240 b4 57 a6 3c 8b d6 20 bd cb cc a2 bc c2 2a 65 3c
       0.020305492 -0.039267104 -0.019873044 0.013987245
000250 ec 5f e9 bd d0 95 80 3c 04 a9 db 3d 8e d7 a4 bd
       -0.11395249 0.015696436 0.107255965 -0.08048926
000260 80 15 68 3d 45 c5 a7 bd c1 b7 b0 bd 03 56 8e bd
       0.05666113 -0.08191923 -0.08628798 -0.06949999
000270 7f cf ce 3c 9a f9 e5 3d 78 d7 60 3d a7 96 46 3d
       0.025245426 0.11229248 0.054892987 0.048483517
000280 45 5e 79 3e 64 e4 dc 3d e5 e7 ca bd 25 84 03 bd
       0.24352367 0.107857496 -0.099075116 -0.032108445
000290 82 b8 d8 bd b6 14 21 3c 66 01 43 bb 71 19 2c 3e
       -0.10582067 0.009831598 -0.0029755472 0.1680658
0002a0 7d 8b 50 3d 7c 42 51 bc 32 d7 49 bd 05 9c 1c 3c
       0.050914276 -0.012772199 -0.049277492 0.009558682
0002b0 9e 00 2d bd c6 91 eb 3b 6f 35 5b 3d 54 dd 0e 3e
       -0.042236917 0.0071890084 0.053517755 0.13951617
0002c0 c1 17 39 3c 20 f1 dc 3c 11 ea fa 3d cf f9 99 3d
       0.011297167 0.026970446 0.12251676 0.0751835
0002d0 b7 63 af bd 66 dc 7c 3d 4c d5 39 bc 7f 1f b9 3c
       -0.08563941 0.061733626 -0.011342358 0.022598026
0002e0 0d 93 63 3e 57 87 a3 bd 65 c9 fe ba 88 0d 82 3c
       0.22224064 -0.079847984 -0.0019438682 0.015875593
0002f0 1b af 13 bd 3b 9b 9b 3d 20 f2 d5 bd c7 da 05 3d
       -0.036055665 0.07597967 -0.10446572 0.032679345
000300 b4 c9 fa 3b e4 c7 f7 bb 6e 92 c1 3c 3e d1 a1 3c
       0.0076534394 -0.0075616706 0.023629393 0.019753095
000310 5d 2b b7 bd eb 70 dc bd f7 7b ca bd ea ab 07 3e
       -0.08943818 -0.10763725 -0.09886926 0.13249174
000320 c7 35 30 3d f4 4f 24 bd b4 47 b9 bd 3f 14 85 3d
       0.043020036 -0.04011531 -0.090468794 0.06498002
000330 15 1f dd bd 98 75 98 bd 8f 8d b0 bd d8 3c a3 3d
       -0.10796944 -0.07444304 -0.0862075 0.079705894
000340 62 0a 9f bd e5 0a 42 3d 5b ee 8f 3d 70 2a 81 bc
       -0.07765652 0.04737367 0.070278846 -0.015767306
000350 50 5c a4 3d 76 eb 8f bd a5 e9 bd 3d 8a 72 d9 3d
       0.0802542 -0.070273325 0.0927308 0.1061755
000360 d7 f9 a4 3d 43 7c 3e 3c 9c e4 a6 3c b3 8e 43 3d
       0.08055466 0.011626306 0.020372681 0.04774351
000370 ee 68 fb bd ba 25 04 be c3 a8 ac 3d 47 74 7e 3d
       -0.12275873 -0.12905017 0.08430626 0.06212261
000380 9c b4 f6 bd 12 d7 0b bd b1 52 ad bd 9c bf 03 3e
       -0.12046167 -0.034140654 -0.08463038 0.12866062
000390 72 14 c9 3d 9a 3b a4 bc 86 fe bc bc 65 27 01 3d
       0.09818353 -0.020047951 -0.023070585 0.03153171
0003a0 3b 8b 2c 3d a8 7a 1f bb 96 9c 2e 3d fc 39 e7 bd
       0.042124968 -0.0024334583 0.0426298 -0.112903565
0003b0 02 e4 96 bc bd 5f aa bd 79 2b 46 bd cf c1 e0 bd
       -0.01841927 -0.08319042 -0.048381303 -0.10974466
0003c0 7e 62 ca 3d 02 19 db 3d ac 17 a2 bd 03 56 e8 3d
       0.09882067 0.10698129 -0.07914671 0.113445304
0003d0 f5 64 d4 3d e3 86 87 bd 93 ac 68 3d c9 d1 df 3c
       0.103708185 -0.066175245 0.056805205 0.027321713
0003e0 25 80 fd bd d0 2b 77 bd 11 54 2d bd 5e c5 d2 3c
       -0.12377957 -0.060344517 -0.0423165 0.025728878
0003f0 2d 17 8c bc c6 39 86 bc ca f7 01 bd 26 4c ec bd
       -0.017100895 -0.01638497 -0.03173045 -0.11537962

conv2.lin_l.bias f4 [64]
000000 c6 7e 71 3d 9e 07 a9 3d 47 d0 a3 3d 44 19 2f bd
       0.05895879 0.08253406 0.0799871 -0.042748705
000010 68 74 bf bc b5 18 b0 3d 09 17 d2 bd 3c b8 f6 3d
       -0.023370937 0.085984625 -0.102583 0.12046859
000020 14 f5 e6 3d 65 df 9c bc 6c 3f 75 3b f6 b9 c2 bc
       0.11277214 -0.019149492 0.0037421836 -0.023770314
000030 a7 31 ac 3d 34 e1 ac bd 1e 7f 49 bd 1c 91 23 bc
       0.08407908 -0.084413916 -0.049193494 -0.009983327
000040 40 7d 42 3d 7e bf b2 bc 5d ea 70 3d ad af cf 3b
       0.04748273 -0.021819826 0.058817256 0.006338081
000050 23 c6 ed bd 2d e6 d1 bc be 6f e7 3d 01 75 52 bd
       -0.11610057 -0.025622452 0.1130061 -0.051381115
000060 e3 01 3c bd fa e5 a5 3d c6 6f ac bd f0 de 77 bd
       -0.045900237 0.08100505 -0.084197566 -0.060515344
000070 06 dd 70 3d a1 a2 9f bd cf 44 2e 3d ae ff 21 bd
       0.058804534 -0.07794691 0.04254609 -0.039550476
000080 4b 86 d2 bd 09 8c ba bd 96 f2 da bc 4d 75 db 3c
       -0.102795206 -0.09108741 -0.026727002 0.026789332
000090 41 d7 fd 3d 71 e5 de 3d 4f 8c a3 bd 19 ea 71 3c
       0.12394572 0.10883606 -0.07985746 0.014765286
0000a0 98 fd c9 3d 5c 06 12 bd a2 54 78 3d cb c8 74 bd
       0.09862822 -0.035650596 0.060627587 -0.059761804
0000b0 f7 7d 5d bd 1a ce a3 3d a3 d8 72 bc b3 d3 61 bc
       -0.054075208 0.07998295 -0.014822158 -0.013783383
0000c0 6c 87 be 3d 89 ab 0c bd d0 95 74 bd 6c 4e c9 bd
       0.093031734 -0.034343276 -0.059713185 -0.09829411
0000d0 5e 5b a5 bd 63 d2 5b bd 41 0d a7 3d f5 f4 c6 3d
       -0.080740675 -0.053667437 0.08156825 0.097146906
0000e0 60 b2 e1 bd db d1 c3 bd 75 21 88 3c ca 0c 87 bd
       -0.110203505 -0.09561511 0.016617516 -0.06594236
0000f0 85 ce de 3d 14 04 87 bd b7 8d bb bd 3a 49 0c 3d
       0.10879234 -0.06592575 -0.09157889 0.03424952

conv2.lin_r.weight f4 [64, 64]
000000 bc 80 11 bd a0 31 93 3b 88 84 cf bc 1c 58 cd 3d
       -0.03552316 0.0044919997 -0.02533175 0.10026571
000010 02 6e 9b bd a2 d4 a6 bd 32 85 b8 3d 68 4e 5f 3d
       -0.07589342 -0.08146025 0.0900978 0.054518133
000020 9a 21 f4 bd 80 1d d5 ba 4e 64 b5 3d d6 42 97 bd
       -0.119204715 -0.0016259402 0.08857022 -0.07385795
000030 ca 7a 80 bd be 48 f5 bd 5c f7 31 3d 92 8f bf bd
       -0.0627342 -0.11976765 0.04344879 -0.09353556
000040 a8 a4 ea 3d 3e 16 d6 3d 18 6d 92 bd 84 35 f4 3d
       0.11457187 0.10453461 -0.07149714 0.1192427
000050 96 b0 92 3d 80 57 95 bd 9a e0 da bd c0 d5 09 3c
       0.07162587 -0.0729208 -0.106873706 0.008412778
000060 38 84 b9 3d 34 37 13 bd 28 1d 04 bd ac 51 1a bd
       0.09058422 -0.035941318 -0.032254368 -0.037675545
000070 4c 24 1b bd 00 72 d5 3c b0 40 44 bc 40 18 f3 3b
       -0.037876412 0.026055336 -0.011978313 0.0074186623
000080 1a 87 a0 bd fc bc 8b 3d 60 e5 2c 3d 00 d8 f4 3c
       -0.078382686 0.06823155 0.042210937 0.029888153
000090 9e dd ad bd 82 3d 81 bd 40 39 14 3c c0 08 5b 3b
       -0.08489536 -0.0631056 0.009046853 0.0033421963
0000a0 92 c4 ab bd 0a 65 a9 bd a0 37 b5 bb 00 e7 dc 3a
       -0.08387102 -0.08271225 -0.0055303127 0.0016853511
0000b0 58 e3 e0 bd 18 1e ae bd 58 78 d1 bc 44 b0 5b bd
       -0.109808624 -0.08501834 -0.02557008 -0.053634897
0000c0 50 28 76 3d 78 dd a5 bc 20 dd fc 3d 84 e2 df 3d
       0.06009704 -0.020247206 0.12346864 0.10931876
0000d0 ce 1a e3 bd 90 57 c2 bc de 0d 97 3d 88 4b d0 bd
       -0.11089097 -0.023723394 0.07375692 -0.101706564
0000e0 d8 ad 51 3d 00 a1 7a ba 70 54 2a bd 62 a8 9a bd
       0.05119118 -0.0009560734 -0.041584432 -0.07551648
0000f0 58 d0 dc 3d 00 8b 5c 3c b0 e3 05 bc f2 98 d0 3d
       0.10781926 0.013460875 -0.008171961 0.10185422
000100 98 e8 c7 bd 80 63 1d bb 62 56 95 3d c0 2e 67 bd
       -0.097611606 -0.0024015605 0.07291867 -0.05644107
000110 d0 08 97 3d 74 ae 10 3d e2 ad be bd d4 8d a9 3d
       0.07374728 0.03532262 -0.09310509 0.08279005
000120 9c 09 a3 bd e4 f4 d3 bd 32 c2 82 bd 80 e0 12 bd
       -0.07960817 -0.103494436 -0.06384696 -0.03585863
000130 be a5 85 3d c8 c0 f7 3c 14 41 7f 3d 80 48 6f 3d
       0.065257534 0.030243292 0.062317923 0.05841875
000140 0c d3 80 3d 88 32 96 3d a4 bf 26 3d 10 67 17 bd
       0.06290254 0.07333857 0.040710106 -0.036963522
000150 88 2a e4 bc e0 74 34 bd 0e 5d 9c bd 60 ef 2d 3d
       -0.027852312 -0.044056773 -0.07634936 0.042464614
000160 d0 ec 39 bd 68 f5 e6 bd 18 f4 fa 3d f0 19 2e bc
       -0.045391858 -0.11277276 0.122535884 -0.010626301
000170 7a b8 c4 bd e0 8a a9 3c 00 ed e4 3b 44 5a 4b bd
       -0.096054986 0.020696104 0.0069862604 -0.04964663
000180 30 ff 42 bc 7c 34 7a bd ec 38 3d 3d 60 f3 82 bb
       -0.011901662 -0.06108521 0.046196863 -0.0039962977
000190 10 dc ca bd 10 1c df bd 40 8c dc bb 0c e5 30 3d
       -0.09905255 -0.10894024 -0.0067305863 0.043187186
0001a0 c0 1d 10 bb 04 c0 73 3d ca 79 bd 3d 24 77 a2 bd
       -0.0021990389 0.059509292 0.09251745 -0.079328805
0001b0 34 5b 06 3d 44 2e cb bd c0 11 a8 bb 68 54 73 bd
       0.03280182 -0.09920934 -0.005129069 -0.059406668
0001c0 92 1f 8c bd 44 35 ea bd e0 de da 3b ea 8f d6 3d
       -0.06841959 -0.11435941 0.006679401 0.10476668
0001d0 ee b9 a3 bd 92 13 9e bd 48 fd c2 3c 34 ec f2 bd
       -0.07994448 -0.077185765 0.023802415 -0.118614584
0001e0 5a 02 8c 3d 38 9c 88 3d d0 c9 22 3d 00 c8 0a 3c
       0.06836386 0.06670421 0.039743245 0.008470535
0001f0 28 90 df 3d 70 8d 0b 3d 98 61 e6 3c 1c 5e 68 bd
       0.109161675 0.034070432 0.028122708 -0.056730375
000200 f2 7c 9a 3d 98 c3 25 bd bc 58 4b bd 6c 9f e7 bd
       0.07543363 -0.040469736 -0.04964517 -0.11309704
000210 a0 31 72 bc 88 11 53 bd 8e ba 87 3d 4e 73 a3 3d
       -0.014782339 -0.05153039 0.06627379 0.07980977
000220 d8 dd 67 bd ec 59 af 3d 0c 75 d8 3d b0 f1 36 bd
       -0.05660805 0.08562073 0.105692 -0.044664085
000230 ae b6 f4 bd c0 96 a6 3b 76 b0 87 3d f8 a4 ee 3c
       -0.11948906 0.005083889 0.06625454 0.029131398
000240 08 e6 49 3d e8 0f 66 bd d6 4b c4 bd 88 88 bc 3d
       0.04929164 -0.056167513 -0.09584777 0.09205729
000250 12 11 ff 3d 60 ec f6 3d 2c ef c1 3d 48 53 13 3d
       0.12454428 0.12056804 0.094694465 0.035968095
000260 40 d6 da bb 30 30 36 3d 52 48 c4 3d 00 73 b6 3c
       -0.0066783726 0.04447955 0.095841065 0.022271633
000270 d8 f6 b5 bc a8 75 8f 3c 5c f8 e1 3d 60 e1 ff 3c
       -0.02221243 0.017512158 0.11033699 0.031235397
000280 26 81 c7 bd a8 1b 79 bd c0 0c 42 3b 9a 55 f9 3d
       -0.0974143 -0.06081739 0.002960965 0.1217453
000290 5c 36 f8 3d 12 df ef bd 10 4a 50 3d dc 78 43 bd
       0.12119743 -0.11712469 0.05085188 -0.047722682
0002a0 04 c3 fd 3d b4 d5 f4 3d ba a3 9d bd 66 6d d0 3d
       0.12390712 0.11954823 -0.07697244 0.10177116
0002b0 10 22 2d bd 78 2e 00 bd e2 90 ac 3d bc 31 d0 bd
       -0.042268813 -0.031294316 0.08426072 -0.10165736
0002c0 08 2e 45 bd 76 1f 9f bd 4e 75 ff bd 40 65 1f 3c
       -0.048139602 -0.077696726 -0.12473546 0.00972873
0002d0 28 8a ab 3c 48 9f a2 bc ec 54 cd bd 2c 21 41 bd
       0.020939901 -0.019851342 -0.10025963 -0.047150776
0002e0 62 d5 a0 3d 32 2b d9 bd 36 f4 86 bd b4 ef 5f bd
       0.078531995 -0.10603942 -0.06589548 -0.054671958
0002f0 9c 7c de bd e0 5e ae bb 9c 08 04 bd 68 f6 ec bc
       -0.10863611 -0.0053213686 -0.032234773 -0.02892609
000300 34 5d 03 bd 3c 38 19 bd 10 a0 b0 bd 5c 32 3e bd
       -0.032071307 -0.037407145 -0.086242795 -0.046434745
000310 cc 16 00 bd 60 c2 59 3c d4 65 76 bd e0 78 0f bd
       -0.03127174 0.0132909715 -0.060155705 -0.035027385
000320 64 a7 71 bd c6 65 99 bd 80 db dd bd cc a2 16 3d
       -0.058997527 -0.07490115 -0.10832882 0.03677635
000330 9c 4d 81 3d 2e 4b 85 bd 00 1f f3 bb 46 d3 d9 bd
       0.06313631 -0.0650848 -0.007419467 -0.10636
000340 00 f0 d7 bc b6 69 9a bd fe d4 a8 3d 3c d3 2f 3d
       -0.026359558 -0.07539694 0.0824375 0.04292606
000350 de 58 c3 bd 6a 5f cc 3d 44 20 4c bd 98 31 55 3d
       -0.095384344 0.09979136 -0.04983546 0.05204925
000360 20 95 9a 3d 10 7d bb bc 40 a5 8e bb 58 e8 b1 3d
       0.075479746 -0.022886783 -0.0043531954 0.08686894
000370 54 cb 44 3d 26 9c 8f 3d 28 33 23 bd 16 8d e7 3d
       0.04804547 0.07012205 -0.03984371 0.11306207
000380 aa 52 e1 bd 9e 1c 9b bd 60 5d 30 bd da b5 f8 bd
       -0.11002095 -0.07573818 -0.0430578 -0.121440604
000390 a8 20 3c 3d 10 79 f4 3d 30 0a 52 3c f4 cd 7e 3d
       0.04592958 0.11937153 0.012819812 0.06220813
0003a0 86 99 ac 3d a2 72 83 bd d4 62 9b 3d f0 e2 b3 bd
       0.0842772 -0.06418349 0.07587209 -0.08783519
0003b0 5a f1 ed bd f4 9f 63 bd 76 54 ae 3d 68 66 60 bd
       -0.116183 -0.055572465 0.085122034 -0.054785162
0003c0 60 5a d3 bb 56 57 a1 bd d6 56 d5 3d 80 cd 89 bb
       -0.0064499825 -0.07877986 0.10416953 -0.0042054057
0003d0 1c 2c 75 3d 00 f2 f2 bc 4a 79 ea 3d e0 9a 13 3d
       0.05985652 -0.02965641 0.11448915 0.036036372
0003e0 e4 05 67 bd 84 80 cc 3d b8 9b ad bd b2 40 a2 3d
       -0.056402102 0.0998545 -0.084769666 0.07922496
0003f0 70 f7 8a bd d4 a3 7c 3d 50 cf 0c 3d 1a eb c6 3d
       -0.06785476 0.061679676 0.034377396 0.09712811

conv2.lin_r.bias f4 [64]
000000 e0 c4 c7 bd ae 94 d8 3d 14 41 94 3d be 60 bc 3d
       -0.09754348 0.105752334 0.07238975 0.091981396
000010 8a 70 9f bd e8 73 d1 3c c0 41 07 3b 06 b6 e0 3d
       -0.07785137 0.025567964 0.0020638555 0.10972218
000020 10 c0 b8 bc 38 41 dd 3d 1e d4 ba bd 7e 87 8f 3d
       -0.02255252 0.10803455 -0.091224894 0.07008265
000030 80 1f a0 3c 7e 81 fa bd 80 12 4c 3c 70 25 84 bc
       0.01954627 -0.1223173 0.012455583 -0.016131133
000040 84 5a ca 3d 1c 00 19 3d 92 42 93 3d 08 17 fa bc
       0.09880546 0.03735362 0.07190432 -0.03052856
000050 e0 bb 65 bd 3c 5c f6 bd e2 8a f6 3d 92 8f a6 3d
       -0.056087375 -0.12029311 0.120382085 0.081328526
000060 f0 a7 90 3d 1e ba 94 3d 24 f6 c6 3d 10 eb 32 bd
       0.070632815 0.072620615 0.09714916 -0.043681204
000070 b8 60 f4 bd 90 bc 98 3c 1e 9e e9 3d 00 90 1f bd
       -0.1193251 0.018644601 0.114071116 -0.03895569
000080 de aa fe 3d a0 e5 91 bc 5e 26 ee 3d 38 80 4a 3d
       0.12434934 -0.017809689 0.11628412 0.049438685
000090 c0 0d 59 3d e8 03 d2 3d 70 8f 13 3c 10 3c 51 3c
       0.05299163 0.10254651 0.009006366 0.012770668
0000a0 c2 da c1 3d 56 dc fc bd 80 22 cf 3c 30 2b 82 3d
       0.09465553 -0.12346713 0.025285006 0.063558936
0000b0 92 9c f5 3d 68 21 56 bd 3c 27 31 3d 44 b0 d3 bd
       0.11992754 -0.052277952 0.043250307 -0.103363544
0000c0 c4 df fc bd a2 27 fd 3d ca 53 b9 bd 6e 74 bb bd
       -0.123473674 0.12361075 -0.090491846 -0.091530666
0000d0 44 90 e2 3d ec 8b 80 bd 10 d1 73 3c 7c e1 1a 3d
       0.11062673 -0.06276688 0.014881387 0.037812695
0000e0 60 a1 fc 3c 3c 0e 6f 3d c2 4d a4 3d dc 40 8c bd
       0.030838668 0.058363184 0.080226436 -0.068483084
0000f0 f6 e8 a3 3d 2a 8d eb 3d 74 84 c1 3d f4 92 b4 3d
       0.08003418 0.11501534 0.094490916 0.088170916

conv2.lin_edge.weight f4 [64, 2]
000000 60 dc a2 3c 00 70 0c bb bc e6 6b 3e f8 26 eb 3d
       0.019880474 -0.0021429062 0.23037237 0.11482042
000010 77 ef b5 be 15 7d cc be 8c c0 71 be 44 2d b7 be
       -0.3553426 -0.3993918 -0.23608607 -0.35776722
000020 f0 d2 2e 3e d8 7e 65 3e 60 89 81 bd 29 99 11 bf
       0.17072654 0.22411668 -0.0632503 -0.5687433
000030 b5 a6 15 3f 09 56 9e be 36 f2 66 be 3e 60 f2 be
       0.584575 -0.30925015 -0.22553334 -0.47339052
000040 07 59 32 3f 59 f9 c5 be ee 19 f8 3e 25 63 0b bf
       0.69667095 -0.386668 0.48457283 -0.5444816
000050 29 30 c8 be d7 b5 03 bf b4 02 54 3e 12 48 9e be
       -0.39099243 -0.5144934 0.20704156 -0.3091436
000060 93 98 20 bf cc 09 06 be 82 be ac 3e 34 05 54 3e
       -0.6273281 -0.13089675 0.33739096 0.2070511
000070 50 9c 77 3d a0 ff d2 3d a8 90 66 be e8 20 a1 3d
       0.060451806 0.10302663 -0.2251612 0.078676045
000080 e4 78 26 3e 00 0d 91 bc c2 f4 ba 3e 10 d5 18 be
       0.16257054 -0.017706394 0.3651486 -0.14925027
000090 d9 dc 23 3f 90 5d da 3d 00 52 db bc 64 d0 e0 be
       0.6400886 0.10662377 -0.0267725 -0.4390899
0000a0 1e ba f6 3e ed 44 b0 be bf 45 cf be af 75 92 be
       0.4818887 -0.34427586 -0.404829 -0.2860541
0000b0 71 57 86 be 10 5c 60 bd a0 04 8e bc 40 41 31 3d
       -0.26238587 -0.054775298 -0.01733619 0.043275118
0000c0 37 81 1b 3f 4b 13 e5 be 8b c0 b3 be 98 83 16 bf
       0.6074404 -0.44741282 -0.35107836 -0.58794546
0000d0 a3 d4 20 3f 33 ba 02 3f 30 cc 87 bd d2 2d 9a 3e
       0.6282446 0.5106537 -0.066307425 0.30113083
0000e0 1a 5f c8 3e 8a a9 9c 3e 0e 39 bc 3e 00 30 56 39
       0.39135057 0.30598098 0.3676228 0.00020426512
0000f0 e1 d8 09 3f fe 99 79 be a0 ce 9f bd a7 50 94 be
       0.53846556 -0.2437515 -0.078030825 -0.28967783
000100 20 72 2d bf d0 ff 67 3d ae 00 23 bf 7c 93 85 be
       -0.67752266 0.056640446 -0.6367291 -0.26089084
000110 ee dd ad be 87 94 16 bf bf fc 1a 3f e4 97 7d be
       -0.3395838 -0.58820385 0.6054191 -0.24764973
000120 cc ec 3c be b0 37 60 bd f0 8d 53 3d 68 2a 07 bf
       -0.18449706 -0.054740608 0.051649034 -0.5279908
000130 bc 62 da be e2 31 ef 3e ea a3 c4 3e 50 9f 76 be
       -0.42653453 0.46717745 0.38406307 -0.2408421
000140 40 8b d6 3c b4 77 ed be 71 f7 34 bf 26 33 5c be
       0.026189446 -0.4638039 -0.70690066 -0.21503887
000150 26 b4 59 be 30 81 1b bf a2 91 f9 3e 16 bc 18 bf
       -0.21260127 -0.60744 0.48743922 -0.59661996
000160 e6 2e fe 3e 48 5c 66 be de 62 bd 3e 7a a1 61 be
       0.49645156 -0.2249614 0.36989492 -0.22034255
000170 c8 0b 8d 3e 2d 1d 11 bf 5e 93 2a bf b0 99 46 bd
       0.2754805 -0.56685144 -0.66631114 -0.04848641
000180 62 d4 0f bf 4b da cb be 7a 7b 15 bf 08 f8 32 bf
       -0.56183445 -0.39814982 -0.58391535 -0.69909716
000190 34 b3 5c be 48 de 19 3e e7 52 cb be d1 7d 24 3f
       -0.21552736 0.150262 -0.39711687 0.6425448
0001a0 5d e0 17 3f 92 3f ae 3e d2 02 ac be f6 ac 05 bf
       0.59326726 0.34032875 -0.33595902 -0.5221704
0001b0 40 3d 04 bf aa d3 64 be 18 a0 91 3d 30 4b 03 bf
       -0.5165596 -0.22346368 0.071106136 -0.512866
0001c0 ad c3 16 bf 38 b3 29 be f2 61 c7 3e 57 d2 af be
       -0.5889233 -0.16572273 0.38941914 -0.34340164
0001d0 76 31 88 3e 18 d1 9f bd 81 a2 33 3f c8 69 39 be
       0.26600236 -0.07803553 0.70169836 -0.18106759
0001e0 94 3d 3e 3e aa 76 f9 3e 3b 91 2b 3f ee 17 a3 3e
       0.18578178 0.48723346 0.6701848 0.31854194
0001f0 b2 23 72 be 25 56 07 3f 0a 81 d8 3e b7 a0 1b bf
       -0.23646429 0.5286582 0.4228595 -0.60792106
