saved_models/edgat11_slic.pt (torch, 43978 bytes, 16 tensors)

conv1.att f4 [1, 1, 64]
0.1379039 -0.12688324 0.054490596 0.15661365 0.11420745 -0.027561963 0.24911731 0.26504725
0.2167306 0.23060489 -0.0856816 -0.16542847 -0.25209242 0.071968794 0.054494053 -0.2724538
0.21103007 -0.1660782 -0.056660503 -0.07242021 0.2091108 0.27827454 0.26606065 -0.21891186
0.23810625 -0.105356306 0.16925195 -0.27334917 0.09468618 -0.09381096 0.2601204 0.2969936
-0.2959978 -0.14521962 -0.033727974 -0.25153828 -0.2607925 -0.007207781 0.23136115 0.092846215
0.26343834 -0.101010635 0.013799608 0.17188245 0.004426986 0.20174623 0.07877055 -0.06423105
0.29224545 0.11153084 -0.087572455 0.18881497 0.19832295 -0.18964191 0.14203516 -0.14331447
-0.26725084 -0.11327183 -0.28020215 -0.0006739497 -0.2522794 -0.16386119 0.29703468 0.27000242
00000000: ae36 0d3e aeed 01be 8831 5f3d 545f 203e
00000010: 98e5 e93d a0c9 e1bc 9c18 7f3e 46b4 873e
00000020: a0ee 5d3e b023 6c3e d679 afbd 1566 29be
00000030: 4212 81be 6064 933d 2835 5f3d 117f 8bbe
00000040: 4418 583e 6710 2abe d814 68bd 0c51 94bd
00000050: 2421 563e 007a 8e3e 1a39 883e 6e2a 60be
00000060: 20d2 733e 0cc5 d7bd 6250 2d3e 6cf4 8bbe
00000070: d4ea c13d f61f c0bd 802e 853e 8c0f 983e
00000080: 068d 97be 74b4 14be 5826 0abd a0c9 80be
00000090: 9886 85be 402f ecbb f0e9 6c3e 2826 be3d
000000a0: 64e1 863e aade cebd c017 623c f401 303e
000000b0: 4010 913b 9096 4e3e 7452 a13d 928b 83bd
000000c0: 32a1 953e 486a e43d 3059 b3bd b658 413e
000000d0: 2c15 4b3e 7d31 42be aa71 113e 07c1 12be
000000e0: 1ad5 88be 10fb e7bd a876 8fbe 00ac 30ba
000000f0: c42a 81be 3acb 27be ee14 983e c23d 8a3e

conv1.bias f4 [64]
-0.26034346 -0.036386136 -0.4009491 -0.57109123 -0.08279997 -0.22884911 -0.1267382 -0.23821433
-0.09012622 -0.5175495 -0.31992108 -0.35711926 -0.26861703 -0.33253592 -0.4832208 -0.35978195
-0.3207922 0.07410547 -0.14105499 -0.28551686 -0.5034157 0.00558133 -0.26743928 -0.3585531
-0.36358973 -0.047692124 -0.47173584 -0.2402867 -0.21412241 -0.26993796 -0.525353 -0.27811137
-0.35723057 -0.42110518 -0.2022941 -0.2934471 -0.2378597 -0.17359444 -0.12591513 -0.21505682
-0.17653559 0.013265995 -0.25098115 -0.52362484 -0.6006446 -0.10426643 -0.05625886 -0.04092526
-0.35808536 -0.08426249 -0.48062032 -0.3502542 -0.3265785 -0.24258353 -0.34446824 -0.36246365
-0.38436913 -0.6404254 -0.034578208 -0.5494116 -0.5931456 -0.48889336 -0.35965225 -0.3448621
00000000: bd4b 85be a109 15bd 3349 cdbe 0933 12bf
00000010: 0893 a9bd 6c57 6abe a9c7 01be 75ee 73be
00000020: 1894 b8bd 207e 04bf b2cc a3be 56d8 b6be
00000030: 2c88 89be 2642 aabe b768 f7be 5735 b8be
00000040: e03e a4be 9cc4 973d b870 10be 442f 92be
00000050: dadf 00bf 97e3 b63b cded 88be 4694 b7be
00000060: 6f28 babe d158 43bd 5c87 f1be b70d 76be
00000070: e842 5bbe 4f35 8abe 897d 06bf 9d64 8ebe
00000080: ede6 b6be 199b d7be 2f26 4fbe b33e 96be
00000090: 7e91 73be bec2 31be e5ef 00be db37 5cbe
000000a0: bfc5 34be 9e59 593c 9a80 80be 470c 06bf
000000b0: d8c3 19bf a389 d5bd b16f 66bd 3fa1 27bd
000000c0: f756 b7be d091 acbd de13 f6be 8554 b3be
000000d0: 4c35 a7be d167 78be 245e b0be d694 b9be
000000e0: 08cc c4be ebf2 23bf e1a1 0dbd 3da6 0cbf
000000f0: 64d8 17bf 3b50 fabe 5724 b8be c491 b0be

conv1.lin_l.weight f4 [64, 4]
-0.21202348 0.1872538 -0.28922457 0.11472888 0.057238173 0.16869052 0.15843388 -0.7223732
0.4074 -0.2590692 -0.06427379 -0.059090827 0.055912033 -0.095225185 -0.16743284 -0.15338032
0.033628386 0.037152227 0.051303584 -0.11850233 -0.28096715 -0.123475626 -0.3068242 -0.25876552
0.009595436 0.4053428 0.03981466 -0.7356129 -0.039319832 0.04493438 -0.12936924 -0.41144043
0.14445525 0.03912098 0.046950944 0.2843651 -0.24559134 0.23734038 -0.01899956 -0.03256316
-0.06994196 0.1729255 -0.31433135 -0.63234276 0.2540512 -0.0526287 0.0011183786 -0.12777174
-0.10954592 -0.13507085 -0.08311399 -0.1315509 -0.05239731 0.048612233 -0.3479021 -0.31565902
0.059500627 -0.07080836 -0.13044842 -0.094733745 0.08464409 -0.07444237 0.093067825 0.03939873
-0.23151594 -0.055714946 -0.0127417715 -0.12904173 0.6905461 -0.105949126 -0.14610861 -0.041212913
0.39094755 -0.23924018 -0.06298921 -0.07793897 0.17409237 0.04498849 -0.27318013 -0.27370203
-0.024432724 0.030260382 -0.15563321 -0.15215924 -0.16353875 0.3522807 -0.18823454 -0.7417976
0.4548497 -0.39588723 0.0905647 -0.09300709 0.20378426 -0.22504924 -0.105848595 -0.13321947
0.0963027 0.07064682 -0.22983468 -0.20252657 0.2838007 -0.0714646 0.3640084 -0.29268408
0.3465198 -0.26219562 -0.06333173 -0.058181975 -0.2306395 0.032073986 0.32976335 -0.035896316
0.27469417 -0.15665369 0.15951361 -0.14931889 -0.036228593 0.03438997 0.20117061 0.11069356
-0.2269109 0.23913255 -0.092241935 -0.038773075 0.061280742 0.044738498 -0.0449633 -0.011466493
0.28137186 -0.110769145 0.10231213 0.20477673 0.2855033 -0.19444406 -0.056909166 -0.016893012
-0.35367048 0.46584585 -0.13465081 0.055549365 0.13704766 -0.12010518 0.022455303 -0.21650927
-0.043520782 0.04617639 0.0010483495 -0.12089962 -0.32108772 0.3505851 -0.12561426 -0.28477952
-0.37591654 0.4844792 -0.15579277 -0.42249775 -0.061225254 -0.014534772 -0.1063621 0.11211544
-0.0097660795 0.26976594 -0.46692592 -0.007789528 0.43539634 0.0037609083 -0.036421135 0.18234396
-0.006618369 -0.04324031 -0.32407773 -0.32058567 -0.071909435 0.02598683 -0.22139603 -0.17422837
0.012996679 -0.064481154 -0.17323832 -0.1602167 0.50603175 -0.28340924 0.05751656 -0.06846121
0.08356489 0.2364077 0.04864943 -0.48042205 -0.35618114 0.5030214 -0.18548985 -0.5909503
0.061945073 -0.3205966 -0.2883383 -0.28792655 0.23741966 -0.4658359 -0.28490055 -0.3460776
-0.041346375 0.12203664 -0.20712799 -0.58598965 -0.2718098 0.40215838 -0.17802098 0.028395124
-0.23011401 0.20799233 0.030151071 0.05301967 0.4183786 -0.41596097 -0.19630527 0.2403501
-0.06827426 0.35235417 -0.028167354 0.22543485 -0.2897559 0.25809938 -0.28281426 -0.24505545
-0.045669317 -0.066506006 -0.19003572 0.07862162 0.104951456 -0.118245415 -0.17811453 -0.17182903
-0.29519808 0.14974947 -0.47963664 -0.3534832 -0.25088802 0.24825513 -0.03129429 -0.023850868
-0.23425731 0.26655245 -0.17854667 -0.1284238 0.009539986 -0.010716278 0.022733456 -0.17968021
-0.34319273 0.37835065 -0.34774864 -0.35783726 -0.107821524 0.10741695 -0.14979011 0.117041335
00000000: af1c 59be 76bf 3f3e 3e15 94be faf6 ea3d
00000010: 9372 6a3d 35bd 2c3e 7e3c 223e 73ed 38bf
00000020: bc96 d03e b8a4 84be faa1 83bd 3909 72bd
00000030: 0404 653d 6c05 c3bd 8473 2bbe bb0f 1dbe
00000040: ebbd 093d ef2c 183d b523 523d 59b1 f2bd
00000050: edda 8fbe cae0 fcbd 1018 9dbe ea7c 84be
00000060: 2d36 1d3c 1789 cf3e b214 233d 2151 3cbf
00000070: d50d 21bd 1d0d 383d 5f79 04be 52a8 d2be
00000080: 14ec 133e 523d 203d a24f 403d 4d98 913e
00000090: 4c7c 7bbe 5b09 733e f7a4 9bbc f360 05bd
000000a0: bb3d 8fbd 6213 313e 0af0 a0be 37e1 21bf
000000b0: 0013 823e 3191 57bd 8f96 923a 98d6 02be
000000c0: 9c59 e0bd 0350 0abe ab37 aabd 47b5 06be
000000d0: 909e 56bd 9f1d 473d 3920 b2be 0f9e a1be
000000e0: eeb6 733d f903 91bd 4594 05be c403 c2bd
000000f0: e159 ad3d 3e75 98bd 589a be3d 9060 213d
00000100: 8412 6dbe 5b35 64bd ddc2 50bc 8423 04be
00000110: a1c7 303f dbfb d8bd 7f9d 15be dfce 28bd
00000120: 472a c83e 61fb 74be 7d00 81bd 779e 9fbd
00000130: 4545 323e da45 383d 44de 8bbe ac22 8cbe
00000140: 2327 c8bc 9fe4 f73c 505e 1fbe a2cf 1bbe
00000150: b476 27be 235e b43e 8ec0 40be 73e6 3dbf
00000160: 0fe2 e83e bbb1 cabe fc79 b93d 807a bebd
00000170: d2ac 503e 4f73 66be 26c7 d8bd af6a 08be
00000180: 5a3a c53d 48af 903d c859 6bbe 2063 4fbe
00000190: 534e 913e 085c 92bd 4f5f ba3e b0da 95be
000001a0: 0b6b b13e 813e 86be 11b4 81bd 3950 6ebd
000001b0: c32c 6cbe 0360 033d bed6 a83e 0408 13bd
000001c0: b7a4 8c3e d369 20be 8957 233e 0de7 18be
000001d0: 6f64 14bd 7fdc 0c3d abff 4d3e 4eb3 e23d
000001e0: 555b 68be 2adf 743e 57e9 bcbd 84d0 1ebd
000001f0: 8401 7b3d b73f 373d 702b 38bd f5dd 3bbc
00000200: f90f 903e efda e2bd 0689 d13d feb0 513e
00000210: 7d2d 923e 581c 47be 9619 69bd 3763 8abc
00000220: 4c14 b5be 5983 ee3e e7e1 09be bb87 633d
00000230: 3956 0c3e b4f9 f5bd 2ff4 b73c 9bb4 5dbe
00000240: d942 32bd 7423 3d3d c668 893a 389a f7bd
00000250: 9c65 a4be e47f b33e 06a1 00be 9fce 91be
00000260: 2278 c0be a80d f83e 2488 1fbe a051 d8be
00000270: 55c7 7abd 4123 6ebc 5fd4 d9bd c89c e53d
00000280: e801 20bc c31e 8a3e ea10 efbe 4c3f ffbb
00000290: 45ec de3e 9279 763b 542e 15bd 60b8 3a3e
000002a0: e7de d8bb c01c 31bd 84ed a5be ce23 a4be
000002b0: 4145 93bd 55e2 d43c a4b5 62be ec68 32be
000002c0: 06f0 543c b20e 84bd 6365 31be d90f 24be
000002d0: 4c8b 013f 041b 91be 7c96 6b3d 6435 8cbd
000002e0: 1224 ab3d dc14 723e a044 473d e1f9 f5be
000002f0: 605d b6be 03c6 003f 0df1 3dbe 8548 17bf
00000300: 1eba 7d3d 3d25 a4be 14a1 93be 1c6b 93be
00000310: 241e 733e 0b82 eebe 7cde 91be 1531 b1be
00000320: d15a 29bd 59ee f93d 5c19 54be 6b03 16bf
00000330: a72a 8bbe b4e7 cd3e 224b 36be e49c e83c
00000340: 02a3 6bbe f1fb 543e 61ff f63c 272b 593d
00000350: b835 d63e d6f8 d4be 4004 49be 561e 763e
00000360: 60d3 8bbd c467 b43e 39bf e6bc 65d8 663e
00000370: e35a 94be 9a25 843e 08cd 90be d1ef 7abe
00000380: c00f 3bbd 4d34 88bd b998 42be 5f04 a13d
00000390: caf0 d63d a72a f2bd a863 36be f3f3 2fbe
000003a0: 3424 97be ed57 193e ef92 f5be c0fb b4be
000003b0: 6574 80be 9836 7e3e 712e 00bd e562 c3bc
000003c0: 26e1 6fbe 9079 883e f0d4 36be 8781 03be
000003d0: 9a4d 1c3c 5493 2fbc 833b ba3c 17fe 37be
000003e0: f5b6 afbe 2db7 c13e 1c0c b2be 7236 b7be
000003f0: 88d1 dcbd 6bfd db3d 9462 19be 5eb3 ef3d

conv1.lin_l.bias f4 [64]
-0.56554586 -0.54013216 -0.066236556 -0.116110936 -0.36953565 -0.32158926 -0.6336444 -0.22005689
-0.29106537 -0.060077682 -0.0037397195 -0.45438153 -0.58684313 -0.19878669 -0.09475103 -0.24026433
-0.6558286 -0.19043253 -0.03988087 -0.4434328 -0.14443657 -0.25322005 -0.20273994 -0.09810328
-0.35235086 0.11067833 0.036383234 -0.10893229 0.117072254 -0.6001638 -0.11928162 -0.23182255
-0.075004175 -0.06990387 -0.33386305 -0.22791162 -0.11064832 -0.1734028 -0.15398425 -0.65616816
-0.5517677 -0.40057465 -0.26884377 -0.16440739 -0.120023295 -0.18685563 -0.6090543 -0.181845
-0.17258541 -0.2792743 -0.090673715 -0.32342216 -0.2859517 -0.49871176 -0.60381997 -0.18261008
-0.6183866 -0.16088077 -0.48046592 -0.0733825 -0.15974322 -0.13458867 0.075583 -0.32741576
00000000: 9dc7 10bf 1a46 0abf 08a7 87bd 92cb edbd
00000010: c733 bdbe 59a7 a4be 8536 22bf 9856 61be
00000020: 8506 95be 0414 76bd 1516 75bb b2a4 e8be
00000030: 5a3b 16bf bd8e 4bbe d40c c2bd da07 76be
00000040: 62e4 27bf bf00 43be 205a 23bd a009 e3be
00000050: 2ee7 13be 0fa6 81be 0f9b 4fbe 5fea c8bd
00000060: 5567 b4be 52ab e23d 9606 153d e417 dfbd
00000070: 94c3 ef3d 56a4 19bf ec49 f4bd e462 6dbe
00000080: ca9b 99bd c329 8fbd 19f0 aabe aa61 69be
00000090: 969b e2bd 8190 31be 0cae 1dbe a3fa 27bf
000000a0: a640 0dbf 1f18 cdbe e4a5 89be 695a 28be
000000b0: c6ce f5bd 1557 3fbe fcea 1bbf 9335 3abe
000000c0: 3bba 30be 0bfd 8ebe 24b3 b9bd 9797 a5be
000000d0: 4368 92be 2657 ffbe f293 1abf 23fe 3abe
000000e0: 964e 1ebf eebd 24be a1ff f5be 9049 96bd
000000f0: ba93 23be 9dd1 09be 43cb 9a3d 0aa3 a7be

conv1.lin_r.weight f4 [64, 4]
0.3335209 0.43780017 0.19919461 0.064053655 -0.36216402 -0.18962473 -0.1995278 0.43155098
-0.22663975 0.08279067 -0.016720653 0.03925228 -0.26181036 0.24127811 -0.096077144 -0.06480223
-0.012651563 0.32831824 -0.27348018 0.48287052 -0.12824625 0.31498843 -0.19548124 -0.15302914
0.30557388 0.279741 0.35037518 -0.39152652 0.063886106 -0.44145262 -0.31648278 0.18150765
-0.23630476 0.38759673 -0.23447406 0.044408917 -0.16046411 0.1974734 0.3617409 0.1071794
-0.11877525 -0.18811691 -0.4760275 0.31856203 -0.4777702 -0.42939866 0.46894354 -0.4469471
-0.29689223 -0.3861882 0.30193812 -0.3883924 -0.081861496 0.3009674 -0.23312628 -0.15983522
0.42117977 -0.09631848 0.43110406 0.30746353 -0.16597813 -0.07268375 -0.42454267 -0.21455342
-0.4881655 0.10768944 -0.28827775 -0.34951782 -0.098930955 0.35829312 -0.31902623 0.45982826
-0.071703374 0.10995668 -0.041498125 -0.46582133 -0.24495178 -0.07301432 -0.08402544 -0.3350109
-0.363151 -0.063812315 0.11228657 -0.02519828 -0.48299205 0.0921219 -0.40529495 -0.23590791
0.15688181 0.24505585 -0.38730806 0.4711089 -0.3168295 0.13853121 -0.027172446 0.1803149
-0.24225366 -0.23665202 -0.3187415 -0.38426882 0.40877044 -0.4461851 -0.031919837 0.4955395
-0.2910928 -0.07114351 -0.082505286 -0.21652895 -0.00015795231 -0.49218428 -0.4509958 0.19781578
0.33455604 0.33644176 -0.2595145 0.08455837 0.39220625 0.4821878 -0.34278262 0.24717593
0.43933892 0.21144444 -0.19663572 -0.05469072 -0.20837039 -0.04300928 -0.00436306 0.180426
0.3839624 -0.4189232 -0.3113066 0.36432594 0.17671174 -0.071772814 -0.32689023 0.024537563
0.06179595 -0.02041179 -0.18428034 -0.10900694 -0.06213349 0.37568146 0.30053705 -0.12421906
-0.2483936 0.42013657 -0.2695245 -0.39795923 -0.0425452 0.05376154 -0.1176101 0.45998192
0.08134729 -0.40643668 0.22074288 -0.15148407 -0.14247102 -0.11148435 0.05564493 0.3001359
-0.39904416 -0.3945698 0.2958585 -0.12146568 0.33911592 -0.24213034 -0.15384007 -0.05373919
0.43143225 0.38902277 -0.35485947 0.30293816 -0.2687707 0.39952612 0.41871446 -0.49176955
-0.07636535 0.023244262 -0.10128605 -0.24149704 -0.35089707 -0.39521712 0.25568038 0.1566776
0.19883114 -0.45586604 -0.236355 -0.15963048 -0.30277795 -0.22375983 0.27320242 -0.4489283
-0.38776284 -0.21806109 0.4460438 0.4632423 -0.030638754 0.18508333 0.07958466 0.21610129
0.22322011 -0.18599856 0.036701083 -0.010892928 0.3621158 0.014025629 -0.45975047 -0.2341817
-0.05939752 0.25594354 0.20475382 0.42419064 -0.27043605 -0.34358424 0.30491132 -0.22276825
-0.47133785 0.03702694 -0.21826553 0.32369792 0.16215515 -0.41708606 0.29326642 -0.41905707
-0.30438834 0.39691955 -0.4993341 0.19850415 -0.17062569 0.0907048 0.26557088 -0.05248952
0.4367988 -0.4494729 0.45125556 -0.41457266 0.18081808 -0.13575906 0.120382726 0.405091
-0.28271937 0.43933648 -0.3903603 -0.1184414 0.1729827 0.25672954 0.20115417 -0.36440253
0.3466118 0.08220136 0.17207903 -0.10396588 -0.44775504 -0.070513606 -0.4305573 -0.1453166
00000000: 40c3 aa3e 5827 e03e acf9 4b3e 902e 833d
00000010: 906d b9be fc2c 42be 0451 4cbe 40f4 dc3e
00000020: 4014 68be 288e a93d c0f9 88bc 00c7 203d
00000030: 020c 86be 9c11 773e 18c4 c4bd 08b7 84bd
00000040: 8048 4fbc 5419 a83e 9805 8cbe ce3a f73e
00000050: fc52 03be 2a46 a13e 3c2c 48be acb3 1cbe
00000060: 2e74 9c3e 363a 8f3e 6064 b33e 2a76 c8be
00000070: b8d6 823d 1406 e2be 080a a2be 24dd 393e
00000080: e0f9 71be 1473 c63e f819 70be 20e6 353d
00000090: b450 24be 7836 4a3e 1a36 b93e e080 db3d
000000a0: 7040 f3bd b8a1 40be e0b9 f3be 901a a33e
000000b0: 4c9e f4be 24da dbbe 5e19 f03e 40d6 e4be
000000c0: 4202 98be 76ba c5be a297 9a3e 5edb c6be
000000d0: 00a7 a7bd 6618 9a3e a8b8 6ebe d8ab 23be
000000e0: e0a4 d73e a042 c5bd acb9 dc3e dc6b 9d3e
000000f0: 2cf6 29be 38db 94bd a85d d9be e4b3 5bbe
00000100: d4f0 f9be 488c dc3d 2499 93be 00f4 b2be
00000110: 509c cabd 3272 b73e 6857 a3be 9c6e eb3e
00000120: 38d9 92bd f830 e13d f0f9 29bd 2280 eebe
00000130: a4d4 7abe 8888 95bd 8815 acbd 8c86 abbe
00000140: eeee b9be 08b0 82bd 80f6 e53d a06c cebc
00000150: bc4a f7be 68aa bc3d d282 cfbe d891 71be
00000160: a0a5 203e ecef 7a3e 3e4d c6be 3035 f13e
00000170: 7a37 a2be 20db 0d3e c098 debc 78a4 383e
00000180: 5811 78be e854 72be 1632 a3be e2be c4be
00000190: 5c4a d13e 6072 e4be 60be 02bd 5ab7 fd3e
000001a0: 1e0a 95be b0b3 91bd 88f8 a8bd c4b9 5dbe
000001b0: 00a0 25b9 94ff fbbe ece8 e6be 3890 4a3e
000001c0: ee4a ab3e 1842 ac3e 16df 84be f02c ad3d
000001d0: 42cf c83e 52e1 f63e 3481 afbe b01b 7d3e
000001e0: 08f1 e03e e484 583e e05a 49be 6003 60bd
000001f0: 0c5f 55be 802a 30bd 00f8 8ebb 98c1 383e
00000200: b896 c43e 1a7d d6be 9463 9fbe ee88 ba3e
00000210: ecf3 343e a0fd 92bd 285e a7be 0003 c93c
00000220: c01d 7d3d a036 a7bc fcb3 3cbe 083f dfbd
00000230: b07f 7ebd 5259 c03e fedf 993e 9066 febd
00000240: e45a 7ebe 241c d73e 1eff 89be 50c1 cbbe
00000250: e043 2ebd 1035 5c3d 90dd f0bd c082 eb3e
00000260: 6899 a63d 7818 d0be 6c0a 623e a41e 1bbe
00000270: ece3 11be e851 e4bd f0eb 633d 6aab 993e
00000280: 844f ccbe 0e05 cabe c47a 973e 00c3 f8bd
00000290: 9aa0 ad3e 04f1 77be 4088 1dbe a01d 5cbd
000002a0: b0e4 dc3e fe2d c73e 24b0 b5be b61a 9b3e
000002b0: 509c 89be b08e cc3e be61 d63e 38c9 fbbe
000002c0: 7065 9cbd c06a be3c 106f cfbd 004b 77be
000002d0: c8a8 b3be e659 cabe 8ae8 823e 1870 203e
000002e0: 649a 4b3e 4667 e9be 0c07 72be 2c76 23be
000002f0: b605 9bbe 4c21 65be 30e1 8b3e eed9 e5be
00000300: da88 c6be 684b 5fbe da5f e43e 182e ed3e
00000310: 20fe fabc 7c86 3d3e 48fd a23d a849 5d3e
00000320: d093 643e 6876 3ebe e053 163d 4078 32bc
00000330: 3e67 b93e c0cb 653c 6a64 ebbe 54cd 6fbe
00000340: d04a 73bd 080b 833e fcaa 513e 842f d93e
00000350: 9876 8abe 46ea afbe 561d 9c3e 5c1d 64be
00000360: 3253 f1be 90a9 173d 0081 5fbe bcbb a53e
00000370: 000c 263e 4e8c d5be 0427 963e a68e d6be
00000380: cad8 9bbe 0a39 cb3e b8a8 ffbe ac44 4b3e
00000390: 80b8 2ebe 70c3 b93d e8f8 873e 40ff 56bd
000003a0: 18a4 df3e 5021 e6be f80a e73e de42 d4be
000003b0: 6028 393e 6c04 0bbe 388b f63d 1668 cf3e
000003c0: 98c0 90be b6f0 e03e 4edd c7be 6891 f2bd
000003d0: 6022 313e 0e72 833e 5cfb 4d3e f892 babe
000003e0: 1a77 b13e 3059 a83d 7c35 303e 10ec d4bd
000003f0: 2640 e5be 7069 90bd 0272 dcbe e0cd 14be

conv1.lin_r.bias f4 [64]
-0.3372029 0.19415033 0.31489658 -0.43589532 0.12984431 -0.0071456432 -0.35306007 -0.4119876
0.34469277 0.22136605 0.22049087 0.023890913 -0.29158896 0.3407402 -0.43590832 0.40792274
-0.36731404 0.019894123 -0.45949548 -0.22916323 0.43470818 0.4458319 -0.3626696 0.3936453
-0.47288394 0.31512344 -0.05376947 0.3044753 -0.0052292347 0.21785688 0.0015637279 -0.4510339
0.10348004 -0.23718035 0.29209387 -0.4200487 -0.11850178 0.15706581 -0.44016367 -0.0505172
-0.4129014 0.1607495 0.4719066 -0.34153205 0.3370697 -0.34041518 0.297392 -0.12116903
-0.38705218 0.17266315 -0.2038669 0.03129095 -0.38886184 -0.1153419 0.01742822 -0.49321467
0.43805182 -0.37471676 -0.21895266 -0.02090913 0.29662657 -0.358334 -0.1674121 -0.1623773
00000000: dca5 acbe 58cf 463e 203a a13e ac2d dfbe
00000010: e8f5 043e 0026 eabb 4ac4 b4be 0af0 d2be
00000020: 927b b03e c8ad 623e 5cc8 613e e0b6 c33c
00000030: 264b 95be 8075 ae3e 602f dfbe 40db d03e
00000040: 9610 bcbe 00f9 a23c fe42 ebbe c4a9 6abe
00000050: 1292 de3e 1444 e43e d4af b9be e08b c93e
00000060: d81d f2be dc57 a13e 603d 5cbd 30e4 9b3e
00000070: 005a abbb e015 5f3e 00f6 cc3a eaed e6be
00000080: 58ed d33d 68df 72be 548d 953e a010 d7be
00000090: 10b1 f2bd dcd5 203e 225d e1be 20eb 4ebd
000000a0: d067 d3be 849b 243e be9d f13e 4add aebe
000000b0: 6694 ac3e e64a aebe c443 983e 7827 f8bd
000000c0: b42b c6be 9cce 303e 7cc2 50be f02a 003d
000000d0: e618 c7be 6038 ecbd a0c5 8e3c a286 fcbe
000000e0: 5448 e03e e0da bfbe 2035 60be a049 abbc
000000f0: 70df 973e 8e77 b7be 146e 2bbe 3c46 26be

conv1.lin_edge.weight f4 [64, 2]
0.67333406 -0.32179895 0.5499883 0.38480657 0.14132178 0.07441753 0.41936857 -0.5292447
0.42997056 -0.13183922 0.09372085 0.39080447 0.17892313 -0.00943172 0.2551691 -0.44196153
0.6397032 -0.2581477 -0.07864416 0.46428567 -0.111604095 0.4703595 0.21385872 -0.28897917
-0.35754925 -0.04613352 -0.679135 -0.55708474 0.44464034 0.08026439 -0.17403084 -0.5719877
0.69507676 -0.3317439 0.21432978 0.51526767 0.26562417 0.24984986 0.031036079 0.42353565
0.090880334 0.39626664 -0.577871 0.66043013 -0.10709059 0.27930117 -0.15572333 0.1686812
-0.3237624 0.49801213 -0.6754981 -0.22644836 0.37908202 0.4286793 -0.55875534 -0.5495704
-0.29429373 -0.6099546 0.048480332 -0.30394468 0.39490885 0.21590263 -0.5233859 -0.27705282
-0.092968285 0.4399194 -0.21466604 -0.1886487 0.00395751 0.1060859 0.28900963 -0.24806902
-0.2725657 -0.4579357 -0.5780639 -0.4811269 0.07112557 -0.50323546 0.38052243 0.59404975
0.60408384 0.53535444 -0.63096666 0.19258326 -0.20660925 0.20110089 0.28277838 -0.7060848
-0.5034485 -0.33871964 0.5768022 0.10529715 -0.22151801 -0.34959614 -0.2657336 0.12819666
-0.58635527 -0.29628736 0.19781756 0.046214283 0.24003279 0.32293087 -0.20914632 -0.30997077
0.32119125 0.20383942 0.67139 -0.65315574 -0.13511944 -0.392586 0.6506546 -0.107631564
0.37620825 0.2581346 -0.24629599 -0.6858582 -0.038112104 -0.1592077 0.04300928 -0.33443227
0.28870875 -0.6693738 -0.29384354 -0.2734291 -0.087885976 -0.36981887 -0.46105778 0.4301744
00000000: 9f5f 2c3f d5c2 a4be 09cc 0c3f 5e05 c53e
00000010: a8b6 103e 3868 983d 7ab7 d63e 957c 07bf
00000020: 1a25 dc3e dc00 07be b8f0 bf3d 8617 c83e
00000030: a037 373e 8087 1abc 86a5 823e c848 e2be
00000040: 97c3 233f ef2b 84be 3010 a1bd dab6 ed3e
00000050: b090 e4bd f6d2 f03e c8fd 5a3e 14f5 93be
00000060: b210 b7be 80f6 3cbd cbdb 2dbf 1b9d 0ebf
00000070: e6a7 e33e a861 a43d 2435 32be c96d 12bf
00000080: 8df0 313f 56da a9be 4479 5b3e 95e8 033f
00000090: e4ff 873e a4d8 7f3e 603f fe3c aad9 d83e
000000a0: 781f ba3d 76e3 ca3e 5bef 13bf f311 293f
000000b0: 5052 dbbd 9000 8f3e f075 1fbe c4ba 2c3e
000000c0: 2fc4 a5be 72fb fe3e 72ed 2cbf 14e2 67be
000000d0: 0a17 c23e da7b db3e 970a 0fbf a5b0 0cbf
000000e0: abad 96be fc25 1cbf 5093 463d a39e 9bbe
000000f0: 7e31 ca3e 9415 5d3e 9efc 05bf ded9 8dbe
00000100: 2866 bebd 1e3d e13e 6ad1 5bbe 202d 41be
00000110: 00ae 813b 9043 d93d 12f9 933e ce05 7ebe
00000120: bb8d 8bbe 8c76 eabe fffb 13bf 4456 f6be
00000130: 48aa 913d 0ad4 00bf d6d3 c23e a513 183f
00000140: 3da5 1a3f fd0c 093f 0887 21bf 8c34 453e
00000150: 6091 53be 64ed 4d3e 54c8 903e f9c1 34bf
00000160: 00e2 00bf a96c adbe 4fa9 133f 08a6 d73d
00000170: 9ed5 62be 44fe b2be 3c0e 88be fc45 033e
00000180: 611b 16bf fab2 97be b090 4a3e 304b 3d3d
00000190: 28cb 753e 3257 a53e 742a 56be 7db4 9ebe
000001a0: 2e73 a43e 48bb 503e 37e0 2b3f 3735 27bf
000001b0: c05c 0abe 0801 c9be 4d91 263f f06d dcbd
000001c0: 5e9e c03e 382a 843e 0435 7cbe 6794 2fbf
000001d0: 701b 1cbd 5807 23be 802a 303d b53a abbe
000001e0: a2d1 933e 155c 2bbf a972 96be e6fe 8bbe
000001f0: 90fd b3bd e658 bdbe c40f ecbe d23f dc3e

conv2.att f4 [1, 1, 64]
0.28925884 0.03229311 0.079837054 -0.1674265 -0.18736634 0.15227687 -0.0033870041 -0.2612447
0.07225144 -0.21548492 0.17596835 -0.1950357 0.2249769 0.12991205 0.19911563 -0.13758425
-0.27210718 -0.023421675 -0.08440249 -0.06673752 0.29755807 -0.06694186 -0.18881403 -0.033913046
-0.2190015 0.11715454 0.10008395 0.06554535 0.19778132 0.2736252 -0.08809495 0.016375214
0.24240786 0.057491243 0.0020734072 -0.09074113 0.018399298 -0.16387358 -0.25301486 0.05833137
-0.19012749 -0.2940699 -0.16634661 0.10175717 -0.14051583 -0.14612566 0.05742356 0.16927549
-0.14829399 0.06474033 0.06494379 -0.023642957 0.20934194 0.19218853 -0.15767936 0.21213514
-0.08524285 -0.058011234 0.15984002 0.24169087 -0.24786776 -0.19064084 0.036709785 -0.27034622
00000000: bc19 943e c845 043d 9c81 a33d da71 2bbe
00000010: f6dc 3fbe 78ee 1b3e 80f8 5dbb dec1 85be
00000020: 90f8 933d 14a8 5cbe 0c31 343e 70b7 47be
00000030: 5860 663e aa07 053e f8e4 4b3e e3e2 0cbe
00000040: a251 8bbe d0de bfbc 36db acbd aead 88bd
00000050: 8859 983e d018 89bd 7758 41be 68e8 0abd
00000060: ee41 60be b8ee ef3d d0f8 cc3d a43c 863d
00000070: 3087 4a3e 9a18 8c3e 206b b4bd 5025 863c
00000080: c439 783e f07b 6b3d 00e2 073b 7cd6 b9bd
00000090: 20ba 963c 7ace 27be 2a8b 81be e0ec 6e3d
000000a0: c8b0 42be 5490 96be c456 2abe 1066 d03d
000000b0: 62e3 0fbe f7a1 15be f834 6b3d 8e56 2d3e
000000c0: 61da 17be 9496 843d 4001 853d e0ae c1bc
000000d0: bc5d 563e 12cd 443e b376 21be f439 593e
000000e0: ce93 aebd 309d 6dbd 1aad 233e d07d 773e
000000f0: 0cd1 7dbe 5a37 43be 005d 163d d26a 8abe

conv2.bias f4 [64]
-0.05768114 -0.015704442 0.027460942 0.05820311 0.04079609 -0.026215 0.020867452 0.16461441
0.0064447476 -0.01996601 -0.0022796537 -6.331067e-05 0.07926372 0.009182085 -0.0058233715 -0.018394398
-0.025439855 0.029172212 0.009519302 -0.0064205066 -0.040333148 0.013393151 0.022708256 0.015932074
-0.0034091065 0.017086595 0.0128348125 0.028521622 0.056436766 -0.05833659 -0.015084829 -0.018923502
-0.0024083625 0.013949694 -0.001975244 -0.036665108 -0.058914874 -0.036587104 0.02520767 0.047380473
-0.029984735 0.026507588 -0.02029534 -0.020322014 -0.056233533 0.012917262 -0.018033395 -0.008767698
-0.04052191 -0.018332431 0.03200566 -0.039211728 0.031350214 -0.00077322987 -0.01940028 -0.050168823
0.030849412 -0.027709506 -0.008656069 0.036389444 0.052909657 0.015321039 0.0034367638 0.043998472
00000000: 0f43 6cbd 9aa6 80bc c5f5 e03c 6266 6e3d
00000010: cd19 273d d7c0 d6bc 38f2 aa3c ae90 283e
00000020: 762e d33b c28f a3bc 3e66 15bb a8c5 84b8
00000030: 0455 a23d 7570 163c fbd1 bebb d9af 96bc
00000040: 3e67 d0bc 90fa ee3c d9f6 1b3c 1d63 d2bb
00000050: 5f34 25bd f26e 5b3c aa06 ba3c fb83 823c
00000060: 516b 5fbb 30f9 8b3c 1b49 523c 2da6 e93c
00000070: 3d2a 673d 59f2 6ebd 5c26 77bc 7605 9bbc
00000080: 9ed5 1dbb 428d 643c 1873 01bb 272e 16bd
00000090: b950 71bd 5cdc 15bd 5180 ce3c 0712 423d
000000a0: 8ca2 f5bc 7126 d93c 6a42 a6bc 5a7a a6bc
000000b0: 2255 66bd eca2 533c c5ba 93bc 64a6 0fbc
000000c0: 4dfa 25bd e52d 96bc 5e18 033d 7a9c 20bd
000000d0: 1569 003d 94b2 4aba 56ed 9ebc d37d 4dbd
000000e0: e8b7 fc3c 0cff e2bc 2fd2 0dbc 190d 153d
000000f0: ccb7 583d 1805 7b3c 543b 613b be37 343d

conv2.lin_l.weight f4 [64, 64]
-0.10403156 -0.04583056 0.052568536 -0.057420246 0.07869658 0.0322292 0.06517871 -0.114019245
-0.010560411 0.00032054342 -0.06511858 0.104045555 0.013040939 -0.10718596 -0.073614694 0.073598385
0.177881 0.09290639 -0.05446501 -0.010973129 0.22485484 -0.00018120171 0.074956484 0.12980308
-0.07511066 0.035830844 -0.0638569 0.020849671 -0.049198404 -0.012367243 -0.09695997 -0.08519271
0.016220069 -0.10224486 0.043428384 0.06033384 -0.11282554 -0.03768081 -0.017442154 0.025300995
-0.113679536 -0.06479685 0.11399075 0.081716396 -0.026870219 -0.061204426 -0.108198814 -0.07551617
-0.001824462 0.0076032137 -0.047761403 -0.066713616 -0.08366927 -0.07512352 -0.17693222 -0.07268354
-0.042567078 0.13377757 -0.015383055 -0.07281512 0.16083781 -0.073165655 -0.0030770437 -0.014313889
-0.0063981684 -0.064567745 0.082957335 0.009435423 -0.043499045 0.06927607 0.08983923 -0.019020446
0.011107068 -0.029845944 0.076611325 0.039773855 -0.05006696 -0.08939472 0.021496829 -0.015353473
-0.073955216 -0.084810995 0.021795379 0.044081707 0.05106305 -0.006280663 -0.12170034 -0.014721775
0.06264076 -0.02972141 -0.0025407656 0.051689517 0.035082787 -0.059273362 0.041863807 -0.0042668656
0.09744368 0.005293378 0.013556153 0.06426881 0.04088374 -0.054862384 0.056078874 -0.0024630185
0.11020992 -0.013554326 -0.032182336 0.010498991 -0.025652422 0.0842765 0.020824956 0.08647252
-0.042603076 -0.06457715 -0.052246217 0.041868664 -0.004446086 -0.047969203 0.029173443 0.08323597
-0.071788155 -0.086855605 -0.006647976 0.08264752 -0.003596023 -0.015482137 -0.05886792 0.01819931
-0.058611587 -0.15096453 -0.024602678 0.04636681 -0.10410769 -0.054304756 0.0784754 0.005846578
0.032437123 -0.04307987 -0.019763682 -0.07255323 -0.04372744 -0.028197788 0.09679405 -0.11696873
-0.055308424 -0.079305075 -0.08930919 0.013454812 -0.05313628 0.049061205 -0.062689774 0.15671612
-0.023068557 0.025754059 -0.117637925 0.017169109 -0.11016019 -0.065131344 0.0007638037 0.10766495
0.07023775 0.10712881 -0.06530926 0.05925751 0.10860158 -0.038350098 0.094978526 0.13366105
-0.068018615 0.024215547 0.09678542 0.0888986 -0.10644405 0.011114375 -0.10125783 -0.06784019
-0.07935014 0.055846233 0.14187479 0.08031717 -0.07798049 -0.01259659 -0.05729913 0.13921767
0.06928923 0.08172778 -0.13781026 0.02191147 -0.04353502 0.020580202 0.044631783 0.09822801
0.11062843 -0.2484275 -0.058768407 0.062273573 0.061119597 -0.09318164 -0.07003926 -0.049496863
0.020559985 -0.051317364 -0.028195998 0.028955953 -0.111633986 0.14947924 -0.0024242802 0.0046202275
0.031240929 0.13814601 -0.003909059 -0.11059856 0.20906526 -0.23680688 0.01818943 -0.0709298
-0.10431101 -0.006180591 0.044991985 -0.06314792 0.017111188 0.0047983616 0.0010786481 -0.14034973
-0.10040762 -0.13597488 -0.08754511 -0.06021412 -0.033302348 0.08353921 -0.11979728 0.018848618
-0.17088015 0.07673986 -0.006767426 0.104484044 -0.014221696 -0.05967154 -0.30524376 -0.18925096
0.008871613 -0.067932665 0.05095056 0.0417486 0.01211352 -0.059046984 -0.2687399 0.16707958
-0.09430232 0.06967551 -0.07206512 0.11099011 0.19169182 -0.068229 -0.033073846 0.074934706
00000000: 800e d5bd d3b8 3bbd 1b52 573d 7e31 6bbd
00000010: ac2b a13d c402 043d 6a7c 853d ec82 e9bd
00000020: 9305 2dbc 9c0e a839 e45c 85bd d615 d53d
00000030: aaa9 553c 5084 dbbd 4dc3 96bd c0ba 963d
00000040: 7026 363e b545 be3d b416 5fbd a4c8 33bc
00000050: 5940 663e f700 3eb9 c982 993d 19eb 043e
00000060: 9ed3 99bd 5dc3 123d 68c7 82bd eecc aa3c
00000070: 4484 49bd fa9f 4abc f392 c6bd 8479 aebd
00000080: f3df 843c c165 d1bd f6e1 313d 9e20 773d
00000090: 1411 e7bd 3157 1abd d9e2 8ebc 0844 cf3c
000000a0: d1d0 e8bd 36b4 84bd fb73 e93d ed5a a73d
000000b0: ef1e dcbc 7eb1 7abd 5797 ddbd 39a8 9abd
000000c0: c922 efba 6124 f93b 76a1 43bd 26a1 88bd
000000d0: cb5a abbd 5cda 99bd b82d 35be 1cdb 94bd
000000e0: d15a 2ebd fdfc 083e 3609 7cbc 1820 95bd
000000f0: abb2 243e e0d7 95bd 3aa8 49bb cd84 6abc
00000100: baa7 d1bb 183c 84bd 89e5 a93d 0897 1a3c
00000110: 0e2c 32bd 9de0 8d3d a1fd b73d c4d0 9bbc
00000120: 6bfa 353c 7b7f f4bc 66e6 9c3d e9e9 223d
00000130: 0313 4dbd 9414 b7bd 1e1a b03c 228d 7bbc
00000140: d575 97bd 63b1 adbd 398c b23c 058f 343d
00000150: 7d27 513d 05ce cdbb 073e f9bd 9a33 71bc
00000160: cc49 803d 507a f3bc f982 26bb 63b8 533d
00000170: f8b2 0f3d a0c8 72bd 6279 2b3d 10d1 8bbb
00000180: 8d90 c73d 1374 ad3b a01a 5e3c 5e9f 833d
00000190: b575 273d 61b7 60bd f6b2 653d 986a 21bb
000001a0: bdb5 e13d f712 5ebc a0d1 03bd f603 2c3c
000001b0: 0725 d2bc 2899 ac3d 1999 aa3c 8118 b13d
000001c0: 9080 2ebd 0641 84bd 2100 56bd 7a7e 2b3d
000001d0: 79b0 91bb 5b7b 44bd 25fd ee3c 9f77 aa3d
000001e0: ab05 93bd 5ae1 b1bd 44d7 d9bb 1a43 a93d
000001f0: 41ab 6bbb caa8 7dbc 7d1f 71bd b816 953c
00000200: b412 70bd 7296 1abe 8e8b c9bc 20eb 3d3d
00000210: 6a36 d5bd aa6e 5ebd b6b7 a03d a794 bf3b
00000220: cadc 043d 8574 30bd 72e7 a1bc ca96 94bd
00000230: 8b1b 33bd 0cff e6bc f53b c63d 4d8d efbd
00000240: 168b 62bd b36a a2bd bde7 b6bd 9271 5c3c
00000250: 6ea5 59bd 67f4 483d 7f63 80bd 317a 203e
00000260: 45fa bcbc 2dfa d23c 27ec f0bd 3ba6 8c3c
00000270: aa9b e1bd 9563 85bd 003a 483a 717f dc3d
00000280: cfd8 8f3d 5966 db3d dcc0 85bd 01b8 723d
00000290: 816a de3d fe14 1dbd 1a84 c23d 71de 083e
000002a0: 584d 8bbd af5f c63c 6f37 c63d 7810 b63d
000002b0: 57ff d9bd 1119 363c 4460 cfbd ccef 8abd
000002c0: 5482 a2bd 05bf 643d a047 113e 547d a43d
000002d0: 3cb4 9fbd ee61 4ebc 7eb2 6abd 148f 0e3e
000002e0: 83e7 8d3d e560 a73d 221e 0dbe af7f b33c
000002f0: c751 32bd d097 a83c d1cf 363d c42b c93d
00000300: 2991 e23d c763 7ebe 24b7 70bd 9312 7f3d
00000310: 8b58 7a3d 04d6 bebd be70 8fbd 39bd 4abd
00000320: 6a6d a83c 2832 52bd 4bfb e6bc 0935 ed3c
00000330: 5ca0 e4bd 1611 193e ace0 1ebb 4765 973b
00000340: faec ff3c 2676 0d3e 9017 80bb 7f81 e2bd
00000350: 3415 563e 817d 72be 0002 953c a543 91bd
00000360: 03a1 d5bd 8e86 cabb 8449 383d b253 81bd
00000370: c32c 8c3c 933b 9d3b 6d61 8d3a d7b7 0fbe
00000380: 83a2 cdbd 003d 0bbe da4a b3bd 15a3 76bd
00000390: 0b68 08bd 9b16 ab3d 4758 f5bd 6b68 9a3c
000003a0: 35fb 2ebe ca29 9d3d 49c1 ddbb bbfb d53d
000003b0: 1e02 69bc 256a 74bd e948 9cbe 01cb 41be
000003c0: 3e5a 113c 4820 8bbd 89b1 503d 9400 2b3d
000003d0: c977 463c 40db 71bd 4798 89be e916 2b3e
000003e0: 9321 c1bd 09b2 8e3d e196 93bd c84e e33d
000003f0: dc4a 443e a5bb 8bbd 7178 07bd 5e77 993d

conv2.lin_l.bias f4 [64]
-0.005141799 -0.11132131 -0.06504858 0.16572875 0.08133492 -0.13903101 -0.093368135 0.03567137
0.09801293 -0.09568806 0.07117887 0.1070332 0.09370358 -0.07659836 -0.0036003683 0.08543552
-0.14643702 -0.0051682587 0.03876675 0.014602562 0.075817466 0.03705473 -0.05863432 -0.061323676
-0.06457352 -0.09873592 0.09476371 -0.056607977 -0.03248496 0.052483518 0.055001523 0.063188225
0.018424027 -0.082419194 -0.103429966 0.06723667 0.060569167 -0.11477527 -0.06332478 -0.0155311795
0.029242817 0.033910815 -0.036661737 0.101223774 0.03847368 -0.059747174 0.026254684 0.054856636
0.07902182 0.04966003 0.051564936 0.007544276 -0.0030762304 -0.007928631 0.084060185 -0.03851039
0.077324845 -0.018805884 -0.033625424 0.073065676 -0.0017036906 -0.11053502 -0.005393724 -0.047982916
00000000: 897c a8bb 6dfc e3bd 3138 85bd ccb4 293e
00000010: ec92 a63d 255e 0ebe cb37 bfbd 241c 123d
00000020: 01bb c83d 1af8 c3bd 3ac6 913d 3934 db3d
00000030: aae7 bf3d 9adf 9cbd 28f4 6bbb d1f8 ae3d
00000040: 96f3 15be 7f5a a9bb e2c9 1e3d 963f 6f3c
00000050: 3046 9b3d b3c6 173d 8a2a 70bd 892e 7bbd
00000060: 1f3f 84bd 0f36 cabd 7a13 c23d c4dd 67bd
00000070: f30e 05bd f5f8 563d 4749 613d d468 813d
00000080: fced 963c 65cb a8bd 17d3 d3bd 61b3 893d
00000090: 6017 783d 4c0f ebbd 6cb0 81bd 7d76 7ebc
000000a0: a28e ef3c 11e6 0a3d 9e2a 16bd 694e cf3d
000000b0: 9496 1d3d 74b9 74bd 1014 d73c 5ab1 603d
000000c0: 31d6 a13d 5168 4b3d c135 533d f935 f73b
000000d0: 959a 49bb 17e7 01bc bf27 ac3d 12bd 1dbd
000000e0: 7d5c 9e3d cc0e 9abc d0ba 09bd 75a3 953d
000000f0: 5f4e dfba 2f60 e2bd d6bd b0bb bc89 44bd

conv2.lin_r.weight f4 [64, 64]
-0.110798284 0.01790291 -0.07389687 0.065048695 0.07705657 -0.07477097 -0.059946507 -0.110329404
0.07496905 0.038910866 0.08860493 0.03662117 -0.014035076 0.12049958 0.08256337 -0.0064549297
-0.10251458 0.08780065 -0.034401864 -0.045973584 -0.09116697 -0.09229581 0.08156054 -0.073705226
-0.012059629 -0.059881747 -0.055565342 -0.09103583 0.12139855 -0.059354186 0.10270873 -0.09329699
-0.11179918 0.04841143 0.0839124 -0.100513995 -0.10475825 -0.028923169 -0.12189491 -0.028183535
0.023697406 0.11645384 0.11490795 -0.036026 0.02492562 -0.121926025 0.04841599 -0.018378481
-0.117934406 -0.10180768 -0.10427953 -0.0215877 0.02352947 0.037657857 -0.06020607 0.027572379
-0.047247544 0.00094115734 -0.047835708 -0.038961396 -0.027816623 0.108811125 0.0070870966 -0.09659037
0.06106317 0.02452588 -0.11666851 -0.07551046 0.02865088 -0.0860066 -0.010241315 -0.06544918
-0.035268992 -0.027552858 -0.04396002 0.096382335 -0.09196687 0.07692289 -0.031517744 0.096060514
-0.004238397 -0.08396451 -0.05187404 0.10738489 -0.030678853 -0.07336348 -0.05196461 -0.021559417
0.07566813 0.06737001 -0.061174035 -0.010771021 -0.035507858 0.049621478 0.009450242 0.043661788
0.09933105 -0.007727444 -0.024279326 -0.10515393 -0.040048584 0.07871185 -0.07137491 0.10640231
-0.11125068 0.017532185 0.017427444 0.12218715 -0.0364345 -0.115092754 0.015927598 0.05912733
-0.121028855 0.04254596 0.1104995 0.08400901 -0.051719517 -0.038753808 0.07851422 -0.0075580776
0.03129208 0.06918432 0.07725741 -0.019813687 -0.022908285 0.08672723 0.008795053 0.048379526
0.12006685 -0.08222844 -0.060781434 -0.011818424 -0.032639563 -0.02225633 -0.10105522 0.022622004
-0.055046678 -0.08930884 -0.10222113 0.005659938 -0.11478451 0.1081679 0.05859202 -0.05457656
-0.055358574 0.07925695 0.08566885 -0.038562477 -0.050178632 0.08817856 0.05352567 0.0576379
0.057195514 0.051942825 -0.008221298 0.096481994 0.0015482455 -0.03325884 -0.094796166 -0.0055732876
-0.08631463 -0.023293957 0.018838674 -0.056629077 -0.0029203594 0.042792663 0.037778527 0.02725476
0.08803578 0.026579082 0.055238545 -0.11841735 0.079401106 0.028411537 0.12422192 0.057853356
0.0070189387 0.015352234 -0.10037935 0.09503451 -0.009231284 -0.10068536 0.03579122 -0.015947
-0.014835522 -0.093150556 -0.013699323 0.052353576 -0.0616962 0.041723058 -0.013960898 0.027580217
0.014450535 0.030676603 0.021841839 -0.015844896 -0.10266739 -0.0078004897 -0.024028689 0.10256599
-0.05409965 -0.100442976 0.0015923977 -0.089919254 -0.073546365 0.04944481 0.09715755 -0.09350793
-0.09925692 0.10056862 0.02662906 -0.10597795 0.12125489 -0.06587304 0.011174411 0.089276865
0.12289749 0.001772821 -0.10613683 -0.09251641 0.107329994 0.014370441 0.061041743 -0.102740124
-0.040880203 -0.033496574 -0.082298175 -0.116436884 0.04754807 -0.009494528 -0.07455306 -0.06318426
0.00029987097 0.09353773 0.012975246 0.10725716 0.029826418 -0.029060349 0.02758418 4.6402216e-05
0.11616567 0.03703177 -0.0838584 0.09173457 -0.036609694 -0.03087011 0.031889305 -0.0077115744
0.040997252 -0.08652645 -0.10079624 -0.11376037 -0.025070786 -0.013402924 0.06795779 0.015666202
00000000: 36ea e2bd 20a9 923c 3e57 97bd 4038 853d
00000010: d6cf 9d3d 8621 99bd 788a 75bd 62f4 e1bd
00000020: 6089 993d 0061 1f3d 8076 b53d 1400 163d
00000030: 60f3 65bc 7cc8 f63d fc16 a93d e083 d3bb
00000040: 2af3 d1bd d4d0 b33d f8e8 0cbd cc4e 3cbd
00000050: c0b5 babd 9605 bdbd 3609 a73d c4f2 96bd
00000060: c095 45bc 9046 75bd 7c98 63bd fe70 babd
00000070: ce9f f83d 601d 73bd f458 d23d 7e12 bfbd
00000080: f8f6 e4bd 104b 463d 44da ab3d 48da cdbd
00000090: 7e8b d6bd 48f0 ecbc 0aa4 f9bd 28e1 e6bc
000000a0: 1021 c23c 5a7f ee3d dc54 eb3d 0090 13bd
000000b0: d030 cc3c 5ab4 f9bd d84f 463d 788e 96bc
000000c0: 9887 f1bd 8c80 d0bd 8290 d5bd b0d8 b0bc
000000d0: e0c0 c03c 203f 1a3d a49a 76bd 78df e13c
000000e0: a486 41bd 00b8 763a 60ef 43bd fc95 1fbd
000000f0: b0df e3bc 5ed8 de3d e03a e83b 2cd1 c5bd
00000100: 601d 7a3d 80ea c83c e6ef eebd 3aa5 9abd
00000110: 40b5 ea3c 3a24 b0bd 30cb 27bc 380a 86bd
00000120: 3876 10bd 88b6 e1bc 6c0f 34bd 1a64 c53d
00000130: 2059 bcbd c089 9d3d c018 01bd 60bb c43d
00000140: 40e2 8abb 96f5 abbd e079 54bd 9cec db3d
00000150: 3852 fbbc 983f 96bd d8d8 54bd 609d b0bc
00000160: e4f7 9a3d 4af9 893d a091 7abd f078 30bc
00000170: b070 11bd e43f 4b3d 30d5 1a3c b4d6 323d
00000180: 146e cb3d 8036 fdbb 70e5 c6bc f25a d7bd
00000190: fc09 24bd ae33 a13d 022d 92bd 74e9 d93d
000001a0: 66d7 e3bd a89f 8f3c 00c4 8e3c 423d fa3d
000001b0: 583c 15bd c0b5 ebbd 987a 823c 802f 723d
000001c0: fadd f7bd ac44 2e3d 904d e23d ea0c ac3d
000001d0: d8d7 53bd 50bc 1ebd 10cc a03d c0a9 f7bb
000001e0: 202c 003d 82b0 8d3d 2239 9e3d 5050 a2bc
000001f0: 28aa bbbc 0c9e b13d 2019 103c 9c29 463d
00000200: 9ce5 f53d 6267 a8bd f4f5 78bd 10a2 41bc
00000210: 10b1 05bd e852 b6bc 0af6 cebd c851 b93c
00000220: a078 61bd 8ee7 b6bd 5059 d1bd 0077 b93b
00000230: 2414 ebbd 2287 dd3d 30fe 6f3d ac8b 5fbd
00000240: acbf 62bd 7851 a23d 2673 af3d b0f3 1dbd
00000250: 1c88 4dbd f696 b43d bc3d 5b3d b815 6c3d
00000260: d845 6a3d 00c2 543d a0b2 06bc 5a98 c53d
00000270: 80ee ca3a 6c3a 08bd 7e24 c2bd 20a0 b6bb
00000280: bac5 b0bd f8d2 bebc 9053 9a3c e4f3 67bd
00000290: 8063 3fbb 5c47 2f3d a8bd 1a3d 6045 df3c
000002a0: 1a4c b43d 60bc d93c d041 623d cc84 f2bd
000002b0: 0c9d a23d 50bf e83c 1068 fe3d a4f7 6c3d
000002c0: 20ff e53b f087 7b3c b093 cdbd 74a1 c23d
000002d0: d03e 17bc 2034 cebd d099 123d 48a3 82bc
000002e0: b010 73bc b8c5 bebd 2073 60bc b470 563d
000002f0: 28b5 7cbd cce5 2a3d 40bc 64bc e8ef e13c
00000300: f0c1 6c3c 804d fb3c a8ed b23c 28cd 81bc
00000310: 4843 d2bd 409b ffbb d0d7 c4bc 1e0e d23d
00000320: 9897 5dbd 0cb5 cdbd 00b8 d03a 9627 b8bd
00000330: 7a9f 96bd a486 4a3d 8afa c63d 1681 bfbd
00000340: 3647 cbbd ecf6 cd3d 3025 da3c f80a d9bd
00000350: 7c54 f83d 72e8 86bd e014 373c cad6 b63d
00000360: aeb1 fb3d 005e e83a 445e d9bd 3e79 bdbd
00000370: d4cf db3d 0072 6b3c e806 7a3d 6a69 d2bd
00000380: 0072 27bd b433 09bd f28b a8bd 7676 eebd
00000390: c4c1 423d f08e 1bbc 46af 98bd c066 81bd
000003a0: 0038 9d39 b690 bf3d 2096 543c a4a9 db3d
000003b0: 8856 f43c f80f eebc 38f8 e13c 00a0 4238
000003c0: 44e8 ed3d a0ae 173d f4bd abbd 56df bb3d
000003d0: 0cf4 15bd 50e3 fcbc 5c9e 023d 60b1 fcbb
000003e0: bcec 273d c834 b1bd 426e cebd 32fb e8bd
000003f0: 4061 cdbc f097 5bbc 742d 8b3d 6856 803c

conv2.lin_r.bias f4 [64]
-0.072233155 -0.034003586 0.109591156 -0.07223673 0.0001860708 0.0064023584 0.06066078 0.05152592
0.07229829 0.067583084 0.10632025 0.112255394 -0.082267866 0.11920592 -0.11394875 0.031058237
0.05092953 -0.06885247 0.028444558 -0.112991914 0.019838512 -0.10381603 0.11028968 -0.10303038
0.0037739128 -0.107636884 0.11413604 0.043257177 0.07731287 0.06076461 0.091850504 0.08379592
-0.055829942 0.042661443 -0.06806104 -0.07944475 -0.07953146 0.04463388 -0.09797029 -0.02977018
-0.07670206 0.048537314 0.001766488 -0.0082695335 0.059792355 -0.052039236 0.08002481 0.045943886
-0.012227222 -0.08653444 -0.04734765 -0.12145905 0.005184591 0.053405285 -0.081392825 -0.011912957
-0.015032634 -0.0077380836 -0.058875144 0.08986315 0.07166566 0.097160965 0.0050480217 -0.08165094
00000000: faee 93bd 5847 0bbd 5471 e03d daf0 93bd
00000010: 001c 4339 e0ca d13b 7077 783d d80c 533d
00000020: 2011 943d 0069 8a3d 6ebe d93d 28e6 e53d
00000030: 0e7c a8bd 3c22 f43d f65d e9bd d86d fe3c
00000040: 7c9b 503d 8602 8dbd 9004 e93c 4e68 e7bd
00000050: 6084 a23c 809d d4bd 8edf e13d 9801 d3bd
00000060: c053 773b ba70 dcbd 28c0 e93d 702e 313d
00000070: 3656 9e3d 50e4 783d 1e1c bc3d 329d ab3d
00000080: f0ad 64bd c4bd 2e3d 9663 8bbd eeb3 a2bd
00000090: 64e1 a2bd 04d2 363d a6a4 c8bd 98e0 f3bc
000000a0: f815 9dbd 10cf 463d 8089 e73a f07c 07bc
000000b0: d4e8 743d 1827 55bd 0ce4 a33d a82f 3c3d
000000c0: b054 48bc f838 b1bd 9cef 41bd 86bf f8bd
000000d0: 80e3 a93b 80bf 5a3d 48b1 a6bd 902e 43bc
000000e0: 704b 76bc c08f fdbb 1027 71bd 2c0a b83d
000000f0: 72c5 923d 54fc c63d e069 a53b 9c38 a7bd

conv2.lin_edge.weight f4 [64, 2]
-0.0024428368 -0.53548443 -0.33357745 -0.14355707 0.27785295 0.14746743 0.05467713 0.1641097
-0.6743198 -0.037240267 -0.7032322 -0.26998454 0.64559907 0.075276196 -0.6511381 -0.47718552
-0.4387223 0.41259056 -0.19420886 -0.5879675 0.30504924 -0.003386557 -0.5124637 0.48043126
-0.18143255 -0.27591163 0.25108284 -0.09276092 0.13721436 -0.6779516 -0.6279934 -0.03181994
-0.13789397 -0.26158914 -0.6135401 0.51071614 0.19534796 0.052867234 -0.50293994 -0.2991397
0.43811268 0.2503618 -0.16500515 -0.23633903 0.12395507 -0.3318566 0.3427388 0.2556867
0.25558186 -0.24116588 -0.45000914 0.115507424 0.6969393 0.08274162 -0.11569065 0.31310982
-0.58300024 -0.47982788 0.6007349 -0.62309325 -0.65047896 0.13270372 -0.13489217 -0.6520324
-0.6388079 -0.45614564 -0.19306958 0.03698796 0.59336334 0.33731228 0.22478616 0.5500813
0.6688791 -0.56309617 -0.5858534 -0.2509082 0.6776883 -0.57735485 -0.6078478 0.2950601
0.47821802 -0.20264745 -0.6392269 -0.514928 0.561204 0.26991802 0.5892435 0.15782017
0.3682062 0.06524402 -0.12900156 0.13270348 -0.14141446 -0.6033999 -0.12675309 0.48838812
-0.37093213 0.310211 -0.53392184 0.2424227 0.021139503 -0.53755844 0.66342646 -0.27783564
-0.31312555 0.34196395 -0.40790597 0.17314076 0.113425195 -0.29478154 -0.38455862 -0.04182905
0.29929823 0.32618898 -0.124361634 0.07102269 0.5088163 -0.36109102 -0.13807368 -0.04409367
0.0136371255 0.34404796 -0.3182382 -0.5460305 -0.68180686 -0.29649144 0.21175367 -0.5077908
00000000: 0018 20bb 8215 09bf aaca aabe a000 13be
00000010: be42 8e3e b401 173e 20f5 5f3d 600c 283e
00000020: 39a0 2cbf 4089 18bd 0707 34bf 6a3b 8abe
00000030: fb45 253f 682a 9a3d fdb0 26bf a951 f4be
00000040: 36a0 e0be 123f d33e b0de 46be 0a85 16bf
00000050: 6a2f 9c3e 00f1 5dbb d230 03bf 16fb f53e
00000060: 74c9 39be 4a44 8dbe ee8d 803e 70f9 bdbd
00000070: ec81 0c3e 3c8e 2dbf 2dc4 20bf a055 02bd
00000080: 1434 0dbe 03ef 85be f710 1dbf 4bbe 023f
00000090: 4c09 483e 508b 583d acc0 00bf d728 99be
000000a0: 4e50 e03e 6c2f 803e 1cf7 28be dc02 72be
000000b0: 28dc fd3d 1ce9 a9be 767b af3e 5ee9 823e
000000c0: a0db 823e 30f4 76be 9967 e6be 288f ec3d
000000d0: 9d6a 323f 7074 a93d 38ef ecbd ee4f a03e
000000e0: 813f 15bf 00ac f5be c3c9 193f 0a83 1fbf
000000f0: ca85 26bf 7ce3 073e 2c21 0abe 98eb 26bf
00000100: ea88 23bf ec8b e9be 08b4 45be b080 173d
00000110: a9e6 173f 32b4 ac3e 582e 663e 21d2 0c3f
00000120: a93b 2b3f 1227 10bf 7dfa 15bf 0a77 80be
00000130: fb7c 2d3f 87cd 13bf ea9b 1bbf 1e12 973e
00000140: fed8 f43e d082 4fbe 60a4 23bf 52d2 03bf
00000150: 11ab 0f3f b232 8a3e a9d8 163f 9c9b 213e
00000160: 8685 bc3e a89e 853d fc18 04be 6ce3 073e
00000170: f4ce 10be 6a78 1abf 90cb 01be 020e fa3e
00000180: d1ea bdbe fad3 9e3e 1aaf 08bf a83d 783e
00000190: c02c ad3c 6e9d 09bf 51d6 293f 7940 8ebe
000001a0: fe51 a0be e615 af3e 0dd9 d0be d04b 313e
000001b0: 784b e83d 9bed 96be dee4 c4be f054 2bbd
000001c0: 9e3d 993e 3e02 a73e 50b1 febd 5874 913d
000001d0: c941 023f ece0 b8be 3063 0dbe 909b 34bd
000001e0: 406e 5f3c 0e27 b03e 1ef0 a2be a8c8 0bbf
000001f0: e58a 2ebf bacd 97be f4d5 583e 94fe 01bf

fc.weight f4 [2, 64]
-0.014162088 0.044659413 0.0060690087 0.030121248 0.029963054 0.039388917 0.01054463 0.17604284
-0.08625842 -0.08626108 -0.07117784 0.06925961 0.05247549 -0.067664064 0.11111249 -0.016885128
0.030203678 -0.06314939 -0.0009212691 -0.004788265 -0.06583412 -0.09012549 0.06572121 -0.017126467
0.00574526 -0.059738442 0.04741317 0.01528627 -0.014661778 -0.045777116 -0.009727433 -0.050341744
0.0038916706 0.03634618 0.020256521 0.014511491 0.010119651 0.011288762 -0.028759327 -0.021014074
-0.001269839 -0.07733278 0.018256618 -0.022698121 -0.010915344 0.007779841 -0.05429053 -0.081119604
0.04135827 -0.05658415 0.051559135 -0.0040304926 0.006172721 -0.014379512 0.0098823095 -0.04494112
0.00991527 -0.08527287 -0.0076192166 -0.00022894573 0.07355753 -0.084314354 -0.08066098 -0.036565635
-0.0034272473 0.050742235 0.0023047803 0.027149834 0.029831108 0.035380084 0.007323308 -0.1221404
-0.078852504 -0.076114714 -0.06811721 0.06851563 0.014430694 -0.066437185 0.10828398 -0.025247484
0.043011706 -0.05889661 0.0046349126 -0.0012258852 -0.05868403 -0.096079625 0.07368028 -0.011572413
0.008625112 -0.06492832 0.035264645 0.016019108 -0.005426147 -0.03878049 -0.020373695 -0.055789188
0.0025315539 0.040148452 0.014579114 0.0072729387 0.0010689207 0.022883922 -0.03564265 -0.015884569
-0.004115884 -0.089325614 0.018150475 -0.023321973 -0.014224404 0.010052134 -0.057024084 -0.07101696
0.04026815 -0.058048565 0.052756745 0.0015693754 0.011373155 -0.010897246 0.017953118 -0.033407066
-0.0003183047 -0.09083248 -0.008066109 -0.0023333337 0.07210935 -0.08618404 -0.06840255 -0.042018957
00000000: 1a08 68bc caec 363d 89de c63b d6c0 f63c
00000010: 1475 f53c 4656 213d 62c3 2c3c 9344 343e
00000020: 41a8 b0bd a6a9 b0bd b0c5 91bd fbd7 8d3d
00000030: 8af0 563d 7593 8abd f28e e33d ae52 8abc
00000040: b46d f73c 7854 81bd 5381 71ba e1e6 9cbb
00000050: 0ad4 86bd b793 b8bd d798 863d ce4c 8cbc
00000060: bc42 bc3b 4cb0 74bd 5034 423d 4373 7a3c
00000070: f437 70bc c980 3bbd d05f 1fbc 2533 4ebd
00000080: 660b 7f3b bbdf 143d 01f1 a53c 9bc1 6d3c
00000090: e5cc 253c 80f4 383c ae98 ebbc b525 acbc
000000a0: ba70 a6ba a660 9ebd e78e 953c 69f1 b9bc
000000b0: 45d6 32bc 09ee fe3b bf5f 5ebd 0922 a6bd
000000c0: 4a67 293d c8c4 67bd ac2f 533d 3912 84bb
000000d0: 8944 ca3b 0b98 6bbc 69e9 213c 2e14 38bd
000000e0: a873 223c 8ba3 aebd 9faa f9bb 2711 70b9
000000f0: 55a5 963d 01ad acbd 9531 a5bd d9c5 15bd
00000100: ab9b 60bb 17d7 4f3d cc0b 173b 5469 de3c
00000110: 5e60 f43c b5ea 103d 5cf8 ef3b bf24 fabd
00000120: 6c7d a1bd 08e2 9bbd 0981 8bbd ec51 8c3d
00000130: b86e 6c3c 3810 88bd fec3 dd3d d0d3 cebc
00000140: 0b2d 303d 923d 71bd 77e0 973b e2ad a0ba
00000150: aa5e 70bd 65c5 c4bd b0e5 963d 389a 3dbc
00000160: 5750 0d3c 24f9 84bd a971 103d 813a 833c
00000170: d2cd b1bb 4bd8 1ebd bce6 a6bc 3483 64bd
00000180: 6de8 253b b472 243d 3cdd 6e3c d551 ee3b
00000190: 071b 8c3a 1077 bb3c 07fe 11bd 5b20 82bc
000001a0: 8ade 86bb 59f0 b6bd 4eb0 943c b90d bfbc
000001b0: 790d 69bc b5b1 243c 1692 69bd 5771 91bd
000001c0: 37f0 243d 55c4 6dbd 7517 583d 80b3 cd3a
000001d0: 7856 3a3c 5d8a 32bc 6b12 933c d9d5 08bd
000001e0: 22e2 a6b9 6106 babd b727 04bc d8ea 18bb
000001f0: 11ae 933d 4281 b0bd a316 8cbd 121c 2cbd

fc.bias f4 [2]
0.39825055 -0.41551897
00000000: 7fe7 cb3e e7be d4be
