saved_models/edgat2.pt (torch, 42898 bytes, 16 tensors)

conv1.att f4 [1, 1, 64]
000000 5d 1d 06 be 98 99 0d 3d 30 8f df 3c b7 9c 22 be
       -0.13097139 0.034570307 0.027289957 -0.15880094
000010 08 c0 79 be 08 f0 72 be 10 80 a7 3c 45 68 14 be
       -0.2438966 -0.23724377 0.020446807 -0.144929
000020 4e 36 3a 3e f4 a7 23 be 04 45 d6 3d 00 78 55 bd
       0.18184778 -0.15982038 0.104623824 -0.052116394
000030 22 67 8b 3e 62 07 89 be 4b 41 93 be f8 36 d9 bd
       0.27227122 -0.26763445 -0.28760752 -0.106061876
000040 50 c7 be 3d 94 c8 97 be c2 7b 82 be 87 cf 2f be
       0.093153596 -0.29645216 -0.25485045 -0.17169009
000050 ec 5c 4d 3e 62 94 20 3e cc 98 02 3e 03 a8 80 be
       0.20054978 0.15681604 0.127536 -0.25128183
000060 f0 0b 63 3e 1e 82 eb bd ac 3f df bd 0b 8c 99 be
       0.22172523 -0.11499427 -0.10900816 -0.29989657
000070 40 62 bc bc 6a 4b 81 be c4 b3 00 be b8 f5 97 be
       -0.022996068 -0.2525285 -0.12568575 -0.29679656
000080 37 83 83 be 34 78 c9 bd cc 79 85 be c4 e2 c7 3d
       -0.25686046 -0.0983738 -0.26069486 0.09760049
000090 f3 0b 1d be 88 71 20 bd c6 18 0e be 50 f1 b8 3c
       -0.1533659 -0.03917077 -0.13876638 0.022576004
0000a0 80 f5 e2 3d 0c 9a 04 be 10 0e ad 3c 7a 15 8b 3e
       0.11081982 -0.12949389 0.02112487 0.27164823
0000b0 06 41 fa bd d7 99 93 be c6 68 25 3e 58 3f 0c be
       -0.122194335 -0.28828308 0.16153249 -0.13696039
0000c0 ce 0a 6b be 40 02 cc 3d 30 32 75 3d 56 d7 0f 3e
       -0.2295334 0.09961367 0.059862316 0.14046988
0000d0 b1 0e 25 be 78 4d 6b 3e be b2 67 be a0 9c 3d 3e
       -0.16118886 0.2297877 -0.22626778 0.18516779
0000e0 6f 5a 50 be 48 e4 ba bd c4 a9 8b be b8 34 83 bd
       -0.20346998 -0.091255724 -0.27277958 -0.0640654
0000f0 6c 49 8a be 28 e7 32 3d 46 f1 21 be 00 04 41 ba
       -0.2700914 0.04367748 -0.15814695 -0.0007362962

conv1.bias f4 [64]
000000 0b 58 76 bc 80 62 be bc 48 fe e6 bc 25 49 01 bd
       -0.0150356395 -0.023240328 -0.028197423 -0.031563897
000010 86 de 1a bd af 04 7a bc 0e 12 e9 bc 2f fd 5e bd
       -0.03780987 -0.015259906 -0.028450992 -0.054440673
000020 71 24 03 bd 5b 8a 5e bd 87 b3 8b bc a2 12 26 bd
       -0.032017175 -0.054331165 -0.017053379 -0.040545113
000030 a2 98 c4 bc a5 1e 36 bd 7b 0f 3b bc 32 3c fc ba
       -0.023998562 -0.04446282 -0.011417265 -0.0019244014
000040 75 eb ff 3c f5 bd 9d bc 5a f4 05 bc a6 09 8a bb
       0.031240204 -0.019255618 -0.008175934 -0.004212576
000050 00 00 00 00 64 c1 c8 bd d4 c6 0e be e4 e9 96 bc
       0.0 -0.09802511 -0.13943034 -0.018422075
000060 2d 2f 5b bd 36 6d 4c bd 34 a4 35 3c 11 67 72 bc
       -0.053511787 -0.04990884 0.011086512 -0.014795081
000070 bb 62 35 bc 87 2e 96 bd 00 00 00 00 00 00 00 00
       -0.011070902 -0.07333093 0.0 0.0
000080 00 00 00 00 9a ec 40 bd b7 ba d2 bd 58 51 ca bc
       0.0 -0.04710064 -0.10289519 -0.02469699
000090 a3 65 f1 bc 24 a4 54 bd ec 1f ad 3b c1 e9 5b bd
       -0.02946741 -0.05191435 0.0052833464 -0.053689722
0000a0 45 3e 2a bd ba f2 1a bd a5 24 ba bd 72 8f 1a be
       -0.04156329 -0.03782914 -0.09089021 -0.15093783
0000b0 00 00 00 00 ec 9c e3 bc 83 bf 92 bc a1 fc cf bb
       0.0 -0.027784787 -0.017913586 -0.0063472544
0000c0 52 82 22 be 00 00 00 00 00 00 00 00 99 89 bb bc
       -0.15870026 0.0 0.0 -0.02289276
0000d0 8c 7a dd bc e9 86 73 bc e0 23 3e bd d5 3a 4a bd
       -0.027035974 -0.014863708 -0.04642093 -0.049372513
0000e0 c6 fb c2 bd 31 ac 6e bd c0 5d a2 bc f4 9b 07 be
       -0.09520678 -0.058269683 -0.019820094 -0.13243085
0000f0 bc e7 c4 bc c7 4c 38 bc 2c 5d db bd 6f e1 cb bc
       -0.02403628 -0.011248774 -0.107111305 -0.024887769

conv1.lin_l.weight f4 [64, 4]
000000 b4 31 fe be 78 36 6b 3e 39 ba ae 3e 52 b7 ff be
       -0.49647295 0.22969997 0.34126452 -0.4994455
000010 3b 9a 9f be 88 43 ac be 03 fa 0a bd fe dd 26 3e
       -0.31172356 -0.33645272 -0.033929836 0.16295621
000020 89 e1 79 3e 79 c4 ff bd fd 18 3c 3d 19 16 f1 be
       0.24402441 -0.12488646 0.04592227 -0.47087172
000030 f2 fe a1 be 67 f8 0e be 31 75 95 3e dc 43 a9 be
       -0.3163982 -0.13961945 0.29190972 -0.33059585
000040 a7 f8 72 3e 03 05 a4 3e 65 23 ed 3d fe 7e 77 be
       0.23727666 0.32035074 0.115790166 -0.24169537
000050 28 58 ae bd 4d 61 df bd 7a 78 e5 be 6d 70 e1 3d
       -0.08512908 -0.109072305 -0.4481848 0.11007772
000060 23 32 bc 3e 32 f2 e0 be 3f 57 0e be cc f3 c0 3d
       0.36757 -0.4393478 -0.13900469 0.094215006
000070 64 83 89 be 39 1e 80 3e 73 e0 16 3e ef 9b 01 bf
       -0.26858056 0.25023058 0.14734058 -0.5062856
000080 e1 32 28 3e f9 57 07 3e 92 e2 1e be 7b c2 bf be
       0.16425659 0.13217153 -0.15516117 -0.37453064
000090 6c 61 4c 3d 2b 8b 8f 3e 52 4e 7f be a6 cd 8b bc
       0.049897596 0.28035864 -0.2493222 -0.017065834
0000a0 c1 5e 31 3e 1d 52 a8 3d 34 95 94 be 6c f5 be bc
       0.17321302 0.08218787 -0.29020083 -0.023310386
0000b0 fc 74 ee bd c1 80 33 be 93 0d d7 3e 9c 07 da be
       -0.11643407 -0.17529584 0.42002544 -0.4258393
0000c0 e7 80 03 bf 9e 44 02 3e 30 c2 c9 be 15 85 c5 3c
       -0.51368564 0.12721488 -0.39405966 0.02411131
0000d0 e2 c2 eb 3e 64 12 54 bd f8 91 2e be 45 cd a4 3e
       0.4604712 -0.05177535 -0.1704787 0.32187858
0000e0 90 cb c4 bc fb 7c cf 3d a3 8e 72 be f0 27 99 be
       -0.024022847 0.1013126 -0.23687224 -0.29913282
0000f0 75 bf b5 3e be 74 f6 bd 69 74 e4 be 9d 99 af be
       0.35497633 -0.120339856 -0.44620064 -0.34296885
000100 08 e9 f3 be 35 2b 0b bf 3e c0 4d 3e de 01 a5 be
       -0.47638726 -0.54362804 0.20092866 -0.32227987
000110 c6 ed 39 3e 90 98 82 bd 7d 9e 24 be 77 49 28 3e
       0.1815711 -0.06376755 -0.16076083 0.16434275
000120 72 b2 47 be e9 3f fd 3e c8 18 03 3d 16 33 00 bf
       -0.19501665 0.49462822 0.032006055 -0.5007795
000130 0a e5 3e 3e ac 1b e3 bc ef 1b f0 be 5a dd 2b 3e
       0.18642059 -0.027723156 -0.46896312 0.16783658
000140 6c 9e 25 be 34 99 24 be c8 67 11 be 22 3f b7 be
       -0.16173714 -0.16074067 -0.14199746 -0.35790354
000150 e5 4c f4 3d cf 1f ce 3c a0 ce 33 3e c6 cc 72 3e
       0.11928729 0.025161652 0.1755929 0.23710927
000160 a6 58 d7 bc 50 62 80 be 92 c3 88 3e 16 b7 2f 3e
       -0.026287388 -0.25075006 0.26711708 0.17159685
000170 93 a3 8c be 04 fe fc 3d 67 cb ba 3b 74 05 1d be
       -0.27468547 0.12353137 0.005700517 -0.15334111
000180 77 33 65 be a5 34 b2 3e fd 7c 38 3c 2e 07 b0 3e
       -0.22382914 0.3480579 0.011260268 0.34380478
000190 92 e1 ad 3e 47 6b 84 3c d3 0d 3d be 07 d9 56 bd
       0.3396116 0.016164435 -0.18462305 -0.052453067
0001a0 8c e6 9c be 87 7f 83 3e b1 7d 93 be 8e 89 58 3d
       -0.30644643 0.25683233 -0.28806832 0.052865557
0001b0 5d bc 87 3d 82 ac fa be c1 4c 08 bf ec 73 51 3e
       0.06627724 -0.48959738 -0.5324212 0.20454377
0001c0 30 32 be bd e1 3f 09 3e ce 9d b4 be 82 b0 bd 3d
       -0.09286916 0.13403274 -0.35276645 0.09262182
0001d0 6d 48 ef be a1 25 e0 be 12 76 95 3d 33 44 86 3e
       -0.46734944 -0.4377871 0.07297911 0.26223907
0001e0 4c cf dc be 20 91 4f 3e ec eb 13 be 68 47 9c be
       -0.43126905 0.20270205 -0.14445466 -0.3052323
0001f0 54 98 3b 3e ec 26 24 be e0 6a 36 bd 84 6d 68 be
       0.18319827 -0.16030473 -0.044535518 -0.22698027
000200 3a c3 fc be 00 12 3a bd 2a 86 9f be 4c f6 ae be
       -0.49367696 -0.045427322 -0.31157047 -0.34172285
000210 34 60 14 be db 7c e6 3e 3c c7 5d be 02 24 b8 3d
       -0.14489824 0.45017132 -0.21658033 0.08991243
000220 55 04 b1 be 3f 4f a9 3e 7c e6 ae 3d 81 e1 28 3e
       -0.34573618 0.33068272 0.08540055 0.16492273
000230 ef 1f f0 3e 8b 68 95 3e 86 33 56 be 91 57 81 be
       0.46899363 0.29181322 -0.20918092 -0.2526212
000240 fd a2 52 3e 20 06 81 be 55 e4 f8 bd dc b6 96 3d
       0.20569988 -0.25199986 -0.12152926 0.073590964
000250 0e 5d cb 3e 47 c5 44 be b1 ea 73 3e 7a c5 29 3e
       0.39719433 -0.1921588 0.23819996 0.16579238
000260 c6 a4 bf bd db 60 c2 3d 26 d6 6b be b4 81 00 3e
       -0.093576 0.0949113 -0.2303091 0.12549478
000270 f2 ab a9 be 88 46 02 3c 83 db 8a 3e d9 c2 a8 bd
       -0.33138996 0.007951386 0.271206 -0.08240289
000280 f1 db ab bd 24 07 a2 be 1f 7e bc 3e 2a 33 f3 be
       -0.0839156 -0.31646073 0.36814973 -0.47499973
000290 83 18 a1 3e 5f 3b 80 bd 3d 60 e6 3e d9 48 bd be
       0.31464013 -0.06261324 0.449953 -0.3696964
0002a0 05 bc e3 be f3 42 98 3e 8b 49 20 3e e0 9d 04 3e
       -0.44479385 0.29738578 0.15653054 0.1295085
0002b0 57 13 8e 3e b6 b4 91 3e cf 12 ad bd fc f7 11 bd
       0.2774913 0.28458184 -0.08450853 -0.035636887
0002c0 80 61 cb 3c b6 45 9f be 6c bd 44 be d0 23 1f be
       0.024826765 -0.31107873 -0.19212884 -0.15541005
0002d0 02 b6 64 bd b6 a8 80 3c eb dc 8d bc f1 61 37 3e
       -0.05583764 0.015705448 -0.017317256 0.17908455
0002e0 8a 3f bb be 83 7d f2 3e 20 f5 aa be 42 d3 e0 be
       -0.36571914 0.47361383 -0.3339014 -0.43911177
0002f0 1e 3c c0 be 28 c4 84 bd 45 b0 ab be b3 f7 2a 3e
       -0.37545866 -0.06482726 -0.3353292 0.16696052
000300 8f 69 18 bf b9 9b bc be a3 4f aa 3e a7 72 46 3e
       -0.5953607 -0.36837557 0.33263883 0.19379674
000310 08 32 b1 be 98 f3 3d 3e 44 8f 61 be aa fe f3 be
       -0.34608483 0.18549955 -0.22027308 -0.4765523
000320 f2 b8 f9 be 40 88 35 bd d0 88 74 be 60 d7 17 be
       -0.48773915 -0.04431939 -0.23880315 -0.14828253
000330 6d f5 2a be cf 67 dd 3e b8 c7 d1 be 09 41 7e 3e
       -0.16695185 0.43243262 -0.40972686 0.24829496
000340 bd a8 c3 3e b2 d4 b9 be 57 06 93 be 54 52 2b 3e
       0.38214675 -0.36295086 -0.28715774 0.16730624
000350 9f 31 dc 3d cd 39 0f 3e 5d 1c d7 be 3b 36 b7 3d
       0.10751652 0.13986893 -0.42013827 0.089458905
000360 19 e3 70 3e 76 3a d8 3d 17 af 9a 3d 4d a2 74 3e
       0.23524131 0.105580255 0.07552927 0.23890038
000370 7f ab 96 be 96 b7 97 3e 2e db d7 be 5a f2 0b 3e
       -0.29427716 0.29632252 -0.42159408 0.13666669
000380 33 34 b7 3e 88 cd b1 be 82 52 26 bc 43 8c 2c 3e
       0.35782012 -0.3472712 -0.010151507 0.1685038
000390 d9 05 c5 3e a5 c2 19 3d 5b 61 75 be ae f8 ac be
       0.38481024 0.037539143 -0.2396292 -0.33783478
0003a0 41 e8 06 be d7 61 48 3e 8f 11 72 3d 1a 2e ff be
       -0.13174535 0.19568573 0.059098776 -0.4983986
0003b0 d9 9e 5a 3e 32 79 8d be e1 67 b0 be 26 3c 9c 3e
       0.21349658 -0.27631527 -0.34454253 0.3051464
0003c0 4c b5 8b bd 27 59 5c be 38 f2 85 3e 1c 48 10 3e
       -0.06821689 -0.21518384 0.2616136 0.14090008
0003d0 bc 31 ec be ab 67 9c be 3e 5a 26 bd 54 90 b6 3d
       -0.46131694 -0.30547842 -0.040613405 0.08914247
0003e0 47 0d 0c be 93 d2 d2 3e c9 b8 eb be 97 01 9d be
       -0.1367694 0.4117628 -0.46039417 -0.30665275
0003f0 f0 90 3d 3e 87 69 8a bd 4c 15 ee be 08 80 4a 3e
       0.1851232 -0.06758409 -0.46500623 0.19775403

conv1.lin_l.bias f4 [64]
000000 2f ab b5 be d3 b8 68 3c b9 38 b9 3e 83 45 80 3e
       -0.35482165 0.014204222 0.36176088 0.25053033
000010 42 83 c1 bd 0b a0 7a 3e 65 7d c7 be bb b8 26 be
       -0.094488636 0.24475114 -0.38962856 -0.16281407
000020 79 e0 97 bc b1 1c f8 be 6b 58 0d 3d 1f 7d d5 3e
       -0.018539654 -0.4845939 0.03450815 0.41697022
000030 60 75 77 be 8d 64 c5 3e c3 b1 d3 be e5 76 d1 3d
       -0.24165869 0.38553277 -0.4134656 0.102277555
000040 99 52 15 3e 2c fa a0 bd f0 f3 ff 3d 41 b0 de 3e
       0.1458229 -0.078602165 0.12497699 0.43493846
000050 d0 80 86 be 91 31 02 bf ff c3 70 be 1a 5f 99 bd
       -0.2627015 -0.5085688 -0.23512267 -0.07488842
000060 ca a7 ef be 39 17 df be 5d 42 d0 3c e4 ce 3b be
       -0.468077 -0.43572405 0.02542227 -0.18340641
000070 79 7b 1c be 72 4b fa bd 80 85 e1 3c e8 7b 25 be
       -0.15281476 -0.12221421 0.027529478 -0.16160548
000080 9c d8 7b be c8 31 b4 be d4 e0 d6 be 08 a3 50 3e
       -0.24594349 -0.3519423 -0.41968405 0.20374691
000090 c7 92 c1 3e 8c a7 19 3e 4f 9a 4d bd 69 a3 cf 3e
       0.37807295 0.1500532 -0.05019599 0.4055436
0000a0 2f e6 f9 3d f6 b7 73 3e 7d 07 a4 3e db e0 47 3e
       0.12202107 0.23800644 0.32036963 0.1951937
0000b0 0c 85 a7 be 1d c8 c9 3e 19 11 6d 3e e9 33 fb 3d
       -0.32718694 0.39410487 0.23151053 0.122657605
0000c0 ff db b0 be b4 4f 55 3e c8 28 f0 3e 8d e0 54 be
       -0.34542844 0.20831186 0.46906114 -0.20788784
0000d0 8b 76 08 3e a8 d9 39 bd 6c e0 d4 be ad 04 9f be
       0.1332647 -0.04537359 -0.4157747 -0.31058255
0000e0 6b 88 dc be 05 35 57 be af 3d e2 be 9e 61 64 3c
       -0.4307283 -0.21016319 -0.44187686 0.013939289
0000f0 6f ab 94 be b7 89 3f 3e 40 ff a0 be 7c 0a bb be
       -0.29037043 0.18704878 -0.3144474 -0.36531436

conv1.lin_r.weight f4 [64, 4]
000000 6a 76 f3 3e fc ed e5 3e e0 18 53 bd d0 2e 9b 3d
       0.4755128 0.4490813 -0.051537395 0.07577288
000010 ac d8 64 be 18 bb d5 be 8c bb fe 3e ec 08 94 3e
       -0.22348279 -0.41744304 0.49752462 0.28913057
000020 ae 91 99 3e 00 0b d9 3b 00 4b 52 bc 5a 09 f0 3e
       0.29993957 0.0066236258 -0.012835264 0.46882135
000030 f0 8f 0c 3d 88 9f 9e be 38 5f 81 be 1c 66 9a be
       0.034316957 -0.30981088 -0.2526796 -0.30156028
000040 58 fb cb 3d 62 20 d4 3e 02 4a b6 3e 18 c0 b8 3d
       0.099600494 0.41430956 0.35603338 0.09021014
000050 dc 44 d2 be 0e 85 bd be 86 6a 95 3e 32 ec a8 be
       -0.4106816 -0.37015575 0.29182833 -0.32992703
000060 94 e2 96 be e0 6e ff be e0 7e 89 3d 2c 5c 13 be
       -0.2946974 -0.49889278 0.067136526 -0.1439063
000070 e2 78 af 3e 92 93 9d be 00 78 f4 bd 78 01 f9 be
       0.34271914 -0.3077665 -0.11936951 -0.48633933
000080 20 f2 ce 3d 0a d7 b1 3e 84 cb 01 be e4 9c 96 be
       0.101047754 0.34734374 -0.12675291 -0.29416573
000090 d2 c8 da 3e 0a f9 e4 be 80 b8 31 3c 08 85 88 3d
       0.4273134 -0.44721252 0.010847211 0.06665999
0000a0 e4 b5 51 be ea 32 b9 3e 90 5c 36 3e 78 68 15 3e
       -0.20479542 0.36171657 0.17808747 0.14590633
0000b0 68 48 ec bd 1e f5 ba be e6 a5 f1 be 70 4c c2 3e
       -0.11537248 -0.36515135 -0.47196883 0.37948942
0000c0 60 4a 60 3e 96 3e f9 be 9e 17 83 be 8a cd 84 3e
       0.21903372 -0.48680562 -0.25603956 0.25938064
0000d0 f0 59 f8 3d 20 02 ec bd 68 3f 71 3e c0 65 2f 3e
       0.12126529 -0.11523843 0.23559344 0.17128658
0000e0 9c 42 bb be a0 69 f0 be 7c 4d 59 be 84 c6 d3 be
       -0.36574256 -0.46955585 -0.21220964 -0.41362393
0000f0 ee 52 bd be 6e 72 87 be 98 32 0a 3e 40 83 05 bc
       -0.36977333 -0.2645449 0.13495862 -0.008148968
000100 80 2c c2 bc b4 96 16 be 40 a0 dd 3d e4 5f 6f 3e
       -0.02370286 -0.14705926 0.10821581 0.23376423
000110 cc ef f1 be 16 1b dd 3e a0 a3 6b be 62 c4 c8 be
       -0.47253263 0.43184727 -0.23011637 -0.39212328
000120 bc 59 6a be a0 5b 51 bd 52 e8 ad 3e a0 de f6 bd
       -0.22885793 -0.05111277 0.3396631 -0.12054181
000130 78 83 b3 3e 54 4b 5b be 5c 72 7e 3e 40 35 e2 bc
       0.3506124 -0.21415454 0.24848312 -0.027613282
000140 c8 73 f3 3d c2 ca fb 3e fa fc 9a 3e 0e 1b 86 be
       0.11887318 0.4917813 0.3027113 -0.26192516
000150 70 2f 54 3d 34 88 4f be c0 c7 29 bd 3a b5 ca 3e
       0.051803052 -0.20266801 -0.041450262 0.3959139
000160 26 39 ee 3e cc 2a e4 be a8 8e be bd f2 de dc be
       0.46527976 -0.445639 -0.09304553 -0.43138844
000170 d4 a8 c4 be aa e9 d8 be 18 28 c8 3e 00 dc 74 3e
       -0.38410056 -0.42365772 0.3909309 0.23912048
000180 96 6d d7 3e bc 7f dd 3e 38 13 97 3d 5a 3c fa 3e
       0.42075795 0.43261516 0.073767126 0.4887417
000190 38 8b ed be 3e 41 ae be 12 90 f4 be 60 04 5b 3d
       -0.46395278 -0.3403415 -0.47766167 0.05347097
0001a0 c8 f6 8f be 4c 94 93 be e4 f5 a0 be 28 96 f7 3d
       -0.28117967 -0.2882408 -0.314376 0.12089187
0001b0 20 c1 d6 3d 30 08 85 be e8 7b c3 be 4a ae c9 3e
       0.104860544 -0.2598281 -0.3818047 0.39390785
0001c0 30 01 73 be d4 66 d6 3e fc b9 f1 be 34 7d 69 3e
       -0.23730922 0.41875327 -0.47212207 0.22801667
0001d0 ea 07 81 3e 8c e5 43 3e 00 a0 08 be b4 19 e7 3e
       0.2520135 0.19130534 -0.13342285 0.45136797
0001e0 e0 24 e8 be 40 98 32 bd a0 d2 a7 bc d8 4e 29 be
       -0.45340633 -0.04360223 -0.020486176 -0.16533983
0001f0 50 11 70 3e 10 6b ca bd 7a 33 ae be a4 1c 52 3e
       0.23444104 -0.09883702 -0.34023649 0.20518738
000200 84 b7 f9 be 88 6a 5a be 48 04 88 be 72 b7 c5 be
       -0.48772824 -0.21329701 -0.26565766 -0.3861652
000210 f8 55 1c be 88 46 a5 be 90 31 cb 3d e4 eb 2e be
       -0.1526717 -0.32280374 0.09921563 -0.17082173
000220 38 6b a7 be cc 9d 2d 3e e0 64 3e bd e0 cd f9 bd
       -0.3269899 0.16954726 -0.04648292 -0.12197471
000230 b2 33 d7 be 20 05 70 3d 58 31 1d 3e 30 a4 ff 3e
       -0.42031628 0.058598638 0.15350854 0.49929953
000240 92 83 e8 3e 26 79 8c 3e 78 ad eb bd 00 16 47 bd
       0.4541288 0.2743618 -0.11507696 -0.048604965
000250 c6 b8 8b 3e b8 b8 a0 bd e2 d5 9b be 6c c9 02 be
       0.27289408 -0.07847732 -0.30436617 -0.12772149
000260 ea 1a 9d be 76 98 84 3e 10 9e e1 3e b4 46 f6 be
       -0.30684596 0.25897568 0.44065905 -0.48100817
000270 a0 38 c5 3c 6a 39 e2 3e 22 41 9e 3e f4 cc 30 3e
       0.024074852 0.44184428 0.30909067 0.17265683
000280 d0 67 36 3e ce 33 aa 3e 88 93 a3 3d b0 03 c7 bd
       0.17813039 0.3324265 0.07987124 -0.097175
000290 30 d4 c2 bd 24 ec db 3e 92 7f d1 be 4e ce 9c 3e
       -0.09513128 0.42953598 -0.4091764 0.30626148
0002a0 ba 2b c7 be e0 0c db bd 12 d6 bd be a4 76 79 be
       -0.38900548 -0.10695815 -0.37077385 -0.24361664
0002b0 10 42 73 bd 58 39 68 be c0 e4 26 be 94 46 6f 3e
       -0.059389174 -0.22678125 -0.16298199 0.23366767
0002c0 d4 bb 98 3e c0 06 fe bd 70 1d 3d be 46 4a dc 3e
       0.298308 -0.12403631 -0.18468261 0.43025416
0002d0 30 74 33 3e 80 94 95 3e 68 fa 0c 3e 9c 86 a1 be
       0.17524791 0.2921486 0.13767397 -0.3154801
0002e0 f6 ac f9 3e a8 b8 d3 be a2 79 c9 be c2 55 d1 be
       0.4876477 -0.4135182 -0.3935061 -0.4088574
0002f0 38 84 b0 3e 24 bd 2b 3e 20 08 be 3d 30 2d 62 3e
       0.34475875 0.1677137 0.092788935 0.2208755
000300 24 39 37 3e 56 df 8a 3e 98 5b 79 be 90 db 46 3d
       0.17892891 0.27123517 -0.24351346 0.048549235
000310 dc 85 10 be b0 b9 63 bd 36 2e b2 be ba cc ea 3e
       -0.14113563 -0.055597007 -0.3480088 0.4585932
000320 a4 1f c0 3e d2 3f c8 be d4 7f 68 3e 50 32 eb be
       0.3752414 -0.3911119 0.22705013 -0.45936823
000330 d0 b1 24 3d 46 e2 cd 3e 00 4a a1 bd a0 bf 4f 3d
       0.040208638 0.40211695 -0.078754425 0.050719857
000340 84 e7 2b be 10 55 9a bd 52 f7 c1 3e a8 65 d1 3d
       -0.16787535 -0.07535756 0.37884003 0.102244675
000350 20 5d 16 3d 68 c7 d1 be 9a 59 ac be 98 3b 69 be
       0.036709905 -0.40972447 -0.3366211 -0.2277664
000360 d0 62 8e bd f6 64 b9 3e f8 0f 31 be 54 36 87 be
       -0.06952441 0.3620984 -0.17291248 -0.26408637
000370 d4 5c b3 be cc 58 e9 3e 2c 89 27 be 94 da 22 be
       -0.3503176 0.4557556 -0.1636092 -0.15903693
000380 50 53 40 be c8 b1 a9 be da 54 da 3e 8e 79 88 be
       -0.18781781 -0.3314345 0.42642862 -0.2665524
000390 ea 91 a7 be c4 e9 ca be 36 c4 b6 be 20 b6 9b bc
       -0.3272851 -0.39631474 -0.35696572 -0.019007742
0003a0 d0 74 ab be 60 4e a4 3c 58 e6 bc be 30 0a 47 be
       -0.33487558 0.020056903 -0.36894488 -0.1943748
0003b0 80 f3 62 bd 02 78 d6 3e 80 e8 84 3c 40 83 69 3d
       -0.055408 0.41888434 0.016224146 0.057009935
0003c0 dc 31 82 3e 40 dd d5 3c be 1b 95 be b0 52 6f 3d
       0.25428665 0.026106477 -0.29122728 0.058428466
0003d0 a8 25 49 be 10 fe a6 bd 08 ce 2f be a8 16 54 be
       -0.19643271 -0.08153927 -0.17168438 -0.20711768
0003e0 8a f3 ca be fa 49 a2 be 20 25 ab 3d 52 a7 ce 3e
       -0.3963893 -0.31697065 0.083566904 0.4036203
0003f0 48 30 d7 bd b0 d0 e3 3d f0 5a 52 3e 48 49 20 be
       -0.10507256 0.11123788 0.20542502 -0.15652955

conv1.lin_r.bias f4 [64]
000000 10 44 e6 3d d4 a1 96 3e d8 62 24 be 86 5e cc 3e
       0.11243451 0.2942034 -0.16053331 0.39915866
000010 52 94 a3 be e0 af 23 3d 70 93 55 bd 7c 04 45 3e
       -0.31949097 0.03996265 -0.05214256 0.19239992
000020 7c cf 17 be b0 ee f7 be 54 2c 77 3e a0 c5 be bd
       -0.14825243 -0.48424292 0.24138004 -0.09315038
000030 50 80 b9 bd f0 5d e4 3d 3c ff e1 be f8 2b 73 3e
       -0.09057677 0.1115073 -0.4414004 0.23747241
000040 f4 16 68 3e e8 10 15 be 58 e9 30 3e 80 02 a3 3e
       0.22665006 -0.1455723 0.17276514 0.31837845
000050 3c bf 6d 3e 6e 86 db be 6c 7c a4 3e 74 30 91 3e
       0.23217481 -0.42876 0.32126176 0.2835728
000060 ee 2a d8 be d0 70 42 be d8 2f 8a bd e6 6e b2 be
       -0.42220253 -0.18988347 -0.06747407 -0.34850234
000070 e8 10 5e be 60 36 83 3e f0 ed c6 bd d0 81 3c 3e
       -0.21686137 0.25627422 -0.09713352 0.18408895
000080 5c 9d 86 be 68 49 40 be ba b0 a6 3e f8 67 94 3d
       -0.2629193 -0.18778002 0.32556707 0.07246393
000090 c8 7a de bd c8 03 ad bd d0 33 5c 3e 88 9a 25 3e
       -0.108632624 -0.08447987 0.2150414 0.1617223
0000a0 b8 aa 01 be e8 63 91 3e 60 08 43 3d 62 cd a1 3e
       -0.1266278 0.28396535 0.04761541 0.31602007
0000b0 1e 09 8d be 3c 64 17 be 14 36 53 be 10 be d1 bd
       -0.27546018 -0.1478433 -0.20626098 -0.1024133
0000c0 c8 e0 85 3e 80 3a 04 be 84 ba ca be ac c9 c6 be
       0.26148057 -0.12912941 -0.39595425 -0.38825738
0000d0 08 86 89 3e 82 66 a6 be c0 1a f2 3c 40 81 99 3e
       0.2686007 -0.32500082 0.029553771 0.29981422
0000e0 f0 7d e2 3e c8 f9 08 be 54 e3 3a 3e a0 7f f3 be
       0.44236708 -0.13376534 0.18250781 -0.47558308
0000f0 64 6c 00 3e 8c e8 d4 be 46 ff dc be 28 5b d5 be
       0.12541348 -0.4158367 -0.43163508 -0.4167111

conv1.lin_edge.weight f4 [64, 2]
000000 57 08 25 3f ed b1 0f 3f b6 7d c4 3e 58 cf 8a 3d
       0.6446585 0.5613087 0.3837716 0.06777829
000010 1e 81 d7 3e 79 1d 32 3f f8 1e bc 3d e9 4c 17 3f
       0.42090696 0.6957622 0.09185594 0.5910173
000020 e0 7d cd 3c 38 92 20 be db 02 24 bf 74 47 eb be
       0.025084436 -0.15680778 -0.6406686 -0.45952952
000030 ce bd de 3e 15 3a 2f 3f aa d6 0e bf f9 ec 15 3f
       0.43504184 0.68448 -0.557963 0.58564717
000040 e6 26 23 bf 3d 7f 28 3f 5c 68 57 be 84 cc 2f bf
       -0.6373123 0.6581915 -0.21035904 -0.6867144
000050 32 01 70 be e0 11 dc 3c de 86 6e be c0 ac 88 3c
       -0.23437956 0.026863992 -0.23293635 0.016683936
000060 84 d1 76 3e 24 66 81 be b9 02 00 3f 83 67 24 3f
       0.24103361 -0.2527324 0.50004154 0.64220446
000070 8c bb 6a 3e d6 e1 dc 3e 1a b8 f4 3e 00 6b 94 bd
       0.22923106 0.4314105 0.47796708 -0.07246971
000080 01 34 2e 3f 70 01 75 3d 74 56 0d 3e 84 f7 3f 3e
       0.680481 0.059815824 0.1380251 0.18746763
000090 f0 e8 91 be e0 72 99 3d 08 d5 97 bd 11 49 21 3f
       -0.2849803 0.07492614 -0.07413679 0.63002115
0000a0 67 d6 a5 be a8 2f be bd 89 52 11 3f 2f 32 bd be
       -0.32390139 -0.092864335 0.56766564 -0.3695235
0000b0 90 66 ce bd cc ca 00 bf d9 10 b3 be 88 64 88 3e
       -0.10078156 -0.50309443 -0.3497379 0.266392
0000c0 68 4b 8e 3d fb ac 1e bf a8 c8 31 3e 1f 22 e5 be
       0.06947976 -0.619827 0.173617 -0.44752595
0000d0 90 18 c9 3d a9 8f 0d 3f 30 80 b2 bd f9 49 19 bf
       0.09819138 0.55297333 -0.08715856 -0.598785
0000e0 58 c8 ce bd 08 a9 a0 be 13 ba 32 bf b7 7e 00 3f
       -0.10096806 -0.3137896 -0.69815177 0.5019335
0000f0 00 6a 0e 3b 36 bf 55 be 16 8b eb 3e 90 28 15 bf
       0.0021730661 -0.20873722 0.46004552 -0.5826502
000100 1e ae 94 3e f0 78 5a be 27 3c 12 3f b6 09 d9 be
       0.2903909 -0.21335196 0.57123035 -0.4239022
000110 68 fe 80 bd aa 58 9a be 2c 38 47 3e d6 8a 78 be
       -0.06298524 -0.3014577 0.19455022 -0.24271712
000120 e6 de 21 bf 20 cf 3a bd 88 e0 8a 3e ca 92 01 bf
       -0.6323074 -0.045607686 0.2712443 -0.5061461
000130 4a ec 27 bf 12 cf 9d 3e d0 6b 4b be 3a 29 d5 3e
       -0.65594923 0.30822045 -0.19865346 0.41633016
000140 d8 c3 97 3d 8f 3b 21 3f 01 fd 18 bf 4b 01 33 3f
       0.07410401 0.62981504 -0.59761053 0.6992385
000150 4a 5f db 3e ee c8 a4 3e 18 8f 9a 3d b4 a8 40 be
       0.42846137 0.32184547 0.07546824 -0.18814355
000160 c8 7e 93 3e 88 bd 8a be 04 c5 24 be aa 11 1a bf
       0.28807664 -0.27097726 -0.1609078 -0.60183203
000170 f2 37 97 3e 56 3c b1 3e 6e a8 02 bf 17 3c 0b 3f
       0.2953487 0.34616345 -0.51038253 0.54388565
000180 08 eb 73 3e 7e c8 b5 3e ad af 03 3f 00 c1 40 bc
       0.23820126 0.35504526 0.51439935 -0.011764765
000190 00 8a e6 3c 36 1b b4 3e 29 47 31 bf b0 e8 76 3e
       0.028141975 0.3517701 -0.69249207 0.241122
0001a0 f8 85 c1 3d da 9b ac be d2 29 6e be ab 79 1b 3f
       0.09449381 -0.33712655 -0.2325814 0.60732526
0001b0 e8 90 d7 3d c9 2f 06 3f 26 3c dd 3e 30 75 23 bd
       0.105256855 0.52416664 0.43209952 -0.03990668
0001c0 00 44 30 bc 95 ca bc be de 9e 95 3e 44 6a 0a be
       -0.0107584 -0.36873308 0.2922277 -0.135171
0001d0 ee b7 c1 be 80 80 0e 3e a8 d5 28 be 0c 89 ce be
       -0.3783564 0.13916206 -0.16487753 -0.40338933
0001e0 a8 52 a1 3d 43 cd 0a 3f 15 6f 0e bf 80 da 94 3e
       0.078770936 0.54219455 -0.5563825 0.29072952
0001f0 5d f5 2e bf 18 09 f1 3d 1e 1d 69 be c0 0e 3b bd
       -0.68343145 0.117693126 -0.22765014 -0.045668364

conv2.att f4 [1, 1, 64]
000000 6e d6 17 3e 22 13 86 3e 80 3f 69 3e 30 b8 d0 bd
       0.14827892 0.26186472 0.2277813 -0.10191381
000010 a4 9e c3 bd 04 23 65 3e 2c ab 8f be 7c 13 1b be
       -0.09551743 0.22376639 -0.2806028 -0.15144151
000020 90 bb 1a 3d 10 67 39 3e f8 93 2c 3e 4c d3 4c 3e
       0.03777653 0.18105721 0.1685332 0.20002478
000030 58 6f 3c be 20 18 74 3e 2c b7 6a bd f4 59 40 3e
       -0.1840185 0.23837328 -0.057303593 0.18784314
000040 94 c3 db 3d 9c 20 58 be 6c 9b 8f 3e c0 11 17 bc
       0.10730663 -0.2110619 0.28048265 -0.0092205405
000050 9a 29 19 3e 04 6d 31 3e 80 86 13 3d 68 23 09 bd
       0.14957276 0.17326742 0.03601694 -0.03348103
000060 70 b2 39 3d 2b 7d 4e be b4 6d 98 be db 64 74 be
       0.045336187 -0.20164935 -0.29771197 -0.23866598
000070 64 38 d4 3d 40 d8 98 bc f4 aa 0c 3e 80 b1 80 bc
       0.10362318 -0.018657804 0.13737088 -0.015709639
000080 a4 dd 56 3e 24 33 07 3e a6 19 81 be 2e c1 13 be
       0.20982987 0.13203102 -0.2521488 -0.14429161
000090 dc e9 9a be 86 f2 8d 3e 17 d7 86 be 70 42 20 3d
       -0.30256546 0.27724093 -0.26335976 0.03912586
0000a0 6a 18 94 be 0e 89 1a be b0 2f d6 bc a3 8c 0d be
       -0.28924876 -0.15091345 -0.026145786 -0.1382318
0000b0 16 35 80 3e f0 70 b0 3d be d8 90 3e e2 18 2f be
       0.250405 0.08615291 0.2829036 -0.17099336
0000c0 0f 8b 2a be 70 31 4e 3e a8 88 7f 3e f0 42 ed 3c
       -0.16654609 0.20136046 0.24954474 0.028962582
0000d0 74 40 93 be 4f 85 1d be 10 a6 71 3d 1e 16 19 be
       -0.2876011 -0.15382884 0.05899626 -0.14949843
0000e0 34 48 52 be 20 3b 7e 3e f0 01 f6 3c a8 2c 02 3d
       -0.20535356 0.24827242 0.03003022 0.03178087
0000f0 8c cc 4f 3e c4 43 79 3e 40 d1 7b bc 8c af 58 3e
       0.20292872 0.24342257 -0.015369713 0.21160716

conv2.bias f4 [64]
000000 6b 33 65 bc ec c7 b5 3c c3 23 03 bc 17 1c 19 bc
       -0.01398931 0.022190057 -0.008004132 -0.009345076
000010 43 b9 e0 3a 49 01 bb bc bb 54 03 bb a3 f1 43 bd
       0.0017145056 -0.022827761 -0.0020039517 -0.047837865
000020 af 7f 01 bb d1 0f 17 ba 58 e4 ab ba de 3d 69 bc
       -0.0019759943 -0.00057625497 -0.0013114316 -0.014235942
000030 97 fd 99 3a e5 12 99 bb 3e 51 5e 3c 2f 81 40 3b
       0.0011748549 -0.004671442 0.013569174 0.0029373874
000040 b2 51 2c bb f4 8a 86 bc 94 02 82 3c f6 b3 84 bc
       -0.0026293811 -0.01642368 0.01587037 -0.016199093
000050 57 99 b3 bc ce 6f b0 3c fe 7c 48 3a ad be 99 3b
       -0.021923704 0.021537688 0.000764802 0.00469192
000060 c8 a1 30 bc 02 38 72 3c 7c 93 6d 3c d9 d9 20 bc
       -0.010780759 0.014783861 0.014500495 -0.009817564
000070 ca 8b 33 3b 8b f0 c5 3c ec 2a ba 3c b1 21 ec bb
       0.0027396553 0.024162551 0.022725545 -0.0072061648
000080 fc dd b8 3b fc e1 87 3c 87 79 88 bb 9e 9c 5a 3d
       0.005641697 0.01658725 -0.004164878 0.053372018
000090 5f b4 af 3c aa bf f7 ba 59 5e 62 ba 73 8e 01 bc
       0.021448312 -0.0018901725 -0.0008635275 -0.007907498
0000a0 f0 96 e9 3b f4 d5 79 3c 05 34 14 3c 45 48 95 3c
       0.007128589 0.015248764 0.009045606 0.018222937
0000b0 2c 6a 8c 3c 06 16 a7 bc 5b 65 0b bc 7d 21 03 bc
       0.01714047 -0.020396244 -0.008508052 -0.00800359
0000c0 77 0d 49 3c da 3e 0c 3c 5d 4f fb 3b 1f f0 2c 3c
       0.012271277 0.008559907 0.007669373 0.010555296
0000d0 77 6b 69 3b 73 b0 f4 bc 8a 8f 04 bb 37 ff 8d bb
       0.0035617033 -0.029869294 -0.0020227158 -0.0043334025
0000e0 35 7d ac bc 44 62 b3 bc d4 46 9c 3b 59 4c 10 3d
       -0.021055797 -0.021897443 0.0047691856 0.03522906
0000f0 84 ca b9 bc c7 10 58 bc fb 60 b6 3c 62 0d 75 bc
       -0.022679575 -0.013187594 0.02226304 -0.014956804

conv2.lin_l.weight f4 [64, 64]
000000 39 eb 24 bc de 0a 38 bd eb fe 7d bc e6 6f 98 3d
       -0.010065847 -0.04493224 -0.015502672 0.07443218
000010 af b6 c5 bc 42 0f a2 3d 23 8e 9f bc c6 70 76 bc
       -0.024134962 0.079130664 -0.019476956 -0.015041536
000020 1f 81 c2 3d b0 bc 66 3c 3c 8e 2e 3d 06 bc f4 bd
       0.09497284 0.014083073 0.042616114 -0.11949925
000030 94 e9 aa 3d a4 93 f7 bc d0 b4 e5 bd b5 3a 12 be
       0.08345333 -0.030221768 -0.11216128 -0.14280207
000040 32 4d cc bb ad 43 c2 3d e4 30 6a bc cd 7d 11 3d
       -0.0062347883 0.094855644 -0.014293883 0.035520364
000050 80 c4 c1 bd ec 9c 1f bd 32 15 1c 3d 58 4f 9f bd
       -0.094613075 -0.03896801 0.03810615 -0.077788055
000060 1f 6e ce bc 95 12 02 bc 57 02 5d bd 94 d5 54 bd
       -0.025198994 -0.007939001 -0.05395731 -0.051961496
000070 3f 75 ea 3c 40 f9 bb bd d4 19 44 bd ae 6a e6 bd
       0.02862036 -0.091784 -0.047876194 -0.11250816
000080 60 fd 45 bc 7a 27 b3 bd 1f 27 d0 3d b9 5e 89 3d
       -0.012084335 -0.08747764 0.10163712 0.0670752
000090 b2 9d 0f be 03 2d 2e 3c b4 02 57 bc ac ad fd 3b
       -0.14025 0.010630849 -0.013123203 0.0077416506
0000a0 4f 56 8f 3d 1c be 30 3d 9d 63 80 3d 39 34 c0 3d
       0.06998884 0.043150052 0.06269 0.09384961
0000b0 38 9e 2d 3d a6 03 97 3d 7f 30 05 bc eb d4 29 3d
       0.042387217 0.07373743 -0.008129238 0.04146282
0000c0 de 75 41 3d f0 aa 41 3c 70 62 6b bd a4 2a e6 3b
       0.047231548 0.01182054 -0.057466924 0.007024126
0000d0 02 2e d7 bd c5 1d 61 3d e7 bd bc bd 0e 82 ca 3d
       -0.10506822 0.05496003 -0.092159085 0.09888087
0000e0 79 43 c5 bd c3 22 3d bd a4 2a b5 bd 2b 79 d3 3d
       -0.0963201 -0.04617573 -0.08846024 0.10325845
0000f0 42 dd 1b 3d 87 ab bf 3c a7 46 a3 3d 98 8b c3 bd
       0.038052805 0.02339722 0.0797246 -0.0954811
000100 fd c9 1d 3b 4f 79 80 bc 15 93 d8 bb 2c a1 43 3c
       0.0024076693 -0.015682844 -0.0066093304 0.011940282
000110 ea e7 58 bc b2 65 8d bd 2c de 35 3c 0d 03 9b bc
       -0.013238886 -0.069041625 0.011100333 -0.018922353
000120 df 8f 32 bd e7 94 83 3d d3 c3 b0 bd be f7 72 bd
       -0.043594237 0.06424885 -0.086311005 -0.059318297
000130 4a ec a8 3b f2 eb a0 bd b1 15 52 bd 36 da f5 bc
       0.005155121 -0.07857503 -0.051290218 -0.030011278
000140 60 96 21 3d 9b 38 6a 3c c8 97 91 3d 4e f3 83 bd
       0.03945005 0.014295722 0.07109028 -0.06442891
000150 40 15 a2 3d 6b 78 ac 3c f8 5f 9d 3c 0e 48 ee bd
       0.07914209 0.021053514 0.0192108 -0.11634837
000160 ce 69 ea 3d be 5b f4 3d c6 2b 65 bd d2 81 3b 3d
       0.11445962 0.11931561 -0.05594995 0.045778103
000170 9b 66 2c 3d f0 5e 8c 3d ac 43 71 bd f0 04 b2 bd
       0.04209004 0.068540454 -0.058902428 -0.08692348
000180 84 5a e1 bd 60 da 85 3c bb 38 c1 3d 3f 2b ab bd
       -0.110035926 0.01633948 0.094346486 -0.08357858
000190 3b 36 b8 3d 62 f0 42 bd 18 63 25 3d d5 9f 53 bd
       0.08994719 -0.04759253 0.040377706 -0.0516661
0001a0 31 bd 21 3e 39 68 13 3b 33 2e cc bd e1 2c 5d bd
       0.15794827 0.0022492541 -0.09969749 -0.053997878
0001b0 9a f5 ec bd 0a c4 8d bd 9f 54 8c 3d 46 3d de 3d
       -0.11570282 -0.06922157 0.06852078 0.10851531
0001c0 ea c4 8f bd 10 aa c7 bd 6c f6 a0 3d 6d c4 07 3e
       -0.0701998 -0.09749234 0.07859501 0.13258524
0001d0 78 54 5d bd d2 3e 1e bd 4a ac 1f 3d 39 7f b2 bd
       -0.054035634 -0.03863413 0.038982667 -0.08715672
0001e0 c4 61 0d 3d bb b8 41 bb e8 ac 56 bd 81 3c 85 39
       0.034517065 -0.002955957 -0.05241099 0.00025412816
0001f0 50 b1 96 bd c2 10 a8 3c 37 cd a0 bd e7 76 32 3d
       -0.073580384 0.020515803 -0.078516416 0.043570425
000200 e2 52 b9 bd db 60 8c bd 4b 6c 68 bc 65 b4 52 bd
       -0.09049012 -0.06854411 -0.014185975 -0.05144157
000210 4b 49 76 3d ca 22 18 3d 28 08 af 3d ae ac 36 bd
       0.06012849 0.037142552 0.085464776 -0.044598274
000220 a2 bf 53 3d ed 7a d6 3d e3 f5 62 3d 9c 02 e4 3c
       0.051696427 0.10472665 0.055410277 0.027833275
000230 88 22 b8 3d 09 fe a1 bd 90 e5 bf bd 28 6c ed 3d
       0.08990961 -0.079097815 -0.093699574 0.11592895
000240 5f dc 87 3d 83 ec a7 3d 27 12 d8 bb 8e c3 aa bd
       0.06633829 0.08199408 -0.006593961 -0.0833808
000250 2c be f8 3d 7d 95 ab 3d 8a e7 75 bd 27 95 97 3d
       0.121456474 0.08378122 -0.060035266 0.074014954
000260 e9 a8 89 bc 16 ed 42 bd 32 79 91 bd 68 d9 ff bd
       -0.016804175 -0.047589384 -0.07103194 -0.12492639
000270 15 b9 21 bd 6e 1f be bd 46 d1 80 3d 96 57 af 3d
       -0.03948315 -0.092833385 0.06289916 0.085616276
000280 00 9d c4 bc e2 66 b3 bb 13 70 5d 3c 68 a4 cf bd
       -0.024000645 -0.005474911 0.01351549 -0.1013878
000290 57 f3 eb bc 7c 22 64 3d 2e d5 b8 3c cb 00 c1 3d
       -0.028802557 0.05569695 0.02256259 0.09423979
0002a0 2b d2 1d 3d 28 1e de bd ba e7 c1 bd 57 61 9d bd
       0.03853051 -0.108455956 -0.094680265 -0.07684582
0002b0 28 0c 78 3d 4a e4 f5 bc 1b 32 a5 bd 40 1a 06 bc
       0.060558468 -0.030016083 -0.080661975 -0.008184969
0002c0 d5 1b ba bd ac de 74 bd c8 e7 8b bd d1 75 4e bc
       -0.0908734 -0.05978267 -0.06831318 -0.012601332
0002d0 df f7 85 bd a5 68 bc bd 31 bd a1 3c 10 a9 c6 bd
       -0.06541418 -0.09199647 0.019743534 -0.09700215
0002e0 3d 0c c8 3d 34 ac e5 3d b2 f7 51 bd 67 5d 19 3d
       0.09767959 0.11214486 -0.05126161 0.03744259
0002f0 74 ae 67 3d 53 cf b0 bd 91 38 96 bd 8e 43 e1 3d
       0.056562856 -0.08633294 -0.07335008 0.10999213
000300 4d 0d cf bd 17 cc 40 bd ab 55 eb 3d bf 8c 2d be
       -0.10109959 -0.047069635 0.11490949 -0.16948222
000310 45 e5 30 3d 29 22 8e bd 60 11 8e 3d 60 4f c6 bd
       0.0431874 -0.06940109 0.06936908 -0.09683108
000320 31 6f 0a 3d 17 11 ea 3d 49 6b f8 3d 11 32 a7 3d
       0.033797447 0.11429041 0.12129838 0.08163846
000330 d9 3c fa bd 1c 78 ac 3c 74 9c 8e 3d 81 c8 00 3e
       -0.12218637 0.021053366 0.06963435 0.12576486
000340 c9 31 cf 3b 66 86 ed bd ec 57 93 bd c6 d0 8b bd
       0.0063230735 -0.115979 -0.07194504 -0.0682693
000350 80 af 72 bb 6c ee 7a bd 02 67 bd bd a7 ab 64 3d
       -0.0037030876 -0.061262533 -0.09248163 0.055827763
000360 4b 08 94 3b 5a ee 15 3e a4 ff d1 bd bb 81 96 bd
       0.00451759 0.14641705 -0.10253838 -0.07348963
000370 9c bf da 3d 0d ed 84 bd f4 94 0c bd 58 24 2a 3d
       0.10681078 -0.06490526 -0.03432174 0.041538566
000380 28 60 49 bd b0 42 c7 bd 77 44 96 3c 23 71 89 bd
       -0.049163967 -0.097295165 0.018343193 -0.06711032
000390 ff 3b 5c bd c2 72 2d 3d c3 a1 8d bd cc 04 ee bd
       -0.053768154 0.04234577 -0.06915619 -0.11622009
0003a0 bd 5e 0e be 9c d2 de 3d 82 c6 61 3c 52 33 96 bd
       -0.13903327 0.10880014 0.013780238 -0.07334007
0003b0 e0 7d a4 3d 71 d2 9e bd 0e da 80 bd 27 ce 0c bb
       0.08031821 -0.07754982 -0.06291591 -0.002148518
0003c0 69 f5 b0 3d e0 de 96 bd 20 fe cf bc b4 c0 07 bd
       0.08640558 -0.07366729 -0.02538973 -0.03314276
0003d0 e9 11 cf 3d da 98 34 bd 0e 08 8d 3a 06 31 74 bd
       0.10110838 -0.044091083 0.0010759847 -0.059617065
0003e0 51 25 8e 3d b7 49 a3 bd 8d ab 21 3c 38 cd 1f 3d
       0.06940711 -0.07973044 0.009867561 0.03901407
0003f0 64 17 3d 3d eb f2 40 3b b3 7e 74 ba 7d c0 66 3d
       0.046164885 0.0029441665 -0.0009326741 0.056335915

conv2.lin_l.bias f4 [64]
000000 c8 12 0d 3d 95 91 b9 bd d4 ec 38 3d 04 6b 04 3a
       0.03444174 -0.09060971 0.045147732 0.0005051347
000010 22 84 6d 3d 23 ca 57 3d a0 35 9a bc 46 d0 c9 bc
       0.05798734 0.052683007 -0.018824399 -0.024635445
000020 7c c8 b7 3d ae 82 c7 3b 54 ee 98 3d b0 71 86 3d
       0.08973786 0.0060885763 0.074673325 0.06564653
000030 3f 05 32 ba eb 36 53 bc 47 de 62 3d fc 4f f9 3d
       -0.0006790943 -0.012891511 0.05538776 0.12173459
000040 94 b0 75 bd b6 e0 72 bd d0 1f f6 3d b4 9d d7 bb
       -0.05998285 -0.059296332 0.120177865 -0.006580079
000050 c1 c8 55 bd b2 e2 f6 3d 4c fc ee bd 85 fa 63 3c
       -0.052193407 0.120549574 -0.116692156 0.013914709
000060 96 83 60 3d 2e c5 03 3e 14 c5 22 bd dd 01 9d bd
       0.05481299 0.12868187 -0.03973873 -0.07666371
000070 0b 6c 0c ba a5 97 2f 3d 09 b9 9e 3c ce ed ac 3d
       -0.0005356676 0.04286923 0.019375341 0.08443795
000080 62 3f 30 3c 9b d9 e7 3d e6 d0 a4 3c dc 3a 36 3e
       0.010757299 0.11320802 0.020119142 0.1779589
000090 64 e9 38 3d 9d 2c b0 bd 7c 34 b6 3c e0 33 9f bd
       0.045144454 -0.08602259 0.022241823 -0.07773566
0000a0 90 c7 95 3a 79 a8 99 bd 76 47 43 bd 22 1d f4 bc
       0.0011427272 -0.07502837 -0.047675572 -0.029799048
0000b0 ae 06 f1 3d 10 1e 8f bd 1f d7 49 3c 85 0f b6 3d
       0.11768852 -0.06988156 0.012319355 0.08889679
0000c0 31 0b 99 3a f3 45 8b bd c1 61 9d 3c 25 7a 46 3c
       0.0011676309 -0.06800451 0.019211652 0.012114082
0000d0 ff d0 d7 bd e9 75 e4 bd 95 ab bc bd cf 7a 61 3d
       -0.1053791 -0.11155302 -0.09212414 0.05504876
0000e0 bf e7 19 bd 43 06 b9 bd 52 97 f5 3d 86 68 0f 3e
       -0.037574526 -0.090343975 0.11991753 0.14004716
0000f0 ba 26 f3 bd 32 b4 29 bc 4b 55 cd bd f2 5e 81 bd
       -0.11872621 -0.010357903 -0.10026034 -0.063169375

conv2.lin_r.weight f4 [64, 64]
000000 fc 78 2a bd 18 fc 66 3d f0 fc c4 3c f0 92 e3 3d
       -0.041619286 0.05639276 0.024046391 0.111120105
000010 20 df 81 bc 78 99 17 3d 80 bb c5 3d e4 af 45 bd
       -0.015853465 0.037011594 0.096549034 -0.048263445
000020 42 e2 c1 bd 20 52 5b bd 38 41 bb 3d 68 22 a0 bd
       -0.094669834 -0.053545117 0.09143299 -0.078190625
000030 bc cf 0e bd 74 ba 8f bd 00 f9 0f bb 46 7f c4 3d
       -0.03486608 -0.07017985 -0.0021968484 0.09594588
000040 1c ab 84 bd 3c cf fa 3d 80 f7 15 bd 0c 0f e9 3d
       -0.06477949 0.12246558 -0.036612988 0.11379823
000050 20 f0 92 3c 0a f3 b9 3d 20 f2 95 3b 68 34 8f bc
       0.017936766 0.09079559 0.0045759827 -0.017481044
000060 4c 77 5f bd 76 b6 c7 bd 22 07 b7 bd 18 a0 22 3d
       -0.05455713 -0.097515985 -0.08936907 0.03970346
000070 90 a9 da 3c 1c 95 c9 bd 70 69 6f 3d d8 91 6b bd
       0.026692182 -0.098428935 0.058450162 -0.057512134
000080 1a af ed bd 42 ed aa bd be 91 cf 3d 82 98 8d bd
       -0.116056636 -0.083460346 0.1013522 -0.06913854
000090 3e d0 ea bd 88 a1 f9 3d ca 6c e6 3d 62 5b c7 3d
       -0.114655 0.12189013 0.112512186 0.09734227
0000a0 2c dd 80 bd dc 5d ba 3d d4 25 95 3d d0 f0 10 3c
       -0.06292185 0.090999335 0.07282606 0.008846477
0000b0 f4 87 09 3d 1e 87 9f 3d d8 8b 22 3d e8 1b d3 3c
       0.03357692 0.077894434 0.039684147 0.025770143
0000c0 48 dc 25 bd c2 dc 8a 3d 64 32 f8 bd e2 44 cc bd
       -0.04049328 0.067803875 -0.12118986 -0.09974076
0000d0 20 06 ad 3c aa c6 df bd a4 6d 63 bd 5c 6b f3 3d
       0.021121085 -0.10926564 -0.055524483 0.118857116
0000e0 68 68 22 bd c4 8c ea bd 78 28 d5 3c 1c 42 92 bd
       -0.03965035 -0.1145263 0.026020274 -0.071415156
0000f0 e0 a5 b7 bd c0 9d 5b bd 2e 04 e1 3d 36 25 de 3d
       -0.08967185 -0.05361724 0.10987125 0.10846941
000100 f4 09 49 3d e0 fb 78 bd b8 8c 72 3d 18 55 90 3c
       0.049081758 -0.06078708 0.05921623 0.0176187
000110 26 36 f4 bd 80 3d e6 bc c0 1b 32 3b 20 60 bf bb
       -0.119243905 -0.028105497 0.0027177185 -0.0058403164
000120 80 0c a8 3d fc 8a c7 bd 58 1c 51 bd 04 b0 e0 bd
       0.08205509 -0.09743306 -0.05105242 -0.10971072
000130 f4 17 66 3d 80 ca 88 3a fe 20 ea 3d fc 88 02 3d
       0.056175187 0.0010436326 0.11432074 0.03186892
000140 40 3c cb bb 44 54 63 3d c2 e0 f6 bd 00 c0 6f bc
       -0.0062022507 0.055500284 -0.12054588 -0.014633179
000150 8a 85 d1 3d a8 2a f1 3d 5a a0 fc bd 0c 6c 02 bd
       0.10230549 0.11775714 -0.12335272 -0.031841323
000160 1a 91 88 3d a0 76 26 3c d0 2e 5a bd 90 c0 9e bc
       0.06668301 0.010160118 -0.0532673 -0.01937893
000170 16 81 e0 3d 30 5d 9f 3c 78 79 b6 bc b8 b7 77 bd
       0.10962121 0.019453615 -0.022274718 -0.060477942
000180 b0 00 13 bd 58 28 70 3d 60 bc 5c bc 98 e9 b4 bc
       -0.035889328 0.058632225 -0.0134726465 -0.022084042
000190 8c 33 dd 3d a0 2c 93 bc 84 a8 b1 bd 58 84 c2 3d
       0.108008474 -0.017965615 -0.0867472 0.09497899
0001a0 f8 b4 a7 3d 4c 6d 9c 3d 20 49 f7 3b ce f6 88 3d
       0.08188814 0.07638034 0.007546559 0.06687699
0001b0 a6 00 8a bd b2 76 ea 3d e8 fa fd 3c 5c 0c 5b bd
       -0.06738405 0.114484206 0.03100343 -0.053478584
0001c0 54 51 29 bd 7c 0c 97 bd 2e c9 f0 bd cc 16 c4 3d
       -0.041337326 -0.07375428 -0.11757122 0.09574661
0001d0 00 54 87 3d f8 4e af 3d 10 3c c9 bd 90 61 7d bd
       0.066078186 0.08559984 -0.09825909 -0.06186062
0001e0 de b7 9d 3d 70 3e d6 bd c0 f9 4e 3d c0 73 6e bd
       0.077010855 -0.10461128 0.05053115 -0.058215857
0001f0 bc f7 a1 3d f0 99 6c 3d 68 db af 3c 60 33 54 bc
       0.0790858 0.057763994 0.021466926 -0.012951702
000200 5e 17 d9 3d fc 94 67 3d d0 79 ac 3d 78 1b 46 bd
       0.1060016 0.056538567 0.084216714 -0.04836604
000210 b0 4a e9 bc b0 78 f6 3c ec 02 c9 3d 00 26 8e bb
       -0.028477997 0.030086845 0.098150104 -0.004338026
000220 98 86 b2 3c fa 14 fd 3d 5c ae d6 bd e8 a0 f0 bc
       0.021792695 0.123575166 -0.10482475 -0.029373601
000230 4a 92 e2 3d d0 e3 01 bd 60 5f 4e bc 6c 0c ba 3d
       0.11063059 -0.0317114 -0.012595981 0.090844005
000240 80 de 9a bc 00 45 a8 ba d4 66 10 bd 7a 49 b1 3d
       -0.018904924 -0.0012837946 -0.035254315 0.08656593
000250 e0 ac bd bd a8 92 c7 3d 28 8e fe 3d 10 32 e5 bc
       -0.09261489 0.09744769 0.12429458 -0.027977973
000260 ee 2d ca 3d 48 01 84 bd 8c 3e 2b bd 3c 20 96 3d
       0.09872042 -0.06445557 -0.041807696 0.07330367
000270 14 e3 91 3d 20 7a ca bd 10 2b b2 3d ba 0d 9f bd
       0.0712339 -0.09886575 0.0869962 -0.0776629
000280 22 6f cd bd f2 65 ad 3d 68 3f b9 3c 74 09 77 3d
       -0.100309625 0.0846671 0.022613242 0.06031175
000290 ce 73 b0 bd 40 18 9d bd 60 73 f8 3c 04 41 d7 3d
       -0.08615838 -0.07670641 0.030328453 0.105104476
0002a0 72 fa d2 3d dc 54 97 bd aa ed b5 bd d0 a9 83 3c
       0.10301675 -0.073892325 -0.088832214 0.016072184
0002b0 e0 10 2a 3d 78 67 20 3d f8 be 51 3d 5c 65 22 3d
       0.04152 0.039161175 0.051207513 0.039647445
0002c0 00 4b b5 3a f6 29 f6 bd 0e 31 8f bd ca 3f 91 bd
       0.0013831556 -0.12019722 -0.06991778 -0.07092245
0002d0 aa 3d ae bd a8 7d 88 3d b2 60 f4 bd 20 fe 81 3c
       -0.08507855 0.06664592 -0.11932506 0.015868247
0002e0 b0 76 6b 3c 70 a1 76 bd 46 09 dc bd e0 77 d8 3d
       0.014371559 -0.060212553 -0.10743956 0.10569739
0002f0 00 52 54 bb bc df 30 bd 38 19 70 3d 60 a3 2e bc
       -0.0032397509 -0.04318212 0.0586178 -0.010659069
000300 94 ac c5 bd 60 4f ca bd 40 47 41 bb bc 6f 6e 3d
       -0.09652057 -0.09878421 -0.0029491931 0.058212027
000310 18 a4 ee bc 00 57 15 3a 78 16 df bd 54 c4 3b 3d
       -0.02913098 0.0005696863 -0.108929574 0.04584153
000320 f8 a6 0e 3d aa 32 c8 3d 16 10 b2 3d 40 1a b1 3c
       0.034827203 0.097752884 0.086944744 0.021618962
000330 00 20 10 38 70 92 fb bd e0 8f 83 3d c4 6f 96 3d
       3.4362078e-05 -0.1228379 0.06423926 0.07345536
000340 b4 3d 56 bd da 53 8e bd 90 08 27 bd e8 15 d1 3c
       -0.05230494 -0.06949587 -0.04077965 0.025523141
000350 18 77 28 3d b0 a7 0e 3d 1a 17 f8 3d 20 9e 8c 3b
       0.0411292 0.034827888 0.12113781 0.004291311
000360 ac 39 26 bd 20 4c cf 3b 1c b0 41 3d 14 86 95 3d
       -0.040582344 0.0063262135 0.04728709 0.07300964
000370 9a c1 8a bd 58 5c a5 3c a8 6f b9 3c 1c 19 5f 3d
       -0.06775208 0.020185634 0.02263625 0.054467306
000380 ce 66 89 bd cc a0 3e 3d b8 ce c2 3c ee 84 e8 3d
       -0.067090616 0.046540067 0.023780212 0.11353479
000390 4c 8c 29 bd 38 11 30 3d 40 01 95 bb 5e 54 87 3d
       -0.041393563 0.04298517 -0.004547268 0.06607889
0003a0 b6 f1 cb bd a2 d7 ad 3d 4a 78 c3 bd 5c 20 8b bd
       -0.09958212 0.08488394 -0.09544428 -0.067932814
0003b0 70 95 f9 bc c0 4b b3 3c 64 8b 35 3d 98 52 37 bd
       -0.030466765 0.021886706 0.044322386 -0.044756502
0003c0 60 16 54 bd 50 0b 8e bd a8 a0 d2 3d 1c 47 2b 3d
       -0.05177915 -0.069357514 0.10284549 0.041815862
0003d0 90 2c ee bc 5a 3f 8c bd 80 0e 54 3d e8 c2 66 3d
       -0.029073983 -0.06848021 0.05177164 0.05633822
0003e0 8c 74 30 3d 48 c1 30 3d 30 40 80 3c 10 0f 18 bd
       0.043079898 0.043153077 0.015655607 -0.03712374
0003f0 f8 10 57 bd 50 d2 e0 bc 6a 5a 94 bd 5e f6 f8 bd
       -0.052506417 -0.027444035 -0.072438076 -0.12156366

conv2.lin_r.bias f4 [64]
000000 44 56 27 bd 00 68 68 3a c8 4a 7a 3d 18 8d e8 bd
       -0.040853754 0.0008865595 0.061106473 -0.113550365
000010 8c ef 45 bd f2 87 bd bd f4 81 c0 3d 6c 83 d5 bd
       -0.048324153 -0.09254445 0.093997866 -0.10425457
000020 7c f8 a5 3d 08 73 cd bd 94 96 27 3d b6 be e7 3d
       0.08104035 -0.10031706 0.040915087 0.11315672
000030 70 01 98 bc 08 c1 6f 3d 3c 2d 22 3d c4 2c 9a 3d
       -0.018555373 0.0585337 0.03959392 0.075280696
000040 d0 7f b8 3d 40 40 0e 3d bc 8c e3 3d 64 44 3f bd
       0.09008753 0.034729242 0.11110827 -0.04669608
000050 68 d4 75 3d 60 d2 d2 3b 60 7b 49 bd 98 6b a9 bc
       0.06001702 0.00643377 -0.049189925 -0.020681188
000060 28 44 8f bc 64 3d 55 bd 5c ca d9 3d b0 e5 7c bd
       -0.017488554 -0.0520605 0.106343 -0.061742485
000070 9c e0 98 bd dc 14 5f bd a4 85 e5 bd cc 21 b3 3d
       -0.07464716 -0.054463252 -0.112071306 0.087466806
000080 5e f1 90 bd dc 23 5d bd f8 9c 62 bd 58 0a d4 bd
       -0.07077287 -0.053989276 -0.05532548 -0.103535354
000090 fc a6 d7 3d da 8f bc 3d c0 8d 9d 3b b0 92 87 bc
       0.105298966 0.09207125 0.0048081577 -0.016549438
0000a0 6c 59 f3 bd 80 99 c9 3a 74 3e f2 3d 3e 84 bf 3d
       -0.1188229 0.001538083 0.11828318 0.09351395
0000b0 74 ee b4 bd 42 ef aa 3d 34 d8 5f 3d b8 38 92 3d
       -0.08834544 0.08346416 0.054649547 0.071397245
0000c0 88 c3 e4 3d 12 37 80 bd 28 a7 0d 3d e0 fa 98 3d
       0.11170107 -0.06260504 0.03458324 0.074697256
0000d0 f0 3b 29 3c 40 97 69 bc e0 e1 9d bd 60 0f 1a bc
       0.010329232 -0.014257252 -0.07709098 -0.00940308
0000e0 90 da 8a bc 60 1b a5 3c 6c 87 c3 bd 98 96 14 3d
       -0.016949922 0.020154655 -0.09547314 0.03627643
0000f0 80 7f 22 bc 1c 47 8f 3d 4c 19 24 bd b0 c8 4c 3c
       -0.009918094 0.06995985 -0.040063187 0.0124990195

conv2.lin_edge.weight f4 [64, 2]
000000 68 e1 74 3e a8 3a f7 3d 08 be 20 be 40 2d 4e 3e
       0.2391411 0.12071735 -0.15697491 0.20134449
000010 c0 c7 a3 bd d3 2c 25 bf 8c a6 41 3e da a3 bc 3e
       -0.07997084 -0.6452152 0.18911189 0.3684376
000020 1c b6 04 be 50 ba 9a 3d 90 a4 06 3e 09 f7 0f 3f
       -0.12960094 0.075550675 0.13148713 0.5623632
000030 2e 19 0a bf 40 8f 01 bf 9b 7c dd be 38 35 1b be
       -0.5394467 -0.5060921 -0.4325913 -0.1515702
000040 98 b5 23 be 41 8a 9b be f7 b7 2c bf 5a f7 e5 3e
       -0.15987241 -0.30378917 -0.6746821 0.44915277
000050 82 31 dc 3e c3 e2 95 be ac 5f 91 3e 10 6b 2f 3e
       0.4300652 -0.29274568 0.28393304 0.17130685
000060 9c c3 fb be c5 51 1a bf 88 74 03 3e a0 97 4b 3d
       -0.49172676 -0.6028102 0.12837422 0.049705148
000070 00 63 8f bc 8b 2a 1f bf 8c e9 0a 3e 9c aa 21 bf
       -0.017503262 -0.6217429 0.13565654 -0.63150954
000080 b3 2b 09 3f 4d a3 23 3f be 01 f3 be eb 40 04 3f
       0.53582305 0.6392105 -0.47462267 0.51661557
000090 48 ba 14 be 28 ff b1 bd 10 ae dc 3d 34 6f 9a be
       -0.14524186 -0.08691245 0.10775387 -0.30162966
0000a0 76 e8 ca be a5 34 13 3f 85 da b9 be df 60 14 bf
       -0.3963048 0.57502204 -0.3629953 -0.57960314
0000b0 64 a1 10 3e d0 a9 54 3e c6 34 d2 3e 02 03 ea 3e
       0.14124066 0.20767903 0.41055888 0.4570542
0000c0 ca 18 1c bf 72 81 d0 3e bc ee 7e 3e bc b9 6f 3e
       -0.60975325 0.4072376 0.24895757 0.23410696
0000d0 80 4c 71 3d ad c4 1e 3f 5f 32 1f 3f 6d 2a 1a 3f
       0.058910847 0.62018853 0.62186235 0.60220987
0000e0 d5 df 2d 3f de fa d7 be b2 a3 d7 3e c5 5f 26 bf
       0.67919666 -0.42183584 0.42117077 -0.6498988
0000f0 a0 cf 3e be 00 ab 1c 3e 84 3f 03 bf 88 44 3d be
       -0.1863389 0.15299606 -0.5126879 -0.18483174
000100 18 02 19 3e f7 9e 1d 3f 13 3e 0f 3f d5 44 8f be
       0.14942205 0.61570686 0.5595409 -0.27982202
000110 c6 2c ea 3e 37 08 13 3f 50 c4 17 be 00 ed 07 bb
       0.45737284 0.5743441 -0.14820981 -0.0020740628
000120 11 32 90 be 3e f0 af 3e 8e c1 22 bf 15 79 bd be
       -0.28163198 0.34362978 -0.6357659 -0.3700644
000130 12 ab 29 bf d2 2e af be d8 7e 81 be d1 e3 14 bf
       -0.6627666 -0.3421541 -0.25292087 -0.5816012
000140 d8 dc ed 3d 21 88 04 3f 14 59 04 bf be 5a f0 3e
       0.11614388 0.51770216 -0.5169842 0.4694423
000150 8c c8 48 be c4 88 0f 3e 48 b6 30 bf 40 e9 13 3c
       -0.19607753 0.14017016 -0.6902814 0.009027779
000160 84 49 03 be 74 6b 09 be b5 63 2f 3f 36 c2 8d 3e
       -0.12821013 -0.13419896 0.68511516 0.27687234
000170 11 be 85 be 44 5c 09 3e 02 b1 c1 3e 63 4f b4 be
       -0.26121572 0.13414103 0.3783036 -0.35216817
000180 f0 bd 54 3e 68 de 81 bd fe 42 f5 3e 65 05 22 3f
       0.2077558 -0.06341249 0.47902673 0.6328948
000190 f0 b6 0a bf bc 27 07 be e2 65 c2 3e 48 b5 79 3e
       -0.5418539 -0.13198751 0.37968355 0.2438556
0001a0 fe 8f ad be f5 d6 20 3f 48 fe d5 be c0 8a 60 bc
       -0.3389892 0.62828 -0.41795564 -0.013704956
0001b0 9a 8e d9 3e 5a 56 9d 3e 18 ae 48 3e 4a fa dc be
       0.4249161 0.30729944 0.19597661 -0.43159705
0001c0 2a 98 91 3e 7d f9 99 be 80 1e 17 3c 84 2b 45 be
       0.28436404 -0.30073157 0.00922358 -0.19254881
0001d0 b9 27 02 bf a8 ac 2e be 70 92 87 3d 00 38 4d bd
       -0.5084186 -0.1705805 0.066197276 -0.050102234
0001e0 f0 c6 29 3d 02 d6 ec be 3a 80 9c 3e e0 6a 1e 3e
       0.041449487 -0.46257025 0.3056658 0.15470457
0001f0 15 89 8a be 72 88 fe 3e da 84 de be 6a b5 ac 3e
       -0.2705771 0.49713475 -0.43460733 0.33732158
