saved_models/edgat7_slic.pt (torch, 43958 bytes, 16 tensors)

conv1.att f4 [1, 1, 64]
0	0x3da82d18	0.08211726
1	0xbd70fa4c	-0.05883245
2	0xbe18e99e	-0.14932868
3	0xbe1d8ffb	-0.15386955
4	0x3debe324	0.11517933
5	0x3e51c5ec	0.20485657
6	0x3e531a28	0.20615447
7	0x3dc3fc20	0.095695734
8	0x3dc465e4	0.095897466
9	0x3db9ff48	0.09081894
10	0x3c0f7d00	0.00875783
11	0xbe0ff24a	-0.1405727
12	0x3dc2074c	0.09474048
13	0xbe9246d3	-0.2856966
14	0xbc0fa5a0	-0.008767515
15	0x3d9919c0	0.074756145
16	0xbe895d28	-0.26828885
17	0xbd18a778	-0.037269086
18	0xbe2b2cad	-0.16716261
19	0x3e1849be	0.1487188
20	0xbdd95ece	-0.10613786
21	0xbd2c6578	-0.042088956
22	0x3e79e03c	0.24401945
23	0x3e8d430c	0.27590215
24	0x3e1926ce	0.14956209
25	0xbe820de9	-0.25401238
26	0x3e8a24a8	0.26981091
27	0xbde1cf70	-0.11025894
28	0xbdd23462	-0.102638975
29	0xbe30417d	-0.17212482
30	0xbc903380	-0.017602682
31	0x3e939b90	0.28829622
32	0xbe18bc10	-0.1491549
33	0xbe5cbe05	-0.21556862
34	0xbe8b27ca	-0.27178794
35	0x3e30c7ca	0.17263713
36	0x3e7a9958	0.24472558
37	0x3e4fd238	0.20295036
38	0xbe6babeb	-0.230148
39	0xbe90bb4e	-0.28267902
40	0xbe8693f3	-0.2628475
41	0x3e141b12	0.14463452
42	0x3e8a20ae	0.26978058
43	0xbd6bdc90	-0.05758339
44	0x3e967dd0	0.29392862
45	0x3d76ded0	0.060271084
46	0x3d98f810	0.07469189
47	0x3e7f49e4	0.24930531
48	0x3e085434	0.13313371
49	0xbe477918	-0.19479787
50	0xbe08babb	-0.13352482
51	0xbda533b6	-0.08066504
52	0xbe88aa25	-0.2669231
53	0xbd22d7d0	-0.039756596
54	0x3e714710	0.23562264
55	0x3e66a6c4	0.22524554
56	0xbe907aad	-0.28218594
57	0xbdf22d1e	-0.11825012
58	0x3d3b3070	0.04570049
59	0x3e2b8de8	0.16753352
60	0x3e6f8270	0.23389602
61	0x3dd6fda0	0.10497594
62	0xbe6123e6	-0.2198635
63	0x3ddcfb04	0.10790065

conv1.bias f4 [64]
0	0xbecb61fe	-0.397232
1	0xbe934462	-0.2876311
2	0xbf058e8b	-0.5217063
3	0xbf20de01	-0.6283875
4	0xbeb995db	-0.36247143
5	0xbecc6302	-0.39919287
6	0xbeebbaba	-0.460409
7	0xbe78a76a	-0.24282613
8	0xbdf2846a	-0.11841662
9	0xbedc30c9	-0.4300597
10	0xbe8a341f	-0.2699289
11	0xbe829afb	-0.25508866
12	0xbe8b0560	-0.27152538
13	0xbe04a485	-0.12953384
14	0xbe76a47e	-0.24086186
15	0xbe2c3a60	-0.16819143
16	0xbef70282	-0.482441
17	0xbf280da1	-0.65645796
18	0xbe847cdb	-0.25876507
19	0xbec77aa2	-0.3896075
20	0xbe26478d	-0.16238232
21	0xbe8d6fb0	-0.27624273
22	0xbe970fa2	-0.29504114
23	0xbe0496f1	-0.12948205
24	0xbecdce85	-0.40196624
25	0xbe963e32	-0.29344326
26	0xbe802ed6	-0.25035733
27	0xbeb4100f	-0.35168502
28	0xbf20a6fb	-0.6275479
29	0xbe23b46d	-0.15986796
30	0xbecba01f	-0.397706
31	0xbf15b14f	-0.58473676
32	0xbe208040	-0.15673923
33	0xbe05498d	-0.13016339
34	0xbea2343d	-0.3168048
35	0xbf10659b	-0.5640504
36	0xbee0e9ff	-0.43928525
37	0xbe8215bd	-0.2540721
38	0xbe13957d	-0.14412494
39	0xbe135e4a	-0.14391437
40	0xbd37c577	-0.04486605
41	0xbea0bafa	-0.31392652
42	0xbf161afe	-0.58634937
43	0xbea0e4ee	-0.3142466
44	0xbe7ce7ba	-0.24697772
45	0xbe8dcf19	-0.27697065
46	0xbdd058d3	-0.10173192
47	0xbeae5a14	-0.340531
48	0xbf4248f8	-0.7589259
49	0xbe1bc730	-0.15212703
50	0xbf126021	-0.5717793
51	0xbec4830f	-0.3838124
52	0xbea2f9c7	-0.3183119
53	0xbec5ddda	-0.38645822
54	0xbd909939	-0.07060475
55	0xbf0cbb89	-0.54973656
56	0xbe573d0a	-0.21019378
57	0xbe9956bf	-0.29948995
58	0xbea3c551	-0.31986478
59	0xbf19f987	-0.60146374
60	0xbeafb42a	-0.34317142
61	0xbec1287a	-0.37726194
62	0xbe77513f	-0.24152087
63	0xbf19a53f	-0.6001777

conv1.lin_l.weight f4 [64, 4]
0	0xbe27aa8c	-0.16373652
1	0x3ce0036f	0.027345387
2	0x3de71a74	0.112843424
3	0xbd46dab2	-0.048548408
4	0x3e4eb4a0	0.2018609
5	0xbe3e84aa	-0.18605295
6	0x3c255f1f	0.010093479
7	0x3db17fe5	0.08666972
8	0x3ed675b0	0.41886663
9	0xbe901f55	-0.28148904
10	0xbb0533fd	-0.0020325177
11	0xbc77d2b9	-0.015125924
12	0x3f22fdcc	0.63668513
13	0xbf119d17	-0.56880325
14	0xbc1e9324	-0.009678636
15	0x3dcdd2f4	0.10050002
16	0xbde59515	-0.11210076
17	0x3de62611	0.11237729
18	0xbd09d7af	-0.033652958
19	0xb7d2ad39	-2.5114614e-05
20	0x3e207a92	0.15671757
21	0xbe0e87ce	-0.13918993
22	0x3dbe0a52	0.09279312
23	0xbe0e70b0	-0.13910174
24	0xbdaeff73	-0.08544817
25	0xbd6350b7	-0.055496898
26	0x3de06c6d	0.109581806
27	0xbc6a1753	-0.0142877875
28	0x3e94fed0	0.29100657
29	0xbe743d6a	-0.23851553
30	0xbe40529a	-0.1878151
31	0x3c0e94cd	0.008702469
32	0x3f353bea	0.70794547
33	0xbece559a	-0.40299684
34	0xbe6c137a	-0.23054305
35	0xbea9f769	-0.3319657
36	0x3f0164b9	0.50544316
37	0xbee636bb	-0.4496363
38	0xbba57605	-0.0050494694
39	0x3bab85ad	0.0052344413
40	0x3e85d069	0.26135567
41	0xbe551ef0	-0.20812583
42	0xbdf1355c	-0.117777556
43	0x3bfd0c7b	0.007722435
44	0x3e1e4b50	0.15458417
45	0x3dc54c13	0.09633651
46	0x3e762e4e	0.24041101
47	0x3e99cb1f	0.30037782
48	0xbe79194c	-0.24326056
49	0x3e097efc	0.13427347
50	0x3c6d0bae	0.014468117
51	0xbdb80675	-0.089856066
52	0x3f3e4c47	0.7433514
53	0xbf2f542e	-0.68487823
54	0xbe9709bd	-0.29499617
55	0x3d38413e	0.044984095
56	0x3e92a3e2	0.28640658
57	0xbda2126d	-0.07913671
58	0x3e85bf25	0.26122394
59	0xbe9ccd7f	-0.3062553
60	0x3e9794b7	0.29605648
61	0x3c599b07	0.01328159
62	0x3c615898	0.013754033
63	0x3f078a19	0.52945095
64	0x3d402923	0.04691423
65	0xbd4c54dc	-0.049885616
66	0x3ca8221c	0.020524077
67	0xbc9e6799	-0.019336509
68	0x3f143180	0.5788803
69	0xbe7ac1ca	-0.24487987
70	0x3d1104c0	0.03540492
71	0xbd1031ee	-0.035203867
72	0xbe8a9bf0	-0.27072096
73	0x3ea918bb	0.3302668
74	0x3e2264c3	0.1585875
75	0x3df9c2e1	0.12195373
76	0xbe3805d0	-0.17970967
77	0x3e8da9fa	0.27668744
78	0x3c12fbaf	0.008971139
79	0x3b9e9c90	0.004840441
80	0xbd35e7d0	-0.044410527
81	0xbd9c5d1e	-0.07634948
82	0x3ddc560e	0.10758601
83	0xbb3c8375	-0.0028764878
84	0x3f61f6fa	0.8826748
85	0xbf40bb43	-0.7528574
86	0xbb124226	-0.002231726
87	0xbe3e481b	-0.18582194
88	0x3f3474d1	0.7049075
89	0xbe4f522c	-0.2024619
90	0xbde5c5b3	-0.11219349
91	0x3e24354a	0.16035953
92	0x3e082e8d	0.13299008
93	0xbe48b7b1	-0.19601323
94	0x3a8dc616	0.001081648
95	0x3d9e4192	0.0772735
96	0x3dd460c2	0.103700176
97	0xbdc32399	-0.09528274
98	0xbd27fc58	-0.041012138
99	0xbc730578	-0.014832847
100	0x3e3f7979	0.18698682
101	0xbd351259	-0.04420695
102	0xbda8f158	-0.08249158
103	0xbdd7db6e	-0.105399
104	0x3d8433e6	0.06455211
105	0x3e6d4259	0.23169841
106	0xbea0a8e8	-0.31378865
107	0xbe9619d6	-0.29316586
108	0xbeaa2e69	-0.33238533
109	0x3d7f1233	0.062273216
110	0x3d246f9e	0.04014551
111	0xbc8b1690	-0.016978532
112	0x3f171ba7	0.5902657
113	0xbf080f41	-0.53148276
114	0xbc61b28b	-0.013775478
115	0x3de3edd0	0.111293435
116	0xbcf8b303	-0.030358797
117	0x3d15bb51	0.036555592
118	0xbcb4a7cb	-0.022052666
119	0xbdd7daf4	-0.10539809
120	0x3e51beae	0.20482895
121	0xbe493724	-0.1964994
122	0xbca66369	-0.020311074
123	0xbe11b5c1	-0.1422949
124	0xbdba6fb7	-0.09103339
125	0x3dc6e60b	0.09711846
126	0x3c3bd73e	0.011464892
127	0xbd7b11d5	-0.061296303
128	0xbea07619	-0.313401
129	0x3e907d4b	0.2822059
130	0x3cc4939a	0.023996163
131	0x3e154cbb	0.14580052
132	0x3e9d3458	0.30703998
133	0xbd84f599	-0.064921565
134	0x3e9bc481	0.30423358
135	0xbeb00bb4	-0.3438393
136	0x3cda004a	0.026611466
137	0xbd01cd91	-0.031690184
138	0x3e4c7af9	0.19968785
139	0x3bc20487	0.00592095
140	0xbd13f33e	-0.036120646
141	0x3c667310	0.014065519
142	0x3d09ee67	0.033674624
143	0x3cd5c7ce	0.02609625
144	0x3e6fccd2	0.23417976
145	0xbdac741a	-0.08420582
146	0xbda46216	-0.08026521
147	0xbcb07bf5	-0.021543482
148	0xbe7f147e	-0.24910161
149	0x3e6d3620	0.23165178
150	0xbe28781d	-0.1645207
151	0xbbea9bc4	-0.007159682
152	0xbda66ff5	-0.08126823
153	0x3d9f5cc2	0.07781364
154	0xbd515b07	-0.0511122
155	0x3e6712b1	0.22565724
156	0x3e6b626f	0.22986768
157	0xbf05803c	-0.52148795
158	0x3e855739	0.26043108
159	0x3e337385	0.17524536
160	0x3d85a687	0.06525903
161	0x3e57223e	0.21009156
162	0xbe68a611	-0.227196
163	0xbec54b32	-0.38533932
164	0xbd9b0868	-0.07569963
165	0x3c6d0224	0.014465842
166	0x3d875143	0.06607296
167	0x3dca3f61	0.0987537
168	0xbe80544d	-0.25064316
169	0x3e8367fc	0.2566527
170	0xbd65b64c	-0.056082055
171	0x3cc81335	0.024423221
172	0x3f375a88	0.71622515
173	0xbf1bf35f	-0.6091823
174	0xba65375d	-0.00087439065
175	0xbde2b173	-0.11069002
176	0x3e55b808	0.20870984
177	0x3d1a7fa3	0.03771938
178	0x3e8c9435	0.27456823
179	0xbe98eace	-0.29866642
180	0x3e683768	0.22677386
181	0xbe3fce30	-0.18730998
182	0x3dffdeee	0.12493692
183	0x3c1f076b	0.009706358
184	0x3e88b140	0.2669773
185	0xbe4a9835	-0.19784625
186	0x3d8adbf0	0.06780231
187	0x3cf539d4	0.029934801
188	0xbbdda737	-0.0067643183
189	0x3c6727e2	0.01410863
190	0xbaa8fd88	-0.0012892941
191	0x3dc9729c	0.09836313
192	0x3f29e559	0.6636558
193	0xbe68ffc8	-0.22753823
194	0x3df4b2c7	0.119481616
195	0xbd0d0b15	-0.034434397
196	0xbe460d27	-0.19340955
197	0x3ebc526d	0.36781636
198	0x3e032e5d	0.12810655
199	0xbf05606f	-0.5210027
200	0x3f1d5189	0.6145254
201	0xbf0ce341	-0.5503426
202	0xbb545ab4	-0.0032402696
203	0x3ddfa2c5	0.10919718
204	0xbdee853a	-0.11646505
205	0x3e002a3b	0.1251611
206	0xbc4a5a34	-0.012350608
207	0xbc833eb8	-0.016021118
208	0x3d97b33a	0.07407232
209	0xbd29da8c	-0.04146819
210	0xbcb920b2	-0.022598598
211	0xbd7af6b1	-0.06127042
212	0xbe4e33b5	-0.20136912
213	0x3e6559f8	0.22397602
214	0xbc69c77d	-0.014268753
215	0xbc816290	-0.015794069
216	0x3e852c33	0.26010284
217	0xbd1946c3	-0.037421
218	0x3e808182	0.25098807
219	0xbe9554d4	-0.2916628
220	0x3dbd79ec	0.092517704
221	0xbd6d29de	-0.057901256
222	0xbcc77d59	-0.024351763
223	0x3c8da056	0.017288368
224	0x3e760d30	0.24028468
225	0xbe52f07b	-0.20599549
226	0x3e192eed	0.14959307
227	0xbe87c686	-0.2651865
228	0x3db5fd65	0.08886222
229	0xbd53916b	-0.051652353
230	0x3d18c336	0.037295543
231	0x3e0e88f3	0.1391943
232	0x3eb17d57	0.3466594
233	0x3d81c37f	0.06336116
234	0x3cd14185	0.025543937
235	0x3f288fc2	0.65844357
236	0x3e45c46a	0.19313207
237	0xbe265128	-0.16241896
238	0xbc7b3dee	-0.015334589
239	0x3b71f365	0.0036918756
240	0xbe31cb6c	-0.17362756
241	0x3da4fef9	0.08056445
242	0x3b289f67	0.0025729777
243	0xbd31120b	-0.043230098
244	0x3d1d5c0f	0.038417872
245	0xbd148b08	-0.036265403
246	0x3cf319af	0.029675333
247	0xbc3b97f2	-0.011449801
248	0xbe69223a	-0.22766963
249	0x3e4dff52	0.20116928
250	0x3e961f40	0.29320717
251	0xbd0bc8bf	-0.034126993
252	0xbe08bb1b	-0.13352625
253	0x3df90aff	0.121603005
254	0x3cd72850	0.02626434
255	0x3d4027e8	0.046913058

conv1.lin_l.bias f4 [64]
0	0xbf4cbcdf	-0.79975694
1	0xbe4a1b3c	-0.19736952
2	0xbe5a90a6	-0.21344241
3	0xbe278abe	-0.1636152
4	0xbda2c859	-0.079483695
5	0xbea4b4e4	-0.3216926
6	0xbf485ac5	-0.78263503
7	0xbec203ed	-0.3789362
8	0xbf4cb3d2	-0.79961884
9	0x3d9efab8	0.077626646
10	0xbeabc527	-0.33548853
11	0xbf584259	-0.8447624
12	0xbf24b1aa	-0.64333594
13	0xbf1219e6	-0.5707077
14	0xbf448665	-0.7676757
15	0xbf361704	-0.7112887
16	0xbcf726ac	-0.030169807
17	0xbe559d9b	-0.20860903
18	0xbf1c7d27	-0.6112847
19	0xbe8ff84f	-0.28119132
20	0xbf1996eb	-0.5999591
21	0xbeab58d2	-0.33466202
22	0xbdf17201	-0.11789323
23	0xbebbbf4f	-0.36669394
24	0xbdba84fa	-0.091073945
25	0xbf029e8a	-0.5102316
26	0xbf50dd3e	-0.8158759
27	0xbf53502c	-0.8254421
28	0xbe32f368	-0.17475665
29	0xbe313d15	-0.17308457
30	0xbeaa9852	-0.33319336
31	0xbdb3da54	-0.08781877
32	0xbee8c70c	-0.4546436
33	0xbf5be51e	-0.8589648
34	0xbe91da6e	-0.2848696
35	0xbde2ef55	-0.11080805
36	0xbeb4acee	-0.35288185
37	0xbeb718be	-0.35761064
38	0xbed39bc8	-0.4132979
39	0xbf374734	-0.7159302
40	0xbf71418e	-0.94240654
41	0xbee7c8f3	-0.452705
42	0xbe5c0d92	-0.21489552
43	0xbe5e3a8e	-0.21702024
44	0xbf56146b	-0.83624905
45	0xbe80bfcf	-0.25146338
46	0xbe76c74b	-0.24099462
47	0xbe000f57	-0.12505852
48	0xbe492b2c	-0.19645375
49	0xbf12e939	-0.5738712
50	0xbe2dd15a	-0.16974393
51	0xbdc5af39	-0.09652562
52	0xbe0b5605	-0.13607033
53	0xbe18bb5c	-0.14915222
54	0xbf49e9e9	-0.78872544
55	0xbe07ba0b	-0.13254564
56	0xbf36df82	-0.71434796
57	0xbe84f529	-0.25968292
58	0xbf597fcd	-0.84960634
59	0xbd303f1f	-0.043028947
60	0xbef241bf	-0.47315785
61	0xbe2d85a1	-0.16945507
62	0xbf267fc1	-0.65038687
63	0xbdee2b6f	-0.11629378

conv1.lin_r.weight f4 [64, 4]
0	0x3e6f64f4	0.23378354
1	0x3ede9e68	0.4348023
2	0x3dbc8120	0.09204316
3	0x3e2099ec	0.15683717
4	0xbd6af2b0	-0.05736035
5	0x3b512b00	0.00319165
6	0xbe20d0e4	-0.15704685
7	0x3e4bc478	0.19899166
8	0x3e90bc46	0.2826864
9	0x3e196b98	0.1498245
10	0x3de8ef78	0.113738
11	0x3ed839a2	0.4223147
12	0xbea72b76	-0.32650346
13	0x3e47fe10	0.19530511
14	0x3efa96a6	0.4894306
15	0xbeee7e06	-0.46580523
16	0x3ee10444	0.43948567
17	0x3de57420	0.1120379
18	0x3ec22e10	0.37925768
19	0xbdfdb3c0	-0.123878
20	0xbefdcabc	-0.49568737
21	0x3e80e4be	0.25174516
22	0x3ebc4ac6	0.36775798
23	0xbed9f102	-0.42566687
24	0xbd8f4648	-0.06995827
25	0xbed1a0c2	-0.4094296
26	0x3d750ba0	0.05982554
27	0x3c991de0	0.018691003
28	0x3eac2fe0	0.33630276
29	0x3ee736d0	0.45159006
30	0x3ec5b3e2	0.38613802
31	0xbeec4470	-0.46145964
32	0x3ec95b16	0.39327306
33	0x3abe3e00	0.0014514327
34	0x3e16da44	0.14731699
35	0x3ed6e890	0.41974306
36	0xbd5acc30	-0.053417385
37	0xbed2d982	-0.4118157
38	0xbe3bb60c	-0.18331164
39	0x3ed3b7d4	0.41351187
40	0x3dc8adf8	0.09798807
41	0x3e2e624c	0.17029685
42	0x3ede0524	0.43363297
43	0x3eb1c1d6	0.34718198
44	0xbd2de540	-0.042454958
45	0xbe99b206	-0.30018634
46	0x3ec5b4a6	0.38614386
47	0x3eab3fda	0.33447152
48	0xbcbd0fc0	-0.0230788
49	0x3ea58dfa	0.32334882
50	0x3e9c3952	0.30512482
51	0xbe01f258	-0.12690103
52	0x3eb07b46	0.3446905
53	0xbe3b1d94	-0.18273002
54	0xbe527098	-0.20550764
55	0xbed47bba	-0.41500646
56	0xbda9b7d8	-0.082870185
57	0xbec38ace	-0.38191837
58	0xbea97444	-0.33096516
59	0x3ef9920c	0.48744237
60	0xbe611714	-0.2198146
61	0xbee0881c	-0.43853843
62	0x3e81a934	0.25324404
63	0xbe939b22	-0.28829294
64	0x3e758288	0.23975575
65	0xbedd8898	-0.43268275
66	0x3e9ab64c	0.30217206
67	0x3d5b6710	0.053565085
68	0x3e5c060c	0.21486682
69	0xbead84fe	-0.33890527
70	0x3eb9c748	0.36284852
71	0x3ec532d0	0.3851533
72	0xbeb6dd4e	-0.35715717
73	0x3ea5633a	0.32302266
74	0xbec3070c	-0.38091314
75	0xbef1f1e0	-0.47254848
76	0x3ecea388	0.4035914
77	0xbef6f8fe	-0.4823684
78	0xbe8cf502	-0.27530676
79	0x3ee7de56	0.45286816
80	0x3e6b2360	0.22962713
81	0xbddeda48	-0.108814776
82	0x3d281690	0.041037142
83	0xbd061e70	-0.03274387
84	0xbeab7e86	-0.33494967
85	0xbed83aa2	-0.42232233
86	0xbef0b390	-0.47011995
87	0xbd89b360	-0.06723666
88	0x3edb87fc	0.42877185
89	0x3e955c94	0.29172194
90	0xbe60a91c	-0.2193951
91	0x3d8f6b70	0.07002914
92	0xbe0ebd40	-0.1393938
93	0xbdfd8540	-0.12378931
94	0x3d91a168	0.07110864
95	0x3e51db84	0.20493895
96	0xbe34e458	-0.17665231
97	0xbe5a05d4	-0.21291286
98	0xbb398700	-0.0028309226
99	0x3e83b900	0.2572708
100	0xbeffdaee	-0.49971718
101	0xbef0e12e	-0.47046798
102	0xbdb8b728	-0.09019309
103	0x3dcec978	0.10097021
104	0x3e9de43e	0.30838197
105	0x3de15608	0.11002737
106	0x3e76aec8	0.24090111
107	0xbebabfc8	-0.36474442
108	0x3ec408ce	0.38287967
109	0xbd05ada0	-0.032636285
110	0x3e5c31fc	0.21503443
111	0x3db70bd0	0.089378
112	0x3d76ff50	0.06030208
113	0x3da53950	0.08067572
114	0xbeeb64d4	-0.45975363
115	0xbe2d04a0	-0.16896296
116	0xbe73b2a8	-0.2379862
117	0x3eca0030	0.39453268
118	0x3e71d490	0.23616242
119	0xbeb076f6	-0.3446576
120	0xbec5a654	-0.3860346
121	0xbee04296	-0.438008
122	0xbe85936a	-0.2608903
123	0x3ebde132	0.37085873
124	0xbeda829e	-0.42677778
125	0x3e8d3ae6	0.27583998
126	0x3e84b802	0.25921637
127	0x3efa5bb8	0.488981
128	0xbee52e68	-0.44761968
129	0xbe36de80	-0.17858315
130	0xbdea2b10	-0.11433995
131	0xbeda137e	-0.42592996
132	0x3ef16366	0.47146147
133	0xbdccfd18	-0.10009211
134	0x3ef428fe	0.47687525
135	0xbcb41ea0	-0.02198726
136	0xbecf0e80	-0.4044075
137	0xbe777f20	-0.24169588
138	0x3ed5d3ca	0.41763145
139	0x3ee645c8	0.44975114
140	0xbefaa158	-0.4895122
141	0x3edef352	0.43545014
142	0x3e606818	0.21914709
143	0xbe38bea0	-0.18041468
144	0x3e95cd8e	0.29258388
145	0x3ecd590c	0.40107
146	0xbe8f417c	-0.27979648
147	0x3d58cd80	0.052930355
148	0x3e9de3c0	0.30837822
149	0xbea8eec2	-0.32994658
150	0xbd2b29e0	-0.041787982
151	0x3df48fb0	0.11941469
152	0x3d7753d0	0.060382664
153	0x3e882628	0.2659161
154	0xbea94cea	-0.33066493
155	0xbebcf8ea	-0.36908656
156	0x3eb7747c	0.35831058
157	0x3d1c24b0	0.038120925
158	0xbeb2f940	-0.34955788
159	0xbe20c19c	-0.15698856
160	0xbebea7c4	-0.3723737
161	0x3d9fee90	0.07809174
162	0xbea1bb9a	-0.3158844
163	0x3dbe74b0	0.092996
164	0xbe8f22de	-0.2795629
165	0xbe4713c8	-0.1944114
166	0x3d75e160	0.060029387
167	0xbec47afe	-0.38375086
168	0xbe0042cc	-0.12525481
169	0x3ea12aa8	0.31477857
170	0x3e0e6910	0.13907266
171	0xbef8fd60	-0.4863081
172	0xbefbd772	-0.4918781
173	0xbeef40c8	-0.46729112
174	0xbeb2133e	-0.34780306
175	0xbd9eb8f0	-0.07750118
176	0x3d712890	0.058876574
177	0x3e7e3440	0.2482462
178	0xbed30a60	-0.41218853
179	0x3e8ed258	0.27894855
180	0x3e93f1e4	0.28895485
181	0xbea6bcd2	-0.32565933
182	0xbce00a20	-0.027348578
183	0xbe0c0090	-0.1367209
184	0x3e9a5294	0.30141127
185	0xbd95f9a8	-0.07323009
186	0x3ed664aa	0.41873676
187	0x3db91ff0	0.09039295
188	0x3e0d2708	0.1378442
189	0x3ecebe3a	0.40379506
190	0xbda5c710	-0.08094609
191	0xbe769d18	-0.24083364
192	0x3cddc420	0.027071059
193	0x3e9db402	0.30801398
194	0xbe0dec74	-0.13859731
195	0xbefa2af8	-0.48860908
196	0x3e9a4d00	0.3013687
197	0xbe96406a	-0.2934602
198	0xbeee7daa	-0.4658025
199	0x3ef538ee	0.47894996
200	0x3eaa83a8	0.3330357
201	0xbe574cd8	-0.21025407
202	0xbe8a1b4c	-0.2697395
203	0xbebf3fca	-0.37353355
204	0xbe833700	-0.256279
205	0xbecb12b0	-0.39662695
206	0xbef94d88	-0.48691964
207	0x3ef71354	0.48256934
208	0x3ef54eca	0.47911674
209	0x3ed2dd7a	0.41184598
210	0xbdc02468	-0.09381944
211	0x3ec7f860	0.39056683
212	0x3dc83da0	0.09777379
213	0x3ede6f36	0.43444222
214	0xbe379d58	-0.17931116
215	0x3eb582c6	0.35451335
216	0x3edb909a	0.4288376
217	0x3ee0cf14	0.43907988
218	0xbdfe0268	-0.12402803
219	0xbe70b2f4	-0.23505765
220	0x3cb083e0	0.021547258
221	0xbedfe83c	-0.43731868
222	0x3e846806	0.25860614
223	0xbe739454	-0.23787051
224	0x3c53bd80	0.012923598
225	0xbd614030	-0.054992855
226	0xbec7343e	-0.38907045
227	0xbdce81d0	-0.100833535
228	0xbe407c84	-0.18797499
229	0x3ef676fa	0.48137647
230	0x3ef00002	0.46875006
231	0x3ee51e1c	0.44749534
232	0x3dc93af0	0.098256946
233	0xbe30ea8c	-0.17276973
234	0xbdf71068	-0.12063676
235	0x3ef4075c	0.47661865
236	0xbe68a3d8	-0.22718751
237	0xbe062e8c	-0.13103694
238	0x3ef8e6f2	0.48613697
239	0x3db16f70	0.08663833
240	0xbef9c942	-0.4878636
241	0x3eb585cc	0.3545364
242	0xbde3ada0	-0.11117101
243	0xbe8c2e7a	-0.2737921
244	0xbe8aeb42	-0.27132612
245	0xbe018594	-0.12648612
246	0x3d8034e8	0.06260091
247	0xbda5ba28	-0.08092147
248	0x3df92f10	0.121671796
249	0xbe982ff2	-0.2972408
250	0xbe62bea0	-0.2214303
251	0x3cb6cc20	0.022314131
252	0xbed6a3bc	-0.41921794
253	0xbe299114	-0.16559249
254	0xbeec2800	-0.46124268
255	0xbc5e4a40	-0.013567507

conv1.lin_r.bias f4 [64]
0	0x3e62a064	0.22131497
1	0x3eb9c0a0	0.36279774
2	0x3eec3358	0.46132922
3	0xbecaa0de	-0.39575857
4	0xbee4b1e8	-0.44666982
5	0xbed2940e	-0.41128582
6	0x3ea01550	0.3126626
7	0x3ed23562	0.41056353
8	0xbe0e66a0	-0.13906336
9	0x3e85988a	0.2609294
10	0xbcf5b2e0	-0.02999252
11	0xbdea2298	-0.114323795
12	0x3da8be48	0.08239418
13	0xbedc1dd8	-0.4299152
14	0x3e40fbe8	0.18846095
15	0xbe00b9bc	-0.12570852
16	0xbea03c68	-0.31296086
17	0x3ea64e64	0.32481682
18	0x3eab40ae	0.33447784
19	0xbccfc4a0	-0.025362313
20	0xbcafbf40	-0.0214535
21	0x3ee1f526	0.44132346
22	0xbea518f0	-0.32245588
23	0xbd1b1d20	-0.037869573
24	0xbe12d8e4	-0.1434055
25	0x3ebe63c2	0.37185484
26	0xbaad4000	-0.0013217926
27	0xbeffef36	-0.4998719
28	0x3efd802e	0.49511856
29	0xbe84ef28	-0.25963712
30	0xbe736420	-0.23768663
31	0x3eb91b78	0.3615377
32	0xbe4cef10	-0.2001307
33	0x3e4e2684	0.2013188
34	0xbe96fec4	-0.29491246
35	0x3d90ec80	0.07076359
36	0xbda1da20	-0.07902932
37	0xbe2e51ac	-0.17023343
38	0xbd781410	-0.060566008
39	0xbdd174e0	-0.1022737
40	0x3e9d54d6	0.30728787
41	0xbec99b7e	-0.39376444
42	0xbec5683c	-0.38556087
43	0xbe78fb00	-0.24314499
44	0x3c98ed40	0.018667817
45	0x3ebe40ec	0.37158906
46	0x3ede0516	0.43363255
47	0xbee940cc	-0.4555725
48	0xbd4a28f0	-0.049355447
49	0x3e39aa38	0.1813134
50	0x3ea61e40	0.32444954
51	0x3ea1f658	0.31633258
52	0x3eec6f0c	0.46178472
53	0xbebfbb90	-0.37447786
54	0xbcc67120	-0.024223864
55	0x3e206f80	0.15667534
56	0x3ec3995c	0.3820294
57	0xbe883866	-0.2660553
58	0x3ca95620	0.02067095
59	0xbe801f58	-0.25023913
60	0x3ea6774c	0.3251289
61	0x3edf8658	0.43657184
62	0xbdeff918	-0.11717433
63	0x3ca76c80	0.020437479

conv1.lin_edge.weight f4 [64, 2]
0	0xbe8a9bd0	-0.27072
1	0xbe97b472	-0.29629856
2	0xbe4af9a0	-0.19821787
3	0x3eca5b52	0.39522797
4	0x3d086c70	0.03330654
5	0xbe9384f0	-0.2881236
6	0xbe6b0d6a	-0.22954336
7	0x3ea3ee5e	0.32017797
8	0x3e871b96	0.26388234
9	0x3e487224	0.19574791
10	0x3e705b70	0.2347238
11	0x3f34e18d	0.70656663
12	0xbebe61b0	-0.37183905
13	0x3d3c5ec0	0.0459888
14	0x3ef26ade	0.47347158
15	0xbe1e9e10	-0.15489984
16	0xbe3e7da8	-0.18602622
17	0x3f300d2f	0.68770117
18	0xbe66558c	-0.22493571
19	0x3dc424d8	0.0957734
20	0x3e56b3a8	0.20966971
21	0xbf00f313	-0.503709
22	0xbe2a886c	-0.16653603
23	0x3f03ab1b	0.5143296
24	0x3eb29cb6	0.34885186
25	0x3e7fb644	0.24971873
26	0x3f319715	0.6937116
27	0x3e8b55c8	0.27213883
28	0xbe22aa34	-0.1588524
29	0xbf26e40f	-0.6519174
30	0xbecdc3f1	-0.40188554
31	0x3de62448	0.11237389
32	0xbf173985	-0.5907214
33	0xbf17bf2c	-0.5927608
34	0xbf083ef5	-0.53221065
35	0x3e615260	0.2200408
36	0x3e717428	0.23579466
37	0x3f231f75	0.63719875
38	0x3e60cc74	0.21952993
39	0xbddf5e48	-0.109066546
40	0x3e8bb056	0.2728297
41	0x3ed9a2f6	0.42507142
42	0x3e9bfbee	0.30465645
43	0x3f189251	0.5959826
44	0xbf1fdf40	-0.6245003
45	0xbf31262c	-0.6919887
46	0xbec32bae	-0.38119262
47	0x3e8ac5ba	0.27103978
48	0x3d2a6180	0.04159689
49	0x3e96eb5a	0.29476434
50	0xbf316ca2	-0.69306386
51	0xbeed6992	-0.46369606
52	0xbc3f4280	-0.01167357
53	0xbd92f570	-0.0717572
54	0x3ccb2de0	0.024802148
55	0x3da5a4a8	0.08088046
56	0x3ed82b2a	0.42220432
57	0x3dd0ea10	0.10200894
58	0x3d6ae6f0	0.057349145
59	0xbe23ad5c	-0.159841
60	0x3da8cf80	0.082427025
61	0x3e21c2f4	0.15797025
62	0xbd6b9ea0	-0.057524323
63	0x3e12247c	0.1427173
64	0xbef5a1ab	-0.47974905
65	0x3e70f86c	0.23532265
66	0xbd919a70	-0.07109535
67	0xbf17f95e	-0.5936488
68	0x3f25e9ff	0.64810175
69	0xbda91258	-0.08255452
70	0xbe98e903	-0.29865274
71	0xbe1cc5ec	-0.15309876
72	0x3f08d857	0.5345511
73	0xbf1a4a60	-0.6026974
74	0xbf02420a	-0.5088202
75	0x3eabf0be	0.3358211
76	0x3e77d550	0.24202466
77	0xbe001a0c	-0.12509936
78	0x3e9c7eda	0.3056553
79	0xbc933f00	-0.017974377
80	0x3b77f800	0.0037837029
81	0xbd0f3600	-0.034963608
82	0xbd99bda8	-0.07506877
83	0x3e914382	0.28371817
84	0x3d0734b0	0.03300923
85	0xbe8bc5de	-0.27299398
86	0xbebbbde4	-0.36668313
87	0x3f0f7333	0.56035155
88	0x3ef55a9e	0.47920698
89	0xbeb55540	-0.35416603
90	0xbeb40360	-0.35158825
91	0xbc891920	-0.016735613
92	0xbeb12e75	-0.34605756
93	0xbd8f9c70	-0.0701226
94	0x3ed3af62	0.41344744
95	0xbf2b8e60	-0.6701412
96	0x3ee09aee	0.43868202
97	0x3f2e0a3d	0.6798437
98	0x3e11acac	0.14226025
99	0x3e11ba94	0.1423133
100	0x3ed48f82	0.41515738
101	0xbf15bcca	-0.58491194
102	0xbed9ff00	-0.42577362
103	0x3cff3a60	0.031155765
104	0xbe9fe21d	-0.31227198
105	0xbdad1b30	-0.08452451
106	0xbdc04070	-0.093872905
107	0x3e64b4a0	0.22334528
108	0x3e00f17c	0.12592119
109	0x3e5bd510	0.21467996
110	0xbe9483f3	-0.2900692
111	0x3e2902bc	0.1650495
112	0xbeed1b3a	-0.46309835
113	0xbd8ef6a8	-0.0698064
114	0xbe23e0f8	-0.16003788
115	0xbe82f6b2	-0.2557884
116	0xbb869880	-0.004107535
117	0xbec7e431	-0.39041284
118	0x3f193575	0.59847194
119	0x3f2617d1	0.6488009
120	0x3d68f290	0.05687195
121	0xbc955120	-0.01822716
122	0xbe115a48	-0.14194596
123	0xbe4ee41c	-0.20204204
124	0x3ee4c466	0.4468109
125	0x3e1227c4	0.14272982
126	0xbecd3ba0	-0.40084553
127	0x3ce19860	0.027538478

conv2.att f4 [1, 1, 64]
0	0xbe81c163	-0.25342855
1	0x3e84ea52	0.25960022
2	0x3e28ea0c	0.16495532
3	0xbd9ec4ba	-0.07752366
4	0xbd2b4788	-0.041816264
5	0x3e2f7c9a	0.17137375
6	0xbe65435b	-0.22388975
7	0x3e1e78ea	0.15475813
8	0xbd614c6c	-0.055004522
9	0x3e9400c2	0.28906828
10	0x3e9a1156	0.3009135
11	0xbe638b32	-0.22221068
12	0xbc566280	-0.013085008
13	0x3d569290	0.052385867
14	0xbde68a82	-0.11256887
15	0xbb47e900	-0.003050387
16	0xbe19332b	-0.14960925
17	0x3df8e9e0	0.12153983
18	0x3bd65740	0.0065411627
19	0x3d035c90	0.032070696
20	0x3e810578	0.25199485
21	0xbcdab320	-0.026696742
22	0x3e8a2d6e	0.26987785
23	0x3e810728	0.25200772
24	0x3e97ef84	0.29674923
25	0x3dd93ca8	0.106072724
26	0x3e449eea	0.19201246
27	0x3e356542	0.17714408
28	0x3e84b18c	0.25916708
29	0x3e99d78e	0.30047268
30	0xbe981e61	-0.29710677
31	0x3de73598	0.11289519
32	0x3e12beb8	0.14330566
33	0x3d590338	0.052981585
34	0x3e361cbc	0.17784399
35	0x3e47b61e	0.19503066
36	0x3e6a0290	0.2285254
37	0xbce0e670	-0.027453631
38	0xbe7b1d30	-0.24522853
39	0xbe687750	-0.22701764
40	0x3b816800	0.0039491653
41	0xbe92279f	-0.28545853
42	0xbe28174a	-0.16415134
43	0xbe377712	-0.17916515
44	0x3e80673c	0.25078762
45	0x3e1ffbfc	0.15623468
46	0x3df68a58	0.12038106
47	0xbe3a8fd2	-0.18218926
48	0x3e972454	0.29519904
49	0xbe7ab939	-0.2448472
50	0x3d13b460	0.03606069
51	0x3cb81cf0	0.022474736
52	0xbc86d2b0	-0.016457886
53	0xbe721b69	-0.23643269
54	0xbe9b0e90	-0.30284548
55	0xbcc21b80	-0.023694754
56	0x3dc76e10	0.0973779
57	0x3e5477c0	0.20748806
58	0xbde412dc	-0.1113641
59	0x3e294bda	0.16532841
60	0x3dece93c	0.115679234
61	0xbe837b55	-0.25680032
62	0x3dcdea68	0.10054475
63	0xbe322e49	-0.17400469

conv2.bias f4 [64]
0	0xbca4d81e	-0.020122584
1	0xbd89a347	-0.06720596
2	0x3cb7cc3c	0.022436254
3	0xbc08ce95	-0.008350034
4	0x3d9eef94	0.0776054
5	0xbcbd5913	-0.023113763
6	0x3da0d7d3	0.07853665
7	0xbd6920a8	-0.05691591
8	0xbd5a2bd8	-0.05326447
9	0x3dc14fa1	0.09439016
10	0x3d249b15	0.04018696
11	0x3d33683a	0.04380057
12	0x3dafba0b	0.08580407
13	0xbd8d18a7	-0.06889468
14	0x3d783931	0.060601417
15	0xbd8549f8	-0.06508249
16	0xbda04df9	-0.07827372
17	0x3d86078d	0.06544409
18	0xbd0e96a8	-0.034811646
19	0x3d62a5bd	0.05533384
20	0xbd485e94	-0.04891832
21	0xbd8a1eb2	-0.06744136
22	0x3dbdc8cd	0.09266815
23	0x3d9d69b1	0.07686175
24	0x3c394586	0.01130808
25	0x3d549a2a	0.051904835
26	0x3d8e98e1	0.06962753
27	0xbc0e36b9	-0.008680039
28	0x3cbf9e43	0.023390895
29	0xbddbe05f	-0.10736155
30	0x3d7bab64	0.061442748
31	0x3c3e0bfb	0.011599536
32	0x3dd03dd0	0.1016804
33	0xbe8a09cb	-0.26960596
34	0x3bd0f78d	0.0063771666
35	0x3d2984ba	0.041386344
36	0xbdd65005	-0.10464481
37	0x3d64f14f	0.055894192
38	0xbc2f1926	-0.010687148
39	0xbde5be92	-0.11217989
40	0xbd9f06b8	-0.077649534
41	0x3d209b62	0.039210685
42	0x3cd8ffbe	0.026489135
43	0xbcd8e5fa	-0.026476849
44	0x3d0355b0	0.03206414
45	0x3d645114	0.055741385
46	0xbd537f7b	-0.051635247
47	0x3d5075e2	0.05089367
48	0xbc96f0a6	-0.018425297
49	0x3d4aa2b5	0.049471576
50	0xbd7514a0	-0.059834123
51	0x3caac358	0.0208451
52	0x3d25349f	0.040333387
53	0x3dd8ba4e	0.1058241
54	0xbd101373	-0.0351748
55	0xbd810884	-0.06300452
56	0xbbc8bbfc	-0.006125925
57	0x3bbb268a	0.0057113813
58	0xbd8cd963	-0.06877401
59	0x3ce2dfcc	0.027694605
60	0xbd248f5c	-0.04017578
61	0xbce93be8	-0.028470948
62	0xbb5972d7	-0.0033180022
63	0x3c0104ac	0.007874649

conv2.lin_l.weight f4 [64, 64]
0	0x3db1496a	0.08656581
1	0xbd9eb05c	-0.07748482
2	0xbd657632	-0.056020923
3	0xbd42ed55	-0.04758962
4	0xbb826a82	-0.003979982
5	0xbd7ab562	-0.061208136
6	0x3d5ef8ef	0.05443662
7	0xbda558c1	-0.08073569
8	0x3d76067f	0.06006479
9	0xbba0b812	-0.0049047554
10	0xbd88a087	-0.06671243
11	0x3e6b2ba3	0.22965865
12	0x3c5ccb1d	0.01347616
13	0x3d80668e	0.06269561
14	0xbd261dd2	-0.040555783
15	0x3da8337c	0.08212945
16	0x3cd5adfd	0.02608394
17	0xbd34094d	-0.043954182
18	0x3d8a311e	0.067476496
19	0x3d76a68b	0.06021742
20	0x3d67a278	0.056551427
21	0xbe00afd5	-0.12567075
22	0xbc5776c5	-0.013150875
23	0x3d214acc	0.039377972
24	0x3ded5736	0.115889
25	0x3d7958eb	0.060875814
26	0x3d5ce0b5	0.053925235
27	0x3bc12789	0.0058946055
28	0xbdb6231a	-0.08893414
29	0x3cc36d00	0.023855686
30	0x3cb6d9bd	0.022320623
31	0xbbf4ac92	-0.007466861
32	0x3d8cf9e8	0.06883603
33	0x3c0673a6	0.008206284
34	0xbdcc8998	-0.099871814
35	0xbdc7ab2f	-0.097494476
36	0x3cb9dda0	0.022688687
37	0x3da8525d	0.082188345
38	0x3d8effbe	0.06982373
39	0xba40d529	-0.0007355982
40	0x3de62973	0.112383746
41	0x3e2d7a13	0.16941099
42	0x3dfc6821	0.123245485
43	0x3e00fa20	0.12595415
44	0xbc41aedd	-0.011821476
45	0xbe160ca4	-0.1465326
46	0xbda6697d	-0.08125589
47	0xbd6a06d0	-0.057135403
48	0x3d1be9fa	0.038064934
49	0x3c48076d	0.012208802
50	0x3cf2ccee	0.029638734
51	0xbde3b6d4	-0.11118856
52	0x3dc90a44	0.09816411
53	0x3d81304d	0.06308041
54	0xbeb33dcc	-0.35008085
55	0xbd6f652b	-0.05844609
56	0xbbe668fd	-0.0070315585
57	0x3d1e2881	0.038612846
58	0x3c413f23	0.011794838
59	0x3c94763a	0.018122781
60	0xbddb9fbc	-0.10723826
61	0xbd68e82f	-0.056862053
62	0xbdef94a6	-0.11698274
63	0xbd06f925	-0.032952446
64	0x3d5b069f	0.05347311
65	0xbd1f9d78	-0.038968533
66	0x3d96cae0	0.07362914
67	0xbdf18dba	-0.1179461
68	0x3c6e8a2b	0.014559309
69	0xbd2d9b66	-0.042384528
70	0x3d49927b	0.04921196
71	0x3dbbbbd7	0.09166687
72	0x3dac0ab3	0.08400478
73	0x3c493043	0.012279573
74	0xbcc28d5a	-0.023749042
75	0x3da54760	0.08070254
76	0x3d17b8f0	0.037041605
77	0xbddda1a9	-0.1082185
78	0xbc9e5c52	-0.019331131
79	0xbd15b7f7	-0.036552396
80	0xbc82639b	-0.015916636
81	0x3d908a22	0.07057597
82	0x3dba92b8	0.09110016
83	0x38986a8e	7.267772e-05
84	0x3dff07f2	0.12452687
85	0xbb664515	-0.003513639
86	0xbc9362e3	-0.017991489
87	0xbd9752a9	-0.07388813
88	0x3cc48ca9	0.023992853
89	0x3d9495da	0.072551444
90	0x3cdc09a1	0.02686006
91	0x3c8448ad	0.016147936
92	0xbd40cb58	-0.047068924
93	0xbc6837a4	-0.014173422
94	0x3dde3593	0.10850062
95	0xbd0be20e	-0.03415113
96	0x3d3a9202	0.0455494
97	0x3dabd5fb	0.08390423
98	0x3da6fc19	0.081535526
99	0x3d9eddbe	0.07757138
100	0xbd3c0f8b	-0.04591326
101	0xbd3c64f7	-0.045994725
102	0x3b2dbe42	0.0026511108
103	0x3be4351b	0.0069643385
104	0x3d83f0bd	0.064424016
105	0x3e1fdcc5	0.1561156
106	0xbdf5645e	-0.11982034
107	0xbd815c7c	-0.06316468
108	0x3d73d3b4	0.059528068
109	0x3db93677	0.090435915
110	0xbc9e7444	-0.01934255
111	0x3d493d1d	0.049130548
112	0xbb4ad1a5	-0.0030947712
113	0x3db32e85	0.08749107
114	0xbc708253	-0.014679509
115	0xbda4fa1a	-0.080555156
116	0xbd15e03a	-0.036590792
117	0x3d287848	0.041130334
118	0x3e018aa1	0.12650539
119	0xbda74579	-0.08167548
120	0xbd872f27	-0.066007905
121	0xbd9959ca	-0.07487829
122	0x3d6f02c5	0.05835225
123	0xbb2cdfa9	-0.002637843
124	0x3cc10ab0	0.023564667
125	0x3ddf020e	0.10889064
126	0xbe1abed0	-0.15111852
127	0xbd4af5c2	-0.04955078
128	0xbcd479ea	-0.02593704
129	0xbd1c7a8d	-0.03820281
130	0x3d827530	0.06370008
131	0x3cceba65	0.025235364
132	0xbcc9afea	-0.024620015
133	0x3c1db29c	0.009625103
134	0xbcd83eec	-0.026397191
135	0xbcc72611	-0.024310144
136	0x3dc1ec4b	0.094688974
137	0x3b2620a4	0.0025349045
138	0xbdcbef65	-0.0995777
139	0x3e1b1267	0.15143739
140	0xbdedbf6f	-0.11608779
141	0x3dc023c5	0.093818225
142	0xbe03a14a	-0.12854496
143	0x3dff9601	0.12479783
144	0xbd2b7f40	-0.041869402
145	0xbbbc4cb6	-0.0057464493
146	0x3c1637b4	0.009168554
147	0xbdab9768	-0.08378488
148	0x3b3a3e4a	0.0028418475
149	0xbe32f71e	-0.1747708
150	0xbc8bbe79	-0.017058598
151	0x3e096f85	0.13421448
152	0x3d56d75b	0.052451473
153	0x3cc5bc68	0.02413769
154	0x3d7a8225	0.06115927
155	0x3d037796	0.032096468
156	0x3d52c5ad	0.05145805
157	0x3dfa0ec8	0.122098505
158	0xbd022c8f	-0.031780776
159	0xbd7e0d25	-0.062024254
160	0x3dd4d50f	0.103922
161	0x3ba45de3	0.005016075
162	0x3da055ad	0.07828841
163	0xbcd6c0a5	-0.026214907
164	0x3d9338bb	0.07188555
165	0xbd64fd42	-0.055905588
166	0x3d61fcbe	0.055172674
167	0x3c4b99c0	0.012426794
168	0x3b366d32	0.0027836082
169	0xbd959eea	-0.07305701
170	0xbe3ca960	-0.18423986
171	0xbe30dccf	-0.17271732
172	0xbd65a3d5	-0.056064446
173	0xbcd71bd7	-0.026258392
174	0x3b6c8513	0.003609006
175	0x3d4b789e	0.049675576
176	0x3d5d7aa9	0.054072056
177	0x3dbbf6c3	0.091779254
178	0x3dc4e731	0.09614409
179	0xbcaf27dc	-0.021381311
180	0xbd292b7e	-0.041301243
181	0x3c99417b	0.018707981
182	0xbdf36ec9	-0.11886365
183	0x3d617451	0.05504257
184	0xbdac2ca7	-0.08406954
185	0xbd110b7f	-0.035411354
186	0xbd955c02	-0.0729294
187	0xbc8ce324	-0.017198153
188	0xbd1b8b35	-0.037974555
189	0x3de906fe	0.11378287
190	0xbdc248a3	-0.094865106
191	0xbc8e0a32	-0.017338846
192	0x3e1cedfd	0.1532516
193	0xbd9b0a70	-0.0757035
194	0x3cce7274	0.02520106
195	0xbe42e975	-0.1903437
196	0xbdccb1b8	-0.09994835
197	0xbd5fdd56	-0.05465444
198	0x3d6e3451	0.05815536
199	0xbd41c9e2	-0.04731167
200	0x3e20b5c0	0.15694332
201	0x3c025008	0.007953651
202	0x3d8ffcee	0.070306644
203	0x3e8567c7	0.26055738
204	0x3db18406	0.086677596
205	0xbd342585	-0.043981094
206	0xbe07ea91	-0.13273074
207	0x3dd214fc	0.10257909
208	0xbd9f5206	-0.077793166
209	0x3c996d3e	0.018728849
210	0xbd0a82e7	-0.033816244
211	0xbd9611ee	-0.073276386
212	0xbdc135a8	-0.09434062
213	0x3c9346a0	0.017978013
214	0xbc5d336b	-0.0135010285
215	0x3cb6a7fd	0.0222969
216	0xbd930c57	-0.07180088
217	0x3db6aa4b	0.089191996
218	0x3ca19e80	0.019728899
219	0x3bb258a6	0.0054426966
220	0xbde692e4	-0.11258486
221	0x3d930ec4	0.07180551
222	0x3d939983	0.072070144
223	0xbd26b72f	-0.04070204
224	0x3d893ea4	0.06701401
225	0xba643130	-0.0008704839
226	0x3da40646	0.08009009
227	0x3d49e343	0.049289
228	0xbda34b20	-0.07973313
229	0xbdb131fe	-0.086521134
230	0xbae94a8c	-0.0017798706
231	0x3ce60852	0.02808014
232	0xbd509c91	-0.050930563
233	0xbd9741a3	-0.07385566
234	0x3de25e26	0.11053114
235	0xbca33465	-0.019922445
236	0xbe0fba90	-0.14036012
237	0xbd33f430	-0.043934047
238	0xbdc674b3	-0.09690227
239	0x3d3c04a7	0.045902874
240	0xbbdb2107	-0.006687287
241	0x3d8c0147	0.06836181
242	0xbdc488ec	-0.09596428
243	0x3da30ee7	0.07961827
244	0xbc062642	-0.008187832
245	0xbe1a1222	-0.1504598
246	0x3b9ae920	0.0047274977
247	0x3d847733	0.06468048
248	0xbdb13d42	-0.08654262
249	0x3d7e925d	0.0621513
250	0xbc5683c0	-0.013092935
251	0x3b37a00e	0.0028018984
252	0xbe027b3f	-0.12742327
253	0x3be99246	0.007128033
254	0x3d2fe907	0.04294684
255	0xbc7004ee	-0.014649613

conv2.lin_l.bias f4 [64]
0	0x3c3dbbc8	0.011580415
1	0x3c439c56	0.011939129
2	0x3a8cf2d2	0.0010753518
3	0x3a9af0cc	0.0011821031
4	0x3bc38b6a	0.005967547
5	0xba251a0c	-0.0006298132
6	0xbcad76dc	-0.02117484
7	0x3bf83868	0.0075750835
8	0x3b9db21c	0.004812492
9	0xbc3e6aaf	-0.011622115
10	0xbc92b92c	-0.017910562
11	0xbbe96075	-0.0071220943
12	0xbb91e2d8	-0.0044520907
13	0x3c808501	0.015688421
14	0xbc3f5ab1	-0.011679337
15	0x3c4cd03a	0.012500817
16	0x3af9bbbe	0.0019053144
17	0xbc221718	-0.009893201
18	0xbb4fdd33	-0.0031717538
19	0xbc21ea46	-0.009882515
20	0x3bdd8bb5	0.006761039
21	0xbc14e05e	-0.009086696
22	0xbc9a3ffc	-0.018829338
23	0xbc88b132	-0.016686056
24	0xbbeaa73d	-0.0071610496
25	0xbbfe97ef	-0.0077695767
26	0xbb9c4114	-0.0047685
27	0x3a8cf0c0	0.0010752901
28	0x3be769b2	0.0070621604
29	0x3c9b60b3	0.018967008
30	0xbc68352c	-0.014172833
31	0xbaf5dab6	-0.0018757198
32	0xbc785005	-0.015155797
33	0xbdb77246	-0.08957343
34	0x3990090e	0.00027472567
35	0xbbbe91e3	-0.005815731
36	0x3c9c909d	0.019111926
37	0xbc971728	-0.018443659
38	0xba1bb196	-0.0005939243
39	0xba15853b	-0.0005703752
40	0x3c92cb5f	0.01791924
41	0xbbfbb567	-0.007681537
42	0xbbbdc7f6	-0.0057916595
43	0x3c0b93c7	0.00851912
44	0x3ae5e1bf	0.0017538591
45	0xbbdca6e7	-0.0067337635
46	0x3bf52e44	0.007482322
47	0xbb8ef3c7	-0.0043625566
48	0x3c496ab9	0.012293511
49	0xbc2cdf2f	-0.010551258
50	0xbc49a0cc	-0.012306403
51	0xbb8ae139	-0.0042382744
52	0xbbe8bc5e	-0.0071025332
53	0xbc368e21	-0.011142285
54	0x3c21e512	0.009881275
55	0x3c3864c6	0.011254495
56	0x3cbaf324	0.022821017
57	0x3b3dbe7f	0.0028952656
58	0x3bf66c12	0.007520207
59	0xbc397ee4	-0.011321757
60	0xba2bff2c	-0.0006561156
61	0x3cbfe0e5	0.023422668
62	0xbba5600f	-0.0050468515
63	0x3b3c61c3	0.0028744794

conv2.lin_r.weight f4 [64, 64]
0	0x3bb2ba40	0.0054543316
1	0xbdb7e76e	-0.089796886
2	0x3dad62e2	0.08466126
3	0x3cf37f80	0.029723883
4	0xbd6e10ec	-0.058121607
5	0x3d6754e0	0.056477427
6	0x3d2bbc1c	0.041927442
7	0xbd58a948	-0.052895814
8	0x3ceda978	0.029011473
9	0xbdd26de0	-0.10274863
10	0x3da0908a	0.07840069
11	0x3df74220	0.12073159
12	0x3d9d4244	0.07678655
13	0x3dc5eb2a	0.096639946
14	0xbdb1e60a	-0.086864546
15	0xbd3ec204	-0.046571746
16	0x3deb0570	0.114756465
17	0xbd97b15c	-0.074068755
18	0x3d0586a8	0.03259912
19	0xbda36518	-0.079782665
20	0xbd175ce0	-0.036953807
21	0x3d9d6fd0	0.07687342
22	0x3dc22a84	0.094807655
23	0x3d4b1eb8	0.049589843
24	0x3d99b668	0.07505494
25	0x3d97167c	0.073773354
26	0xbc2a6380	-0.010399699
27	0x3d374ce0	0.044751048
28	0xbd9cd298	-0.07657355
29	0x3dc73828	0.09727508
30	0xbc6a4940	-0.014299691
31	0x3d3496ec	0.044089243
32	0xbd47899c	-0.04871522
33	0xbdc0e6de	-0.094190344
34	0xbd591dd0	-0.053006947
35	0x3df5e8e0	0.12007308
36	0xbdd66d7a	-0.104701
37	0x3c85b010	0.016319305
38	0xbdc9b024	-0.09848049
39	0x3cfe76a0	0.031062424
40	0x3db21908	0.086961806
41	0x3bb40b20	0.0054944903
42	0xbd5e8de8	-0.05433455
43	0x3aba8b80	0.0014232248
44	0x3d9b7bce	0.07591973
45	0xbd208e2c	-0.039198086
46	0x3d499c4c	0.049221322
47	0xbd079f58	-0.033110946
48	0x3d9d1524	0.07670048
49	0x3d6a67f4	0.057228044
50	0x3d12eb14	0.03586872
51	0x3d754d24	0.05988802
52	0x3dfe722e	0.12424122
53	0x3ca274e8	0.019831136
54	0x3df73afa	0.12071796
55	0xbc7ee010	-0.01555635
56	0x3d98ec50	0.07466948
57	0x3dd9fe76	0.10644238
58	0xbda20ea4	-0.07912949
59	0x3dbb52b6	0.09146635
60	0xbdfcacca	-0.123376444
61	0x3d976202	0.073917404
62	0xbdae04de	-0.08497022
63	0xbdb81816	-0.08988969
64	0x3ccf6058	0.025314495
65	0xbc699440	-0.014256537
66	0xbdbdee64	-0.09273985
67	0xbd41b504	-0.04729177
68	0xbdac5f18	-0.08416575
69	0xbc83db98	-0.016095921
70	0x3c734300	0.014847517
71	0xbd6d7980	-0.0579772
72	0xbdeac516	-0.114633724
73	0x3d95db70	0.07317245
74	0xbc6b98d0	-0.014379695
75	0x3de3e218	0.11127108
76	0xbddc7770	-0.107649684
77	0xbcb37380	-0.02190566
78	0xbcc11000	-0.0235672
79	0xbdc169ca	-0.09444006
80	0xbd8fbb8c	-0.070181936
81	0xbccf96a0	-0.025340378
82	0x3c5c9240	0.013462603
83	0x3dfc059a	0.12305756
84	0xba51a500	-0.0007997304
85	0x3c3f2730	0.011667058
86	0xbc4e02c0	-0.012573898
87	0x3ce0c200	0.027436256
88	0x3cfe06b8	0.031009063
89	0x3d8e5f56	0.06951778
90	0xbdd5c86e	-0.104386196
91	0xbdf4d480	-0.11954594
92	0x3ba68fe0	0.005083069
93	0x3ccf96f8	0.025340542
94	0x3d5a6394	0.05331762
95	0x3bf93ca0	0.007606104
96	0x3d5f9870	0.054588735
97	0x3d9f790a	0.07786758
98	0x3c962e80	0.01833272
99	0x3ca348e0	0.01993221
100	0xbdbbe0be	-0.091737255
101	0xbd8ad898	-0.06779593
102	0x3db50aa0	0.08839917
103	0xbdba4676	-0.090954706
104	0x3cab1950	0.020886093
105	0x3dc4d0a8	0.096101105
106	0xbdf7929a	-0.12088509
107	0xbc49c520	-0.012315065
108	0xbc556280	-0.0130239725
109	0x3daaaeb4	0.08334103
110	0x391bac00	0.00014846027
111	0xbdc0e53a	-0.094187215
112	0xbd54e500	-0.051976204
113	0x3dcb4774	0.09925738
114	0xbdd0f336	-0.10202639
115	0x3d6e4508	0.058171302
116	0xbc956878	-0.018238291
117	0xbd957c6c	-0.07299122
118	0xbddc934e	-0.10770284
119	0x3c4252f0	0.011860594
120	0xbdac85ba	-0.08423944
121	0xbdc1dd5a	-0.094660476
122	0x3bc84220	0.0061113983
123	0x3dbf8548	0.09351593
124	0xbd8e013c	-0.06933829
125	0x3ce51e60	0.027968585
126	0x3d0f1648	0.03493336
127	0xbd1650d8	-0.036698192
128	0xbcb86f80	-0.022514105
129	0x3d7bd2f0	0.061480463
130	0xbdcd05ae	-0.10010849
131	0xb9099c00	-0.00013123453
132	0xbc31d280	-0.01085341
133	0x3b9e5f80	0.004833162
134	0xbc985d78	-0.018599257
135	0xbd2a1b84	-0.041530147
136	0x3d32b7c8	0.0436323
137	0x3d8c66da	0.06855555
138	0x3d8c9178	0.068636835
139	0xba98f980	-0.0011671036
140	0xbd3278c8	-0.043572217
141	0x3b8a21e0	0.004215464
142	0xbcf3b228	-0.029748037
143	0x3da6ef7a	0.08151145
144	0x3cadaa30	0.021199316
145	0x3de9c054	0.11413637
146	0x3dfda5b6	0.123851225
147	0x3dcfd4f8	0.101480424
148	0xbd02d750	-0.03194362
149	0xbdc371de	-0.09543203
150	0xbd90f9f6	-0.07078926
151	0x3d089c84	0.03335239
152	0xbd8e59ac	-0.06950697
153	0x3c612410	0.013741508
154	0xbd815bd8	-0.06316346
155	0x3dc361f0	0.095401645
156	0x3dca9456	0.09891574
157	0x3decf3a8	0.11569911
158	0x3cc1f968	0.023678496
159	0x3c2e1ff0	0.010627732
160	0x3de65b12	0.11247839
161	0xbbdea940	-0.0067950785
162	0x3d3f2360	0.046664596
163	0xbdd84f9a	-0.10562058
164	0xbd7099dc	-0.05874048
165	0x3dcc874e	0.09986745
166	0x3d9b991e	0.07597564
167	0x3d94d634	0.072674185
168	0xbd8b078a	-0.06788547
169	0x3d546524	0.051854268
170	0xbca44ee0	-0.020057142
171	0xbda24e12	-0.07925047
172	0x3d50c730	0.05097121
173	0x3d5f71a4	0.054551736
174	0xbd0438f8	-0.032280892
175	0x3db15bd4	0.08660093
176	0x3cfbb670	0.030726641
177	0xbdc2992a	-0.0950187
178	0xbd449084	-0.047989383
179	0x3d15fe74	0.03661962
180	0xbd8d672c	-0.06904444
181	0xbcff3080	-0.031151056
182	0x3d94ee80	0.07272053
183	0xbd18ef98	-0.03733787
184	0x3deb21b8	0.11481041
185	0xbc84ff40	-0.016234994
186	0xbd776580	-0.060399532
187	0xbdf56f34	-0.11984101
188	0xbb12f540	-0.0022424012
189	0x3da952b4	0.082677275
190	0x3bfac860	0.007653281
191	0x3da61934	0.08110276
192	0x3de1fe3a	0.11034818
193	0xbb9728e0	-0.004613027
194	0xbdc87db4	-0.09789601
195	0x3ce666d0	0.028125197
196	0xbc8f83b8	-0.017518863
197	0x3dc513d4	0.096229225
198	0x3d8021ec	0.0625647
199	0xbd884a8c	-0.06654844
200	0x3d889660	0.06669307
201	0x3d027ef8	0.031859368
202	0xbcf16fb8	-0.029472217
203	0xbc65d060	-0.014026731
204	0x3da2dde0	0.079524755
205	0xbddd53a6	-0.1080697
206	0xbc181e00	-0.009284496
207	0x3cae1230	0.021248907
208	0x3d95228a	0.072819784
209	0xbd9da350	-0.07697165
210	0x3d37884c	0.044807717
211	0x3d5c57c0	0.053794622
212	0x3ce21c68	0.027601436
213	0xbdde06a2	-0.10841109
214	0xbdb8ba2e	-0.09019886
215	0xbdcb44c0	-0.099252224
216	0x3cd4d4d8	0.025980398
217	0x3dc9e7a6	0.098586366
218	0x3df9343c	0.12168166
219	0xbc49b890	-0.01231207
220	0x3d2c8590	0.042119563
221	0x3da3b4be	0.07993458
222	0xbc4b4f50	-0.012409046
223	0x3dbf30e6	0.093354985
224	0xbd939c9c	-0.07207605
225	0x3de10262	0.109867826
226	0xbd0418c4	-0.03225018
227	0x3ddfea2e	0.10933338
228	0x3dfdc8c8	0.123918116
229	0x3c4f82e0	0.01266548
230	0xbd45fbf8	-0.048336
231	0xbd38bd44	-0.045102373
232	0x3d138120	0.036011815
233	0x3cb26360	0.021775901
234	0xbd259600	-0.040426254
235	0x3d738a34	0.059457973
236	0x3c21d5c0	0.009877622
237	0x3ded1644	0.115765125
238	0x3cf011d8	0.029305384
239	0x3c92a6b0	0.017901748
240	0xbd8c88a8	-0.068620026
241	0x3d2742c8	0.040835172
242	0xbb0e6180	-0.0021725595
243	0xbdfc8e8c	-0.12331876
244	0xbd4f03bc	-0.05054067
245	0x3db4aa48	0.08821541
246	0x3dcbaa52	0.099445954
247	0xbdfea2be	-0.12433384
248	0x3dccabd8	0.09993714
249	0xbd522ee4	-0.05131425
250	0xbb737000	-0.0037145615
251	0xbda3e954	-0.08003488
252	0xbdfb7f1a	-0.12280102
253	0x3c707630	0.014676616
254	0x3daf84ae	0.085702285
255	0x3db6db6a	0.08928569

conv2.lin_r.bias f4 [64]
0	0x3d0c3320	0.034228444
1	0xbc9f2808	-0.019428268
2	0xbd9950ca	-0.074861124
3	0x3de7e02c	0.11322054
4	0x3da048e8	0.07826406
5	0x3dde50de	0.10855268
6	0xbd081b7c	-0.033229336
7	0x3ac97c00	0.0015372038
8	0xbd6bca44	-0.057565942
9	0x3d171fac	0.03689544
10	0x3cb758b8	0.022381172
11	0xbda1422c	-0.078739494
12	0xbdd37374	-0.10324755
13	0x3dccb516	0.09995477
14	0xbdc169d6	-0.09444015
15	0x3d910534	0.070810705
16	0xbc863610	-0.0163832
17	0x3d392a40	0.04520631
18	0x3da99de6	0.0828207
19	0x3d21e444	0.03952433
20	0xbd043fe0	-0.03228748
21	0xbcb6ab28	-0.02229841
22	0x3d1f3f64	0.038878813
23	0xbc7c8c50	-0.0154143125
24	0x3ddbebfa	0.10738368
25	0xbdeb51de	-0.11490224
26	0x3d7ceee0	0.061751246
27	0x3ddbcf72	0.107329264
28	0x3dadda4a	0.08488901
29	0xbd6a9ee4	-0.057280436
30	0x3da6885c	0.08131477
31	0x3d236a38	0.03989622
32	0xbce365a8	-0.027758434
33	0xbdaa541c	-0.08316824
34	0x3ce24218	0.027619407
35	0x3d27e750	0.04099208
36	0xbd457e3c	-0.04821609
37	0x3c355240	0.011066973
38	0xbccecba0	-0.02524358
39	0x3ab25100	0.0013604462
40	0xbdc4f22c	-0.09616503
41	0x3d72394c	0.059136674
42	0x3c92c3d0	0.017915636
43	0xbdd55674	-0.1041688
44	0xbdd99aea	-0.10625251
45	0x3dc6f5ac	0.09714827
46	0x3d15fa40	0.03661561
47	0x3db962a6	0.09052019
48	0x3da729ac	0.08162245
49	0xbdcf817e	-0.101321205
50	0x3db4f1f8	0.088352144
51	0x3da28360	0.07935214
52	0x3c9e9cc0	0.019361854
53	0x3d2042f4	0.03912635
54	0x3c998298	0.01873903
55	0xbdbd2516	-0.09235589
56	0xbdfc31c0	-0.123141766
57	0xbbc1b140	-0.0059110224
58	0xbdc1f35a	-0.09470244
59	0xbdbb7e56	-0.09154956
60	0x3d7c09e0	0.061532855
61	0xbdafdf64	-0.0858753
62	0x3b88b940	0.004172474
63	0x3d928090	0.071534276

conv2.lin_edge.weight f4 [64, 2]
0	0xbf10db98	-0.56585073
1	0xbe9b5e61	-0.30345443
2	0x3f04b3d1	0.5183688
3	0x3f1582d7	0.5840277
4	0xbe61e94a	-0.22061649
5	0x3eb0e322	0.3454829
6	0x3e657494	0.22407752
7	0x3e642404	0.22279364
8	0x3ed5ee4a	0.41783363
9	0x3f17b2bb	0.59257096
10	0xbdf40458	-0.11914891
11	0x3f121843	0.5706827
12	0xbe8f9d58	-0.2804973
13	0xbe2826f0	-0.16421103
14	0xbeb8f64a	-0.36125404
15	0xbf027a4f	-0.5096788
16	0xbea5b7b0	-0.32366705
17	0xbeeaffe4	-0.45898354
18	0xbf2be0e4	-0.6714003
19	0x3ecd3e7e	0.4008674
20	0x3d453a10	0.048151076
21	0xbd34f4c0	-0.044178724
22	0x3ecc91de	0.39955038
23	0x3edabee6	0.4272377
24	0xbf0b963b	-0.5452611
25	0x3f20646f	0.6265325
26	0x3e864966	0.26227874
27	0x3e4971b0	0.19672275
28	0xbf20ba8b	-0.6278464
29	0xbe715002	-0.23565677
30	0x3e22b16c	0.15887994
31	0x3e28aa58	0.16471231
32	0x3f1294cb	0.5725829
33	0xbf248fae	-0.6428174
34	0x3f1e1747	0.6175427
35	0x3f206aff	0.62663263
36	0xbdd5f1f0	-0.104465365
37	0xbf079e78	-0.5297618
38	0x3f2b1165	0.66823417
39	0x3e75d660	0.24007559
40	0x3ec5b11e	0.38611692
41	0x3ea04f76	0.31310624
42	0xbe2d2318	-0.16907918
43	0xbdfe33a0	-0.124121904
44	0xbe9969a3	-0.29963407
45	0x3c87ff80	0.016601324
46	0xbecfa288	-0.4055369
47	0x3d18d650	0.03731376
48	0xbe4504ac	-0.19240063
49	0xbdc45e90	-0.09588349
50	0xbd7ef990	-0.06224972
51	0x3f107b85	0.56438476
52	0x3de463b0	0.111518264
53	0xbf262cba	-0.64912
54	0x3f147f25	0.5800651
55	0x3efc7782	0.49309927
56	0xbd91a588	-0.07111651
57	0xbdd22de8	-0.10262662
58	0xbea8022b	-0.32814154
59	0x3ed30672	0.41215855
60	0x3e946eb0	0.28990698
61	0xbf315af0	-0.69279385
62	0x3de11e88	0.109921515
63	0xbece1c1f	-0.4025583
64	0x3ecbbffa	0.39794904
65	0x3e4f1008	0.20220959
66	0x3db60248	0.08887154
67	0xbdaf1958	-0.08549756
68	0xbeff914f	-0.4991555
69	0x3f2bbdeb	0.67086667
70	0xbf14f122	-0.5818044
71	0x3ef9f496	0.48819417
72	0xbdb0e230	-0.08636892
73	0xbd0dc560	-0.03461206
74	0x3eed0da2	0.46299464
75	0xbe92c9dd	-0.28669634
76	0xbf2de445	-0.67926437
77	0xbedca049	-0.43091038
78	0xbd783820	-0.0606004
79	0x3eecd996	0.46259755
80	0xbe833091	-0.2562299
81	0xbc5f67c0	-0.013635576
82	0x3c974400	0.018465042
83	0x3e925a60	0.28584576
84	0x3d3bd5a0	0.045858026
85	0x3e29db88	0.16587651
86	0xbd3f26d0	-0.046667874
87	0x3e4917b8	0.19637954
88	0x3ebff58e	0.3749203
89	0xbeb973c7	-0.36221144
90	0x3e6c5760	0.23080206
91	0x3ef139ea	0.47114497
92	0xbdf77a10	-0.120838284
93	0xbe9ab7d8	-0.30218387
94	0xbe30ea90	-0.17276978
95	0x3e8c4eb6	0.27403802
96	0xbe31c188	-0.17358983
97	0xbe118e00	-0.14214325
98	0xbf167aa6	-0.58780897
99	0xbd2b7f70	-0.04186958
100	0x3dfc7b00	0.12328148
101	0xbec2f40c	-0.38076818
102	0xbe36c118	-0.17847097
103	0xbcacf480	-0.02111268
104	0x3f070319	0.527391
105	0x3f0a6be3	0.5407087
106	0xbcf5c0e0	-0.029999197
107	0x3ef8be6a	0.48582774
108	0xbe785d78	-0.24254405
109	0x3e99ab7a	0.3001364
110	0x3e17412c	0.14770955
111	0x3ecd4b82	0.4009667
112	0xbedba4a5	-0.4289905
113	0x3f319bb3	0.69378203
114	0x3e2bda80	0.1678257
115	0xbe9af5e8	-0.30265737
116	0xbc5a8f80	-0.013339877
117	0xbe2316a4	-0.15926605
118	0xbe9307b7	-0.28716823
119	0x3eb1b54e	0.34708637
120	0xbeb7889e	-0.35846418
121	0x3f1e8889	0.61927086
122	0xbe95e129	-0.29273346
123	0xbe8edf8a	-0.27904922
124	0xbcde3b60	-0.027127922
125	0xbf0a51b7	-0.54030937
126	0x3eb2bcd6	0.34909695
127	0xbe7b21c6	-0.24524602
