saved_models/edgat6.pt (torch, 42898 bytes, 16 tensors)

conv1.att f4 [1, 1, 64]
0	0x3e487456	0.19575629
1	0xbe6ebb29	-0.23313583
2	0x3d85a0e4	0.06524828
3	0xbddd6a7e	-0.108113274
4	0x3dc51d64	0.096247464
5	0x3e94d5ac	0.2906927
6	0xbd2719e8	-0.04079619
7	0xbe1705ea	-0.1474835
8	0x3d5dd528	0.05415836
9	0xbb5af680	-0.0033411086
10	0x3df03be0	0.1173017
11	0xbdfbccc0	-0.12294912
12	0x3e550414	0.20802337
13	0x3e82559e	0.25455946
14	0x3db35bac	0.087577194
15	0xbe82286c	-0.25421464
16	0x3d3b85d0	0.04578191
17	0x3e1a31dc	0.15058082
18	0x3e891b54	0.26778662
19	0xbe0c7dfb	-0.13719933
20	0x3e6ae34c	0.2293827
21	0xbd54a718	-0.051917166
22	0x3e77184c	0.24130362
23	0x3d8a3638	0.06748623
24	0x3df64f4c	0.120268434
25	0x3e23c4ea	0.15993086
26	0x3e819ce0	0.25315
27	0xbe02cb6c	-0.12772912
28	0xbe956548	-0.29178834
29	0xbe90fb43	-0.28316697
30	0x3e173e16	0.14769778
31	0xbe861f4f	-0.26195762
32	0xbe8af230	-0.271379
33	0x3cd2cd30	0.025732607
34	0xbe921c66	-0.2853729
35	0xbe442d01	-0.19157793
36	0xbded810c	-0.11596879
37	0xbd883016	-0.06649797
38	0x3e05a2e6	0.13050422
39	0xbe972d63	-0.29526815
40	0x3d8c7474	0.06858149
41	0x3e5dfea0	0.21679163
42	0xbd61aa20	-0.055093884
43	0xbe666d30	-0.22502589
44	0x3cd31880	0.025768518
45	0x3dbc5ba4	0.091971666
46	0x3e8f6932	0.28009945
47	0x3dd07728	0.10178977
48	0xbdefc5ce	-0.1170765
49	0x3e95f41c	0.29287803
50	0xbe10cb4e	-0.14140055
51	0x3d326740	0.043555498
52	0xbe4fa3cf	-0.20277332
53	0xbe811765	-0.2521316
54	0x3e873982	0.26411062
55	0x3deeec00	0.11666107
56	0xbe2f3e19	-0.17113532
57	0x3dc08dc8	0.094020426
58	0x3e495fec	0.19665498
59	0xbe4a13f5	-0.19734176
60	0x3be43500	0.006964326
61	0x3e3da06e	0.1851823
62	0xbe1ef484	-0.15522963
63	0xbdea4514	-0.11438957

conv1.bias f4 [64]
0	0xbe4bc38b	-0.19898812
1	0x3cbde1f9	0.023179041
2	0xbd8d6c4b	-0.06905421
3	0xbd398824	-0.04529585
4	0xbe0f9666	-0.14022216
5	0xbda413d0	-0.080115914
6	0xbe5d8f89	-0.21636786
7	0xbe1cf033	-0.15326004
8	0xbd695960	-0.05697
9	0xbdd300f6	-0.10302918
10	0xbd7de4c7	-0.061985757
11	0xbc704dc6	-0.01466698
12	0xbe8677ec	-0.26263368
13	0xbdc6be7c	-0.09704301
14	0xbdfc370b	-0.12315186
15	0xbe0a526b	-0.13508002
16	0xbe632ee4	-0.22185856
17	0x00000000	0.0
18	0xbe143af6	-0.14475617
19	0xbe1628d8	-0.14664018
20	0xbdadbb57	-0.08482998
21	0xbcccb753	-0.02498976
22	0x3d05b66a	0.032644667
23	0xbe8a3c50	-0.2699914
24	0xbe0aa110	-0.13538003
25	0x3b56de8b	0.0032786455
26	0xbd8fe609	-0.070262976
27	0xbd8f98d0	-0.070115685
28	0xbc5de47e	-0.013543246
29	0xbdb6b593	-0.08921351
30	0xbdc4ad11	-0.09603322
31	0xbdec9aed	-0.11552987
32	0xbe2d14b9	-0.16902436
33	0xbe3ac904	-0.18240744
34	0xbe6d7f8f	-0.23193191
35	0xbe2e6b52	-0.17033127
36	0xbd7d8bf3	-0.061901044
37	0xbe5c39da	-0.21506444
38	0xbd6b8f9f	-0.057510015
39	0xbdbf9768	-0.0935505
40	0x3d51a2c1	0.051180605
41	0xbcf29189	-0.029610412
42	0xbc5854e9	-0.013203838
43	0xbe01f0fc	-0.12689584
44	0xbe921f0b	-0.2853931
45	0xbd57d57a	-0.05269382
46	0xbe152b69	-0.14567341
47	0xbc6a3dc8	-0.014296956
48	0xbe297890	-0.16549897
49	0xbddc7cc3	-0.10765984
50	0xbd84c1b6	-0.0648226
51	0xbcbedafa	-0.023297776
52	0xbdae8694	-0.085217625
53	0xbe7f0155	-0.24902852
54	0xbd68121d	-0.0566579
55	0xbd729bdb	-0.059230667
56	0xbd8ef8b4	-0.0698103
57	0xbe2b0eff	-0.1670494
58	0xbdd826d1	-0.10554279
59	0xbe912e16	-0.28355473
60	0xbdae0039	-0.08496136
61	0xbe1f2235	-0.15540393
62	0xbde0e0c7	-0.10980373
63	0xbd22f6d8	-0.03978619

conv1.lin_l.weight f4 [64, 4]
0	0xbe6fcd58	-0.23418176
1	0xbe4f3d33	-0.2023819
2	0xbe5ae852	-0.21377686
3	0x3ecb14ca	0.39664298
4	0x3e125bf5	0.14292891
5	0x3ee45c05	0.44601455
6	0x3dde78ea	0.10862906
7	0x3ec51319	0.38491133
8	0xbecd5f58	-0.40111804
9	0xbe85c03a	-0.2612322
10	0x3e369410	0.17829919
11	0xbeaf305c	-0.34216583
12	0x3e257423	0.16157584
13	0x3e4b4c6e	0.19853374
14	0x3e8fd165	0.28089443
15	0x3efe315a	0.49647027
16	0xbe847b93	-0.2587553
17	0xbe8da450	-0.27664423
18	0x3e820d2d	0.25400677
19	0x3e0f4835	0.13992389
20	0x3d435c02	0.047695167
21	0xbe96dffe	-0.29467767
22	0x3e1e875e	0.15481326
23	0x3ce1e5b5	0.027575353
24	0xbe216815	-0.1576236
25	0xbe3a7da2	-0.18211988
26	0xbe5ab56d	-0.21358271
27	0xbd6e9f5e	-0.058257453
28	0x3b8c17ee	0.0042753136
29	0x3d9567df	0.072952025
30	0x3e77b357	0.24189506
31	0xbbc0bf7a	-0.005882201
32	0x3d6a19b3	0.057153415
33	0xbec16bff	-0.37777707
34	0xbedb5f4a	-0.42846137
35	0x3e2b46da	0.16726246
36	0xbdddfc5a	-0.10839148
37	0xbe03cab4	-0.12870294
38	0xbe681c9f	-0.22667168
39	0x3da0f485	0.078591384
40	0x3ebc513d	0.3678073
41	0xbe906779	-0.28203943
42	0x3e701064	0.23443753
43	0x3e9bd78e	0.30437893
44	0xbe904f09	-0.281853
45	0x3eea20b6	0.4572808
46	0x3d6bac99	0.05753765
47	0xbe9a919e	-0.30189222
48	0x3e244f74	0.16045934
49	0xbe1c5189	-0.15265478
50	0x3db587ec	0.08863816
51	0xbcf92486	-0.030412924
52	0x3db409aa	0.08790906
53	0xbd6a1a08	-0.05715373
54	0xbe362748	-0.17788422
55	0xbdfd7571	-0.12375916
56	0xbe83acec	-0.25717866
57	0x3ea8e730	0.32988882
58	0x3e90c8c1	0.28278163
59	0xbda8f045	-0.08248953
60	0x3e61a5cc	0.22035903
61	0xbe47d000	-0.1951294
62	0x3e13122b	0.143624
63	0xbdcb8935	-0.099382795
64	0xbe94a788	-0.29034066
65	0x3d17158b	0.03688578
66	0x3e39cf2f	0.1814544
67	0xbcc5cef7	-0.02414654
68	0xbe3a81d0	-0.18213582
69	0x3e7ba46c	0.2457444
70	0x3d4c2480	0.049839497
71	0xbdd1e068	-0.1024788
72	0xbddcb4cc	-0.10776672
73	0x3e3cba82	0.18430522
74	0x3e425171	0.1897638
75	0xbe3d58f6	-0.18490967
76	0x3e8a8ecb	0.27062067
77	0xbe826e7a	-0.25474912
78	0xbe92586c	-0.28583086
79	0xbe969790	-0.29412508
80	0xbeae8e35	-0.3409287
81	0xbe7c1469	-0.24617161
82	0x3e1cc0fc	0.15307993
83	0x3ce2008a	0.027588148
84	0x3f04e605	0.5191348
85	0x3e907491	0.28213933
86	0xbdd8f1c2	-0.10592987
87	0xbb522dd6	-0.0032070777
88	0x3f0587e2	0.52160466
89	0xbe5dd4e6	-0.21663246
90	0x3a77f1dd	0.00094583427
91	0xbda14b3a	-0.078756765
92	0x3e972e02	0.2952729
93	0xbe8908f7	-0.26764652
94	0xbdd5d6d3	-0.10441365
95	0x3b0cd6de	0.0021490376
96	0xbdf75cbb	-0.12078234
97	0x3e83fce2	0.25778872
98	0x3e460f6b	0.19341819
99	0xbe91cd4b	-0.2847694
100	0xbe89d3d5	-0.26919428
101	0x3de8a71d	0.11359999
102	0xbd8013e9	-0.062537976
103	0x3e74f822	0.2392278
104	0x3d4fcb9d	0.05073129
105	0x3e45f668	0.19332278
106	0xbdc2856c	-0.094981045
107	0xbdb38dfc	-0.08767316
108	0x3eabe7bb	0.33575234
109	0xbe2f7bb7	-0.17137037
110	0xbd8a5f4b	-0.06756457
111	0x3e7cd3ca	0.24690166
112	0x3deb9fb5	0.11505071
113	0x3e2b5316	0.16730914
114	0xbe9d4f49	-0.30724552
115	0xbdaac4f9	-0.08338351
116	0xbeb17332	-0.346582
117	0xbde87584	-0.11350539
118	0x3ecdf071	0.40222505
119	0xbc9ebeb6	-0.019378047
120	0xbd219cbb	-0.03945611
121	0xbeb90bb4	-0.3614174
122	0xbe047df4	-0.12938672
123	0x3e3f9c31	0.18711926
124	0x3e4183bd	0.1889791
125	0xbe5121c6	-0.2042304
126	0xbd4e80c8	-0.050415784
127	0x3e8b7e73	0.2724491
128	0x3de7eb5f	0.1132419
129	0xbdb52894	-0.0884563
130	0xbeba07f2	-0.36334187
131	0x3d311178	0.04322955
132	0x3eafc335	0.3432862
133	0x3e805e03	0.25071725
134	0x3dbd94be	0.09256886
135	0x3ee8965e	0.4542722
136	0x3e393452	0.18086365
137	0xbd866d0f	-0.0656377
138	0xbe5d0c26	-0.21586666
139	0xbe50974d	-0.20370217
140	0x3e2fda28	0.17173064
141	0xbe1d6243	-0.15369515
142	0x3d837214	0.06418243
143	0x3cf0691b	0.029346993
144	0x3e12b286	0.14325914
145	0x3e6e3c68	0.2326523
146	0xbe1cf4dd	-0.15327783
147	0x3e830959	0.2559307
148	0x3edda970	0.43293333
149	0xbe8ef7d0	-0.2792344
150	0x3e1a9ff1	0.15100075
151	0x3e84730d	0.25869027
152	0x3e68a662	0.2271972
153	0x3d813a86	0.063099906
154	0x3d921823	0.0713351
155	0xbd546d7b	-0.05186222
156	0xbd1728c9	-0.03690413
157	0xbb06d6ce	-0.002057481
158	0xbd9bda1b	-0.0760996
159	0x3e06427c	0.131113
160	0xbeb6baa0	-0.3568926
161	0x3f2792d2	0.65458405
162	0xbcf747d9	-0.030185627
163	0x3d0919f3	0.033472013
164	0xbcd1377e	-0.025539156
165	0x3dcf3e38	0.10119289
166	0x3eb3c751	0.35113004
167	0x3eb18d29	0.3467801
168	0x3d995ff6	0.07489006
169	0xbe7cbe8e	-0.24682066
170	0x3dabcbca	0.08388479
171	0xbc999bd1	-0.018751057
172	0xbeb05540	-0.3444004
173	0x3e8c4c9f	0.27402207
174	0x3c1827b4	0.00928681
175	0xbafe2f56	-0.0019392769
176	0xbdcedfb4	-0.10101262
177	0xbe2f679f	-0.17129372
178	0xbe4c5ecd	-0.19958039
179	0x3d93d695	0.07218663
180	0xbe15fc2f	-0.14646982
181	0x3e95e2ee	0.29274696
182	0xbea2f325	-0.3182613
183	0xbd8db382	-0.06919004
184	0x3ec1cc2e	0.3785109
185	0x3da19200	0.078891754
186	0x3e947bb1	0.2900062
187	0x3ebd684d	0.36993638
188	0x3ee03f21	0.43798164
189	0x3d139bd2	0.036037274
190	0xbe4b94f6	-0.19881043
191	0xbe1d0443	-0.15333657
192	0x3d1fa5d3	0.0389765
193	0x3e89c040	0.26904488
194	0x3e05dcfe	0.13072583
195	0x3e37f08e	0.17962858
196	0xbc8a4812	-0.016880069
197	0xbe851c6c	-0.25998247
198	0xbd52e235	-0.05148526
199	0x3cb8cb68	0.02255793
200	0x3dc87240	0.097874165
201	0x3e209617	0.15682255
202	0x3e8ad9c7	0.27119276
203	0xbee6dcd6	-0.4509036
204	0xbecc0e39	-0.398546
205	0xbc963b0b	-0.0183387
206	0xbeb91fed	-0.3615717
207	0xbb95b2e4	-0.0045684446
208	0xbe808fb0	-0.25109625
209	0x3ed2aab0	0.4114585
210	0x3d6cd77f	0.0578227
211	0xbea14973	-0.3150135
212	0x3ccd9764	0.025096603
213	0xbdc210ad	-0.09475837
214	0xbe0ef73f	-0.13961504
215	0x3d386b15	0.045023996
216	0x3ec89df5	0.39183012
217	0xbe399fc2	-0.18127349
218	0x3e079899	0.13241805
219	0xbe6f8d1b	-0.23393671
220	0x3f02ca07	0.5108952
221	0xbef07466	-0.46963805
222	0x3d32902a	0.043594517
223	0x3d704141	0.05865598
224	0xbd9efe23	-0.077633165
225	0x3ecdd4d8	0.4020145
226	0x3e8aae13	0.27085933
227	0xbe9e1909	-0.30878475
228	0xbddee7e0	-0.108840704
229	0xbe63f325	-0.22260721
230	0x3e5cd622	0.2156606
231	0xbdb4c183	-0.08825972
232	0xbe1a949d	-0.15095754
233	0x3ea55d97	0.32297966
234	0x3c04ec97	0.008113048
235	0xbec1d435	-0.37857214
236	0xbe3002dc	-0.17188591
237	0x3e531a13	0.20615415
238	0x39736eba	0.00023215535
239	0x3e6dda44	0.23227793
240	0xbe811e94	-0.25218642
241	0x3ca61531	0.020273777
242	0xbe0ff82f	-0.14059518
243	0xbdf80061	-0.12109447
244	0x3e9c5f30	0.30541372
245	0x3c866809	0.01640703
246	0xbe9a4c8b	-0.30136523
247	0xbca4be64	-0.020110317
248	0x3e6070eb	0.21918075
249	0xbded5c76	-0.11589901
250	0x3e19a3ad	0.15003844
251	0xbeaf07e4	-0.34185708
252	0xbe27e282	-0.16395
253	0x3eb0562b	0.3444074
254	0xbe60c495	-0.2194999
255	0xbd2a224a	-0.041536607

conv1.lin_l.bias f4 [64]
0	0xbe285df4	-0.1644209
1	0xbe761840	-0.24032688
2	0xbdb8029e	-0.08984874
3	0xbeda25c0	-0.42606926
4	0xbe5763fe	-0.21034238
5	0xbe4e1daf	-0.20128511
6	0xbd0297e5	-0.03188314
7	0xbe8d0f93	-0.27550945
8	0xbeee3273	-0.46522865
9	0xbe1460c9	-0.14490046
10	0xbee3ffe2	-0.4453116
11	0xbe96d4f0	-0.29459333
12	0x3e17aef6	0.14812836
13	0xbe5483ce	-0.20753404
14	0xbddf2f71	-0.108977206
15	0x3e061356	0.13093314
16	0x3c638a07	0.013887889
17	0xbec594fe	-0.38590235
18	0x3e88cee9	0.2672036
19	0xbf0eeb85	-0.55828124
20	0x3e6c1151	0.2305348
21	0xbe74afc3	-0.23895173
22	0xbddbc2fb	-0.10730549
23	0xbcc1a49b	-0.02363806
24	0xbde6636e	-0.112494335
25	0x3e728f37	0.23687445
26	0x3d39e69e	0.04538595
27	0x3e45a606	0.19301614
28	0x3eaf3ae0	0.34224606
29	0xbef0d389	-0.4703639
30	0xbe3e5d75	-0.18590339
31	0xbec6ef4d	-0.38854447
32	0x3d213d28	0.039364964
33	0x3c9dd77f	0.019267796
34	0x3e7dd864	0.24789578
35	0x3dba1b10	0.09087193
36	0x3d16b2e6	0.036791705
37	0x3e8b4ecf	0.27208564
38	0xbe05da1a	-0.1307148
39	0x3db198ce	0.08671723
40	0xbe857a4a	-0.26069862
41	0xbeb885d9	-0.36039618
42	0xbe7748fa	-0.24148932
43	0xbc9990ce	-0.018745806
44	0x3e4dbccb	0.2009155
45	0x3ebf10e3	0.3731757
46	0x3e352a4c	0.17691916
47	0xbecf3613	-0.40470943
48	0x3e89d1c0	0.2691784
49	0xbe6a786f	-0.22897504
50	0xbeec0ad9	-0.46102026
51	0xbf125471	-0.571601
52	0xbe926d84	-0.2859918
53	0x3db3884a	0.087662295
54	0x3dd12ff4	0.102142245
55	0x3de363c4	0.11103013
56	0xbdea6f60	-0.11447024
57	0x3dcdd10f	0.100496404
58	0xbee0eb19	-0.43929365
59	0x3e00e85c	0.12588638
60	0xbecc4173	-0.39893684
61	0x3d90ed25	0.07076482
62	0xbebbdbaf	-0.36691043
63	0x3e54768a	0.20748344

conv1.lin_r.weight f4 [64, 4]
0	0xbea55684	-0.3229257
1	0x3e8a01d6	0.26954526
2	0x3cd5ee40	0.026114583
3	0xbec67f6e	-0.38769096
4	0x3e3a15cc	0.18172377
5	0x3e326638	0.17421806
6	0xbe8bb4ac	-0.2728628
7	0xbe0313d8	-0.12800539
8	0xbe074538	-0.13209999
9	0xbeaae1f8	-0.33375525
10	0xbeb0c01e	-0.34521574
11	0xbec614f4	-0.3868786
12	0x3e6deb08	0.23234189
13	0x3e9e6ff6	0.30944794
14	0x3ebbe100	0.366951
15	0x3d9df7b0	0.07713258
16	0xbe1f4198	-0.15552366
17	0xbef24518	-0.4731834
18	0x3e8d7e62	0.27635485
19	0x3e741d70	0.23839355
20	0xbeb4977e	-0.3527183
21	0xbd2e9fc0	-0.04263282
22	0x3e4a5f50	0.19762921
23	0x3eef9fc6	0.46801585
24	0xbea2a2e6	-0.31764907
25	0xbe8ec47a	-0.27884275
26	0xbdaf7780	-0.08567715
27	0x3d66b940	0.056329012
28	0x3ee91dae	0.45530456
29	0xbef26772	-0.47344548
30	0x3eb7671e	0.3582086
31	0x3ec9e8c4	0.394354
32	0x3e148a98	0.14505994
33	0xbe108174	-0.14111882
34	0xbeedf1c8	-0.46473527
35	0xbef0bd04	-0.47019207
36	0xbcef97c0	-0.029247165
37	0x3e749d0c	0.23888034
38	0xbef32f5c	-0.4749707
39	0xbbc1fe00	-0.0059201717
40	0xbeabd646	-0.33561915
41	0x3ddb59e0	0.10710502
42	0x3e4e2fb4	0.20135385
43	0x3dc6d420	0.097084284
44	0xbe645dd8	-0.22301424
45	0x3ebfe850	0.37481928
46	0xba470400	-0.00075918436
47	0xbefb3a58	-0.4906795
48	0xbe8e9b60	-0.27852917
49	0x3ee1f208	0.44129968
50	0x3ee6255c	0.44950378
51	0x3d764b90	0.060130656
52	0xbed87372	-0.42275578
53	0x3e01b09c	0.12665027
54	0xbe238ab0	-0.15970874
55	0xbd92c958	-0.071673095
56	0x3ea3286c	0.31866777
57	0xbe900666	-0.28129882
58	0x3eca78a0	0.39545155
59	0x3e0f7cf8	0.14012516
60	0x3dd6e500	0.10492897
61	0x3ebb5d00	0.3659439
62	0x3ee218ec	0.4415964
63	0xbe9e493e	-0.30915254
64	0x3b94fa80	0.0045464635
65	0xbefbe202	-0.49195868
66	0x3ef32b68	0.47494054
67	0xbe023538	-0.12715614
68	0xbd850c00	-0.064964294
69	0x3eb2ad56	0.3489787
70	0xbe3d87f8	-0.18508899
71	0xbd203750	-0.03911525
72	0x3e81b67e	0.25334543
73	0xbebfb99c	-0.37446296
74	0xbd81d888	-0.06340128
75	0x3edfe80c	0.43731725
76	0x3e41664c	0.1888668
77	0xbdf33530	-0.11875379
78	0xbd4146f0	-0.047186792
79	0xbecffde0	-0.4062338
80	0x3eb6a0ce	0.3566956
81	0xbd86d8c0	-0.065843105
82	0x3ea1484e	0.31500477
83	0x3ecdd528	0.40201688
84	0x3eeaf8d8	0.45892978
85	0x3ee2f6e2	0.44328982
86	0x3d915ad0	0.07097399
87	0x3d9fc0c8	0.07800442
88	0x3cd88160	0.026428878
89	0xbe804d80	-0.25059128
90	0xbe9f0d8c	-0.31065023
91	0xbcc36a00	-0.023854256
92	0xbdd88cd0	-0.10573733
93	0xbece8ee4	-0.40343392
94	0xbe00f400	-0.12593079
95	0xbeae6f70	-0.34069395
96	0x3dc8a478	0.09796995
97	0x3ef244fe	0.47318262
98	0x3e8da468	0.27664495
99	0x3e015178	0.12628734
100	0xbd90b288	-0.07065302
101	0xbdb89188	-0.09012133
102	0xbdef4bd0	-0.11684382
103	0x3ee913a6	0.45522803
104	0xbef445e4	-0.47709572
105	0x3ea40e22	0.32042032
106	0xbde60a90	-0.112324834
107	0x3eb3dcdc	0.3512944
108	0xbd7b3f80	-0.061339855
109	0xbef0db76	-0.47042435
110	0xbe28e9c8	-0.1649543
111	0xbed522da	-0.41628152
112	0x3d151900	0.036400795
113	0x3eb19bba	0.34689122
114	0xbee77280	-0.45204544
115	0xbc85ae00	-0.016318321
116	0xbe8bfaee	-0.27339882
117	0xbe9e8cae	-0.30966705
118	0x3ee27f88	0.44237924
119	0x3eea4192	0.4575315
120	0x3e82d69e	0.25554365
121	0xbe810d5e	-0.2520551
122	0x3ecbc3ac	0.39797723
123	0x3edb34fe	0.42813867
124	0xbe926d42	-0.28598982
125	0x3efd5876	0.49481553
126	0xbe257904	-0.16159445
127	0x3e2fa600	0.17153168
128	0xbd3a3210	-0.0454579
129	0x3ee16572	0.4402271
130	0xbbc7d900	-0.0060988665
131	0x3e624b7c	0.22099108
132	0xbe250bcc	-0.16117781
133	0xbee93cf0	-0.45554304
134	0xbee55dcc	-0.44798124
135	0xbe5d5490	-0.2161429
136	0x3e7062d4	0.234752
137	0xbee6f586	-0.45109195
138	0x3e64488c	0.222933
139	0x3ea74008	0.3266604
140	0x3efbfb30	0.49215078
141	0x3e9c0368	0.3047135
142	0xbe9fc744	-0.31206715
143	0x3cc78b00	0.024358273
144	0x3e793fc8	0.24340737
145	0xbcd67c80	-0.026182413
146	0xbec97f62	-0.39354998
147	0xbcaacac0	-0.020848632
148	0xbef93de0	-0.4868002
149	0xbe8aaee2	-0.2708655
150	0x3dcc1378	0.09964651
151	0x3e025e3c	0.1273126
152	0xbef60b1e	-0.48055357
153	0xbe87bff6	-0.26513642
154	0xbe727b68	-0.23679888
155	0xbe91b314	-0.28456938
156	0x3ed19456	0.40933484
157	0xbe0be02c	-0.13659734
158	0xbed5d5bc	-0.4176463
159	0x3eeb8386	0.45998782
160	0x3e81234a	0.25222236
161	0x3ec1f070	0.37878752
162	0x3d7f8540	0.062382936
163	0x3e4fb958	0.20285547
164	0xbe8521fa	-0.26002485
165	0x3ebf08c2	0.3731137
166	0x3e63a340	0.22230244
167	0xbe57b89c	-0.21066517
168	0xbe1b330c	-0.15156192
169	0xbece3d96	-0.4028136
170	0x3ee1cfda	0.4410389
171	0x3edb500e	0.42834514
172	0xbd46b650	-0.04851371
173	0x3c299240	0.01034981
174	0xbeb1b87c	-0.34711063
175	0x3d0fecc0	0.03513789
176	0xbe4d066c	-0.20021981
177	0x3ca20d60	0.019781768
178	0x3e1476f8	0.14498508
179	0xbef8ee2a	-0.48619205
180	0xbeb569be	-0.35432237
181	0x3e06e6e4	0.13174015
182	0x3e0d3950	0.13791394
183	0xbe161d8c	-0.14659709
184	0xbe964788	-0.2935145
185	0x3e913228	0.2835858
186	0x3ec797b6	0.38982934
187	0x3ca3d980	0.020001173
188	0xbdd03388	-0.10166079
189	0x3e3ec158	0.18628442
190	0x3e76e564	0.24110943
191	0x3ed70380	0.41994858
192	0xbd341170	-0.043961942
193	0x3e08ea2c	0.1337058
194	0xbee88f5a	-0.4542187
195	0xbef45f1a	-0.47728807
196	0x3e81ad82	0.25327688
197	0xbd432830	-0.047645748
198	0x3ef9a8da	0.48761636
199	0xbe4da5c8	-0.20082772
200	0x3ec195b0	0.37809515
201	0xbef525bc	-0.47880352
202	0xbee1f8b2	-0.44135052
203	0xbdfb0628	-0.122570336
204	0x3e52f9d8	0.2060312
205	0x3eb1265a	0.34599572
206	0x3d748a20	0.05970204
207	0xbe011188	-0.12604344
208	0xbe453b08	-0.192608
209	0x3ef194ca	0.4718383
210	0x3e17fa08	0.14841473
211	0x3e677ab8	0.22605407
212	0xbd3b6310	-0.04574877
213	0x3d4292c0	0.047503233
214	0xbec7ee1c	-0.3904885
215	0x3e370ef4	0.17876798
216	0xbca1c420	-0.01974684
217	0x3eaa45be	0.33256334
218	0xbed762ea	-0.42067653
219	0xbe92a484	-0.2864114
220	0x3ddce508	0.10785872
221	0x3ee73cb4	0.451635
222	0xbe614504	-0.21998984
223	0x3d92b360	0.07163119
224	0xbdc30d18	-0.09523982
225	0x3eb00934	0.3438202
226	0x3ee2d8c4	0.44306004
227	0x3d9c2400	0.07624054
228	0xbe3c6fdc	-0.18402046
229	0x3edd03ea	0.4316705
230	0x3e30c1cc	0.17261428
231	0x3e248bec	0.16069001
232	0xbec51326	-0.38491172
233	0xbdf6fbb8	-0.1205973
234	0x3e0b9ba0	0.13633585
235	0x3e1eebf4	0.15519696
236	0xbe1158c8	-0.14194024
237	0xbe9c3b70	-0.30514097
238	0xbe2fe8b4	-0.17178613
239	0xbca82580	-0.020525694
240	0x3e56e458	0.20985544
241	0xbee8ccbc	-0.454687
242	0xbed30eb0	-0.41222143
243	0x3de13898	0.109971225
244	0x3e8ee0b0	0.27905798
245	0xbe218f48	-0.15777314
246	0xbd0afe10	-0.0339337
247	0xbe824fee	-0.25451607
248	0x3e91be04	0.28465283
249	0x3e879f88	0.264889
250	0x3e2f4678	0.17116725
251	0xbe7b62c4	-0.24549395
252	0xbed0ba44	-0.4076711
253	0x3ef19d4e	0.47190326
254	0xbe8921a6	-0.26783484
255	0xbdffb460	-0.12485576

conv1.lin_r.bias f4 [64]
0	0xbedb41bc	-0.4282359
1	0x3e4d0618	0.20021856
2	0xbe9b72e0	-0.3036108
3	0xbe7bfd70	-0.24608397
4	0xbe805cd6	-0.25070828
5	0xbe504444	-0.20338541
6	0x3e3cb32c	0.18427724
7	0x3cf477c0	0.029842257
8	0x3da26998	0.07930297
9	0x3e41b8fc	0.18918222
10	0x3e2427fc	0.16030878
11	0x3dafc430	0.08582342
12	0xbe9dc7d0	-0.30816507
13	0x3e1ebda8	0.15502036
14	0x3ee3e596	0.44511098
15	0xbefc481a	-0.4927376
16	0x3e2d25d0	0.16908956
17	0x3d3bc770	0.045844495
18	0x3eaf0c8e	0.34189266
19	0xbef44ecc	-0.47716367
20	0x3da12fb0	0.07870424
21	0x3e6993f8	0.22810352
22	0x3eeaa536	0.4582917
23	0x3ea4abc6	0.32162303
24	0xbec85660	-0.391284
25	0x3cea2e00	0.028586388
26	0x3eed569a	0.46355134
27	0xbda98f60	-0.082793
28	0xbd969ee8	-0.07354528
29	0x3e855084	0.2603799
30	0xbdb7f308	-0.089819014
31	0x3e48f194	0.19623405
32	0x3ecb2bfa	0.3968199
33	0xbe19de48	-0.150262
34	0x3eb1c124	0.34717667
35	0xbeecdd32	-0.4626251
36	0xbe6a9f3c	-0.22912306
37	0xbe836624	-0.25663865
38	0xbeb865c0	-0.3601513
39	0xbeef6546	-0.46756953
40	0x3dc6e888	0.097123206
41	0x3ed28e0e	0.41124004
42	0xbe327c58	-0.17430246
43	0xbe5a5d48	-0.21324646
44	0xbebefd12	-0.37302452
45	0x3edfd8f0	0.43720198
46	0x3e35f980	0.17770958
47	0x3db04010	0.08605969
48	0xbeed6f9e	-0.4637422
49	0x3ededcb0	0.43527746
50	0xbefd9934	-0.49530947
51	0xbe4efdd0	-0.2021401
52	0x3eba5d26	0.36399192
53	0xbe319d90	-0.17345262
54	0xbe1ef114	-0.15521652
55	0x3ec20380	0.37893295
56	0xbec73440	-0.3890705
57	0xbebb08fc	-0.36530292
58	0xbe87be18	-0.26512218
59	0x3e0bbc08	0.13645947
60	0x3d2d6620	0.042333722
61	0xbe5b6b5c	-0.21427673
62	0x3e9869c8	0.29768205
63	0x3d6b4df0	0.057447374

conv1.lin_edge.weight f4 [64, 2]
0	0xbe59ddcc	-0.21276015
1	0x3ef0204a	0.46899635
2	0xbec8d8b2	-0.39227825
3	0x3e800048	0.25000215
4	0x3e971e46	0.29515284
5	0xbbd11000	-0.006380081
6	0x3e1bfc0c	0.15232867
7	0x3dfe3630	0.12412679
8	0x3eedabee	0.46420234
9	0xbf199c3b	-0.60004014
10	0xbf0fe275	-0.5620492
11	0x3eb9fdea	0.36326534
12	0xbe43bcac	-0.19114941
13	0x3f0bd6bd	0.5462454
14	0xbf2dd6ff	-0.67906183
15	0xbecdb5d5	-0.4017779
16	0x3e3d0ee0	0.18462706
17	0xbecdd1a4	-0.40199006
18	0xbe053cc8	-0.13011467
19	0xbece8c27	-0.40341303
20	0x3c580f40	0.01318723
21	0xbebd13db	-0.3692921
22	0xbd36b250	-0.044603646
23	0x3ebbf062	0.36706835
24	0x3e047a2c	0.1293723
25	0xbd9abfd8	-0.075561225
26	0x3eee5b42	0.46554
27	0x3ec1dd96	0.3786437
28	0x3f2dc8cf	0.67884535
29	0x3f28bce7	0.6591324
30	0x3e054b58	0.13017023
31	0xbf346dea	-0.70480216
32	0xbdaed5e0	-0.08536887
33	0x3e83b21a	0.25721818
34	0xbf2499b5	-0.6429704
35	0xbd8e6c88	-0.069542944
36	0x3f025ed5	0.5092595
37	0xbed393c0	-0.41323662
38	0x3c442080	0.011970639
39	0xbf1552ae	-0.58329284
40	0x3ecd4f92	0.4009977
41	0xbf25ba43	-0.6473734
42	0x3ebd116a	0.36927348
43	0xbf2a0bf2	-0.6642448
44	0x3e8d7ff6	0.2763669
45	0x3df24980	0.11830425
46	0xbeb9ecd9	-0.36313513
47	0x3f199ab7	0.600017
48	0xbe27398c	-0.16330546
49	0x3ef5d916	0.48017186
50	0xbf1d9be5	-0.61566
51	0xbee4a6cc	-0.44658506
52	0xbf1a0b5e	-0.60173595
53	0x3dbb1f00	0.09136772
54	0xbf348bad	-0.7052563
55	0x3e540260	0.20704031
56	0xbf2ca2d3	-0.6743595
57	0xbdc48f40	-0.09597635
58	0x3cf3b240	0.029748082
59	0x3ee30f8e	0.44347805
60	0x3f2ecf11	0.6828471
61	0xbe1ba884	-0.15201002
62	0xbf089c71	-0.5336371
63	0x3eef44de	0.4673223
64	0x3f1850d9	0.59498364
65	0x3dc51d58	0.096247375
66	0x3e876f4a	0.26452094
67	0xbee9f0a7	-0.45691416
68	0x3ee7ba36	0.45259255
69	0xbf014fbd	-0.50512296
70	0x3ee8fb46	0.45504206
71	0x3ef23fbe	0.47314256
72	0x3f08849d	0.5332735
73	0xbf17eede	-0.5934886
74	0xbe0c2b80	-0.13688469
75	0xbee71956	-0.45136517
76	0xbf16cd2e	-0.5890683
77	0xbed93398	-0.42422175
78	0xbed9cbd2	-0.42538315
79	0xbf33b966	-0.7020477
80	0x3eeee442	0.46658522
81	0x3e4375ec	0.19087952
82	0x3e708720	0.23489046
83	0xbeafaa11	-0.34309438
84	0x3e84ad20	0.25913334
85	0x3dd74450	0.105110765
86	0x3f2b3c01	0.66888434
87	0xbf1e9933	-0.61952513
88	0x3e9536bc	0.29143322
89	0xbf2985e2	-0.66219914
90	0xbea198d1	-0.31561902
91	0x3dba4198	0.09094542
92	0x3ede23ba	0.43386632
93	0xbe792fc0	-0.24334621
94	0xbf0c830f	-0.5488748
95	0xbf34dabc	-0.7064626
96	0x3e167c04	0.14695746
97	0xbea79494	-0.32730544
98	0x3ef8afae	0.48571533
99	0xbe1e3200	-0.15448761
100	0x3e84c9e4	0.2593528
101	0x3e818c7e	0.253025
102	0x3e79f1a0	0.24408579
103	0xbee5d1ef	-0.4488673
104	0x3f31c2c1	0.69437796
105	0xbe7fce76	-0.24981102
106	0xbdd81758	-0.105513275
107	0x3c099880	0.008398175
108	0xbe17b9e4	-0.14817005
109	0xbe1c95cc	-0.15291518
110	0x3f27682d	0.65393335
111	0x3e839e26	0.25706595
112	0xbe0b9eb4	-0.13634759
113	0xbd38b330	-0.04509276
114	0xbed3cd20	-0.41367435
115	0x3f2b675f	0.66954607
116	0xbe8c624e	-0.2741875
117	0x3edffaba	0.43745977
118	0x3e8b9ec4	0.27269566
119	0x3e93b346	0.28847712
120	0x3e35e190	0.17761827
121	0xbeb703f7	-0.35745212
122	0xbf093491	-0.53595835
123	0xbed16147	-0.4089453
124	0xbf115473	-0.56769484
125	0x3ef7eeee	0.48424476
126	0xbd0b1230	-0.03395289
127	0x3e9d5fb6	0.30737084

conv2.att f4 [1, 1, 64]
0	0x3e3dab5c	0.185224
1	0xbe748586	-0.2387906
2	0xbe3fb211	-0.1872027
3	0x3d8b1a04	0.067920715
4	0x3ce421a0	0.027848065
5	0x3e5dfcc8	0.2167846
6	0x3e2f6fe8	0.17132533
7	0x3e0ea804	0.1393128
8	0x3e801836	0.2501847
9	0x3d89f394	0.06735912
10	0xbe8e56a3	-0.27800474
11	0x3e8c112a	0.27356845
12	0x3e600318	0.2187618
13	0xbc74ff20	-0.014953405
14	0x3ca1ba50	0.019742161
15	0x3cbaa220	0.022782385
16	0x3e825522	0.25455576
17	0xbe768594	-0.24074394
18	0x3e0c765e	0.13717028
19	0xbe1e5c4d	-0.15464897
20	0xbdddf902	-0.1083851
21	0x3e39c9e6	0.18143424
22	0xbdd0f842	-0.102036014
23	0x3e5c7e9c	0.21532673
24	0x3de30c08	0.11086279
25	0x3ce00a70	0.027348727
26	0xbdff3da0	-0.12462926
27	0xbd8c548e	-0.06852065
28	0x3e435adc	0.19077629
29	0x3e24a4de	0.16078517
30	0x3e863912	0.26215416
31	0xbdf27918	-0.11839503
32	0x3dc1b884	0.09459022
33	0x3ddfcd44	0.10927823
34	0xbdb12c14	-0.08650985
35	0xbe8c9be0	-0.27462673
36	0x3e24d076	0.16095147
37	0xbdfba634	-0.1228756
38	0x3e790a80	0.24320412
39	0xbdee9d5a	-0.11651106
40	0x3e84fd08	0.25974298
41	0x3e555cb0	0.20836139
42	0xbde4688e	-0.11152755
43	0xbe8b0944	-0.27155507
44	0xbc68d240	-0.014210284
45	0x3dfed10c	0.12442216
46	0xbb0f7e00	-0.002189517
47	0x3da1b73c	0.07896277
48	0x3e6ffedc	0.23437065
49	0xbe42100a	-0.18951431
50	0x3d939fd8	0.07208222
51	0x3dbd92f8	0.09256548
52	0x3e8c970e	0.27458996
53	0x3e3dedaa	0.18547693
54	0x3d0147f8	0.031562775
55	0xbe77face	-0.24216768
56	0xbe608b7e	-0.21928212
57	0xbdb17fe0	-0.08666968
58	0x3e80d1b6	0.25159997
59	0x3e16629c	0.14686054
60	0xbe37182f	-0.17880319
61	0x3e809b86	0.25118655
62	0xbe0f97b7	-0.14022718
63	0xbdc9ff54	-0.09863153

conv2.bias f4 [64]
0	0xbcb39cec	-0.021925412
1	0x3cfa6805	0.030567179
2	0x3c6c2362	0.014412733
3	0xbc37eb05	-0.011225467
4	0xbc428ee6	-0.01187489
5	0x3bde6550	0.0067869797
6	0xbc711f58	-0.014716946
7	0x3ca98c5b	0.02069681
8	0xbc4f6486	-0.012658244
9	0x3c006227	0.007835901
10	0x3c989aef	0.018628566
11	0xbcb3c1f0	-0.021943063
12	0xbcda6ff4	-0.026664712
13	0x398df506	0.00027076172
14	0x3bd6988f	0.006548948
15	0x3c29e73f	0.010370075
16	0xbc1e89b9	-0.00967639
17	0xbca70916	-0.020390075
18	0xbc0dfa17	-0.008665583
19	0xbc40662d	-0.011743111
20	0x3bd562ff	0.0065120454
21	0x3cb2f98f	0.021847514
22	0xbcc0ad4d	-0.023520136
23	0xbc21d18c	-0.00987662
24	0x3cb212a7	0.02173741
25	0xbadb3315	-0.0016723598
26	0xb6d43300	-6.3240295e-06
27	0x3cdf304b	0.027244708
28	0xbc6b5557	-0.014363608
29	0xbcab399f	-0.0209015
30	0xbc32f899	-0.010923528
31	0x3ce91c10	0.028455764
32	0x3ce31bcb	0.027723214
33	0x3b5ca267	0.0033666135
34	0x3c5cb387	0.013470537
35	0x3c4ac6d0	0.012376502
36	0xbc9dd40b	-0.019266149
37	0xbbf8ebff	-0.0075964923
38	0x3c6fa333	0.014626312
39	0x3b9ac325	0.00472297
40	0x3cb656d8	0.022258207
41	0xbcbd5457	-0.023111505
42	0x3c46db6b	0.012137274
43	0x3c844fd0	0.016151339
44	0x3a85c498	0.0010205684
45	0xbc45b510	-0.012067094
46	0x3c5e2bdf	0.013560264
47	0x3c00b8e8	0.007856585
48	0x3d532121	0.051545266
49	0xbc8e5462	-0.017374221
50	0x3c3d2eb0	0.011546776
51	0xbc064323	-0.008194718
52	0xbc4f0a95	-0.0126368
53	0xbb8a28f3	-0.0042163073
54	0x3c01b166	0.00791583
55	0x3b45cac7	0.003018068
56	0x3c408c85	0.0117522525
57	0xbc71e43a	-0.014763886
58	0x3cb00de0	0.021490991
59	0x3b3c3930	0.002872061
60	0xbb3ea494	-0.0029089795
61	0x3c7670b6	0.015041521
62	0x3b8f12b8	0.004366245
63	0xbcb9f1e7	-0.022698356

conv2.lin_l.weight f4 [64, 64]
0	0xbd284567	-0.041081812
1	0x3d39ec92	0.045391627
2	0xbd4d985a	-0.050194122
3	0x3dcd6d77	0.100306444
4	0xbd240e43	-0.040052664
5	0x3d745ca7	0.059658673
6	0x3d2e5fd9	0.042571876
7	0x3ce95814	0.028484382
8	0xbd3eb2c4	-0.046557203
9	0x3d9ea2c4	0.07745889
10	0x3dc45b02	0.09587671
11	0x3d878f9e	0.0661919
12	0x3c86d035	0.016456703
13	0x3d0d5de4	0.03451337
14	0xbd902c12	-0.07039656
15	0x3d90f2b9	0.07077546
16	0xbc9b931c	-0.018991046
17	0x3be2bc00	0.006919384
18	0x3b3f155f	0.0029157025
19	0x3db79064	0.08963087
20	0xbd9e5bc2	-0.07732345
21	0x3d09e27d	0.03366326
22	0xbb9a37bd	-0.0047063516
23	0xbd093f39	-0.03350756
24	0x3c84a7f1	0.016193362
25	0x3db6db3a	0.08928533
26	0x3d8d9500	0.06913185
27	0xbd641b0c	-0.055689856
28	0x3d376d19	0.044781778
29	0xbe065de3	-0.13121752
30	0xbc2a6300	-0.01039958
31	0x3d45596a	0.048180975
32	0x3d0c301d	0.034225572
33	0xbdd7704b	-0.10519465
34	0x3dc2fd28	0.09520942
35	0xbc8c6f1e	-0.017142829
36	0xbdf96042	-0.12176563
37	0xbc091571	-0.008366928
38	0xbc9077b3	-0.017635202
39	0xbd0ed53a	-0.034871317
40	0x3e73d67f	0.23812293
41	0x3cc205c1	0.023684384
42	0x3e20fcc4	0.15721422
43	0xbbd37aa9	-0.006453831
44	0x3d7337d7	0.059379425
45	0xbd2f707b	-0.04283188
46	0xbe05cc98	-0.13066328
47	0x3dda9f12	0.106748715
48	0xbc8d68f9	-0.017261969
49	0x3db819ca	0.08989294
50	0xbd31fbe5	-0.043453116
51	0x3d99cf5b	0.07510253
52	0x3d0fd47f	0.03511476
53	0x3dc45a1f	0.09587502
54	0x3d7355c6	0.05940797
55	0xbca625b7	-0.020281656
56	0x3e009b3c	0.12559217
57	0x3d05a963	0.032632243
58	0x3d8d3607	0.068950705
59	0x3dbe0c16	0.09279649
60	0x3de06c04	0.10958102
61	0xbdbc76fb	-0.09202381
62	0x3ceab1f1	0.028649302
63	0xbd24b943	-0.04021574
64	0x3d8c80cf	0.06860506
65	0xbc077402	-0.0082674045
66	0x3b03b800	0.0020098686
67	0xbd5b9e8d	-0.053618003
68	0x3b0f1746	0.002183394
69	0xbbfee7b5	-0.0077790865
70	0x3d469612	0.048482962
71	0xbbc62406	-0.006046775
72	0xbd8091f6	-0.0627784
73	0x3d4fa06a	0.050690092
74	0x3c51a5f0	0.01279591
75	0xbccd91e8	-0.025093988
76	0xbd88750b	-0.06662949
77	0x3d9ad751	0.075605996
78	0x3d5dbbcc	0.054134175
79	0xbdcc29f8	-0.099689424
80	0xbd6b7f69	-0.057494555
81	0x3d086d70	0.033307493
82	0xbdabbffd	-0.08386228
83	0x3db08526	0.08619146
84	0xbd68539e	-0.05672037
85	0xbda4106e	-0.08010946
86	0x3b835315	0.004007707
87	0x3d40beac	0.04705684
88	0xbca77cde	-0.020445284
89	0x3dd13237	0.10214656
90	0x3da3ac1e	0.07991813
91	0x3c0accd3	0.008471685
92	0x3d0d71f1	0.03453249
93	0x3d28b816	0.041191183
94	0x3cbe3c35	0.023222068
95	0x3d358822	0.04431928
96	0x3c289eb6	0.010291746
97	0x3daa9d73	0.08330812
98	0xbca03fcb	-0.019561669
99	0xbca629a5	-0.02028353
100	0x3dab158a	0.083537176
101	0x3d734a9f	0.059397336
102	0x3b679339	0.0035335554
103	0x3d0b4f90	0.034011424
104	0xbe04c06b	-0.12964027
105	0xbc2e7346	-0.0106476005
106	0xbd1525aa	-0.036412872
107	0x3cfd8a38	0.030949697
108	0xbd7a932f	-0.06117552
109	0xbda68da6	-0.08132486
110	0xbdabe4f6	-0.0839328
111	0xbd97b8f1	-0.07408322
112	0x3e217358	0.15766656
113	0xbd587a5b	-0.052851062
114	0x3da74dc7	0.08169132
115	0xbd33ecf7	-0.04392716
116	0xbc968acc	-0.01837673
117	0xbd1d1798	-0.03835258
118	0xbc2af926	-0.010435378
119	0xbd599b5a	-0.05312667
120	0xbdb9283e	-0.09040879
121	0x3d761586	0.06007912
122	0xba099e74	-0.00052497466
123	0x3db49f10	0.08819401
124	0xbdbc6a63	-0.09199979
125	0x3cef0df0	0.02918145
126	0x3cb16e4c	0.021659039
127	0xbdb174dc	-0.08664867
128	0x3db85f0b	0.09002503
129	0x3c7d46d5	0.015458782
130	0x3bcee2f8	0.006313678
131	0xbdfdef50	-0.12399161
132	0xbdaa1c96	-0.083062336
133	0x3db4fd7c	0.08837411
134	0x3cdb0b5b	0.026738813
135	0xbd90e60b	-0.07075127
136	0xbd842132	-0.06451644
137	0x3d70fae1	0.058833007
138	0x3d1c79d3	0.038202118
139	0xbe09a0cb	-0.13440244
140	0x3d9fd6aa	0.07804616
141	0xbd658eca	-0.056044377
142	0x3d8d11c2	0.06888153
143	0xbd8843b3	-0.066535376
144	0x3db00893	0.085953854
145	0xbdbd29ae	-0.092364654
146	0xbc62e4bf	-0.013848483
147	0x3c36fb9a	0.011168385
148	0xbcc807cb	-0.024417778
149	0x3e0bf833	0.13668899
150	0x3e4a8a34	0.19779283
151	0xbdc4c93d	-0.09608696
152	0xbd8b82b9	-0.06812043
153	0x3e1156db	0.14193289
154	0x3d1d1681	0.03835154
155	0xbd41a33c	-0.047274813
156	0x3ac68c30	0.001514798
157	0xbbd472fd	-0.0064834342
158	0xbd54ac8b	-0.051922362
159	0x3d537f75	0.051635224
160	0xbc9bc6f3	-0.019015765
161	0xbdb4887b	-0.08815094
162	0x3cc45a10	0.023968726
163	0x3d9b746b	0.07590564
164	0x3bf9d933	0.007624769
165	0x3d827220	0.06369424
166	0x3dd61096	0.10452382
167	0xbc48d6af	-0.012258216
168	0xbe16a342	-0.14710715
169	0xbd0afc2d	-0.0339319
170	0xbe0fd86b	-0.140474
171	0x3b71ab49	0.0036875776
172	0xbde129c7	-0.109942965
173	0x3c6f719e	0.014614491
174	0xbc5e275b	-0.013559188
175	0xbb90d857	-0.004420321
176	0xbd946cde	-0.07247327
177	0xbd8ab103	-0.067720436
178	0xbd499a63	-0.0492195
179	0x3d17de1f	0.037077066
180	0x3d14b650	0.03630668
181	0xbd1d7c53	-0.038448643
182	0x3cd56ea9	0.026053743
183	0x3df01d4f	0.1172434
184	0xbc424fb6	-0.011859825
185	0x3c264fba	0.010150844
186	0x3d640121	0.05566514
187	0x3d879082	0.066193596
188	0x3d135ed4	0.035979107
189	0x3d21a8e2	0.0394677
190	0xbd690970	-0.056893766
191	0xbdfa36e3	-0.122175
192	0xbdc9983b	-0.09843489
193	0x3d838eaa	0.064236954
194	0x3d0c3b76	0.034236394
195	0xbdc2bed0	-0.09509051
196	0x3ddf5f3e	0.10906838
197	0x3dac3d9d	0.08410189
198	0xbd635bca	-0.05550746
199	0xbd12d73f	-0.035849806
200	0x3dcb1e18	0.09917849
201	0xbce9cc42	-0.02853978
202	0xbd8d4db0	-0.06899583
203	0xbd293246	-0.04130771
204	0x3dc08d7f	0.09401988
205	0xbd85b920	-0.065294504
206	0x3d899571	0.06717957
207	0xbd9520dc	-0.07281658
208	0x3d648b9d	0.055797208
209	0xbc294940	-0.010332406
210	0x3c7b39b1	0.015333579
211	0xbd129308	-0.03578475
212	0xbd52f498	-0.051502794
213	0xbdb39822	-0.087692514
214	0x3c6af7db	0.01434132
215	0x3d47a211	0.048738543
216	0xbd317b60	-0.04333055
217	0xbddad92a	-0.10685952
218	0x3c7e6c35	0.015528728
219	0x3d069813	0.032859873
220	0x3c81d434	0.015848257
221	0xbc973ff6	-0.018463116
222	0xbc016919	-0.007898592
223	0x3dd6fc59	0.1049735
224	0xbd072c35	-0.033001143
225	0xbd871351	-0.06595481
226	0xbc48bbf2	-0.012251841
227	0x3d06b3bc	0.03288625
228	0xbd96455f	-0.0733745
229	0xbd0b1e0f	-0.033964213
230	0x3dd3f714	0.10349861
231	0x3dd6957f	0.10477733
232	0x3e4da3ab	0.20081966
233	0x3d2df966	0.042474173
234	0x3d3ee041	0.046600584
235	0xbc1a0769	-0.009401181
236	0xbb64d108	-0.0034914631
237	0x3d59f735	0.05321427
238	0xbdb57781	-0.08860684
239	0x3d667e56	0.056272827
240	0xbc74713d	-0.014919576
241	0x3da05122	0.07827975
242	0x3ac33ade	0.0014894863
243	0xbd10ccfb	-0.035351735
244	0x3dd38071	0.10327233
245	0xbdbe9ad0	-0.09306872
246	0x3d9f9e2e	0.07793842
247	0x3cf209c7	0.029545678
248	0x3d79fc93	0.06103189
249	0x3d83db44	0.06438306
250	0xbd2a936a	-0.04164449
251	0x3d2b1afc	0.04177378
252	0x3d145c51	0.036220852
253	0x3d72fd63	0.05932368
254	0x3da036fd	0.07822988
255	0x3dbf62aa	0.093449906

conv2.lin_l.bias f4 [64]
0	0x3d50fb0f	0.051020678
1	0x3d3514ba	0.04420922
2	0x3d090ea6	0.033461235
3	0xbda683c6	-0.081306025
4	0xbdb1c753	-0.08680596
5	0x3c33daa6	0.010977423
6	0xbe15ed04	-0.14641196
7	0x3c84a1ba	0.016190398
8	0xbda8d0d7	-0.08242958
9	0xbd117c3c	-0.03551887
10	0x3cd271f8	0.02568911
11	0xbdf8ed9d	-0.12154696
12	0x3d042972	0.032266088
13	0xbdb5a543	-0.08869412
14	0xbce6f3f5	-0.0281925
15	0xbc0066d0	-0.007837012
16	0x3dcca1b6	0.099917814
17	0xbdc21766	-0.09477119
18	0x3cc25635	0.023722747
19	0x3dcf2735	0.101149
20	0xbde08b43	-0.10964062
21	0xbd54de92	-0.051970072
22	0x3db4e597	0.08832853
23	0xbdbce10e	-0.09222613
24	0xbdbe5a7f	-0.092946045
25	0xbd98dff6	-0.07464592
26	0x3d59e43f	0.053196188
27	0xbdbc5a7d	-0.09196947
28	0xbd478440	-0.048710108
29	0x3ca4dc25	0.020124504
30	0x3dd2f421	0.1030047
31	0x3dce491b	0.100725375
32	0x3d9eb2c0	0.077489376
33	0x3ce33ab5	0.027737955
34	0x3d6b2bc9	0.057414804
35	0xbdde75e9	-0.10862333
36	0x3d676650	0.056494057
37	0xbda6a5d3	-0.08137097
38	0x3d845705	0.0646191
39	0x3d96353f	0.07334375
40	0x3d148647	0.03626087
41	0xbcbbb607	-0.022913946
42	0xbdbd931d	-0.09256575
43	0xbd9b8819	-0.07594318
44	0x3db664de	0.08905958
45	0x3d1111ab	0.03541724
46	0x3bda899f	0.0066692377
47	0xbd901df4	-0.07036963
48	0x3cb20bb6	0.0217341
49	0x3c72ca9a	0.014818812
50	0x3dda49de	0.1065862
51	0x3d8199ce	0.06328164
52	0x3cdc9a73	0.026929116
53	0x3de3409b	0.11096307
54	0xbdf5604a	-0.11981256
55	0xbd00ed35	-0.03147622
56	0xbdafbdd5	-0.085811295
57	0x3d0a2e1e	0.033735387
58	0x3cf9b6ac	0.030482613
59	0x3a8917c5	0.0010459354
60	0xbd854721	-0.065077074
61	0xbd8fa413	-0.070137165
62	0xbd1937c0	-0.037406683
63	0xbb90ee54	-0.004422942

conv2.lin_r.weight f4 [64, 64]
0	0xbda5c9da	-0.08095141
1	0x3db3e5a2	0.08784033
2	0xbdf64632	-0.120251074
3	0x3cd10ef8	0.025519833
4	0xbdd19d24	-0.1023505
5	0x3db6bac6	0.08922343
6	0x3d6ba780	0.057532787
7	0xbd9d3104	-0.076753646
8	0xbdb5b96e	-0.088732585
9	0xbc127460	-0.008938879
10	0xbd9fc27a	-0.07800765
11	0xbdd73dee	-0.10509859
12	0x3d17dfb0	0.03707856
13	0x3ba80720	0.0051278025
14	0xbcf7a2c8	-0.030228987
15	0xbd6faeb4	-0.05851622
16	0x3d9d634a	0.076849535
17	0xbcb4af70	-0.022056311
18	0xbda308bc	-0.0796065
19	0xbde31a0e	-0.11088954
20	0xbd8540ae	-0.06506477
21	0x3d150dc8	0.036390096
22	0xbc8ab6c0	-0.016932845
23	0xbde425fe	-0.11140059
24	0x3d44045c	0.04785572
25	0xbc335f20	-0.010947973
26	0x3dfeb838	0.12437481
27	0x3d9eca6e	0.07753454
28	0x3d936732	0.07197417
29	0x3d185290	0.037188113
30	0x3d1fab4c	0.03898172
31	0x3d96f402	0.073707595
32	0x3d939088	0.072053015
33	0x3d76d32c	0.060259983
34	0xbcf9f298	-0.030511186
35	0xbde3dfb2	-0.11126651
36	0xbd68b748	-0.056815416
37	0xbdb4c7fa	-0.08827205
38	0x3d5969c4	0.05307938
39	0x3d39d3a8	0.045367867
40	0xbd8db954	-0.06920114
41	0xbdff15f4	-0.12455359
42	0xbbd9d960	-0.0066482276
43	0x3d7e9574	0.06215425
44	0xbdd128f0	-0.10212886
45	0x3dcde0da	0.10052653
46	0xbdd42a44	-0.10359624
47	0x3c3fc180	0.011703849
48	0xbd16b2e8	-0.036791712
49	0x3d7de024	0.061981335
50	0xbd8ed418	-0.069740474
51	0x3c885fc0	0.01664722
52	0xbd47575c	-0.048667297
53	0xbdf92230	-0.12164724
54	0x3dee1246	0.11624579
55	0x3d847966	0.064684674
56	0xbcc184b8	-0.023622856
57	0xbda495c4	-0.08036378
58	0xbd4b3434	-0.04961033
59	0xbdc5e05a	-0.09661932
60	0xbd98b420	-0.07456231
61	0x3ce62aa0	0.028096497
62	0x3baa9f20	0.0052069575
63	0x3c376790	0.011194125
64	0x3d8f67fc	0.07002255
65	0xbdafbdfe	-0.0858116
66	0x3bf790e0	0.0075551122
67	0xbd65f390	-0.056140482
68	0xbd8f2490	-0.069893956
69	0x3d2a70e8	0.041611582
70	0x3dc92fd2	0.09823574
71	0xbdf138e4	-0.11778429
72	0xbd3d5c8c	-0.046230838
73	0x3dad0d66	0.08449821
74	0xbddbfc2c	-0.10741457
75	0xbdf406ea	-0.11915381
76	0xbcb8db70	-0.022565573
77	0xbc1b33c0	-0.009472787
78	0x3de0e5ec	0.10981354
79	0xbc4b4040	-0.012405455
80	0xbd2bb394	-0.041919306
81	0x3dfd58aa	0.12370427
82	0x3d407ad0	0.046992123
83	0x3dd687fa	0.10475154
84	0xbbc9ff60	-0.0061644763
85	0xbbab87c0	-0.0052346885
86	0x3d345894	0.044029787
87	0xbd6f2164	-0.058381453
88	0x3da71034	0.081573874
89	0x3dae2380	0.08502865
90	0x3da85518	0.08219355
91	0x3df7e80a	0.12104805
92	0xbd2c11e8	-0.042009264
93	0x3bc2ab00	0.005940795
94	0x3d279f44	0.040923372
95	0x3bfe45c0	0.0077597797
96	0xbdb1beea	-0.08678992
97	0x3de276c4	0.11057809
98	0x3c27d690	0.010244027
99	0x3d86ab0a	0.06575592
100	0xbb6aa540	-0.0035804063
101	0xbd434dc8	-0.0476816
102	0x3c3f66c0	0.011682212
103	0xbd9e3e5a	-0.07726736
104	0x3d34e950	0.044167817
105	0x3d92292c	0.07136759
106	0xbdbd6ef2	-0.09249677
107	0x3d3800ac	0.044922516
108	0x3d5ad904	0.05342962
109	0x3da3b710	0.07993901
110	0xbd5e1260	-0.054216743
111	0xbc088cf0	-0.008334383
112	0x3dfae4ca	0.12250669
113	0x3d9f0ea2	0.07766463
114	0xbd958352	-0.07300438
115	0xbd0c3044	-0.034225717
116	0x3ddee116	0.108827755
117	0xbdd56fce	-0.10421716
118	0x3da6fcf6	0.08153717
119	0x3dd0f536	0.1020302
120	0x39cd2a00	0.0003913194
121	0x3cc95d48	0.024580613
122	0xbd9d62da	-0.0768487
123	0xbda1148c	-0.07865247
124	0xbd4f33a8	-0.050586373
125	0x3d3970e4	0.045273677
126	0xbd37cee8	-0.044875056
127	0x3ca9bf80	0.020721197
128	0x3c2e2190	0.010628119
129	0x3ddc8b64	0.10768774
130	0xbcec9e40	-0.028884053
131	0xbdced7ba	-0.1009974
132	0x3ccee7d0	0.025257021
133	0xbcb59b90	-0.022168905
134	0x3db2f284	0.087376624
135	0xbd76a578	-0.060216397
136	0xbd3193c8	-0.043353826
137	0x3dbe35bc	0.09287593
138	0xbcdbc7b8	-0.026828632
139	0xbd6d2754	-0.057898834
140	0xbd068f9c	-0.0328518
141	0x3dee7f2e	0.11645351
142	0xbdd4fb94	-0.10399547
143	0x3d61fbe0	0.055171847
144	0xbd21b320	-0.039477468
145	0xbdc8e7fc	-0.098098725
146	0xbc7c8ed0	-0.0154149085
147	0x3c7b8ab0	0.01535289
148	0x3d87f2dc	0.066381186
149	0x3cc547c0	0.024082065
150	0xbdd6de1e	-0.10491584
151	0xbd5abbb4	-0.053401664
152	0x3dc9dae6	0.09856205
153	0xbcb0d3d0	-0.021585375
154	0xbdeb964e	-0.11503278
155	0xbc965388	-0.018350378
156	0x3d37c5a0	0.044866204
157	0x3b26b6c0	0.0025438517
158	0xbd951de2	-0.0728109
159	0x3c88e360	0.016709983
160	0x3dea05ee	0.11426912
161	0xbcdc5608	-0.026896492
162	0xbde473ac	-0.11154875
163	0xbc829618	-0.01594071
164	0x3da9ce26	0.08291273
165	0x3d457fc4	0.04821755
166	0x3dd65080	0.10464573
167	0xbcdfe2b0	-0.027329773
168	0x3de2d0c6	0.110749766
169	0xbd71a568	-0.058995634
170	0x3cc21dc0	0.023695827
171	0xbde6e73c	-0.11274573
172	0x3da605e0	0.08106589
173	0x3c988640	0.018618703
174	0x3c2256b0	0.009908363
175	0x3c1b5b10	0.00948216
176	0x3de73166	0.11288719
177	0x3b94c5e0	0.00454019
178	0x3d100284	0.03515865
179	0x3c981fc8	0.018569842
180	0x3d8a0c5e	0.0674064
181	0xbcf11718	-0.029429957
182	0x3bd69480	0.0065484643
183	0xbc98bcd8	-0.018644735
184	0x3d38016c	0.04492323
185	0xbd857988	-0.06517321
186	0x3d58b92c	0.05291097
187	0xbdc74e64	-0.09731749
188	0xb89b5800	-7.407367e-05
189	0xbd70ba94	-0.058771685
190	0xbd0fa780	-0.03507185
191	0xbdfd44d6	-0.12366645
192	0x3d00e0ec	0.031464502
193	0x3d93522a	0.07193406
194	0x3d343740	0.043998003
195	0xbdc090fe	-0.09402655
196	0xbcb04c78	-0.021520838
197	0x3da2e128	0.079531014
198	0x3d92e850	0.07173216
199	0xbd1c4320	-0.038149953
200	0xbcc6c868	-0.024265483
201	0xbd18b400	-0.037281036
202	0x3d1dfd80	0.038571835
203	0xbd418210	-0.047243178
204	0xbccbec58	-0.02489297
205	0xbcc3f718	-0.023921534
206	0x3d42a4d4	0.047520474
207	0xbd16cbb4	-0.03681536
208	0x3dbcc1b4	0.092166334
209	0xbc1a1580	-0.00940454
210	0x3cc6cd20	0.024267733
211	0x3dbc813a	0.092043355
212	0x3cbe7558	0.023249313
213	0x3db37a96	0.08763616
214	0x3a856280	0.001017645
215	0xbdfc7aa2	-0.12328078
216	0x3dbaf30e	0.0912839
217	0xbcaef7b0	-0.021358341
218	0x3d949874	0.072556406
219	0x3d776b88	0.060405284
220	0x3c21a390	0.0098656565
221	0xbda91f94	-0.08257976
222	0xbd6bdcac	-0.057583496
223	0xbd68873c	-0.056769595
224	0xbd45325c	-0.04814373
225	0xbdaba2bc	-0.083806485
226	0xbdcc782c	-0.099838585
227	0x3df9e086	0.122010276
228	0x3d1335f0	0.03594011
229	0x3d135e0c	0.035978362
230	0x3cee5338	0.029092416
231	0xbdbd33dc	-0.09238407
232	0x3dcfd0d4	0.10147253
233	0xbdb96f5a	-0.09054442
234	0xbd845d6c	-0.06463131
235	0x3dd7e0b2	0.10540904
236	0xbcc37018	-0.023857161
237	0x3d2c0664	0.041998282
238	0x3dc974fc	0.09836766
239	0xbd9e3700	-0.07725334
240	0xbdda5058	-0.106598556
241	0x3d868f9e	0.065703616
242	0x3c23fd00	0.01000905
243	0xbde4f548	-0.11179596
244	0xbd636130	-0.055512607
245	0xbdc2b820	-0.09507775
246	0x3d5cc848	0.05390194
247	0xbdcf9f22	-0.10137774
248	0xbd487c88	-0.048946887
249	0x3d5f92bc	0.054583296
250	0xbcc1b3a8	-0.023645237
251	0xbda5de0c	-0.08098993
252	0x3db34628	0.087536156
253	0xbd6d0e00	-0.05787468
254	0xbd4206a4	-0.047369614
255	0x3dd186aa	0.10230763

conv2.lin_r.bias f4 [64]
0	0xbdb0bb14	-0.08629432
1	0xbb945520	-0.0045267493
2	0x3d1ec854	0.038765267
3	0x3d823150	0.06357062
4	0x3c0baec0	0.00852555
5	0x3bf252e0	0.0073951334
6	0xbddf31e6	-0.10898189
7	0xbddb6d08	-0.107141554
8	0x3dd8ddac	0.105891556
9	0xbd531a28	-0.051538616
10	0xbdab1176	-0.0835294
11	0x3d18d440	0.037311792
12	0xbc6785d0	-0.0141310245
13	0xbcf4a0e0	-0.029861867
14	0xbb7dbf00	-0.0038718581
15	0xbce580e0	-0.028015554
16	0x3da958fe	0.08268927
17	0xbd7f9e20	-0.06240666
18	0xbda77ee0	-0.08178496
19	0x3d2e5ef4	0.042571023
20	0xbdc60f54	-0.09670892
21	0x3db05f5e	0.0861194
22	0xbdc6b998	-0.09703368
23	0x3b189880	0.0023284256
24	0xbda5e8bc	-0.08101031
25	0xbd965fa2	-0.07342459
26	0xbd2f49c0	-0.042794943
27	0xbd156ac8	-0.036478788
28	0x3d94338c	0.07236394
29	0x3dab130a	0.08353241
30	0xbd084dd8	-0.033277363
31	0xbd617d1c	-0.055050954
32	0xbd976990	-0.07393181
33	0x3ddda94a	0.10823305
34	0xbddeb2e0	-0.108739614
35	0xbdd0f27a	-0.10202499
36	0xbb870500	-0.004120469
37	0xbde54424	-0.111946374
38	0x3d58e89c	0.05295621
39	0x3dfb75f4	0.12278357
40	0xbdb29720	-0.08720231
41	0x3d811652	0.063030854
42	0xbdd7f974	-0.10545626
43	0xbd76e2bc	-0.060274825
44	0x3de769e4	0.11299494
45	0x3da086b2	0.07838191
46	0x3dad2474	0.084542185
47	0x3debf896	0.115220234
48	0xbdd3ef8e	-0.10348426
49	0xbd86a97c	-0.06575295
50	0xbdb152c6	-0.08658366
51	0xbdc3c21a	-0.09558506
52	0x3d7740c0	0.060364485
53	0x3dc36618	0.09540957
54	0x3db0ad8a	0.0862685
55	0x3da6e8d8	0.0814988
56	0xbdc71e20	-0.09722543
57	0xbcb772f0	-0.022393674
58	0xbd05f350	-0.032702744
59	0xbd586c2c	-0.052837536
60	0x3cc34da8	0.02384074
61	0x3cc5eec0	0.024161696
62	0x3d08dfe0	0.03341663
63	0x3cd34200	0.025788307

conv2.lin_edge.weight f4 [64, 2]
0	0x3f2999fb	0.6625058
1	0x3e8d2344	0.27565968
2	0xbf2cc972	-0.6749488
3	0xbef165b8	-0.47147918
4	0x3e9ea1be	0.30982774
5	0x3ee06c42	0.43832594
6	0xbeb16063	-0.3464385
7	0xbf339fbf	-0.7016563
8	0xbebb5924	-0.36591446
9	0xbeb670fd	-0.35633078
10	0x3e887b6e	0.2665667
11	0xbe561b8a	-0.20908943
12	0x3c6a6d40	0.014308274
13	0x3eedf5a6	0.46476477
14	0xbe370ea8	-0.17876685
15	0xbe8a7215	-0.27040163
16	0x3f0df2ed	0.554488
17	0xbf055964	-0.52089524
18	0xbf2df29a	-0.67948306
19	0x3f1d4819	0.6143814
20	0xbe413488	-0.18867695
21	0x3e1f7180	0.1557064
22	0xbf2ca413	-0.6743786
23	0x3cc57400	0.024103165
24	0xbdcb1988	-0.09916979
25	0x3f1d3d99	0.61422116
26	0x3ed84aba	0.42244512
27	0xbf1fa995	-0.62368137
28	0x3e01585c	0.12631363
29	0xbdc12840	-0.09431505
30	0xbdebb208	-0.11508566
31	0x3eac52fa	0.33657056
32	0xbf0b42bc	-0.54398704
33	0x3e90b006	0.28259295
34	0xbef4bee2	-0.47801882
35	0xbebb3d41	-0.3657017
36	0x3db284c0	0.08716726
37	0x3ecb1e0a	0.39671355
38	0xbf23daba	-0.64005625
39	0xbdb9b1d0	-0.09067118
40	0x3f21df6d	0.63231546
41	0x3ede4dde	0.43418783
42	0xbd08f2a0	-0.03343451
43	0x3e960546	0.29300898
44	0x3d6aea50	0.057352364
45	0xbe1bba90	-0.15207887
46	0xbed1b84f	-0.4096093
47	0xbf08031d	-0.5312975
48	0xbf0838bd	-0.53211576
49	0x3e57fd28	0.21092665
50	0x3f1a6eb5	0.60325176
51	0xbee86295	-0.45387712
52	0x3e82caaa	0.25545245
53	0x3edb559a	0.42838746
54	0x3f26c657	0.6514639
55	0x3e9b7f4e	0.30370563
56	0xbdb141e0	-0.08655143
57	0x3f105f4d	0.5639542
58	0x3ecdb592	0.4017759
59	0xbe2acf7c	-0.16680712
60	0xbf1a218f	-0.60207456
61	0xbdfcda88	-0.12346369
62	0x3f0aea45	0.54263717
63	0x3f14e285	0.5815814
64	0xbf210656	-0.6290029
65	0xbe72790e	-0.23678991
66	0x3dad7e70	0.08471382
67	0xbef5ab0a	-0.47982055
68	0xbed0c50a	-0.4077533
69	0x3f2b9e9f	0.6703891
70	0x3f2d45a9	0.6768442
71	0x3e93a394	0.28835738
72	0x3f1594db	0.5843026
73	0x3ee1127e	0.4395942
74	0xbe560dfe	-0.20903775
75	0xbf119c24	-0.56878877
76	0xbea08876	-0.3135411
77	0xbebc5c62	-0.36789232
78	0x3d83cf50	0.06436026
79	0x3f1f0299	0.6211334
80	0x3f322cbf	0.6959953
81	0x3f1870ad	0.5954693
82	0x3d87c310	0.06629002
83	0xbe55c4ac	-0.20875806
84	0xbece4cdb	-0.4029301
85	0x3ea5351a	0.32267076
86	0x3dc86d68	0.097864926
87	0x3d200040	0.03906274
88	0x3e9be962	0.30451494
89	0xbf044e82	-0.51682293
90	0x3eaf82f2	0.3427959
91	0x3f34eafd	0.70671064
92	0x3e62ffa0	0.22167826
93	0xbeef6f68	-0.46764684
94	0x3de0e710	0.10981572
95	0x3f2ae757	0.66759247
96	0xbd6ec960	-0.058297515
97	0x3f2871d3	0.6579868
98	0xbeda1cd4	-0.4260012
99	0xbcaa0ce0	-0.020758092
100	0x3ea0d8d2	0.3141542
101	0xbeff9b5c	-0.49923217
102	0xbe835159	-0.25648
103	0xbdb67ee8	-0.08910924
104	0x3ea164b6	0.3152215
105	0x3d94f538	0.07273334
106	0xbd9d13e0	-0.076698065
107	0x3d4a1020	0.049331784
108	0xbf2502c8	-0.6445737
109	0xbe2e7bc8	-0.17039406
110	0xbeaae920	-0.33380985
111	0xbd7f01a0	-0.06225741
112	0xbe97d036	-0.2965104
113	0x3d80a450	0.0628134
114	0xbf2d80be	-0.6777457
115	0xbdd73228	-0.105076134
116	0xbe4c5a48	-0.19956315
117	0xbe6aa0c4	-0.2291289
118	0xbf1a2930	-0.602191
119	0x3edd686a	0.43243724
120	0xbdedd8d8	-0.11613625
121	0x3f2650f5	0.6496728
122	0xbe4da354	-0.20081836
123	0xbf0f46cb	-0.55967396
124	0x3e637c4c	0.22215384
125	0x3f060af7	0.5236048
126	0x3e88864c	0.2666496
127	0xbd879c30	-0.06621587

fc.weight f4 [2, 64]
0	0x3d6e1701	0.058127407
1	0x3de32657	0.11091297
2	0x3d39d8ad	0.045372654
3	0xbd88f7e6	-0.06687908
4	0xbcc928a3	-0.02455551
5	0xbd02babd	-0.03191637
6	0x3bf3df10	0.0074423626
7	0xbc9774eb	-0.018488368
8	0xbd97a344	-0.07404187
9	0x3bbee8e8	0.0058261044
10	0x3cfb5e90	0.03068474
11	0x3cbacda8	0.022803143
12	0x3d29c187	0.041444328
13	0xbd921dc7	-0.07134586
14	0xbc825f61	-0.01591462
15	0x3cd6da78	0.02622722
16	0x3dde033c	0.10840461
17	0xbaaba85e	-0.0013096442
18	0xbd92b21b	-0.07162877
19	0x3c860ca9	0.016363459
20	0xbdaabaed	-0.083364345
21	0x3c9cbbf0	0.019132584
22	0x3c214057	0.009842
23	0xbadfe598	-0.0017081974
24	0xbd586884	-0.05283405
25	0x3bdf1e2d	0.006809017
26	0x3d33c781	0.043891434
27	0x3d6ef8e1	0.05834282
28	0x3d386963	0.04502238
29	0xbd887e42	-0.06664707
30	0x3d75cfb8	0.06001255
31	0x3d0956c8	0.033530027
32	0x3cee15a4	0.029063053
33	0x3cc6d7c8	0.024272814
34	0x3dd96ecb	0.10616835
35	0x3d8bdde5	0.068294324
36	0xbd066888	-0.032814533
37	0x3d24a43b	0.040195685
38	0x3b929f8e	0.004474587
39	0x3d07319a	0.033006288
40	0x3d1dd3dd	0.038532127
41	0xbd32d9e9	-0.043664847
42	0xbdae2788	-0.08503634
43	0x3cc791e9	0.024361568
44	0xbd131788	-0.035911113
45	0xbd7b2a15	-0.06131943
46	0x3b780d6e	0.0037849802
47	0xbbb14d35	-0.005410815
48	0xbda8f3bc	-0.08249614
49	0x3ca27b11	0.019834073
50	0x3d3c192c	0.045922443
51	0x3d49d4e0	0.04927528
52	0x3dd05223	0.10171916
53	0x3d108b5b	0.03528915
54	0xbbf116c6	-0.007357451
55	0x3d9533e4	0.07285288
56	0xbd3513af	-0.044208225
57	0x3cba8e69	0.022772985
58	0xbdb167bb	-0.08662363
59	0x3ca3a5fb	0.019976607
60	0x3de0a490	0.10968888
61	0x3db29666	0.087200925
62	0x3deafd71	0.11474121
63	0xbb6b0394	-0.0035860287
64	0x3d76b12c	0.060227558
65	0x3de7acb2	0.11312236
66	0x3d184f1a	0.037184812
67	0xbd8a1eeb	-0.067441784
68	0xbc9f474c	-0.019443177
69	0xbce109a3	-0.027470415
70	0xbc9a5d40	-0.018843293
71	0xbc8fbc57	-0.017545862
72	0xbd9b8b20	-0.07594895
73	0x3b52e233	0.0032178282
74	0x3cd9eb6d	0.026601518
75	0xbcc6f96a	-0.024288852
76	0x3d1d4b3e	0.038401835
77	0xbd88f909	-0.06688125
78	0xbc715025	-0.014728581
79	0x3ce23ad5	0.027615944
80	0x3dd8bcf6	0.105829164
81	0xbc1d3c89	-0.009596952
82	0xbd9a137c	-0.075232476
83	0x3c6b585d	0.014364329
84	0xbda6c4b2	-0.081429854
85	0x3be601f7	0.007019277
86	0x3ba06abc	0.004895536
87	0xbb812796	-0.0039414866
88	0xbd426a85	-0.047464866
89	0x3cc0e304	0.02354575
90	0x3d90d74b	0.07072314
91	0x3d796f2e	0.060897045
92	0x3ce74c3f	0.0282346
93	0xbd89eb2f	-0.06734311
94	0x3d9d7648	0.07688576
95	0x3d644187	0.055726554
96	0x3cf3f106	0.029778015
97	0x3cd5197b	0.026013127
98	0x3dde853b	0.108652554
99	0x3d859849	0.06523187
100	0xbce29aa0	-0.027661622
101	0x3d2f9b4a	0.042872705
102	0x3ccb033b	0.024781814
103	0x3cf89df7	0.030348761
104	0x3d33e8d2	0.043923207
105	0xbd1b30f0	-0.037888467
106	0xbda91444	-0.082558185
107	0x3c83f765	0.016109178
108	0xbd0e0b7f	-0.034678932
109	0xbd140b7e	-0.036143772
110	0x3b8d52aa	0.004312833
111	0x3af7a14e	0.0018892677
112	0xbd4eaec1	-0.050459627
113	0x3c2b5a43	0.010458532
114	0x3d375a80	0.044764042
115	0xbd5a15bc	-0.053243384
116	0x3dcf3a11	0.10118497
117	0x3ce7d1f7	0.028298361
118	0xbbf313de	-0.00741814
119	0x3d88b8c2	0.06675865
120	0xbdb63bc9	-0.08898122
121	0x3cfd6e32	0.030936334
122	0xbda4aec3	-0.08041146
123	0x3c9be42a	0.019029696
124	0x3dd72005	0.10504154
125	0x3dbbead4	0.09175649
126	0x3ddf34b6	0.10898726
127	0xbd7f3fab	-0.062316578

fc.bias f4 [2]
0	0xbd1bcb67	-0.038035776
1	0x3d38ff15	0.04516514
