saved_models/edgat9_slic.pt (torch, 43958 bytes, 16 tensors)

conv1.att f4 [1, 1, 64]
0	0x3dabcd48	0.08388764
1	0x3e4f425c	0.20240158
2	0x3dd6a5c0	0.10480833
3	0xbe2447d0	-0.1604302
4	0xbe2d63c0	-0.16932583
5	0xbdd2515c	-0.10269424
6	0xbe83158e	-0.25602382
7	0xbe5be28e	-0.21473143
8	0xbe84abb4	-0.2591225
9	0xbe6d1972	-0.23154238
10	0x3e50087c	0.20315737
11	0x3dae1d5c	0.085016936
12	0xbe519109	-0.20465483
13	0xbd9496a0	-0.07255292
14	0xbd13b410	-0.036060393
15	0x3da95d0c	0.082697004
16	0xbde98c34	-0.11403695
17	0xbdb75b72	-0.08952989
18	0xbe01513d	-0.12628646
19	0xbe94ae74	-0.29039347
20	0xbe66faf0	-0.22556663
21	0x3e2470e8	0.16058695
22	0x3e2dbc94	0.16966468
23	0xbe9916ec	-0.299003
24	0x3dac1760	0.08402896
25	0x3b78e200	0.0037976503
26	0x3e80a9fe	0.25129694
27	0x3e263be4	0.16233784
28	0xbd1021f8	-0.035188645
29	0xbd23e428	-0.04001251
30	0xbe200ab4	-0.15629083
31	0x3e8f4ab2	0.27986676
32	0xbe95d5b4	-0.29264605
33	0xbde51b2a	-0.11186822
34	0xbd5f586c	-0.054527685
35	0xbe14e3d7	-0.14540039
36	0xbe4ee6bf	-0.2020521
37	0x3d126000	0.035736084
38	0xbda4fe2a	-0.080562904
39	0x3e20142c	0.15632695
40	0x3d36d5b8	0.04463741
41	0xbe70461c	-0.23464245
42	0xbde16206	-0.110050246
43	0x3e3a63a2	0.1820207
44	0x3e77dce4	0.24205357
45	0xbe32ce62	-0.17461541
46	0x3e8f0746	0.27935237
47	0xbd864c30	-0.065575
48	0xbe8be65a	-0.27324182
49	0xbe936680	-0.2878914
50	0x3d06a3c8	0.032871038
51	0xbdca1ee8	-0.09869176
52	0xbe3d760e	-0.18502066
53	0xbd8ec8be	-0.06971882
54	0x3e642a8c	0.22281855
55	0xbe404162	-0.18774942
56	0x3e5dd8d8	0.2166475
57	0xbd75ddf8	-0.06002614
58	0x3d7cc2f0	0.061709344
59	0x3e0bb27e	0.13642308
60	0xbd8502c0	-0.06494665
61	0x3e8e28ac	0.27765405
62	0xbe55999c	-0.20859379
63	0xbd208410	-0.039188445

conv1.bias f4 [64]
0	0xbeac491b	-0.33649525
1	0xbeea5c34	-0.4577347
2	0xbeb009db	-0.3438252
3	0xbeeecb48	-0.46639466
4	0xbded402b	-0.11584505
5	0xbe6fb754	-0.23409778
6	0xbf0052ca	-0.50126326
7	0xbf083c12	-0.5321666
8	0xbe204482	-0.15651134
9	0xbe791375	-0.24323829
10	0xbea8d93a	-0.3297823
11	0xbea01446	-0.31265467
12	0xbe253911	-0.1613505
13	0xbe6166cd	-0.22011872
14	0xbef3d8a4	-0.4762622
15	0xbf060abe	-0.5236014
16	0xbe66efc9	-0.22552408
17	0xbee1cc3b	-0.44101128
18	0xbf0f8b85	-0.56072265
19	0xbded97de	-0.11601232
20	0xbe28e394	-0.16493064
21	0xbe5abd43	-0.2136126
22	0xbec8a432	-0.3918777
23	0xbe3b7991	-0.18308093
24	0xbf105829	-0.5638452
25	0xbe5faabb	-0.21842472
26	0xbebfc5e8	-0.37455678
27	0xbe9103aa	-0.28323108
28	0xbec77fe5	-0.38964763
29	0xbd3de8a8	-0.046364456
30	0xbe887bc2	-0.2665692
31	0xbe75461d	-0.23952527
32	0xbf1190d9	-0.56861645
33	0xbe59eb83	-0.21281247
34	0xbd902c33	-0.0703968
35	0xbef07a48	-0.46968293
36	0xbe82ccd8	-0.25546908
37	0xbd19d586	-0.037557147
38	0xbe883acb	-0.26607355
39	0xbebc70b7	-0.36804745
40	0xbeece321	-0.46267036
41	0xbe88e0f7	-0.26734135
42	0xbedb952e	-0.42887253
43	0xbf085716	-0.5325788
44	0xbed0ac32	-0.40756375
45	0xbe5f62d0	-0.21815038
46	0xbecd517c	-0.4010123
47	0x3d9afedd	0.075681426
48	0xbdc5431f	-0.09631943
49	0xbeee0c2d	-0.46493664
50	0xbea346ce	-0.31889957
51	0xbdc3e12a	-0.09564431
52	0xbe8f11d9	-0.27943304
53	0xbdf2034e	-0.118170366
54	0xbc428a98	-0.011873864
55	0xbeb864c5	-0.3601438
56	0xbee36396	-0.44411916
57	0xbee1cac1	-0.441
58	0xbef481fe	-0.47755426
59	0xbec7f329	-0.39052704
60	0xbe0a6667	-0.13515626
61	0xbe5298b1	-0.2056606
62	0xbd071123	-0.032975327
63	0xbe68af0f	-0.2272303

conv1.lin_l.weight f4 [64, 4]
0	0x3e103e82	0.14086345
1	0x3de84706	0.11341672
2	0xbe56fd0a	-0.20994964
3	0x3e19d62b	0.15023105
4	0x3ebc72e4	0.36806405
5	0xbea41186	-0.3204462
6	0x3c0e90fe	0.008701561
7	0xbd2dbc88	-0.042416126
8	0xbe1214c1	-0.1426573
9	0x3d90dc6f	0.07073294
10	0xbd49e7de	-0.04929339
11	0xbc5c5a37	-0.013449243
12	0x3d448ddc	0.04798685
13	0xbd2985e0	-0.04138744
14	0x3d47a9f6	0.04874607
15	0x3bf16454	0.0073666964
16	0x3ef90040	0.48633003
17	0xbeccaee5	-0.39977184
18	0xbd64a087	-0.055817153
19	0x3daf1527	0.08548956
20	0xbe1e0892	-0.15432957
21	0x3e17c10e	0.14819738
22	0x3e0042e4	0.12525517
23	0xbe07720f	-0.13227104
24	0x3ee042c9	0.43800953
25	0xbe98b47d	-0.29825202
26	0xbe03ea7a	-0.12882414
27	0xbbd877cc	-0.006606078
28	0x3e87e961	0.2654524
29	0xbe516d88	-0.20451939
30	0xbd274492	-0.040836878
31	0xbc653e1f	-0.013991862
32	0x3d2faead	0.042891193
33	0x3ccef312	0.02526239
34	0x3d421dcb	0.047391694
35	0xbd265dfc	-0.040616974
36	0x3c44d761	0.012014241
37	0x3c09cf56	0.008411249
38	0xbba896c7	-0.005144927
39	0x3db81a21	0.08989359
40	0xbd94593c	-0.072435826
41	0xbe1e4a4d	-0.15458031
42	0x3d967d56	0.07348125
43	0xbda2c8fc	-0.07948491
44	0x3e0e3030	0.1388557
45	0xbdcca2b5	-0.099919714
46	0x3dbdfb28	0.0927642
47	0xbd0c744d	-0.0342906
48	0xbe5bd228	-0.21466887
49	0x3e586f69	0.2113625
50	0xbe1a2b1e	-0.1505551
51	0x3e805a7c	0.25069034
52	0xbe941b8f	-0.28927276
53	0x3e282294	0.1641944
54	0xbd020685	-0.0317445
55	0x3d151505	0.036397
56	0xbe9c6292	-0.30543953
57	0x3e988f8d	0.2979702
58	0x3c7a3844	0.015272204
59	0xbc9aebab	-0.018911203
60	0x3cb3e5f4	0.021960236
61	0xbc8928ec	-0.016743146
62	0x3d116831	0.035499755
63	0xbc6d73c8	-0.014492936
64	0x3ea371a4	0.31922638
65	0xbe96cf8c	-0.2945522
66	0x3e3552c1	0.1770735
67	0x3db5a3d5	0.08869139
68	0xbe8af37e	-0.27138895
69	0x3e7b916c	0.24567193
70	0xbaf99c1e	-0.0019043719
71	0xbdc55357	-0.096350364
72	0x3db87386	0.09006409
73	0xbdc42515	-0.09577385
74	0xbd9cc532	-0.076547995
75	0xbca63c97	-0.020292563
76	0x3f011e88	0.5043721
77	0xbecdae90	-0.40172243
78	0x3dac57fc	0.08415219
79	0xbce3fc7a	-0.027830351
80	0x3ea3037c	0.31838596
81	0xbe7f9214	-0.24958068
82	0xbd52a86f	-0.051430162
83	0x3e2bf100	0.16791153
84	0x3eaf6df0	0.34263563
85	0xbe96fb9c	-0.29488838
86	0xbd8f52fa	-0.069982484
87	0x3dc89bb8	0.09795326
88	0xbc026372	-0.00795828
89	0xbd914340	-0.07092905
90	0xbe46e2e5	-0.19422491
91	0xbe9de328	-0.3083737
92	0x3d049fc1	0.032378916
93	0xbcbfc091	-0.023407253
94	0xbe847063	-0.25866994
95	0x3e6c2a97	0.23063122
96	0xbd73927f	-0.05946588
97	0x3da74dc2	0.08169128
98	0xbd0bcebb	-0.0341327
99	0x3c4346a0	0.011918694
100	0x3d71b35b	0.059008937
101	0xbd8af48d	-0.067849256
102	0xbcea45e9	-0.028597789
103	0x3dc9a99e	0.09846805
104	0x3d793725	0.060843606
105	0xbe06868e	-0.13137266
106	0xbe8c235e	-0.27370733
107	0xbe364139	-0.17798318
108	0x3eb8f6bf	0.36125752
109	0xbea163ca	-0.31521446
110	0xbb2169fd	-0.0024629824
111	0xbd2c50d3	-0.042069267
112	0x3ece60ab	0.40308127
113	0xbe2dcdff	-0.16973113
114	0xbd04a2e3	-0.032381903
115	0xbda7352e	-0.0816444
116	0xbec540a1	-0.3852587
117	0x3ec43bee	0.38326973
118	0xbeef4b3e	-0.46737093
119	0xbeb1e09c	-0.34741676
120	0xbe915fd8	-0.28393435
121	0x3eec19f6	0.46113557
122	0xbd521b13	-0.05129535
123	0x3e769335	0.24079593
124	0x3d651240	0.055925608
125	0x39f76c1b	0.00047192056
126	0xbd42f37c	-0.047595486
127	0x3dec3482	0.115334526
128	0xbce90dc2	-0.028448943
129	0x3cd6df49	0.026229518
130	0xbdaa00e6	-0.083009526
131	0xbb9e5896	-0.0048323376
132	0x3e38a285	0.18030746
133	0x3da93453	0.08261933
134	0xbd16746e	-0.03673213
135	0xbea4690b	-0.3211139
136	0x3e94ea1a	0.29084855
137	0xbee2df92	-0.44311196
138	0xbe9e08c3	-0.3086606
139	0xbdc7bc5b	-0.09752723
140	0xbcb74189	-0.022370117
141	0x3d0187e4	0.031623736
142	0xbe03a3c0	-0.12855434
143	0xbdb2a9b3	-0.08723774
144	0xbbb1d5cc	-0.005427098
145	0x3b8eb533	0.0043550967
146	0xbe61c3e0	-0.22047377
147	0x3c0c1fe3	0.008552524
148	0xbec2bea8	-0.38036084
149	0x3ed759dd	0.42060748
150	0xbeefb733	-0.46819457
151	0xbf0fdf8c	-0.5620048
152	0xbda0a611	-0.07844175
153	0x3dc4dc0f	0.09612285
154	0x3aa90533	0.0012895226
155	0xbd06e829	-0.03293625
156	0xbedeb7f7	-0.4349973
157	0x3eeb7aa9	0.4599202
158	0xbe819c27	-0.25314447
159	0xbd917c31	-0.07103766
160	0xbe1810c9	-0.14850153
161	0x3e9463e8	0.28982472
162	0xbdf3bcd6	-0.11901252
163	0xbe07e885	-0.13272293
164	0xbe85a7e4	-0.26104653
165	0x3ea9b4ec	0.33145845
166	0xbda079d2	-0.078357354
167	0xbe3e268e	-0.18569395
168	0xbd1cbe9f	-0.038267728
169	0x3c8a8eb7	0.016913755
170	0xbbaafa15	-0.0052178004
171	0xbc0d57d1	-0.008626894
172	0x3e76bcc8	0.24095452
173	0xbe63e782	-0.22256282
174	0xbcd4e94b	-0.025990149
175	0xbb80e72e	-0.0039338088
176	0xbdadf4f8	-0.0849399
177	0x3dc5d48b	0.0965968
178	0x3df76ea0	0.12081647
179	0xbcdb511a	-0.02677207
180	0x3e8e0b7b	0.27743134
181	0xbe77ac20	-0.24186754
182	0x3dcfe59c	0.101512164
183	0x3dd0dcd8	0.101983726
184	0xbd0c009f	-0.03418028
185	0xbcc2d327	-0.023782326
186	0x3ddfadb4	0.10921803
187	0xbe85fba2	-0.26168543
188	0xbf07358b	-0.52816075
189	0x3e9f36d1	0.3109651
190	0xbe924e9f	-0.28575608
191	0x3e91c34a	0.28469306
192	0xbe3eb5b6	-0.18624005
193	0xbe0c0d1f	-0.1367688
194	0x3e64718a	0.22308937
195	0x3d4ad5a4	0.04952015
196	0xbe8c79e9	-0.2743676
197	0x3e8ea1b5	0.27857748
198	0xbcdce98c	-0.026966833
199	0xbd453261	-0.04814375
200	0xbda7a604	-0.08185962
201	0x3d0dc973	0.034615945
202	0xbe57093a	-0.20999613
203	0xbdfa434f	-0.12219869
204	0xbd698ae6	-0.05701723
205	0x3e6b9a60	0.23008108
206	0xbd7ef6e3	-0.06224717
207	0xbe9e11ea	-0.30873042
208	0x3de0a350	0.109686494
209	0xbd95bc8c	-0.07311353
210	0xbd6e2d15	-0.058148462
211	0x3d0a4ca0	0.03376448
212	0x3dc4bfe0	0.0960691
213	0xbe09869b	-0.13430254
214	0xbee15a62	-0.4401427
215	0xbea17055	-0.31531015
216	0x3f2a01e9	0.66409165
217	0xbebc4c12	-0.36776787
218	0x3de0c6cf	0.1097542
219	0xbd9326fa	-0.071851686
220	0x3efec1dc	0.49757278
221	0xbeb3e26e	-0.3513369
222	0xbda55880	-0.08073521
223	0xbc35f3ef	-0.011105522
224	0xbe686c47	-0.22697555
225	0x3e4bb458	0.19893014
226	0xbca5761f	-0.020197926
227	0xbd0caaba	-0.034342505
228	0x3ee598cb	0.44843134
229	0xbec829bc	-0.3909434
230	0x3b3ee698	0.0029129144
231	0xbd5aca54	-0.05341561
232	0x3e066693	0.13125066
233	0xbd5813dc	-0.052753314
234	0x3d89a329	0.067205735
235	0xbda2c7d4	-0.079482704
236	0x3d5ffbaf	0.054683384
237	0xbc31f38a	-0.010861287
238	0xbcac8ad3	-0.02106229
239	0x3c889664	0.016673274
240	0xbe293da7	-0.16527425
241	0x3e034cff	0.1282234
242	0x3e67cf6a	0.22637716
243	0xbddc00b9	-0.10742325
244	0x3db126e3	0.08649995
245	0xbdcce488	-0.100045264
246	0xbe86eea7	-0.26353952
247	0xbeb8cddb	-0.36094555
248	0x3db29f91	0.08721841
249	0xbcaaa594	-0.020830907
250	0xbd8dd654	-0.069256455
251	0x3d6cba54	0.057794884
252	0xbd1d7974	-0.038445905
253	0x3e7497de	0.23886058
254	0xbdf07708	-0.117414534
255	0x3e2d3f58	0.16918695

conv1.lin_l.bias f4 [64]
0	0xbecbea5a	-0.39827234
1	0xbdc5d0c6	-0.09658961
2	0xbea6ad9d	-0.3255433
3	0xbd3bf6bf	-0.045889612
4	0xbec8fcd4	-0.39255393
5	0xbe8bca68	-0.2730286
6	0xbd397ba7	-0.04528394
7	0xbdbd92c1	-0.09256507
8	0xbe5df872	-0.21676806
9	0xbe3e3779	-0.18575849
10	0xbf110cd3	-0.56660193
11	0xbe47eaf5	-0.19523223
12	0xbf20d835	-0.62829906
13	0xbe8bb788	-0.2728846
14	0xbe144b95	-0.14481957
15	0xbd4d6d63	-0.050153147
16	0xbf1ee949	-0.62074715
17	0xbe85eb26	-0.26155967
18	0xbde29219	-0.11063022
19	0xbeb78f9d	-0.35851756
20	0xbefa5983	-0.48896417
21	0xbeebbef0	-0.4604411
22	0xbede6d65	-0.43442836
23	0xbf2815a9	-0.6565805
24	0xbdbd6878	-0.092484415
25	0xbe4e2f89	-0.2013532
26	0xbea94061	-0.3305693
27	0xbdba5d5d	-0.09099839
28	0xbb8df69f	-0.004332378
29	0xbf046bb8	-0.51726866
30	0xbf092b93	-0.53582114
31	0xbeb42ec7	-0.35191938
32	0xbdc5cba9	-0.09657986
33	0xbf1a294d	-0.6021927
34	0xbec62d49	-0.38706425
35	0xbe133a38	-0.14377677
36	0xbe982645	-0.29716697
37	0xbf056962	-0.52113926
38	0xbe04ab3a	-0.12955943
39	0xbe7797d3	-0.2417901
40	0xbe8f619c	-0.28004158
41	0xbe9ee22d	-0.31031933
42	0xbd8c3274	-0.06845561
43	0xbd92aca5	-0.071618356
44	0xbe0b19d9	-0.13584079
45	0xbec223dd	-0.37917987
46	0xbf1e4e8e	-0.61838615
47	0xbe933948	-0.2875464
48	0xbe6a3cad	-0.22874708
49	0xbe1e649c	-0.15468067
50	0xbe941df9	-0.28929117
51	0xbef6a216	-0.48170537
52	0xbe334c8f	-0.17509674
53	0xbee11861	-0.43963912
54	0xbdfe8ad2	-0.124288216
55	0xbd81b0c4	-0.063325435
56	0xbe071cd1	-0.13194586
57	0xbdd9c182	-0.10632612
58	0xbe2eac1d	-0.17057844
59	0xbd4019a8	-0.046899468
60	0xbea2efb7	-0.31823513
61	0xbecbc966	-0.39802092
62	0xbea1346f	-0.31485316
63	0xbf2c89c7	-0.6739773

conv1.lin_r.weight f4 [64, 4]
0	0x3e43966c	0.1910035
1	0xbe42cd58	-0.19023645
2	0xbeadd154	-0.33948767
3	0xbcd056c0	-0.02543199
4	0x3e9c6b8c	0.30550802
5	0x3e08cea4	0.13360077
6	0xbea1d72a	-0.3160947
7	0x3e8d6d76	0.27622575
8	0xbb8fa600	-0.0043838024
9	0xbeeaedd0	-0.45884562
10	0x3e79c964	0.2439323
11	0x3ec732fc	0.38906085
12	0xbef75d86	-0.4831354
13	0x3ea94ca6	0.3306629
14	0xbce1e460	-0.027574718
15	0xbe091494	-0.13386756
16	0xbe950686	-0.2910654
17	0xbe6ff0d0	-0.23431706
18	0x3e5f8068	0.21826327
19	0x3ebcd38a	0.36880141
20	0xbe99b266	-0.3001892
21	0xbe9cc062	-0.30615526
22	0xbd86e920	-0.06587434
23	0x3efab988	0.48969674
24	0x3ea22e4c	0.31675947
25	0x3ec97096	0.3934371
26	0xbe47c084	-0.19507033
27	0xbe9f433a	-0.31105977
28	0x3e3458a0	0.17611933
29	0xbdb75e08	-0.08953482
30	0xbef29094	-0.4737593
31	0x3ec82b28	0.39095426
32	0x3da10e30	0.07864034
33	0x3dab11e8	0.08353025
34	0xbda37878	-0.07981962
35	0xbea087ba	-0.3135355
36	0x3c870c60	0.016485393
37	0x3ebd24d4	0.3694216
38	0xbe136880	-0.14395332
39	0x3ef7eb66	0.48421782
40	0xbdb61eb8	-0.08892578
41	0x3ed34970	0.41266966
42	0x3da35fb8	0.07977241
43	0xbe9d4fc0	-0.30724907
44	0xbed08c84	-0.40732205
45	0xbe3c4878	-0.1838702
46	0x3e5b87b8	0.21438491
47	0xbef7a386	-0.48366946
48	0x3ea4d19a	0.32191163
49	0x3e6ccfdc	0.23126167
50	0xbed16db0	-0.40903997
51	0xbed3bc34	-0.41354525
52	0x3e22dd98	0.15904844
53	0x3eab785c	0.33490264
54	0xbee7c67a	-0.45268613
55	0x3dc17238	0.094456136
56	0xbe9f3c0a	-0.31100494
57	0x3e3b71ec	0.18305176
58	0xbeea2ea2	-0.45738703
59	0x3d9bbf08	0.07604796
60	0xbe50b574	-0.20381719
61	0x3ec7a556	0.3899333
62	0x3b012300	0.00197047
63	0xbe8039f8	-0.25044227
64	0x3e8822d6	0.26589078
65	0x3e71ed40	0.2362566
66	0xbea5fe3a	-0.32420522
67	0xbe16f750	-0.1474278
68	0xbe860cc6	-0.2618162
69	0xbe51da94	-0.20493537
70	0x3eb062e8	0.3445046
71	0xbea8b712	-0.32952172
72	0xbe99885c	-0.29986846
73	0xbebb9516	-0.3663718
74	0xbebb0f04	-0.36534894
75	0xbee8832c	-0.45412576
76	0xbdf06178	-0.11737341
77	0x3e0625d8	0.13100374
78	0x3d663ea0	0.056212068
79	0x3ea0457e	0.31303018
80	0xbeb54d20	-0.35410404
81	0xbe31088c	-0.17288417
82	0x3eb75606	0.35807818
83	0xbdbdfea0	-0.092770815
84	0xbe1b1774	-0.15145665
85	0xbeb417fe	-0.35174555
86	0xbe8ad66e	-0.27116722
87	0x3ec31dca	0.38108665
88	0x3ee36eea	0.44420558
89	0x3e2a7d04	0.16649252
90	0x3e82f974	0.25580943
91	0xbe0fae18	-0.14031255
92	0xbe3134e0	-0.17305326
93	0xbca053e0	-0.019571245
94	0x3ead9842	0.33905226
95	0xbe8b69f0	-0.2722926
96	0xbec30a06	-0.38093585
97	0xbea1a5e6	-0.31571883
98	0x3e8824fc	0.26590717
99	0x3ee7e1ae	0.45289367
100	0xbeaabae0	-0.333457
101	0x3e0c07b8	0.1367482
102	0x3e9eb858	0.31000018
103	0x3eefc7dc	0.46832168
104	0xbeaeebea	-0.34164363
105	0x3e2ddea0	0.16979456
106	0x3df96368	0.12177163
107	0xbdee4308	-0.11633879
108	0xbe98eba8	-0.2986729
109	0xbec90376	-0.39260453
110	0x3ea68b3a	0.32528096
111	0xbefc1302	-0.49233252
112	0x3e160db4	0.14653665
113	0xbe89f6e6	-0.2694618
114	0xbdd19740	-0.10233927
115	0x3eb7f1a2	0.3592654
116	0xbe43a9b0	-0.191077
117	0x3dddb988	0.10826403
118	0x3df40648	0.119152606
119	0xbed448f0	-0.41461897
120	0x3df1bcd8	0.11803597
121	0xbd8940f8	-0.06701845
122	0xbeb7c7b8	-0.3589456
123	0xbd1a3920	-0.037652135
124	0x3e9fe2c2	0.3122769
125	0xbe5fa30c	-0.21839541
126	0x3e9e2ba6	0.30892676
127	0xbe3d3db4	-0.18480569
128	0x3eb40a6a	0.35164195
129	0x3da3bd00	0.07995033
130	0xbe278c10	-0.16362023
131	0x3e1264b4	0.14296228
132	0xbebbdcf0	-0.36692
133	0xbe9caa6a	-0.30598766
134	0x3ecb1a26	0.39668387
135	0x3e8ca708	0.27471185
136	0xbed6f7a2	-0.41985804
137	0xbd07f7f0	-0.033195436
138	0xbe92c81c	-0.28668296
139	0xbd7220d0	-0.059113324
140	0x3c73d640	0.014882624
141	0xbe4b5bc8	-0.1985923
142	0x3db75ad8	0.08952874
143	0x3ed87166	0.42274016
144	0xbe4232dc	-0.18964714
145	0x3eb39bce	0.35079807
146	0x3e7901f8	0.24317157
147	0xbee572f0	-0.44814253
148	0x3cfd4c60	0.030920208
149	0xbe81459a	-0.25248414
150	0x3e298644	0.16555125
151	0x3e04f404	0.1298371
152	0xbec62b8c	-0.387051
153	0xbeed6c40	-0.4637165
154	0xbe927af6	-0.28609437
155	0x3e56019c	0.20899051
156	0xbed6103e	-0.41809267
157	0x3e9b0380	0.30276108
158	0x3ea8ae42	0.32945448
159	0xbebf580e	-0.37371868
160	0xbe9d8ee2	-0.30773073
161	0xbde4bca0	-0.1116879
162	0x3e4310f4	0.19049436
163	0x3da6f090	0.081513524
164	0xbe51d804	-0.2049256
165	0xbebc0ce4	-0.36728585
166	0x3cfae160	0.030625045
167	0x3e867ee8	0.26268697
168	0xbe0ed180	-0.13947105
169	0x3eb3e02e	0.35131973
170	0xbe5d1f44	-0.21593958
171	0x3eb63070	0.3558383
172	0xbdecece8	-0.11568624
173	0xbe0fd9b4	-0.14047891
174	0xbef1e4fe	-0.4724502
175	0x3dadf998	0.08494872
176	0x3ea03140	0.31287575
177	0x3db75870	0.08952415
178	0xbd52d910	-0.05147654
179	0x3e8514dc	0.25992477
180	0x3cc21ba0	0.023694813
181	0xbcb43840	-0.021999478
182	0x3d81b1e8	0.06332761
183	0xbef27b86	-0.47359866
184	0x3ea424ac	0.32059228
185	0x3efca4bc	0.49344432
186	0xbebf909c	-0.37415016
187	0xbdad0c80	-0.0844965
188	0x3e73c808	0.23806775
189	0xbc914de0	-0.017737329
190	0x3ec53bbe	0.38522142
191	0xbedc7486	-0.4305765
192	0x3e69b9f4	0.22824842
193	0x3eb2d9a2	0.34931666
194	0xbe8efeb8	-0.2792871
195	0x3ed370e2	0.4129706
196	0x3e11c940	0.14236927
197	0xbe24e960	-0.1610465
198	0x3e7e46ac	0.24831647
199	0xbde6b200	-0.112644196
200	0x3e5ba994	0.21451408
201	0xbedc8368	-0.43069005
202	0xbeab8400	-0.33499146
203	0x3e30a2cc	0.17249602
204	0xbeccd0ee	-0.4000315
205	0xbed39d54	-0.4133097
206	0xbcf5e0c0	-0.030014396
207	0x3eaed8ce	0.34149784
208	0xbecca5b2	-0.39970165
209	0xbeb24dac	-0.34824884
210	0xbef7202e	-0.4826674
211	0xbda49e88	-0.0803805
212	0xbebab2dc	-0.36464584
213	0x3e83a44c	0.25711286
214	0x3ed4a206	0.41529864
215	0x3ddd81f8	0.10815805
216	0xbe816688	-0.25273538
217	0x3e809948	0.25116944
218	0xbc95b820	-0.018276274
219	0xbe88d88a	-0.26727706
220	0x3d65a3f0	0.056064546
221	0x3ed6e9c0	0.41975212
222	0xbed5c48e	-0.41751522
223	0x3ec06658	0.37578082
224	0x3e587610	0.21138787
225	0x3de8f928	0.11375648
226	0xbdc536a0	-0.096295595
227	0x3ed3ea60	0.4138975
228	0xbd667220	-0.05626118
229	0xbed5a9aa	-0.41731006
230	0x3d8a6bc8	0.06758839
231	0x3ebd2136	0.369394
232	0x3e9d1170	0.30677366
233	0xbeccdd84	-0.40012753
234	0x3ebe5694	0.3717543
235	0x3e22218c	0.1583311
236	0xbe873400	-0.2640686
237	0x3e9ac200	0.30226135
238	0x3ebf8560	0.37406445
239	0x3d941f08	0.07232481
240	0xbd3e9290	-0.04652649
241	0x3ea51d0a	0.32248718
242	0x3eaebbda	0.34127694
243	0xbddd1678	-0.10795301
244	0xbeecfc3a	-0.46286184
245	0xbe1b491c	-0.15164608
246	0xbdb21c88	-0.08696848
247	0xbd641ba0	-0.055690408
248	0xbe1d7230	-0.1537559
249	0x3dddfa48	0.10838753
250	0x3d08a730	0.033362567
251	0x3eb96ccc	0.36215818
252	0xbef156a4	-0.47136414
253	0x3e5b0678	0.21389186
254	0x3e2f7d80	0.17137718
255	0xbcfb33a0	-0.030664265

conv1.lin_r.bias f4 [64]
0	0xbeef3ddc	-0.46726882
1	0x3de80148	0.113283694
2	0x3e923342	0.28554732
3	0x3eec1858	0.46112323
4	0xbe23e3bc	-0.16004843
5	0xbea7c132	-0.32764584
6	0xbd425ac0	-0.047449827
7	0x3e1f3a4c	0.15549582
8	0x3e411800	0.18856812
9	0x3ec07b62	0.37594134
10	0x3dc979c0	0.09837675
11	0x3e0b8f88	0.13628972
12	0x3ee476cc	0.44621885
13	0x3ee9f360	0.45693493
14	0xbde0a700	-0.10969353
15	0x3d9f9c08	0.077934325
16	0x3e86718c	0.26258504
17	0x3e5efca8	0.21776068
18	0x3eeaa3d0	0.45828104
19	0x3c8294a0	0.01594001
20	0xbed24390	-0.4106717
21	0x3e4304cc	0.19044799
22	0x3e8df784	0.27727902
23	0x3e36af54	0.1784032
24	0xbe5961dc	-0.21228737
25	0xbeb878c0	-0.36029625
26	0xbee9930a	-0.45619994
27	0x3e7d22c0	0.24720287
28	0x3ef4acdc	0.4778813
29	0x3e445758	0.19173944
30	0xbd4ae8a0	-0.049538255
31	0x3eb8b918	0.36078715
32	0xbe202c34	-0.15641862
33	0xbcb64360	-0.022248924
34	0x3e9bfe6c	0.30467546
35	0xbbda2000	-0.0066566467
36	0xbec57466	-0.38565367
37	0xbe32b098	-0.17450178
38	0x3e207efc	0.1567344
39	0xbdf48438	-0.11939281
40	0x3e9ab822	0.30218607
41	0xbe97ee70	-0.296741
42	0xbe302e9c	-0.1720528
43	0x3e1597a8	0.14608634
44	0x3dd6cf58	0.104887664
45	0xbed685c2	-0.41898924
46	0x3e8834ae	0.2660269
47	0x3efc9532	0.49332577
48	0xbd733330	-0.059374988
49	0x3e6c07e4	0.23049885
50	0xbe8bf854	-0.27337897
51	0x3e611f78	0.2198466
52	0xbdcd0c10	-0.10012066
53	0xbe010c08	-0.12602246
54	0xbdc2d440	-0.0951314
55	0x3e6c7594	0.23091727
56	0x3e72c44c	0.23707694
57	0xbef361b0	-0.47535467
58	0xbe72b9cc	-0.23703688
59	0xbe15c328	-0.14625227
60	0x3e314474	0.17311269
61	0x3dd87948	0.105700076
62	0xbec8a4ee	-0.3918833
63	0x3eaa001e	0.33203214

conv1.lin_edge.weight f4 [64, 2]
0	0xbf1dbae0	-0.61613274
1	0x3f11ceaf	0.56956
2	0xbe5e962e	-0.21736977
3	0xbe25b0e8	-0.16180766
4	0x3ee66a3a	0.4500292
5	0x3f08228b	0.5317771
6	0xbf07d43e	-0.5305823
7	0x3ec5cac6	0.38631266
8	0xbd643350	-0.055712998
9	0xbf186823	-0.595339
10	0x3ec7ab0a	0.3899768
11	0xbf1adde7	-0.60494846
12	0x3ec594b6	0.3859002
13	0xbc9d43a0	-0.019197285
14	0x3e6a3668	0.22872317
15	0x3e62d110	0.22150064
16	0xbd97cc98	-0.0741207
17	0xbeb754a2	-0.35806757
18	0x3dfdfe68	0.1240204
19	0xbea83c65	-0.32858577
20	0xbd446570	-0.0479483
21	0xbf32c6df	-0.69834703
22	0x3e051cb0	0.12999225
23	0x3f057613	0.5213329
24	0x3ecaceea	0.39610988
25	0x3d102120	0.03518784
26	0xbf01b63b	-0.50668687
27	0xbee8f3b5	-0.45498434
28	0x3d95e610	0.073192716
29	0xbea5024b	-0.32228312
30	0xbe7ee61c	-0.24892467
31	0xbe66b7be	-0.2253103
32	0x3dcd7410	0.10031903
33	0x3f2297ed	0.6351307
34	0xbf119c7a	-0.5687939
35	0x3ef3657e	0.4753837
36	0x3e023830	0.12716746
37	0x3f071efb	0.5278165
38	0xbf1163bf	-0.56792825
39	0x3f0a5073	0.54029006
40	0xbef1ddce	-0.47239536
41	0x3c66c240	0.014084399
42	0x3ebdf72e	0.37102646
43	0xbde240a0	-0.110474825
44	0x3ee56e3a	0.4481066
45	0xbd1a6930	-0.03769797
46	0x3f32c0bd	0.69825345
47	0xbdd4bb20	-0.10387254
48	0xbf17d28f	-0.5930566
49	0xbe601558	-0.21883142
50	0xbe9adbd2	-0.30245835
51	0x3f301d6b	0.6879489
52	0xbdffb810	-0.12486279
53	0xbe9b992b	-0.30390295
54	0xbf2cc2e3	-0.67484874
55	0x3e4c3ac4	0.19944292
56	0x3f029a29	0.5101648
57	0x3e32c2c0	0.17457104
58	0xbf1f5440	-0.6223793
59	0x3ea65266	0.3248474
60	0xbedcc412	-0.4311834
61	0x3f09d097	0.5383391
62	0x3e99970e	0.29998058
63	0x3ed6fd96	0.41990346
64	0x3ddbb4c8	0.10727841
65	0x3ea2f18a	0.31824905
66	0xbe5114d4	-0.20418102
67	0x3f027901	0.5096589
68	0x3f338345	0.70122176
69	0xbec9f346	-0.39443415
70	0x3eb347ca	0.35015708
71	0xbe9eba33	-0.31001434
72	0x3f053721	0.52037245
73	0x3ec1de72	0.37865025
74	0x3f072ff9	0.52807575
75	0xbf1e60f3	-0.6186668
76	0x3f2b4495	0.6690152
77	0xbe17e35c	-0.14832824
78	0x3f333c01	0.70013434
79	0x3f1e5ba3	0.61858577
80	0x3f10e9dd	0.5660685
81	0xbf1ee24e	-0.62064064
82	0x3d9bfa38	0.07616085
83	0xbdc78408	-0.0974198
84	0xbd534c50	-0.05158645
85	0xbf26b19f	-0.6511478
86	0xbad0f800	-0.001594305
87	0x3f046dab	0.5172984
88	0x3e905ebc	0.28197277
89	0xbef92ec4	-0.48668492
90	0x3da8e2b8	0.08246368
91	0x3f1f4701	0.6221772
92	0x3ece43e6	0.40286177
93	0x3e0bc2a0	0.13648462
94	0x3ef41dd6	0.47679013
95	0xbea016af	-0.31267306
96	0x3e5c177c	0.21493334
97	0x3e0eb2cc	0.13935393
98	0x3f1d8145	0.61525375
99	0x3f202fb7	0.6257281
100	0xbee708c1	-0.45123866
101	0x3eee1556	0.46500653
102	0xbf12a87a	-0.57288325
103	0x3eed9376	0.46401566
104	0xbde22038	-0.110413015
105	0xbefefbb9	-0.49801424
106	0xbe5b4524	-0.21413094
107	0xbf10a829	-0.5650659
108	0x3e641ed4	0.22277385
109	0x3ed0032e	0.40627426
110	0x3e82fc60	0.25583172
111	0xbeea81a1	-0.45802024
112	0x3ef3f272	0.4764591
113	0x3ed56fc2	0.41686827
114	0xbebb1a13	-0.3654333
115	0xbd2d5810	-0.04232031
116	0xbe2d4560	-0.16920996
117	0xbed3873e	-0.4131412
118	0xbe038044	-0.12841898
119	0x3ee36d3e	0.44419283
120	0xbe9ceae1	-0.30647948
121	0x3e098b60	0.13432074
122	0x3f1f940b	0.6233527
123	0xbe526cb8	-0.20549285
124	0xbeae6163	-0.34058675
125	0x3f276895	0.65393955
126	0xbf2413db	-0.640928
127	0x3e60fc4c	0.21971244

conv2.att f4 [1, 1, 64]
0	0x3e950738	0.2910707
1	0xbd1850e8	-0.037186533
2	0xbe139957	-0.14413963
3	0xbe277d60	-0.1635642
4	0xbd54fe68	-0.052000433
5	0x3c706960	0.014673561
6	0x3e89cfc2	0.2691632
7	0x3d30f098	0.043198198
8	0xbddb87aa	-0.10719235
9	0xbe99277d	-0.2991294
10	0xbe7f4569	-0.24928822
11	0x3d780b48	0.060557634
12	0xbe9a3ae8	-0.30123067
13	0xbc803570	-0.015650481
14	0xbdb11130	-0.086458564
15	0xbdadc7b2	-0.084853545
16	0x3e527c80	0.20555305
17	0xbe34898e	-0.17630598
18	0xbe013cd6	-0.12620863
19	0xbe8e3dba	-0.2778147
20	0x3e39ba48	0.18137467
21	0xbd9bcbf0	-0.07607257
22	0xbdd915ae	-0.10599838
23	0x3e91289a	0.2835129
24	0x3d335ba0	0.043788552
25	0x3c9d3510	0.019190341
26	0xbcc2b920	-0.023769915
27	0xbd376a40	-0.044779062
28	0x3de20888	0.110367835
29	0x3c134200	0.008987904
30	0xbdcf53d8	-0.10123414
31	0x3e39d764	0.18148571
32	0x3e1c1122	0.1524091
33	0xbd3d5b08	-0.046229392
34	0x3cbbc280	0.022919893
35	0x3d9872f4	0.074438006
36	0xbd5fac94	-0.054607943
37	0xbe618b3a	-0.22025767
38	0xbe6f11e2	-0.23346666
39	0x3dd48564	0.10377005
40	0x3b2ef080	0.0026693642
41	0x3ce85930	0.02836284
42	0xbe8002d5	-0.2500216
43	0x3e48dede	0.19616267
44	0xbd87cc4c	-0.066307634
45	0xbdb26b90	-0.08711922
46	0x3d6fb0a0	0.058518052
47	0xbd1caa50	-0.03824836
48	0xbe0d7cd6	-0.13817152
49	0x3e792c38	0.24333274
50	0xbd81ac9e	-0.06331752
51	0xbe469f46	-0.19396695
52	0x3e9a3b7e	0.30123514
53	0x3e0517be	0.12997338
54	0xbe676afe	-0.22599408
55	0xbe71c9ae	-0.23612091
56	0x3e446882	0.19180492
57	0x3dc779e4	0.09740046
58	0x3dd9fa80	0.10643482
59	0x3c4d2aa0	0.01252237
60	0x3d0b8ac0	0.03406787
61	0x3e77c43c	0.24195951
62	0x3e1d679c	0.15371555
63	0x3e4cdd84	0.20006377

conv2.bias f4 [64]
0	0xbdbac15a	-0.0911891
1	0xbda329a7	-0.07966929
2	0xbcecb93d	-0.028896922
3	0x3dd20d26	0.10256414
4	0xbd28d2ea	-0.04121677
5	0xbcd40205	-0.02587987
6	0x3c912acc	0.017720602
7	0xbcc2db48	-0.023786202
8	0x3dea47be	0.11439465
9	0xbcdd9f22	-0.02705342
10	0x3bdf8ea8	0.006822426
11	0xbd14d018	-0.036331266
12	0xbd3221e8	-0.043489367
13	0x37bb4f38	2.2329026e-05
14	0xbd13e440	-0.036106348
15	0xbd4b625e	-0.049654357
16	0x3ca35b54	0.01994101
17	0xbb645ba2	-0.0034844656
18	0xbd788086	-0.060669445
19	0x3d358893	0.0443197
20	0x3d0acb8b	0.03388552
21	0x3c84dd11	0.016218694
22	0xbd41683a	-0.04721854
23	0x3db37617	0.08762758
24	0x3daac2a4	0.08337906
25	0x3c146260	0.009056658
26	0xbe01ea3e	-0.12687013
27	0xbd83ab85	-0.06429199
28	0xbcd0aa5a	-0.025471855
29	0x3d8b2626	0.067943856
30	0x3d848e52	0.06472458
31	0x3c8bbb6f	0.017057149
32	0x3ccf64ca	0.025316615
33	0x3db2bd5e	0.08727525
34	0x3d78d2fc	0.060748085
35	0xbe2132db	-0.15742056
36	0xbc7387cd	-0.01486392
37	0x3e3091fb	0.17243187
38	0x3dd3676c	0.103224605
39	0xbd0dbd48	-0.03460434
40	0xbd8f8532	-0.07007827
41	0x3ce2228c	0.027604364
42	0x3d9a39b7	0.075305395
43	0xbdc8061d	-0.09766791
44	0x3df0c10f	0.11755573
45	0x3d1cdfd1	0.038299385
46	0x3dd01b4b	0.10161456
47	0xbcd5332b	-0.026025375
48	0xbd2c0143	-0.04199339
49	0xbe15fe13	-0.14647703
50	0x3cceb3c2	0.0252322
51	0x3cf6dded	0.03013512
52	0xbd8ab29a	-0.06772347
53	0x3b0eea9b	0.0021807316
54	0xbdb21786	-0.08695893
55	0x3d1917d8	0.037376255
56	0x3d452213	0.0481282
57	0x3dd026a1	0.10163618
58	0x3d1c7162	0.038194068
59	0xbdbbb381	-0.09165097
60	0x3c13d410	0.009022728
61	0x3d55124b	0.0520194
62	0x3d4a7a17	0.04943284
63	0x3d0424d3	0.03226168

conv2.lin_l.weight f4 [64, 64]
0	0x3b6b4cfe	0.0035904045
1	0xbe6ad035	-0.22930987
2	0xbdcd7a53	-0.10033097
3	0xbdb14f95	-0.08657757
4	0x3d6813da	0.056659557
5	0x3c956977	0.018238766
6	0xbcb07f29	-0.02154501
7	0xbdcdc1e0	-0.10046744
8	0x3d99605a	0.07489081
9	0x3bcd87d6	0.0062722964
10	0x3d822abb	0.063558064
11	0x3db893c3	0.09012558
12	0xbd9ec23f	-0.07751893
13	0x3d5c27b8	0.053748816
14	0x3ddbe103	0.10736277
15	0x3c484c1f	0.01222518
16	0x3d9b06c9	0.075696535
17	0xbc8be449	-0.017076628
18	0xbdcb5cad	-0.09929786
19	0xbd895d6a	-0.067072704
20	0xbd99db78	-0.075125635
21	0xbcaea90d	-0.021320844
22	0x3d088e3d	0.033338774
23	0xbdf377c5	-0.118880786
24	0xbd9c2da7	-0.07625895
25	0x3ded3715	0.11582772
26	0x3e0e3150	0.13885999
27	0xbd45d11b	-0.04829512
28	0x3dee0243	0.11621525
29	0xbd460f90	-0.048354685
30	0xbd8713fc	-0.065956086
31	0x3d786808	0.060646087
32	0x3cd13db9	0.025542127
33	0x3ca1daaf	0.019757597
34	0xbccf380e	-0.025295284
35	0xbe1d6820	-0.15371752
36	0x3c2cad32	0.01053934
37	0xbdd10e29	-0.10207779
38	0x3db0fe20	0.086422205
39	0xbcdfb3b9	-0.027307378
40	0xbd2d25b9	-0.042272303
41	0x3e711edd	0.2354693
42	0x3c394e35	0.01131015
43	0x3d00181d	0.031272996
44	0xbdffde26	-0.12493543
45	0xbac25ed8	-0.0014829291
46	0xbe0064d7	-0.12538467
47	0xbe648b85	-0.22318847
48	0x3dfae5c4	0.122508556
49	0x3c0f7e49	0.008758136
50	0xbd0c5910	-0.034264624
51	0xbda5e0e6	-0.080995366
52	0x3dd2b998	0.102893054
53	0x3d8b6f7c	0.06808373
54	0xbd690872	-0.05689282
55	0x3d4ba1ff	0.04971504
56	0x3e3dbf57	0.18530022
57	0x3c384a5d	0.011248198
58	0x3d5b445d	0.053531993
59	0xbdcacb5a	-0.099020675
60	0x3d573c71	0.052547876
61	0x3c013e55	0.007888396
62	0x3e615cd6	0.2200807
63	0x3c99fb14	0.018796481
64	0xbb9d0f40	-0.0047930777
65	0xbe36e8ec	-0.1786229
66	0x3df5ef4a	0.120085314
67	0xbdb5e8ce	-0.088822946
68	0x3caa34af	0.020777075
69	0x3ca25efc	0.019820683
70	0x3d0b108c	0.033951327
71	0x3d231617	0.03981599
72	0x3d63b8e9	0.055596266
73	0xbcfe6945	-0.031056056
74	0x3dbaa6a2	0.09113814
75	0x3ca26ddd	0.019827778
76	0x3d2004f9	0.039067242
77	0xbd3cc9fd	-0.04609107
78	0xbd3ba8b3	-0.04581518
79	0x3db8898e	0.090106115
80	0xbdc30575	-0.09522525
81	0xbd9a4c6b	-0.07534107
82	0xbd4da401	-0.050205234
83	0xbd61a596	-0.055089556
84	0xbd63b816	-0.05559548
85	0x3d64419b	0.05572663
86	0x3d990c9e	0.0747311
87	0xbd199387	-0.03749421
88	0xbc53eb68	-0.012934543
89	0xbcca5815	-0.024700204
90	0xbdf7c3dd	-0.12097905
91	0x3d9cc548	0.07654816
92	0x3cc05521	0.023478093
93	0xbc5e3826	-0.0135631915
94	0x3df51dc9	0.11968572
95	0xbd30eb58	-0.04319319
96	0x3b0438d3	0.0020175471
97	0x3ca3c8e5	0.019993255
98	0x3de0d1fc	0.10977551
99	0xbc02c17a	-0.007980699
100	0x3de62ba3	0.11238792
101	0xbd3aff30	-0.045653522
102	0x3c98ad05	0.01863719
103	0xbc105c51	-0.008811072
104	0x3d783b6f	0.060603555
105	0x3e34bc8e	0.17650053
106	0x3da0a097	0.0784313
107	0xbd9728f2	-0.073808566
108	0x3d149fcd	0.03628521
109	0x3d2ae688	0.041723758
110	0xbd1298be	-0.035790198
111	0xbe9c45fe	-0.3052215
112	0x3e2ceac2	0.16886428
113	0x3d0aaed2	0.033858128
114	0x3b7319ad	0.0037094161
115	0x3de36f04	0.11105159
116	0xbd0b0da7	-0.033948567
117	0xbc40f513	-0.01177718
118	0x3d4a1f6e	0.04934638
119	0x3de6f3b4	0.112769514
120	0x3ce0d436	0.02744494
121	0x3c5a3576	0.01331841
122	0x3d6ed946	0.058312677
123	0xbddd7af8	-0.1081447
124	0xbc475bbd	-0.012167868
125	0xbdd336b3	-0.103131674
126	0xbd8bc17a	-0.06824012
127	0x3da6ff85	0.08154205
128	0x3a935746	0.001124122
129	0x3d765606	0.060140632
130	0x3cee31ba	0.029076446
131	0xbc20b733	-0.009809303
132	0xb99636d6	-0.00028651085
133	0xbd8e7b89	-0.06957156
134	0xbd51f6e8	-0.05126086
135	0x3d96988e	0.07353316
136	0x3db2eb57	0.08736294
137	0x3dad3c94	0.0845882
138	0x3c530b71	0.012881146
139	0xbda0c2db	-0.07849666
140	0x3d33e884	0.043922916
141	0x3daea0b2	0.08526744
142	0xbd19437b	-0.03741787
143	0xbd4e05c9	-0.050298486
144	0xbbea71bc	-0.0071546715
145	0xbda8394e	-0.08214055
146	0xbd57a642	-0.05264879
147	0x3e41ad7f	0.1891384
148	0x3dcf4607	0.101207785
149	0x3d3fedf6	0.046857797
150	0xbd1cb30d	-0.038256694
151	0x3d49e597	0.04929122
152	0xbde0da3f	-0.10979127
153	0x3d824ade	0.06361936
154	0xbba59d0b	-0.0050541214
155	0xbcfa7f4a	-0.030578274
156	0xbad00233	-0.0015869796
157	0x3bd3bfa8	0.006462056
158	0x3d37f588	0.04491189
159	0xbe3483e2	-0.17628434
160	0xbc1b5d85	-0.009482746
161	0x3cfb5621	0.030680718
162	0x3d20cea0	0.039259553
163	0x3d61d690	0.055136263
164	0x3db498a9	0.0881818
165	0xbd4595ae	-0.04823845
166	0xbde3e58a	-0.111277655
167	0x3cc40532	0.023928259
168	0xbdfc3d32	-0.123163596
169	0x3dd6c648	0.10487038
170	0x3cf57136	0.02996121
171	0xbd889d67	-0.06670647
172	0x3dea4ea9	0.114407845
173	0x3df66811	0.12031568
174	0xbccd85dc	-0.025088243
175	0xbe828caf	-0.25497958
176	0x3e618454	0.22023135
177	0x3d540d7b	0.05177067
178	0x3de5ee34	0.11227074
179	0x3cf664b3	0.030077314
180	0x3cfb0490	0.030641824
181	0xbdce39e1	-0.10069633
182	0xbc18488e	-0.009294642
183	0xbd2dad36	-0.042401515
184	0x3b1dcd9c	0.0024078852
185	0x3cabcafa	0.02097081
186	0xbdbdb615	-0.09263245
187	0xbd9d694f	-0.07686102
188	0x3d93c08a	0.07214458
189	0xbda6f8b4	-0.08152905
190	0xbdd54469	-0.10413439
191	0xbd743047	-0.059616353
192	0x3bf71dc4	0.00754139
193	0x3dff0c16	0.12453477
194	0x3d3875db	0.04503427
195	0xbae26204	-0.0017271643
196	0x3d431e87	0.047636535
197	0x3d0576c9	0.032583985
198	0xbe24bbdd	-0.16087289
199	0x3a1d0fc6	0.0005991425
200	0x3d67ce3c	0.056593165
201	0xbde1e7a4	-0.1103051
202	0x3d1556f7	0.03645989
203	0xbd98db72	-0.07463731
204	0xbdb81e36	-0.08990137
205	0x3e01d75e	0.12679812
206	0xbd93bfe6	-0.07214336
207	0xbdc7162d	-0.097210266
208	0x3d4bf938	0.04979822
209	0x3deb2398	0.11481398
210	0x3d95915b	0.07303115
211	0xbd72f147	-0.05931213
212	0xbd39c05d	-0.045349468
213	0xbc997249	-0.018731253
214	0x3d38846b	0.04504816
215	0xbc910ad5	-0.01770536
216	0x3dc53ee0	0.09631133
217	0x3d49b81a	0.04924784
218	0x3d78ea4a	0.06077031
219	0xbd34e7e6	-0.044166468
220	0x3d869496	0.06571309
221	0x3d2e21cb	0.042512696
222	0xbd1e5c9c	-0.038662538
223	0xbc82b1a2	-0.015953843
224	0xbbf76673	-0.0075500547
225	0xbdc47bb3	-0.09593906
226	0xbd271256	-0.04078897
227	0x3d171b41	0.036891226
228	0x3c2b9346	0.010472124
229	0xbd698380	-0.057010174
230	0xbdc90848	-0.09816033
231	0x3d5a63dd	0.053317893
232	0xbd36246d	-0.044468332
233	0x3c6d9588	0.014500983
234	0xbd3a1eb3	-0.045439433
235	0x3d2fba42	0.04290224
236	0x3dae6c35	0.085167326
237	0xbd36af20	-0.044600606
238	0xbc4fc9c7	-0.012682385
239	0xbe59aa4d	-0.21256371
240	0x3e07dae2	0.13267091
241	0x3c5a3767	0.013318873
242	0x3df4eaea	0.11958869
243	0xbe0149e7	-0.12625848
244	0x3d38816e	0.04504531
245	0x3c10ce1d	0.008838204
246	0xbcb0cae2	-0.021581117
247	0x3c8a4f67	0.016883565
248	0x3cb1ffbe	0.021728393
249	0x3d33fe8d	0.04394393
250	0x3d7905d3	0.06079657
251	0xbd2ab938	-0.041680545
252	0x3e4dbb10	0.2009089
253	0xbdfc00f2	-0.12304868
254	0x3c66d5fa	0.014089102
255	0xbdb9a91f	-0.090654604

conv2.lin_l.bias f4 [64]
0	0x3c9969ba	0.018727172
1	0x3cd49909	0.02595188
2	0x3bd241cb	0.0064165345
3	0xbcaab534	-0.020838358
4	0x3d2fbaab	0.04290263
5	0x3c3e0d29	0.011599817
6	0xbd997dfe	-0.07494734
7	0xbd7060af	-0.058685955
8	0xbc21c2ef	-0.009873136
9	0x3b0eddef	0.0021799763
10	0x3d868955	0.06569163
11	0x3c317991	0.010832206
12	0xbb8983fa	-0.004196641
13	0xbd945b7e	-0.07244013
14	0xbdb6c19c	-0.08923647
15	0xbd04dd9a	-0.0324379
16	0xbdb9890c	-0.09059343
17	0x3d8c51a4	0.06851509
18	0xbd8c6469	-0.06855089
19	0xbd00c821	-0.031440858
20	0xbda99289	-0.082799025
21	0xbd2a46f1	-0.04157156
22	0x3d5a6930	0.05332297
23	0x3cc2365e	0.023707565
24	0xbc083d5a	-0.008315409
25	0x3d657123	0.0560161
26	0xbd3f57f1	-0.046714727
27	0x3d46255a	0.048375465
28	0x3d93d167	0.07217675
29	0xbd65201c	-0.055938825
30	0xbce67ead	-0.028136576
31	0xbccb01e9	-0.024781184
32	0xbd9bfcad	-0.076165535
33	0xbd2029a0	-0.039102197
34	0xbb9bff28	-0.0047606416
35	0xbd2d5fb1	-0.042327587
36	0x3d64330b	0.05571274
37	0x3d770b6b	0.060313623
38	0xbb9d2a38	-0.0047962926
39	0x3dae5176	0.08511631
40	0x3cbb6574	0.022875525
41	0xbd76eee9	-0.060286436
42	0xbc191f3e	-0.009345828
43	0xbd5930b2	-0.053024955
44	0x3b951155	0.0045491853
45	0xbdb03c57	-0.08605259
46	0x3d0430bf	0.03227305
47	0xbc081f14	-0.008308191
48	0x3d1389e8	0.03602019
49	0xbd418b34	-0.047251895
50	0xbc3f3486	-0.011670237
51	0x3bde1980	0.006777942
52	0xbd7a4b12	-0.06110675
53	0xbce9c0c0	-0.028534293
54	0xbcfde49e	-0.030992802
55	0x3cab9604	0.020945556
56	0x3bc1d2f1	0.0059150388
57	0xbc80a9a8	-0.015705898
58	0xbda25186	-0.079257056
59	0xbbae81d0	-0.0053255334
60	0xbc590054	-0.013244707
61	0x3cce9966	0.02521963
62	0xbd37b340	-0.04484868
63	0xbd3741c1	-0.044740442

conv2.lin_r.weight f4 [64, 64]
0	0xbb50c000	-0.0031852722
1	0xbde1fe64	-0.11034849
2	0xbd361184	-0.044450298
3	0x3cc45a60	0.023968875
4	0xbd29da98	-0.041468233
5	0x3d671190	0.056413233
6	0xbdc867c6	-0.09785418
7	0xbd379d4c	-0.044827744
8	0xbdad8736	-0.08473055
9	0x3c4a76d0	0.012357429
10	0x3d041064	0.032242194
11	0x3d6a7460	0.05723989
12	0x3db7520a	0.089511946
13	0xbc603bc0	-0.0136861205
14	0xbde69ae4	-0.11260012
15	0xbd101b04	-0.035182014
16	0x3d999180	0.07498455
17	0x3db75398	0.08951491
18	0x3db9306e	0.0904244
19	0xbdb5718e	-0.088595495
20	0xbd12cac4	-0.035837904
21	0x3d1e0110	0.038575232
22	0x3d87d71e	0.06632827
23	0xbde017f4	-0.10942069
24	0xbd6379b8	-0.055536002
25	0xbdaa3680	-0.08311176
26	0x3db5d96e	0.08879362
27	0x3df3acd4	0.11898199
28	0x3c607240	0.013699114
29	0x3de422d8	0.111394584
30	0xbd282da0	-0.041059136
31	0x3d739030	0.05946368
32	0xbddf6ff4	-0.10910025
33	0x3c87dea0	0.016585648
34	0x3cc66500	0.024218082
35	0x3ddaf166	0.10690574
36	0x3d315018	0.043289274
37	0xbce4a4c0	-0.02791059
38	0xbbddf4e0	-0.006773576
39	0xbd0694ac	-0.03285663
40	0x3deadba2	0.11467673
41	0x3dff95f0	0.1247977
42	0x3d4017a8	0.04689756
43	0xbdb55ef4	-0.088560015
44	0x3d63c44c	0.055607125
45	0xbb0f5980	-0.0021873415
46	0x3c274570	0.010209426
47	0x3de69e50	0.112606645
48	0x3dfee5b8	0.12446159
49	0xbdacec92	-0.0844356
50	0x3d90abfa	0.07064052
51	0x3c003650	0.007825449
52	0x3d56fa38	0.05248472
53	0xbd98ee68	-0.074673474
54	0x3c101160	0.008793205
55	0x3df849d2	0.12123455
56	0x3dec898e	0.11549674
57	0x3bf609a0	0.0075084716
58	0x3d1c2054	0.038116768
59	0x3d854d62	0.065089
60	0x3bd93080	0.006628096
61	0x3d80f978	0.062975824
62	0xbd149948	-0.036278993
63	0xbd9d495a	-0.07680006
64	0x3c8f5788	0.017497793
65	0xbdadcdae	-0.08486496
66	0xbda154cc	-0.07877502
67	0xbccb3670	-0.024806231
68	0x3dae2986	0.08504014
69	0x3a30c500	0.00067432225
70	0x3a2a5f00	0.00064991415
71	0x3dba19c4	0.09086946
72	0xbbe0d100	-0.0068608522
73	0xbd709690	-0.058737338
74	0x3dd907ee	0.105972156
75	0xbc45f150	-0.012081459
76	0x3dfc1a68	0.12309724
77	0x3d981204	0.07425311
78	0xbc370040	-0.011169493
79	0xbda7e15c	-0.08197281
80	0xbd9d5e6c	-0.07684025
81	0x3d686ae4	0.056742564
82	0x3ce58738	0.028018579
83	0xbd5971cc	-0.05308704
84	0xbd6a44c0	-0.05719447
85	0xbda4cf40	-0.08047342
86	0x3dc1dab0	0.094655395
87	0x3b6e7880	0.0036387742
88	0x3df16b0c	0.11787996
89	0x3d23a2ac	0.039950058
90	0xbdf0e068	-0.11761552
91	0xbd957594	-0.07297817
92	0xbde52134	-0.111879736
93	0xbdaeec54	-0.0854117
94	0xbdd60db6	-0.10451834
95	0x3c8e1c90	0.017347604
96	0xbd78b834	-0.060722545
97	0xbd568e94	-0.052382067
98	0x3c24d3c0	0.010060251
99	0xbd970e4a	-0.07375772
100	0x3d48305c	0.048874244
101	0x3dd25670	0.10270393
102	0x3d19eca0	0.03757918
103	0x3df0457a	0.117320016
104	0x3da8a820	0.08235192
105	0xbd9b68c2	-0.0758834
106	0xbc847148	-0.016167298
107	0x3c69a110	0.014259592
108	0x3db519c0	0.08842802
109	0x3da8b7f8	0.08238214
110	0x3d57ea3c	0.052713618
111	0x3b5c8ec0	0.0033654422
112	0x3d150558	0.03638205
113	0xbdcb1e10	-0.09917843
114	0x3cd9f518	0.026606128
115	0x3c52a4e0	0.012856692
116	0xbc07e8d0	-0.008295253
117	0x3da41536	0.08011858
118	0xbcf1df30	-0.02952537
119	0x3d8b529c	0.06802866
120	0xbc826508	-0.015917316
121	0xbd8c7ce8	-0.068597615
122	0x3d09e44c	0.033664986
123	0xbd85ad36	-0.06527178
124	0xbda7569c	-0.08170816
125	0x3df5088c	0.11964521
126	0xbc0cafc0	-0.008586824
127	0x3c041c00	0.008063316
128	0x3c547f10	0.012969747
129	0xbc9f34d0	-0.019434363
130	0xbd8f67f6	-0.07002251
131	0x3d557e1c	0.05212222
132	0xbd36b3f4	-0.04460521
133	0xbcc3edf8	-0.023917183
134	0x3c027ec0	0.00796479
135	0x3d8681a8	0.06567699
136	0x3d8ec64e	0.06971417
137	0xbd683608	-0.056692153
138	0xbdba3d1e	-0.090936884
139	0xbdbfc704	-0.09364131
140	0xbc6b3080	-0.014354825
141	0x3bb0a360	0.0053905696
142	0x3d953062	0.07284619
143	0xbb180680	-0.0023197234
144	0x3d9f8d5c	0.07790634
145	0x3dfd2888	0.12361246
146	0xbb8c1d20	-0.004275933
147	0x3d8dfce2	0.06932999
148	0xbdae840c	-0.0852128
149	0x3d1a5cac	0.037686035
150	0xbde5639e	-0.11200641
151	0x3c3cdad0	0.011526778
152	0x3d5150ec	0.051102564
153	0xbd1ae0a8	-0.037811905
154	0xbde37748	-0.111067355
155	0x3d7a733c	0.061145052
156	0x3db44634	0.08802453
157	0x3dee0680	0.116223335
158	0xbdcf8210	-0.10132229
159	0xbd1b1038	-0.037857264
160	0x3c0eee40	0.008723795
161	0xbd416698	-0.04721698
162	0x3dfeb134	0.124361426
163	0x3dd9cc60	0.106346846
164	0x3de15b34	0.11003724
165	0x3cfa41f8	0.030549034
166	0xbda9984c	-0.082810014
167	0xbd8ad89c	-0.06779596
168	0x3db7d0ba	0.08975358
169	0xbd98cc6c	-0.074608654
170	0xbb617e80	-0.0034407675
171	0xbd5f0348	-0.05444649
172	0x3c9c5f80	0.019088507
173	0x3da62076	0.0811166
174	0xbdff43dc	-0.12464115
175	0x3dec9040	0.11550951
176	0xbd1ea078	-0.038727254
177	0xbc9b9e90	-0.018996507
178	0x3ba50160	0.0050355643
179	0xbd1b8cf4	-0.03797622
180	0xbde5f960	-0.11229205
181	0xbdfe3550	-0.12412512
182	0xbd9017f4	-0.07035819
183	0x3d10e0c4	0.035370603
184	0xbc6444a0	-0.013932377
185	0x3d8bdf70	0.06829727
186	0xbd419c80	-0.04726839
187	0x3cada468	0.02119656
188	0x3dd8bc16	0.105827495
189	0xbce79788	-0.028270498
190	0xbd7b436c	-0.061343595
191	0x3dd22a00	0.10261917
192	0xbcdf2ad8	-0.02724211
193	0x3cfee270	0.031113833
194	0xbc8daf70	-0.01729557
195	0xbdb7760c	-0.089580625
196	0xbdaa9d92	-0.083308354
197	0xbdb5c11a	-0.08874722
198	0x3db78d8a	0.08962543
199	0xbc5014d0	-0.012700275
200	0xbd038c98	-0.032116503
201	0xbde072b0	-0.10959375
202	0x3d47d01c	0.048782453
203	0x3df6368a	0.12022121
204	0xbd5a358c	-0.053273723
205	0xbcaed9a8	-0.021344021
206	0x3d9ba72c	0.07600245
207	0x3dabadda	0.08382769
208	0x3dc259ea	0.09489806
209	0xbdf93a9a	-0.121693805
210	0xbd8e3b88	-0.069449484
211	0x3df06a7a	0.11739059
212	0xbd6a8e40	-0.057264566
213	0x3df639f8	0.120227754
214	0x3dcbb610	0.09946835
215	0x3c1896c0	0.009313285
216	0xbc147680	-0.009061456
217	0xbdada4be	-0.08478688
218	0x3daa77ca	0.08323629
219	0x3dc5636c	0.09638104
220	0xbd27d978	-0.04097888
221	0x3d617f74	0.05505319
222	0xbdc8cdca	-0.09804876
223	0x3d70aa18	0.058755964
224	0xbcdd2e90	-0.026999742
225	0xbdc652e4	-0.09683779
226	0xbde3f5d8	-0.11130875
227	0xbdcca9c6	-0.09993319
228	0x3ddec30e	0.108770475
229	0xbdb33988	-0.087512076
230	0xbdd02eaa	-0.101651505
231	0x3b85a2c0	0.004078239
232	0x3ccb0668	0.024783328
233	0x3c2af470	0.010434255
234	0x3cf24290	0.029572755
235	0x3cea9098	0.0286334
236	0xbc852d20	-0.016256869
237	0xbb4db740	-0.0031389743
238	0xbdf02f22	-0.1172774
239	0xbddaf0c0	-0.10690451
240	0x3cbeec18	0.023305938
241	0x3d87ba9a	0.06627388
242	0xbde9cd32	-0.11416091
243	0x3c8b4680	0.01700139
244	0x3ded1a66	0.11577301
245	0x3d0c3348	0.034228593
246	0x3d59d4bc	0.053181395
247	0x3d62dd64	0.055386916
248	0x3c10bda0	0.008834273
249	0x3cebe340	0.028794885
250	0xbc6de710	-0.014520422
251	0xbd3708a4	-0.044685975
252	0xbdda37c8	-0.10655171
253	0x3d584e48	0.05280903
254	0xbb4bdc40	-0.003110662
255	0xbd2d996c	-0.042382643

conv2.lin_r.bias f4 [64]
0	0x3d3ad540	0.045613527
1	0x3d00edfc	0.03147696
2	0x3b621dc0	0.0034502596
3	0xbdfd1946	-0.12358336
4	0xbdaa31f8	-0.08310312
5	0x3de75f6a	0.11297496
6	0xbd9133e0	-0.070899725
7	0xbc912a18	-0.017720267
8	0xbb4fe000	-0.0031719208
9	0xbcc729c8	-0.024311915
10	0x3df21340	0.11820078
11	0x3dd3d0ac	0.103425354
12	0x3d93c4d6	0.07215278
13	0x3cd7cbb8	0.026342258
14	0xbcd2ecb0	-0.025747627
15	0xbd80bb42	-0.062857166
16	0xbcd36740	-0.02580607
17	0x3d158098	0.03649959
18	0x3db8519e	0.08999942
19	0xbdd9eb30	-0.106405616
20	0x3dc64c64	0.09682539
21	0x3daf8b8c	0.08571538
22	0x3d2d7dcc	0.042356297
23	0x3dce181c	0.10063192
24	0x3c2f05c0	0.010682523
25	0xbbe5e480	-0.0070157647
26	0xbd194f50	-0.037429154
27	0x3c86fb18	0.016477153
28	0xbd0764c0	-0.033055067
29	0xbd017274	-0.03160329
30	0xbdfa9a6a	-0.122364834
31	0xbdeb586a	-0.11491473
32	0x3d44d0e0	0.04805076
33	0xbd4f2c84	-0.050579563
34	0xbdd87e12	-0.10570921
35	0xbdda044e	-0.10645352
36	0x3d648990	0.055795252
37	0xbd94c15c	-0.07263443
38	0xbdb79ae0	-0.08965087
39	0x3b43e6c0	0.0029892176
40	0xbd469d70	-0.048489988
41	0xbd334fe4	-0.04377736
42	0xbd9cbb3a	-0.07652898
43	0xbdff860c	-0.12476739
44	0xbdf51606	-0.11967091
45	0x3da94b2e	0.082662925
46	0x3dda7640	0.10667086
47	0x3d1dcbc8	0.03852442
48	0x3d7c8d48	0.061658174
49	0xbdd525ce	-0.10407601
50	0x3df2c170	0.118533015
51	0x3d4d5300	0.050127983
52	0xbda13690	-0.07871735
53	0x3d6a06b8	0.057135314
54	0x3a516900	0.00079883635
55	0x3d4232d8	0.04741177
56	0xbd211df0	-0.03933519
57	0x3dd90864	0.105973035
58	0xbd9808b2	-0.074235335
59	0x38771000	5.890429e-05
60	0xbd210860	-0.039314628
61	0xbd26188c	-0.040550753
62	0x3c137720	0.00900057
63	0xbdd6983a	-0.10478254

conv2.lin_edge.weight f4 [64, 2]
0	0xb99c3800	-0.00029796362
1	0xbeaed2a2	-0.34145075
2	0x3de657d0	0.11247218
3	0x3f301ed1	0.6879702
4	0xbf06b7c2	-0.5262414
5	0xbeaae285	-0.33375946
6	0xbe9dba07	-0.3080599
7	0x3ebd24ae	0.36942047
8	0xbeafb8e0	-0.34320736
9	0xbe837a04	-0.25679028
10	0x3ccf0500	0.025270939
11	0xbefa8de3	-0.48936376
12	0xbf2d49d0	-0.67690754
13	0xbf16d083	-0.58911914
14	0xbe5a2d3c	-0.21306318
15	0x3c5ab240	0.013348162
16	0xbdabc138	-0.08386463
17	0xbe8d9faa	-0.27660877
18	0xbd074760	-0.033027053
19	0x3ed315de	0.4122762
20	0xbf0458d2	-0.5169803
21	0xbe913a7e	-0.28364938
22	0xbed3a5ba	-0.41337377
23	0xbdd817a8	-0.10551387
24	0xbedd7509	-0.43253353
25	0x3f307e73	0.68942946
26	0xbdf848b8	-0.12123245
27	0x3f2caf79	0.6745525
28	0x3ceecc00	0.02915001
29	0xbedd4387	-0.43215582
30	0xbe05e198	-0.13074338
31	0x3e1a6cb8	0.15080535
32	0xbd5a4910	-0.053292334
33	0x3f0b2e89	0.5436788
34	0x3f2f1ecf	0.68406385
35	0xbea2b2bb	-0.31776986
36	0x3d9a5138	0.075350225
37	0xbe2dec3c	-0.16984648
38	0x3f2d43a5	0.6768134
39	0x3f302527	0.6880669
40	0xbf2b3073	-0.668708
41	0xbf2189dc	-0.6310098
42	0x3e94777c	0.2899741
43	0xbe8f939f	-0.28042313
44	0xbf31a803	-0.6939699
45	0xbf2da38f	-0.67827696
46	0xbef99234	-0.48744357
47	0x3edff34e	0.43740314
48	0xbd842c90	-0.06453812
49	0xbe80ecf3	-0.25180778
50	0x3f3445ef	0.7041921
51	0xbe9ddd0d	-0.3083271
52	0xbea0fd6e	-0.31443352
53	0x3e923594	0.28556502
54	0x3e412bbc	0.1886434
55	0xbef18d10	-0.47177935
56	0xbeef2bd0	-0.46713114
57	0x3ef271c2	0.47352415
58	0xbf196c50	-0.59930897
59	0xbf269813	-0.65075797
60	0xbef83d4a	-0.4848426
61	0xbf312a41	-0.692051
62	0x3f2ca441	0.6743813
63	0x3ef5e52a	0.480264
64	0xbf2d3946	-0.6766552
65	0x3f2eab25	0.68229896
66	0xbedbcc7f	-0.42929456
67	0xbef01304	-0.46889508
68	0xbebac49d	-0.3647813
69	0xbc9c8320	-0.019105494
70	0x3eff9a82	0.49922568
71	0x3e994eee	0.2994303
72	0x3e75d410	0.24006677
73	0x3dfbc140	0.12292719
74	0xbf166157	-0.5874228
75	0x3f2d596b	0.67714566
76	0x3f0c1c9f	0.5473117
77	0x3f0f7e63	0.56052226
78	0x3eb4e492	0.35330635
79	0xbec100eb	-0.37696013
80	0x3f04a80f	0.5181894
81	0x3d2e2b20	0.042521596
82	0xbe60e80e	-0.21963522
83	0x3f33b957	0.7020468
84	0xbf276ab8	-0.65397215
85	0xbe0eba74	-0.13938314
86	0x3eb0fba6	0.34566993
87	0x3e6ddf54	0.23229724
88	0x3c6a1980	0.014288306
89	0xbec17ce0	-0.37790585
90	0x3f093b17	0.5360579
91	0x3d983668	0.07432252
92	0xbeeb62b6	-0.45973748
93	0xbf32f278	-0.6990123
94	0xbed56e8d	-0.41685906
95	0xbf1e519f	-0.61843294
96	0xbeb6c440	-0.35696602
97	0xbf026c3c	-0.509464
98	0xbd0f3fe0	-0.034973025
99	0xbe31846c	-0.17335671
100	0x3e96a0ce	0.2941956
101	0xbeb06b0b	-0.34456667
102	0x3ee7024e	0.45118946
103	0x3ebfff7a	0.374996
104	0xbf1cbfde	-0.61230266
105	0xbd018b80	-0.03162718
106	0x3f2dfed1	0.67966944
107	0xbf290146	-0.6601757
108	0x3eb2c9ca	0.34919578
109	0x3f1f07f5	0.62121516
110	0x3ebac536	0.36478585
111	0x3e94fcde	0.29099172
112	0xbeed0bdc	-0.4629811
113	0x3f297da1	0.6620732
114	0xbdaece68	-0.085354626
115	0xbded5ff8	-0.1159057
116	0xbec5938c	-0.38589132
117	0x3e13d79c	0.14437717
118	0x3e185358	0.14875543
119	0x3f0dd545	0.5540355
120	0xbe916009	-0.28393582
121	0xbe2ad7d0	-0.16683888
122	0x3e700794	0.23440391
123	0x3e9640fa	0.29346448
124	0x3eaf387a	0.34222776
125	0x3ea3f3a6	0.32021827
126	0xbe371570	-0.17879272
127	0x3ec3f042	0.3826924
