saved_models/edgat3.pt (torch, 42898 bytes, 16 tensors)

conv1.att f4 [1, 1, 64]
-0.106454045 0.28207564 -0.27630088 0.054931015 -0.24727115 -0.25466838 -0.24204357 0.16473037
-0.04768464 0.033494145 0.19105452 -0.067588106 -0.05701509 -0.29515865 -0.05867642 -0.1416978
0.02706331 -0.25478294 -0.24998535 0.077299684 0.054699093 0.20467144 0.018199086 -0.120109096
-0.14343986 -0.2722811 -0.24219416 0.18919334 0.24168015 -0.08928107 0.24198037 -0.18809299
0.2905534 0.014397502 0.123750806 -0.19781266 -0.06791635 -0.063097924 0.20835227 -0.052713066
-0.2909774 -0.28326598 0.13280812 0.29133034 -0.07092236 0.07872626 0.17423844 -0.18782708
0.1475234 -0.2011956 0.2009551 0.22433877 -0.22780192 -0.22966662 -0.20635282 -0.20219097
-0.19962057 -0.26561943 -0.14268897 -0.2759077 -0.2006867 0.19588539 0.2745298 0.17506534
00000000: 9404 dabd 386c 903e 4f77 8dbe 58ff 603d
00000010: a634 7dbe e563 82be 45da 77be 14af 283e
00000020: f850 43bd 2831 093d cca3 433e a26b 8abd
00000030: a888 69bd 091f 97be b056 70bd 3a19 11be
00000040: e0b3 dd3c e972 82be 29fc 7fbe 4c4f 9e3d
00000050: 280c 603d 6495 513e 4016 953c c2fb f5bd
00000060: e6e1 12be 6e68 8bbe bf01 78be e6bb 413e
00000070: 007b 773e fed8 b6bd b4c9 773e 739b 40be
00000080: 6ac3 943e 80e3 6b3c 1071 fd3d 678f 4abe
00000090: ba17 8bbd 7c39 81bd 4c5a 553e a8e9 57bd
000000a0: fdfa 94be 3d08 91be dafe 073e 4029 953e
000000b0: be3f 91bd 3c3b a13d 906b 323e be55 40be
000000c0: 6010 173e 3806 4ebe 2cc7 4d3e 10b9 653e
000000d0: e844 69be ba2d 6bbe 274e 53be 260b 4fbe
000000e0: 5669 4cbe 45ff 87be 0f1d 12be c643 8dbe
000000f0: d080 4dbe 2e96 483e 2c8f 8c3e 5444 333e

conv1.bias f4 [64]
0.0 -0.00094995706 -0.063101366 -0.054270953 -0.096208364 -0.02974012 0.0 -0.06023643
0.0 -0.14782004 -0.1395678 0.0 -0.079437554 0.10233593 -0.25856102 -0.04811533
-0.033565357 -0.046389386 -0.12749735 -0.028774988 0.0 -0.10458527 0.009629301 -0.073868625
-0.07913876 -0.016500687 -0.08918656 -0.18084392 -0.045130495 -0.012503939 -0.033067137 -0.17290208
-0.026745735 -0.07974391 0.0 -0.13449319 -0.09900236 -0.12183569 -0.07025853 0.0
-0.3236912 -0.11285275 -0.05551319 -0.0747661 -0.073495805 -0.12858154 -0.058700483 0.0
-0.05376781 0.0 -0.21934456 -0.058725286 -0.04210892 0.0 -0.042652212 0.0
-0.047499634 -0.15432763 -0.06837987 -0.0021628004 0.0 -0.043120295 -0.027089845 -0.06291052
00000000: 0000 0000 8a06 79ba 4a3b 81bd 384b 5ebd
00000010: e408 c5bd 8da1 f3bc 0000 0000 7aba 76bd
00000020: 0000 0000 235e 17be ddea 0ebe 0000 0000
00000030: 28b0 a2bd 8095 d13d 1c62 84be 9514 45bd
00000040: d47b 09bd cc02 3ebd aa8e 02be 86b9 ebbc
00000050: 0000 0000 cd30 d6bd 37c4 1d3c 6f48 97bd
00000060: 8113 a2bd 732c 87bc 71a7 b6bd 262f 39be
00000070: c1da 38bd 52dd 4cbc 6871 07bd 3e0d 31be
00000080: df19 dbbc c650 a3bd 0000 0000 95b8 09be
00000090: c0c1 cabd fe84 f9bd b4e3 8fbd 0000 0000
000000a0: daba a5be 581f e7bd cc61 63bd f81e 99bd
000000b0: f884 96bd e1aa 03be eb6f 70bd 0000 0000
000000c0: a33b 5cbd 0000 0000 dc9b 60be ed89 70bd
000000d0: 677a 2cbd 0000 0000 16b4 2ebd 0000 0000
000000e0: fa8e 42bd 1008 1ebe bf0a 8cbd c5bd 0dbb
000000f0: 0000 0000 e89e 30bd 86eb ddbc 3bd7 80bd

conv1.lin_l.weight f4 [64, 4]
0.12735438 -0.29398704 -0.32085234 -0.13806915 -0.45960778 -0.05422642 0.16677321 -0.0038428798
-0.10411375 -0.31732932 -0.0044185594 0.38583395 0.40654376 -0.52830106 0.18883625 -0.058892448
0.41893646 -0.36665508 -0.10708408 0.06424395 0.082389265 -0.3404413 0.40695393 0.0451059
-0.39674366 -0.18613696 -0.13011706 -0.16511893 0.25408554 0.13020924 -0.1761041 -0.12082575
0.015249133 -0.47891653 -0.3546269 -0.27450073 -0.4198175 -0.24074376 0.022981554 0.22551818
-0.39957458 -0.069991566 0.3275054 0.26704508 -0.342102 0.07429528 -0.23254395 -0.17383802
-0.016722605 0.08545308 0.19695581 -0.17249396 -0.10703078 -0.27808785 -0.42725506 0.18833151
0.10962566 0.20172052 -0.50413126 -0.48591015 -0.34284425 0.41787237 -0.389588 0.3568988
-0.45029852 0.23895913 -0.23494601 0.42849755 -0.46638402 0.07453644 -0.20076174 0.23920058
-0.028610488 0.13151418 0.072081 0.34996188 0.18244237 -0.06874413 0.12317913 -0.4695761
-0.38438255 -0.25886518 -0.3885489 -0.17036885 -0.065189004 0.33134556 0.31159532 -0.16070187
-0.21203023 -0.1827628 -0.1386027 0.4095841 -0.08102956 -0.15013947 -0.30900884 0.3148494
0.43140194 -0.080518104 0.11217732 -0.4527143 -0.33399722 -0.41750604 0.10757813 -0.110641025
-0.20087808 0.116712295 0.033494994 -0.075887926 0.14190257 0.10497666 0.18344644 -0.5457604
-0.10638123 0.32474113 0.019860126 -0.018618146 -0.27689356 0.41903114 -0.24351043 0.09422159
-0.1491771 -0.14612238 0.22735058 -0.35514447 -0.14574724 -0.20591287 -0.18926343 0.16814262
-0.26888132 0.1911684 -0.5416756 0.24847467 0.2608656 -0.09882468 0.34759745 -0.29145527
-0.4817992 -0.47735858 -0.16820824 -0.48927283 -0.24891931 0.17126144 0.18881121 -0.31005713
0.07062091 0.3904075 0.054074448 0.1771189 -0.33220667 0.2271749 0.32301885 0.017630288
-0.18783948 -0.53277344 -0.011145143 0.40463936 0.043509185 -0.32058537 -0.25187975 -0.17235267
0.19798762 -0.4615504 0.14036894 0.090198845 0.057032794 -0.22550151 -0.09593485 0.14839146
-0.36748844 0.26434433 -0.08552296 0.09870257 -0.528529 -0.16612402 0.25591242 0.16330706
0.03007114 -0.1066888 0.23218341 -0.352951 -0.2628608 -0.3330203 -0.5016651 0.2707225
-0.43084714 -0.21555822 0.08074526 0.0151888 0.15160096 -0.36142367 -0.081462026 -0.36871248
0.2745766 -0.4354966 0.036707077 0.25094366 0.30914402 -0.3455497 -0.0697391 -0.16500789
0.26841632 -0.01698968 -0.49312112 -0.34305674 -0.467907 0.05482024 0.04228104 0.25496843
0.103053115 -0.23240146 -0.44303632 0.47203925 -0.12808692 -0.36261845 -0.1691621 -0.45065457
-0.2405762 0.039314985 -0.21090773 0.2518049 -0.4607643 0.1612078 -0.13190007 -0.3537404
0.12920502 0.13794102 -0.1744873 -0.32681283 -0.03883689 -0.41426152 0.19292486 -0.035398107
-0.077902935 0.005599432 0.4385623 -0.01644868 -0.27716386 -0.46144766 -0.5034495 0.27898648
-0.23879725 -0.069648266 -0.08977473 -0.14434123 0.39752656 0.35776845 -0.26141375 -0.44632062
-0.042566415 0.18959916 -0.37878686 -0.027449297 0.13878673 -0.31557128 0.33128512 -0.3422422
00000000: 3069 023e 7885 96be c246 a4be 0062 0dbe
00000010: b651 ebbe 861c 5ebd 99c6 2a3e d3d8 7bbb
00000020: 9739 d5bd fd78 a2be 90c9 90bb 078c c53e
00000030: 8126 d03e bd3e 07bf 4a5e 413e 3539 71bd
00000040: d77e d63e 37ba bbbe e64e dbbd 5592 833d
00000050: b4bb a83d 524e aebe 445c d03e f7c0 383d
00000060: fc21 cbbe b09a 3ebe 683d 05be f014 29be
00000070: 8017 823e 9255 053e a254 34be 7e73 f7bd
00000080: 80d7 793c 8c34 f5be a891 b5be 5c8b 8cbe
00000090: 52f2 d6be 8885 76be d043 bc3c 3dee 663e
000000a0: 0a95 ccbe bd57 8fbd caae a73e 22ba 883e
000000b0: fe27 afbe 2028 983d 0020 6ebe 9802 32be
000000c0: d8fd 88bc 0602 af3d c9ae 493e 42a2 30be
000000d0: f432 dbbd 8861 8ebe 2dc1 dabe fad9 403e
000000e0: 6b83 e03d d38f 4e3e bf0e 01bf 37c9 f8be
000000f0: 4889 afbe 5ef3 d53e 1478 c7be 71bb b63e
00000100: 878d e6be b4b1 743e b095 70be 0864 db3e
00000110: e3c9 eebe 90a6 983d 7c94 4dbe fff0 743e
00000120: 8b60 eabc a7ab 063e 349f 933d 342e b33e
00000130: 2cd2 3a3e b9c9 8cbd 5745 fc3d 476c f0be
00000140: cacd c4be fa89 84be e2ef c6be 2c75 2ebe
00000150: d081 85bd 20a6 a93e 6c89 9f3e 088f 24be
00000160: 741e 59be 2c26 3bbe deed 0dbe 02b5 d13e
00000170: d3f2 a5bd 29be 19be 6836 9ebe f133 a13e
00000180: b7e0 dc3e ade6 a4bd 39bd e53d 2bca e7be
00000190: af01 abbe 5ac3 d5be ec51 dc3d c397 e2bd
000001a0: fcb2 4dbe db06 ef3d 0c32 093d 216b 9bbd
000001b0: e84e 113e 01fe d63d 62d9 3b3e f4b6 0bbf
000001c0: 67de d9bd 7844 a63e b4b1 a23c 1585 98bc
000001d0: fec4 8dbe 408b d63e cc5a 79be 40f7 c03d
000001e0: e2c1 18be 1ba1 15be 97ce 683e 7fd5 b5be
000001f0: c43e 15be d3da 52be 46ce 41be 942d 2c3e
00000200: d0aa 89be a6c1 433e 41ab 0abf 2570 7e3e
00000210: 2d90 853e 9864 cabd 4bf8 b13e a039 95be
00000220: 62ae f6be 5868 f4be c83e 2cbe f881 fabe
00000230: b4e4 7ebe 295f 2f3e ba57 413e cfbf 9ebe
00000240: b2a1 903d 7ee3 c73e 2b7d 5d3d a85e 353e
00000250: fe16 aabe 89a0 683e ba62 a53e 656d 903c
00000260: fe58 40be d763 08bf 1e9a 36bc e42c cf3e
00000270: b036 323d c423 a4be 62f6 80be 387d 30be
00000280: 44bd 4a3e 5650 ecbe e0bc 0f3e 2cba b83d
00000290: 389b 693d dee9 66be 7e79 c4bd eef3 173e
000002a0: 7227 bcbe 2458 873e a926 afbd 9324 ca3d
000002b0: ad4d 07bf 6a1c 2abe f406 833e f739 273e
000002c0: c057 f63c a87f dabd 7dc1 6d3e feb5 b4be
000002d0: b195 86be a381 aabe 206d 00bf 249c 8a3e
000002e0: ff97 dcbe 4bbb 5cbe c55d a53d 72da 783c
000002f0: 483d 1b3e 860c b9be 90d5 a6bd e2c7 bcbe
00000300: 4e95 8c3e 69f9 debe 295a 163d b07b 803e
00000310: 2048 9e3e e4eb b0be 60d3 8ebd d4f7 28be
00000320: dd6d 893e f12d 8bbc 5f7a fcbe 22a5 afbe
00000330: 8291 efbe 308b 603d e22e 2d3d 398b 823e
00000340: 830d d33d a6fa 6dbe a8d5 e2be 21af f13e
00000350: 3829 03be 20a9 b9be d438 2dbe 32bc e6be
00000360: 9b59 76be c008 213d 32f8 57be 92ec 803e
00000370: 4ce9 ebbe a813 253e d010 07be 761d b5be
00000380: 524e 043e 6940 0d3e ccac 32be 0354 a7be
00000390: 6e13 1fbd 161a d4be 188e 453e 9bfd 10bd
000003a0: 938b 9fbd 717b b73b 3d8b e03e 62bf 86bc
000003b0: 6ce8 8dbe de42 ecbe 11e2 00bf 51d7 8e3e
000003c0: 4487 74be c0a3 8ebd d0db b7bd 30ce 13be
000003d0: 9a88 cb3e 6d2d b73e 06d8 85be 2384 e4be
000003e0: 1f5a 2ebd 4826 423e 5af0 c1be 59dd e0bc
000003f0: 1c1e 0e3e 8f92 a1be 349e a93e 5f3a afbe

conv1.lin_l.bias f4 [64]
-0.18542606 0.0066164937 -0.012997683 0.030392647 -0.11005958 -0.12749295 -0.37072444 0.30553383
0.26782304 0.17722338 -0.22084433 0.038021028 -0.46703213 0.33129013 -0.62431306 -0.36824965
0.24623977 -0.22969429 -0.545223 0.46024323 -0.44915873 -0.056318242 -0.34444344 -0.53890926
-0.07843205 -0.16247942 -0.16287257 -0.26966938 -0.07368475 -0.5017191 -0.11841156 -0.0071898517
-0.078248136 0.2997976 0.4069609 -0.036764644 -0.36347446 -0.4218619 -0.27059954 0.1314106
-0.5993259 -0.50527585 -0.23869625 -0.10541767 -0.12996031 -0.20517473 0.3847563 0.1246357
0.2156716 0.35896665 -0.37142923 0.07285644 0.18167469 0.24386215 0.36229676 0.3741356
-0.39328822 -0.34316942 0.43264127 -0.22472753 0.29863775 -0.32208654 0.19434889 0.11042693
00000000: 54e0 3dbe 2ccf d83b 3cf4 54bc 00fa f83c
00000010: eb66 e1bd 838d 02be 98cf bdbe ee6e 9c3e
00000020: 1a20 893e 0c7a 353e 0425 62be f0bb 1b3d
00000030: d61e efbe dc9e a93e fbd2 1fbf 388b bcbe
00000040: 4726 7c3e fb34 6bbe bc93 0bbf 00a5 eb3e
00000050: 22f8 e5be f5ad 66bd e45a b0be f5f5 09bf
00000060: fca0 a0bd 0161 26be 11c8 26be 1b12 8abe
00000070: 08e8 96bd aa70 00bf c381 f2bd d998 ebbb
00000080: 8f40 a0bd 127f 993e 2e5d d03e 8696 16bd
00000090: 5319 babe 48fe d7be 068c 8abe 8090 063e
000000a0: 6c6d 19bf c259 01bf ca6c 74be 38e5 d7bd
000000b0: 5114 05be 5319 52be c7fe c43e 0041 ff3d
000000c0: 04d9 5c3e 7aca b73e f92b bebe c235 953d
000000d0: ee08 3a3e 00b7 793e f67e b93e b48e bf3e
000000e0: 135d c9be e7b3 afbe 2883 dd3e f91e 66be
000000f0: 0ce7 983e 87e8 a4be 6503 473e 8427 e23d

conv1.lin_r.weight f4 [64, 4]
-0.3525495 0.36031103 -0.1040197 -0.20626068 0.116573274 0.12867016 -0.086419165 0.20156503
-0.03753555 0.21767282 -0.09739339 0.044338107 0.40563792 0.019753695 -0.3293208 -0.34910297
-0.42469645 -0.3655513 0.19017404 0.48834383 -0.24682754 0.05097431 -0.084240496 -0.39225155
0.2808442 -0.33516967 0.13990104 -0.3459471 -0.41928643 0.18268222 0.47913343 0.2583189
-0.00024849176 -0.42044693 -0.2754842 0.3145216 -0.058456957 0.44300753 0.18590415 0.25508487
0.46716535 -0.18149257 0.17822689 0.038536727 0.124117374 0.37190366 -0.17376107 -0.30587572
-0.146209 0.057034552 -0.124527454 -0.06511921 0.16984898 0.050405502 0.33562946 -0.1440618
-0.1325292 -0.12644833 0.38940322 -0.18759638 0.30250007 0.28017008 -0.12878525 0.30263883
-0.1717599 0.2744676 -0.1486451 -0.22422135 0.35775763 0.16816378 0.2368074 0.22179502
-0.23829442 -0.11057907 0.4003842 -0.21492445 0.06967628 0.17419285 0.007945001 0.4985962
-0.35317135 0.06706303 0.29925054 -0.386742 -0.3624791 0.43051136 0.19068629 0.4804052
0.33913064 -0.2281676 -0.21113908 0.15541726 -0.073764205 0.28064704 -0.13090396 0.036614537
-0.10512465 0.23869467 0.28392994 0.23364258 -0.41199154 -0.46957815 -0.39038646 -0.38046366
0.48685384 -0.4365086 0.20156544 0.3321421 0.1107015 0.49338347 -0.467978 -0.45023555
-0.2149669 0.35093385 0.44729143 -0.3312778 -0.25992942 0.35251874 0.3417849 0.48866314
0.334193 0.4512626 0.05393237 0.11859822 -0.2651943 -0.07335931 -0.2343927 -0.071543336
-0.16257733 -0.21145594 0.17872232 0.4526083 -0.2752297 0.42430198 0.023391247 -0.22166485
0.3000468 0.025333524 0.09746504 -0.4380266 -0.14268398 0.19116563 0.20145899 0.16219819
-0.17665267 -0.084571004 -0.48527074 -0.085487366 0.15543562 -0.36795634 0.09187877 -0.41047466
0.2717684 0.18492907 -0.16763538 -0.24500722 0.021362841 0.26877028 -0.47029996 -0.46083218
0.26581198 0.1464923 -0.1883921 -0.024949014 0.331864 -0.3676359 -0.13826585 -0.3342271
-0.473333 0.3151772 0.3518579 -0.38576633 -0.1909644 0.16444087 -0.14630747 0.16591936
0.08510488 0.27764583 0.28098208 0.32593232 -0.3116415 -0.4189554 0.25827116 0.30822986
0.44104052 -0.02867192 0.1733033 -0.37045604 0.18589145 -0.21318036 0.30235535 -0.17522323
0.09138888 -0.44267398 0.22877824 0.1823821 -0.34607518 -0.36938733 -0.026244283 -0.23221737
-0.29969007 0.44209844 0.34476155 -0.4013872 -0.49648362 0.27284038 -0.48149973 0.10192841
0.33021867 0.12462503 0.35636932 0.46253157 0.30144727 -0.022021294 0.22156572 -0.13674104
-0.44140643 0.21823329 -0.19604534 0.27009052 -0.22355878 -0.4930997 0.29129398 -0.036114335
-0.14854902 0.4207036 0.04222977 -0.4320101 0.04055208 -0.44566983 0.45322216 0.24955338
0.16217887 0.44438 -0.42256612 -0.3435346 0.2248342 -0.48635507 -0.38486153 0.055850267
-0.14062542 -0.47421527 -0.16082698 -0.38234425 0.370547 -0.22151971 0.13720125 0.35819805
-0.13350177 0.3055145 -0.24794066 -0.28242564 -0.16138834 -0.3779317 -0.34938192 0.021206617
00000000: 5e81 b4be b07a b83e 4808 d5bd 0036 53be
00000010: f8bd ee3d 1cc2 033e 88fc b0bd 1067 4e3e
00000020: e0be 19bd a0e5 5e3e 3076 c7bd e09b 353d
00000030: c6af cf3e 80d2 a13c bc9c a8be a0bd b2be
00000040: d071 d9be 8a29 bbbe fcbc 423e 3408 fa3e
00000050: 5cc0 7cbe 70ca 503d 4886 acbd 32d5 c8be
00000060: d0ca 8f3e 5c9b abbe 3842 0f3e fa1f b1be
00000070: b6ac d6be 0c11 3b3e fa50 f53e 6042 843e
00000080: 0048 82b9 d244 d7be 440c 8dbe fa08 a13e
00000090: 9070 6fbd e2d1 e23e a85d 3e3e 7c9a 823e
000000a0: 4c30 ef3e 30d9 39be 1c81 363e b0d8 1d3d
000000b0: 4031 fe3d 286a be3e 6cee 31be be9b 9cbe
000000c0: d0b7 15be 109d 693d 4008 ffbd 385d 85bd
000000d0: e4ec 2d3e 0076 4e3d a0d7 ab3e f084 13be
000000e0: bcb5 07be ac7b 01be dc5f c73e 4419 40be
000000f0: 4ae1 9a3e 7472 8f3e 48e0 03be 7af3 9a3e
00000100: d4e1 2fbe 0487 8c3e 6c36 18be 489a 65be
00000110: 022c b73e 2033 2c3e a47d 723e 3c1e 633e
00000120: 7403 74be 4877 e2bd 28ff cc3e 2815 5cbe
00000130: 70b2 8e3d 9c5f 323e c02b 023c 0048 ff3e
00000140: e0d2 b4be 5858 893d 5e37 993e 0c03 c6be
00000150: dc96 b9be fc6b dc3e 4443 433e acf7 f53e
00000160: 88a2 ad3e c4a4 69be d834 58be b425 1f3e
00000170: b011 97bd f8b0 8f3e b00b 06be 20f9 153d
00000180: 984b d7bd 606c 743e 445f 913e 0040 6f3e
00000190: 8ef0 d2be 8c6c f0be bce0 c7be 22cc c2be
000001a0: e844 f93e 0e7e dfbe 2c67 4e3e 880e aa3e
000001b0: 78b7 e23d c29c fc3e d09a efbe 4685 e6be
000001c0: 4820 5cbe 9aad b33e 6203 e53e 3e9d a9be
000001d0: 7815 85be 567d b43e 6efe ae3e 0e32 fa3e
000001e0: 581b ab3e e40b e73e 30e8 5c3d a0e3 f23d
000001f0: 8cc7 87be 683d 96bd a404 70be 5085 92bd
00000200: ac7a 26be e887 58be fc02 373e 46bc e73e
00000210: e8ea 8cbe 1c3e d93e 009f bf3c 1cfc 62be
00000220: bc9f 993e 4088 cf3c c09b c73d 0645 e0be
00000230: c01b 12be ecc0 433e 444b 4e3e 4817 263e
00000240: 70e4 34be 9033 adbd 6875 f8be 0014 afbd
00000250: 842a 1f3e c664 bcbe f02a bc3d bc29 d2be
00000260: 3a25 8b3e 0c5e 3d3e 9ca8 2bbe 2ce3 7abe
00000270: 2001 af3c 429c 893e 28cb f0be 32f2 ebbe
00000280: 8218 883e 1402 163e dce9 40be e061 ccbc
00000290: 14ea a93e c63a bcbe 9095 0dbe d01f abbe
000002a0: b458 f2be e85e a13e b826 b43e 2a83 c5be
000002b0: 2c8c 43be 3063 283e a0d1 15be c4e6 293e
000002c0: 784b ae3d 9827 8e3e e2dc 8f3e 9ae0 a63e
000002d0: 7a8f 9fbe 5281 d6be 1e3c 843e 4ed0 9d3e
000002e0: 10d0 e13e 60e1 eabc 6c76 313e 6aac bdbe
000002f0: 545a 3e3e f44b 5abe 52ce 9a3e b86d 33be
00000300: 182a bb3d 2aa6 e2be d844 6a3e 60c2 3a3e
00000310: c430 b1be 5620 bdbe 40fe d6bc 64ca 6dbe
00000320: fa70 99be ba5a e23e 9684 b03e a082 cdbe
00000330: 1a33 febe bcb1 8b3e 2287 f6be d8bf d03d
00000340: 6c12 a93e 683b ff3d 0a76 b63e f0d0 ec3e
00000350: 4c57 9a3e 0066 b4bc 20e2 623e d805 0cbe
00000360: 0600 e2be 8c78 5f3e 1cc0 48be 4e49 8a3e
00000370: 98ec 64be 9077 fcbe 7c24 953e a0ec 13bd
00000380: 3c1d 18be 7666 d73e 20f9 2c3d 6e30 ddbe
00000390: f019 263d d62e e4be bc0c e83e ec8a 7f3e
000003a0: 3812 263e c685 e33e 965a d8be c4e3 afbe
000003b0: f03a 663e 8803 f9be 920c c5be 40c3 643d
000003c0: 1c00 10be 58cc f2be d4af 24be a0c2 c3be
000003d0: 56b8 bd3e 10d6 62be 7c7e 0c3e bc65 b73e
000003e0: b0b4 08be 666c 9c3e 28e4 7dbe 189a 90be
000003f0: fc42 25be 4480 c1be 30e2 b2be 80b9 ad3c

conv1.lin_r.bias f4 [64]
-0.08643985 0.32834202 0.4390484 -0.29249322 -0.11077827 -0.17723846 0.39657593 -0.48397964
0.28056818 -0.14382505 -0.44491965 -0.36382967 0.14799666 -0.13582754 0.16944522 -0.15474808
0.45551443 0.33243775 0.4429232 0.35650545 -0.16507846 -0.23716599 -0.12814575 -0.39775229
-0.36996937 0.40662557 0.13953888 -0.0867098 -0.48952687 0.15768182 0.32490027 0.2958241
0.0746932 -0.2700023 -0.22667158 0.19085187 0.44927502 -0.082702756 -0.39596683 0.35325754
0.21363807 0.44722062 0.11266726 0.11240709 -0.448291 0.20236981 -0.28264713 0.3552121
-0.36318725 -0.47506255 0.012103856 -0.3425491 0.22512162 -0.24820924 0.23866391 0.21032834
-0.16182816 -0.38233078 0.49627542 0.15682912 0.42378944 0.32372135 -0.27591372 -0.15864503
00000000: 6007 b1bd 721c a83e f4ca e03e acc1 95be
00000010: b8df e2bd 007e 35be 000c cb3e 2ecc f7be
00000020: a2a6 8f3e e046 13be 82cc e3be e247 babe
00000030: 708c 173e 6016 0bbe 0c83 2d3e 4876 1ebe
00000040: 3039 e93e 4835 aa3e d4c6 e23e e287 b63e
00000050: 540a 29be a4db 72be a438 03be 30a6 cbbe
00000060: a06c bdbe 3a31 d03e 48e3 0e3e e894 b1bd
00000070: 44a3 fabe 5877 213e 5459 a63e 4276 973e
00000080: c0f8 983d be3d 8abe 981c 68be ac6e 433e
00000090: 6007 e63e 1060 a9bd 2abc cabe 2cde b43e
000000a0: f0c3 5a3e 1afa e43e 18be e63d b035 e63d
000000b0: 6686 e5be 083a 4f3e 20b7 90be 5cde b53e
000000c0: aef3 b9be 663b f3be 404f 463c 9862 afbe
000000d0: 4886 663e 902a 7ebe 5064 743e 5060 573e
000000e0: 48b6 25be dcc0 c3be d017 fe3e d097 203e
000000f0: eefa d83e cebe a53e 9044 8dbe d873 22be

conv1.lin_edge.weight f4 [64, 2]
-0.3179941 -0.51639235 0.5898047 -0.23955265 -0.40308756 -0.01993376 -0.11578995 -0.53413475
-0.52848554 -0.41425428 -0.38617453 -0.38738894 0.00023365021 0.23185366 -0.5161056 0.085342705
-0.5893101 -0.5497859 -0.5601553 -0.5424992 -0.39752856 0.27383935 0.646609 0.25819123
0.30332166 -0.5597993 -0.61756253 0.16705137 0.0014267564 -0.40747607 0.41568118 -0.0559057
0.70525366 -0.45886225 -0.2730191 -0.024070382 -0.5176579 0.3100453 0.03203869 0.046465993
-0.013423324 0.061706007 -0.5661877 0.23391306 -0.5673989 -0.28552628 0.6368436 0.45065135
0.18162018 -0.65054166 -0.23944306 0.27186877 0.350174 -0.07300305 -0.095810294 -0.3833743
0.09131783 -0.5251545 -0.55615056 0.261396 0.6457688 0.06806439 -0.6706478 -0.59336805
-0.19445479 -0.4190613 0.22043318 0.49439925 -0.12952983 0.07529473 -0.6780241 0.4004497
-0.49341846 0.43337065 -0.61029595 -0.5284178 -0.52734363 0.041060984 0.015601158 0.47635764
-0.42794198 0.66396564 0.39400083 -0.5979915 -0.5897456 0.12856764 -0.59564865 -0.5658386
-0.603175 -0.50267255 -0.22821093 0.3076281 -0.3638169 0.18310058 0.55236286 0.39084297
-0.24149173 0.17575651 -0.107801914 0.13513905 -0.6322366 0.52732223 -0.01915127 -0.03202766
0.005923927 -0.65834993 0.6603765 0.30532807 -0.012633681 0.17705536 0.36099774 -0.42941618
0.16969317 0.23596096 -0.23088801 -0.58769727 0.67982227 0.44996387 0.5802044 0.05515039
0.5297248 0.4499387 0.46054858 -0.6165319 -0.11978191 -0.30680957 0.064739585 -0.58792746
00000000: 1fd0 a2be 4a32 04bf 71fd 163f 4a4d 75be
00000010: 7e61 cebe 204c a3bc 4823 edbd 0ebd 08bf
00000020: d44a 07bf 2319 d4be abb8 c5be d857 c6be
00000030: 0000 7539 0c6b 6d3e 7f1f 04bf 28c8 ae3d
00000040: 07dd 16bf c5be 0cbf 5666 0fbf 3ae1 0abf
00000050: dd88 cbbe ac34 8c3e 2b88 253f a431 843e
00000060: fa4c 9b3e 024f 0fbf 9418 1ebf 840f 2b3e
00000070: 0002 bb3a b4a0 d0be 2ad4 d43e 60fd 64bd
00000080: 818b 343f feef eabe 29c9 8bbe 402f c5bc
00000090: 3a85 04bf 42be 9e3e 003b 033d 2053 3e3d
000000a0: 80ed 5bbc 70bf 7c3d adf1 10bf e886 6f3e
000000b0: 0e41 11bf 8030 92be 2f08 233f c6bb e63e
000000c0: a4fa 393e e689 26bf 9030 75be 6232 8b3e
000000d0: 024a b33e a082 95bd 3038 c4bd a349 c4be
000000e0: d804 bb3d 8670 06bf e25f 0ebf b2d5 853e
000000f0: 1b51 253f 5865 8b3d 93af 2bbf f8e6 17bf
00000100: 281f 47be 348f d6be 3cb9 613e e621 fd3e
00000110: 78a3 04be 2034 9a3d fd92 2dbf be07 cd3e
00000120: 58a1 fcbe c2e2 dd3e 5b3c 1cbf 6446 07bf
00000130: feff 06bf 902f 283d 009c 7f3c 26e5 f33e
00000140: 361b dbbe a7f9 293f 7aba c93e f915 19bf
00000150: 91f9 16bf 3ca7 033e 6e7c 18bf ccda 10bf
00000160: ad69 1abf 26af 00bf 20b0 69be 6e81 9d3e
00000170: 3546 babe b87e 3b3e a767 0d3f 921c c83e
00000180: 9c49 77be 84f9 333e 40c7 dcbd e461 0a3e
00000190: 42da 21bf 97fe 063f 20e3 9cbc 702f 03bd
000001a0: 801d c23b 9f89 28bf 6f0e 293f f653 9c3e
000001b0: 80fd 4ebc 004e 353e b2d4 b83e 70dc dbbe
000001c0: 0cc4 2d3e c09f 713e e86d 6cbe 5473 16bf
000001d0: d508 2e3f aa61 e63e 4788 143f 60e5 613d
000001e0: 0b9c 073f 5e5e e63e 06cd eb3e 09d5 1dbf
000001f0: 3850 f5bd 2516 9dbe 3096 843d 6a82 16bf

conv2.att f4 [1, 1, 64]
0.0141201615 0.23463291 -0.26424435 -0.24525943 -0.10841693 -0.11322579 -0.059101015 -0.057136893
-0.18510017 0.23322809 0.2925269 0.26509035 0.2803511 0.19323313 0.29947138 -0.23899336
-0.009048253 -0.21053568 0.27291214 0.024581134 -0.18401799 -0.2580734 0.14659876 -0.099127755
-0.2818571 -0.036571413 -0.29266092 -0.16407166 -0.08554065 0.11992529 -0.22542824 0.038401216
-0.12369186 0.16378826 0.038015693 -0.13241212 -0.22951299 -0.16637728 0.17542008 -0.19460115
-0.19421759 0.10965094 0.049714208 0.2606532 0.13917431 0.13080528 -0.12223548 -0.2850669
0.055476397 -0.18684831 -0.2705449 0.012517542 0.1766549 -0.17242195 -0.1712973 -0.017854244
0.025171876 -0.28565508 -0.07844959 -0.11086008 0.21171188 -0.045933574 0.22446644 0.102810025
00000000: 4058 673c 9c43 703e 094b 87be 4a25 7bbe
00000010: b209 debd ece2 e7bd e813 72bd 6008 6abd
00000020: e68a 3dbe 58d3 6e3e 16c6 953e ecb9 873e
00000030: 2e8a 8f3e e8de 453e 5054 993e adba 74be
00000040: 203f 14bc aa96 57be 24bb 8b3e 605e c93c
00000050: 366f 3cbe 3222 84be fc1d 163e 7e03 cbbd
00000060: 934f 90be e8cb 15bd a7d7 95be 6702 28be
00000070: f02f afbd 649b f53d a9d6 66be 984a 1d3d
00000080: 2852 fdbd 1cb8 273e 58b6 1b3d 0b97 07be
00000090: 7405 6bbe ce5e 2abe 52a1 333e 8645 47be
000000a0: fae0 46be ac90 e03d 20a1 4b3d 5674 853e
000000b0: b683 0e3e d2f1 053e 9856 fabd 4af4 91be
000000c0: 383b 633d 2a55 3fbe dc84 8abe 6016 4d3c
000000d0: 06e5 343e 618f 30be 8f68 2fbe 1043 92bc
000000e0: 4035 ce3c 6241 92be 2eaa a0bd 9c0a e3bd
000000f0: 00cb 583e d824 3cbd 88da 653e 108e d23d

conv2.bias f4 [64]
0.024069622 0.020406002 0.0031878685 0.029314568 0.015805565 -0.023987962 0.00130528 -0.029270073
-0.008507524 0.009540404 -0.014181974 0.00023212153 -0.02758998 0.023589225 0.016578633 -0.02554379
-0.0027620592 0.0013562922 -0.0053937533 0.01745688 0.009245339 -0.0034128348 0.014304934 0.022384197
0.022797972 -0.016552493 0.020842005 0.022637282 -0.0053549944 0.028134165 0.0150077585 -0.0177449
0.035907716 0.0002233149 0.039338317 0.012145615 -0.026040055 -0.023710765 -0.011613686 -0.022063833
0.011421794 0.0015289191 0.00028886 -0.0020266129 -0.013364668 -0.008959009 -0.011228138 0.027965449
0.0118066855 -0.023576725 -0.009584567 -0.014751284 0.00966886 0.010433093 -0.0120615065 -0.034044567
-0.016909285 -0.0106213875 0.024047669 -0.0089419065 -0.04132698 0.014611754 -0.011266955 0.00018143046
00000000: a82d c53c 7d2a a73c 8feb 503b 1b25 f03c
00000010: ac7a 813c 6782 c4bc ee15 ab3a cbc7 efbc
00000020: 2463 0bbc 5b4f 1c3c 835b 68bc a665 7339
00000030: 6204 e2bc 313e c13c eacf 873c 3641 d1bc
00000040: aa03 35bb 9dc5 b13a 15be b0bb bb01 8f3c
00000050: c379 173c dea9 5fbb 3e5f 6a3c 105f b73c
00000060: d0c2 ba3c 1899 87bc dabc aa3c d271 b93c
00000070: f378 afbb 9f79 e63c 1ae3 753c c15d 91bc
00000080: f813 133d a329 6a39 3721 213d 67fe 463c
00000090: f451 d5bc 143d c2bc 5447 3ebc 36bf b4bc
000000a0: 7a22 3b3c 0366 c83a 2272 9739 ecd0 04bb
000000b0: 7bf7 5abc cfc8 12bc 39f6 37bc cc17 e53c
000000c0: d470 413c fa23 c1bc 9608 1dbc 5faf 71bc
000000d0: 236a 1e3c 90ef 2a3c a09d 45bc 5172 0bbd
000000e0: 5785 8abc 5405 2ebc 9eff c43c 1381 12bc
000000f0: 7b46 29bd 2366 6f3c 0999 38bc 5e3e 3e39

conv2.lin_l.weight f4 [64, 64]
0.012951791 -0.12456372 -0.008865795 0.02185889 0.052466102 -0.07408611 -0.023671195 -0.09061298
-0.069349736 0.09391098 -0.090113744 -0.107783884 0.086229116 -0.035781424 0.047293957 0.051233146
-0.067171134 -0.08594411 -0.06174654 -0.06071749 -0.12402505 0.057197873 0.10739873 -0.042535987
-0.028358191 -0.06727433 0.0161721 0.08924477 -0.07564162 -0.051083304 -0.05475178 -0.02587472
0.11266674 0.13089202 0.09847601 0.017185729 0.011893778 0.025241304 -0.0071177734 -0.014632389
-0.017785106 0.08387352 -0.038200054 0.024245227 -0.05264341 -0.12095101 -0.0048882067 0.11903596
0.0851271 0.092412055 -0.03277122 0.1138647 0.027335562 -0.040843517 -0.043032903 -0.11269884
0.0030094325 0.09392807 -0.030427424 -0.0077731884 -0.082233235 0.048384674 0.06425511 -0.0060755056
-0.047550336 -0.03367646 -0.008178389 0.028613912 0.13770366 -0.06156944 -0.03508313 -0.017371342
-0.09331094 0.04167992 -0.019779382 0.08259006 -0.046836775 -0.12541778 -0.04617137 0.12623042
-0.044703208 -0.05368191 -0.060190745 -0.034036614 -0.06830098 -0.069721185 -0.07339164 0.05595485
0.105930746 -0.14438197 0.08526819 -0.101478696 0.11713154 0.064235404 -0.07130234 -0.02852376
-0.018691616 0.15075137 -0.05334674 -0.075021565 0.049236163 -0.029054357 -0.04895746 -0.12382403
0.060914397 0.10989137 0.07680708 0.067099646 0.04697312 0.035778124 -0.12488396 -0.08446424
0.001964317 0.043506637 -0.15938497 0.121579744 0.024417235 -0.022764608 0.06432702 0.10300319
-0.05967078 0.089998595 -0.056283988 0.08027462 0.053214937 -0.0191784 -0.093209445 0.12856755
0.099867985 0.06082555 -0.03497514 0.0124108875 0.09308253 -0.024446374 0.012676343 0.10137666
0.06851585 -0.10743534 0.020405166 -0.042484388 0.07540065 -0.076917134 -0.2361329 -0.0019128288
-0.09117005 0.11308583 -0.099764675 -0.09390008 -0.065740764 0.038111474 -0.0688641 0.12078322
-0.08945642 -0.08365188 -0.053225804 0.07174277 -0.06715221 -0.05188228 -0.0030126835 -0.08137426
0.11210346 -0.05663943 -0.12079069 -0.059820298 0.12032231 -0.021792965 0.1084926 0.06437731
-0.09373519 -0.044465765 0.07143392 -0.039610736 -0.003453283 -0.037340786 0.033183582 -0.09044887
0.117741086 -0.030681401 -0.23473297 0.006749055 0.103833005 0.025063097 0.06727987 -0.119792044
0.07920904 0.053314 -0.08660585 -0.05101481 -0.0728493 -0.04736977 -0.22486423 0.041994575
0.07467426 0.09667195 0.039707277 0.12894517 -0.02004523 -0.04602552 -0.07987158 -0.07312403
0.11033182 -0.10062731 -0.036077805 -0.0002488941 0.12123456 0.15241583 0.13653123 0.10282746
-0.022506308 -0.03167709 -0.073243074 0.13378698 0.018622518 -0.010091303 -0.042562976 0.117586546
-0.0622533 0.14874521 -0.025962027 0.0036439972 0.07325859 0.07150115 -0.011158175 -0.029651122
-0.032696813 0.01045583 0.050848678 0.019689286 -0.05328791 -0.03911486 -0.064198375 -0.04233694
-0.07646884 -0.114496194 0.021745037 0.010248575 -0.08968646 -0.063044585 0.1425691 -0.001830548
0.10566766 0.09179956 0.17190325 0.01259296 0.0995508 -0.050955802 0.07839449 0.07609907
0.023188837 0.026354814 0.07464393 0.010211884 0.06553541 -0.063783385 0.2584109 0.1454059
00000000: c033 543c 431b ffbd d741 11bc 6a11 b33c
00000010: b2e6 563d 75ba 97bd 18ea c1bc 4c93 b9bd
00000020: 3c07 8ebd 6654 c03d 8e8d b8bd ccbd dcbd
00000030: e498 b03d 8b8f 12bd 4fb7 413d d9d9 513d
00000040: 0591 89bd 7703 b0bd f1e9 7cbd e7b2 78bd
00000050: d800 febd 5148 6a3d def3 db3d 373a 2ebd
00000060: 704f e8bc 20c7 89bd 5a7b 843c f6c5 b63d
00000070: fee9 9abd ba3c 51bd 6743 60bd 39f7 d3bc
00000080: d2bd e63d 8f08 063e caad c93d 16c9 8c3c
00000090: 1fde 423c dac6 ce3c 363c e9bb b0bc 6fbc
000000a0: 12b2 91bc e1c5 ab3d a977 1cbd ed9d c63c
000000b0: 9ea0 57bd 2ab5 f7bd 402d a0bb 20c9 f33d
000000c0: 1e57 ae3d 8842 bd3d 1d3b 06bd e531 e93d
000000d0: d4ee df3c 884b 27bd 4543 30bd a6ce e6bd
000000e0: e639 453b 5c5d c03d ef42 f9bc 3bb6 febb
000000f0: e669 a8bd 022f 463d 2f98 833d 0915 c7bb
00000100: 24c4 42bd 54f0 09bd a6fe 05bc b967 ea3c
00000110: 3002 0d3e 3d30 7cbd 54b3 0fbd 584e 8ebc
00000120: ce19 bfbd 90b8 2a3d 5f08 a2bc fa24 a93d
00000130: ebd7 3fbd 856d 00be 311e 3dbd 8c42 013e
00000140: b61a 37bd 90e1 5bbd 928a 76bd fa69 0bbd
00000150: 62e1 8bbd fbc9 8ebd 5b4e 96bd ea30 653d
00000160: 38f2 d83d ded8 13be 17a1 ae3d 10d4 cfbd
00000170: a9e2 ef3d da8d 833d f606 92bd a9aa e9bc
00000180: 291f 99bc 915e 1a3e 1c82 5abd e8a4 99bd
00000190: dcab 493d 6703 eebc 9e87 48bd 7497 fdbd
000001a0: 6081 793d ba0e e13d 084d 9d3d 8a6b 893d
000001b0: e366 403d 158c 123d 29c3 ffbd 96fb acbd
000001c0: c5bb 003b 0434 323d d035 23be cdfe f83d
000001d0: a706 c83c d87c babc e2bd 833d 56f3 d23d
000001e0: 5969 74bd 2f51 b83d 0a8a 66bd 0567 a43d
000001f0: e8f7 593d 051c 9dbc 98e4 bebd 36a7 033e
00000200: 9687 cc3d 3624 793d 1842 0fbd 0957 4b3c
00000210: 0ea2 be3d c343 c8bc 70b0 4f3c 919e cf3d
00000220: 0a52 8c3d 0f07 dcbd bc28 a73c 1c04 2ebd
00000230: a86b 9a3d bb86 9dbd d3cc 71be e2b7 faba
00000240: 5db7 babd 8b99 e73d 6c51 ccbd af4e c0bd
00000250: 18a3 86bd c71a 1c3d 9f08 8dbd 315d f73d
00000260: ed34 b7bd ad51 abbd 4d03 5abd e0ed 923d
00000270: 1987 89bd 8382 54bd 7170 45bb 8ca7 a6bd
00000280: 8096 e53d bffe 67bd 1c61 f7bd 2106 75bd
00000290: 8b6b f63d 2987 b2bc 5e31 de3d 40d8 833d
000002a0: 3cf8 bfbd bc21 36bd f24b 923d de3e 22bd
000002b0: 7a50 62bb a7f2 18bd 82eb 073d 423d b9bd
000002c0: 3d22 f13d 9057 fbbc d75d 70be 2d27 dd3b
000002d0: 66a6 d43d 2051 cd3c 07ca 893d 8855 f5bd
000002e0: 5938 a23d c85f 5a3d 685e b1bd e8f4 50bd
000002f0: 0432 95bd ce06 42bd cf42 66be 8102 2c3d
00000300: d2ee 983d f1fb c53d 19a4 223d 340a 043e
00000310: e535 a4bc 4185 3cbd b693 a3bd 0dc2 95bd
00000320: a6f5 e13d b115 cebd 52c6 13bd 007e 82b9
00000330: d349 f83d e512 1c3e d8ce 0b3e 3497 d23d
00000340: 265f b8bc d6bf 01bd 7700 96bd 74ff 083e
00000350: 408e 983c fe55 25bc 8456 2ebd 37d1 f03d
00000360: 51fd 7ebd aa50 183e 51ae d4bc 21d0 6e3b
00000370: 9a08 963d 326f 923d c7d0 36bc e9e6 f2bc
00000380: 18ed 05bd ee4e 2b3c b446 503d 6d4b a13c
00000390: 6c44 5abd e736 20bd 707a 83bd 8069 2dbd
000003a0: b29b 9cbd fb7c eabd a622 b23c a4e9 273c
000003b0: 89ad b7bd 851d 81bd a2fd 113e 00ef efba
000003c0: 4968 d83d 6801 bc3d 6807 303e b452 4e3c
000003d0: 4ae1 cb3d 08b7 50bd 4a8d a03d d4d9 9b3d
000003e0: 84f6 bd3c 0de6 d73c ebde 983d bf4f 273c
000003f0: 6e37 863d dda0 82bd 6f4e 843e 49e5 143e

conv2.lin_l.bias f4 [64]
-0.012828489 0.12439915 0.10721459 0.011417924 -0.028765047 -0.07427304 -0.08658321 -0.06407808
0.032110643 0.07658299 -0.05568648 0.083681755 -0.0051970654 -0.0026382792 -0.09651118 0.041680854
0.06782073 -0.085477255 -0.037849326 0.12497355 -0.063027576 -0.008579228 -0.0024366197 -0.043475714
0.09469441 -0.076149076 0.07784222 0.060476046 0.02784145 -0.0044220546 -0.10662018 -0.13340941
-0.0013927314 -0.056352396 -0.03421778 0.11653806 -0.08025525 -0.1419368 -0.11789933 -0.12386178
-0.008554441 -0.094634466 0.022943113 -0.11616166 -0.09474342 -0.042069606 -0.08835827 0.06921414
0.13467354 -0.07927789 0.042939015 -0.06828419 0.027669534 -0.110743076 0.07307146 -0.13656364
-0.023642682 -0.112752505 0.10110522 -0.061698005 0.051006105 -0.034841444 0.10992165 -0.08169575
00000000: 952e 52bc fbc4 fe3d 5393 db3d 3f12 3b3c
00000010: ada4 ebbc 771c 98bd 8a52 b1bd 5e3b 83bd
00000020: 7386 033d 8bd7 9c3d 8217 64bd 5761 ab3d
00000030: 254c aabb fbe6 2cbb a7a7 c5bd 8bb9 2a3d
00000040: 98e5 8a3d b30e afbd e507 1bbd 22f2 ff3d
00000050: 9a14 81bd e48f 0cbc b2af 1fbb 9713 32bd
00000060: 25ef c13d 0cf4 9bbd be6b 9f3d bbb5 773d
00000070: c113 e43c e2e6 90bb ae5b dabd 7a9c 08be
00000080: 508c b6ba c5d1 66bd f127 0cbd 82ab ee3d
00000090: dd5c a4bd e157 11be 3475 f1bd 3fab fdbd
000000a0: ed27 0cbc b7cf c1bd 32f3 bb3c 2ae6 edbd
000000b0: d708 c2bd 2e51 2cbd 2ef5 b4bd 25c0 8d3d
000000c0: dce7 093e 725c a2bd d2e0 2f3d 95d8 8bbd
000000d0: 38ab e23c 44cd e2bd 7da6 953d 57d7 0bbe
000000e0: 4cae c1bc c9ea e6bd 4110 cf3d 0cb7 7cbd
000000f0: c7eb 503d e7b5 0ebd 9a1e e13d 1a50 a7bd

conv2.lin_r.weight f4 [64, 64]
0.0682673 0.0057924837 -0.051169217 -0.09726477 0.043080762 -0.07836053 0.020490497 0.049219355
0.1188138 -0.008634359 0.124699846 0.04358013 -0.04312399 -0.08692689 -0.02041921 -0.11366776
-0.09746526 0.06356718 -0.005411163 -0.12266651 -0.05517201 0.039606154 -0.08521013 -0.05449663
-0.07435262 -0.11351459 -0.10713595 -0.012006462 0.031525552 0.070015475 -0.033038363 -0.07914381
-0.0028856695 -0.047479868 -0.06969054 0.025516644 0.037862346 -0.09572488 0.0022825003 0.0034249574
0.10339601 0.078141525 0.09547043 0.024413288 -0.08814883 -0.011475906 -0.08825785 -0.11210778
-0.032988146 0.008016437 -0.049986348 0.09815681 0.0033073425 0.010968089 -0.064353615 -0.0220135
0.0063481927 0.11258328 0.03608221 -0.056891352 0.015996799 0.074086055 0.118837684 0.017291963
0.058542907 -0.034665897 -0.08211537 -0.076958716 0.087208435 -0.102807954 0.08162795 0.09798585
0.062242866 0.12259725 0.090411484 -0.120226964 -0.061466888 -0.075313345 -0.10794179 -0.08263172
-0.024302855 0.114098 -0.04449916 0.020873815 0.08195788 -0.001196593 -0.015307158 0.06764737
0.12022503 -0.05146961 -0.03522867 -0.10029544 0.06575024 0.09011671 0.020767093 0.09792437
-0.029633015 -0.11388259 0.08076583 0.035313755 0.112274796 0.07113525 -0.10665649 -0.06789982
-0.046945423 -0.11732884 -0.06652942 -0.09858614 -0.061840847 0.088138685 0.035495937 -0.009287953
-0.015696138 0.048961803 -0.066123575 0.053793535 0.050013915 -0.110684216 0.03578691 -0.091069356
0.06362286 -0.12012923 -0.06588833 -0.029301122 -0.07933675 -0.026179686 0.024807155 -0.008307815
0.06455062 0.02847685 0.08547017 -0.08455439 0.101357654 0.07035655 -0.10250983 0.067083344
0.008530706 0.03613411 0.023801282 -0.0067258924 0.09145716 0.041625172 0.08184934 0.12201469
0.070344165 -0.092911944 0.039733008 0.010205075 -0.057364106 0.10366389 -0.0831344 0.07571088
-0.111799195 -0.010788858 0.044931084 -0.0949066 0.03234297 0.097362936 -0.09402068 -0.02934125
0.09997612 0.048101023 -0.064051494 -0.106182784 0.034116015 0.11140224 -0.022184953 0.013847098
-0.047789395 0.108364284 0.120827645 0.09957914 0.104885295 -0.11866294 -0.02320221 0.05610484
-0.07189655 0.09052609 -0.090004295 0.06038411 -0.017683432 -0.0915149 -0.06089604 -0.12123893
-0.02043742 0.06513138 -0.117367625 0.025219738 0.11677571 -0.110627994 0.11911248 0.029255748
-0.117266566 0.051517963 0.06671068 -0.05772464 -0.09369661 0.124373764 0.053215787 -0.033914328
-0.054721847 -0.0012555718 0.087966844 0.08545381 0.013610899 0.056862384 0.011604607 0.091331616
-0.0684855 -0.11759637 -0.055643484 -0.09036246 -0.087221935 -0.07588145 0.04275766 0.015341982
0.021985412 0.09054746 0.04794304 0.0066763163 0.0027352571 0.12429017 -0.074031055 -0.11134595
0.07143569 0.0244198 -0.07975125 -0.08499724 0.109830156 -0.09821488 -0.07476139 -0.079948306
0.0717482 0.0049799234 -0.112283334 -0.0048345774 -0.019857332 0.020648688 0.054130346 0.1245686
0.105563164 0.097760305 0.10800801 0.010718256 -0.06206584 -0.019374311 -0.027065083 0.08488792
-0.054680765 0.09903516 0.026640624 -0.001972109 0.03312671 -0.055692613 -0.08656344 -0.077004775
00000000: bacf 8b3d e0ce bd3b d096 51bd c032 c7bd
00000010: 7475 303d 7c7b a0bd b0db a73c 3c9a 493d
00000020: a654 f33d 2077 0dbc a262 ff3d 1481 323d
00000030: c8a2 30bd ba06 b2bd 3046 a7bc a4ca e8bd
00000040: de9b c7bd 822f 823d 2050 b1bb 9438 fbbd
00000050: 0cfc 61bd 103a 223d a682 aebd dc37 5fbd
00000060: 3046 98bd 567a e8bd 186a dbbd c0b6 44bc
00000070: f020 013d 4664 8f3d 3c53 07bd 2616 a2bd
00000080: 801d 3dbb 407a 42bd eab9 8ebd 4808 d13c
00000090: 8c15 1b3d 680b c4bd 0096 153b 4075 603b
000000a0: 4ac1 d33d aa08 a03d 0086 c33d 60fe c73c
000000b0: 6087 b4bd 7005 3cbc 88c0 b4bd c498 e5bd
000000c0: 941e 07bd 6057 033c 7cbe 4cbd 7006 c93d
000000d0: 00c0 583b 80b3 333c d4cb 83bd a855 b4bc
000000e0: 8004 d03b 1092 e63d f0ca 133d e806 69bd
000000f0: b80b 833c 6eba 973d 2c61 f33d e0a7 8d3c
00000100: b0ca 6f3d d4fd 0dbd 1a2c a8bd 889c 9dbd
00000110: 569a b23d fa8c d2bd 8e2c a73d ceac c83d
00000120: 60f2 7e3d 4414 fb3d a829 b93d 8e39 f6bd
00000130: b4c4 7bbd e23d 9abd 9610 ddbd d23a a9bd
00000140: c816 c7bc 36ac e93d c044 36bd 90ff aa3c
00000150: 88d9 a73d 00d7 9cba e0ca 7abc b48a 8a3d
00000160: 8a38 f63d ccd1 52bd f04b 10bd b267 cdbd
00000170: 10a8 863d 1c8f b83d c01f aa3c 928c c83d
00000180: f0c0 f2bc 463b e9bd 8e68 a53d 28a5 103d
00000190: 54f0 e53d 5caf 913d b86e dabd 100f 8bbd
000001a0: d849 40bd 1a4a f0bd 9440 88bd 88e7 c9bd
000001b0: d44c 7dbd 0e82 b43d 3064 113d 802c 18bc
000001c0: 3095 80bc 2c8c 483d cc6b 87bd 9c56 5c3d
000001d0: 64db 4c3d 68ae e2bd 4c95 123d 9282 babd
000001e0: b44c 823d 5006 f6bd 76f0 86bd e808 f0bc
000001f0: 4e7b a2bd c876 d6bc 6038 cb3c 801d 08bc
00000200: 1e33 843d 4848 e93c fc0a af3d da2a adbd
00000210: 9a94 cf3d 1817 903d acf0 d1bd fe62 893d
00000220: 60c4 0b3c 5c01 143d e8fa c23c e064 dcbb
00000230: e44d bb3d 287f 2a3d a0a0 a73d d6e2 f93d
00000240: 9a10 903d 9e48 bebd 14bf 223d 3033 273c
00000250: a0f6 6abd bc4d d43d 5e42 aabd 4e0e 9b3d
00000260: faf6 e4bd c0c3 30bc a809 383d 645e c2bd
00000270: 107a 043d 3866 c73d ea8d c0bd 105d f0bc
00000280: 48c0 cc3d 9405 453d 6e2d 83bd 5c76 d9bd
00000290: 3cbd 0b3d dc26 e43d 38bd b5bc f0de 623c
000002a0: d0be 43bd 18ee dd3d 7c74 f73d 26f0 cb3d
000002b0: 1ace d63d 8e05 f3bd 9012 bebc 30ce 653d
000002c0: 803e 93bd be65 b93d 2c54 b8bd 5455 773d
000002d0: d8dc 90bc 2a6c bbbd 206e 79bd 1e4c f8bd
000002e0: 606c a7bc 9a63 853d 705e f0bd a099 ce3c
000002f0: 1a28 ef3d ee90 e2bd 3ef1 f33d c0a9 ef3c
00000300: 7429 f0bd 8004 533d 9c9f 883d ac70 6cbd
00000310: 02e4 bfbd acb7 fe3d ccf8 593d c0e9 0abd
00000320: 0424 60bd 0092 a4ba f627 b43d 6802 af3d
00000330: 4000 5f3c 88e8 683d 4021 3e3c 120c bb3d
00000340: 2042 8cbd 5ed6 f0bd 6cea 63bd f40f b9bd
00000350: 6aa1 b2bd bc67 9bbd a822 2f3d f05c 7b3c
00000360: c01a b43c f270 b93d ec5f 443d 00c5 da3b
00000370: 0042 333b d88b fe3d 989d 97bd 5809 e4bd
00000380: e04c 923d 080c c83c a054 a3bd 0813 aebd
00000390: a2ee e03d e224 c9bd 801c 99bd f0bb a3bd
000003a0: b8f0 923d a02e a33b cef4 e5bd 606b 9ebb
000003b0: d8ab a2bc 7027 a93c c8b7 5d3d d21d ff3d
000003c0: 8031 d83d 8e36 c83d 4e33 dd3d a09b 2f3c
000003d0: c038 7ebd e0b6 9ebc 98b7 ddbc b8d9 ad3d
000003e0: f0f8 5fbd f2d2 ca3d 703d da3c 803e 01bb
000003f0: e0af 073d f01d 64bd 2c48 b1bd aeb4 9dbd

conv2.lin_r.bias f4 [64]
0.01325801 0.0737647 0.08916855 -0.1000876 0.07665774 -0.07900354 0.026842877 0.00487341
0.008480132 0.10475001 0.01958485 -0.069241896 -0.11618061 -0.030924067 -0.10812494 -0.052026927
0.039478853 -0.008079678 -0.056382567 0.0028750598 0.007265091 -0.10862678 -0.07297106 -0.07552199
-0.001033023 -0.029055819 0.076390326 -0.0017737299 0.050523877 -0.025709778 0.025117949 0.10407534
-0.03503649 0.05757357 -0.078958124 0.10605815 -0.018367454 0.11649229 0.08423899 0.033516973
-0.07777704 -0.073316574 0.08464737 0.06788978 -0.059838116 -0.09196176 -0.049833998 -0.11077933
0.047610253 0.10098654 -0.08754295 0.00934726 0.030113965 0.100516096 -0.07293554 0.00704737
0.05288741 0.050266042 -0.0574753 0.09485982 0.12146345 -0.0029934645 -0.09038368 -0.106421754
00000000: 2038 593c f211 973d 009e b63d bafa ccbd
00000010: bcfe 9c3d 9ccc a1bd 98e5 db3c 20b1 9f3b
00000020: 40f0 0a3c 2c87 d63d 6870 a03c b2ce 8dbd
00000030: 1af0 edbd 7854 fdbc 9c70 ddbd 301a 55bd
00000040: 94b4 213d a060 04bc 68f1 66bd 806b 3c3b
00000050: 0010 ee3b b877 debd da71 95bd 46ab 9abd
00000060: 8066 87ba 7806 eebc 8872 9c3d 807c e8ba
00000070: 20f2 4e3d 509d d2bc 28c4 cd3c 7425 d53d
00000080: 6c82 0fbd 44d2 6b3d ccb4 a1bd 0435 d93d
00000090: 5877 96bc 8293 ee3d 7e85 ac3d 1849 093d
000000a0: 9249 9fbd 0027 96bd 9a5b ad3d cc09 8b3d
000000b0: d018 75bd 7256 bcbd bc1e 4cbd 46e0 e2bd
000000c0: f802 433d 08d2 ce3d b849 b3bd 4025 193c
000000d0: 90b1 f63c 62db cd3d 3a5f 95bd a0ed e63b
000000e0: 78a0 583d c4e3 4d3d 386b 6bbd de45 c23d
000000f0: d4c1 f83d 002e 44bb 141b b9bd a6f3 d9bd

conv2.lin_edge.weight f4 [64, 2]
-0.23195502 -0.021942317 -0.17672461 0.18158937 0.6955641 0.098832905 0.14703941 -0.28544888
0.25416076 0.3498891 0.52140933 0.6675758 -0.318762 -0.37251937 0.19649231 -0.14812183
0.23205364 -0.7068974 0.12093973 -0.24050963 -0.7065937 0.39207238 0.3239768 -0.086141765
0.5185209 0.1292749 -0.39968067 -0.5135221 0.4051146 0.031455874 0.28070307 0.374111
0.07084912 -0.61178684 -0.5274596 0.06692588 0.14712209 -0.31977513 0.22667462 0.34434098
-0.4608897 0.11833453 -0.47395486 -0.0046162605 -0.45906246 0.27190173 -0.45963252 0.5887857
0.22775602 -0.4104512 -0.1254105 0.6146185 -0.459666 0.15031302 -0.22914678 -0.28545672
0.118536174 -0.12910861 0.592491 -0.5802783 0.29763216 -0.27602392 -0.46807885 0.3987792
0.5774905 -0.3829309 -0.26813287 0.21297681 0.6562745 -0.48677713 -0.2033087 -0.62357306
0.14127731 0.19133735 0.44166082 0.031606853 -0.03578663 0.01650244 0.32502788 -0.5384102
0.051357508 0.13650489 -0.59796685 0.3531205 0.34956545 -0.4637835 -0.58608085 0.6151636
0.543593 0.13967156 -0.19552135 0.103705764 0.30725116 0.23139161 0.6255949 0.4403612
0.37420303 0.5894405 -0.23117968 -0.45268866 -0.38983575 0.32391864 0.023570478 -0.39285398
-0.13081175 0.07306087 0.46197432 -0.37208486 0.35119337 0.06568289 -0.045722485 -0.19131494
0.32029325 -0.42053306 -0.17969686 0.56559926 -0.40008864 -0.47252542 -0.58859575 -0.58513474
0.2875145 -0.14452702 -0.169671 -0.09883851 0.51747566 0.15053445 -0.065053165 0.06710225
00000000: 9e85 6dbe 60c0 b3bc 4cf7 34be 90f2 393e
00000010: 7d10 323f e868 ca3d 8091 163e 5b26 92be
00000020: 5c21 823e aa24 b33e 157b 053f 3fe6 2a3f
00000030: c634 a3be dcba bebe 4835 493e 40ad 17be
00000040: 789f 6d3e 3af7 34bf 40af f73d 2848 76be
00000050: 53e3 34bf b6bd c83e 4ae0 a53e 186b b0bd
00000060: c9bd 043f a460 043e f2a2 ccbe 2f76 03bf
00000070: 2e6b cf3e e0d7 003d 50b8 8f3e 7a8b bf3e
00000080: 5819 913d 109e 1cbf 9807 07bf 7010 893d
00000090: 2ca7 163e 91b9 a3be 641d 683e 764d b03e
000000a0: bcf9 ebbe 6059 f23d 36aa f2be 0044 97bb
000000b0: 3c0a ebbe b436 8b3e f454 ebbe a9ba 163f
000000c0: e038 693e a926 d2be 9c6b 00be a357 1d3f
000000d0: 5859 ebbe a8eb 193e 74a5 6abe 6227 92be
000000e0: 18c3 f23d 0c35 04be 7dad 173f 1e8d 14bf
000000f0: 3e63 983e 0253 8dbe 08a8 efbe ca2c cc3e
00000100: 6bd6 133f 850f c4be b648 89be 9816 5a3e
00000110: 9b01 283f da3a f9be 2830 50be 7ca2 1fbf
00000120: 00ab 103e f0ed 433e 5e21 e23e 3076 013d
00000130: 0095 12bd 2030 873c 0e6a a63e 40d5 09bf
00000140: 405c 523d f0c7 0b3e 5b14 19bf 36cc b43e
00000150: 3efa b23e 0875 edbe 6509 16bf 5d7b 1d3f
00000160: e928 0b3f 1006 0f3e c036 48be b063 d43d
00000170: 0650 9d3e ecf1 6c3e fd26 203f 0677 e13e
00000180: 8a97 bf3e 93e5 163f 5eba 6cbe cfc6 e7be
00000190: 8d98 c7be aad8 a53e e016 c13c 2824 c9be
000001a0: 84f3 05be f0a0 953d e687 ec3e e881 bebe
000001b0: 9ecf b33e c084 863d 8047 3bbd 10e8 43be
000001c0: 7afd a33e 1c50 d7be 7402 38be 1dcb 103f
000001d0: 6bd8 ccbe daee f1be 36ae 16bf 64cb 15bf
000001e0: 1a35 933e e4fe 13be 3cbe 2dbe d86b cabd
000001f0: 4979 043f b425 1a3e 983a 85bd e86c 893d

fc.weight f4 [2, 64]
-0.06662881 0.005774009 0.01914162 -0.041490715 0.0072379424 -0.031246651 -0.05011856 0.076852635
0.061034482 -0.032580905 -0.0017877888 0.062936686 -0.043144252 0.05091493 -0.014804005 -0.002719637
-0.020833008 -0.05820339 0.02812694 -0.011900614 -0.024291402 -0.034733765 0.08086186 -0.092784904
-0.11256559 0.018693367 0.10794413 -0.042591974 -0.048039038 -0.05235115 0.037144396 -0.006552391
0.014472753 0.069451034 0.04784088 -0.0767013 0.009247103 0.00248602 0.032868534 -0.030313535
0.008840893 -0.027435506 -0.011001312 0.038732436 0.07333131 0.0049197874 0.047644787 -0.03195943
-0.016833974 -0.09929409 0.07268169 0.01837629 -0.05010786 0.03735792 0.07195533 -0.011354041
0.0019065856 0.016013665 -0.029128183 -0.10684495 -0.037740685 -0.091115564 0.091818444 -0.0070924344
-0.0654854 0.0041411715 -0.002066343 -0.043660976 0.007282627 -0.03129661 -0.04952842 0.076696
0.060708374 -0.062417366 -0.0017171783 0.06366008 -0.040968236 0.0492918 -0.017281022 -0.009811382
-0.020939251 0.04141129 0.032122415 -0.010945631 -0.024206994 -0.0349048 0.081095956 -0.09213778
-0.11202958 0.02051899 0.111660644 0.036905512 -0.04816487 -0.008845217 0.037752226 -0.0067153224
0.015495368 0.071284406 0.06689029 -0.08348311 0.009304955 0.0027648106 0.030717373 -0.030794825
0.011086725 -0.026127854 -0.011873095 0.038727865 0.07323791 0.0002740757 0.047595344 -0.0077581652
-0.019338554 -0.09927509 0.07269176 0.01620805 -0.050106905 0.010889811 0.0725856 -0.011159453
0.0020324176 0.015778298 0.01977908 -0.107285075 -0.03720567 -0.088075265 0.09190476 -0.008850907
00000000: af74 88bd e633 bd3b e3ce 9c3c 2bf2 29bd
00000010: 432c ed3b faf8 ffbc 1f49 4dbd ea64 9d3d
00000020: 4bff 793d 8e73 05bd 3d54 eaba f3e4 803d
00000030: 07b8 30bd 2c8c 503d 7f8c 72bc f03b 32bb
00000040: fca9 aabc ae66 6ebd 786a e63c cbfa 42bc
00000050: c3fe c6bc fe44 0ebd e79a a53d 0306 bebd
00000060: ca88 e6bd d522 993c d011 dd3d ec74 2ebd
00000070: 95c4 44bd 296e 56bd b924 183d 71b5 d6bb
00000080: 201f 6d3c 583c 8e3d ccf4 433d 9215 9dbd
00000090: 2981 173c 7fec 223b 28a1 063d 1754 f8bc
000000a0: 65d9 103c 6dc0 e0bc d93e 34bc e7a5 1e3d
000000b0: ba2e 963d 2b36 a13b 2e27 433d e4e7 02bd
000000c0: 67e7 89bc b35a cbbd 23da 943d e089 963c
000000d0: e63d 4dbd 9e04 193d 515d 933d 4d06 3abc
000000e0: 66e6 f93a 172f 833c 3a9e eebc 86d1 dabd
000000f0: fa95 1abd cc9a babd 4f0b bc3d a767 e8bb
00000100: 361d 86bd aab2 873b 7c6b 07bb dad5 32bd
00000110: 1aa3 ee3b e030 00bd 50de 4abd cb12 9d3d
00000120: 58a9 783d 5aa9 7fbd f112 e1ba 3760 823d
00000130: 4fce 27bd 33e6 493d ee90 8dbc ebbf 20bc
00000140: cb88 abbc e39e 293d cb92 033d 4e55 33bc
00000150: bf4d c6bc 56f8 0ebd a315 a63d bbb2 bcbd
00000160: c46f e5bd 7117 a83c 56ae e43d 3c2a 173d
00000170: 8748 45bd 87eb 10bc 14a2 1a3d 350c dcbb
00000180: 49e0 7d3c 8ffd 913d c7fd 883d 31f9 aabd
00000190: cf73 183c d331 353b 00a3 fb3c 6e45 fcbc
000001a0: 18a5 353c 150a d6bc 5f87 42bc 1ca1 1e3d
000001b0: c2fd 953d d1b1 8f39 56f3 423d 3538 febb
000001c0: e36b 9ebc bd50 cbbd 6bdf 943d bfc6 843c
000001d0: e63c 4dbd 2e6b 323c c2a7 943d 23d6 36bc
000001e0: 4f32 053b 7d41 813c bd07 a23c 47b8 dbbd
000001f0: f964 18bd ce60 b4bd 9038 bc3d 6503 11bc

fc.bias f4 [2]
-0.027167602 0.008442894
00000000: 978e debc 1054 0a3c
