saved_models/gat10_slic.pt (torch, 25954 bytes, 14 tensors)

conv1.att_src f4 [1, 1, 64]
00000000: e191 b3bf ee75 8bbe 6c39 b03e 1591 3d3e
00000010: 947f 2cbd 185c 11bf 48c6 dfbe 84bc cf3e
00000020: 42e8 173f c2c3 afbf 9550 b3be 3c1f 7d3e
00000030: f4fe 00c0 0bd3 bf3f 9a00 6ebe cedd 9fbf
00000040: a687 e3bf fcd5 22bf dda3 77be 4b24 32bf
00000050: 6809 0c3f bf87 4dbf 55f6 1c3f 7c55 943f
00000060: bff5 bb3e 0411 19bf 7384 2bbf 4764 8cbf
00000070: 8a97 ccbf ed5c acbf 0294 813f 70e2 ed3e
00000080: 2acf 253d c510 9bbe 7495 2ebf 19b5 82bf
00000090: b9a2 5bbf 38f1 4b3f ec79 b8be 6f72 47bf
000000a0: 1837 dcbf aff9 8bbf be0d afbf 6fde 353f
000000b0: 0b12 0abf 97b9 20bf 0648 713e 1cd6 d5bf
000000c0: 245e d4bf 0fdf 99be 8aaa 33bf cadc fc3e
000000d0: 6872 efbf 0fbe 19c0 a4af 0dc0 8997 e1bf
000000e0: bf41 18be 4d01 9ebf 9ec6 64bf e0b4 83bf
000000f0: 0983 8e3e bef4 743f eddb c8bf ca64 fcbe
-1.4028894 -0.2723841 0.3441881 0.18512376 -0.042113855 -0.5678115 -0.43705964 0.40573514
0.5933877 -1.3731616 -0.35022417 0.24718946 -2.015561 1.498628 -0.23242417 -1.2489564
-1.7775772 -0.63607764 -0.24183603 -0.6958663 0.5470185 -0.8028526 0.6131337 1.1588588
0.36710927 -0.5979159 -0.66998976 -1.0968102 -1.5983746 -1.3465859 1.0123293 0.4646182
0.04048077 -0.30286232 -0.681968 -1.0211517 -0.8579517 0.79664946 -0.3603052 -0.77908987
-1.7204313 -1.0935572 -1.3676069 0.7104253 -0.5393378 -0.6278319 0.23562631 -1.6705966
-1.659123 -0.30052993 -0.70182097 0.493872 -1.8706789 -2.4022253 -2.2138453 -1.762437
-0.1486883 -1.2344147 -0.89365566 -1.0289574 0.27834347 0.95685947 -1.5692116 -0.49295646

conv1.att_dst f4 [1, 1, 64]
00000000: 01a0 d7be c84d 08bf 8dfd 983e 5c75 e3bd
00000010: 0ce5 c0bd fd46 85be 0911 a6bd 3f10 ac3d
00000020: 5618 f4be 8d4e a13e 82a8 15bf 7fd2 053e
00000030: 8355 80bc d4b1 d83b 13cf 853d 306a e4be
00000040: 6dd8 44be 3526 8cbe 52bb 02bf 9a45 06be
00000050: 9c49 2c3f c467 62be 4f3e 92be 0e28 edbe
00000060: 21b9 03bf 5187 583e 1a81 04bd c925 7dbe
00000070: 1255 403e ce04 babc efab 0fbe 3147 ddbe
00000080: 5ecb 16bf dec9 2abd f4c6 18bf ab69 1ebd
00000090: 80fc c0be 1290 ae3d 5f60 84be 940d 943e
000000a0: a309 aebd 02c9 333e 7f1e 05bf 0b4f 123e
000000b0: 16bb 64bd 34de fdba 6b8d 123e a708 a6be
000000c0: 78b4 79bd e3ee f2be 77f4 59be 7d69 653e
000000d0: a9d1 fbbc 21bf cabe 4b8a 073e faa2 fb3d
000000e0: 38d1 2fbe a5f5 b63e d686 cbbc 2446 0dbf
000000f0: ad96 33be d6a7 f3bd c400 e3be 3179 b9bc
-0.4211426 -0.53243685 0.29880944 -0.11106369 -0.09418687 -0.26030722 -0.08108718 0.08401536
-0.47674817 0.31505242 -0.5846025 0.13068579 -0.015665775 0.0066129956 0.06533637 -0.44612265
-0.19223185 -0.273729 -0.5106708 -0.13112488 0.6729982 -0.22109896 -0.28563163 -0.46319622
-0.5145436 0.21145369 -0.032349683 -0.24721445 0.18782452 -0.02270737 -0.14030431 -0.43218377
-0.58904064 -0.04169642 -0.5967858 -0.03867499 -0.37692642 0.08523573 -0.25854775 0.2891661
-0.08497932 0.17557147 -0.5199966 0.14287965 -0.05584248 -0.001936859 0.14311759 -0.32428476
-0.060963124 -0.4744788 -0.21284662 0.22403522 -0.030739622 -0.39598945 0.13236348 0.12286945
-0.17169654 0.35734287 -0.024844568 -0.5518515 -0.17537947 -0.118972465 -0.44336522 -0.022640796

conv1.att_edge f4 [1, 1, 64]
00000000: 8e53 d2bd 52df 01be 7ec6 ea3d 8c15 0d3e
00000010: af2a 93be 600d ad3d d251 843d e174 843d
00000020: 6b47 dbba 2d85 113e 2f93 9bbd 546e ad3e
00000030: 6685 e3bd 2b3e debd 1553 b73a d802 9438
00000040: f60d 983d 1e90 083e 66b5 113e c25d a5be
00000050: d75a 653e 8621 843d bb50 b53e 1e07 053e
00000060: 02e9 123e 6f5f 843d f399 393e 386e 0b3e
00000070: 2309 cebe 1745 b4be e00e e23d 04cd a3bd
00000080: d597 e43d 8cc6 46bd c6e3 85bd 3fd6 10be
00000090: 143a c13d c021 c1be 1b15 d63e 2690 903e
000000a0: eddb c73d b9be 5f3e e5f1 b63d 2322 173d
000000b0: 688d 4f3b efa7 28be ac0f dd3c da6a 9e3e
000000c0: 8b9f 023e 72b0 163e f09c 663e a457 08be
000000d0: 9281 cdbd abbb c5bd 249b 24be 8cc5 493d
000000e0: f058 ee3d 38c8 c23e ab1c 1dbb 26fb 1c3c
000000f0: 0fda 8e3e a390 8cbe e446 25be 64ec 733d
-0.10269843 -0.12682846 0.11463641 0.1377775 -0.28743502 0.08449817 0.064609185 0.064676054
-0.0016729658 0.14210959 -0.075964324 0.33873236 -0.11109428 -0.10851701 0.0013986552 7.0577196e-05
0.07424538 0.13336226 0.14229354 -0.32298094 0.22397934 0.064517066 0.35413155 0.12990996
0.14346698 0.06463515 0.18125133 0.13616264 -0.40241346 -0.3520896 0.110379934 -0.07998088
0.11161772 -0.048529193 -0.06537585 -0.14144228 0.09434906 -0.37721062 0.41812977 0.28234977
0.097587444 0.21850099 0.089328565 0.03689779 0.0031669978 -0.16470312 0.026985012 0.30940896
0.12756173 0.14715746 0.22520804 -0.13314682 -0.10034479 -0.096549354 -0.16074806 0.04926066
0.11638057 0.3804338 -0.0023973386 0.009581363 0.2790074 -0.274541 -0.16140324 0.05955161

conv1.bias f4 [64]
00000000: 8146 f8bd ad26 26be 5330 01bf a0a1 d7be
00000010: f6df a7be 133a 0fbe 4474 a3be a815 f2be
00000020: e005 02bf d85a 26bf 15e6 76be 7702 2dbf
00000030: 317b 89bf 960d 90bf 6dd1 eebe d2c9 9fbe
00000040: 7837 70bf 036f 6ebe 827b 09bf 9a9a d4be
00000050: 9bad 00bf e302 02bf 2ab1 1abf 1d1c 1cbf
00000060: 5d40 05bf 8758 1cbf 95fd b3be 4978 54bf
00000070: 743e 67bf 2243 9bbd 4a45 febe 0764 0dbf
00000080: 7b82 68be 2440 80bd 6277 81be f50c eebe
00000090: ae30 80be 68f2 e0be 9576 00bf 629d 2dbf
000000a0: 131a 0cbf 1362 ddbe 9d2e 3cbf e7a2 23bf
000000b0: 3998 82be 0c69 2bbf c993 a1be 1c83 8fbf
000000c0: ecae 63bf b022 9dbe 0b10 06be eb21 41bf
000000d0: d055 2dbf 445f 8ebf 2368 94bf be9c d6be
000000e0: 2f44 2fbe bbd7 4fbf 60bc 3dbd 4986 81bf
000000f0: a975 13bf 10a5 d0be a261 4ebf e432 cbbe
-0.121228226 -0.16225691 -0.5046436 -0.42115498 -0.32788056 -0.13986997 -0.3192464 -0.47282147
-0.50790215 -0.64982367 -0.24111207 -0.67581886 -1.074072 -1.1254146 -0.46644154 -0.31208664
-0.9383464 -0.23284535 -0.5370408 -0.41524202 -0.502649 -0.50785655 -0.6042658 -0.609804
-0.52051336 -0.6107258 -0.35154405 -0.8299604 -0.9032967 -0.07581164 -0.49662238 -0.55230755
-0.22706024 -0.06262234 -0.25286394 -0.4649426 -0.2503714 -0.4393494 -0.5018094 -0.6781827
-0.54727286 -0.43238887 -0.73508626 -0.63920444 -0.25506762 -0.66957164 -0.31558064 -1.1211886
-0.88938785 -0.30690527 -0.13092057 -0.7544238 -0.67709064 -1.1122823 -1.159428 -0.4191646
-0.17115854 -0.81188554 -0.046322227 -1.0119106 -0.5760141 -0.40750933 -0.80617726 -0.39687264

conv1.lin.weight f4 [64, 4]
00000000: bb45 533f 78ad 24bd dbcb ddbc 2cb4 3fbe
00000010: c10f 373f 293c d1be f19d 8f3c c975 153f
00000020: a18f 693d caaf 07bd a467 5c3e 43ec aa3c
00000030: 627e 093f 2c63 4fbe 272d cc3e 1528 aebe
00000040: e3e4 26bd 69e1 8e3c c15a acbd ff1e 91bd
00000050: 5c7b 9e3e 8dec 9fbe 33bc 8cbe c761 813d
00000060: 0ffc 49bb 303a 44be ab36 60bf 40d8 3bbe
00000070: b951 9c3d 8349 f63d 6824 623e 0682 59be
00000080: 2dd0 733e 2ab7 4dbe 7069 ec3d a3f2 0f3e
00000090: 29a3 2dbe 3d53 903e 682a 07bf b4d0 71be
000000a0: d30e 0a3f 4353 91be 7f93 89be 2221 923e
000000b0: 3e69 d9bc 1606 0cbc 2a77 d83d 8210 203e
000000c0: 83f7 a93e 4494 833e f1dd cbbe a34f f9be
000000d0: c1b7 63be 26ac c7be f38c 213e 9299 9a3c
000000e0: f7ae 9abb 2f68 00be 93cb 4bbf 2313 a9bd
000000f0: 477c af3e cb99 f6bd 18d3 b5be 4572 1fbd
00000100: 0ce7 2b3e e72d aa3e c1c7 85be 3576 8ebe
00000110: 8ae4 8ebe fee8 ac3e 062f 1ebf 54d2 67bd
00000120: c731 3a3e b1e3 b13c b5a9 683c 9d01 6c3e
00000130: c1b7 e7bd 2616 2e3e 39f7 39bf 7f38 48bd
00000140: 84c6 fd3b c916 cdbd 7db9 ae3e 0b34 9abd
00000150: 02cb 78be 5a34 ab3e 028e bebe 67ab 4bbe
00000160: 058e 25bd a0fa 343d cfc9 203e 126e ed3d
00000170: 4d4b 95be a83c 4e3e f4ea 053e 83c1 013f
00000180: 7236 bb3e 01f9 45be d598 773d bec4 463e
00000190: ed26 c2bd a009 583e a6bc 00bf 1ad6 55be
000001a0: c13d 79bd 87f3 ecbd ab31 5bbf d2fb 2abe
000001b0: 9ae3 813e bef6 be3d 0784 c3be 9249 9ebe
000001c0: f4a6 3e3e dba0 693e a1f5 c0be 9359 a6be
000001d0: c457 6f3f b27d 4ebe e364 5fba 3e02 89be
000001e0: 055c 55bd 7fb9 61bb 3708 663e 34ff c6be
000001f0: 8c16 163e d7d1 31be 52cf 563e c382 e93e
00000200: 596a 1f3f 438c bfbe 243c 75be cdcd b03e
00000210: 5026 3b3f e5d2 83be 2795 ba3c 8c70 43be
00000220: f1fe 033f a026 93be 7d38 15be 1ac8 64bd
00000230: 3aab 56be d2a1 cd3e 5313 b2bd 1465 e9be
00000240: 6c89 dcbe c26f 063f fa4e dbbe cf75 053d
00000250: 3398 dc3c cf97 51bd 884a 8a3e 0748 933d
00000260: 3236 ac3d 68c5 8bbd f7d9 523e 1a9a 023f
00000270: 29a5 c0bd 69e0 603e 7544 11bf 9310 69be
00000280: a904 4fbe 3f53 173f d9f4 9fbc 52d6 15bf
00000290: fe12 87be fff3 a53e edf5 e8be f72a ddbd
000002a0: 934d 0abc c834 973e cb84 a1be 8987 a5be
000002b0: 1340 423d 51b7 b53e f1bf e73e ebe2 00bf
000002c0: 17d2 023f be57 adbe c766 473e 97cf 063f
000002d0: 4f96 20bd b3ae 293e 366f 10bf e8b3 66be
000002e0: d74a 763d dbba 69be 1db4 cf3d cf7b 743e
000002f0: 7074 983e 6d1b a13e 5fb8 9bbe 96fe a0be
00000300: 4704 e33d 98bf ad3e 1383 86be e37f 98be
00000310: bb73 da3e edbc a5be 9244 ca3d 72c8 003f
00000320: 1fa8 85be 775e a13e 3851 48bf 5310 fbbd
00000330: c5e0 45bd b65c c3bc e3da 723e ce82 6a3d
00000340: b0e8 efbc 7cbf cd3e 77d7 98be bae3 05bf
00000350: 8d8b f83d 2fda f83e 3790 fcbe de90 fbbe
00000360: 87cf b63e 1e07 913e e3b0 debe 4376 04bf
00000370: c486 9bbe d047 fb3e 3ac5 cabd aa58 d1be
00000380: 7d66 303f 9301 b7be 4785 833d fe88 1e3f
00000390: 1672 babc b765 2a3e 0391 33bf e5ab 8cbe
000003a0: 96fa cabe 56fa e33e 721d 50bf db62 7abd
000003b0: e47f 6a3e bda7 8a3e 7f47 bfbe 7f12 9fbe
000003c0: 2c59 cb3e b649 95bc d7d7 0d3f 3419 16bf
000003d0: 99c9 e93d 75bb c1bd 4996 4c3e 7b56 833c
000003e0: 9420 fc3c 8311 b53e 7bc7 9abe 63f9 9cbe
000003f0: 38d2 33be d0e6 823e abd3 2abf 3d3f 45bc
0.82528275 -0.040204495 -0.027074745 -0.18721074 0.71508414 -0.4086621 0.017531367 0.5838285
0.05702174 -0.03312663 0.21523911 0.020864611 0.5370847 -0.20252675 0.39878199 -0.34014955
-0.040745627 0.017441468 -0.084157474 -0.0708599 0.3095349 -0.3123516 -0.27487335 0.06317478
-0.0030820405 -0.19162822 -0.87583417 -0.18344212 0.07632775 0.1202574 0.220842 -0.21241006
0.23809882 -0.20089403 0.11543548 0.14057402 -0.16956772 0.28188506 -0.5279908 -0.2361477
0.5392887 -0.28383836 -0.26870343 0.28540903 -0.026539441 -0.008546373 0.10569604 0.15631297
0.3319665 0.25699055 -0.39817765 -0.4869357 -0.22238065 -0.38998526 0.15776424 0.018872056
-0.0047205645 -0.12539743 -0.79607505 -0.08255603 0.34274504 -0.120410524 -0.35512614 -0.038927335
0.16787356 0.33238146 -0.26128963 -0.2782456 -0.27908736 0.3377151 -0.617905 -0.05659707
0.18183051 0.021715017 0.014200618 0.2304749 -0.11314345 0.17000636 -0.72642857 -0.048882004
0.007744612 -0.100141115 0.3412589 -0.07529458 -0.24296191 0.3343838 -0.37217718 -0.19889604
-0.040418644 0.044184327 0.15701984 0.1159326 -0.29159012 0.20140326 0.13077909 0.506859
0.36564976 -0.19333269 0.060448486 0.19410989 -0.09480081 0.21097422 -0.50287855 -0.20882455
-0.06084991 -0.11569887 -0.8562266 -0.16697624 0.2536896 0.09324406 -0.38186666 -0.30915505
0.18618375 0.22815268 -0.376874 -0.32490215 0.93493295 -0.20165136 -0.0008521808 -0.26759523
-0.05208971 -0.003444284 0.22464071 -0.3886658 0.14657038 -0.17365204 0.20977524 0.45607576
0.6227165 -0.374117 -0.23948723 0.34532014 0.73105335 -0.25746837 0.0227762 -0.19085902
0.51560885 -0.28740406 -0.1457233 -0.055854894 -0.20963755 0.40162522 -0.08695092 -0.4558493
-0.43073595 0.5251428 -0.42833692 0.032583054 0.026928043 -0.051170167 0.27009988 0.071914725
0.084087744 -0.06824762 0.2059096 0.5101639 -0.09406502 0.21960606 -0.5674508 -0.22760229
-0.20216621 0.591114 -0.019525932 -0.5853015 -0.26381677 0.32412717 -0.45500126 -0.107992105
-0.008441347 0.29532456 -0.31546625 -0.32329968 0.047424387 0.35491422 0.45263627 -0.5034625
0.5110182 -0.33856004 0.194728 0.52660507 -0.039205845 0.16570549 -0.56419694 -0.22529566
0.060129967 -0.22825186 0.10141776 0.23875354 0.29776335 0.31466237 -0.304141 -0.31444234
0.110848 0.33935237 -0.26271877 -0.2978507 0.4266642 -0.323707 0.0987636 0.50305855
-0.2610483 0.31517383 -0.7824893 -0.12258973 -0.04831006 -0.023847919 0.23716311 0.05725365
-0.029285759 0.40185153 -0.29851887 -0.5230061 0.12135992 0.4860396 -0.49328777 -0.49133962
0.35705206 0.28325742 -0.4349433 -0.51742953 -0.30376256 0.49078226 -0.09900899 -0.40887958
0.68906385 -0.3574339 0.06421905 0.61927783 -0.022759479 0.16640364 -0.70143145 -0.27474895
-0.39644307 0.4452693 -0.8129493 -0.061129432 0.22900349 0.270811 -0.37359235 -0.310688
0.3971647 -0.018223625 0.5540747 -0.58632207 0.11415405 -0.09459583 0.19979204 0.016032448
0.030777253 0.35364923 -0.30230317 -0.30659017 -0.17560661 0.2556672 -0.6672923 -0.012039003

conv1.lin_edge.weight f4 [64, 2]
00000000: 4ab2 4fbe 6757 8abd 1456 853d 8929 423e
00000010: e621 16bd d053 4fbe c1c8 cfbd 474e 29be
00000020: 3ca3 973e 584e 913e eca6 ef3d 5281 b7be
00000030: 1bd4 663c 5b4d 31be c662 693c 7ab6 31be
00000040: d3b6 84be 7f4c 9d3e b3c7 593e ec16 d03d
00000050: a7c5 9f3c 5bd5 2fbe 0418 1d3e fa21 a73e
00000060: 373b cbbd af53 b43e a202 253d a74b 423e
00000070: a5e6 3b3e 8341 6abe 316f 423e 3c60 6cbe
00000080: daa4 c03c 6bad 57be 7d40 98bd 6059 42be
00000090: 07f9 d2bd d671 2fbe 0207 88be f00c 69be
000000a0: aabc 973d 4412 9d3e 65af 653c 65f5 30be
000000b0: 6599 a93e 1302 9f3e 5a44 bfbd 8c96 25be
000000c0: 652d d3bd ee5c 31be 1c1d 693c fb94 31be
000000d0: a6be 25be 4d5c 4dbe 1f16 9fbd ec21 43be
000000e0: eccd 86be 9c5f d4be f3b7 fcbd c23f debe
000000f0: bee0 4bbd e94e 3dbe c03d 60bc bea3 563e
00000100: 88a6 ac3d 9263 c33d 00b4 52bc ab68 063e
00000110: 3f1a 7bbc ba29 353e da3a d33d dd34 2e3e
00000120: 6ec8 9b3d c33b 99be cc15 a1be 0504 c6be
00000130: 1428 af3c e2ca fc3e 3abe 9dbd 9507 e53e
00000140: 99ce ea3c a862 84be 07de 8c3e dd73 643e
00000150: b048 313d b9ce 83be a6fa fe3d f589 8dbe
00000160: 02ca 55be b090 6b3e 2613 0d3e 0d6e 3f3e
00000170: d53f 36bd 3280 04bc b098 693d 5fef c23e
00000180: da82 44bd a22e 54be a619 0fbe 02a9 1cbe
00000190: c950 b83c b8d1 d33e a3b1 743d 8625 4f3e
000001a0: 3440 86bd 44a4 973e 3293 b7bd ecb5 a13e
000001b0: 7177 9f3c 6202 b3be 1170 cbbc 2ac0 a2bd
000001c0: 91cd 903d 6738 b3be efde 5ebd f1f4 ed3e
000001d0: 1ff4 903e 03cc a8be 97a0 673e 30af 8fbe
000001e0: 568d 95be 0add 8bbe b333 42be d967 c7be
000001f0: 013c 083e 4b43 3d3e 0a6d 8eba 378c 0ebe
-0.20282856 -0.06754952 0.06510559 0.18961157 -0.03665342 -0.20246816 -0.10145713 -0.16533767
0.29616725 0.28380084 0.1170176 -0.3584085 0.014088656 -0.17314665 0.014244741 -0.17354766
-0.25920734 0.30722424 0.21267585 0.10160622 0.019503428 -0.17171232 0.15341192 0.3264311
-0.09923404 0.35220096 0.040285714 0.18974172 0.18349703 -0.22876553 0.18987729 -0.23083586
0.023516107 -0.21062247 -0.07434175 -0.18979406 -0.103014044 -0.17133269 -0.26567847 -0.22758842
0.07409032 0.30677998 0.014018868 -0.1728111 0.33124843 0.3105627 -0.09339209 -0.1617071
-0.10311393 -0.17320606 0.014228132 -0.17341988 -0.16186008 -0.20054741 -0.07767891 -0.19055909
-0.2632898 -0.41479194 -0.12339773 -0.43408018 -0.049774878 -0.18487133 -0.013686597 0.209609
0.08430201 0.09540476 -0.012860298 0.13125865 -0.015326082 0.17691699 0.103139594 0.17012353
0.07606588 -0.29928407 -0.31461942 -0.38674942 0.021381415 0.49373537 -0.077022985 0.44732347
0.028662967 -0.2585652 0.27513143 0.22309823 0.04328221 -0.25743654 0.12450151 -0.27644315
-0.20877841 0.23004413 0.13776836 0.18694325 -0.04449447 -0.008087205 0.05703038 0.3807325
-0.047976352 -0.20720914 -0.13974628 -0.15298846 0.022499459 0.4137094 0.05973972 0.20229158
-0.065552145 0.29617512 -0.08963622 0.31584108 0.019466134 -0.34962755 -0.02483371 -0.07946809
0.07070459 -0.3500397 -0.054411825 0.46475938 0.2831125 -0.3296815 0.22619854 -0.28063345
-0.29209393 -0.27317077 -0.18965034 -0.38946417 0.1330414 0.18482701 -0.0010866236 -0.13920675

conv2.att_src f4 [1, 1, 64]
00000000: 9f48 bcbf db28 803b 6efd 0e3d c6a6 01c0
00000010: 41f0 08bf ba4a 1d3d 811b 333d 30a7 353d
00000020: 85dd 6fbf 5401 863f 151f 1740 f6b5 8b3c
00000030: 1f7b cbbe ca5a e53d 42f1 e53d e86f e4bd
00000040: 5bd5 afbf 2d43 e33d 7a68 5c3f e71f 9ebc
00000050: a254 82bc da76 9a3c 1ac8 e6bb f21e 08ba
00000060: d35a 723e bac9 1c3e 74f6 0dbd b56c 8ebf
00000070: 0907 fe3e 7302 cd3d 6182 fb3e 470a 933f
00000080: ccd6 0dbf 856f 8fbd 9bfa b73d dc59 90bd
00000090: 93cc 06bd 0168 2c3d e0f3 593e 6c47 393d
000000a0: 1aff f43e ac54 dd3d 9e29 43be cfe7 293d
000000b0: 1cc6 da3b 77f3 053f 3203 de3e fd9b 163f
000000c0: 2f61 cabf 89df 8abd 5ef3 b3be b6c7 cbbd
000000d0: 833b 7fbf ae23 6e3f b5c6 3abf 30d6 0d3f
000000e0: 9a39 bfbc 1885 36bd a6c6 8d3f bfe6 b13f
000000f0: bfed 2dbd 4b84 8ebe 6468 973f 2035 43be
-1.4709662 0.0039111204 0.034909658 -2.025804 -0.534916 0.038401343 0.0437274 0.044348896
-0.93697387 1.0469155 2.361272 0.01705454 -0.3974237 0.11198957 0.11227657 -0.11154157
-1.3736986 0.11096797 0.8609692 -0.019302322 -0.015909497 0.018855501 -0.007042897 -0.00051925995
0.23667459 0.15311328 -0.034658864 -1.1126925 0.49614742 0.10010233 0.4912291 1.1487511
-0.5540588 -0.070036925 0.08983346 -0.07048389 -0.03290994 0.042091373 0.21284437 0.04523413
0.47850877 0.108071655 -0.19058844 0.041480836 0.0066764485 0.5232462 0.43361813 0.5883177
-1.5810908 -0.06780917 -0.35146612 -0.09950201 -0.9970018 0.9302319 -0.7295945 0.5540495
-0.023342896 -0.04456052 1.1076248 1.3898543 -0.04246306 -0.27835307 1.1828732 -0.19063234

conv2.att_dst f4 [1, 1, 64]
00000000: 3da3 e93f 4064 02bf 4ce6 1f3f 361c e63f
00000010: 82e7 203f d01b 223b 6703 363e 9210 643f
00000020: f2ac f13f 6ec0 d5bf 0d8f 9bbf fc1b 543d
00000030: edb5 9b3f 6668 52bf d4a1 01c0 31e3 d43f
00000040: 74e8 0b40 d746 6d3d c083 c0bd 0ee2 8e3f
00000050: 43a2 60be 0496 81bf 2cf7 c0be bd43 9bbe
00000060: 377e 11bf 6553 dcbe 0f1b 53be a330 0140
00000070: 1d2f 02c0 4441 613f 729b dbbf efc6 edbf
00000080: bd84 0140 719e 013f 2cc7 96bf fd7d 8c3e
00000090: 955a b1bd 9566 54bd b58c bfbd 8215 c0bf
000000a0: 03c4 8bbf 7a22 fcbe 296a 853f 0ad8 833f
000000b0: a906 923f 4fa9 0bc0 acac c1be 3246 98bf
000000c0: c233 d03f cd20 c53e 208f 1b3e a617 123f
000000d0: 6031 f73f 563a a1bf a0b4 c13f e115 fcbf
000000e0: d946 8cbe 0c5c 333f 071c d8bf 62db 19c0
000000f0: 086e 833f cc83 9e3f d271 f6bf bd24 2d3f
1.8252941 -0.5093422 0.6246078 1.7977359 0.6285325 0.0024735816 0.17774735 0.89087784
1.8880904 -1.669935 -1.2153031 0.0517845 1.2164894 -0.8219055 -2.0255022 1.6631833
2.1860628 0.057928886 -0.09400129 1.1162736 -0.21936898 -1.0123906 -0.37688577 -0.30325118
-0.56833214 -0.43032375 -0.20615791 2.0185935 -2.0341256 0.8799021 -1.7156813 -1.8576335
2.0237267 0.5063239 -1.1779532 0.2743987 -0.08659855 -0.051855642 -0.093530096 -1.5006564
-1.0919193 -0.49245054 1.0423023 1.0300305 1.1408283 -2.1822088 -0.3782705 -1.1896422
1.6265795 0.38501588 0.15191317 0.57067335 1.9311943 -1.2595928 1.5133247 -1.9694177
-0.27397802 0.7006233 -1.6883553 -2.404015 1.0267954 1.2383971 -1.9253485 0.67634183

conv2.att_edge f4 [1, 1, 64]
00000000: 955b dd3e 14c4 febd 0e6a e9be ac21 db3d
00000010: ce0f ac3d 039d 2c3f 905a d63e 015f ddbe
00000020: e2ff 2dbc c805 8abd e5c6 d33e 7347 893d
00000030: 1d4f c23e 2e98 8d3d 0380 803e edbb ce3e
00000040: c40c 9fbd a902 793e e12e b2bc 4272 91be
00000050: 3283 a7be 8ef1 1e3f 2317 e63e 3d28 0d3f
00000060: f058 963d faae 80be bc39 2e3f 272c 003e
00000070: 2e4c 10be 0bf0 f5be 850f 81be 7aea cb3e
00000080: 41b6 d4be 3858 89be 4a7b ef3e 9712 8ebe
00000090: 519c 013e 1d46 c8be 4e06 a53e 3bc8 99be
000000a0: 273f 643e 6dfa be3e 46d3 a83e 778f ecbd
000000b0: 725a fc3d 6864 25be 7ec6 9d3e a1b6 dbbe
000000c0: dd70 efbc b278 ed3d f33f e13d 093e 9e3e
000000d0: 700d 80be dfc6 cfbe 5c37 9c3e 111c df3e
000000e0: 90ef 893e be26 04be 4c15 cf3c e1b2 3b3e
000000f0: 07ca c8be ca73 a0bc 010c 593e caa4 94be
0.43233934 -0.12439743 -0.45588726 0.10699782 0.08401452 0.6742708 0.4186597 -0.43236545
-0.010620089 -0.06739384 0.41362682 0.06703081 0.37950984 0.069137916 0.25097665 0.4037775
-0.07766107 0.24317421 -0.02175087 -0.28407484 -0.32717282 0.62087333 0.44939527 0.55139524
0.07341182 -0.25133497 0.68056846 0.12516843 -0.1409156 -0.480347 -0.25207153 0.3982733
-0.415453 -0.26825118 0.4677375 -0.27748558 0.12657286 -0.39115992 0.32231373 -0.30035576
0.22289716 0.37300435 0.3297369 -0.11550801 0.123219386 -0.16151583 0.308155 -0.42912772
-0.029228622 0.115952864 0.109985255 0.30906704 -0.25010252 -0.40581414 0.30510986 0.435761
0.26940584 -0.12905404 0.02527871 0.18329956 -0.39216635 -0.019586463 0.21195985 -0.29031974

conv2.bias f4 [64]
00000000: 2b57 84be f542 733b 4fe5 d5bd 4f33 43be
00000010: df65 87bc ed25 aebc 3e5d b0bc b9fa 4abb
00000020: abbb 4bbe d78a 313e 5f08 6b3e 4b42 69bd
00000030: d321 91bd c6d9 a83c f514 b93d ade9 76bd
00000040: c325 5fbe 10d0 12bc ed1d d13d 0420 6fbd
00000050: c51b f63b d8a3 7a3d 0b06 c93c 6328 2d3c
00000060: f54a 8a3d 67b7 803c c0f0 843d 41ee 11be
00000070: b253 f53d a2c7 31bd 5179 b83d cc51 163e
00000080: fcbf 0bbe 74f1 8cbc ba8e 4b3d 7208 863c
00000090: aa33 0ebd 0e17 b23c 2620 213d 9243 9f3d
000000a0: c96d bd3d 5d19 2d3d 7dea 02bd f5b7 04be
000000b0: eae7 e5bc c5dc e93d 7ece 023e 90c6 913d
000000c0: 33f8 3cbe 2384 4ebd 7f5e b8bd b349 0dbd
000000d0: e6f7 12be aebe 183e f582 d9bd 02c2 f73d
000000e0: 292a 4ebc 9e30 3d3c 79a5 0c3e 8691 8a3e
000000f0: f807 93bc 7864 e9bd 16ee 243e 71e1 87bd
-0.25847754 0.0037118767 -0.10444128 -0.19062541 -0.016528068 -0.021258319 -0.021528836 -0.0030972196
-0.19895808 0.1733812 0.22952412 -0.056947988 -0.070865296 0.020611655 0.090372 -0.060281444
-0.21791749 -0.008960739 0.10210786 -0.05838014 0.0075106346 0.06119141 0.024539014 0.010568711
0.06752578 0.015712453 0.06491232 -0.14251043 0.11978854 -0.043403275 0.09007514 0.1467964
-0.13647455 -0.017204978 0.04969666 0.016361449 -0.03471724 0.021739509 0.0393373 0.0777656
0.092494555 0.042260516 -0.031961907 -0.12960799 -0.028064687 0.114190616 0.12774083 0.07117951
-0.18454055 -0.050418984 -0.09002399 -0.034494113 -0.14352378 0.14916489 -0.10620681 0.12097551
-0.012583294 0.011547236 0.13734998 0.2706415 -0.017948136 -0.11396116 0.16106448 -0.066347964

conv2.lin.weight f4 [64, 64]
00000000: 02f1 b6be 6cef 0c3e 5434 0d3f f2ca 9d3d
00000010: 366a ce3d adea 913e b4db 513e a123 503e
00000020: e1cd 67bd 87ea 2a3e 9323 193f 726e a4bd
00000030: 253d d9be 0c66 253f 248d 933e 8880 ebbb
00000040: 7d46 48bd eebf 0fbd ade0 053f 690d 1b3e
00000050: 1124 c13e 52ef 973e 2f83 a1be f352 30bf
00000060: 2ea7 363f bdef 063e a382 b23e ad3e 2c3e
00000070: 2e21 3d3e 5dc2 98be 621a 343c 6bb8 ba3c
00000080: 4003 af3e 78eb aebe 25d2 64be 43cd 9ebd
00000090: 02be 1ebd 21d0 153e 5742 253e 48a5 643e
000000a0: d0c2 abbe d9a0 d3bd 00e3 043d 35bb 073f
000000b0: 4511 213e 3282 ad3e 7bff 843e a19c 90be
000000c0: 89a3 1ebc 10b4 ca3e d212 093e fa16 5e3e
000000d0: 8464 47be 1db5 9fbe 5a0b 3bbe 98f8 42bd
000000e0: 7a96 c53e 2824 ae3e ff44 d73d cc8c 33be
000000f0: 5f41 613f db81 97bd ae5d 6e3b a7d4 323e
00000100: 12a8 b83d 6305 bcbc 9133 cdbe a61e d33c
00000110: 40ba 793d 66f8 e33d f017 a7be 1642 97be
00000120: eac5 93be 9603 56be d95e e93d 52f4 1b3c
00000130: 8291 893e 6d0d b7bd eb46 e2bc c833 0c3e
00000140: 7447 5c3e 33d1 f43d c69b 9abe a87e 023e
00000150: e766 083e d24e 83be 9619 f7be 647f 2ebe
00000160: 3fdc 273e 825f 8dbe 3a1e 523d 0bf6 d63d
00000170: d6c7 0b3e fe55 56bd c22c c73d 0651 f43d
00000180: bc4c aabc f6bc 03be 03e3 543e 48ea a1bd
00000190: 3438 7e3e f412 a7be 0eb7 3f3d ea49 c7be
000001a0: cec9 5bbe 5887 32bc 41a9 023e d80a 93be
000001b0: 495c 95bd 35bf b3be 81cf e43d b227 873e
000001c0: a349 903e b24f eb3d 538a a73d 571a 263e
000001d0: 296c 3a3e f651 d3bd 9de4 983d 24fa 143d
000001e0: 75a2 08bd 044e cebe 905c 2fbe 7580 9d3e
000001f0: 9177 073f f875 a8be 4a3b c03e 1ced 24be
00000200: b0d1 6c3e f839 0ebc 5136 af3e 3289 abbe
00000210: 8bf2 443e b835 f73d d6bd 8f3d 5338 4ebc
00000220: 474f 50be adfe 95be 88b5 2c3d 5ea1 b23c
00000230: 6367 833e f666 8cbe 3509 f0bb 7bb5 b2be
00000240: 1d4c 523e 180b 58be d462 803d dfd4 6c3e
00000250: 5761 97be 0238 35be 0685 8e3e 9dda f63e
00000260: e80e e93d 2b90 873e cb5d 6a3e 8891 25be
00000270: 98b7 973d 6e35 fcbc 2223 8b3e 890d 1dbd
00000280: c0f9 813d 180a 3abd 8646 b3be df18 ddbe
00000290: a29c 30be fa4c 39be c0fb 4e3e 596a e4bc
000002a0: 33ed febd 6d48 51be 1898 7bbe 4e68 0bbe
000002b0: ac3a 743d eabd 1a3e bafa f43d 9163 23be
000002c0: 3783 003d 7687 0f3e 59d5 d7bd 286a eb3c
000002d0: d6d1 0ebe 5bef 713c 2b35 943e c307 d7b9
000002e0: 128e 5d3e 29ae 423e 4027 b83d 885b 10bf
000002f0: 76b9 32be 0fcc d7be 9642 6abd 5002 883e
00000300: 74e8 d8be 5448 d43e 2915 2b3e baee 503e
00000310: 13bd 623e b4fa aa3d 3aee 733e ef1d 383d
00000320: cd22 31be 2f88 b1bc 6848 013f 3bd1 0ebe
00000330: cd87 91be d6ae 373f f124 993e 6d8b 5e3e
00000340: 9871 ebbe a063 873e 901d 443c ebb5 173d
00000350: 4987 2a3f 148a 1f3b 2d36 0dbe 2ebc 68bf
00000360: c193 bd3e d0ad 8d3e 1e32 f83b 54e2 213e
00000370: 69fe 943d be57 fcbe afa2 9cbe 0a8e 9b3d
00000380: 57f8 453f c883 88be d04b 123e 7a2a dcbd
00000390: 8444 8c3d 74e0 723e f74f 0a3e 3ab3 963e
000003a0: 8374 3cbc 4b9a 293e 665f fbbd fec5 0f3f
000003b0: dc2e 853e f891 523e 5115 b93c b525 14bf
000003c0: 0855 87bd 8832 383e 5f59 0f3e 0f48 e43a
000003d0: 7854 9cbe 1f98 d2be eda1 01bf a15b 9f3d
000003e0: 5d35 0c3d 9f5b 0cbd 5f3f 743c 835d b4bd
000003f0: 403d a33f 8988 a03d fba3 abbd 9ed9 1d3e
-0.3573075 0.13763207 0.5515797 0.07704724 0.10078852 0.28499356 0.20493966 0.20326091
-0.056592826 0.16691028 0.59819907 -0.08028878 -0.42429462 0.64608836 0.2881862 -0.007186953
-0.048895348 -0.035095148 0.52295953 0.15141834 0.3772283 0.29674774 -0.31545398 -0.6887657
0.71348846 0.1317739 0.34865293 0.16820784 0.18469688 -0.29835787 0.010992618 0.022793015
0.34182167 -0.34164023 -0.22345789 -0.07753994 -0.038755424 0.14630176 0.16138588 0.22328675
-0.33547068 -0.10333414 0.032443047 0.5302003 0.15729244 0.33888394 0.25976166 -0.28244498
-0.0096825445 0.39590502 0.13386086 0.21688452 -0.19471937 -0.31192866 -0.18266049 -0.04760036
0.38591367 0.3401196 0.10511207 -0.17534178 0.87990373 -0.07397815 0.0036371755 0.17463933
0.09016432 -0.022951787 -0.40078405 0.02577145 0.060968637 0.111313626 -0.3263545 -0.29542607
-0.28861934 -0.20899805 0.11395044 0.0095187 0.26868826 -0.08938108 -0.027621707 0.13691628
0.21511632 0.11953964 -0.3019697 0.12743628 0.13320504 -0.25646073 -0.48261708 -0.17040783
0.16392611 -0.2761193 0.051298358 0.10496148 0.1365045 -0.052328102 0.09725334 0.119295165
-0.020788543 -0.12865052 0.20789723 -0.07906014 0.24826127 -0.32631648 0.046805434 -0.3892358
-0.21463701 -0.010896526 0.12759878 -0.2871921 -0.072929926 -0.35106817 0.11172391 0.26397473
0.2818118 0.1148981 0.0818068 0.16220985 0.18205322 -0.10318367 0.074654795 0.036371365
-0.033358056 -0.40293896 -0.17125154 0.30762067 0.5291682 -0.32902503 0.37545234 -0.16106075
0.23126864 -0.008680813 0.34221128 -0.3350311 0.19233148 0.12070793 0.0701863 -0.012586671
-0.20342742 -0.29295865 0.04216531 0.021805461 0.25664815 -0.27422303 -0.0073253163 -0.34904084
0.20536847 -0.21097982 0.0626885 0.23128079 -0.29566452 -0.17697147 0.27835864 0.48213664
0.11379796 0.2647718 0.22887342 -0.16168797 0.074080646 -0.030787196 0.27175242 -0.038342986
0.06346464 -0.045419782 -0.35014743 -0.43183038 -0.1724725 -0.1809577 0.20213223 -0.027882742
-0.12447586 -0.20437784 -0.24569738 -0.13614008 0.059626266 0.15111509 0.11961885 -0.1595595
0.031375136 0.14016518 -0.1053874 0.028737143 -0.13947234 0.014766539 0.28946814 -0.00041013779
0.21636227 0.1901175 0.08991861 -0.56389666 -0.1745356 -0.42147872 -0.057192408 0.26564264
-0.42364848 0.41461432 0.1670729 0.20403567 0.22142439 0.08348599 0.23821345 0.044950422
-0.17298432 -0.021671383 0.5050111 -0.13947003 -0.2842392 0.71751153 0.29910997 0.21732874
-0.45985103 0.26443195 0.011969939 0.037038725 0.6661268 0.0024343776 -0.13790198 -0.9091214
0.3702679 0.2767167 0.007574334 0.15808994 0.072750874 -0.49285692 -0.30592868 0.07595451
0.7733206 -0.2666304 0.14286733 -0.10750289 0.06849006 0.23718435 0.13507067 0.29433614
-0.011502388 0.16562764 -0.12274055 0.5616149 0.26012313 0.20563495 0.022593172 -0.57870036
-0.06608015 0.17988026 0.13998936 0.0017416495 -0.30533195 -0.41131684 -0.50637704 0.07781149
0.03423058 -0.034267064 0.014907687 -0.088068984 1.2753067 0.07838542 -0.08380886 0.15415046

conv2.lin_edge.weight f4 [64, 2]
00000000: d27e d73e efc1 60be f0a3 58bd c0fa 64be
00000010: 50dd 0dbf 2fad 9cbe 19e6 343d b847 473e
00000020: 80d9 5c3e 7bef d3bd 066f 093f d5be 70be
00000030: 093f f83e e93e 87bd f378 d7be 4eae 603e
00000040: 05e6 053e fee5 29be ed6b adbc 03f7 01be
00000050: ea61 d03e ce46 52be 9c1d e73c 5135 ee3d
00000060: 1c69 dd3e 51f7 883e 0b8f cd3c 91aa 013e
00000070: 5f3c 9b3e d244 f4bd f4e2 0f3f 558f 0fbd
00000080: f8c8 613d bb5c 81be 7198 e03e 7c25 0d3e
00000090: f408 3fbe 144c 163e a4ac bfbe 92b1 8fbd
000000a0: f7be b5be 4240 dabd ed6d fc3e 7096 47be
000000b0: ebd1 193f 36c1 ad3d 8d5e 1d3f fdf2 e5bd
000000c0: 0aa4 123d 7de7 f33d 315d 9bbe fdbd f43d
000000d0: e9a5 113f 1203 5cbe 9661 b13c 7e71 8e3e
000000e0: 58a6 7bbe 4d82 cc3d eae3 23bf fcf2 efbd
000000f0: 8a8b dbbe 4dd5 2dbd f9b6 ca3e e2f0 46be
00000100: 02a1 17bf 1962 cfbd efc7 91be b0b4 87be
00000110: 11c6 0f3f 9bca 13bd a86a a4be ce7b 093e
00000120: f624 b23c 13b1 913e 1c1e 08bf 515d 1bbe
00000130: 7ce6 eb3e ba5c aa3d 9b76 abbe ab2b 133e
00000140: 616b 923e 45c3 dabd 3d73 023f f3ef 8a3d
00000150: 1432 b43e 434d 1fbe 795d 32bb d253 8dbe
00000160: b8fc 843c 82c1 8f3e e80e 8bbe 0fb2 fbbd
00000170: f090 a43e fc8d c3bd f240 f9be 7513 903d
00000180: 81c8 febb aab2 5dbd 18a2 763e 21de e5bd
00000190: dcbc 3a3d 32e6 4c3e 479a ac3e d3bf 733e
000001a0: b8fa 9abe 2626 f43d f072 0fbf 85e0 89bd
000001b0: 61dd ad3e d4fe 16be 34da ea3e 1151 163e
000001c0: 8cc1 a13e c775 05be bb34 01bd 76fb 8cbe
000001d0: 439d 423e d7fc 13be bc47 883e dde7 cfbd
000001e0: 26d9 cabe 5f68 433e 46b8 3cbe 54c9 173e
000001f0: 9278 8f3e ba37 d6bd 726f a8be 0b19 0f3e
0.42088944 -0.2194898 -0.052890718 -0.22361279 -0.5541582 -0.3060088 0.04416475 0.19460952
0.21567345 -0.10348412 0.53685033 -0.23510297 0.48485592 -0.06603796 -0.42084464 0.21941492
0.13076027 -0.16591641 -0.021169627 -0.12691884 0.40699703 -0.20534822 0.028212361 0.11631263
0.43244255 0.26751187 0.025092622 0.12662722 0.30319497 -0.11927189 0.5620568 -0.0350488
0.0551233 -0.2526606 0.43866304 0.1378383 -0.18655759 0.14677459 -0.37436402 -0.07016291
-0.35497257 -0.106567875 0.49302617 -0.19490981 0.60085934 0.08484118 0.614724 -0.11227987
0.03580097 0.11909387 -0.30344537 0.119503 0.56893784 -0.21485546 0.021652978 0.27820963
-0.24575174 0.099857904 -0.64019644 -0.117162675 -0.42879897 -0.042439748 0.39592722 -0.19427827
-0.59230053 -0.101261325 -0.2847285 -0.2650504 0.561616 -0.03608189 -0.32112622 0.13426134
0.02174614 0.2845541 -0.53170943 -0.15172316 0.46074283 0.083184674 -0.33488926 0.14372127
0.2859755 -0.10681776 0.5095709 0.06784048 0.35194457 -0.15556817 -0.0027216359 -0.27603012
0.016233787 0.28077322 -0.2715981 -0.12289821 0.3214183 -0.09548566 -0.48682362 0.07034961
-0.007775367 -0.054125465 0.24085271 -0.11224008 0.045590267 0.20009688 0.33711454 0.23803644
-0.30269408 0.11921339 -0.56034756 -0.06732277 0.3395796 -0.14745647 0.458696 0.14679362
0.31592977 -0.1303321 -0.03154443 -0.275356 0.19005303 -0.1445192 0.2661723 -0.10151646
-0.39618796 0.19082783 -0.1842967 0.14822894 0.28021675 -0.10459848 -0.32897526 0.13974397

fc.weight f4 [2, 64]
00000000: f255 0f3c b0e4 933c eb64 dbbc aa78 d93c
00000010: a303 34bd 2e1b 02be ea14 9dbd 7a5f 803c
00000020: 5f01 02bd 380c 5bbd 6e6c 9cbd 1317 cd3d
00000030: ae2d 5fbd 7854 983d bf13 86bd 10fe e43c
00000040: 3f3a ed3d c3ca a0bc 8f27 92be e39b a73b
00000050: 85d8 b8bc a1c8 a8bd 4622 d33b 6afc d13c
00000060: f8e5 dcbb 8df0 bebc 92d5 52bd deab b73c
00000070: 1f4c 26bd 98f7 47bc a2c0 87bc 67ba 0dbc
00000080: 70a9 ce3c 7d0e 95bc 0007 1abd 32e3 b63d
00000090: 5ffe 0c3d 6e7e 98bd f759 953d 00ec 583d
000000a0: 06f4 103d e720 c83c a007 d13d 3991 c53c
000000b0: b66e f33d d260 36bd b945 eebd 097d b1bc
000000c0: 443d 8dbd a8d7 01bc 83c0 e9bc 450b 16bd
000000d0: 0736 f6bc b695 8cbd 1778 75bd ca63 d93c
000000e0: f4e9 e73c ac34 be3d 22c1 86bd fe79 643d
000000f0: e315 913d 0d68 dcbd d411 6a3d 6489 75bb
00000100: 51d6 423c 6cd2 de3c f332 49bd f00d a63c
00000110: ba2e 05bd e4ae bcbd fbb7 b3bd 54e2 263d
00000120: 401a c4bc 0ea6 62bd 32f7 a3bd 75e9 0b3e
00000130: 430c 33bd 32c7 7d3d 115e 91bd 7d1d d33a
00000140: b9b9 e93d 6a0f 8cbc 13fe 873e 3ae7 013d
00000150: de4f 363c 90a7 bfbd ad04 483c 700a 4b3c
00000160: 936a 9cbb fbb5 1cbc 1211 fdbc 229a 913c
00000170: b88b 05bd 3481 f7bc e2f0 c8bc 10ae 12bc
00000180: 7ebe 703a 3a5e e5bb 1d2d 87bc b182 cb3d
00000190: 45a5 cfbb c1d5 98bd a449 4f3d 0175 cc3d
000001a0: cc71 e83c 6adf af3c 63a0 b33d 2e6d 8db9
000001b0: c2cf c93d f4e0 39bd 5986 903d b88b 01bd
000001c0: 438c 8cbd 7f3a 2abc f86e 19bb ae7a 10bd
000001d0: 59fd f4bc 3bce acbd 6be3 85bd 20ce cb3c
000001e0: 2091 933b 32f7 ab3d 1002 89bd acf1 7b3d
000001f0: 56e5 4f3d 59f1 c5bd 7873 8c3d feed 823b
0.008748518 0.018053383 -0.02678152 0.026546795 -0.04394878 -0.1270568 -0.07670005 0.015670527
-0.03173959 -0.05347845 -0.07637869 0.10014167 -0.054486923 0.07437986 -0.06546735 0.027953178
0.11583375 -0.019627934 -0.28545806 0.0051150187 -0.022564182 -0.08241392 0.0064432947 0.025633056
-0.0067412816 -0.023308063 -0.051473208 0.02242082 -0.04059994 -0.012205027 -0.016571347 -0.008650399
0.025227278 -0.018195385 -0.037604332 0.08930053 0.034422275 -0.074459895 0.0729255 0.052959442
0.03538897 0.024429752 0.102065325 0.0241171 0.11886351 -0.04452593 -0.11634392 -0.021666067
-0.06896451 -0.007924952 -0.02853418 -0.03663184 -0.03005506 -0.068644926 -0.05992898 0.026536841
0.0283098 0.0928739 -0.06579806 0.055780403 0.07084253 -0.107620336 0.05714591 -0.0037465924
0.011891917 0.027199946 -0.049120855 0.020270318 -0.032515265 -0.09213045 -0.08775326 0.040743187
-0.023938298 -0.055334143 -0.08006133 0.13663276 -0.043712866 0.061957546 -0.0709802 0.0016106811
0.11412377 -0.017097194 0.2656103 0.031714655 0.01112744 -0.09358132 0.012208146 0.012392625
-0.004773447 -0.009564872 -0.030891929 0.017773692 -0.03260395 -0.030212976 -0.024528924 -0.008952633
0.0009183659 -0.006999758 -0.016501004 0.09937037 -0.0063368403 -0.07462645 0.05060734 0.09983254
0.028374575 0.021468837 0.08770826 -0.0002697496 0.0985408 -0.045380548 0.07056875 -0.031627387
-0.0686269 -0.010389923 -0.002341209 -0.035273246 -0.029905962 -0.08437773 -0.06537517 0.024878561
0.004503384 0.08396758 -0.066898465 0.061509773 0.05075582 -0.09665174 0.068579614 0.003995656

fc.bias f4 [2]
00000000: ec98 463e c136 b8bd
0.19394273 -0.089948185
