saved_models/gat2.pt (torch, 25014 bytes, 14 tensors)

conv1.att_src f4 [1, 1, 64]
000000 44 47 e7 bc 35 cb 57 be c6 5d 64 bd 12 64 33 be
       -0.028232224 -0.21073611 -0.05575349 -0.17518643
000010 8e 5b 85 3d bf 56 e4 3c 3c 05 8b be c1 f3 89 3e
       0.06511603 0.027873395 -0.2715243 0.26943782
000020 e6 e8 2f 3e 6b c8 8d be 32 14 72 bc bd c4 a5 3e
       0.17178687 -0.2769197 -0.014775323 0.32376662
000030 31 d5 38 3e 91 e2 09 3f bd d2 64 3d ef 11 82 be
       0.18050076 0.5386134 0.05586504 -0.25404307
000040 b0 ee 67 3e 52 b9 bf 3e ac 3e 17 bc 04 8a 9c bd
       0.22649646 0.37446076 -0.009231251 -0.07643512
000050 45 53 1b be 76 be 9b bd c7 f5 5a be 0f a7 6f bd
       -0.15168484 -0.07604687 -0.21382819 -0.05850893
000060 18 b7 de 3e 12 38 cf 3e ce 66 0a 3e 94 c8 2e be
       0.43499064 0.40472466 0.1351578 -0.17068702
000070 b0 77 43 3e 06 67 52 3d fa a8 87 3d b3 ce 41 3e
       0.19088626 0.051367782 0.066240266 0.18926506
000080 ad 56 c1 bd d9 82 aa 3e 43 b2 89 3e b3 57 57 3b
       -0.0944036 0.33302954 0.26893815 0.003285867
000090 91 0e e4 3e 9c a5 d6 bd 7e 07 c3 bd 95 94 de 3d
       0.44542363 -0.10480806 -0.095229134 0.108681835
0000a0 85 f8 1c be dc d4 c0 be 7b a2 9e 3e 7f 67 ac bc
       -0.15329178 -0.376624 0.30983338 -0.021045445
0000b0 58 ab 70 be c3 ea 58 3d 51 f8 38 be 27 aa 20 be
       -0.23502862 0.05295826 -0.18063475 -0.15689908
0000c0 dd 5e 05 bd 9a 1a 79 3e a1 7c e2 3d 9c d3 a7 bd
       -0.03256117 0.24326554 0.11058927 -0.08194658
0000d0 3c 2b 29 3d bd 92 8d 3e b4 1f 99 bd c8 db 5e 3e
       0.041300997 0.27651015 -0.0747675 0.21763527
0000e0 52 d5 aa 3e 81 c5 31 3e 6b 9c 43 3e ba 7a 42 3d
       0.33365875 0.17360498 0.19102637 0.047480322
0000f0 e9 eb 45 3e 03 ab 93 3d c5 aa 09 bd 01 38 1c be
       0.19328274 0.07210352 -0.033610124 -0.15255739

conv1.att_dst f4 [1, 1, 64]
000000 56 75 9d 3d b5 e5 b8 3d f8 62 4b 3e c9 f9 39 be
       0.07688396 0.09028188 0.19861972 -0.18161692
000010 11 8b 6c 3d f1 8a 7d be 4f c8 55 bd a9 49 3a bb
       0.05774981 -0.24760033 -0.052192982 -0.0028425253
000020 44 86 c8 bd 5f b1 0c be 83 81 99 be 6f 33 c9 3d
       -0.09791234 -0.13739537 -0.29981622 0.09824263
000030 f3 59 cb 3c e0 65 4a 3e 4e 81 5f be d8 3b aa 3b
       0.024823165 0.19765425 -0.2182667 0.005195122
000040 ed 7f 7b be 1e 76 4d be e9 c3 d9 bd 37 2b 63 3e
       -0.24560519 -0.2006459 -0.1063307 0.22184454
000050 e8 0d a2 3e 3a 05 3c bc 79 9c 4b 3e 3d eb 02 3d
       0.31651235 -0.0114758555 0.19883908 0.031962622
000060 5b 8d 98 3e ee e3 3d 3e a8 6d d4 bd b0 ed f8 3d
       0.29795346 0.1854398 -0.10372478 0.1215471
000070 de f0 ba 3d 2c 4e 4c 3c 2a 1c 4a 3e 7b 8f 53 3d
       0.09127973 0.0124698095 0.19737306 0.051650506
000080 dc 51 6a 3d e7 dc f0 3d af 95 0e be d5 cc 22 3e
       0.057206973 0.11760884 -0.13924287 0.1589845
000090 88 89 95 3e 7d 45 fd ba 80 dc 31 3e 27 17 5e 3e
       0.2920649 -0.0019323077 0.1736927 0.2168852
0000a0 ec 0a 3e be 41 74 12 3e 24 38 8a 3c 63 70 9d 3c
       -0.18558854 0.1430216 0.016872473 0.01921863
0000b0 3c 50 8f be c7 c0 1a be 77 72 cc 3d b5 ba 2f 3e
       -0.279909 -0.15112601 0.0998277 0.17161067
0000c0 e1 b8 88 be f0 49 82 bd a3 48 3a 3e 49 0e 50 be
       -0.2670355 -0.06361759 0.18191771 -0.2031795
0000d0 b1 da 4a bd b9 d7 24 bd 2f ef 10 3e 12 75 b9 bd
       -0.049524967 -0.04024479 0.14153741 -0.090555325
0000e0 79 6e 80 bd db 67 d2 bd d1 3f 50 3e fc 51 1a 3e
       -0.06271071 -0.10273715 0.20336844 0.15070337
0000f0 f0 73 9d 3e 85 65 5d 3e a7 d8 a6 3d 82 c3 6a 3e
       0.30752516 0.21620758 0.08146792 0.22926143

conv1.att_edge f4 [1, 1, 64]
000000 bd da 91 3e 51 8b 80 be 83 3d fe 3d ff 65 1e be
       0.28487197 -0.2510629 0.12414076 -0.15468596
000010 15 03 3d 3e 87 38 68 3c 2d 8f 5f be 3e dd 62 be
       0.18458207 0.014173633 -0.21831961 -0.2215471
000020 b0 56 b9 be 0e 8f 54 be d0 9f aa 3e 5a 1b 9f 3d
       -0.3619895 -0.20757696 0.33325052 0.07768889
000030 72 f8 62 bd da ee 7c 3e 8a 49 bb bc b3 46 07 be
       -0.055412717 0.2470049 -0.022862215 -0.13210563
000040 f3 26 a0 3e 03 33 8d be 23 91 1a be 92 d7 4a be
       0.31279716 -0.2757798 -0.15094428 -0.19808796
000050 2b 06 39 3e 51 fc b0 3d 99 a0 97 bd c3 3e 02 bd
       0.18068759 0.086418755 -0.074036784 -0.031798135
000060 d1 ca 3f 3e c9 f8 00 3e c8 c6 63 3d ad 36 4c 3b
       0.18729712 0.12594904 0.055609494 0.003116052
000070 5b 32 c1 3d a9 b8 dd 3d 0e a0 b4 3d d4 c1 27 3c
       0.09433433 0.10826237 0.088195905 0.010239083
000080 68 ce 42 3e bc bc 17 3e 0f c0 62 bd 6e 72 c8 bd
       0.1902405 0.1481809 -0.055358943 -0.09787451
000090 a6 00 73 3e 87 f1 aa 3e 53 44 d3 bd 2c 4d 3c be
       0.23730716 0.33387396 -0.10315766 -0.18388814
0000a0 50 7e a5 3d 36 38 6c be 3b 55 a5 3b 77 c9 91 3e
       0.08080733 -0.23068318 0.0050455607 0.28474018
0000b0 34 5e d4 3d 00 1d 77 be fd 42 e3 3b 79 64 aa be
       0.1036953 -0.24132156 0.006935476 -0.3327978
0000c0 dc d1 57 3d e3 04 e0 3d e6 52 24 be 92 5a 51 3e
       0.052690372 0.10938432 -0.16047248 0.20444706
0000d0 43 75 55 3d 97 80 43 be b6 70 bb be 29 79 f5 3d
       0.052113783 -0.19092022 -0.3660943 0.11986
0000e0 a4 3f 44 3e 9e e6 2a bd 06 6f ac be 4b 06 93 be
       0.19164902 -0.04172384 -0.33678454 -0.2871574
0000f0 ff 5a ce 3c c2 e3 70 bd ec 8d 1e be f4 ba 10 be
       0.025189875 -0.058810957 -0.15483826 -0.14133817

conv1.bias f4 [64]
000000 00 00 00 00 ba dc a0 3c d0 5d 14 3d a0 43 31 bd
       0.0 0.0196365 0.03622228 -0.043277383
000010 21 97 2e be e0 fe 89 bd f1 98 0d be f6 0c 29 3d
       -0.17049839 -0.06738067 -0.13827874 0.041272126
000020 00 00 00 00 a2 10 78 bd ce 4b 29 be af da 65 bc
       0.0 -0.060562737 -0.16532823 -0.014029189
000030 1e 22 94 3d 00 00 00 00 90 68 5e 3d 31 d4 7d bd
       0.0723307 0.0 0.054298937 -0.06196994
000040 58 99 fd bd 06 e6 d0 3c 84 c7 f0 bc 08 2c e3 3c
       -0.123827636 0.025500309 -0.029392011 0.027730957
000050 3f d7 26 bd 0a e1 8b bd ea 08 b9 bd de 0b 07 be
       -0.04073262 -0.06830032 -0.09034903 -0.1318812
000060 00 00 00 00 ee ff a0 3c 1e 66 94 bd b8 78 97 bb
       0.0 0.019653287 -0.0724604 -0.004622545
000070 05 fb e8 bc 51 9e dd 3c c7 a7 df bd 00 00 00 00
       -0.028440008 0.02705303 -0.10920673 0.0
000080 01 f6 98 3d a5 00 8b bd 00 00 00 00 24 84 8b bd
       0.074687965 -0.06787232 0.0 -0.06812313
000090 14 00 1f 3d 12 4b 2a be 84 15 70 bc a3 19 78 bc
       0.038818434 -0.166302 -0.014653567 -0.015142831
0000a0 00 b3 b9 bc ba fc 06 be 43 9d 09 be 7b 20 cb bd
       -0.022668362 -0.13182345 -0.13438897 -0.099183045
0000b0 e9 8c 83 3d b7 2e 48 be b1 b4 12 be 67 59 3b bd
       0.06423361 -0.1954907 -0.14326741 -0.045739558
0000c0 c3 2a 16 bd 43 26 cb bd 62 be 9b bc 65 bc 2e be
       -0.036661875 -0.09919407 -0.01901168 -0.17064054
0000d0 e4 7f 97 bc fa 9f 65 3d 09 67 f5 bc 00 00 00 00
       -0.0184936 0.05606077 -0.029956358 0.0
0000e0 00 00 00 00 00 00 00 00 bf b1 c8 bd d2 d2 bb bd
       0.0 0.0 -0.097995274 -0.0917107
0000f0 c3 63 3b bd 55 ea c7 3d 1a e5 43 be cc cf 1b 3d
       -0.045749437 0.09761492 -0.19130364 0.038039967

conv1.lin.weight f4 [64, 4]
000000 c3 ec ea bd 51 5b 7f be 60 7d 84 be 95 4e 1b be
       -0.1147094 -0.24937178 -0.25876904 -0.15166695
000010 c7 18 25 bc 31 cd af be 6c 0d 15 3e b7 d8 20 bd
       -0.010076708 -0.34336236 0.14555901 -0.039269175
000020 e9 f4 aa 3d 18 67 8d be e1 68 5b 3e 01 bf 5a be
       0.08347494 -0.27617717 0.21426727 -0.21361925
000030 0a 7f 91 bc 48 54 39 be 87 eb ad be 10 f2 01 3e
       -0.017760772 -0.18098557 -0.33968756 0.12689996
000040 ac d6 23 3e 56 b9 b6 be 30 8d 9b be eb 85 09 3e
       0.1599986 -0.35688275 -0.30381155 0.13429992
000050 6f 13 81 bd fd 0c ed 3d 46 51 5a be 95 12 56 3e
       -0.06302535 0.11574743 -0.21320066 0.20905526
000060 09 b5 49 3e e5 bc c0 be 49 d5 84 3d a1 a8 23 3e
       0.19697966 -0.37644115 0.064859934 0.15982296
000070 c5 db 8d 3e 5a 4c 26 be 72 3a 46 bc 66 96 57 be
       0.27706733 -0.16240063 -0.012098895 -0.21053466
000080 23 9a bf be fe 63 8a be 7b 49 30 be 99 24 9a be
       -0.37422284 -0.27029413 -0.1721553 -0.30106047
000090 cf 55 44 3e 69 76 82 3d b4 ce ca 3c f4 2f 0e be
       0.19173358 0.06370241 0.024756767 -0.1388548
0000a0 26 9a eb 3c 2d 47 30 be 57 7e a9 3d fc ff 0a 3e
       0.028760027 -0.17214651 0.082760505 0.13574213
0000b0 aa 91 5c be 6d b5 c4 bd 57 0f 9d bd 46 b8 2c be
       -0.21539941 -0.09604917 -0.076689415 -0.1686717
0000c0 2e d2 86 be 76 61 2f 3e 43 56 ad be ad e0 4f 3e
       -0.2633223 0.17127022 -0.33854875 0.20300551
0000d0 46 2a c4 be 76 84 aa be 79 5e fa bc 2c eb 7e be
       -0.38313502 -0.33304185 -0.030562626 -0.24894398
0000e0 34 80 e1 bd 45 96 17 3e 93 63 2d bc 7e 45 35 bd
       -0.11010781 0.14803417 -0.010582822 -0.044255726
0000f0 7a d6 42 3c a8 37 28 3e e3 ef a6 be 3c 2d d8 bd
       0.0118919555 0.16427481 -0.32604894 -0.10555503
000100 7c 33 f4 bd b3 7d b0 be 2e cd 14 3e 10 f4 fb bd
       -0.11923882 -0.344709 0.14531395 -0.123024106
000110 44 de 07 bf 7e a8 e4 be 88 18 80 3c e4 eb 5f be
       -0.53073525 -0.446598 0.015636697 -0.21867329
000120 ac ec 6c 3e 4a aa b0 bd ac a2 4f 3e 5d f2 5e be
       0.23137158 -0.0862623 0.20276898 -0.21772142
000130 f5 3e 99 be 4f cc c3 be 9e 1e 44 bd 0a a6 a8 3d
       -0.29930845 -0.38241813 -0.04788076 0.082347944
000140 3c 67 15 3e 34 c3 d4 bd 93 26 82 be 05 5e c8 bd
       0.14590162 -0.103887945 -0.25420055 -0.09783558
000150 a6 ac be 3d fc 03 80 3c 92 74 a8 bd 37 ea 22 be
       0.09310274 0.0156269 -0.08225359 -0.15909658
000160 6a 2f f9 3d 06 40 e0 3b 0e 4d 78 3d 50 82 60 be
       0.12167247 0.0068435697 0.06062036 -0.2192471
000170 7f a1 21 3e 10 14 06 be 8e 34 69 be 36 f9 2e be
       0.15784262 -0.1309359 -0.22773954 -0.17087254
000180 28 71 73 bd 34 f7 e4 be 8b 04 43 bd 67 92 89 be
       -0.059434086 -0.4471985 -0.047611754 -0.2686951
000190 47 d3 9c be f7 3f 7b be b5 a2 17 3c d8 48 2e be
       -0.30629942 -0.2453612 0.009255101 -0.17019975
0001a0 6c 10 47 3d 91 21 99 3d 5c 10 a3 3d dc eb a3 be
       0.048599645 0.074771054 0.07962105 -0.32015884
0001b0 61 52 28 be da 61 3d 3e 60 79 ea bd 8e d9 84 3e
       -0.16437675 0.18494359 -0.11448932 0.2594723
0001c0 64 27 13 be 99 79 58 bc d4 1b 72 be 39 4b d1 3d
       -0.14370495 -0.013212585 -0.23643428 0.10219426
0001d0 92 ab da 3c ae 89 fa 3d b9 e7 0b be 79 87 16 3d
       0.02669314 0.122332916 -0.13662614 0.03675029
0001e0 8f 09 81 be 34 c3 41 be 1b 6b 3a 3e 27 9a 82 be
       -0.25202605 -0.1892212 0.1820492 -0.25508234
0001f0 e6 fb f5 be 22 36 2d be 8b 61 78 be 0b eb 7c be
       -0.48043746 -0.16915181 -0.2425596 -0.24699037
000200 06 e2 31 be ca 6e 4b 3e 0b 98 55 bc 2e ef 1d 3c
       -0.17371377 0.19866481 -0.013036738 0.009639544
000210 a5 07 72 be 3d 35 60 3e 16 f4 46 3e f8 b8 2e bd
       -0.23635729 0.21895309 0.19429049 -0.04265687
000220 18 04 f0 be 9c b1 62 be d2 76 92 ba f5 31 af be
       -0.46878123 -0.22138065 -0.0011174327 -0.34217802
000230 cf 62 bd bd 57 a8 0d be 90 68 cc 3d 5d 0d 21 be
       -0.09247362 -0.13833748 0.09980881 -0.15727754
000240 ae e4 c1 be 10 05 b0 be be 13 bc 3d 33 a4 b4 be
       -0.3786978 -0.34378862 0.09183453 -0.35281524
000250 ed f2 d2 bd f1 3d 49 be b6 a5 ae be 0e 14 a9 3d
       -0.10300241 -0.19652535 -0.34110802 0.08255778
000260 6a c6 7c 3c 5e 39 2e 3c b5 20 39 be da aa a7 bc
       0.015428165 0.010633795 -0.18078883 -0.02046721
000270 d3 0b 75 be 81 68 8c 3e c5 08 87 3c 97 65 90 be
       -0.23930292 0.2742348 0.016483674 -0.28202507
000280 f2 06 95 be e7 a5 2a be 9b e3 3d 3e 22 60 cc 3d
       -0.2910686 -0.16664849 0.18543856 0.099792734
000290 b7 1d 03 3e 7a 3b f4 bd 41 29 f8 bb 6b 0e 91 3d
       0.12804304 -0.11925407 -0.007573277 0.07082828
0002a0 90 a7 ad be 74 9b 44 3e 2d 4f ac 3d 34 10 97 bd
       -0.33916903 0.19199926 0.08413539 -0.073761374
0002b0 a8 81 85 be dc 29 32 bc 97 85 1f 3e 40 a2 f0 3d
       -0.26075482 -0.010874238 0.15578304 0.11749697
0002c0 d3 e4 0f be f0 2b 52 3e 47 da 7a bd c7 5d 3a bd
       -0.14052133 0.20524573 -0.06124332 -0.04549959
0002d0 ab f8 8a 3d 98 b4 29 3e c5 03 30 bd b0 6b 99 3d
       0.06785711 0.16572797 -0.042972345 0.07491243
0002e0 60 ec 87 bd 0a 61 89 3c 48 4f b0 be 8b f3 4f 3e
       -0.06636882 0.016769905 -0.34435487 0.20307748
0002f0 9b bb f6 3d 0e e2 c5 bc 24 97 f6 bc 4c cd 4b be
       0.12047502 -0.024155643 -0.030101366 -0.19902533
000300 a4 ea aa bd a0 e1 22 3e 89 68 98 3d 6a 56 8b be
       -0.083455354 0.15906382 0.074418135 -0.27214366
000310 48 82 ab bc 3c 8a da bd c8 79 e9 bb e7 3b 65 3d
       -0.020936146 -0.10670897 -0.007125113 0.05596533
000320 c9 3f 48 be cd 9b 3e be f6 67 1c 3e c2 89 12 be
       -0.19555582 -0.18614121 0.15274033 -0.14310363
000330 40 a7 23 3e c5 1d 2d be 9a d3 8f 3d 61 34 af 3d
       0.1598177 -0.16905887 0.07022782 0.08554912
000340 3f 11 44 be e1 02 13 3e e6 b9 76 be 66 a4 b2 3d
       -0.19147204 0.14356567 -0.24094352 0.08722763
000350 6f b5 15 be 6b 3d d3 be 21 81 d9 3d ef 7c 89 be
       -0.14619993 -0.41257796 0.106203325 -0.2685313
000360 47 77 8a 3d ec 72 38 bd 20 62 17 3e 96 94 e9 bc
       0.067610316 -0.045031473 0.14783525 -0.028513234
000370 9c e1 d2 be 14 2c 1a 3d 54 5b 34 be 91 09 82 be
       -0.4118775 0.037639692 -0.17612964 -0.25397924
000380 92 63 4c be 8f a8 af be 8f 96 c7 bc c9 fa e9 bd
       -0.19959858 -0.34308288 -0.024363784 -0.114247866
000390 aa 5c e7 be db 93 5e 3d 22 46 54 be 6c 7e 55 be
       -0.45187885 0.054340225 -0.20729879 -0.20849007
0003a0 20 42 24 bd 46 23 ad be 7c 2b 35 3c df 11 9a 3d
       -0.040102124 -0.33815974 0.011057731 0.0752294
0003b0 78 77 42 3e 4f 82 81 3d 09 b8 e6 3c 69 bb a3 be
       0.18990886 0.063236825 0.028163927 -0.3197892
0003c0 78 fd 1d be 2c 01 e5 3c 7c c6 26 be 28 f3 73 3e
       -0.15428722 0.02795466 -0.16286653 0.23823225
0003d0 c8 30 8f bd ad 7b a5 3d 85 cb 61 bb 42 7e ac 3b
       -0.06991726 0.0808023 -0.0034453582 0.0052640745
0003e0 88 ef 01 3e 3e 19 cd 3d 39 e8 c3 3c 1f 7b 3a bc
       0.1268903 0.1001458 0.023914443 -0.011381893
0003f0 51 e6 54 be 05 0a 6f be 45 04 81 bd 7b 17 62 3d
       -0.20790984 -0.23343666 -0.062996425 0.055198174

conv1.lin_edge.weight f4 [64, 2]
000000 0b 94 ba 3e 3b e8 42 be c8 4e e7 bc dd dc 83 be
       0.36441073 -0.19033901 -0.028235808 -0.25754443
000010 f6 48 c6 3c 38 0a ac bb c5 e2 4f 3d 89 92 32 be
       0.024204712 -0.0052502416 0.050753374 -0.17438711
000020 e1 ec 4b be 62 44 03 be f5 80 8e bd c9 31 64 be
       -0.19914581 -0.12819055 -0.0695819 -0.22284617
000030 4e 16 b4 bd 51 2e b9 3c 79 e5 07 bc c0 b7 30 bd
       -0.08793317 0.022605093 -0.008294457 -0.043143988
000040 e5 e7 46 be 8b d2 0a bc 35 0d 41 be 2f 45 90 be
       -0.19424398 -0.008473049 -0.18852694 -0.28177783
000050 69 70 0b 3e 52 ec a2 3e c1 28 47 be 67 47 2b be
       0.136171 0.31820923 -0.1944914 -0.16726457
000060 08 b1 52 3e 14 70 26 3e dd 75 22 be 2b 2d 63 3e
       0.20575345 0.16253692 -0.15865274 0.22185199
000070 b4 5e cb bd ba 7e aa 3b b9 b4 37 3d 80 16 40 3e
       -0.099301726 0.0052030953 0.044850085 0.18758583
000080 0e fa 68 3e c5 78 5d 3e cc 61 0d be 70 9f c1 bc
       0.22751638 0.21628101 -0.13806838 -0.023635596
000090 fb 14 52 3e 8d 0f 07 3e 4d d7 d8 bd ba 0e 08 3d
       0.20515816 0.13189526 -0.1058794 0.03321717
0000a0 02 47 0e 3e 6d 00 b2 3e da d5 be bd 17 97 a2 3e
       0.13894275 0.3476595 -0.09318133 0.31755897
0000b0 b8 1d b0 3d 1b c1 22 be e9 34 4f bd c7 97 53 3d
       0.085994184 -0.15893976 -0.05058757 0.051658418
0000c0 11 c6 7c 3e 8c 95 88 3d 21 1d 8c 3e a9 65 a9 3e
       0.24684931 0.06669149 0.27365974 0.33085373
0000d0 c0 91 2a 3e 6e 60 ca bd 8c b6 3f be 7f 35 2a 3d
       0.16657162 -0.09881674 -0.1872198 0.041554924
0000e0 92 b3 a8 3e f2 a0 a5 3e 54 9b 9d 3c 49 87 55 3e
       0.329495 0.32349354 0.019239105 0.20852388
0000f0 18 df 73 3e 5b ad 84 3d 2a ae 58 3e b8 57 17 3e
       0.23815572 0.064783774 0.21160188 0.14779556
000100 6b 65 4c be 8e 57 8f 3e 80 92 ec bd ec 98 4a be
       -0.19960563 0.27996486 -0.1155138 -0.19784898
000110 86 11 92 bd 28 c5 58 3d b4 2d 69 bb 47 27 59 ba
       -0.071322486 0.052922398 -0.003558022 -0.0008283746
000120 5f 6c 01 3d 4f ea 59 3d 12 f8 30 3e 60 fe 8a 3e
       0.03159749 0.05320197 0.17282131 0.27147198
000130 c4 9a 55 bd e6 c9 79 3d 47 78 d8 bc 0a 31 9a 3d
       -0.05214955 0.06098356 -0.02642454 0.07528885
000140 af 21 00 3d 66 12 6c bb ab d7 1e be ac c0 b6 be
       0.031282123 -0.0036021709 -0.15511958 -0.35693872
000150 84 07 58 3d 58 c9 d3 bd 6d f7 b3 3d b3 0d 98 bc
       0.052741542 -0.10341138 0.08787427 -0.01856122
000160 c4 89 6a bd 4a fc a1 bd 7a ae 84 bd 5d 92 0d 3e
       -0.05726029 -0.079094484 -0.06478591 0.13825364
000170 73 3e 28 3e 5b 6d 44 3e cb ae b8 be af 5f fd 3c
       0.16430072 0.19182341 -0.36070856 0.030929415
000180 ff 22 05 be 40 1e 65 3c 59 85 9a 3d ae 7c 84 bd
       -0.13001631 0.013984263 0.07544965 -0.06469093
000190 65 24 1b 3d e2 4e a9 be e5 30 9e 3e 7d c5 4b 3e
       0.037876505 -0.33067995 0.3089668 0.19899555
0001a0 e8 92 3e 3d 08 0d 91 3e 50 3f bf be bc 7f dd 3d
       0.04652682 0.28330255 -0.3735299 0.10815379
0001b0 05 72 94 be f0 33 50 be b6 07 26 be 15 99 03 be
       -0.2899324 -0.20332313 -0.16213879 -0.12851365
0001c0 36 87 15 bc 86 f6 aa 3e 86 20 83 be 8c aa 2e 3e
       -0.009126475 0.33391207 -0.2561075 0.17057246
0001d0 c8 13 c1 be 88 92 b3 3d f6 b5 a5 be 48 63 ac 3d
       -0.37710404 0.08768183 -0.32365388 0.08417374
0001e0 da d7 e6 bd 62 5d 76 3e f8 7d 7d be 7f d6 21 3e
       -0.11271639 0.2405906 -0.24755085 0.1580448
0001f0 bf f6 a5 be 14 fe 16 be 60 b0 8c 3c 16 42 15 bb
       -0.32414815 -0.1474536 0.017173946 -0.0022774986

conv2.att_src f4 [1, 1, 64]
000000 81 6b 79 3d 03 6e 56 bc 1c 76 e7 3e 52 2e 05 3e
       0.06089354 -0.013087752 0.45207298 0.13005951
000010 94 b1 44 3e 32 32 12 be 2e 7e f2 3d 75 e3 bd bc
       0.19208366 -0.1427696 0.11840473 -0.023179749
000020 dd b1 34 3e 34 9b 5f 3e 65 dd bd 3e cf 90 92 be
       0.17645974 0.21836549 0.37082973 -0.28626105
000030 2e e0 92 3e cf ee 25 bd ba 13 e2 3d 21 28 a5 3d
       0.2868666 -0.04051095 0.11038919 0.080642946
000040 81 62 be 3d 32 b3 94 be d8 87 bd be 00 75 f5 3d
       0.09296132 -0.29042965 -0.37017703 0.119852066
000050 eb 10 7f be 0b 2e d4 bd 9c 26 94 3c 38 f4 4a bc
       -0.24908797 -0.103603445 0.018084817 -0.012387328
000060 f1 78 b7 bd b8 bb 87 bd 2c 80 86 3c af 0c 57 3e
       -0.089586146 -0.066276014 0.016418539 0.21000932
000070 29 5a 99 3e 0d 61 53 be 7a b9 ad 3d ae 43 9e bd
       0.299516 -0.2064249 0.084826425 -0.077277526
000080 d1 46 35 3e eb 39 17 3e b5 3a e2 3e 31 14 cc be
       0.17702796 0.14768188 0.44185415 -0.39859155
000090 87 38 3e 3e 89 ff 67 be 41 4e a2 be 9d 4d b1 be
       0.18576251 -0.22656073 -0.31700328 -0.34629527
0000a0 59 cc 81 bd f1 89 9f 3d 08 42 7f 3e 36 ff 46 be
       -0.06337804 0.07789982 0.24927533 -0.19433293
0000b0 7d db b0 be b9 d8 ca bd 89 cc 93 bd 53 aa a9 3d
       -0.34542456 -0.09904618 -0.07216746 0.0828444
0000c0 e1 24 87 bd 67 15 02 3c 87 e6 d8 bd 33 84 c8 be
       -0.06598831 0.007939673 -0.105908446 -0.3916336
0000d0 5f 40 41 bc f5 26 c0 bd c2 c0 d6 bd a2 97 3f be
       -0.011795132 -0.093824305 -0.104859844 -0.18710187
0000e0 ef 3a 27 be 13 f5 c4 be 0b 84 bd 3d a9 ca 94 3e
       -0.16331075 -0.38468227 0.09253701 0.29060867
0000f0 61 b6 fb be a8 fc 57 3e 70 4c 4f be fd a6 bd 3d
       -0.49162582 0.21092474 -0.20244002 0.09260366

conv2.att_dst f4 [1, 1, 64]
000000 7b 8b 86 3e 5b 7a 4e bd 02 27 7e be 7c c7 ae be
       0.2627829 -0.050409656 -0.24819568 -0.3413657
000010 1b 58 96 3e 9b 6c bc bd 6f 14 98 3d dd d9 0b be
       0.29364094 -0.09200402 0.074257724 -0.13657327
000020 3f 22 d2 3d a8 5a 06 bd 45 6b 0d bc 11 cf cb 3e
       0.10260438 -0.0328013 -0.008631532 0.39806417
000030 1d 15 06 3f 3f c0 ce bb 6f 39 ea 3d b5 5c 37 be
       0.52375966 -0.0063095386 0.11436736 -0.17906459
000040 84 5d 2f 3e 69 dc 4e 3d bf d8 38 3d 8e 3b 2b bc
       0.17125517 0.05050317 0.04512858 -0.010451211
000050 02 16 d6 bd 70 b4 1b 3e f5 cd 5e 3e 22 68 d3 3e
       -0.104534164 0.1520555 0.21758254 0.41290385
000060 a5 dc 80 be c2 46 ff bd 95 6e 59 3d b3 f8 53 be
       -0.25168338 -0.12464668 0.053083975 -0.2070034
000070 a9 7e 39 be f5 a1 9b be 12 b8 b3 3d fb 5c 41 3d
       -0.18114723 -0.30397 0.08775343 0.047207814
000080 43 e8 87 3e ea 3a a6 bd 84 e8 4a be 21 aa f3 bc
       0.2654439 -0.08116706 -0.1981526 -0.02974421
000090 9d f5 90 3e 27 ce e7 3e d6 44 81 3d ea 5f 84 3c
       0.28312388 0.4527447 0.063119575 0.016159017
0000a0 7d c7 96 be 16 61 fe bc 7d 72 bc bd aa 5b 83 3e
       -0.29449072 -0.031052154 -0.092015244 0.25655872
0000b0 35 68 78 3e df 7f f3 bd 7c 52 85 be 84 24 b9 be
       0.24258502 -0.11889624 -0.26039493 -0.36160672
0000c0 c3 70 0f 3e a8 53 04 3d 0d b9 2d bd 0a 08 8c 3e
       0.14007859 0.032306343 -0.042412806 0.27349883
0000d0 06 e3 4e be cd ce 38 be eb c8 98 3d 18 80 77 3e
       -0.2020379 -0.18047638 0.07460197 0.24169958
0000e0 38 33 ae bd de 84 d7 3d fd 5c 48 3e 74 48 df be
       -0.08505863 0.10523389 0.19566722 -0.43609965
0000f0 6f 48 d9 bd b8 05 ce 3d ed 0e 93 be a7 6e 90 3e
       -0.10609519 0.100596845 -0.28722325 0.2820942

conv2.att_edge f4 [1, 1, 64]
000000 7a d9 ad bb b8 15 6b 3e 6a 0b b5 bc 94 ce c4 3c
       -0.0053054662 0.22957504 -0.02210017 0.024024285
000010 45 0d ce bd 66 f0 88 3e 42 af 4b be 74 2c 9b 3c
       -0.10061125 0.2674591 -0.19891074 0.018942095
000020 9e ea 00 be c7 4a a1 be cb e9 78 3e ec 56 07 bd
       -0.125895 -0.31502363 0.24307935 -0.03304188
000030 ba df 01 3e e3 e3 62 bd 84 ff b9 bd f1 3b 48 be
       0.12683001 -0.05539311 -0.09081939 -0.19554116
000040 0d 28 c2 be d8 d4 c9 3d 77 85 5f 3d bf ce 05 3e
       -0.3792118 0.0985505 0.05457064 0.13067149
000050 cd 5c cd 3d aa e9 99 bd 60 3f fe 3d 19 94 12 3e
       0.10027466 -0.07515271 0.124144316 0.14314307
000060 4c c9 91 3d 83 f6 81 be f8 fe 07 3d a1 42 d0 3c
       0.071184725 -0.25383386 0.03320214 0.025422396
000070 1e 35 89 bd 05 1c 9f be 42 76 ca 3e bd 51 3b 3e
       -0.066995844 -0.31076065 0.3954335 0.182929
000080 90 f4 83 be 47 a1 04 bd a0 47 08 3c 8d 05 ca bc
       -0.25772524 -0.03238037 0.008317858 -0.02466085
000090 80 dc d9 3d 28 6c a7 3e 0e 43 62 be 1a f3 2b 3e
       0.1063776 0.32699704 -0.22095892 0.16791955
0000a0 65 ac 74 be 73 61 cd bd 31 4d 9a bd 03 8b 2e be
       -0.23893888 -0.100283526 -0.07534254 -0.17045216
0000b0 4f d4 4e 3d e2 5a 78 3e 3a 0f 8e be 3b f1 a8 be
       0.050495442 0.24253419 -0.27745992 -0.32996544
0000c0 50 3f 4f 3e 6a 5f 09 bd e4 ef 24 be 17 6b 4c bd
       0.20238996 -0.03353826 -0.16107136 -0.049906816
0000d0 e1 c4 5c bc 43 4a a9 be 3f 17 7d bd 36 6c 58 be
       -0.013474674 -0.3306447 -0.061789747 -0.21135029
0000e0 ee 5c 39 3e e3 12 b8 bd a1 5f 73 3e 2d 4d cb 3d
       0.18101856 -0.08987977 0.23766948 0.099268295
0000f0 25 40 76 be d8 2a 93 bd c4 0b 70 be 51 23 81 3d
       -0.24047907 -0.07185906 -0.23441988 0.06305564

conv2.bias f4 [64]
000000 e2 6e 61 bc 6a d3 0e 3d 2a 24 96 3c 75 0a 3a 3d
       -0.013759347 0.03486959 0.018327791 0.04542013
000010 00 1a a5 3e 18 e5 0c 3c 1f 78 c3 bc a7 fe ec 3c
       0.322464 0.008599542 -0.02386099 0.028930021
000020 2a 5d 75 3c 65 16 36 3e c8 26 14 3e 30 32 72 bd
       0.014975825 0.1778198 0.14467919 -0.059129894
000030 4f a0 ac 3d e1 69 69 3c ad 91 88 3c f3 de 99 3e
       0.08429014 0.014246435 0.016671026 0.3005291
000040 a5 f8 73 3c 1b 9f 7b bc 67 0e 37 bd 7b 0e 58 3e
       0.014890824 -0.015357758 -0.04469147 0.21099274
000050 18 45 92 bd 68 c7 b7 bd e9 47 92 3d bd 94 4d bd
       -0.07142085 -0.089735806 0.07142622 -0.050190676
000060 8f ea 7b 3c a4 e5 8a bd 50 54 31 bd 5b 01 73 3e
       0.015375747 -0.06782082 -0.043293297 0.23730986
000070 e8 3c 2f 3d e2 23 7f 3b 3f 62 0d 3d 0c 82 d8 bc
       0.042782694 0.00389313 0.034517523 -0.026429199
000080 53 5c 13 3e 58 a1 fa 3b 2b 96 dc 3c 8a 1f 9a be
       0.14390688 0.007648628 0.026927074 -0.30102187
000090 71 bb 8a 3c 21 89 16 bd b9 14 34 bd 5c eb 21 bd
       0.016935082 -0.03675187 -0.043965075 -0.039531097
0000a0 70 70 ca 3b 35 0f 68 3c fc e7 6b 3c 5a 77 d1 bd
       0.0061779544 0.014163782 0.014398571 -0.10227843
0000b0 52 66 88 be fc 63 78 be c6 98 44 3c b3 d5 b3 3d
       -0.26640564 -0.24256891 0.011999315 0.08780994
0000c0 bd c7 c4 bd f2 3e a2 bd 34 ff bb bc 19 ad 89 bc
       -0.096084096 -0.07922162 -0.022948839 -0.016806172
0000d0 30 e4 86 bc 2b 9b 04 bd ff 79 b1 bc d9 48 db bc
       -0.01646623 -0.032374542 -0.021664618 -0.026768135
0000e0 10 79 fc bc 84 4a d4 bc 2f 55 2e bd dd 83 ce 3c
       -0.030819446 -0.025914438 -0.042561706 0.025209362
0000f0 2d 6d 51 bd e6 31 c5 3d 4b 64 b7 bd 46 e4 05 bd
       -0.05112951 0.09628658 -0.08954676 -0.0326884

conv2.lin.weight f4 [64, 64]
000000 52 f2 8b bd 1b 55 e0 bb 90 34 c8 3d b3 54 f5 bd
       -0.06833328 -0.006846083 0.097756505 -0.11979046
000010 cb d0 d3 3c dd 10 c7 3d c9 7f f0 bd 31 13 08 3e
       0.025856396 0.09720013 -0.11743123 0.13288571
000020 88 85 49 bd c9 da c4 3d 3b 1e 26 be 88 ec cf bd
       -0.04919961 0.096120425 -0.1622247 -0.10152537
000030 6d ec 23 be 10 b5 d9 3c b1 19 08 3e 03 60 a0 bd
       -0.16008158 0.026575595 0.1329105 -0.07830813
000040 a8 c5 e1 bb 02 05 2f 3d 1b c8 15 3d 7b be cc 3e
       -0.0068900175 0.042729385 0.03656779 0.39989075
000050 2f 9f 40 3d 53 31 b7 3d 3f 2b d8 3d d1 7a 0d be
       0.04702681 0.08944955 0.105551235 -0.13816382
000060 a0 dc a2 bb e4 6b 80 bd ba ec 06 be 67 25 88 bd
       -0.004970148 -0.062705785 -0.13176242 -0.06647759
000070 e1 2d 20 3e 29 97 c1 3d 64 3b bf bb e4 1c 7b 3d
       0.15642501 0.0945266 -0.0058359373 0.06130685
000080 79 4a 8b be 83 ad a9 3d 15 66 c5 bd 1c ed e4 3d
       -0.27205256 0.08285048 -0.09638611 0.111780375
000090 03 39 d6 3d 84 e3 1a be 3c 7a 35 be 61 a4 e4 bb
       0.10460093 -0.15125853 -0.1772241 -0.0069776033
0000a0 4e 43 2c 3d 26 8c 62 be 7e a0 9d 3c 27 6f 00 be
       0.042056374 -0.22123775 0.019241568 -0.12542401
0000b0 dc 2d 36 be 70 3e f8 bd 41 ae 02 be 8b 77 f8 3d
       -0.17790931 -0.12121284 -0.12761785 0.12132176
0000c0 40 39 7c 3c b9 24 3d bc 4b 3a 02 bd cc 60 3a 3e
       0.015394509 -0.0115444 -0.031793874 0.18200988
0000d0 ec f9 b1 bd 49 40 97 bb 3c 8c f7 3d 44 7f 1d 3d
       -0.08690247 -0.0046158177 0.120872945 0.038451448
0000e0 78 42 16 be e8 73 a2 3c 0d 32 c4 3d 7b 76 0e 3e
       -0.14673793 0.019830659 0.09579859 0.13912384
0000f0 d3 ef 1b 3e c1 58 7a be 82 7f e0 bb 72 0e 38 3e
       0.15228204 -0.2444792 -0.0068511376 0.1797426
000100 ac 43 5f 3d 4a a4 08 bd c9 d3 81 3e d3 76 fb 3d
       0.054507896 -0.033359803 0.25356892 0.12278523
000110 69 e4 bd bd e8 91 9e 3d 2d 3c eb 3d 86 c3 8e be
       -0.092720814 0.07742673 0.11486087 -0.27883548
000120 f4 65 9c bd 23 8b c6 3d fb b5 dc bc a2 e3 bb 3d
       -0.076366335 0.09694507 -0.026942244 0.09174277
000130 1e 79 1b bc a0 96 00 bc 7e 16 83 3d 8d 58 8c be
       -0.009489326 -0.007848412 0.064007744 -0.2741131
000140 02 0c 10 be 49 35 b2 3c 80 cd 4b bd 81 ef 2f 3d
       -0.1406708 0.021753924 -0.049756527 0.042953018
000150 32 2c 9d 3d a4 c0 c9 bd 1e 67 65 be 59 71 63 3e
       0.07674445 -0.098511964 -0.22402617 0.22211207
000160 55 4d 59 3e 63 8a 06 be e3 9d 91 bd 93 6c 42 bd
       0.21220906 -0.13138728 -0.071101926 -0.047466826
000170 40 35 0c bd a2 a0 01 3e cd 7e 21 bd a5 ec 3a be
       -0.03423047 0.12658933 -0.039427567 -0.18254335
000180 b4 41 dd bd 63 bc 89 3d d3 84 22 3e c4 05 36 3e
       -0.108035475 0.06725385 0.15870981 0.17775637
000190 88 b3 2f 3d 1e f4 1f be 14 00 6d bd 82 6d 4f 3e
       0.042895824 -0.15620467 -0.057861403 0.20256618
0001a0 31 f7 ac bd 90 94 f1 3c 04 07 03 3e eb 1d ff 3c
       -0.084455855 0.029489785 0.12795645 0.031142196
0001b0 e0 0e f9 bd 10 23 32 bd d7 34 05 be b6 7d 68 be
       -0.1216104 -0.04349047 -0.13008438 -0.22704205
0001c0 50 e7 ff bd 33 c3 ce bd b4 87 3b bc cc dc 97 bd
       -0.12495291 -0.10095825 -0.011445928 -0.074151605
0001d0 8d 12 b8 3c 6a 44 49 bd 33 8f e9 bd 0e 1e f7 3d
       0.022469783 -0.04913751 -0.11404266 0.12066279
0001e0 08 da b9 3c a4 e4 59 bd a3 ca 09 bd 93 66 98 3d
       0.022686973 -0.053196564 -0.033640515 0.074414395
0001f0 cd 58 1a 3d e5 f9 28 3e bb 99 d7 3d d9 aa 53 3e
       0.037682343 0.16501577 0.10527369 0.20670642
000200 1b 5b 06 be 66 b4 6d 3d 02 a2 68 bd 02 cf 7a 3d
       -0.13120691 0.05803337 -0.056795128 0.061232574
000210 15 9f 1e 3d d9 a0 2e 3e 6b c6 95 3d 00 51 a8 3e
       0.03872593 0.17053546 0.07313236 0.32874298
000220 96 a4 d5 3d 32 a8 03 3d ce 2c 48 be b3 f5 4b 3e
       0.10431783 0.032142825 -0.19548342 0.19917946
000230 ad a9 01 3e eb 7f 13 be 94 0e e5 3c b1 53 52 be
       0.12662382 -0.14404266 0.027961053 -0.20539738
000240 e5 69 ad bd 59 b1 f2 bd e3 58 a7 bd d3 e4 ff 3d
       -0.084674634 -0.11850233 -0.08171251 0.12494817
000250 b9 63 3d be d1 28 80 bd 33 77 1e be a2 5c 8a 3d
       -0.18495072 -0.06257785 -0.15475158 0.067559496
000260 66 a1 af 3d 5a cd a0 bd a2 5b 4f 3c f2 dc d3 3b
       0.08575706 -0.07851668 0.012656124 0.0064655477
000270 60 ce 4f be 25 a6 99 3d d2 4d 18 be 9e d3 17 be
       -0.2029357 0.07502393 -0.14873436 -0.1482682
000280 2b cd 66 be 7a 8d 7a bd 59 93 12 3e 2a 14 16 bd
       -0.22539203 -0.06117008 0.14314021 -0.036640324
000290 5a 17 a8 3d 21 50 08 be ef 6a 06 bd f0 0a 41 3b
       0.08207579 -0.13311817 -0.032816824 0.0029455982
0002a0 55 ef be bc 8a dc dc bc bb 78 ca 3d 09 1b 7a bc
       -0.023307482 -0.02696063 0.09886309 -0.015265235
0002b0 75 72 a8 bc aa 42 30 3c 06 95 0a 3e 15 1e 8e 3d
       -0.02056239 0.010758081 0.1353341 0.069393314
0002c0 b4 09 b9 3d 5d 7d 30 be 39 75 2c be 9b ae b2 bd
       0.09035054 -0.17235322 -0.16841592 -0.087247096
0002d0 8e 1d f4 bd 64 ce 23 3e 17 23 4a 3e 2b d5 17 be
       -0.119196996 0.159967 0.19739948 -0.14827411
0002e0 9c de ee bd 28 6b 22 be f1 c8 4c be 97 1d d0 bc
       -0.11663553 -0.1586119 -0.19998528 -0.025404735
0002f0 51 ee 10 be 1c 96 a6 3d bb 19 07 be a0 78 ae 3c
       -0.1415341 0.081341 -0.13193409 0.021297753
000300 0c 2b a1 bd e4 d3 65 3d b9 64 5a 3e d5 95 85 bd
       -0.07869539 0.056110278 0.21327485 -0.06522719
000310 c5 8c 9a bd ca d3 c6 bd 82 d9 21 be 2e e4 3b be
       -0.07546381 -0.09708364 -0.15805629 -0.18348762
000320 4f f2 28 be 36 bb 1a be 59 c7 4e 3e 97 e5 f5 bd
       -0.16498683 -0.15110478 0.20193233 -0.120066814
000330 01 a4 12 3e 3e a4 2b be 4a bc a4 3e 27 b9 e1 3d
       0.14320375 -0.16761872 0.32174903 0.11021643
000340 c0 bc 99 3d 9f 0b 01 3e aa 6c b1 bc a4 3b e6 bd
       0.07506704 0.1260209 -0.02165826 -0.11241844
000350 60 f0 04 be 13 51 1c 3e 76 a1 67 be 60 86 87 3d
       -0.12982321 0.15265302 -0.22620186 0.06617427
000360 e0 1d b8 3b 88 b1 e6 3d a1 75 6b bd 36 ad 68 3d
       0.0056187958 0.1126433 -0.057485227 0.05680581
000370 bd 5e 1d 3d 6a 00 aa bd 90 dd 5d 3d 59 75 2f be
       0.038420428 -0.0830086 0.054166377 -0.17134608
000380 96 80 84 3d ba 24 92 bc d0 c8 2e bc b3 29 e0 3c
       0.06469838 -0.017839778 -0.010667995 0.027363634
000390 c2 e8 49 be 2c eb 1c 3e 30 f9 dc 3d 00 e1 2a 3d
       -0.19717696 0.15324086 0.10789716 0.041718483
0003a0 1d 25 45 3d d4 5b 27 be b8 e8 e5 bd c7 68 58 bd
       0.048131097 -0.16343623 -0.11226028 -0.0528343
0003b0 ee 2d 8d 3e 38 8e 21 3a dc 8b 19 be 0b c2 6a be
       0.27574104 0.0006162855 -0.14994758 -0.22925584
0003c0 17 ec 2e be 91 c7 4a be 5b 3c db bd 4b 55 fa bd
       -0.17082249 -0.19802691 -0.10704871 -0.122232996
0003d0 10 ee 54 3e 98 7e 8d be 2a 43 0e 3e d2 cf da 3d
       0.20793939 -0.27635646 0.13892809 0.1068417
0003e0 58 5e ae 3c b4 44 17 bd 2f bb 6a 3e 68 17 1d 3d
       0.021285221 -0.036930755 0.22922967 0.0383524
0003f0 81 f0 a7 3d c8 76 07 3e 86 5d fb bd e6 28 4d be
       0.08200169 0.13228905 -0.122736976 -0.20035133

conv2.lin_edge.weight f4 [64, 2]
000000 9f 63 72 bc fc 1b 4f 3c 3d 43 68 3e 19 56 5e be
       -0.014794259 0.012640949 0.226819 -0.21712531
000010 43 53 2c be 3d 5b 57 bb 71 48 7d 3d 70 75 3d bd
       -0.16828637 -0.0032860779 0.061836664 -0.046254575
000020 54 ae fb 3d 5b b4 36 3e de e7 b6 3d 2c f5 84 be
       0.1228911 0.17842238 0.08930944 -0.259683
000030 18 4e 41 3e 06 e6 0c 3b 61 92 9b 3d 82 d4 7d bd
       0.18877447 0.002149941 0.07596279 -0.06197024
000040 93 c8 ac be 41 53 ea bd c7 ef b0 be 29 04 20 3e
       -0.33746776 -0.11441661 -0.34557936 0.15626587
000050 41 72 56 3e c9 9a 7d 3e aa b3 20 be be ff 87 3d
       0.20942022 0.24766077 -0.15693536 0.06640576
000060 a4 98 5b 3e 62 d4 7e 3c 35 ac 08 3e 6b e0 7b 3e
       0.21444947 0.015553566 0.13346942 0.24597327
000070 61 c3 99 be 3f e8 65 3e 2e cf 99 be ea 1a 53 3e
       -0.30031875 0.22451876 -0.30040878 0.20615736
000080 ad d1 82 be e9 9e 17 3e 81 52 16 3d f3 33 86 3d
       -0.25550595 0.14806713 0.036699776 0.06552877
000090 73 bb 56 be 07 07 ea 3d ac 02 ca 3d 0c 28 19 3d
       -0.20969944 0.114271216 0.09863791 0.037391707
0000a0 0c 62 eb 3d 4d f6 52 bd d3 08 a4 be 8d 40 17 3c
       0.1149331 -0.051504422 -0.32037982 0.009231699
0000b0 50 f6 72 3e 0a 69 82 be 36 06 83 3e 19 cd 81 3e
       0.23726773 -0.25470763 0.25590676 0.2535179
0000c0 b0 de 1c bc 7d 9a 63 3d d2 71 83 be 05 ee 50 3e
       -0.009574577 0.055567253 -0.25672776 0.20403297
0000d0 ed de 77 3e 6f 31 81 be a0 fb 21 3e fc f8 17 be
       0.24206133 -0.25233027 0.15818644 -0.14841074
0000e0 fb e5 73 be b5 f6 18 3e 4d 53 7d be d0 a5 c5 bd
       -0.238182 0.14937861 -0.24738808 -0.09650767
0000f0 0e 12 b7 3e 45 09 45 be d7 2b 9b 3e 9d a6 02 3e
       0.35755962 -0.19241817 0.30306885 0.1275887
000100 8c d2 8f bd 44 0c 9c be fc 6f b3 bb f0 27 55 3d
       -0.070225805 -0.30478108 -0.005475996 0.05204004
000110 5a e4 ba 3c 3d 0c 92 bc 2d 15 ba 3d 75 1f 02 3e
       0.022813965 -0.017828101 0.0908607 0.12707312
000120 11 77 a7 3b 8e 6b 28 3e b1 cf bb 3e 21 53 47 be
       0.0051106294 0.16447279 0.36681893 -0.19465305
000130 97 11 32 3d 22 83 7e be a5 17 28 3d e1 88 40 bd
       0.043473806 -0.2485471 0.041038174 -0.047005538
000140 18 3e 08 be be 5c 6d be 15 3d 66 bc 4f 54 7c bd
       -0.13304937 -0.2317991 -0.014052649 -0.06160384
000150 58 9c 7f be de 50 b4 bc 43 f8 0a be 77 75 54 3e
       -0.24961984 -0.022011217 -0.13571267 0.20747934
000160 9e db 55 be fa e6 84 3e 2f 86 4b 3e 8a 38 f4 bd
       -0.20884559 0.2595747 0.19875406 -0.119248465
000170 68 6d e5 bd ea d3 a2 3d 2b 48 ab be bd e6 69 3e
       -0.11202508 0.07950576 -0.33453497 0.22841926
000180 cb 58 ce 3d 92 96 83 be 8f 6e c2 bc b8 be b2 3c
       0.1007553 -0.25700814 -0.02373436 0.021819457
000190 a2 e1 9b bd 75 c5 85 be cc 85 47 bd 12 83 19 3e
       -0.076113954 -0.2612721 -0.048711583 0.14991406
0001a0 fd d9 9b 3d ec 66 20 3d c5 9b 1d be 00 4b 22 be
       0.07609937 0.039160654 -0.15391453 -0.15848923
0001b0 6d d0 14 3e a1 e3 9d bd 63 86 32 3e e2 6c 44 3e
       0.14532633 -0.077094324 0.17434077 0.1918216
0001c0 56 35 58 3e 0a 39 bf 3d 2d c2 70 be d5 b8 1d 3e
       0.21114096 0.09337051 -0.23511572 0.15402539
0001d0 3d b9 93 3e 47 1f 40 3e 47 78 60 bd 9d 3c 12 3e
       0.28852263 0.18761931 -0.054802205 0.14280935
0001e0 c3 09 9e be d6 54 43 3e 77 fc 06 be 78 0a 3b 3e
       -0.30866823 0.19075331 -0.13182245 0.18265712
0001f0 5b 95 bd bd c0 e5 4c 3e 61 fe 34 3e df b6 27 be
       -0.09257003 0.20009518 0.17675163 -0.16378354

fc.weight f4 [2, 64]
000000 4c 74 b0 bd 55 50 ed 3c 39 9a 4b 3d 55 fb 8c 3c
       -0.08615932 0.02896897 0.049707625 0.017209688
000010 ce 8e c7 3d 0f 4a 76 bc 1a 9e eb 3b 8c a9 3b 3d
       0.09744035 -0.015032305 0.007190478 0.04581599
000020 d9 33 b4 bc 4e 14 89 bd e6 9f d8 3c 38 43 8a 3d
       -0.02199738 -0.06693326 0.026443433 0.06751102
000030 c9 a4 fc 3a 57 c8 31 bd ff 79 83 bb 43 77 26 bb
       0.0019275184 -0.04340395 -0.004012346 -0.0025400675
000040 f8 a3 51 3d 9f 87 07 3d 4a e5 6e 3d 7e 5f d7 3d
       0.051181763 0.033088323 0.058324136 0.105162606
000050 8d 29 28 bd 98 d0 0d bc 8b 34 6d 3d e0 77 d7 bd
       -0.04105525 -0.00865569 0.057911437 -0.10520911
000060 94 bd 41 bc fd 4e be bd d3 0f 6e 3d 3a c5 3d bd
       -0.011824984 -0.092924096 0.05812056 -0.046330668
000070 15 03 48 3d 9a 79 99 3d 3e 38 ae 3d 45 d0 24 3d
       0.048831064 0.07493897 0.08506821 0.040237684
000080 b5 87 17 bd 54 86 59 bd 86 0a 6b bd cc 84 4e bd
       -0.036994655 -0.05310662 -0.057383083 -0.050419614
000090 29 0b 26 bd b8 9c 47 3b f5 d3 a1 bd dc ab 6a 3c
       -0.040537987 0.0030458402 -0.07901756 0.014323201
0000a0 f0 20 b3 bb da 60 24 bd cc 6c 96 3d 57 83 1f 3d
       -0.005466573 -0.040131427 0.0734497 0.038943615
0000b0 6e 44 2e 3d 6b 56 be bd b8 d8 a0 bd ca a3 8d 3d
       0.04254573 -0.09293827 -0.07853836 0.06916006
0000c0 72 9c 7d bd 98 58 b9 bd 71 53 30 3d 84 a5 a1 3d
       -0.061916776 -0.09050101 0.043048326 0.07892898
0000d0 d1 9b 66 3d ea 00 1c bc 9b ca a0 bd 80 07 3b bd
       0.05630094 -0.009521702 -0.07851144 -0.04566145
0000e0 ed 0d d5 bc 64 d6 76 3d 0a 78 4b bd bf d5 93 bd
       -0.026007617 0.060263053 -0.049675025 -0.07218503
0000f0 5f 6e 5b bc 16 a5 c8 3d 94 ff 0c bd 32 bf 47 bc
       -0.013393014 0.09797113 -0.034423426 -0.012191581
000100 76 b3 ae bd a4 b5 07 3d cc b9 5b bd e9 a4 40 3d
       -0.08530323 0.03313221 -0.053643987 0.04703227
000110 64 03 c5 3d 73 29 bb bc 53 1c 12 bd b2 2a 21 3d
       0.09619787 -0.022846913 -0.035671543 0.039347358
000120 85 c9 c2 bc f6 fb 9a bd 0f bd b6 3c 56 66 4d 3d
       -0.023777733 -0.07567589 0.022306947 0.050146423
000130 a9 92 29 bc 11 bb 2c bd 6f c6 ba bb 5a 4d cd bb
       -0.010349908 -0.042170588 -0.0056999247 -0.0062653245
000140 56 54 e1 3c 26 71 81 bd 98 0b 31 3d 91 a2 ce 3d
       0.027506035 -0.063204095 0.043223947 0.10089601
000150 49 1d 85 bc 44 db f8 bb f0 b3 6b 3d 5f 7e f3 bd
       -0.016249316 -0.007594498 0.05754465 -0.11889338
000160 66 f8 eb ba 89 ee dc bd 41 72 80 3d 9b 20 1e bd
       -0.0018003106 -0.107876845 0.06271792 -0.038605314
000170 72 2b 32 3d d0 32 68 3d 0e 9d a6 3d 6b 51 8e 3d
       0.043498464 0.056689084 0.081354246 0.06949123
000180 91 be 0d bd 55 63 01 bc 32 de ca 3b 3f 01 26 bd
       -0.034605566 -0.007897218 0.0061910385 -0.040528532
000190 57 8a 3d bd 14 99 0f 3c b3 a0 66 bd 82 1f 0b bd
       -0.04627451 0.008764524 -0.0563056 -0.033965595
0001a0 a4 98 ab bb 48 34 2d bc 89 f0 1f b9 14 20 15 3d
       -0.005236702 -0.010571547 -0.00015253028 0.036407545
0001b0 e8 03 5e 3d 4d b6 a0 bd 4e 51 68 bd 33 29 87 3d
       0.054202944 -0.07847271 -0.056718163 0.06599655
0001c0 d9 42 66 bd 34 4e ba bd d2 91 d7 3b a2 4d 9c bc
       -0.056216095 -0.09096947 0.0065786624 -0.019079987
0001d0 e0 b4 98 3d 2b 89 65 bb 69 69 b3 3c 92 69 3d 3d
       0.07456374 -0.0035024385 0.02190085 0.046243258
0001e0 ef 20 c9 bc 85 14 f8 3b 48 30 23 bd 67 6a 1a bd
       -0.024551837 0.0075708055 -0.039840966 -0.03769913
0001f0 5c 02 c4 3c fc 25 cc 3d 54 92 b9 bc 2c 3b 74 3c
       0.023926906 0.099681824 -0.022652782 0.014906686

fc.bias f4 [2]
000000 2c 2d 1e 3c a8 02 ef bd
       0.0096543245 -0.116704285
