saved_models/gat4.pt (torch, 25014 bytes, 14 tensors)

conv1.att_src f4 [1, 1, 64]
00000000: 6a3b 493f 1aaf df3d c12d 0b3e 687a a5be
00000010: 94fe 9d3d 5aaf 7f3e 812e 09bf db3b 59bf
00000020: 64eb b3be e51f 89bd 46da 12bf bd28 013b
00000030: e4af 21bf 031e df3e f868 6cbf 8b1f a5bc
00000040: c82f 80be 051c 023f 2478 91bd 13b6 163f
00000050: fb4e 84be d577 2fbd 3976 1b3e 3a9a 293e
00000060: 4824 9dbd a355 9d3e 51f2 1e3e c2ae d7be
00000070: ae3c 8bbe d68e 96be 5b6a 573d add0 0e3f
00000080: 57c6 273f 50a6 ba3e 6275 fb3e 0971 1d3f
00000090: 8a2f 28bf e893 83be 18c0 333c cb0d 44be
000000a0: a797 193e 2ccb 043f 4fc0 aebd 1237 1f3f
000000b0: fde7 3dbf d0e7 5cbf ff48 d8be ab64 8bbf
000000c0: 3b7c 1dbd 24e1 2cbe 6b74 fbbe 8c6d 9f3e
000000d0: 4dfc 2c3f 4be7 bdbe 5e1e 403f 4303 083f
000000e0: df23 e43b 1447 63bf 964c 61be f775 69bf
000000f0: e63d acbd 6cb1 d8be f9ef 053f 14e8 06be
0.78606284 0.1092207 0.13591672 -0.3231995 0.077145725 0.24969235 -0.53586584 -0.8485696
-0.35140526 -0.066955365 -0.5736431 0.001970812 -0.6315901 0.43577585 -0.9234767 -0.020156642
-0.25036454 0.50824004 -0.07102993 0.58871573 -0.25841507 -0.04283889 0.15181817 0.16562739
-0.07672936 0.30729398 0.15522124 -0.42125517 -0.27194732 -0.2940585 0.052591663 0.55787164
0.6553702 0.3645501 0.49112993 0.615006 -0.6569754 -0.2569878 0.010971092 -0.19145887
0.14999257 0.51872516 -0.08532774 0.62193406 -0.7418211 -0.8629122 -0.42243192 -1.0890096
-0.038448554 -0.1688276 -0.49112257 0.31138265 0.6757248 -0.37090525 0.75046337 0.53129977
0.006962284 -0.8878033 -0.22001871 -0.91195625 -0.08410244 -0.42322862 0.52319294 -0.13174468

conv1.att_dst f4 [1, 1, 64]
00000000: 8599 47be 225f 64bd 063e 96bd c51f 84bd
00000010: 9951 7bbd 5ab3 4c3d d28f e53e bd2a b43e
00000020: 2fd3 093e c669 613e 416d 4cbc 5640 57bd
00000030: e946 583e d9ab b1be 754d 933d cc12 583e
00000040: 48ce 903e 74ce b0be b264 383e 9238 30be
00000050: 5800 983e 02cd e53e b83e fa3a 8a90 553d
00000060: 6383 863e 1910 e9be 0c91 acbc 2d57 ac3e
00000070: 7baf a03e 0212 953e 7131 193c 821e f9be
00000080: f06c bfbe d3cf d7be 5e37 acbe 60f4 36be
00000090: ec6b 6c3e beba 503e 8f23 72bc 2996 60be
000000a0: 863c d1be 5550 b8be 364d 8cbd e7f1 46be
000000b0: 8fb6 d53e 4be2 d43e 3bff 553e e685 8c3e
000000c0: 5f8c d73e 7574 ae3e 7a18 8e3e e810 bdbe
000000d0: 656a 853d c584 423e 8018 9bbd 4a79 0bbd
000000e0: d935 1bbd 123e 6f3e 6f65 f03e 4d23 8b3d
000000f0: 71d3 6bbd 1dfd bb3e 46e3 02be 265b c23e
-0.19492157 -0.05575479 -0.07336049 -0.06451372 -0.061357114 0.04997573 0.4483629 0.35188857
0.13459466 0.22013006 -0.01247722 -0.05255159 0.211208 -0.34701422 0.07192508 0.2110092
0.2828238 -0.3453251 0.18007162 -0.1720908 0.29687762 0.4488297 0.0019092178 0.052139796
0.26272115 -0.45520094 -0.021065257 0.3366026 0.3138388 0.291153 0.009350167 -0.48656088
-0.373878 -0.42150745 -0.33635992 -0.17866659 0.23088044 0.20383736 -0.014778986 -0.21932282
-0.40866488 -0.35998788 -0.06850664 -0.19428216 0.41740844 0.41578898 0.20898144 0.27445906
0.42099282 0.34073225 0.2775305 -0.3692696 0.06514434 0.1899596 -0.075730324 -0.034051217
-0.03789315 0.23363522 0.46952388 0.067938425 -0.057574693 0.36716548 -0.1278201 0.37960166

conv1.att_edge f4 [1, 1, 64]
00000000: 896b cf3d bc62 903e adbb 15be 0b7f 89bd
00000010: ac50 83bd 74a4 8cbe d741 fabc 4adb 253d
00000020: 1603 123e 6c76 b2be cbee 89bc c0d2 e83d
00000030: fd2c 943c 1b88 62be 14e7 22be 7919 2cbd
00000040: 2ab2 923e d213 5abd fa30 52be 013a 41bd
00000050: 66fc bebd cc92 88be c9c8 83be 084e b7bd
00000060: 7db4 1b3c 21c6 243e 4868 6dbe 2d6e 55bd
00000070: a6e3 313d 42d8 e83d 0c7b 92bd 2672 543c
00000080: e226 473d e81d c43d 442b fe3a de4f 68bd
00000090: 7047 9dbd 50ad 893e a347 25be 03f2 173e
000000a0: 46e6 3a3e 0087 61be 533e 80be 0782 9fbe
000000b0: c47d 57bb 5e19 a4bd 91d7 bfbe 16b7 893e
000000c0: a95c 70be f7fc bcbb a8c7 1b3e cc94 253e
000000d0: 9724 553e da04 9a3e ec44 35be 4130 2dbd
000000e0: f32e c7be 002c c03d b5a8 97be ce42 753e
000000f0: bee6 30be 0650 973e 2b29 c23e f70a ca3e
0.101279326 0.28200328 -0.14622374 -0.06713685 -0.06411871 -0.27469218 -0.030548973 0.040492333
0.1425899 -0.34855974 -0.016837498 0.11368322 0.018087858 -0.22122233 -0.15908462 -0.04201648
0.28651553 -0.05324156 -0.20526496 -0.047174457 -0.09325485 -0.26674497 -0.25739124 -0.0895043
0.009503481 0.16091205 -0.23184311 -0.052107025 0.043429993 0.11369373 -0.071523756 0.012966668
0.048621066 0.09576017 0.0019391556 -0.056716792 -0.07679641 0.2689004 -0.16140608 0.14838414
0.18251905 -0.22024155 -0.2504755 -0.3115389 -0.0032881359 -0.08012651 -0.37469152 0.26897496
-0.23472847 -0.0057674604 0.15212882 0.16170043 0.20814739 0.30081826 -0.17702073 -0.042282347
-0.38903007 0.09383392 -0.296209 0.23951265 -0.17275521 0.2955324 0.37922034 0.3946149

conv1.bias f4 [64]
00000000: 9e27 21be 7b85 ce3d fd9d a73d 53f7 293c
00000010: 2644 44bb 35f8 ad3d dab3 85ba b3b3 983d
00000020: 94ff 9ebe 9c26 c939 c7d0 d2bb 7424 94bd
00000030: 8c8f 573b 532c e8bd 709c aa3d 8833 debd
00000040: 8ce7 50bd 7fe8 ea3b c87c b4bc da0e bbbe
00000050: 320d 57bd b043 1fbe 1e56 0bbd 40df 8ebc
00000060: aa73 fdbd 5b83 22be 3e3b 09bd a9c8 1e3b
00000070: 2041 423d b616 e3bc 429a 13be c6e1 1cbe
00000080: ba99 79be 4edf e83d e9db 26be ab14 38be
00000090: cebb 21bd f10a acbc 7620 1dbe c5cc 6dbe
000000a0: 11db aebc c20c 43be 4179 fdbb 8098 2ebe
000000b0: 059d 7d3e 3ca4 6fbe d94e 0cbd e999 48bd
000000c0: fee7 d93b 136d cebc 7d35 123d 6f88 cfbd
000000d0: 751a 2abe f149 073d f855 07be 1ea3 a4bd
000000e0: c832 573c 477b e23c dc6f 1ebe fbab 9abd
000000f0: 5cf1 29be 6ee3 3dbd 67a1 b2be 9b13 b3bc
-0.15737769 0.10084053 0.08184431 0.010373908 -0.0029947846 0.08494607 -0.0010200695 0.0745615
-0.31054366 0.00038366474 -0.0064335796 -0.072335154 0.0032891957 -0.11336579 0.08330619 -0.108496726
-0.05100207 0.007168829 -0.022032157 -0.36534768 -0.05250282 -0.15553164 -0.034017675 -0.017440438
-0.12375577 -0.1587042 -0.033503763 0.002422849 0.04742539 -0.02772079 -0.14414313 -0.153205
-0.24375048 0.11370717 -0.16294827 -0.17976634 -0.039485745 -0.021001311 -0.15344414 -0.23222645
-0.021344693 -0.19047835 -0.007735402 -0.17050362 0.2476693 -0.23402494 -0.034254882 -0.048974905
0.00664997 -0.025198495 0.03569554 -0.101334445 -0.16611655 0.0330295 -0.13216388 -0.08038925
0.013134666 0.027646674 -0.15472358 -0.07552334 -0.16595978 -0.046359472 -0.34888765 -0.021859935

conv1.lin.weight f4 [64, 4]
00000000: 6c3b 63be 2c3e 2fbd f8c0 873e 1b96 f13e
00000010: 1426 a4be 7a10 89bb bcb9 68be 99b5 58be
00000020: 91a1 1ebe a2cb dabd ad78 48be e7a3 1fbe
00000030: e155 21be 1157 813e a21e f6be ff31 44be
00000040: 55b7 bbbd 0b01 0a3e 3b9f b9be dea0 04be
00000050: d4c9 58be 31d1 25be 870c 97be 70c8 64be
00000060: e74a dc3e 2182 12be 9c13 eb3b eedf 8c3e
00000070: c974 873e 4eec 9d3e 0d4c 31bd 23a2 16bf
00000080: 1d8e c43b 698d af3d f7c7 62be f200 b7be
00000090: e434 4cbe ab1b 8e3e a11d a5be e38d 88bb
000000a0: 6b5a cb3e 9081 00bd 203d 0fbd 77bf d4be
000000b0: a2dc 863e c094 6abe 2421 803d 7492 bf3e
000000c0: a651 773e 593b 2d3e b914 0dbd 380e f1be
000000d0: a8b2 39be 7665 be3d ad19 913e 77e1 c33e
000000e0: 21fc 453e 1c52 013f e85e 60be e0c7 67be
000000f0: 6da8 003e 4388 28be 1ed0 7bbd 8f06 ef3c
00000100: 7181 a83e 1493 3ebb 8c8e 17bd cad0 bb3e
00000110: c1d3 a8be 1276 753e afe2 a53e 0caf 92be
00000120: 9b39 ce3e 0405 0ebe 43be 6ebc 95be 8e3e
00000130: d342 4bbe 5366 b63c 2f34 093d 7c9e a43b
00000140: 2aad a33e 2b5c ce3c 0fc0 28bd 8621 c93e
00000150: 202f 8f3c f658 543d 5d5d 6f3d e179 5d3e
00000160: af44 bcbd b84f c63d 70e1 a63d 9da2 103e
00000170: 4833 823e 8498 b1bc e58e bb3d d915 cb3e
00000180: 0669 5f3d b593 b0bd 7080 2c3d 7f1a 973e
00000190: 4c2a afbd f275 183d b4f8 103e 1a15 9f3e
000001a0: a995 c9bd 32bd d33d e49f 893e 40a6 84be
000001b0: 19b7 b63e 058e ddbd 6373 443c 02ae 85be
000001c0: ef26 4ebe c533 d73d c7d9 f0be 2261 9cbe
000001d0: f69f a23e 83ae 72be bb75 9dbd 5e46 0e3d
000001e0: 79d1 833e f518 58be 3528 73bd 2cce 59be
000001f0: 8291 59be 42e8 153e a29a 2a3e 36fd ac3e
00000200: 65b5 cb3d 4a02 25be d90b 4e3e 5bfa 813e
00000210: 29f0 89be 73cd de3d fe5c e73a b10c d6bd
00000220: 6efb 4bbe 7c10 903d d1a6 383e e2b7 a63e
00000230: 2eb6 b1bc 6dd4 a7bc 0953 cc3d 38ff ad3e
00000240: 70f7 39bc e965 a23e c259 e6be 1ea5 213e
00000250: 4a3f 9d3e 8593 333d 1e6e 06bd b7b3 d2be
00000260: 07c6 ac3e 682d 3ebe f7f3 483e 0ecf 003e
00000270: 574d a73d 6fd8 ce3d 4e3e 2e3d ab7a cbbd
00000280: b969 31bc d102 6cbd 5a5c 1dbe a47f e0bd
00000290: c926 273e f674 67be 6b70 853d 1722 d63e
000002a0: 088c c83e e9e7 ffbd e69d 463d d61b c63e
000002b0: d86e f2bd 1f06 803d 718b 2e3e 26c6 b03e
000002c0: 8be0 93be 5d47 0a3f 0460 b7bc c496 ec3b
000002d0: 1169 ac3e 1412 a73e 51d3 e7be 4485 11be
000002e0: 0673 a13e 20b1 33bd a0f0 c4bc 85a1 953e
000002f0: 5580 bc3e 290a 0e3e 1d75 9ebd b5ef 19bf
00000300: eb27 4abe ee2b 8b3e 76af e7be f8a3 3bbd
00000310: 9317 bd3e 71b9 44bd 1216 8abc c588 ac3e
00000320: 671f 3ebe 7665 863e 9cf6 aabe 8ab7 00be
00000330: 1364 7e3d f35d b1bd 5fbc 033e 78c9 553e
00000340: 1f05 d93d 00d3 33be 5e42 c23c 3daf a63e
00000350: 3cb8 05be f84c 113c 49dd e0be 34e6 98be
00000360: e4ce 62be b8ce 14bd 6bdc 283e 2382 ce3e
00000370: c487 a6be ec7d 6f3e d9e9 703e 2e79 823e
00000380: 0799 87be 6773 b53e fc8f d5be 4698 2dbe
00000390: 41aa f33e 4fc3 fcbd a67c 813c 771c b2be
000003a0: 6778 583e 9e0d 81bd ac8d babd fe55 433e
000003b0: 0657 bd3e d3af 87bd e627 70bd fa49 c8be
000003c0: cac4 033e 9394 c2bd e6c8 abbd cb1b 3bbe
000003d0: 526f 7d3e 7b0e 07be 40c5 80bb 3aa6 1e3e
000003e0: 15b2 2bbe a7c9 5bbd 07e0 593d 4c5a 55bc
000003f0: 5900 f23e 62b1 74be 15f9 8d3c 2b17 773e
-0.22190636 -0.0427839 0.2651441 0.47184834 -0.320603 -0.0041828724 -0.22727102 -0.21163024
-0.1549132 -0.10683371 -0.19577284 -0.15589868 -0.15755416 0.2526174 -0.48070246 -0.19159697
-0.09165827 0.1347696 -0.36254296 -0.12951991 -0.21170741 -0.16193081 -0.29501745 -0.22342086
0.43025896 -0.14307453 0.0071739685 0.27514595 0.26456288 0.3084435 -0.04328542 -0.5884115
0.0059983865 0.08571894 -0.22146593 -0.3574291 -0.19942051 0.27755484 -0.32249168 -0.004167305
0.3971742 -0.03137356 -0.034970403 -0.41552326 0.26340204 -0.22908306 0.06256321 0.37416422
0.2415224 0.1691717 -0.03444359 -0.4708116 -0.18134558 0.09296696 0.28339902 0.38257954
0.19334461 0.50515914 -0.21911204 -0.2263484 0.1256425 -0.1645823 -0.061477773 0.029177932
0.32911256 -0.0029079365 -0.037001178 0.3668273 -0.32974055 0.23970821 0.32399508 -0.28649175
0.40278324 -0.13869101 -0.014571729 0.27879778 -0.1984971 0.022265589 0.03349703 0.0050237756
0.3196805 0.025190433 -0.041198786 0.3928339 0.017478526 0.051842652 0.058438648 0.21628524
-0.09192788 0.09683174 0.081484675 0.14124532 0.2542975 -0.02167917 0.09158114 0.39665106
0.054543518 -0.08621923 0.042114675 0.29512402 -0.08552989 0.037221856 0.14157373 0.31070787
-0.098429985 0.103388205 0.268798 -0.2590809 0.35686567 -0.10818104 0.011990401 -0.2610932
-0.2013204 0.10507921 -0.4704115 -0.30542856 0.31762666 -0.23699383 -0.07688471 0.034735076
0.25745752 -0.2110327 -0.059364516 -0.21270055 -0.21246913 0.1463938 0.1666055 0.33786935
0.09946708 -0.16114154 0.20121707 0.2538632 -0.2694104 0.1087903 0.0017651615 -0.104516394
-0.19920132 0.07034394 0.18032385 0.32562166 -0.021693315 -0.020487035 0.09976775 0.3398378
-0.011350498 0.31718376 -0.44990355 0.15785643 0.30712348 0.043841857 -0.03281986 -0.41152737
0.33744833 -0.18572009 0.19624315 0.12578985 0.08169048 0.10099875 0.042539887 -0.099355064
-0.010828429 -0.057619873 -0.1536726 -0.109618455 0.16323389 -0.22603211 0.06515583 0.41822883
0.39169335 -0.12495405 0.048490427 0.38693112 -0.11837548 0.062511675 0.1704538 0.34526175
-0.2888225 0.5401514 -0.022384651 0.007220121 0.3367391 0.3263098 -0.4527841 -0.14210993
0.31533068 -0.04387009 -0.02404052 0.29224792 0.3681666 0.13871063 -0.07737181 -0.6013139
-0.1974179 0.27181953 -0.45251054 -0.04581067 0.36932048 -0.048028413 -0.016856227 0.33698097
-0.18566667 0.26249284 -0.33391273 -0.12570015 0.062107157 -0.086604975 0.12864827 0.20877635
0.1059668 -0.17560959 0.023713287 0.3255557 -0.13058561 0.008868448 -0.43918827 -0.2986313
-0.22149235 -0.036329955 0.16490333 0.4033366 -0.32525456 0.23387879 0.23526706 0.25483078
-0.26483938 0.35439608 -0.41711414 -0.16952619 0.4759083 -0.1234194 0.015806507 -0.34787342
0.2113968 -0.063014254 -0.09109053 0.19075772 0.36980456 -0.06625333 -0.0586318 -0.3911894
0.12868038 -0.095009945 -0.08387928 -0.18272321 0.24749497 -0.13189118 -0.003929764 0.15493098
-0.16767152 -0.053659108 0.053192165 -0.013022017 0.4726589 -0.23895791 0.017330686 0.24129932

conv1.lin_edge.weight f4 [64, 2]
00000000: a84e 0bbe b903 853e e498 303e 9ed6 393e
00000010: cdca aabd 14b1 a3be e3d9 983d c38e 3bbe
00000020: ff45 f53d 5391 5abe cfa0 8fbe 9774 19bb
00000030: f692 653d ac9b c8bd b360 493d 55f7 d93d
00000040: 6173 9b3e 9f64 853e fdcb 7fbe e599 2abe
00000050: bbf3 9e3d 5b60 a63b 0395 05be e18b 7c3e
00000060: 0bb7 893e a245 4cbe 62b9 4c3e 3405 b6be
00000070: 3fdb 15bd 45bc 9cbe 60db c33c 5f39 b0bc
00000080: ed87 943e 392f ad3c 845a 763d ae32 f9bd
00000090: 6b49 1e3e b39c 84be 8a2c 81be ecc6 32bd
000000a0: dc0b 9ebe 4bd2 103c 8152 4fbe c7c2 b4be
000000b0: d240 5a3e 5bb2 bcbe f561 8dbe 16b7 01be
000000c0: 0e2a 3dbc 857f 233d 8557 0ebe 6d2e 783e
000000d0: fdd1 84be 3ee4 85be 482a f63d 6350 3fbe
000000e0: ff25 7abd 63ae ec3d 5435 0ebe 9a02 7e3e
000000f0: d73a 0e3e e9c4 3e3d e45f 5e3e c7ed 10be
00000100: 7f78 c0bd 160b 233e 4b7a 52be 8711 2a3e
00000110: 1453 b6ba 0086 9c3b 585c 323e 2740 6c3c
00000120: aeaf e93d 62d3 39be dc73 973e 2ac4 f1bc
00000130: 6543 d9bd c22f ecbd ceb3 47be a2bc 86bc
00000140: f6a8 d8bd 3975 4f3e edcf 0c3e 0b23 bfbe
00000150: 49a0 48be 1d72 4fbd 633f 6ebe cb20 b3be
00000160: 98e8 5b3e 0db0 5bbe f1dd c13d dc74 41be
00000170: 66a0 ef3d 1421 dfbe ad0a a63e dd5a 77bd
00000180: 3d25 90be 09c7 b9be 1622 8d3c afe9 d3bc
00000190: 72ef 8a3e f7bb ba3e 38a7 063e 263e be3e
000001a0: 339b 69be 4fb6 9dbd 0799 69be 5734 803e
000001b0: bad4 afbd dcab b5be 729f 893d 297f fdbd
000001c0: eeaa 80be 45d9 c4be e8b6 c03b a17f 8b3e
000001d0: 1af4 96bd 53c8 98be 77dc 803e c38b 5a3e
000001e0: 1cd7 1bbe 1e87 35be e17c cbbd 0a2e 8a3e
000001f0: 8c47 233d b028 c83e 43af 31bd ac6a bf3e
-0.13604224 0.25979403 0.17245823 0.18148276 -0.083394624 -0.31971037 0.074634336 -0.18316178
0.11976241 -0.213445 -0.28052375 -0.002341544 0.056048356 -0.09795317 0.049164485 0.10642878
0.30361465 0.2605333 -0.24980159 -0.16660269 0.07761332 0.0050774044 -0.13045125 0.24662735
0.26897463 -0.19948438 0.19992593 -0.35550845 -0.036586042 -0.30612388 0.023908317 -0.021511732
0.29009953 0.021140682 0.060144916 -0.121678695 0.15457694 -0.25900802 -0.25229293 -0.043646738
-0.30868423 0.0088392 -0.20246316 -0.35304853 0.2131379 -0.36854824 -0.27613798 -0.12667498
-0.011545671 0.039916534 -0.13900574 0.2423646 -0.25941458 -0.26150697 0.12019783 -0.18683009
-0.061071392 0.11556699 -0.1388753 0.2480568 0.13889633 0.046574507 0.21716267 -0.14153205
-0.09397983 0.15922198 -0.20554464 0.16608249 -0.0013910257 0.004776716 0.17418039 0.014419592
0.11410461 -0.18147042 0.2958058 -0.029512484 -0.106085576 -0.115325466 -0.19502184 -0.016447369
-0.10579102 0.2025956 0.13751192 -0.37331423 -0.19592394 -0.050645936 -0.23266368 -0.34985957
0.21475446 -0.21453877 0.0946616 -0.18892235 0.117005154 -0.43579924 0.3243002 -0.06038939
-0.2815341 -0.36284664 0.017228168 -0.025868265 0.27135807 0.3647153 0.13149726 0.3715679
-0.2281311 -0.07700788 -0.22812282 0.25039932 -0.08585496 -0.3548268 0.06719865 -0.123777695
-0.2513041 -0.38447013 0.005881179 0.2724581 -0.073707774 -0.29840335 0.251682 0.21342377
-0.15218776 -0.17727324 -0.09935928 0.2698825 0.039863154 0.39093542 -0.043380033 0.37386072

conv2.att_src f4 [1, 1, 64]
00000000: 46ef bfbe a5e0 b73d 1fc7 b6be c7a5 d1bd
00000010: 33cc 063f 9c0a 80bf 92b5 13bf 0ba9 a43e
00000020: e651 423f 0f38 653e 0d25 a0bc 5d78 2fbf
00000030: d1ab cb3d 54af 523c c4b1 583e 27e5 eebe
00000040: c04a 473f 5333 d8bd e2ba 19bf 53f1 1ebf
00000050: 96d2 b23e 55dd 403d 5ff7 423d ca27 8ebe
00000060: 768a 80be 4ded 503e 7e52 7fbf 9408 07be
00000070: f2ce 3fbe cc7b ddbe 448a 0cbf 6842 d03e
00000080: abe1 353f 6a2d d3be b453 b8be ee33 c23d
00000090: a463 023f 06af 1c3f 16c2 7f3e 2976 c6be
000000a0: 7f01 143f 4663 013f 546a 6c3e 3307 0abd
000000b0: a19d ad3e 74cf efbe d217 54bc a78c f3be
000000c0: 82e4 b33e 2c1f 813e a4d9 1abe 172b 3b3c
000000d0: eacc 06bf cbc1 823d 660e 0dbe 3d26 ab3e
000000e0: 32f2 29be 08c2 813d 4c60 aa3e a0ea dd3e
000000f0: 80c5 0b3e 4f34 dbbe 0a51 363e 4930 99be
-0.3748724 0.089783944 -0.35698792 -0.10236698 0.52655333 -1.0003238 -0.5769893 0.3216022
0.7590622 0.22384666 -0.019548917 -0.68543035 0.09944881 0.012859184 0.21161562 -0.46659204
0.77848434 -0.10556664 -0.60050786 -0.6208698 0.3492629 0.04708608 0.047599193 -0.27764732
-0.25105637 0.20403023 -0.9973525 -0.13186866 -0.18731287 -0.43258512 -0.54898477 0.40675664
0.71047467 -0.41245586 -0.3600136 0.09482561 0.5093329 0.61204565 0.24976382 -0.38762024
0.5781478 0.50542104 0.23087436 -0.033698272 0.33909324 -0.46837962 -0.012945132 -0.47568247
0.35135275 0.25219095 -0.15122086 0.011423848 -0.52656424 0.06384619 -0.13775024 0.3342761
-0.16596296 0.06335837 0.33276594 0.43343067 0.13649559 -0.42813346 0.17804351 -0.2991965

conv2.att_dst f4 [1, 1, 64]
00000000: edb5 0d3f 7883 6cbe 35ac cc3e 1648 9dbe
00000010: 73d0 20bf 68ae 1a3f a1de 9d3d 761d 3e3e
00000020: 3501 50bf 7c45 fcbe 3aab d03d 5115 053e
00000030: 7e10 273f af92 463f bdc8 73bf 13b0 b83d
00000040: 24c0 d23d 5bf5 e63e 5887 813d 2a7a 8ebc
00000050: 7c4e b1be a21b 203f 5b51 61be 1db9 c83d
00000060: 4fae 2d3f f799 5f3e b977 423f bc94 90be
00000070: 8be6 8c3e 790c 263f 8f3c be3b a0e8 7b3d
00000080: 623d 54bf 0ca2 9b3e f402 a43d 091b 51bf
00000090: f553 09bf 5475 4bbf 462a abbc 15a7 333f
000000a0: 6ed1 04bf 1cf2 a8bc e89c b0bd 97de e53e
000000b0: 216a 07bf 4b3b c43e 8613 1f3f 09c7 843e
000000c0: 3310 28bf 0468 5dbe 436e 403f 7253 483d
000000d0: 034d 873e 303d bf3e 0cdd cfbe 2a2e 9bbe
000000e0: eded 21bf b27f 1abf f008 8fbe 8b5a 40bf
000000f0: 3e95 fbbe 687e 1f3f a3ab 4d3b f4de b73d
0.5535572 -0.23097026 0.39975134 -0.3071906 -0.6281807 0.6042237 0.07708479 0.18565926
-0.8125184 -0.49271762 0.10188909 0.12996413 0.6525954 0.7756757 -0.9522818 0.090179585
0.10290554 0.45109066 0.06324643 -0.017392237 -0.3463019 0.62542164 -0.22003691 0.098009326
0.678441 0.21836077 0.7596393 -0.28238475 0.2751964 0.6486278 0.005805559 0.061501145
-0.8290616 0.3039707 0.08008376 -0.8168188 -0.53643733 -0.79475904 -0.020894181 0.7017682
-0.51882064 -0.02062326 -0.086236775 0.44896385 -0.52896315 0.38326487 0.62139165 0.25933102
-0.6564972 -0.2162171 0.75168246 0.048907705 0.26425943 0.3735137 -0.40598333 -0.30308658
-0.6325367 -0.603511 -0.27936506 -0.7513816 -0.491373 0.62302256 0.003138282 0.08978072

conv2.att_edge f4 [1, 1, 64]
00000000: d9a7 d33d 7f40 77be 1068 ea3d 3061 a13e
00000010: 7dbd 8fbe b2e9 993d d481 b3bd 3342 9e3c
00000020: 5e7f 773c 786f 5a3c f53b 993c 9198 f0bd
00000030: 090a a9be 63f6 3e3e 676b 373e 22a7 443e
00000040: ab54 a7be ec25 0a3d bb95 0fbe 221e 32be
00000050: 9459 863e 8e9e 1e3d 4ac7 bb3d c3aa 7e3e
00000060: 6ca6 c0bd dfee 2f3e 863b 783d d0fd 09be
00000070: 41f1 6b3e 775b cbbc f076 823d 14ac 0b3e
00000080: bd5f 9a3d e981 84bb 0c85 9fbe 7bcb 4abe
00000090: b9d6 113d 207b 70bd f67f caba 2437 fa3d
000000a0: 058a 253e 7194 933d 88bd 2abe a934 0d3e
000000b0: 611f 67be 1d62 8c3d 0467 7b3d 8834 473e
000000c0: ba68 37be f700 44be 697f 353e 4ff3 86be
000000d0: c8da 6abe 7006 a73e 9151 663e 4f13 713d
000000e0: 277a 023e 5cd7 133d f0d1 47be c6a4 3d3c
000000f0: 9946 753e 51af c6bd 12c5 973e 02cc 8c3e
0.10334749 -0.24145697 0.114456296 0.3151946 -0.28074256 0.07515277 -0.08764997 0.019318676
0.01510605 0.01333224 0.018705348 -0.1174785 -0.3301547 0.18648677 0.17912064 0.19204381
-0.32681784 0.03372757 -0.14021961 -0.17394307 0.26240218 0.03872543 0.09168871 0.24869828
-0.094067425 0.17180966 0.06060364 -0.13475728 0.2304125 -0.024823887 0.06370342 0.13639861
0.07537792 -0.004043807 -0.31156194 -0.19804184 0.035605166 -0.05871117 -0.0015449512 0.122175485
0.16165932 0.07206047 -0.16673863 0.1378962 -0.22570564 0.06854651 0.06137754 0.19453633
-0.17911044 -0.19140993 0.17724384 -0.26357505 -0.22935021 0.326221 0.22492053 0.058856305
0.1274191 0.036094055 -0.19513679 0.01157493 0.23952712 -0.09701408 0.2964254 0.27499396

conv2.bias f4 [64]
00000000: 563b d8bd 9e08 66bd bf1b 013e 06b7 debc
00000010: adbb be3d db46 a7bc 813b 96bd 786a ffbd
00000020: 60b4 1a3e c425 ce3d 7e44 e23d e3ea 763d
00000030: 56d8 0fbe 9f78 51bd 71f2 23bc 5856 1ebd
00000040: 67ef ecbe 1ac4 d1bd f31e 1e3e 1f95 36bd
00000050: fa29 be3d 1dfe 1dbe 080d 83bd 3f45 df3d
00000060: 8f93 523d 92e5 4e3d 4216 b0bd 3426 b3bd
00000070: 65c6 acbd 8287 cdbd cd28 7f3e d06c 643d
00000080: 3239 30bd 160a 8fbd 5fb6 91bd 8ef8 2e3e
00000090: 2c97 d0bd 6b8b b43d 53b2 a73d 7675 363c
000000a0: 1326 c3bd 9a84 37bc acb4 8f3d 0e61 7c3d
000000b0: 635b de3d b859 e23d 1e96 223d 5f96 533e
000000c0: 7498 d43d 4b3b d23d 9b6d 3fbe 1326 52bd
000000d0: ab9e c0bd 1a12 f53c 31cf 103e 3ada 2cbe
000000e0: 5996 ac3c 3e9d 173e 9236 ab3d f395 f83d
000000f0: 779e 7cbd 1333 993d f360 e6bd 8c63 d7bd
-0.105581924 -0.05616056 0.1260824 -0.027186882 0.0931314 -0.020419529 -0.07335568 -0.12471479
0.1510787 0.10065797 0.1104822 0.0602826 -0.1404737 -0.051140424 -0.010006533 -0.038656563
-0.462764 -0.102424815 0.15441494 -0.044575807 0.0928535 -0.15428968 -0.0639897 0.109018795
0.051410254 0.050511904 -0.08597995 -0.08747521 -0.08436278 -0.10035612 0.24917908 0.055767834
-0.043023296 -0.069843456 -0.07114863 0.17087004 -0.10185084 0.08815654 0.081883095 0.011136403
-0.095287465 -0.011201048 0.07016882 0.061615996 0.108572744 0.11052269 0.039693944 0.20662831
0.103806406 0.102652155 -0.18694155 -0.05130584 -0.094052635 0.029915858 0.14141537 -0.16880122
0.021067785 0.14806077 0.08360018 0.121379755 -0.06167456 0.07480445 -0.1124896 -0.10517034

conv2.lin.weight f4 [64, 64]
00000000: d4a5 083d 895c 763d d49b c93d 0e63 033e
00000010: 8ada 4bbe 3957 3f3e d0b5 7b3e fa77 2f3e
00000020: df7f 573e 7fba e83d 08e7 c23e af99 3b3e
00000030: 6a6b f63d 467c b2bc e95d ec3d 24f4 0abe
00000040: 4ca0 4a3e 6a3c adbd 45ff ba3e 0cea 8c3e
00000050: 80ed 173e 6115 b2bc 7ddd 2cbc f6ea 16be
00000060: ca51 093d 8d68 e43d be84 8fbe 750d c13e
00000070: 52ec 33be b966 c13e 40f6 e13d ce90 ecbc
00000080: 73dd bb3d ed51 66be b82d 9ebe 4cca 68be
00000090: fbac 2fbe 6adb 363d 8e25 093e 9082 60bd
000000a0: da29 323c 88ae adbd f02d 8d3e 3ba2 11be
000000b0: 2ebf 31bd 1224 8abd c208 873e 9c9a d73c
000000c0: 9afc 333e adf1 053e b068 e53d ffa9 54be
000000d0: cfe3 56bd 988f 8d3d 54b2 79bd 7cfc 64be
000000e0: 77e2 f1bd fe04 0e3e cb76 05be b9d0 e43e
000000f0: 8162 c1bc c6dc 003e 47f1 2f3e 83bb 293e
00000100: c04e f03d 7dea f4bd 5614 da3d cb7d 6cbe
00000110: 1f3f 7ebe 2c4a a2bd 23a5 833e fed8 f23d
00000120: 096a 1cbe 6b4a 28be eaf3 333c 196e 813d
00000130: 2866 093d 7df0 f2bc 5c18 03be 3bcc 203e
00000140: e970 03be a144 a8bd 60df 1fbc 3cdc fcbd
00000150: 89ee ebbc 2974 85bd 1dc5 4cbd a5bc 2e3d
00000160: 62b3 d5bd f213 d73d 7ddd 7dbc 73e3 b63e
00000170: 0751 5cbe 939e 8a3e 998d 813d 5ee9 c0bd
00000180: e2ba 43bc 6372 2a3e f353 2f3e 84da 0ebd
00000190: b1ff e7bd 2d2e 9c3d 213b 043e 2faa 483d
000001a0: 0990 0a3b 8167 8dbd 8c2c b83e b6b1 8b3c
000001b0: 503e c9be b7c9 573d 1297 323e 1675 353d
000001c0: 1427 f2bd 5d8b 0e3d a491 1fbd e3be 8b3d
000001d0: 826f 2f3e c0f4 b4bd befd 683d 16d1 653e
000001e0: 57d0 b3be 4e18 923e 936b 14be 901d 8dbd
000001f0: 1115 0bbe 7665 283d a625 31be aed0 3c3e
00000200: 93ef 42bd 562a 0f3c b0db c63e f067 b53e
00000210: 50e9 4fbd 4581 7a3e 0861 833c e737 0cbe
00000220: ba45 713e 6eea 563e 9d42 803e 9334 4abc
00000230: 32c0 1a3d 2237 913b b2a0 5c3e 7241 4a3d
00000240: ecbf 51be abbd d63d 6164 3dbe 5a63 823e
00000250: 71cf 0cbd 7d16 d5bd 3a49 79be ac78 87be
00000260: f8ec b13d 8627 98be 5753 c8bd ee8f d2bc
00000270: 2000 da3d 3556 3c3e 8bab 093d 99c6 b7be
00000280: 9231 5ebe 1b37 39be effa 70be fa9e 40bd
00000290: 70a3 fa3c fd5d a43d e4d2 9bbb 4a65 e23d
000002a0: b4d5 163e f214 76bd 030a 52be 9189 a4bd
000002b0: 38cf 803d c86c abbd ba3b 943d 08f3 e33d
000002c0: 959f ea3e 4395 043d 75e1 fd3d 8437 4ebe
000002d0: 0ff6 adb8 bdd8 d53d d746 8abe 4202 30be
000002e0: 3544 bb3e 07ff 483c 1038 3f3e d82b e23d
000002f0: 5023 5c3e ec52 653d 6528 a33e 05b4 433e
00000300: 01a8 d9bd 03c3 adbc 90ba 52be 6e71 54be
00000310: cf58 2cbe 343a 483e 2a07 573e d4da 0b3e
00000320: 6077 7dbd 5091 81bd 63f9 883c e5c6 bd3d
00000330: 1a3a 823d 5632 13be 20aa 1ebe 8be0 0bbd
00000340: 5e29 80bb 2e64 f9bc 7165 3cbd 1c2e 103e
00000350: ab72 1c3e 031c 443e ae62 01be b1fe fcbc
00000360: b56a 1b3e 3ca7 ad3c 0aa1 53be fc6f 423e
00000370: f10c 45be 636d 543d 9ed9 dbbd a4da 103e
00000380: 21f6 463e a47b b7bd 34aa 533d 2779 913e
00000390: 9fc2 f6bd 72e8 c6bd 4c50 91bd 0eac 8d3d
000003a0: 4dc5 49bd 795b 3f3e 1d3e c03e d89a a53d
000003b0: 55eb eebe 5d23 6c3d 83c2 7e3e b6fe c33d
000003c0: b638 c33b 5e13 0b3e d721 1fbe 9772 413e
000003d0: 0e99 963d a374 1abe d622 473d 1836 35be
000003e0: bf50 7abc baea da3d d546 eebc e084 b4bd
000003f0: 2068 1e3d 761d e4bd a7d4 13be 93d9 083e
0.03336127 0.060146842 0.09844175 0.12830755 -0.19907585 0.18685617 0.24581075 0.17135611
0.21044873 0.11363696 0.38066888 0.18320344 0.12032206 -0.021787774 0.115413494 -0.13569695
0.19787711 -0.08458789 0.3652288 0.27522314 0.14836693 -0.02173871 -0.010550854 -0.14738068
0.033525266 0.11152754 -0.28030962 0.3770558 -0.17570618 0.37773684 0.110332966 -0.028877642
0.091730975 -0.2249219 -0.30894256 -0.2273342 -0.1715583 0.044642843 0.13393232 -0.054812014
0.010874236 -0.08480555 0.2757411 -0.14222042 -0.043395214 -0.06745161 0.2637387 0.02631884
0.17576829 0.13080473 0.11201608 -0.20767973 -0.05246335 0.06912154 -0.060961083 -0.2236194
-0.11810773 0.13869092 -0.13033597 0.44690493 -0.02360654 0.12584218 0.17181884 0.16575436
0.1173377 -0.119587876 0.1064841 -0.23094861 -0.24828766 -0.079243034 0.25711927 0.11857794
-0.15274824 -0.16434638 0.010983447 0.063198276 0.03354469 -0.02965569 -0.12802261 0.15702908
-0.1283604 -0.08216215 -0.009757847 -0.12346694 -0.028800266 -0.065162964 -0.04999267 0.042660374
-0.10434605 0.10501851 -0.015494701 0.35720405 -0.21515284 0.27074108 0.06325836 -0.09419511
-0.011946412 0.16645198 0.17121868 -0.03487636 -0.11328066 0.07625995 0.12913181 0.048990425
0.002114298 -0.069045074 0.35971487 0.017052513 -0.39305353 0.052682605 0.17440441 0.044301115
-0.1182386 0.034800876 -0.038957253 0.06823518 0.1713238 -0.08835745 0.056882612 0.22443041
-0.35119888 0.28534168 -0.14494161 -0.06890404 -0.13582255 0.041112386 -0.17299518 0.1843898
-0.047591757 0.008738121 0.38839483 0.3543086 -0.050759614 0.24463375 0.016037479 -0.136932
0.23561755 0.20987865 0.25050822 -0.012341636 0.037780948 0.004431621 0.21545675 0.04937882
-0.20483369 0.10485395 -0.18495323 0.25466424 -0.03437752 -0.1040468 -0.2434434 -0.26459253
0.08687776 -0.29717654 -0.09781521 -0.025703397 0.10644555 0.1839226 0.03361086 -0.35893705
-0.21698597 -0.18087427 -0.23533224 -0.047026612 0.030595511 0.08025739 -0.0047553647 0.110544756
0.14729959 -0.06007857 -0.20511632 -0.08034051 0.06289524 -0.08370358 0.072379544 0.11130339
0.45824876 0.03236891 0.12396518 -0.20138365 -8.295115e-05 0.1044173 -0.27007172 -0.17188361
0.36575475 0.0122678345 0.1867373 0.11043519 0.21497846 0.055987284 0.31866756 0.19111641
-0.10627747 -0.021211153 -0.2057898 -0.20746395 -0.16830753 0.19553453 0.20998827 0.13657695
-0.061881423 -0.06326544 0.01672048 0.09266452 0.06358738 -0.1437467 -0.15494585 -0.034149688
-0.0039111814 -0.030443277 -0.04599518 0.1408009 0.15278117 0.1915131 -0.126353 -0.030883165
0.15177424 0.021197908 -0.206669 0.18988031 -0.19243218 0.05186213 -0.107348666 0.14145905
0.19429828 -0.089591295 0.05167599 0.28412744 -0.1204884 -0.09712304 -0.070953935 0.069175825
-0.049260426 0.18687238 0.3754739 0.08086175 -0.4666392 0.057650913 0.24878888 0.09570067
0.005957688 0.13581607 -0.15540253 0.18891369 0.073534116 -0.15083556 0.048617207 -0.17696416
-0.01527804 0.10689302 -0.02908651 -0.088144064 0.03867352 -0.11138432 -0.14436589 0.13364248

conv2.lin_edge.weight f4 [64, 2]
00000000: 0df8 c8bd fc85 2cbe 47b2 85be 22ea 8b3e
00000010: 28dc 0dbe 506c 17be 20b9 873e 09c7 d3bd
00000020: e5ca e7bd 7bfe 1bbe e852 863e 02de 92be
00000030: 07c7 b73c 03d3 563e bcca 8f3d 2f8a abbd
00000040: 7bcb 533e 0f50 8fbe 46d4 823d c9b7 99bd
00000050: 617f d03d 18ec f6bd 5289 a5be 97d0 d93b
00000060: 6262 62be 6530 64be 7326 a13e f09c d2bd
00000070: 7f78 ae3e e7d9 b8bd dad8 0fbe 4d88 5bbe
00000080: c386 39be cb07 313c afd5 283d fda2 913d
00000090: 739a 35be 6996 5e3e 4ae8 2d3e 35ef e13d
000000a0: efc2 473e 6e68 0cbe 30d9 4abd e0be 64bd
000000b0: e5e3 0b3e cf98 0fbe 8897 973e 466a 27bd
000000c0: 28c9 0cbe 9a1f f33d 7688 4c3e 21a3 f3bd
000000d0: 8216 2ebe 13c7 f33d e2f0 763c bb7b a43d
000000e0: eff0 aa3e dfde aebd fce5 1dbe 5c45 523e
000000f0: fea5 5b3e a51c 78be 9b39 943c 7808 49be
00000100: e39f 433e 7760 52be a708 9dbd 5b96 053e
00000110: f698 a5be 5cfd 6bbe 3b42 e23d ae08 3a3e
00000120: 2c7e 3f3e b9a6 a23d 461c 4ebe 84c1 663e
00000130: dd2d 053d 36fb 13bd 53d5 453e ba87 5ebe
00000140: fc7e aabd 7805 7dbe 2722 6c3e a087 7fbe
00000150: 3e12 78bb 353d 2f3e a086 a63e c6b7 7fbd
00000160: 3777 aebe f5ab 4a3e cfdc aebd cb2d 30be
00000170: 04ce 06be 88d8 41be d90b 3f3e 2b1a 45be
00000180: 56c1 bd3d a44c 823e cdde afbe ab06 023e
00000190: 8043 263e 9ba1 333e da25 20be 840c cebc
000001a0: 6900 0dbe 3f28 7e3e c34f a93e 3daa 09be
000001b0: 3ce4 2a3e c261 0d3d 9f7b 213e dc0b 32be
000001c0: 49a7 6a3e efc4 77be 9105 173e 302f 2cbe
000001d0: 5a5d 0cbe 57a9 4e3e 07fa cabb 7d7a 1c3d
000001e0: 4216 993e 323b 85be ad49 f9bd 3e21 053e
000001f0: e46b ce3d adeb a83d 7204 a83e 42b2 92bd
-0.09812937 -0.16847986 -0.26112577 0.27327067 -0.13853514 -0.14787412 0.26508427 -0.10340697
-0.11317996 -0.15233795 0.26235127 -0.28685004 0.02243377 0.20978932 0.070210904 -0.08375966
0.2068309 -0.27990767 0.06388144 -0.07505757 0.101805456 -0.1205675 -0.3233133 0.0066471803
-0.22107843 -0.22284086 0.31474647 -0.1028384 0.34076306 -0.090259366 -0.14047566 -0.21438713
-0.18117814 0.010805081 0.04121941 0.07111166 -0.17734699 0.21737064 0.16983142 0.11031953
0.19507955 -0.13711712 -0.049523532 -0.055846095 0.13661154 -0.14023136 0.29607797 -0.040872835
-0.1374861 0.11871262 0.1997393 -0.11896349 -0.17000774 0.11903205 0.015072079 0.08031412
0.33386943 -0.08538603 -0.15419763 0.20534271 0.2145004 -0.24229677 0.018093875 -0.19632137
0.1910396 -0.20544611 -0.07667666 0.13045637 -0.32343262 -0.23045868 0.11047789 0.18167374
0.18700475 0.07941956 -0.20127973 0.22534758 0.03251444 -0.036128245 0.19319658 -0.21731463
-0.083250016 -0.24709117 0.23059903 -0.2495408 -0.003785267 0.17113192 0.32524586 -0.06243112
-0.3407533 0.19792159 -0.0853821 -0.17204969 -0.13164526 -0.18930256 0.18656863 -0.19248264
0.092653915 0.25449097 -0.3434967 0.12697856 0.16236687 0.17542116 -0.15639439 -0.025152452
-0.13769688 0.2482004 0.33068666 -0.13443847 0.16688627 0.034517057 0.15769814 -0.17387336
0.22915377 -0.24196218 0.14748217 -0.16814876 -0.13707486 0.20181786 -0.0061943564 0.03820275
0.29899794 -0.26021725 -0.12172256 0.13000962 0.10079172 0.082480766 0.32815892 -0.07162906

fc.weight f4 [2, 64]
00000000: f7bd 6d3d b919 023e 187f 01bd 140a 923d
00000010: 17b0 efbd 2a15 e33d cb07 053e be18 9d3d
00000020: 2ad7 c3bc ee7e 8abe 3789 f3bd 80a1 333d
00000030: 7d8b e03c f872 133d a8af 9d39 6c29 153e
00000040: 827e 86bd a1c0 653e b5d5 e3bd be37 f63c
00000050: 16c1 4dbc 8754 fe3d 90fa e13d a398 8fbd
00000060: 2df6 d6bd 04ef 88bd 0961 af3d 4a8c 693e
00000070: 8116 c23d cfbb ee3b 6914 9dbd 9a22 15be
00000080: fd92 44bd 3f87 8a3d c794 8d3d abca 013d
00000090: e22d 043e 90b7 9dbd 9d5d 52be d9bd 38bd
000000a0: 8b4e e6bd 6f57 69bd 0245 f6bb 1a56 0bbe
000000b0: d49b 88bd 99c8 24be 5954 bbbd 1e95 4bbe
000000c0: a214 3ebe 0040 79bd c462 193e e2d1 30bd
000000d0: e8b9 053e ca46 abbd a298 56bb 0009 a9bc
000000e0: fa36 043c 14f3 dfbd 23e3 dabd 8b34 8ebd
000000f0: 34f1 263e 397a 02be 8a27 a13e ccd2 213e
00000100: 475d bd3c db42 753d 3fe8 673d 9c23 cc3c
00000110: a8cc 4d3d 2320 833d b25f a5bd a407 6bbe
00000120: df0b e3bb 82c9 373e 43da 143e b5b0 ea3b
00000130: 9572 a9bd d450 2d3d 1fad 8bbd 74cd 473d
00000140: 3bd3 b1bd e322 5dbe 2763 293d 2b92 67bd
00000150: 39f4 293e b8fe 6bbd 94fd 08be a5b7 d53d
00000160: a962 233d bebc 193c ac80 f1b9 6e31 38be
00000170: c3a5 b6bd 1069 00bd 8172 883d d200 653d
00000180: 41ab e7bd f7cf cbbd eed2 20be 9e38 863d
00000190: 2eb1 89be b8fb a9ba 0d4e 183e 431a 423d
000001a0: 79aa e1bd 76ae 143c 9723 493d 38bd 0c3e
000001b0: 7268 123e 2b14 3f3e 8511 a63c d307 e93d
000001c0: b457 a73d 9cd4 123e 4596 a7bb 360c 0bbd
000001d0: 151b cbbd adb7 81bd 6a6c d63d 8b63 bcbd
000001e0: 1502 6ebc 611e 283e 30a1 133e d813 8a3d
000001f0: 1a58 98bd 0e31 f93c 5179 b0bd 7bcb 44be
0.058042493 0.12705125 -0.031615347 0.071308285 -0.11703508 0.11088021 0.12991254 0.07670735
-0.02390631 -0.27049965 -0.11891406 0.04385519 0.027410263 0.035998315 0.00030076248 0.14566582
-0.06567098 0.22436763 -0.11124746 0.030055877 -0.012558242 0.12418466 0.11034119 -0.07011535
-0.10496173 -0.066862136 0.0856343 0.22807422 0.094769485 0.007285572 -0.076699086 -0.1456398
-0.04799174 0.067640774 0.06913143 0.03168742 0.12908128 -0.077010274 -0.20543523 -0.045102928
-0.1124545 -0.05696815 -0.0075155506 -0.13607064 -0.06670347 -0.16092147 -0.091469474 -0.19881102
-0.18562558 -0.06085205 0.14979082 -0.04316891 0.13059199 -0.08363111 -0.0032744785 -0.020634174
0.008069748 -0.10935035 -0.10687854 -0.069436155 0.16302949 -0.12741937 0.31475478 0.15803069
0.023115767 0.05987821 0.05661797 0.024919324 0.050244004 0.06402614 -0.08074893 -0.22952133
-0.0069289054 0.17947963 0.14536385 0.0071621784 -0.08273808 0.04231341 -0.068201296 0.04877992
-0.08682867 -0.2159534 0.041354325 -0.05653588 0.1659707 -0.057615966 -0.13377982 0.10435418
0.03988901 0.009383379 -0.0004606297 -0.17987606 -0.08918335 -0.031350195 0.06662465 0.055908985
-0.11311961 -0.099517755 -0.15705463 0.065537676 -0.2689299 -0.0012968695 0.14873524 0.047388326
-0.11018843 0.009074798 0.049106207 0.13744056 0.14297655 0.18660037 0.020272026 0.113784455
0.08171025 0.14338917 -0.005114349 -0.033947192 -0.09917275 -0.063338615 0.10469897 -0.09198674
-0.014526864 0.16417839 0.14416957 0.06742066 -0.07438679 0.030418899 -0.08616889 -0.19218247

fc.bias f4 [2]
00000000: ab5f 49be 5e99 bc3d
-0.196654 0.0920894
