saved_models/gat4.pt (torch, 25014 bytes, 14 tensors)

conv1.att_src f4 [1, 1, 64]
00000000: acf1 f43e f5d1 9ebc 106a 2f3d 91d8 ca3e
00000010: 846c 05be 9ad5 e6bc 0f74 17bd 97f9 2cbf
00000020: d038 41bf a044 a3be 3af2 10bf baae d0be
00000030: 8bcc cebe c81d 94be 9f89 4bbe 9a13 9fbe
00000040: 529e b0be 4141 65bf fb2d 303e e418 ee3e
00000050: 261f 623f 3b2f d1be 3ccf e0be 47d0 25bf
00000060: c5d9 5dbe 3aa9 50bf 47cb 173f 33ec 7cbe
00000070: c791 203f 1fbc 003e 4181 b83e c503 51bd
00000080: b981 e03d 4784 b0be 604c 0abd 6b84 12be
00000090: aee4 46bf 60a6 bfbe 1aef 1cbf 7b3c 91be
000000a0: 66f6 0d3f ee44 6a3e 4e9d 7f3e e3c6 9ebe
000000b0: 7b16 d5be c2ac bebe 98e7 77be 7cac ab3e
000000c0: ba8a 5f3e fa86 003f 8e05 c7be d344 e4bd
000000d0: 2082 0e3f 68f4 4bbe 880c d93e 3e02 68be
000000e0: 9bf5 70bf 331f 873e 1968 4bbf 0cea 2abe
000000f0: b566 273e 43e8 103d 978f 33be ab99 6ebf
0.4784063 -0.019387225 0.04282576 0.39618352 -0.13029677 -0.028178025 -0.036975916 -0.67568344
-0.75477314 -0.31888294 -0.5661961 -0.40758306 -0.4039043 -0.2892897 -0.19876717 -0.31069642
-0.3449579 -0.89552695 0.1720504 0.46503365 0.8832878 -0.40856346 -0.43908107 -0.6477093
-0.21665104 -0.8150822 0.5929455 -0.24699478 0.6272244 0.12571763 0.36036113 -0.051028986
0.10962243 -0.3447592 -0.033764243 -0.14308326 -0.7769269 -0.37431622 -0.6130234 -0.28366455
0.554541 0.22877857 0.2496235 -0.31011114 -0.41618714 -0.3724118 -0.2420944 0.33530033
0.21830264 0.5020596 -0.38871425 -0.1114594 0.55667305 -0.19917452 0.42392373 -0.22657105
-0.94124764 0.2639099 -0.79455715 -0.16690844 0.16347773 0.035377752 -0.17535244 -0.9320323

conv1.att_dst f4 [1, 1, 64]
00000000: 71d2 b0be c098 f5be 8956 a0bd 955e 8dbe
00000010: 9640 d8bc 8584 9ebd 2783 2a3f 7775 8fbd
00000020: 954b 923e c73a c7bd 6e4f 8b3e 0ce3 bd3e
00000030: b998 1abe 4101 183e de0f 913c a686 c23c
00000040: e7bd f4bc c90f 6fbe b55f 403e 89b3 fdbe
00000050: d8d2 bdbd d800 8a3e 3959 b13e ad53 85bd
00000060: d260 0c3f ceea 813e 5446 6cbd 8d9d 663e
00000070: ea89 0abf 4069 25bd a74d 02be 60f4 843e
00000080: b70b 633e 8972 33be d17c 573e 378d 32be
00000090: 7563 74bd ad64 b1be d8a4 37be 05eb 7d3e
000000a0: 37a1 a0bd 24e6 a73d 0887 53bd 134b a33c
000000b0: 8e6e 26be 93e4 98bd f21d 22be 5d5f 9d3a
000000c0: cafb 923e 30dd 0a3d 2a08 c13e 6619 29be
000000d0: 2e03 81be 9b1f e7be dd18 12bf 8fdc 07bb
000000e0: c400 1e3f e309 4fbe c493 3dbe d59e ecbd
000000f0: 7195 0e3e f3ce 8f3e 3e44 81bd 1e23 063f
-0.34535554 -0.47968102 -0.07829005 -0.27611223 -0.026397984 -0.0774012 0.6660637 -0.070048265
0.2857329 -0.09728008 0.27209038 0.37087286 -0.15097322 0.14844228 0.017707761 0.023745846
-0.029875709 -0.23345865 0.1878651 -0.49551037 -0.09268731 0.2695377 0.34638384 -0.065101005
0.54835236 0.25374454 -0.057684258 0.22521038 -0.5411669 -0.040383577 -0.12724935 0.25967693
0.22172438 -0.1752416 0.21043707 -0.17436682 -0.059665162 -0.34647122 -0.17933977 0.24796684
-0.07843249 0.08198193 -0.051642448 0.01993326 -0.16253111 -0.07465472 -0.15831736 0.001200657
0.28707725 0.033902347 0.3770154 -0.16513595 -0.25197738 -0.451413 -0.5706919 -0.0020730828
0.6171992 -0.20218615 -0.185134 -0.11553732 0.13924195 0.28087577 -0.06311844 0.52397335

conv1.att_edge f4 [1, 1, 64]
00000000: 59b8 b4be 24ff bcbd 1a14 3ebe 0394 65be
00000010: 9598 abbe e5d8 163e af04 523e 1f19 483e
00000020: 9d44 45bc 50f5 b2bc 786a 313d 3a38 033e
00000030: 5908 0a3e bdff b6be bd44 5fbc 9788 d6be
00000040: df9c 8b3e e6e1 9c3e 0f00 c23e 1b08 533c
00000050: 2fff 9d3e b661 933e dffe 34bc 7fc5 c33c
00000060: 80f7 edba c126 a03e e2a1 b13e 9d9d 86be
00000070: 1f8c 133e 91b7 b13e 8577 8d3e 5b11 0bbe
00000080: 84f4 583c d92f 18be 393a a43e 4099 9b3c
00000090: 2c34 9dbe 9f77 63be 64ec 86be 8ac2 173e
000000a0: 2736 833e d262 a33e d6a9 c43e c9ae e53e
000000b0: b2ad 82be 771d 263e 3ef9 6bbe 87eb ad3e
000000c0: 2152 16bc e922 f63c 5af7 88be 2926 d13e
000000d0: f00d 9cbe 84c1 71bc c9cd 2b3e 64eb 543e
000000e0: 0a9e a7be 96d6 5f3c 6f1a cdbd d309 c63d
000000f0: 69dd adbe 734e ac3d b594 803e b6a3 9abe
-0.35296896 -0.09228352 -0.18562356 -0.22419743 -0.33514848 0.14731176 0.20509599 0.19540833
-0.012040284 -0.02184549 0.043314427 0.12814417 0.13479747 -0.35741988 -0.013627228 -0.41901085
0.2726812 0.30641097 0.3789067 0.01288035 0.30858752 0.28785485 -0.011047094 0.023897884
-0.0018155426 0.31279567 0.3469382 -0.26292124 0.1440892 0.34710363 0.2763025 -0.1358084
0.013241891 -0.14862002 0.3207567 0.018993974 -0.30703866 -0.222136 -0.26352227 0.14820305
0.25627252 0.3191133 0.38410825 0.44859913 -0.25523144 0.16222177 -0.23044297 0.33968756
-0.0091748545 0.030045943 -0.26751214 0.40849426 -0.30479383 -0.01475561 0.1677772 0.2079292
-0.32737762 0.013662001 -0.100148074 0.096698426 -0.33957985 0.084134005 0.25113454 -0.30203027

conv1.bias f4 [64]
00000000: e865 8bbd dad3 24be 15a4 1cbe 6c57 76bd
00000010: 303b 98bd 72d8 b9bd a180 263e c5b0 a33c
00000020: ad74 a8bc 2996 5dbc bf1c 92be b314 243d
00000030: 6b60 07bd 1f1d 7dbd d1c2 e03c 3ac6 503d
00000040: 5ec1 02bd 4368 b5bc da12 ebbd a4d2 84bd
00000050: 6b3b 3bbd 3427 013c 7d03 bebc 4ef4 98bc
00000060: deb9 b03d ff91 40bd 12ef 98bd 66b2 b13d
00000070: f1c4 4abc 1cb9 e7bc a84f 13bb 2551 883c
00000080: bee5 0ebe bb30 8a3c 4444 d9bb acec efbd
00000090: 3876 033d 1b46 2bbd 1476 85be 9186 a8bd
000000a0: 5d08 bdbc 76af 8dbd 0de2 a4bc ffc2 13be
000000b0: ce34 a1bc 1802 03be 8a6c 2fbd 72b7 4abd
000000c0: 0b32 1dbd 3328 abbd 8886 693c eb57 71be
000000d0: ba73 fabc 446e 39bd c79d 4fbe 96e6 98bd
000000e0: b9cf c7bd 6408 7fbe f16e 4abc e17c 83bd
000000f0: 233a e3bd 871a 893d 97a1 c8bd 5e97 08be
-0.068065464 -0.1609644 -0.15296967 -0.060141966 -0.07433164 -0.09074487 0.16260006 0.019981751
-0.020563448 -0.0135245705 -0.28537557 0.040058803 -0.033050936 -0.06179535 0.027436646 0.050970294
-0.03192269 -0.022144442 -0.11478205 -0.06485489 -0.045710962 0.007882882 -0.023195023 -0.018671181
0.08629201 -0.047014233 -0.07467474 0.08676605 -0.012376056 -0.02828651 -0.0022477899 0.016640255
-0.13954827 0.01686894 -0.0066304523 -0.117150635 0.032095164 -0.041814905 -0.2606665 -0.082287915
-0.023075277 -0.06918232 -0.02012732 -0.14429854 -0.0196785 -0.12793767 -0.04282812 -0.049491353
-0.038377803 -0.08357277 0.014253266 -0.23568694 -0.03057276 -0.045271173 -0.20275031 -0.07465856
-0.09756417 -0.24905545 -0.012355552 -0.06420303 -0.11095073 0.06694513 -0.09796446 -0.13338992

conv1.lin.weight f4 [64, 4]
00000000: 0e8b 17bd c00e 50bb 8fe3 373e 881d aabe
00000010: 2148 d63e 3428 88be 3241 1d3e 500b 20be
00000020: 7671 21bd d81a fd3d c1ed fb3d e153 84bd
00000030: e983 03be b63a c83d 29a7 ce3d 5404 96be
00000040: a2c5 f93e 2c4c 4fbe a328 873d 8b8c b1be
00000050: 25c9 c13e f6b7 3b3d b08b ec3d e9be dabe
00000060: 6f23 23be 87ee ae3e 93a3 b4bd 3a4b 9b3d
00000070: a187 9b3e 44b0 143d 5efe 22bd 6d56 a83e
00000080: 84a0 e63e 99b4 48bc b1b1 b8bd 448e bd3e
00000090: 757a b63e 8506 dcbd be4b 9cbc 2afe 8b3e
000000a0: 6c1d ef3d 2694 8c3e 6650 323d 6d30 1dbe
000000b0: 939b 14be 1f05 323e aeb7 e1be 94e1 223e
000000c0: c74b af3e 19f1 5bbe 9833 103b 41f0 323e
000000d0: 64db f23e 87b2 cebd 2d2e c43d 561f c2be
000000e0: 8369 3a3c 9b2b 2dbd cb78 bfbe 6c1b 783e
000000f0: d512 da3c b368 0d3f 77a2 2f3e 87c3 2d3d
00000100: 5332 b93e d1a5 92be ace3 34bc c218 0b3e
00000110: 4ccf a83e 4870 05be 04a7 83bc a89f 623e
00000120: 2828 9e3c f383 5bbd 04a1 8dbd e53a aebe
00000130: aeb3 c23c d2b2 33be b5fd db3d 2755 c13d
00000140: 42b1 f8bc 9001 61bd 8de7 973e 6fb9 efbe
00000150: 0454 2fbd 2534 593d 0b7d a4be e9b5 3b3e
00000160: 44ea 343c 17e3 cb3d 7b84 f3bc d8c3 da3e
00000170: 85f6 953e f9b4 fabd 8f28 70bc f34d 433e
00000180: 45d0 90be ff10 0d3e 3c27 7fbe ad8e 883e
00000190: 9ef3 953e e588 473e 296c 5bbe 1f19 5f3e
000001a0: 9af2 e33d bc17 81be ca5e aabc 7193 d2be
000001b0: 9494 81be 7e12 823e 54e9 a73e 6dc5 943e
000001c0: 6455 fe3d ea69 90be 31be 033e 2327 9dbe
000001d0: 23ae 68be 91a4 b4bd 4b4c 76be e24a 883e
000001e0: 796a 37be 3691 cebd 8d34 69be 689b 843e
000001f0: 1c6a 0fbd c9e7 943b 82a1 a0be c630 4f3e
00000200: 9f04 84bc 664a afba 77b5 3bbe 8c63 103d
00000210: 09d5 133e 7acb fd3e cef0 513e 5e4c 273d
00000220: c8a8 82be 136c f2bb 787e 38be 9e85 993d
00000230: 2338 813e 010a 8cbe 166c 61bd bd6a 713e
00000240: b4ca 4b3e 78a0 6f3e 61a4 d7bc ba8b 113f
00000250: 7a4e fe3e a0db 88be 7f7a 293d 93f4 86be
00000260: eb65 49bd cd29 d53e abb7 f03c dc9a 663e
00000270: aa5f b13e 78af 253d b89f d73d d286 c7be
00000280: e1f0 fc3d c497 35be c1db 253d 043d 8cbe
00000290: cf49 aebd 1203 3f3d 67e8 073e a68d a5be
000002a0: dd9e 6dbd 0096 a8bb ff02 863e cea7 f3be
000002b0: 3e44 583e 8d81 3ebd 2ccd a93c ef63 c23d
000002c0: 9d68 9d3e 3107 e2bd d981 a3bc 16c3 5d3e
000002d0: 24d8 5f3e ef7d ac3d ce1f 04be 18c9 6a3e
000002e0: 88a9 813e 9129 34be 89dc a5bd 2523 793d
000002f0: e7b5 c5bd f637 8d3d d15d 153e f91f b2be
00000300: 399f 263e 70c9 09be df30 bcbe f9a0 c4bd
00000310: a253 1f3c 7609 02be 54bd 063e a065 bbbe
00000320: 1d28 463e 50ba c93d 922b 87bc 7072 be3e
00000330: dbeb d33c 8b66 d63d 358d 183e c629 2b3e
00000340: 544d 69be e2c3 6fbc 6497 7d3e bc89 893e
00000350: cfc5 1f3e 7c10 013d d984 cf3d d35c 053e
00000360: 13f4 7a3b 0ea0 c2ba f994 0c3e 1884 53be
00000370: 1eda f63c 761a 923e d20b 84bd 72db 52bd
00000380: f56d c83d 01cf bd3e a4b3 c8be 105f 9d3d
00000390: ef6e b1bd c668 39bd e4c1 bd3d 2444 59bb
000003a0: be67 903e 41c2 a7bd 2ce8 00bd 4bf5 db3e
000003b0: 7fa4 bc3e 9871 41bd 5f8b b13d e305 abbe
000003c0: d25f 9c3e 7fa2 8d3d c194 d93d 3342 d0be
000003d0: 8646 7ebe db64 033e 3265 e7be a4a1 9e3e
000003e0: b01d c63e 5056 8b3d 1d34 003e 847c e8be
000003f0: 9d0c f33e 0b7f dc3e 3637 dcbe 4ccd c53e
-0.036997847 -0.0031747073 0.179579 -0.33225656 0.41851905 -0.26593173 0.15356901 -0.15629315
-0.039414845 0.12358636 0.12301207 -0.06461311 -0.12843288 0.09776823 0.10090477 -0.29300177
0.48783594 -0.20243901 0.06599548 -0.34677538 0.37848774 0.045829736 0.11550081 -0.42723778
-0.15931486 0.34166357 -0.08820262 0.07582708 0.30376914 0.036300912 -0.039793365 0.32878438
0.4504434 -0.012250089 -0.09018267 0.37022603 0.35640302 -0.10743431 -0.019079085 0.2734235
0.11675534 0.27456778 0.043533705 -0.15350504 -0.14512472 0.17384766 -0.4408545 0.15906364
0.342375 -0.2147869 0.0022003409 0.17474462 0.47433007 -0.10092645 0.0957912 -0.37914532
0.011377695 -0.042277914 -0.37396845 0.2422921 0.026620308 0.55237883 0.17151819 0.042422798
0.36171207 -0.28642133 -0.011040609 0.13583663 0.32970655 -0.13031113 -0.01607085 0.22131217
0.019306257 -0.053592633 -0.06915477 -0.34029308 0.023767319 -0.17548683 0.1074175 0.0944007
-0.03035796 -0.05493313 0.29668847 -0.46821162 -0.042804733 0.053028245 -0.3212665 0.18331112
0.011042181 0.09955423 -0.029726258 0.42727542 0.29289642 -0.12241549 -0.014658107 0.19072704
-0.28283897 0.13776015 -0.2491731 0.26671353 0.29287428 0.19485815 -0.21427979 0.21786927
0.11130257 -0.2521342 -0.020797152 -0.41128114 -0.2530867 0.25404733 0.32795203 0.29056874
0.12418631 -0.28205806 0.12865521 -0.3069392 -0.22722678 -0.08820451 -0.24052541 0.2661963
-0.1791171 -0.100862905 -0.22773953 0.25899816 -0.035013303 0.0045442325 -0.3137322 0.2023345
-0.016115485 -0.0013373613 -0.18330942 0.035251185 0.14436735 0.49569303 0.20502016 0.040844314
-0.25519395 -0.0073981374 -0.18016994 0.074961886 0.2523814 -0.27351382 -0.05503472 0.23575874
0.19901544 0.23401058 -0.0263235 0.5685383 0.49669248 -0.2673006 0.041376587 -0.2635847
-0.049169462 0.41633454 0.029384455 0.22520012 0.34643298 0.040450543 0.10528511 -0.38970047
0.123506315 -0.17733675 0.040492777 -0.273903 -0.085101716 0.046633787 0.13272248 -0.32334632
-0.058012832 -0.0051448345 0.2617416 -0.47588962 0.21119782 -0.046510268 0.020727716 0.09491717
0.30743876 -0.11036528 -0.019959377 0.2165645 0.21859795 0.084224574 -0.12902758 0.22928274
0.25324655 -0.17593981 -0.08098704 0.060824532 -0.09653836 0.06895439 0.1458657 -0.34790018
0.16271676 -0.13455749 -0.36756036 -0.096010156 0.009724529 -0.12698922 0.1315816 -0.3660097
0.1935124 0.098499894 -0.016500268 0.37196684 0.0258693 0.10468777 0.14897616 0.16715154
-0.22783405 -0.014634104 0.24764782 0.26862895 0.15602802 0.03150986 0.101327606 0.13023691
0.0038292452 -0.0014848725 0.13728704 -0.20655859 0.030133303 0.28535813 -0.06447567 -0.05147881
0.09786598 0.37071994 -0.39199555 0.07684147 -0.08663737 -0.045265935 0.09265497 -0.0033152187
0.2820415 -0.08191348 -0.031471416 0.4296058 0.3684425 -0.047227472 0.08669161 -0.3340293
0.30541855 0.06915759 0.10624076 -0.40675506 -0.2483159 0.12831442 -0.45194393 0.30982697
0.38694525 0.06803572 0.1251988 -0.45407498 0.4747056 0.43065676 -0.43010873 0.38633192

conv1.lin_edge.weight f4 [64, 2]
00000000: 013a 8e3c f2d0 e2be e482 1abe f2c3 943d
00000010: 5756 c5be a846 22be 8c13 0ebc aad0 8cbe
00000020: 7928 b03d f814 e2be 590c c03d d3e4 8a3e
00000030: 5a77 aebd 0b46 343e 2340 4dbe 5d7f 993e
00000040: eacf 083d 50b8 36bd 41c9 b13d 1695 ebbd
00000050: 8660 cebd 17f0 143e a926 3fbe 5dd8 1c3e
00000060: f5ca 943e 8efd b63e 15bd 38be b6cc 3bbe
00000070: fd07 1d3d 12cd 8ebd b364 7dbe 9f6a ebbe
00000080: c997 8e3e 5c05 2b39 bff9 523e eccb 973e
00000090: de65 20be 6a0b d53e 6bb6 233e 0245 c8bd
000000a0: af3e c53d c5f3 a33e f1ee c13e 94f8 533e
000000b0: d7e0 703d 85f8 83bd dfdb afbd 2ed1 e73d
000000c0: 5969 be3b 2f05 efbb c90f 8d3e 8b27 323e
000000d0: c72f bb3e b54e 3dbd 53f4 14bd b227 e8be
000000e0: 5473 b93e f8e9 513e 4d2d 0b3e 0611 a13e
000000f0: 9e88 61bc eaa7 b03e b6d5 143e af47 edbd
00000100: 4f90 48bd 4d80 723d 8614 15be 74a1 97be
00000110: b984 8d3e 0ac2 ca3d 03f2 84bd 0af5 9fbd
00000120: 8420 703d 8412 3cbe 1310 6ebe 735b 4bbe
00000130: c784 80be 1bc7 50be 06fc 0c3e cb0f 5e3e
00000140: eea9 f93d 8b42 9c3e 5427 873e f055 e13e
00000150: 44f7 8d3e 227b d43d 75b4 ee3b e67c e53e
00000160: 5000 2dbe 1912 a6be 5551 ac3e a5fc 3c3e
00000170: 6b1d 42be ccba a8be 483b 383e 9582 5b3e
00000180: fca7 be3c f971 12bd c96a c43d 5f4b 3f3e
00000190: 9a6f 8abd 230c 23be 9293 233e 821e d53e
000001a0: e3f5 b0be 878f c3be f880 4c3d d3e1 81bd
000001b0: 4a4f 173e 5769 0d3d 192d 193e b5fd 9f3d
000001c0: 03fa 3ebe 4dee 8bbe 067d 2d3e 4117 fbbd
000001d0: 4956 b9bd e93f 77be 603d b03e 113d a8bd
000001e0: 431e 85bd 012d 2ebe a19d 55bd f92e 12bd
000001f0: 13fa 7a3c 7915 2f3e 13f8 89be bf4d a5be
0.017361643 -0.44300038 -0.15088993 0.07263936 -0.38542435 -0.15847266 -0.0086716525 -0.27502948
0.086014695 -0.44156623 0.09377355 0.27127704 -0.08518858 0.17604844 -0.20043997 0.29979983
0.033401407 -0.044609368 0.08680964 -0.11503045 -0.10077004 0.14544712 -0.18667091 0.15316911
0.29061094 0.35740322 -0.18040879 -0.1833981 0.038337696 -0.06972708 -0.24745445 -0.45979783
0.27850178 0.00016309827 0.20603083 0.29647768 -0.15663859 0.4161027 0.15987556 -0.09778787
0.096310966 0.3202192 0.3787761 0.20700294 0.058808174 -0.06443886 -0.08586859 0.11319195
0.0058108983 -0.007294319 0.27551106 0.17397897 0.3655989 -0.04621764 -0.03636582 -0.45342785
0.362208 0.20499408 0.135915 0.314583 -0.013765482 0.34503108 0.14534649 -0.11585938
-0.04896575 0.05920439 -0.1455861 -0.29615366 0.27640322 0.09900291 -0.064914726 -0.07810409
0.05862476 -0.18366438 -0.2324832 -0.19859104 -0.251013 -0.20388453 0.13768014 0.21685712
0.12190615 0.30519518 0.26397192 0.44010878 0.2772771 0.10375048 0.0072846957 0.44821852
-0.1689465 -0.32435682 0.336558 0.18455751 -0.18956535 -0.32955015 0.17991364 0.21436532
0.02327346 -0.035753224 0.0959068 0.18681096 -0.067595676 -0.15922599 0.15974262 0.41624838
-0.34562597 -0.3819544 0.04992768 -0.06341901 0.1477634 0.034524288 0.1495861 0.07812063
-0.1865006 -0.27330247 0.16942224 -0.12260295 -0.09049661 -0.24145474 0.34421825 -0.082147725
-0.064999126 -0.17009355 -0.05215228 -0.035689328 0.015318411 0.17098035 -0.26947078 -0.32285878

conv2.att_src f4 [1, 1, 64]
00000000: 0f16 b63d 1eb8 173f 3b90 913e c7f9 e8be
00000010: 1b10 053f 2671 cb3e 7dfd 283e 5a5a 2ebe
00000020: 2144 b0be 624d fcbe 9b5d 6d3f 9300 41bd
00000030: 2942 c73e 890f bcbe 7f4e af3c 3456 763f
00000040: 17e2 3fbc 6aa0 223f e81e 53be 3be0 86be
00000050: 4cd9 903e a3bb d0bd 3ef1 95be cd9f 4d3d
00000060: 5369 d03d 565e 2fbe e8af 97bf 57b9 7bbe
00000070: d297 30be eb4c 27bf 483b adbe b030 513f
00000080: 6754 46bd a654 efbe 7b90 03bf 4fd9 233f
00000090: 0e89 32bf f822 31be 5a2c d4be aee3 d03e
000000a0: e594 163f 065d d9be a631 3cbf 0497 933f
000000b0: 4d51 173f 8e1c 3e3f 8012 a03e b489 193e
000000c0: 50fd e43e 595e 21bf 1fa7 c1be 9cdf 393f
000000d0: 5063 6ebe 4fe4 0e3f 0fe8 d6be 185c 9bbe
000000e0: cee6 843e ef68 cebd 3366 5ebf b326 92be
000000f0: d2e1 50bf b31d 8c3d f65b 85be f56a dc3e
0.08890926 0.59265316 0.28430352 -0.45503065 0.519777 0.39734763 0.16502948 -0.17026654
-0.34426978 -0.49277788 0.92720956 -0.04711969 0.38917664 -0.36730602 0.021399735 0.96225286
-0.011711619 0.6352602 -0.20617259 -0.2634295 0.28290784 -0.10192039 -0.29285616 0.050201226
0.10176339 -0.1712583 -1.1850557 -0.2458242 -0.17245415 -0.6535174 -0.3383429 0.81714916
-0.048420336 -0.4674427 -0.51392335 0.6400346 -0.6974038 -0.17298496 -0.41440088 0.40798706
0.58820945 -0.42453784 -0.7351326 1.1530461 0.5910843 0.7426232 0.31264114 0.14993936
0.44724512 -0.6303459 -0.37822816 0.72606826 -0.23280072 0.5581712 -0.41973922 -0.303437
0.2595734 -0.10078608 -0.86874694 -0.2854515 -0.81594574 0.06841602 -0.26046723 0.43050352

conv2.att_dst f4 [1, 1, 64]
00000000: a176 91be 1480 a7be 8096 0c3f 5d85 623e
00000010: 44fd bebe 9402 3c3f ae71 d8be 5865 6a3e
00000020: aa61 afbe 3709 b43e d43e 0bbf c115 80be
00000030: 37d5 373e d4f2 133f 69be 84be 48ac 2bbf
00000040: 2ef1 663d 5d64 c5be 05b7 b83e 1bb3 a7bd
00000050: 7227 0ebe 6012 a9be ea23 11bf e7bb f13e
00000060: b64a d8bd e10c ae3e fb3a b83e 2ad9 4f3d
00000070: 5885 bc3e 0e21 933e 95fc 883e 7e78 f3be
00000080: 1f03 bdbe 5f21 e7bb 66e1 a43e c755 0fbf
00000090: 7ea6 e7be a608 893b 3e89 e4bd efa3 07bf
000000a0: f193 cabe 40cd 273f 5894 e33e 8811 2bbf
000000b0: d97a 1abf 40cb 92be 9655 4c3d 2400 043f
000000c0: 3368 b43e 7c9b f33e 7fe7 ce3e 793d e6be
000000d0: 4349 35be 0693 05bf 55a6 b7be 4d39 b93e
000000e0: 40aa 26be b367 8b3e 816a 09bc 9d50 2f3f
000000f0: 651c 213f 070b 1abf 2dfd b83c 67b4 0abf
-0.2841082 -0.32714903 0.54917145 0.22121187 -0.373026 0.73441434 -0.4227423 0.22890222
-0.342542 0.3516328 -0.54392743 -0.25016597 0.17952429 0.577924 -0.2592652 -0.67059755
0.05638235 -0.38553134 0.36077133 -0.081884585 -0.13882235 -0.33021832 -0.56695426 0.4721367
-0.10561125 0.339942 0.359825 0.050744213 0.36820483 0.28736156 0.26755205 -0.47552866
-0.36916444 -0.0070535387 0.32203215 -0.5599026 -0.4524421 0.004181939 -0.11158989 -0.5298452
-0.39565995 0.6554756 0.44449115 -0.66823626 -0.603437 -0.28670692 0.04988631 0.51562715
0.35235748 0.47579563 0.40410993 -0.44968775 -0.17703728 -0.52177465 -0.3586909 0.3617653
-0.16275883 0.27227554 -0.008387209 0.6848238 0.6293395 -0.60173076 0.022581661 -0.5418152

conv2.att_edge f4 [1, 1, 64]
00000000: 58fc 433c de27 6e3d 0cce 163e e907 2abe
00000010: 91e0 95bb 2e38 423e c293 743e deb9 f4bd
00000020: d459 0c3e 2d81 27bd 97e0 6dbe 0da6 a3bb
00000030: af94 09bd 1ca7 14bd bc4f 6fbe 9800 e3bd
00000040: 63d1 df3d c797 18be 29e3 ff3d a844 8e3e
00000050: e193 9dba c78d d0bd 9a4f 40be a987 a33d
00000060: bb91 303e 3c50 f6bd a97f a339 6174 a5be
00000070: b6b5 1abe fc7d 5d3b fbce 62be e569 303d
00000080: b605 d23c 734d 4bbd 9f34 923d a120 93be
00000090: a14c a6bb 4275 8f3d 421e 513e 6064 e8bc
000000a0: 6277 90bd 2794 af3b 9132 c1bd 88a6 02be
000000b0: db06 413e 35ee 743e c533 233e 7412 5bbe
000000c0: 0475 333e 6e92 1bbd 003d 9d3c a89d 3fbe
000000d0: 8016 063e aced b4bb 81c3 163d 2014 853e
000000e0: a0b2 28be b174 7b3e 5b51 403e 736a e73d
000000f0: 5fec 5b3e f3e2 5fbd c0ce 5abe 20a3 4a3b
0.011962019 0.05814349 0.14727038 -0.1660458 -0.0045738895 0.18966743 0.2388449 -0.11949514
0.13706142 -0.040894676 -0.23230205 -0.00499416 -0.03358906 -0.03629218 -0.2337026 -0.110840976
0.10928609 -0.14901648 0.12494499 0.27786756 -0.0012022221 -0.10183292 -0.18780366 0.079848595
0.17243092 -0.12027022 0.00031184897 -0.32315353 -0.1510838 0.0033797016 -0.2214927 0.04306974
0.025637489 -0.04963441 0.07138943 -0.2873583 -0.005075053 0.07004787 0.20421699 -0.028368175
-0.070540205 0.0053582373 -0.09433473 -0.12758839 0.18850271 0.23918994 0.15937717 -0.21393758
0.17525107 -0.037981443 0.019194126 -0.18712485 0.1309452 -0.0055214968 0.03680754 0.25991917
-0.1647439 0.24556233 0.18781035 0.112996005 0.21476887 -0.054659795 -0.21367931 0.0030919984

conv2.bias f4 [64]
00000000: 2bd0 d8bc 6a68 263d c2d4 3c3b 8a6c 39bd
00000010: a767 39bd 259a 0cbe 3ad9 c9bc 8ea1 63bd
00000020: 35bc b33d 3f2d 69bd ef9c 093e 8033 903d
00000030: efff abbd b56c a4bb c240 6abd ea38 b6bc
00000040: a580 6c3d dbe3 78bd d5ba bcbc 04ed a53d
00000050: aa67 173d 1fa6 a3bc 16d9 44bc 682a 773c
00000060: 6e25 3b3d c0a0 adbd 9c06 633d e47b 993d
00000070: 2a4e 4f3d e255 24bd 9070 753d 7faa 493d
00000080: e2f8 bcbc 8129 67bd 68dc 13ba 6f0b 7f3d
00000090: 996c 1c3d 62e1 2bbd 1d39 0dbd 6e91 b53d
000000a0: 97dd 553d d68d a6bd a035 95bd 1e9c 93bc
000000b0: afb2 3a3e 785d 25bd e9cf 8bbd c958 c4bc
000000c0: deec 07be 88ad 81bc f8e1 8cbd 1ffb 883d
000000d0: 3507 42bd f7f9 93bc 43db e43d 5f20 74bd
000000e0: d168 5a3d a4c6 7abd d4bb 513e c337 93be
000000f0: 4037 aabd b5b9 073e b2fe a43d 72f8 5e3d
-0.02646645 0.04062692 0.0028813337 -0.045269527 -0.045264866 -0.13730676 -0.024639715 -0.055573992
0.08776132 -0.056927916 0.13438772 0.07041073 -0.08398425 -0.0050178417 -0.057190664 -0.022243936
0.057739872 -0.060764175 -0.023038307 0.08101848 0.036964096 -0.019976674 -0.012014648 0.015085794
0.045689993 -0.08477926 0.055426225 0.074943334 0.050611652 -0.040120967 0.0599218 0.049234863
-0.023067895 -0.056436066 -0.0005640448 0.062266763 0.038189504 -0.04196299 -0.034478296 0.08865629
0.052213278 -0.08132522 -0.07285619 -0.018018778 0.18232225 -0.040372342 -0.06826765 -0.023968117
-0.13273951 -0.015829816 -0.068790376 0.066885225 -0.047370154 -0.018063528 0.11174633 -0.059601184
0.053322617 -0.061224595 0.20481807 -0.2875348 -0.08311319 0.13254435 0.08056392 0.054436155

conv2.lin.weight f4 [64, 64]
00000000: be83 c8bd 5f4e 103e 7e40 2bbc 39ec 303e
00000010: 5d72 60bc 9a67 50bd fc07 99be 5f8f 06be
00000020: eabd 6e3d ec4e a03b 7169 903d 008a a8bc
00000030: 5f70 5b3d b938 25bd 4a01 cebd dab5 83be
00000040: 352a 373e d749 ef3d 0d1a 143e f0bd 8cbe
00000050: e9ea 923e 0882 06bd f3c8 66be b22f 54bc
00000060: 8998 75be 5ece ca3d a2e4 08bd dbd1 ee3b
00000070: 7ab0 1a3e eb75 74be 43ac 2fbe c0df 8cbc
00000080: 7f4f 0abe ac7c 2cbb 9357 cebd 7df4 533d
00000090: 6fae 20be 2ff8 a13e c2b0 91be 78f4 5fbd
000000a0: d154 d83d 5997 b33d d040 853e 6aff d2bd
000000b0: ace7 6bbe fc12 50be d927 0a3e ca95 333e
000000c0: 7740 38bd 20bf dc3d 0862 aabd c7b8 113e
000000d0: 20b1 7a3d f18c b23c 3c74 233e b088 87bd
000000e0: f749 573c 061d b9bd bd66 393e bdc3 3e3e
000000f0: 444a 293d 351f b7be 7b5a 803e caed 913d
00000100: adfd 4a3e 2eec febd 88b5 a0bd 7eed 03bb
00000110: 3516 84be 0d2b 58be 0a5b 3e3e 6334 65be
00000120: df7b ddbd 33ec babe a729 bbbc f561 043e
00000130: 7259 98be d0f7 a2be 62f2 8e3d fcc6 583e
00000140: fa81 bcbe 58ab dcbe 5e4c 09bd e4b4 863d
00000150: d724 8f3d d876 843e e328 bebd b6af b3be
00000160: b829 f83d 431a 94be b7b4 7dbe 2a0e 463e
00000170: 1222 6f3e d5bc 03bd b456 753e c794 653c
00000180: cd4a 933d e90b 8d3e 4a8c b5bd 2a0d 05be
00000190: e36d 92be 16d9 78be 2162 1ebe 0a8a b5be
000001a0: 0e5e 16be 38f0 e53d c72e 4c3e 0ae6 47bd
000001b0: 1026 78bd 1494 2abe d5b3 c9bd cbe1 00be
000001c0: 6ffc 643e 8ec9 a33d 3d72 5cbe 0e29 b2be
000001d0: 1615 b73d c175 153e cff2 5bbe 5791 27be
000001e0: 6880 af3d 29c5 8f3e 29ff d7be 3816 0fbe
000001f0: 23ef 1dbe 10e9 013e dcfb 6ebe b73f f53c
00000200: ce91 40bd ef4a 0dbe c9c7 27be f8bc f43d
00000210: 4dea a9be 130c 8c3c 8de2 c83e 5ad7 4bbe
00000220: 4761 4cbc 4e4f 49be 34b3 373e 0bd7 863d
00000230: c023 fabd b766 c5bd 8bd2 8b3e 7fd7 a23e
00000240: 55a2 17bd 4fdd ccbd b0dc 80bd 2b63 753e
00000250: 5009 67be 7d88 a13d 8419 38be 3d37 c33d
00000260: 99a5 553e 6d50 95bd c582 66bd 0e50 ab3e
00000270: 9abf 8bbd a7ec 7d3e 2b46 103d d3e3 6a3e
00000280: 1a3d 473d 67d7 aa3e 7dcf 2cbd 8b32 31be
00000290: 97b8 ec3d 147f 9ebe 9a8b 863e c2a4 b4be
000002a0: c8b1 fbbd 658c 373d 60ab 40be 41d4 1b3e
000002b0: 2ead a2bd 2c23 4e3d e1b9 5e3e c579 dbbd
000002c0: 2c89 293d 1d79 14be 8b1f 1a3e b1a5 34be
000002d0: 70ab c63d f9a6 b6bd 670c dcbd 4cea aa3d
000002e0: d51c 703d edb7 823d 1ad2 f9bd 59fe acbd
000002f0: 527e 84be 381b 973e fc97 503c b9f6 2fbd
00000300: 99be bc3c dbc5 abbd 84d2 623e 8e13 873d
00000310: 6ae8 d03e 36ce 6a3e 9d45 aabd 4657 1e3d
00000320: 94b7 2fbd ab3a 353d b0da 7fbd 8117 b0be
00000330: cf7e c03e d46f af3e c5d9 31be 2e12 393d
00000340: 3131 d33e 6c93 353e 993d 813e 565f 52be
00000350: 159b ab3c 834a cdbd 0c7e 6a3d 5596 f03c
00000360: 6d6d 433c f2f6 913d 5630 bb3d e5ad bc3d
00000370: 0fc4 70bc 1e62 26be 0317 abbd 31d6 70be
00000380: 0928 b33d d9c0 83be 2717 08be e142 473e
00000390: 4710 84bc 134a 0c3f 3b36 8a3d 96ac a73e
000003a0: 84c6 aebb 003a 8c3c 7811 f5bd 5eec b43d
000003b0: 140d c43d e5d9 a0bd 811e 333e 7ed9 093e
000003c0: 9324 e4bd f848 863d 2d2f 6c3d c18f a23b
000003d0: 6338 83be ea84 07be c83e c6bd e21a 74be
000003e0: 086d 8e3d 3a33 2cbe 63db 193e bed1 6b3e
000003f0: 5304 8a3e 9059 6fbe 2360 2f3e 8055 143d
-0.09790753 0.14092396 -0.010452388 0.17277612 -0.013699141 -0.050880052 -0.29888904 -0.13140629
0.058286585 0.0048922207 0.07051361 -0.020573616 0.053573962 -0.040337298 -0.100588396 -0.2572468
0.17887194 0.11684006 0.14463063 -0.2748866 0.28694847 -0.03283885 -0.22537594 -0.012950825
-0.23983969 0.09902643 -0.033421166 0.0072882003 0.15106383 -0.23873107 -0.17155556 -0.017196536
-0.13506888 -0.0026319427 -0.10075297 0.051746834 -0.15691541 0.31634662 -0.28455168 -0.054676503
0.105630524 0.08769102 0.2602601 -0.103026226 -0.23037595 -0.20319742 0.13491763 0.17537609
-0.044983353 0.10778642 -0.08319479 0.14230643 0.061204076 0.021795722 0.15962309 -0.06617868
0.013140193 -0.09038739 0.18105598 0.18629356 0.04133059 -0.35765997 0.2506903 0.07125433
0.19823332 -0.124473915 -0.07847124 -0.002013057 -0.25798193 -0.21110173 0.18589416 -0.22383265
-0.10814642 -0.3650833 -0.02284701 0.12927993 -0.2975574 -0.3182969 0.069798246 0.21169657
-0.36817914 -0.43099475 -0.033520095 0.06577471 0.069894485 0.2587192 -0.09285142 -0.35094994
0.12117332 -0.28926286 -0.24775968 0.1934134 0.2335284 -0.032162506 0.23958856 0.014012522
0.071920015 0.2754815 -0.08864649 -0.12993303 -0.28599462 -0.24301562 -0.1546712 -0.35456878
-0.14684317 0.11227459 0.19939719 -0.048803367 -0.060583174 -0.1665805 -0.09848753 -0.12586133
0.22361921 0.07997428 -0.21527953 -0.34796947 0.08939569 0.14595701 -0.21479343 -0.16364037
0.085694134 0.2808011 -0.4218686 -0.1397332 -0.15423255 0.12686563 -0.23338264 0.029937608
-0.04701405 -0.13798116 -0.16384806 0.119501054 -0.3318657 0.017095601 0.39235345 -0.19906369
-0.012474365 -0.19659159 0.17939454 0.06583985 -0.1221385 -0.09638732 0.2730907 0.31805035
-0.037020046 -0.10003149 -0.06292093 0.23963611 -0.22562146 0.07887361 -0.17978483 0.0953202
0.20863952 -0.072907306 -0.056277055 0.33459514 -0.068236545 0.24797307 0.035223167 0.2293847
0.048642255 0.33367464 -0.042190064 -0.17304437 0.11558645 -0.30956328 0.26278383 -0.3528195
-0.122897685 0.044811625 -0.18815374 0.15217687 -0.07943188 0.05032651 0.21750595 -0.10716585
0.041390583 -0.14499326 0.15051095 -0.17641331 0.09700668 -0.08918566 -0.10744553 0.0834547
0.058621246 0.06382737 -0.12198277 -0.084469505 -0.25877625 0.29512954 0.012731548 -0.042959902
0.023040103 -0.08387347 0.22150618 0.06595527 0.40802318 0.22930226 -0.08314059 0.03865745
-0.042899683 0.044245403 -0.062464416 -0.34392932 0.37596747 0.34265006 -0.17368229 0.045183353
0.41248468 0.17732018 0.25242308 -0.2054418 0.020947972 -0.100239776 0.057249114 0.029368559
0.011927945 0.07127179 0.09140079 0.09212855 -0.0146951815 -0.16248366 -0.083539985 -0.23519208
0.087478705 -0.2573307 -0.13290082 0.19459106 -0.016121043 0.5480053 0.06748625 0.3274886
-0.0053337235 0.0171175 -0.119662225 0.08834146 0.09572807 -0.0785406 0.17492105 0.13461873
-0.111397885 0.065568864 0.057662178 0.0049609845 -0.25628957 -0.13234296 -0.09679943 -0.2383838
0.0695439 -0.16816416 0.15025096 0.23029229 0.26956424 -0.23374009 0.17126517 0.03621435

conv2.lin_edge.weight f4 [64, 2]
00000000: d0f3 3e3d 0811 223d 61c6 92be 28ee 9f3e
00000010: d377 abbd e913 113d cc7a 613e ea26 803d
00000020: 2fa1 1bbe 1a8b 213e 3068 88bd b8de 3ebe
00000030: 75b8 823e 40f1 1fbe 9928 94bd 1128 3b3e
00000040: 53dc 32bc bfa7 a63e db57 4cbd ca0a 29be
00000050: ba3d 93be 6879 063e de02 3a3e cd67 3ebe
00000060: 3626 38be fd38 2c3e 3c9d 60be 0094 653e
00000070: 163f 3c3d 30e3 77be 7a02 af3c 3b93 c83c
00000080: f1d2 073e d602 273e 7f46 2ebd 8cd6 4e3e
00000090: c032 8e3e fbef 13be 0c6d a63e 09fb cbbd
000000a0: d343 023e 0212 04be b205 0cbe 6ea7 50bd
000000b0: c2d4 013e ab5d 34be 8a4a 53be 4d7f 3b3e
000000c0: a17c 1ebe ef17 423e a01b 36be 2bfb 123c
000000d0: ea4b 06bc 9d7b 063c 719d 76be 69fd 48bd
000000e0: 7753 5cbd eb91 01bd 9a6c 7bbd 03ec 723d
000000f0: 0909 513d b724 2f3e fea4 6ebd ee66 853d
00000100: 4fb4 1b3e 799d 14be 4466 41be c8eb 3a3e
00000110: 993e 833c c664 cbbc 455c a9be 8566 943d
00000120: 8c2a 1c3e f166 1bbe 84d1 08be 2b0b 9d3d
00000130: 7ae4 bdbd 24ba 32be 1e6c 37be 5623 383e
00000140: 32e5 883d be76 69bd 3da0 88bd b33e 833d
00000150: 98dc 493e 35a3 6abe ea3a 2bbe 197b 4e3e
00000160: 2656 b33e 4dc3 85be 1589 813e d891 653e
00000170: 78e9 88be f573 a13e bdeb 0abe e409 76bd
00000180: c13d 6d3e 50a4 2cbe 191d 93be 2821 8e3e
00000190: 9464 7d3e 5e14 87be 8374 99be 10d5 67be
000001a0: 7d45 53be 6211 23bc c84d 9f3d cc06 9abd
000001b0: 0d4d ef3d c5dc ddbd 0e7c 743e 6c92 213e
000001c0: 92f2 33be ef9f 653e 846b 0e3e 7f22 103d
000001d0: edd9 52bd 5f13 4b3e 90f7 ee3d 8443 41be
000001e0: 9d81 a73e 58c2 57be ce84 aebd 2035 393d
000001f0: 6065 9bbe 8307 fb3b 5fd8 0ebe 1347 0f3e
0.046619236 0.039567024 -0.28666976 0.31236386 -0.08372464 0.03541938 0.220195 0.06257422
-0.15198205 0.1577572 -0.06660497 -0.18639648 0.25531355 -0.15619373 -0.07234306 0.18277003
-0.010916787 0.32549855 -0.049888473 -0.16508022 -0.2875803 0.1313225 0.18165156 -0.18594284
-0.17983326 0.16818614 -0.2193498 0.22419739 0.0459586 -0.24207759 0.021363486 0.024484267
0.13264062 0.16309676 -0.0425477 0.2019903 0.27773094 -0.14447014 0.3250507 -0.099599905
0.12721185 -0.12897494 -0.13674048 -0.050940923 0.12678817 -0.17613856 -0.20633903 0.1831028
-0.1547723 0.18954442 -0.17783976 0.008971016 -0.00819681 0.008208183 -0.24083497 -0.049069796
-0.053790536 -0.0316333 -0.061382867 0.05930711 0.051034007 0.1710385 -0.058262818 0.06513773
0.15205501 -0.14513196 -0.18886667 0.18254006 0.01602106 -0.024828326 -0.3307821 0.072461165
0.15250605 -0.15175988 -0.13361174 0.07668146 -0.09272094 -0.1745382 -0.17912337 0.1798223
0.066843405 -0.056998007 -0.06671188 0.06408443 0.19713056 -0.22913821 -0.16721693 0.20164146
0.35026664 -0.26125565 0.25299898 0.22418916 -0.26740623 0.3153378 -0.1356649 -0.060068026
0.23168088 -0.16859555 -0.28733137 0.2775967 0.24745399 -0.26382726 -0.29971704 -0.2263987
-0.20631976 -0.009952875 0.077785075 -0.07520828 0.11684618 -0.10833124 0.23875448 0.15778512
-0.17573002 0.22424291 0.13908201 0.035189148 -0.05147736 0.19831608 0.116683125 -0.18873411
0.32716075 -0.2107023 -0.08521424 0.04521668 -0.3035078 0.0076608076 -0.13949727 0.13991956

fc.weight f4 [2, 64]
00000000: 7853 073e c034 453d 80c0 2dbe f92e 263e
00000010: d29b 2b3e 3ed0 7e3d 79f1 5d3d 37d0 243e
00000020: 9acf 93be 2d90 293e 20ed 91bd b64e 93be
00000030: d80a 3b3e adca 41be 8ff9 133e 8b9e 19bd
00000040: e9aa 90be 9e33 9a3e 2094 f4bc d302 dcbd
00000050: 4d85 fbbb e353 8c3d 0fde f23c f6d6 d3bc
00000060: c57a 36be cb09 133e bf79 c33d 68b6 e1bd
00000070: 3443 07be 7d1e 263e 9e14 87be 72ff f2bd
00000080: 7d99 b63d 7a9f 803e be7b 683d 454e ddbd
00000090: b6fb 41bb 41df c83d 0a4f b63d fc5b 29be
000000a0: b796 03be ecfb 133e e383 fd3d 7f1c 983d
000000b0: 53fe 90bd 0eed 333d fb29 793e 90bb 25be
000000c0: 7b4a 923d 1b4c c83c d5ed b83e b4c9 35bc
000000d0: 57d7 333e 0b6e 0d3e a029 26be f2ad 883e
000000e0: 803e 42be 8eb8 cb3d b29a 16bd 0169 6dbc
000000f0: a59d 02bd 0efe 76bd 90dc 2bbe d276 4bbe
00000100: 571a b4bd b193 2e3e 68d3 213e 55dc 43be
00000110: 3362 2ebe 87a1 cabd 3fb3 bdbd 1e56 03be
00000120: 4cc1 6c3e 6c54 e7bd 2168 8cbd c66c 783e
00000130: d5a0 1ebe f3e1 e4bc b546 82be 91d4 dabd
00000140: 710b bd3e a2c4 57be 3c50 94bc 400a 163e
00000150: e476 083e 562c a33b 205a 06be 4d3f 313e
00000160: 1e4b c13d cdd0 0ebe 21d7 da3d cf95 363e
00000170: 1e11 903e 52ed a53b 2c20 963e 4109 9bbd
00000180: 22a7 43be 9397 4dbe 4c54 413d 656f d63d
00000190: 17a5 5fbd cf4a c93c 994b fabd dcda 2a3d
000001a0: ac40 803d cc7a c0bd 2505 a3bd 040d 353d
000001b0: 8312 8abd 1d81 a93d 8459 a8be 4969 213e
000001c0: 4b72 0abe 0dc7 c53c e7d2 aabe d22f 8c3d
000001d0: 4b85 58be 395f 97bd 39ff 033e ab9b 1dbe
000001e0: dee2 863e a2a0 56be eda5 f53d 5ee2 aa3c
000001f0: 55c8 8abd 3368 11bd 1458 993e 5e32 0e3e
0.13215435 0.04814601 -0.16967964 0.16228856 0.1675866 0.062210314 0.054185364 0.16095053
-0.28869325 0.16558905 -0.07125306 -0.2877099 0.18265855 -0.18924971 0.14450668 -0.037504714
-0.28255394 0.30117506 -0.029855788 -0.10742726 -0.007675803 0.068519376 0.029646901 -0.025859337
-0.1782027 0.14359204 0.095447056 -0.11021119 -0.1320923 0.16222568 -0.26382917 -0.118651286
0.08915994 0.2512167 0.056758635 -0.10805944 -0.0029599494 0.09808207 0.08901794 -0.16538996
-0.12850462 0.1445157 0.12378671 0.0742731 -0.070797585 0.043927245 0.2433242 -0.1618483
0.07143112 0.024450352 0.3611895 -0.011095453 0.17562614 0.1381151 -0.16226816 0.2669521
-0.18969154 0.099473104 -0.036768623 -0.014490367 -0.031888623 -0.06030088 -0.16783357 -0.19869545
-0.087940864 0.17048527 0.15803301 -0.19127019 -0.17029648 -0.0989409 -0.09262704 -0.1282582
0.23120612 -0.11295399 -0.068557985 0.24260244 -0.1549104 -0.027939772 -0.2544457 -0.10685075
0.36922792 -0.21071103 -0.018104665 0.14652348 0.13326603 0.0049796505 -0.13120317 0.17309304
0.094381556 -0.13946839 0.10685564 0.17830585 0.2813806 0.005063691 0.2932142 -0.075701244
-0.19106725 -0.20077352 0.047199532 0.104704656 -0.0546008 0.024571804 -0.1222145 0.041712627
0.06262335 -0.09398422 -0.079599656 0.044201866 -0.06741812 0.082765795 -0.32880795 0.1576282
-0.13520162 0.024142766 -0.3336403 0.068450585 -0.21144597 -0.07391209 0.12890328 -0.15391414
0.2634496 -0.20959714 0.119945385 0.020859893 -0.067764916 -0.035499763 0.2995001 0.13886401

fc.bias f4 [2]
00000000: 6e85 4abd f1e5 8a3d
-0.049443655 0.06782139
