saved_models/gat6.pt (torch, 25014 bytes, 14 tensors)

conv1.att_src f4 [1, 1, 64]
-0.23494267 0.016336536 0.52311736 0.04132009 -0.23982486 -0.6454897 -0.67911404 0.4015056
-0.45532137 -0.6625327 -0.70136875 0.2787937 0.6031327 0.37827548 -0.030026734 -0.083091035
-0.6376415 -0.47337145 -0.11144842 0.12980758 0.7309667 -0.54221255 -0.19463354 -0.6583668
0.040129617 0.66691554 0.45856637 -0.70354915 0.43447483 -0.311566 -0.6112299 -0.051369622
-0.19181748 -0.33878765 0.07286508 0.58005077 -0.75840753 0.33775935 0.5175715 0.3130237
-0.029060472 -0.72309583 -0.2398692 -0.280035 0.78786254 -0.36223355 -0.16952987 -0.5319092
-0.30049565 0.25059882 0.16784394 -0.0728831 0.0815371 -0.9173207 -0.8072243 0.19590834
-0.49617773 -0.4368712 0.77734745 -0.12501715 -0.6750533 -0.8390622 -0.31475177 -0.13703214
00000000: d094 70be 33d4 853c 05eb 053f 413f 293d
00000010: a694 75be d03e 25bf 6bda 2dbf 2492 cd3e
00000020: e21f e9be be9b 29bf e78c 33bf 0cbe 8e3e
00000030: e866 1a3f 53ad c13e a0fa f5bc a22b aabd
00000040: 793c 23bf be5d f2be 123f e4bd 47ec 043e
00000050: a220 3b3f 71ce 0abf 044e 47be ba8a 28bf
00000060: f45e 243d faba 2a3f 36c9 ea3e cc1b 34bf
00000070: 7c73 de3e 9485 9fbe 9079 1cbf f468 52bd
00000080: cd6b 44be 9375 adbe 493a 953d 357e 143f
00000090: ff26 42bf cbee ac3e 917f 043f a444 a03e
000000a0: 3a10 eebc cf1c 39bf 46a0 75be bf60 8fbe
000000b0: 5cb1 493f ad76 b9be 3d99 2dbe 342b 08bf
000000c0: 91da 99be 7d4e 803e 48df 2b3e bc43 95bd
000000d0: ecfc a63d 88d5 6abf 40a6 4ebf 329c 483e
000000e0: 020b febe 95ad dfbe 3e00 473f 7f04 00be
000000f0: 4bd0 2cbf c8cc 56bf 2527 a1be 2752 0cbe

conv1.att_dst f4 [1, 1, 64]
-0.021489048 0.10348383 -0.37643397 0.6763214 -0.5578187 0.13648245 0.07613945 -0.090705015
-0.32223412 0.019007225 -0.37609714 -0.09764724 -0.22830436 -0.738541 -0.018545646 -0.20672068
0.0196519 0.2989955 0.75698817 -0.13897365 -0.41629457 0.27041638 -0.028473223 -0.04757474
0.035396393 -0.3614078 -0.34279135 0.11708987 -0.48972622 0.32488513 0.121872164 0.03401375
-0.2555984 -0.08676176 0.46378452 -0.338 -0.24545026 -0.30701387 -0.09422783 -0.36031252
-0.61764085 -0.2144946 0.2783908 -0.101033114 -0.15252419 0.08962587 0.177433 0.43671492
0.68335307 -0.19087285 0.44887444 -0.079819 -0.40977544 -0.041302968 0.2514574 0.006911053
-0.2297894 0.20494801 -0.123069465 0.07144172 0.19383052 0.021128071 0.13824078 0.09989959
00000000: cd09 b0bc 55ef d33d f4bb c0be 6623 2d3f
00000010: 35cd 0ebf 0ec2 0b3e 00ef 9b3d 8dc3 b9bd
00000020: dffb a4be 0ab5 9b3c ce8f c0be 47fb c7bd
00000030: 9ec8 69be 0611 3dbf 0aed 97bc 96ae 53be
00000040: 05fd a03c f015 993e fac9 413f 1c4f 0ebe
00000050: 9024 d5be 0474 8a3e ad40 e9bc bbdd 42bd
00000060: cffb 103d 710a b9be 5982 afbe d0cc ef3d
00000070: 65bd fabe 5857 a63e 1d98 f93d 0052 0b3d
00000080: cbdd 82be 26b0 b1bd 2a75 ed3e 560e adbe
00000090: 5057 7bbe ec30 9dbe 85fa c0bd e27a b8be
000000a0: b61d 1ebf 79a4 5bbe 3d89 8e3e 73ea cebd
000000b0: 4d2f 1cbe c58d b73d ffb0 353e 1999 df3e
000000c0: 3af0 2e3f 2c74 43be dfd2 e53e 2578 a3bd
000000d0: 16ce d1be 4d2d 29bd 06bf 803e 1d76 e23b
000000e0: ea4d 6bbe e4dd 513e d80b fcbd 0950 923d
000000f0: 827b 463e c714 ad3c fe8e 0d3e 2898 cc3d

conv1.att_edge f4 [1, 1, 64]
-0.38158873 0.34514454 -0.23823003 0.084368184 -0.2807101 -0.071727574 0.14797826 -0.33913997
-0.029226154 -0.17675428 0.25025713 0.27135685 0.037075046 0.0042303586 0.30862218 -0.01723809
0.22473018 0.1995383 -0.2675182 0.090132184 -0.2066941 -0.35236213 0.20213734 0.13173567
-0.37812826 -0.32299912 -0.065362535 0.032247785 0.29913017 -0.095384724 -0.1481801 0.33083493
0.003789409 0.25335398 -0.19877431 0.23069328 0.13025624 -0.15768702 -0.023782369 -0.07665545
-0.32199323 -0.009400209 -0.20865054 0.121925116 -0.29393065 0.14091909 -0.089210436 0.083768986
-8.888763e-06 0.18335995 0.3248781 -0.28663158 -0.24830697 -0.22920783 0.2251464 -0.033591527
-0.100054495 -0.14565141 0.008382168 0.22987618 -0.08738554 0.28355774 -0.15288314 -0.18411025
00000000: 995f c3be c9b6 b03e 93f2 73be 3ac9 ac3d
00000010: 3cb9 8fbe e8e5 92bd 9d87 173e c1a3 adbe
00000020: b06b efbc 13ff 34be b421 803e 49ef 8a3e
00000030: 01dc 173d d29e 8a3b ba03 9e3e e536 8dbc
00000040: ab1f 663e c553 4c3e 25f8 88be 3997 b83d
00000050: 9ea7 53be cf68 b4be 17fd 4e3e b7e5 063e
00000060: 079a c1be 2460 a5be cbdc 85bd 4116 043d
00000070: 9727 993e 1159 c3bd 86bc 17be 3263 a93e
00000080: bc57 783b 9db7 813e 7e8b 4bbe dc3a 6c3e
00000090: e461 053e b578 21be 3ed3 c2bc 88fd 9cbd
000000a0: 4cdc a4be 5603 1abc 7da8 55be e0b3 f93d
000000b0: 147e 96be 184d 103e f6b3 b6bd 138f ab3d
000000c0: f220 15b7 b6c2 3b3e 6c56 a63e 60c1 92be
000000d0: 2f44 7ebe 75b5 6abe c78c 663e 4597 09bd
000000e0: 5fe9 ccbd a525 15be 5c55 093c a964 6b3e
000000f0: 31f7 b2bd 7b2e 913e 668d 1cbe 6687 3cbe

conv1.bias f4 [64]
-0.19871308 0.0026067991 -0.14561607 0.057710443 -0.037852325 -0.3067846 -0.020001426 -0.029950146
-0.30749428 -0.021257559 -0.0035988444 -0.25790462 -0.1848493 -0.015261492 -0.18591964 -0.012074407
0.0033756213 0.008361017 0.059785616 -0.20441942 -0.1469095 0.004217338 -0.22735746 -0.03526718
-0.040985975 -0.24145007 -0.13281554 -0.21434073 -0.21517517 -0.04556319 -0.034342557 -0.043357536
-0.017325647 -0.03640414 -0.03716689 -0.21771367 -0.0025131085 -0.03936683 -0.1775953 -0.037474226
-0.16045617 -0.0130108865 -0.24701637 -0.009970485 -0.10406011 -0.023103619 -0.27666855 -0.050902948
0.08298177 -0.07581357 0.016566642 0.066172265 -0.12785883 -0.094560176 -0.12168815 -0.16729105
-0.051655043 0.008524002 -0.08565918 0.027612595 0.0031372719 -0.11310489 -0.037920434 0.011332726
00000000: 717b 4bbe d5d6 2a3b 611c 15be c961 6c3d
00000010: 0a0b 1bbd df12 9dbe 08da a3bc 025a f5bc
00000020: e46f 9dbe 5524 aebc 97da 6bbb 130c 84be
00000030: 2349 3dbe 560b 7abc b861 3ebe bcd3 45bc
00000040: 8739 5d3b a6fc 083c c3e1 743d 5353 51be
00000050: 726f 16be 9831 8a3b 65d0 68be 5274 10bd
00000060: e9e0 27bd b03e 77be cc00 08be 237c 5bbe
00000070: e156 5cbe 78a0 3abd c8aa 0cbd ac97 31bd
00000080: 84ee 8dbc 821c 15bd 4f3c 18bd 55f0 5ebe
00000090: f7b2 24bb 1d3f 21bd 8bdb 35be 937e 19bd
000000a0: 9f4e 24be 9d2b 55bc dcf1 7cbe 3f5b 23bc
000000b0: 781d d5bd cd43 bdbc 80a7 8dbe 9c7f 50bd
000000c0: 59f2 a93d 2544 9bbd c4b6 873c 5385 873d
000000d0: 6ded 02be c4a8 c1bd a337 f9bd 584e 2bbe
000000e0: 3d94 53bd 41a8 0b3c 156e afbd cf33 e23c
000000f0: b09a 4d3b 89a3 e7bd 7552 1bbd e6ac 393c

conv1.lin.weight f4 [64, 4]
0.0045160516 0.17858109 0.012150528 -0.12327445 -0.038681798 0.039504442 -0.2800529 0.18597518
0.027506433 -0.055502493 0.098891124 -0.25035948 -0.25843674 0.26540333 -0.37545654 0.24787883
0.3194258 -0.18948817 -0.0027794216 0.14983737 0.15622744 0.17350325 -0.19638576 0.45775664
0.36482197 0.2684466 0.136915 0.097427644 -0.22286445 0.22107428 0.30987287 0.13661684
0.13079426 0.10483243 0.009704262 0.2039379 0.32950726 0.04699425 -0.012746648 0.48628
0.452924 -0.17377673 0.012298248 0.30267513 0.13593775 -0.04480303 0.19334677 -0.27753377
-0.08505968 -0.08681427 0.028306913 -0.4377545 -0.14173032 0.1391368 0.37369508 0.1862254
0.07222919 -0.054682933 -0.12914422 0.31323293 0.32260954 -0.23348266 -0.051242404 -0.14092107
0.042772613 0.3814997 -0.41412926 0.32929194 0.008477059 0.2989682 -0.37620786 0.25074923
-0.30563134 0.3193576 -0.3629418 0.20368801 0.092949465 -0.033978436 0.13256292 -0.21502799
-0.29774195 0.14292975 0.17326853 -0.18636678 0.4350733 -0.09042962 0.0061354223 0.42550406
0.22642572 -0.031801373 0.16791908 -0.1976718 0.36691424 -0.12755866 -0.03729039 0.30137023
-0.13402669 -0.12216193 -0.1923414 0.22251892 -0.12937716 0.050283074 0.14096156 -0.16898242
0.025698647 -0.023208871 0.17330828 -0.33467883 0.2199145 -0.01655724 -0.15202312 0.29747334
0.053129904 -0.116183825 0.07994229 -0.3343809 0.39207464 -0.04163721 0.0050069476 -0.33123413
0.34933907 -0.010260447 -0.027947946 0.44608387 0.26288095 0.065765545 -0.05642059 -0.4250587
0.26248857 0.0016996416 -0.0059496057 0.34500632 0.5418397 -0.1460008 -0.00069289317 -0.377512
0.24436544 -0.10318371 -0.09418303 -0.2713824 -0.09256959 -0.16017582 0.1401084 -0.47138137
0.3626274 -0.064211056 0.005871049 0.3559159 -0.16542906 -0.23342448 -0.28225404 0.33448336
-0.09284344 0.039279766 0.054165475 -0.22416034 -0.12724079 0.14782473 0.14937001 0.14352731
0.24660927 -0.2426084 -0.05696949 0.32576323 0.26089305 -0.06947135 -0.00089119043 0.22854376
0.124656916 0.23615123 0.15398587 -0.198382 0.092319556 0.22797747 0.19079351 0.08831355
0.09951582 -0.23260996 -0.07245421 -0.42861417 0.60714537 -0.19632038 -0.0007408494 -0.38794938
0.039320942 0.29358703 -0.018078497 -0.23507658 0.11204381 0.22924367 -0.35848293 0.19536242
-0.2872296 0.3159426 -0.37660125 0.26626623 -0.22241211 0.20763777 0.17819797 -0.24427469
0.21601246 0.0048620217 -0.032924466 -0.49958223 -0.30675268 0.075114936 -0.3250189 0.34950298
0.18806466 -0.17211317 0.12170972 -0.31928924 0.41513085 0.379297 -0.3910728 0.2958219
0.21015942 0.28605288 -0.29968795 -0.0030916655 0.005559678 -0.048840284 -0.066056535 0.056421824
0.2735912 -0.00883716 0.06464769 0.13781604 0.0015162227 0.29868013 -0.34837663 0.23171882
-0.31756407 0.30614483 0.14778103 -0.22888121 -0.18895003 -0.023060326 -0.13085523 0.26389053
0.41247383 -0.11282334 0.0030086907 0.37650257 0.19479603 0.15888776 -0.07050773 0.42550763
0.449676 -0.09358445 -0.0061324593 -0.3337542 -0.105032325 0.399622 0.16711387 0.08488261
00000000: 63fb 933b f6dd 363e 0213 473c 5177 fcbd
00000010: ce70 1ebd 69cf 213d 1863 8fbe 4770 3e3e
00000020: 2c55 e13c 9556 63bd 6e87 ca3d 1e2f 80be
00000030: d251 84be f2e2 873e d73b c0be f3d3 7d3e
00000040: c78b a33e 3009 42be f526 36bb f86e 193e
00000050: 16fa 1f3e d6aa 313e 5919 49be 145f ea3e
00000060: f2c9 ba3e d571 893e 7233 0c3e 2588 c73d
00000070: 9436 64be 4c61 623e a8a7 9e3e 49e5 0b3e
00000080: eeee 053e 63b2 d63d a0fe 1e3c 19d5 503e
00000090: 2db5 a83e 0b7d 403d 51d7 50bc b1f9 f83e
000000a0: a8e5 e73e 87f2 31be 977e 493c 3cf8 9a3e
000000b0: 4433 0b3e 6283 37bd b2fc 453e e818 8ebe
000000c0: c533 aebd aecb b1bd e6e3 e73c 5c21 e0be
000000d0: c121 11be e179 0e3e f654 bf3e dfb1 3e3e
000000e0: e6ec 933d 36fb 5fbd 623e 04be 1160 a03e
000000f0: 142d a53e 1416 6fbe 8ee3 51bd 9d4d 10be
00000100: 5632 2f3d ee53 c33e c008 d4be f498 a83e
00000110: 5de3 0a3c 5c12 993e 519e c0be 3462 803e
00000120: b67b 9cbe d782 a33e 82d3 b9be 9793 503e
00000130: 4a5c be3d f92c 0bbd 93be 073e 4c30 5cbe
00000140: a271 98be 2d5c 123e 4e6d 313e efd6 3ebe
00000150: edc1 de3e 2a33 b9bd a70b c93b abdb d93e
00000160: 25dc 673e 2842 02bd fbf2 2b3e 7a6a 4abe
00000170: 2fdc bb3e bd9e 02be cfbd 18bd 334d 9a3e
00000180: 4b3e 09be 0930 fabd 25f5 44be 00dc 633e
00000190: 727b 04be a0f5 4d3d 3a58 103e ba09 2dbe
000001a0: f885 d23c 8820 bebc ba77 313e 065b abbe
000001b0: 4431 613e 0da3 87bc f3ab 1bbe 6d4e 983e
000001c0: be9e 593d c9f1 edbd c9b8 a33d f933 abbe
000001d0: 02be c83e c78b 2abd 5211 a43b 8597 a9be
000001e0: 92dc b23e 6f1b 28bc 17f3 e4bc 1b65 e43e
000001f0: 5598 863e 16b0 863d 4719 67bd 4ba1 d9be
00000200: e764 863e 82c6 de3a e9f4 c2bb aba4 b03e
00000210: 02b6 0a3f 3c81 15be 46a3 35ba 4149 c1be
00000220: ef3a 7a3e fb51 d3bd 08e3 c0bd a2f2 8abe
00000230: 2095 bdbd 2105 24be 9478 0f3e e658 f1be
00000240: 4caa b93e 1681 83bd ee61 c03b 9c3a b63e
00000250: 3c66 29be d406 6fbe 9a83 90be 6741 ab3e
00000260: b424 bebd d2e3 203d 9edc 5d3d 4a8a 65be
00000270: 694b 02be 5e5f 173e 74f4 183e d3f8 123e
00000280: 2487 7c3e 566e 78be d758 69bd 70ca a63e
00000290: c693 853e ff46 8ebd c79e 69ba 6007 6a3e
000002a0: 204c ff3d a1d1 713e 79ae 1d3e a724 4bbe
000002b0: 0912 bd3d ed72 693e 605f 433e bcdd b43d
000002c0: f3ce cb3d 4e31 6ebe df62 94bd 5173 dbbe
000002d0: e16d 1b3f 3608 49be 9035 42ba 4da1 c6be
000002e0: ff0e 213d 0a51 963e 5b19 94bc eab7 70be
000002f0: 3a77 e53d dabe 6a3e 138b b7be 160d 483e
00000300: c20f 93be 3ac3 a13e e1d1 c0be 0c54 883e
00000310: 00c0 63be ff9e 543e 8779 363e 2523 7abe
00000320: 5f32 5d3e 9851 9f3b cedb 06bd 3ec9 ffbe
00000330: b00e 9dbe dcd5 993d e168 a6be 0ef2 b23e
00000340: 0694 403e 6f3e 30be f242 f93d e179 a3be
00000350: 088c d43e 3733 c23e b23a c8be f875 973e
00000360: 0834 573e 8675 923e b370 99be 8a9d 4abb
00000370: f62d b63b c00c 48bd a648 87bd 921a 673d
00000380: 2514 8c3e bcc9 10bc 0266 843d a61f 0d3e
00000390: febb c63a 9aec 983e 6c5e b2be b347 6d3e
000003a0: c297 a2be 04bf 9c3e e953 173e d65f 6abe
000003b0: 1e7c 41be 02e9 bcbc eafe 05be a91c 873e
000003c0: c52f d33e ec0f e7bd 742d 453b f2c4 c03e
000003d0: 9c78 473e 79b3 223e 5b66 90bd 23dc d93e
000003e0: ef3b e63e 34a9 bfbd ccf2 c8bb d5e1 aabe
000003f0: 301b d7bd 419b cc3e e61f 2b3e efd6 ad3d

conv1.lin_edge.weight f4 [64, 2]
-0.13088237 -0.21632439 0.22605908 0.12191101 -0.32931516 0.09417955 0.22495373 0.297077
-0.14504799 -0.33010542 0.18742214 -0.23692475 -0.059491217 0.05121253 0.23859783 -0.3280306
0.018921591 0.10152262 -0.1863511 -0.4155495 0.114178345 0.15647846 0.074654505 0.26100573
-0.13109761 0.15402362 -0.2187323 0.19594419 -0.17384589 0.34595433 0.08706326 -0.097644076
0.0586364 0.41721287 -0.20368132 0.0337727 -0.014041647 -0.21968086 0.2707695 0.2886821
0.20621745 -0.2325851 -0.04908628 -0.224721 0.040845133 0.27690515 0.2224116 0.11572694
0.030150179 -0.3730944 0.18124712 -0.27471069 -0.22242247 -0.1887892 0.17507222 -0.10075883
-0.12631638 0.28168952 -0.010766031 0.055935763 -0.2787111 -0.22524108 0.3360741 0.30983832
-0.060846318 0.06637918 0.116516516 0.11873944 -0.34924632 0.13944602 0.127019 0.3860073
0.10289112 0.33623064 0.14635263 -0.23606129 0.01986141 -0.024818964 -0.08291951 -0.042087905
0.15362978 -0.29913586 0.05739577 -0.082953036 -0.20383179 -0.1387302 0.3033019 -0.034912422
0.11580204 -0.33167648 -0.24821456 0.3740692 -0.2762518 -0.1713357 0.21866103 0.11928979
0.003314614 -0.0038410246 0.2664262 -0.14436734 0.21097979 0.24096432 -0.296174 -0.21955867
-0.28640994 -0.29008323 0.2243773 -0.24056652 -0.23218764 0.30888468 -0.15556304 0.12482356
0.18127713 -0.21512684 0.09512926 -0.0901146 -0.006521667 -0.0029503312 0.30819976 0.30074033
0.18981515 -0.25944698 -0.085830286 0.18273531 -0.14821847 -0.3835445 0.09831459 -0.188284
00000000: 0706 06be 2484 5dbe 087c 673e 7bac f93d
00000010: ff9b a8be 35e1 c03d 455a 663e 7a1a 983e
00000020: 7687 14be 9403 a9be 97eb 3f3e 679c 72be
00000030: 10ad 73bd 3bc4 513d fd52 743e a0f3 a7be
00000040: 7401 9b3c 17eb cf3d d3d2 3ebe e7c2 d4be
00000050: 56d6 e93d e43b 203e 76e4 983d 8ba2 853e
00000060: 743e 06be 5eb8 1d3e 5cfb 5fbe 98a5 483e
00000070: a804 32be ed20 b13e 394e b23d 9ef9 c7bd
00000080: b92c 703d ed9c d53e d691 50be 3e55 0a3d
00000090: f00e 66bc 05f4 60be 4da2 8a3e 24ce 933e
000000a0: ab2a 533e ca2a 6ebe b20e 49bd 431d 66be
000000b0: 3a4d 273d 83c6 8d3e debf 633e 3f02 ed3d
000000c0: 82fd f63c 3b06 bfbe d898 393e e1a6 8cbe
000000d0: b7c2 63be f551 41be 2246 333e a55a cebd
000000e0: 1559 01be 9c39 903e 0264 30bc e61c 653d
000000f0: 39b3 8ebe 99a5 66be e811 ac3e 21a3 9e3e
00000100: fd39 79bd cff1 873d 36a0 ee3d aa2d f33d
00000110: 6ad0 b2be f0ca 0e3e 4511 023e c0a2 c53e
00000120: 94b8 d23d 6c26 ac3e 77dd 153e 0dba 71be
00000130: 65b4 a23c 2451 cbbc b4d1 a9bd 5e64 2cbd
00000140: 2051 1d3e 5628 99be d417 6b3d 48e3 a9bd
00000150: 48b9 50be 4a0f 0ebe 634a 9b3e 5400 0fbd
00000160: 9f29 ed3d 80d1 a9be f52b 7ebe 0086 bf3e
00000170: e070 8dbe a072 2fbe ade8 5f3e 354e f43d
00000180: ff39 593b b3b9 7bbb 0469 883e 08d5 13be
00000190: 160b 583e 5abf 763e 1ea4 97be fdd3 60be
000001a0: 53a4 92be ca85 94be 2ac3 653e 1257 76be
000001b0: 99c2 6dbe 2226 9e3e eb4b 1fbe 7fa3 ff3d
000001c0: b6a0 393e 364a 5cbe 21d3 c23d 018e b8bd
000001d0: b5b3 d5bb 585a 41bb 5ccc 9d3e a3fa 993e
000001e0: e75e 423e 3cd6 84be cac7 afbd f71e 3b3e
000001f0: 95c6 17be f25f c4be 2959 c93d 85cd 40be

conv2.att_src f4 [1, 1, 64]
-0.09699183 0.35409454 -1.1813748 -0.002909485 -0.54893804 -0.52069443 -0.33479044 -0.04743174
-0.76179916 -0.34423158 -0.101333976 -0.20616302 -0.115792036 -1.0221 0.06617381 -0.5745698
0.030975001 -0.08831546 -0.17387842 -0.18755467 -0.5149905 0.8705451 0.111184366 -0.41092697
0.029433766 1.0535637 0.52418935 -0.5463849 0.48493722 -0.010846345 -0.55675715 -0.296637
0.089189924 0.698583 -0.52210146 0.32677945 -0.09067122 -0.36539534 -0.23392309 0.74589616
-0.64629644 -0.48399463 -0.67530924 -0.51887226 -0.108861335 0.55961996 0.527188 -0.116171174
-0.72081345 -0.28588745 0.12500553 -0.055908624 -0.31765136 0.6424546 0.16476381 0.1850548
-0.008686685 0.7243507 0.16127887 -0.23884438 -0.66173077 0.080161765 0.20649904 0.055926632
00000000: a7a3 c6bd e14b b53e 4a37 97bf 0fad 3ebb
00000010: 3487 0cbf 3b4c 05bf a769 abbe c947 42bd
00000020: 4505 43bf 1f3f b0be 3088 cfbd 661c 53be
00000030: 6024 edbd 2cd4 82bf 2286 873d 0217 13bf
00000040: 49bf fd3c bcde b4bd 2f0d 32be 550e 40be
00000050: 6bd6 03bf 0bdc 5e3f a1b4 e33d 0565 d2be
00000060: 151f f13c 2ddb 863f 4631 063f e1df 0bbf
00000070: b149 f83e deb4 31bc a387 0ebf cee0 97be
00000080: 35a9 b63d 56d6 323f 71a8 05bf a34f a73e
00000090: d5b1 b9bd 1915 bbbe 8989 6fbe 0df3 3e3f
000000a0: af73 25bf 25ce f7be 11e1 2cbf d0d4 04bf
000000b0: b1f2 debd 4143 0f3f cbf5 063f 27eb edbd
000000c0: 3b87 38bf d75f 92be 7301 003e 7100 65bd
000000d0: 33a3 a2be e877 243f d8b7 283e 017f 3d3e
000000e0: 9952 0ebc 0c6f 393f 4a26 253e 9f93 74be
000000f0: 3067 29bf da2b a43d 7c74 533e 5313 653d

conv2.att_dst f4 [1, 1, 64]
0.4369899 -0.38565233 0.5768401 0.25876668 0.39987114 0.5353833 0.46332443 -0.046674892
0.46745571 0.09735673 0.08816675 -0.35656872 -0.7392152 0.83477694 -0.11989779 0.5734775
-0.020726515 0.17743799 0.57132673 -0.69681317 0.0660706 0.24693495 -0.5852729 0.122185096
0.47403896 -0.34394777 -0.28861877 0.23188561 -0.80301553 -0.775712 0.3276618 0.80885553
0.043768592 -0.5968746 0.71793675 0.04766875 0.12064271 0.17088796 0.56594235 -0.6543241
0.23879258 0.32277885 0.36670956 -0.2829774 0.06784828 -0.6284678 -0.6414538 0.38308617
0.019284174 0.15110523 0.22555773 0.091500066 0.34843847 -0.8541564 -0.5617189 -0.3191616
0.30674493 0.9119766 -0.5545215 -0.9672873 0.8443198 -0.3925779 -0.17047396 -0.0250312
00000000: 24bd df3e 3974 c5be cbab 133f 117d 843e
00000010: e9bb cc3e e10e 093f dc38 ed3e 2c2e 3fbd
00000020: 5b56 ef3e f762 c73d c590 b43d 2d90 b6be
00000030: 353d 3dbf f1b3 553f f98c f5bd 6ccf 123f
00000040: a7ca a9bc 4eb2 353e 7842 123f 5962 32bf
00000050: 0650 873d 84dc 7c3e 72d4 15bf 2e3c fa3d
00000060: 3cb5 f23e ec19 b0be d7c5 93be 6c73 6d3e
00000070: 6d92 4dbf 1095 46bf 4ac3 a73e 2811 4f3f
00000080: b246 333d c6cc 18bf b4ca 373f 4f40 433d
00000090: 8613 f73d 41fd 2e3e 99e1 103f c981 27bf
000000a0: 0b86 743e 4543 a53e 5bc1 bb3e 6ae2 90be
000000b0: 0af4 8a3d 44e3 20bf 5136 24bf df23 c43e
000000c0: d8f9 9d3c 54bb 1a3e 9bf8 663e 6364 bb3d
000000d0: 8766 b23e fea9 5abf cfcc 0fbf 2669 a3be
000000e0: ac0d 9d3e 4c77 693f 1ff5 0dbf 24a0 77bf
000000f0: 5825 583f f8ff c8be ba90 2ebe 3b0e cdbc

conv2.att_edge f4 [1, 1, 64]
-0.22772571 0.113548204 -0.06613716 0.00028578902 0.12765507 -0.061636858 0.002271339 -0.1932985
0.15474387 -0.098528534 0.15844247 -0.00044956763 0.11595088 -0.0018140271 -0.1680587 1.5663183e-05
-0.2670472 0.1543767 0.0019214111 -0.0013541852 -0.02901021 0.15634443 -0.097546004 -0.00090160524
0.1341474 -0.1209573 -0.05604281 0.00028391212 0.08090722 0.028021537 0.0003538534 0.22271954
-0.045956325 -3.819183e-05 -0.07529012 -0.16147836 -0.2712562 -0.05627079 0.24234588 0.00044962185
0.23148389 0.07329289 0.22900634 0.2927321 -0.03981915 -0.07148739 0.0006208295 0.0001602611
-0.080652386 0.13199419 0.08007964 0.0010877858 0.0877009 -0.18863039 0.15068117 0.057646804
-0.00043661587 0.21480434 -0.24285859 0.0004585713 -0.032715954 -0.00044035853 0.18722436 0.0002831806
00000000: ee30 69be f68b e83d eb72 87bd f4d5 9539
00000010: 03b8 023e ee76 7cbd bfda 143b 0bf0 45be
00000020: 2d75 1e3e 54c9 c9bd be3e 223e f2b3 ebb9
00000030: a877 ed3d a6c4 edba 9417 2cbe 6e64 8337
00000040: 69ba 88be ed14 1e3e dcd7 fb3a ea7e b1ba
00000050: d2a6 edbc c118 203e 33c6 c7bd b459 6cba
00000060: f05d 093e 76b8 f7bd 258d 65bd 0ada 9439
00000070: afb2 a53d 6c8d e53c 6685 b939 9710 643e
00000080: b33c 3cbd 2a30 20b8 b531 9abd 955a 25be
00000090: 18e2 8abe 337c 66bd 8529 783e 39bb eb39
000000a0: 1d0a 6d3e 951a 963d a380 6a3e fbe0 953e
000000b0: 6819 23bd fb67 92bd 2abf 223a c30b 2839
000000c0: 142d a5bd 7c29 073e cb00 a43d 0994 8e3a
000000d0: 889c b33d 5328 41be 2a4c 1a3e 0e1f 6c3d
000000e0: 97e9 e4b9 abf5 5b3e ecaf 78be 666c f039
000000f0: 2a01 06bd ecdf e6b9 beb7 3f3e db77 9439

conv2.bias f4 [64]
0.037949372 0.05093571 -0.009083186 0.059116486 -0.0658417 -0.06744862 -0.10583016 -0.051512275
-0.055255476 -0.035921313 -0.06613531 0.058464564 0.14185347 -0.17952581 0.06802202 0.058080185
-0.06582379 -0.07624577 -0.070199735 0.13265967 -0.0505631 -0.2668736 0.071921386 0.11754996
0.005576344 0.046389014 0.04535942 -0.042418823 0.07497956 0.51574165 -0.067558564 -0.16650666
0.077807724 0.16406712 -0.062677056 0.054471493 -0.03950464 -0.046084452 0.028553363 0.07775768
-0.05342833 0.020340253 0.06702571 -0.053668644 0.0710779 -0.041775864 -0.049299672 0.044023518
0.1506094 -0.016059708 -0.05591889 -0.042222835 -0.0650986 0.13947411 0.07638239 -0.025993017
0.048672173 -0.30758408 -0.033140693 0.2038457 -0.033233367 0.060718838 -0.052886028 0.032663926
00000000: cd70 1b3d f7a1 503d a5d1 14bc 2124 723d
00000010: 03d8 86bd 8122 8abd 7cbd d8bd 89fe 52bd
00000020: 9153 62bd 3a22 13bd f371 87bd 8a78 6f3d
00000030: 0942 113e 9dd5 37be 214f 8b3d 7de5 6d3d
00000040: a0ce 86bd be26 9cbd e1c4 8fbd f0d7 073e
00000050: 411b 4fbd a8a3 88be 854b 933d 09be f03d
00000060: c4b9 b63b 6802 3e3d cdca 393d 5cbf 2dbd
00000070: e28e 993d a507 043f 255c 8abd b980 2abe
00000080: a859 9f3d 3601 283e d45c 80bd 801d 5f3d
00000090: 9ecf 21bd 0dc3 3cbd bee8 e93c 6b3f 9f3d
000000a0: aad7 5abd 9aa0 a63c c744 893d a7d3 5bbd
000000b0: 4a91 913d 2b1d 2bbd 74ee 49bd 0152 343d
000000c0: 5a39 1a3e a68f 83bc 350b 65bd daf1 2cbd
000000d0: 6a52 85bd 4dd2 0e3e 5f6e 9c3d 4fef d4bc
000000e0: 795c 473d a97b 9dbe 89be 07bd edbc 503e
000000f0: b61f 08bd 51b4 783d 059f 58bd 9cca 053d

conv2.lin.weight f4 [64, 64]
0.038392775 0.1431185 -0.041521564 0.33692768 -0.33696568 -0.016892236 -0.023373928 -0.16273479
0.17929538 -0.10205636 -0.022140903 -0.11183418 -0.28061312 0.088222526 0.097527124 -0.09885267
0.1016187 0.29436767 0.41496834 0.025622167 -0.12055285 -0.14396551 -0.27560827 0.002889482
-0.1713034 -0.208676 -0.24599047 0.13488579 0.029565923 0.10794035 0.017322574 -0.14095257
-0.08016155 -0.19520158 -0.010912372 -0.025759771 -0.09743073 0.14936031 -0.28908187 0.17359035
-0.02625884 -0.07112442 0.13489182 -0.09430076 -0.004592607 -0.37731522 0.2101461 0.19199932
0.20773055 0.1090514 -0.091647014 0.33556828 0.03223085 0.10258453 -0.08051055 -0.16914232
-0.17089342 0.3246732 0.038472462 0.13587442 -0.2291688 -0.038211685 -0.20103756 0.1750674
-0.1456447 0.20876925 -0.19672884 -0.008279024 -0.04324225 0.03608329 -0.04207576 0.04398857
-0.04675004 -0.2719946 -0.35333118 -0.24091598 -0.27910626 0.21126144 0.0013886727 -0.17107716
-0.1060353 0.21531887 0.41059119 -0.092476755 0.1271024 -0.20811959 -0.057374157 -0.275722
-0.029504085 -0.040612306 0.017614545 -0.20078084 -0.069383554 -0.055303838 -0.06017758 -0.21916509
-0.08318598 -0.21992564 -0.22225222 0.13645904 -0.2507342 0.122392885 -0.22906345 -0.17746224
-0.084035344 -0.17379498 -0.06409998 0.14138404 -0.17623846 -0.19805333 -0.011102855 0.068020634
0.3702756 0.15737742 -0.31227458 0.2574941 -0.036430314 0.18520488 -0.121189155 -0.06329556
0.005566534 0.12738608 -0.02677269 0.11933938 -0.14224882 -0.14060248 -0.21038648 0.2536144
-0.07708924 -0.105204366 -0.31419381 0.09964856 0.3474568 0.5061212 -0.28596103 -0.20161715
0.26877037 0.24088289 0.52553326 0.10694426 -0.454592 -0.42430094 0.48078373 0.3800536
0.12924019 -0.060183037 -0.1965238 0.09675792 -0.5346841 0.54136866 0.49181682 0.43866664
-0.015720267 -0.10908277 -0.3761731 0.6104016 -0.07009041 0.30464238 0.27249834 0.36392128
0.34255704 0.5335462 -0.1481247 -0.27778462 0.4236431 0.046280805 -0.37550825 -0.16686025
0.48798406 0.3175938 0.3880979 -0.1033309 0.02438307 0.5431966 0.2208757 -0.16057394
0.067438886 -0.37196112 0.20603247 0.014757831 -0.23995541 -0.14167112 0.15935507 0.003710065
-0.2045977 0.1460789 -0.5112492 0.18022215 0.19658127 0.34857014 0.4728256 -0.21650583
0.18859996 0.30337477 -0.288489 0.15101202 -0.06945121 0.060495146 -0.049935408 0.06447753
0.2722217 0.19258203 -0.31321877 0.0387643 -0.2484886 -0.098208226 0.14211091 -0.1272821
0.34167808 0.12185983 0.2799254 0.07035989 0.0054966924 -0.28799865 -0.23291506 0.07851936
0.017209215 -0.20961016 -0.089311324 0.23755959 0.017852638 -0.06451794 -0.0466108 -0.08768241
0.13139887 -0.33759543 -0.17209084 -0.24813308 0.12099117 0.27488375 0.032480963 -0.052212987
-0.0053776326 0.06420212 0.18245432 0.12118748 -0.012427164 -0.36860615 0.22274788 0.09285135
0.28241098 0.16867444 -0.17894068 -0.029623665 -0.3396186 0.011529012 -0.02827376 0.04998617
-0.0070940237 0.10997781 -0.12259524 0.2555039 -0.046397652 -0.101719014 -0.26423773 0.104886994
00000000: be41 1d3d a88d 123e 8412 2abd c981 ac3e
00000010: c486 acbe 9661 8abc ae7a bfbc f3a3 26be
00000020: 3599 373e ed02 d1bd d760 b5bc 5209 e5bd
00000030: 86ac 8fbe 03ae b43d 4dbc c73d 4573 cabd
00000040: 771d d03d 5cb7 963e bb76 d43e 94e5 d13c
00000050: 6ae4 f6bd b26b 13be 871c 8dbe 775d 3d3b
00000060: 296a 2fbe 29af 55be ede4 7bbe 801f 0a3e
00000070: 3c34 f23c d50f dd3d 12e8 8d3c df55 10be
00000080: bd2b a4bd ece2 47be cec9 32bc 2806 d3bc
00000090: c389 c7bd e9f1 183e 8a02 94be abc1 313e
000000a0: c71c d7bc aea9 91bd 1521 0a3e c220 c1bd
000000b0: 947d 96bb 762f c1be 8a30 573e 789b 443e
000000c0: 51b7 543e 5756 df3d 6eb1 bbbd 9bcf ab3e
000000d0: 7f04 043d d717 d23d b7e2 a4bd a533 2dbe
000000e0: affe 2ebe 913b a63e 4d95 1d3d aa22 0b3e
000000f0: 3aab 6abe db83 1cbd cadc 4dbe de44 333e
00000100: e223 15be 9bc7 553e 4973 49be bea4 07bc
00000110: c91e 31bd 12cc 133d a257 2cbd 5c2d 343d
00000120: f87c 3fbd e042 8bbe d3e7 b4be aeb2 76be
00000130: 04e7 8ebe eb54 583e 2004 b63a da2e 2fbe
00000140: 0929 d9bd 8d7c 5c3e 0239 d23e 7464 bdbd
00000150: 2227 023e 4d1d 55be 2a01 6bbd 6f2b 8dbe
00000160: 8db2 f1bc 1759 26bd 614c 903c 7e99 4dbe
00000170: f718 8ebd 4786 62bd c47c 76bd d06c 60be
00000180: 695d aabd 3034 61be 1696 63be ebbb 0b3e
00000190: 3c60 80be 1fa9 fa3d 9c8f 6abe a9b8 35be
000001a0: b91a acbd 50f7 31be da46 83bd fac6 103e
000001b0: db77 34be 7ece 4abe c0e8 35bc 674e 8b3d
000001c0: c394 bd3e 8c27 213e 74e2 9fbe 44d6 833e
000001d0: f437 15bd 59a6 3d3e 0532 f8bd 1aa1 81bd
000001e0: 7967 b63b 7f71 023e 6652 dbbc 3468 f43d
000001f0: ada9 11be 19fa 0fbe 8e6f 57be bfd9 813e
00000200: f7e0 9dbd 6375 d7bd 03de a0be 8b14 cc3d
00000210: dce5 b13e 2991 013f 7c69 92be ba74 4ebe
00000220: 459c 893e 01aa 763e 5989 063f 9805 db3d
00000230: 48c0 e8be f93d d9be 4929 f63e 6396 c23e
00000240: 8a57 043e 7d82 76bd 893d 49be 0429 c63d
00000250: 0fe1 08bf 2397 0a3f 6acf fb3e ea98 e03e
00000260: cac7 80bc ca66 dfbd c399 c0be 4743 1c3f
00000270: 908b 8fbd 16fa 9b3e e784 8b3e e453 ba3e
00000280: a363 af3e 7c96 083f 00ae 17be c939 8ebe
00000290: c0e7 d83e f190 3d3d 9e42 c0be 6add 2abe
000002a0: 0cd9 f93e a89b a23e c5b4 c63e 279f d3bd
000002b0: 01bf c73c ef0e 0b3f 3d2d 623e 7f6d 24be
000002c0: 661d 8a3d b071 bebe 2dfa 523e d4ca 713c
000002d0: dfb6 75be 3c12 11be fa2d 233e 9024 733b
000002e0: 0f82 51be b595 153e 3ae1 02bf 288c 383e
000002f0: 9a4c 493e c977 b23e 3216 f23e b4b3 5dbe
00000300: 5920 413e f053 9b3e d5b4 93be e5a2 1a3e
00000310: 703c 8ebd c2c9 773d 1289 4cbd cc0c 843d
00000320: a560 8b3e 3934 453e 365e a0be 51c7 1e3d
00000330: cc73 7ebe 6521 c9bd 8685 113e 3d56 02be
00000340: 6ef0 ae3e a691 f93d 6252 8f3e d918 903d
00000350: 991d b43b 8f74 93be 4981 6ebe c2ce a03d
00000360: 57fa 8c3c 0ca4 56be dbe8 b6bd d242 733e
00000370: b23f 923c fb21 84bd f7ea 3ebd d692 b3bd
00000380: 6d8d 063e 4fd9 acbe 9538 30be 9916 7ebe
00000390: 38ca f73d 90bd 8c3e c20a 053d 49dd 55bd
000003a0: da36 b0bb 677c 833d 4ed5 3a3e 2431 f83d
000003b0: 4e9b 4bbc f2b9 bcbe 0518 643e d928 be3d
000003c0: 2c98 903e feb8 2c3e 3a3c 37be 54ad f2bc
000003d0: 7de2 adbe 2ee4 3c3c 5f9e e7bc 4cbe 4c3d
000003e0: fc74 e8bb 0c3c e13d 3713 fbbd 68d1 823e
000003f0: 770b 3ebd 0f52 d0bd 2b4a 87be fece d63d

conv2.lin_edge.weight f4 [64, 2]
-0.2102378 0.09797843 0.25070146 -0.15579672 0.0035833088 -0.14592099 0.018129777 -0.015908085
0.29326588 -0.03640835 0.19852503 -0.18251829 -0.095163815 0.090593405 -0.033259276 -0.18969622
-0.16246219 0.32369477 -0.24184255 -0.17624249 -0.17171928 0.0114536 -0.037527815 0.031645644
-0.1494681 0.12728336 0.26053426 -0.24731474 -0.13101152 0.21986376 0.0015056222 -0.0012386341
-0.14691949 -0.038939327 0.08047952 0.12448434 -0.250992 0.23841909 0.22494906 -0.21282375
-0.19395533 0.20385234 0.19113071 0.14457041 0.04984013 -0.15328386 0.16103734 -0.15072998
0.0071496395 0.1134234 -0.22498445 -0.2341621 -0.2787855 0.19610776 0.03387164 -0.028092608
-0.16473825 -0.1670659 -0.12596391 0.13768867 0.07891899 -0.06948168 -0.23509614 0.34191892
-0.21693034 0.1978091 -0.0024346388 0.001931718 0.10693191 -0.114700645 -0.22347932 -0.14782193
-0.23644201 -0.082288906 -0.027207254 -0.024406852 -0.025652789 0.32981208 0.04214883 -0.035708386
0.26840326 0.30687463 0.1899533 0.005247728 0.15732418 0.06723273 0.30794078 0.3066473
-0.023038987 0.05774536 -0.03705998 -0.03527103 -0.14577663 0.13550043 -0.113769166 0.104009144
-0.099394664 -0.22607158 0.31283292 0.0063247597 -0.14155911 0.24241596 -0.17716287 0.16652286
-0.010230729 0.1160067 0.082408585 0.11851515 0.015398232 0.2895544 -0.11933106 0.13201101
0.22051148 -0.20685372 0.066784374 0.26904702 0.16997342 -0.33821696 0.058032688 -0.05030646
-0.17276677 0.15911582 -0.06309583 0.055109315 0.22595777 0.2612735 0.087294385 -0.07764438
00000000: 9448 57be eaa8 c83d f15b 803e 2d89 1fbe
00000010: f2d5 6a3b 506c 15be e684 943c ac51 82bc
00000020: f226 963e ec20 15bd 254a 4b3e 13e6 3abe
00000030: 3fe5 c2bd 0989 b93d e13a 08bd ba3f 42be
00000040: 7d5c 26be 52bb a53e 93a5 77be e978 34be
00000050: 2ed7 2fbe e1a7 3b3c c4b6 19bd dd9e 013d
00000060: 2a0e 19be 9256 023e bf64 853e 1340 7dbe
00000070: e227 06be f723 613e 4c58 c53a aa59 a2ba
00000080: 1072 16be d87e 1fbd 72d2 a43d a5f1 fe3d
00000090: 0682 80be 2224 743e 0c59 663e 78ee 59be
000000a0: 3a9c 46be abbe 503e c5b7 433e 440a 143e
000000b0: 2a25 4c3d 72f6 1cbe f9e6 243e f658 1abe
000000c0: 8647 ea3b 874a e83d 5362 66be 31c8 6fbe
000000d0: f9bc 8ebe 79d0 483e fdbc 0a3d 7822 e6bc
000000e0: 25b1 28be 5313 2bbe affc 00be 42fe 0c3e
000000f0: 48a0 a13d 694c 8ebd 0bbd 70be ff0f af3e
00000100: fd22 5ebe 788e 4a3e 768e 1fbb b331 fd3a
00000110: 1eff da3d 2ce8 eabd c3d7 64be a25e 17be
00000120: db1d 72be 1687 a8bd bfe1 debc e1f0 c7bc
00000130: cc25 d2bc 21dd a83e 40a4 2c3d f542 12bd
00000140: 276c 893e ac1e 9d3e 1e83 423e 22f5 ab3b
00000150: 9719 213e 50b1 893d 6aaa 9d3e e000 9d3e
00000160: 42bc bcbc 6686 6c3d 35cc 17bd 5b78 10bd
00000170: 7846 15be a0c0 0a3e cfff e8bd bf02 d53d
00000180: 6e8f cbbd 4f7f 67be a32b a03e ee3f cf3b
00000190: dff4 10be e43b 783e 2f6a 35be f884 2a3e
000001a0: ca9e 27bc ec94 ed3d d5c5 a83d 12b8 f23d
000001b0: de48 7c3c 7940 943e d863 f4bd e52d 073e
000001c0: c3cd 613e 76d1 53be 3fc6 883d 88c0 893e
000001d0: 830d 2e3e c62a adbe afb3 6d3d 260e 4ebd
000001e0: c6e9 30be 42ef 223e 6338 81bd 4eba 613d
000001f0: 7961 673e a4c5 853e 66c7 b23d 0404 9fbd

fc.weight f4 [2, 64]
-0.14532205 -0.09883539 0.015613759 -0.19257481 0.06617909 0.17581877 -0.0080897575 0.12392033
0.15785325 0.16294718 0.2815144 -0.24239698 -0.07934027 -0.061513588 -0.04647422 -0.17186816
0.1967386 0.31163728 0.17442892 -0.05649141 0.10524162 -0.07243593 -0.09360559 -0.03260674
-0.16330615 -0.11586597 -0.11932781 0.08260314 -0.02328279 -0.10865363 -0.01011946 0.043151822
-0.23611033 0.07430482 0.21555924 -0.1443525 0.15536638 0.0060582617 -0.06636987 0.05936698
0.12013561 -0.053420044 -0.22380172 0.21039388 -0.081245385 0.08821468 0.12923542 -0.2375305
-0.01437497 0.008756685 -0.02149871 0.130646 0.02656046 0.0004950748 -0.10945703 0.030689424
-0.05925359 0.018136742 0.23022485 -0.106073275 -0.07417074 -0.1420802 -0.06412112 -0.09494585
0.29133654 0.22699358 -0.005400869 0.2992348 -0.10145954 0.032120403 -0.023403477 0.08350144
-0.20978053 -0.02169635 -0.2889057 0.2331592 0.019790558 -0.06878754 0.23571806 0.024921289
-0.12513459 -0.21651167 -0.12786812 0.017400173 -0.17117658 -0.1253498 0.15036814 0.11386794
0.11979452 0.016619133 0.088643745 -0.030503085 0.11818153 -0.0982465 -0.13789998 -0.021379229
0.03016953 0.1037956 -0.012396807 0.02951913 -0.12998623 -0.2047354 0.043334983 0.06856328
-0.07133515 -0.077879116 0.16373579 -0.24664482 0.13557331 -0.122015834 -0.029201146 0.25544533
0.082663484 -0.030266512 -0.16744992 -0.19159202 -0.14595553 0.03588995 -0.032728184 -0.09055524
0.20115809 0.0010636168 -0.2066784 -0.009580798 0.016690364 0.21019898 -0.06646142 0.115989104
00000000: 4ecf 14be 356a cabd dad0 7f3c 5532 45be
00000010: e788 873d d609 343e e78a 04bc f1c9 fd3d
00000020: 48a4 213e a0db 263e a822 903e ea36 78be
00000030: 277d a2bd acf5 7bbd c05b 3ebd 35fe 2fbe
00000040: d875 493e ec8e 9f3e 7f9d 323e 8963 67bd
00000050: eb88 d73d 4a59 94bd 4ab4 bfbd a58e 05bd
00000060: ba39 27be 234b edbd 2462 f4bd d62b a93d
00000070: 8dbb bebc cb85 debd 17cc 25bc f7bf 303d
00000080: e8c6 71be 202d 983d 90bb 5c3e 24d1 13be
00000090: 5d18 1f3e 6284 c63b edec 87bd ca2a 733d
000000a0: a909 f63d face 5abd 472c 65be 7e71 573e
000000b0: fb63 a6bd e6a9 b43d 4a56 043e 323b 73be
000000c0: ff84 6bbc 3378 0f3c 101e b0bc 11c8 053e
000000d0: 5295 d93c e8c7 013a 022b e0bd 6368 fb3c
000000e0: e4b3 72bd 8193 943c 10c0 6b3e f23c d9bd
000000f0: d4e6 97bd 797d 11be ef51 83bd f872 c2bd
00000100: 102a 953e 0171 683e c6f9 b0bb 4e35 993e
00000110: 05ca cfbd af90 033d a6b8 bfbc ce02 ab3d
00000120: b5d0 56be 8bbc b1bc 73eb 93be 49c1 6e3e
00000130: cf1f a23c 7be0 8cbd 1360 713e bb27 cc3c
00000140: 4823 00be 3cb5 5dbe dcef 02be cf8a 8e3c
00000150: ea48 2fbe b35b 00be 1bfa 193e 9833 e93d
00000160: d456 f53d d924 883c da8a b53d 9be1 f9bc
00000170: 2809 f23d 7635 c9bd a735 0dbe 7e23 afbc
00000180: 1726 f73c ca92 d43d fa1b 4bbc 1ad2 f13c
00000190: 1c1b 05be 28a6 51be 0680 313d e86a 8c3d
000001a0: 2a18 92bd 167f 9fbd 5baa 273e 7690 7cbe
000001b0: bbd3 0a3e 70e3 f9bd 3e37 efbc bbc9 823e
000001c0: 794b a93d 7af1 f7bc fe77 2bbe b330 44be
000001d0: 5e75 15be 5701 133d fd0d 06bd 0775 b9bd
000001e0: 63fc 4d3e 0f69 8b3a 81a3 53be c8f8 1cbc
000001f0: 3bba 883c 673e 573e ed1c 88bd b28b ed3d

fc.bias f4 [2]
-0.1202573 0.13098438
00000000: 7649 f6bd c520 063e
