saved_models/gat7_slic.pt (torch, 25936 bytes, 14 tensors)

conv1.att_src f4 [1, 1, 64]
-0.91634417 -0.16568513 -0.091396175 -1.0312713 0.13918558 0.9476929 -0.02670723 -0.00576239
-0.018610097 -0.34226567 0.2286269 -0.5731592 0.13205478 -0.7933807 0.25073022 -1.0916728
-0.20904793 -0.84310037 -0.493991 -0.9628657 0.85987467 -0.8404982 0.40001953 -1.523048
0.29707965 -0.009019403 -0.79129714 -1.3075713 -0.503404 -0.3952256 0.725893 0.4455518
-0.5829183 -1.2689681 0.50642395 -1.556765 0.012291204 -0.3731524 -0.999967 -0.45558435
-1.3028342 0.6996289 -1.2484314 0.46179956 -0.014036397 0.5436252 -1.0643944 0.5810964
0.048148554 0.54387945 -1.0456878 0.48935625 -1.5567528 -0.54703116 -0.4136927 0.3718277
-0.70877594 -0.00808958 0.29377505 0.23933977 -0.13200447 -1.7427291 0.81906426 0.018152516
00000000: 8895 6abf 5da9 29be eb2d bbbd b300 84bf
00000010: aa86 0e3e 009c 723f 1fc9 dabc 6ed2 bcbb
00000020: 3474 98bc 723d afbe 2c1d 6a3e 90ba 12bf
00000030: 5e39 073e ff1a 4bbf b65f 803e efbb 8bbf
00000040: a910 56be 6dd5 57bf 63ec fcbe 5e7e 76bf
00000050: bf20 5c3f e42a 57bf 5ccf cc3e 3df3 c2bf
00000060: d31a 983e 1ec6 13bc 7392 4abf 7f5e a7bf
00000070: 16df 00bf 035b cabe 20d4 393f 5e1f e43e
00000080: 223a 15bf 8c6d a2bf 00a5 013f 1344 c7bf
00000090: 0c61 493c d50d bfbe d6fd 7fbf 5a42 e9be
000000a0: 45c3 a6bf e11a 333f 9acc 9fbf fe70 ec3e
000000b0: ebf8 65bc 052b 0b3f 133e 88bf bcc2 143f
000000c0: 6b37 453d af3b 0b3f 19d9 85bf e78c fa3e
000000d0: ad43 c7bf 3c0a 0cbf 88cf d3be 3360 be3e
000000e0: 5772 35bf 288a 04bc af69 963e 7c15 753e
000000f0: 2e2c 07be bf11 dfbf 32ae 513f 96b4 943c

conv1.att_dst f4 [1, 1, 64]
1.2890851 0.89664024 0.39466912 0.8511375 -1.0281432 -0.53329074 0.1449489 0.12683421
-0.24918824 0.4673542 -0.91322756 0.5329742 -0.13652684 0.5904879 -0.38841608 0.8439423
0.2767546 0.7927349 0.042493396 0.89139926 -1.3263755 1.4309565 -0.31955758 1.1168292
-0.77455425 0.08850091 1.0219107 0.879798 0.13340804 0.82001215 -1.1278595 -0.46431938
1.2819571 1.2806162 -0.75486493 0.4962843 0.2640199 0.4242813 0.9855291 1.2952635
0.768043 -1.1220752 0.8502361 -0.75712836 -1.0464445 -0.75661355 0.3508455 -0.5505013
0.69766057 0.28854796 0.4512103 -0.70752054 1.2053868 0.7570765 -0.49497306 -0.11709697
0.9773691 0.45359024 -0.44088975 -1.1030079 -1.4860693 0.94870514 -0.9283954 -0.27460232
00000000: be00 a53f 378a 653f 1212 ca3e 26e4 593f
00000010: 329a 83bf be85 08bf 7c6d 143e d4e0 013e
00000020: 342b 7fbe 0d49 ef3e 48c9 69bf ff70 083f
00000030: b1cd 0bbe 372a 173f 79de c6be 9a0c 583f
00000040: c7b2 8d3e adf0 4a3f 8e0d 2e3d be32 643f
00000050: acc6 a9bf 9529 b73f 0d9d a3be 42f4 8e3f
00000060: 3049 46bf f73f b53d f8cd 823f 713a 613f
00000070: 1e9c 083e 51ec 513f b35d 90bf 45bb edbe
00000080: 2c17 a43f 3beb a33f d43e 41bf fa18 fe3e
00000090: 9e2d 873e 663b d93e a34b 7c3f 32cb a53f
000000a0: 779e 443f 29a0 8fbf 13a9 593f 2ad3 41bf
000000b0: e5f1 85bf 6db1 41bf 05a2 b33e a7ed 0cbf
000000c0: e299 323f 8fbc 933e 0905 e73e 1120 35bf
000000d0: 1d4a 9a3f c4cf 413f 1c6d fdbe 89d0 efbd
000000e0: dd34 7a3f fb3c e83e 4dbc e1be 5d2f 8dbf
000000f0: 8537 bebf 57de 723f 52ab 6dbf ad98 8cbe

conv1.att_edge f4 [1, 1, 64]
0.54602337 -0.049114283 -0.4090218 0.11224865 0.35652635 0.0074619395 0.008019733 0.0017958154
-0.26337016 0.5467212 0.5762228 -0.55953234 0.2988494 -0.27371866 -0.46449596 0.011829391
0.114120014 -0.36267763 -0.012399663 0.0810316 -0.43220168 0.009319442 0.24344191 0.47091442
-0.083072096 -0.27216467 0.54868317 0.01148255 0.016609713 -0.34905288 0.40101385 -0.011163114
-0.016110731 0.00292953 0.015359498 -0.01394118 0.52354294 -0.038610242 -0.011018521 -0.0725848
0.051815428 -0.5568326 0.070435196 0.0076544303 -0.09967272 -0.4344695 0.06996569 -0.011871062
-0.0070890347 0.06316824 0.0100257145 -0.09903961 -0.43186128 0.4111811 -0.01178987 0.09415962
-0.017911905 -0.16009808 -0.10455125 0.0037774444 0.54716533 0.008893416 0.30645463 -0.55895835
00000000: 30c8 0b3f 0f2c 49bd 4e6b d1be 9fe2 e53d
00000010: 9f8a b63e 4983 f43b 3365 033c 9161 eb3a
00000020: 74d8 86be ecf5 0b3f 5683 133f 833d 0fbf
00000030: ca02 993e da24 8cbe 6ad2 edbe 10d0 413c
00000040: c1b7 e93d e2b0 b9be f527 4bbc e5f3 a53d
00000050: 8a49 ddbe 93b0 183c d648 793e b21b f13e
00000060: b421 aabd 2b59 8bbe 8076 0c3f 4e21 3c3c
00000070: 1811 883c 0fb7 b2be b051 cd3e 7ee5 36bc
00000080: a7fa 83bc 5cfd 3f3b 67a6 7b3c 8c69 64bc
00000090: e906 063f c625 1ebd 0787 34bc 57a7 94bd
000000a0: 6a3c 543d 958c 0ebf 5440 903d 04d2 fa3b
000000b0: 3621 ccbd c972 debe 2c4a 8f3d d87e 42bc
000000c0: 224b e8bb 5a5e 813d e542 243c 47d5 cabd
000000d0: ec1c ddbe 5486 d23e 4d2a 41bc c2d6 c03d
000000e0: fdbb 92bc c0f0 23be f71e d6bd 008f 773b
000000f0: 0713 0c3f b1b5 113c 9fe7 9c3e e517 0fbf

conv1.bias f4 [64]
0.043292206 -0.20223264 -0.20900142 0.0691529 -0.3912778 -0.44060645 -0.28721932 -0.44700336
-0.5277944 -0.66324794 -0.3129815 -0.5292633 -0.34277213 -0.07355177 -0.41970253 -1.2000419
-0.25888345 -0.14582281 0.20674187 -0.1168693 -0.5394427 -0.18301542 -0.42104924 -0.8198125
-0.21115175 -0.4849558 -0.41603523 -0.03360393 -0.009547999 -0.2761051 -0.38337243 -0.4395543
-0.31569493 -0.5787003 -0.16921465 -0.6139961 -0.5448276 -0.4336451 -0.28595713 -0.17181782
-0.5670251 -0.48655248 -0.63386726 -0.15615343 -0.43778276 -0.40276238 -0.58895713 -0.8569457
-0.043690626 -0.34834212 -0.5195813 -0.30144304 -0.70922947 -0.118160434 0.10218711 -0.34367168
-0.35300016 -0.18496208 -0.17006971 -0.37615854 -0.29040933 -0.6985558 -0.48181075 -0.39182025
00000000: 2b53 313d 1316 4fbe 7804 56be 09a0 8d3d
00000010: 9055 c8be 2b97 e1be 690e 93be a0dd e4be
00000020: 891d 07bf 9eca 29bf 1c3f a0be cd7d 07bf
00000030: d47f afbe 4fa2 96bd 40e3 d6be f99a 99bf
00000040: 5f8c 84be 9352 15be 24b4 533e 2c59 efbd
00000050: eb18 0abf 6568 3bbe c493 d7be 3bdf 51bf
00000060: 2a38 58be 204c f8be 9202 d5be 46a4 09bd
00000070: 366f 1cbc a65d 8dbe 6449 c4be 430d e1be
00000080: c4a2 a1be b425 14bf 9b46 2dbe d92e 1dbf
00000090: d279 0bbf bb06 debe f968 92be 03f1 2fbe
000000a0: 8f28 11bf 681d f9be 2045 22bf afe6 1fbe
000000b0: 1025 e0be df36 cebe e5c5 16bf cb60 5bbf
000000c0: f1f4 32bd e659 b2be 4803 05bf be56 9abe
000000d0: 1090 35bf 19fe f1bd 7a47 d13d bcf5 afbe
000000e0: 70bc b4be b366 3dbe c126 2ebe da97 c0be
000000f0: 88b0 94be 8ed4 32bf e6af f6be aa9c c8be

conv1.lin.weight f4 [64, 4]
0.7156411 -0.39800844 0.029939562 0.47308362 0.4183434 -0.28630087 0.14617746 0.5212751
-0.3785781 0.016293053 -0.39212784 0.2558201 0.64377075 -0.26743793 0.016126072 0.5471761
-0.12181869 0.13538618 0.010196816 0.021028206 0.41354537 -0.13074054 0.31400737 -0.22116059
0.42650813 -0.2483078 -0.13749501 -0.32544008 0.2479577 -0.24580902 0.013646227 0.029735435
-0.0754274 -0.015153378 0.04581302 0.042384494 0.2204679 0.0031766584 -0.30503583 0.041877735
-0.2607903 0.07455643 0.26485536 -0.07894025 -0.073965184 0.25138476 -0.43992707 0.27333733
0.36547592 -0.07112606 0.09494463 -0.16198151 -0.33473495 0.32557186 -0.46498087 0.35550126
0.10834475 -0.082247935 0.14676827 -0.45343098 0.38824868 -0.03606155 -0.5840457 -0.039232727
0.3619731 -0.2233556 -0.10967971 -0.27632853 -0.11484961 0.13399765 -0.7971189 0.38158906
0.6846947 -0.102483 -0.043316133 -0.6846847 0.63003874 -0.4412994 -0.015941996 0.387813
-0.2842574 0.092992246 0.39166534 -0.21215433 0.6054795 -0.3756963 -0.12136074 0.39273447
0.038668577 -0.011527441 0.16509312 0.3869383 0.23868407 0.10710233 -0.66915405 0.46886808
-0.22741397 0.18077001 0.053665522 -0.43997678 0.17744556 -0.17629765 0.0058804546 0.033872727
0.3185961 -0.16297938 -0.30964297 0.16339143 -0.07022704 0.49065343 -0.76684004 0.5796795
0.5057047 0.13475876 -0.32852495 -0.4281049 0.13473481 -0.011293861 -0.4908151 0.31093568
-0.18290937 0.084156744 0.28671938 -0.15898636 0.06999829 0.047252223 0.13808972 0.076908246
0.38143843 -0.44863614 -0.06692769 0.18720189 0.38421413 -0.10830434 -0.4163609 0.23026027
0.18955134 -0.21069318 0.16756801 -0.6196477 0.509944 0.28286317 -0.46724838 0.111746304
0.22613761 -0.20957091 0.014187268 0.093124315 -0.02900538 0.1480206 -0.37469867 0.30222812
0.39413616 -0.24858601 -0.19957863 0.30435678 0.38527676 -0.3099933 -0.058620214 0.31794155
0.39048 0.40585482 -0.4301886 0.1047759 0.10270654 0.016424721 0.14105505 -0.29775056
0.21843307 0.4659949 -0.32594478 0.39247838 0.29284605 -0.21849695 0.49788156 -0.71618587
-0.27948686 0.20791192 0.023268124 0.015513309 -0.016491346 0.08793794 0.0896987 -0.029945368
-0.13869056 0.44768134 -0.29348925 0.2889384 -0.050858207 -0.36735994 0.049328946 0.20014323
0.37976256 -0.28910813 0.08333008 0.21049973 0.397292 -0.46954998 0.12903601 0.046872202
0.4293278 0.14197983 -0.449839 -0.07780474 0.32108146 -0.23919807 0.16892122 -0.4299965
0.3834762 -0.14707236 -0.50845164 0.15753631 0.6290081 -0.25894004 -0.15725693 -0.32777485
-0.38247645 0.77419645 -0.05287193 0.14946368 0.22399382 -0.15397681 0.1040333 -0.029975718
0.2815468 -0.16251843 -0.28175017 0.13640371 0.33381465 -0.44002026 -0.083286315 0.082672246
0.13616957 -0.08490879 0.4390243 -0.6559038 -0.19002491 0.27219838 0.07706584 -0.08892771
-0.68236816 0.71500856 -0.07878669 -0.040042732 0.16560468 0.5210317 -0.37329295 0.406733
-0.35553378 0.21330741 0.3589074 -0.1894493 -0.10248779 0.09005769 0.05017931 -0.014805586
00000000: 4134 373f c3c7 cbbe d043 f53c 0438 f23e
00000010: 1b31 d63e 0796 92be 8baf 153e 4972 053f
00000020: fdd4 c1be 0279 853c fbc4 c8be dafa 823e
00000030: 29ce 243f a0ed 88be d31a 843c bc13 0c3f
00000040: 147c f9bd ada2 0a3e 8c10 273c 5843 ac3c
00000050: 38bc d33e d9e0 05be 93c5 a03e ec77 62be
00000060: 465f da3e 6644 7ebe 7ecb 0cbe 15a0 a6be
00000070: a0e8 7d3e 5cb5 7bbe 6d94 5f3c ba97 f33c
00000080: ae79 9abd e045 78bc 6fa6 3b3d 5d9b 2d3d
00000090: 56c2 613e 7c2f 503b a82d 9cbe fd87 2b3d
000000a0: 4e86 85be 0bb1 983d 1f9b 873e 6dab a1bd
000000b0: 0f7b 97bd 81b5 803e 1f3e e1be dff2 8b3e
000000c0: a91f bb3e 8aaa 91bd 5572 c23d 7bde 25be
000000d0: 6162 abbe 5bb1 a63e f911 eebe 4304 b63e
000000e0: dae3 dd3d 9b71 a8bd 6c4a 163e 1b28 e8be
000000f0: 88c8 c63e 47b5 13bd 0584 15bf 7fb2 20bd
00000100: 8a54 b93e 55b7 64be c19f e0bd ef7a 8dbe
00000110: 4636 ebbd ae36 093e fc0f 4cbf a45f c33e
00000120: 2748 2f3f 9be2 d1bd 426c 31bd 7f47 2fbf
00000130: 384a 213f fff1 e1be ca98 82bc 6d8f c63e
00000140: 308a 91be b872 be3d 5c88 c83e fc3e 59be
00000150: b400 1b3f 445b c0be fb8b f8bd 7e14 c93e
00000160: f162 1e3d 98dd 3cbc 2c0e 293e c71c c63e
00000170: 9969 743e 7758 db3d ae4d 2bbf 7a0f f03e
00000180: 35df 68be c61b 393e 61d0 5b3d a344 e1be
00000190: 4ab4 353e 5f87 34be d4b0 c03b 21be 0a3d
000001a0: 071f a33e 11e4 26be 8689 9ebe 1550 273e
000001b0: 32d3 8fbd ed36 fb3e a14f 44bf e065 143f
000001c0: dd75 013f 33fe 093e 6c34 a8be 9130 dbbe
000001d0: ecf7 093e e309 39bc 1e4c fbbe f632 9f3e
000001e0: 984c 3bbe 5f5a ac3d e2cc 923e 52cd 22be
000001f0: 435b 8f3d 8c8b 413d 6467 0d3e 1282 9d3d
00000200: e64b c33e a3b3 e5be 6211 89bd dab1 3f3e
00000210: b7b7 c43e aace ddbd 422d d5be 59c9 6b3e
00000220: bf19 423e f4bf 57be f396 2b3e 3ba1 1ebf
00000230: b18b 023f 71d3 903e 2e3b efbe 3fdb e43d
00000240: 9e90 673e c299 56be b771 683c f6b7 be3d
00000250: b19c edbc b692 173e 81d8 bfbe a5bd 9a3e
00000260: 37cc c93e 558d 7ebe 575e 4cbe a7d4 9b3e
00000270: ff42 c53e 71b7 9ebe c01b 70bd 3cc9 a23e
00000280: ffec c73e 34cc cf3e ae41 dcbe bf94 d63d
00000290: ce57 d23d 238d 863c bc70 103e c372 98be
000002a0: ebac 5f3e e296 ee3e 3ce2 a6be edf2 c83e
000002b0: ebef 953e aabd 5fbe 55ea fe3e f557 37bf
000002c0: e718 8fbe dde6 543e cb9c be3c 892b 7e3c
000002d0: dc18 87bc cf18 b43d f4b3 b73d fd4f f5bc
000002e0: e604 0ebe 7d36 e53e 3944 96be bcef 933e
000002f0: b250 50bd 9a16 bcbe 260d 4a3d 59f2 4c3e
00000300: 3d70 c23e fb05 94be f6a8 aa3d 3e8d 573e
00000310: db69 cb3e db68 f0be 0422 043e 11fd 3f3d
00000320: dad0 db3e 2963 113e 4c51 e6be 1758 9fbd
00000330: ca64 a43e 57f0 74be aff9 2c3e 8028 dcbe
00000340: fe56 c43e 239a 16be e329 02bf 3351 213e
00000350: ad06 213f ca93 84be f607 21be 1bd2 a7be
00000360: f4d3 c3be bd31 463f 3d90 58bd 020d 193e
00000370: a35e 653e 19ac 1dbe 690f d53d a38f f5bc
00000380: e726 903e 3b6b 26be 8f41 90be 6aad 0b3e
00000390: c1e9 aa3e 564a e1be 0492 aabd 1150 a93d
000003a0: 0970 0b3e a9e4 adbd cbc7 e03e 50e9 27bf
000003b0: e495 42be 965d 8b3e b2d4 9d3d bb1f b6bd
000003c0: aeaf 2ebf cd0a 373f eb5a a1bd d903 24bd
000003d0: 4694 293e 5562 053f 4120 bfbe 4f3f d03e
000003e0: 8608 b6be 426d 5a3e b6c2 b73e fffe 41be
000003f0: 1ee5 d1bd 2b70 b83d d288 4d3d 2193 72bc

conv1.lin_edge.weight f4 [64, 2]
0.6094251 0.15718248 0.017905846 0.09514079 -0.3891781 -0.19690576 0.06816968 0.16243021
0.46603876 0.14323956 0.14011915 -0.104106285 0.074363165 -0.0744001 -0.13044278 0.10726444
-0.46303028 0.028852403 0.62181973 0.24153733 0.63745844 0.3392212 -0.61971116 -0.21913005
0.5173323 -0.103480004 -0.48421723 0.064998455 -0.38060287 -0.2710579 0.22307101 -0.19883047
0.07293405 0.15849002 -0.5123995 -0.2922118 -0.2378486 0.20645936 -0.05442168 -0.11658343
-0.50205237 0.008116887 0.06538737 -0.07254731 0.4787514 -0.08906469 0.5363593 0.40137878
0.035504982 0.13437518 -0.5673633 0.14435168 0.6548576 -0.03194296 0.1129053 -0.1405681
-0.20534429 0.20471594 -0.4805961 0.055996027 0.43638942 0.22219774 0.1255053 -0.118980974
0.00047296094 -0.030239133 0.23899412 -0.19920248 -0.017181503 0.040678006 -0.013597729 0.06252302
0.55028015 0.4167568 -0.03627204 0.11555762 -0.05957718 0.0755936 0.042096823 0.1064408
0.020059196 -0.1253067 -0.66981846 -0.4215685 -0.04526254 -0.1086839 -0.12712234 0.114005245
0.08073735 0.12973554 -0.62411493 -0.42615238 0.046173017 0.097126 -0.01327587 -0.01266174
-0.15830797 0.13180341 -0.03720111 -0.1023176 0.068738535 -0.080003574 0.080038644 0.12928437
-0.5907766 -0.14397249 0.33762842 0.39821246 -0.22929065 0.19534662 -0.07249362 -0.12280409
0.11173312 -0.12164363 -0.20872287 -0.077383526 -0.08265816 -0.13208249 -0.042824175 0.042640757
0.63452864 0.120580256 -0.13236922 0.121395536 0.4909825 -0.05237456 -0.6406843 -0.40782157
00000000: 4903 1c3f 72f4 203e 48af 923c 2dd9 c23d
00000010: 5a42 c7be aaa1 49be 8c9c 8b3d 1b54 263e
00000020: a29c ee3e 64ad 123e 657b 0f3e ad35 d5bd
00000030: b74b 983d 145f 98bd cb92 05be 75ad db3d
00000040: 4e12 edbe e05b ec3c 942f 1f3f 9055 773e
00000050: 7a30 233f 67ae ad3e 64a5 1ebf a163 60be
00000060: e46f 043f 53ed d3bd 52eb f7be e91d 853d
00000070: 61de c2be 1ac8 8abe ba6c 643e 379a 4bbe
00000080: 725e 953d 354b 223e 9d2c 03bf c99c 95be
00000090: 958e 73be 156a 533e 44e9 5ebd 4bc3 eebd
000000a0: 8186 00bf b1fc 043c d0e9 853d af93 94bd
000000b0: e71e f53e 8c67 b6bd d84e 093f 8581 cd3e
000000c0: ac6d 113d a699 093e b93e 11bf edd0 133e
000000d0: bfa4 273f 9fd6 02bd e53a e73d 16f1 0fbe
000000e0: c645 52be 0ea1 513e b110 f6be 175c 653d
000000f0: 6f6e df3e ce87 633e 7684 003e 4cac f3bd
00000100: bef7 f739 0fb8 f7bc e0ba 743e bcfb 4bbe
00000110: 39c0 8cbc fb9d 263d 02c9 5ebc 120c 803d
00000120: 29df 0c3f 2661 d53e fe91 14bd 79a9 ec3d
00000130: 3307 74bd d1d0 9a3d b86d 2c3d a2fd d93d
00000140: 2f53 a43c 6650 00be 3979 2bbf d4d7 d7be
00000150: 3765 39bd aa95 debd 5c2c 02be 957b e93d
00000160: a059 a53d 65d9 043e ffc5 1fbf a530 dabe
00000170: eb1f 3d3d ffe9 c63d 0983 59bc 3073 4fbc
00000180: 7c1b 22be 79f7 063e 3160 18bd e48b d1bd
00000190: cac6 8c3d ead8 a3bd 4deb a33d 1f63 043e
000001a0: 233d 17bf 866d 13be a2dd ac3e 81e2 cb3e
000001b0: 2bcb 6abe f208 483e 8977 94bd b680 fbbd
000001c0: 56d4 e43d 4c20 f9bd 73bb 55be 417b 9ebd
000001d0: ae48 a9bd a240 07be 6768 2fbd 13a8 2e3d
000001e0: 7870 223f c8f2 f63d cc8b 07be 399e f83d
000001f0: 0f62 fb3e b586 56bd e303 24bf fdcd d0be

conv2.att_src f4 [1, 1, 64]
0.0470727 0.03396825 0.019039327 0.88951385 -0.12707444 0.007855106 0.015064623 0.065210104
0.00673379 -4.043901 -0.16418193 -0.06541161 0.04835256 -0.054760594 -0.022346625 -0.13943024
-0.7505142 -0.29429492 -0.15011922 0.0041435733 0.26960433 0.44604877 0.09606051 -0.2659293
0.19340843 0.65037423 -0.06487707 -0.009412165 -0.0041039474 -0.92691576 -0.388296 -1.4447869
-0.24166596 -0.60791564 0.2793933 0.72408605 -0.10896618 -0.12915847 -0.5574232 3.3016117
0.002670001 0.014878373 0.024696687 -0.13040861 0.030148733 -0.001386219 1.4133118 -1.9267749
-0.0384708 -0.12619257 -0.0044554435 0.079670206 -0.019516654 -1.0977491 0.03827153 -0.08947992
0.036323465 -1.1924641 3.1254466 -0.042207804 0.02665118 0.07086213 -0.20035805 -0.37436295
00000000: 4ecf 403d 4b22 0b3d 5df8 9b3c 2eb7 633f
00000010: cd1f 02be b4b2 003c 9cd1 763c e08c 853d
00000020: 20a7 dc3b a367 81c0 4f1f 28be 86f6 85bd
00000030: 550d 463d a54c 60bd 4510 b7bc cdc6 0ebe
00000040: b321 40bf d3ad 96be dab8 19be d0c6 873b
00000050: 9409 8a3e 8160 e43e 5fbb c43d e327 88be
00000060: dc0c 463e ed7e 263f 45de 84bd 7b35 1abc
00000070: 687a 86bb 5a4a 6dbf bcce c6be c7ee b8bf
00000080: 4877 77be 5ca0 1bbf a30c 8f3e b45d 393f
00000090: a929 dfbd 1e42 04be 49b3 0ebf 9b4d 5340
000000a0: 2ffb 2e3b 6bc4 733c b550 ca3c d689 05be
000000b0: 7afa f63c cbb1 b5ba 67e7 b43f 8fa0 f6bf
000000c0: 8f93 1dbd a038 01be f8fe 91bb 222a a33d
000000d0: 64e1 9fbc 0b83 8cbf 9cc2 1c3d 4041 b7bd
000000e0: eac7 143d aaa2 98bf 5107 4840 17e2 2cbd
000000f0: 9353 da3c 2a20 913d a92a 4dbe 80ac bfbe

conv2.att_dst f4 [1, 1, 64]
-0.8515467 2.6292942 1.9197239 -1.9856527 0.30421573 -1.3848324 0.9794974 2.2791054
0.7995164 2.8177977 2.228364 -0.41765854 1.1748627 -0.9115941 0.057411123 -0.5665144
1.9729232 -0.48737046 -0.8319052 1.4633286 -1.7463092 -0.19572555 -0.8068242 0.66401917
0.2919932 -0.34069997 -0.2016097 -0.49310464 -1.8262717 1.8614188 -0.7728964 1.9423223
1.4363453 1.8829368 -0.400944 -2.0107234 0.5134467 -0.20716994 0.4225167 -2.677052
0.19078615 2.368643 1.6895239 -0.4206477 0.25755146 1.4230752 -2.071192 2.4886374
-1.9579474 0.38102785 -2.525986 -1.1667457 0.8224911 2.0145693 0.054257706 0.6193999
-1.0741353 2.1255162 -2.4391756 1.4951719 -0.15552314 0.42495167 2.0063176 -0.594104
00000000: f7fe 59bf 5b46 2840 83b9 f53f de29 febf
00000010: 2ac2 9b3e 3042 b1bf 57c0 7a3f dddc 1140
00000020: 1bad 4c3f cc56 3440 849d 0e40 57d7 d5be
00000030: e761 963f 3b5e 69bf ed27 6b3d 1607 11bf
00000040: bf88 fc3f 9f88 f9be bdf7 54bf 5a4e bb3f
00000050: 0f87 dfbf 476c 48be 088c 4ebf 29fd 293f
00000060: 2280 953e 3a70 aebe c672 4ebe 3678 fcbe
00000070: 45c3 e9bf f942 ee3f 8adc 45bf 049e f83f
00000080: 2ada b73f 1304 f13f 8848 cdbe b1af 00c0
00000090: 3e71 033f 5b24 54be 1c54 d83e d254 2bc0
000000a0: 725d 433e d997 1740 5242 d83f 235f d7be
000000b0: c9dd 833e 5427 b63f 698e 04c0 d645 1f40
000000c0: 059e fabf 1516 c33e c1a9 21c0 ec57 95bf
000000d0: c78e 523f b4ee 0040 543d 5e3d fe90 1e3f
000000e0: 447d 89bf 7508 0840 741b 1cc0 cb61 bf3f
000000f0: 7541 1fbe 4493 d93e 8267 0040 3317 18bf

conv2.att_edge f4 [1, 1, 64]
-0.027797388 0.056885988 0.054202512 0.052885164 -0.044640105 0.062634245 0.062091608 -0.0036798986
-0.217784 -0.027429009 -0.055529103 -0.25185668 -0.041744318 -0.08675691 0.061983597 -0.05126603
-0.020287676 0.2054508 0.057464886 0.020320801 -0.16002783 0.030752126 0.06889287 0.24445194
-0.055665664 0.025609106 0.029081272 0.042322956 0.23105294 -0.057934012 0.020213041 -0.31528935
0.06567213 -0.040180616 0.35479572 0.020985657 -0.03865626 0.08378401 0.0852885 -0.049779456
-0.057716276 -0.06397698 -0.27754384 -0.037805803 -0.07436101 0.003945587 -0.08580514 0.27462286
0.0031778163 -0.07916849 0.05584341 0.04743193 -0.058923926 -0.08795324 0.04336974 -0.2874038
0.0724156 0.6520178 0.07665744 -0.2511901 0.04636843 0.06201143 0.06993895 -0.06317313
00000000: 59b7 e3bc 4801 693d 7403 5e3d 1d9e 583d
00000010: 8bd8 36bd 6246 803d c553 7e3d 742a 71bb
00000020: c502 5fbe cdb2 e0bc 7c72 63bd 5cf3 80be
00000030: 17fc 2abd 9bad b1bd 83e2 7d3d 54fc 51bd
00000040: 5732 a6bc b261 523e 4d60 6b3d cf77 a63c
00000050: 56de 23be e2eb fb3c b417 8d3d 9c51 7a3e
00000060: ae01 64bd 30ca d13c d93b ee3c d65a 2d3d
00000070: 2499 6c3e 374c 6dbd d295 a53c 9b6d a1be
00000080: 1c7f 863d 6e94 24bd c9a7 b53e 1dea ab3c
00000090: 0756 1ebd f396 ab3d bdab ae3d 8be5 4bbd
000000a0: e767 6cbd 5d06 83bd 3a1a 8ebe 42da 1abd
000000b0: 964a 98bd fc49 813b 9bba afbd 5e9b 8c3e
000000c0: e942 503b 1723 a2bd 0fbc 643d fc47 423d
000000d0: 375a 71bd d420 b4bd 78a4 313d 9726 93be
000000e0: a14e 943d a3ea 263f 93fe 9c3d fd9b 80be
000000f0: d3ec 3d3d b2ff 7d3d 273c 8f3d ea60 81bd

conv2.bias f4 [64]
0.076210245 -0.23882192 -0.13956077 0.057085607 0.07075966 0.13660997 -0.031509027 -0.1254363
-0.05191806 -0.13239191 -0.17749634 0.1058139 -0.037926957 0.0611328 -0.06062003 -0.008667604
-0.026515437 0.042568434 0.095763616 -0.12546144 0.0068812785 -0.054798633 0.005809971 -0.09819086
-0.10050939 0.052430212 -0.0071562207 -0.016471399 0.14987159 -0.12450599 0.04339698 -0.040469494
0.03147376 -0.06425809 -0.025539765 0.08071061 -0.0109137 0.005077824 0.050242092 0.035107255
-0.082787514 -0.12371573 -0.15102184 -0.0020311293 -0.0620023 -0.13475525 -0.066705324 -0.043407872
0.1669476 0.10466288 0.19356306 0.09291852 -0.050347265 -0.10096296 -0.10921676 -0.054281615
0.114614226 0.07439819 0.017466709 -0.0033901893 -0.041221768 -0.122564934 -0.11433529 0.0295596
00000000: 1e14 9c3d bc8d 74be 05e9 0ebe 99d2 693d
00000010: 71ea 903d 7ce3 0b3e 9c0f 01bd 6072 00be
00000020: 08a8 54bd bf91 07be 9ac1 35be f5b4 d83d
00000030: 4c59 1bbd 6366 7a3d b54c 78bd 9102 0ebc
00000040: e736 d9bc 3d5c 2e3d b71f c43d f778 00be
00000050: 597c e13b 8874 60bd 9261 be3b 4a18 c9bd
00000060: ded7 cdbd 10c1 563d bb7e eabb 07ef 86bc
00000070: f077 193e fffc febd 08c1 313d 57c3 25bd
00000080: a1ea 003d bf99 83bd c538 d1bc 9b4b a53d
00000090: 60cf 32bc e063 a63b a7ca 4d3d a0cc 0f3d
000000a0: 808c a9bd ac5e fdbd 78a5 1abe b21c 05bb
000000b0: 20f6 7dbd 48fd 09be cd9c 88bd 74cc 31bd
000000c0: 50f4 2a3e 7e59 d63d 6535 463e 114c be3d
000000d0: ef38 4ebd abc5 cebd 09ad dfbd 6656 5ebd
000000e0: ddba ea3d 145e 983d 5816 8f3c f02d 5ebb
000000f0: 28d8 28bd 5303 fbbd 9f28 eabd f926 f23c

conv2.lin.weight f4 [64, 64]
0.040641207 0.1208675 -0.017365385 -0.24124204 0.01873262 0.2701532 0.04427897 -0.13724977
0.13597119 0.06943779 -0.37363404 -0.16327229 0.24671696 0.02053914 0.07493149 0.07163562
0.13341054 -0.16198146 -0.098849036 -0.12215472 0.025308656 -0.2997841 0.13303891 -0.31517944
0.24157172 -0.123488136 -0.23730798 -0.052260537 -0.049168542 -0.124540016 0.029652635 0.03504145
0.03227319 0.08415038 -0.12005756 0.21039015 -0.023256334 -0.079736665 0.21265951 0.09190701
0.1646144 -0.26310948 -0.07511567 -0.028857639 -0.1678486 -0.1484496 0.059440345 0.04531683
0.10025662 0.24556865 0.057468053 -0.23293786 -0.25015014 -0.09732724 0.059322722 -0.055940624
0.19235884 0.13221052 0.21066685 -0.18678232 -0.81902385 0.21139738 -0.0782101 0.15104593
0.31839028 0.12751402 0.1291071 -0.060524963 -0.043122027 -0.10943786 -0.027471256 -0.24259628
-0.14596234 0.6705499 0.3217247 -0.40068385 -0.08959836 -0.034917656 -0.3696148 0.22947603
-0.24553458 0.16424088 -0.1759529 0.19952719 -0.09145183 0.29114252 0.0862838 -0.26203907
0.07544036 -0.009343885 0.13460483 0.24845228 0.048734494 0.07297934 -0.12644342 0.0020168445
0.074539475 -0.06575746 0.07030992 0.21923253 -0.12524265 -0.039517123 0.114140615 -0.005613499
0.09863074 -0.20936963 0.1069201 0.0866183 -0.1877571 0.086600564 -0.06243496 -0.06591746
0.031389438 0.08809776 0.27034807 -0.009736098 0.15789649 0.10509514 0.061224893 -0.24524814
-0.11534064 -0.11465925 0.1737784 0.17988485 0.35145423 -0.025378782 0.014620384 -0.33323744
0.11151877 0.19705622 0.030806853 0.05817814 0.06854152 0.10821747 0.013188335 0.19233538
0.14787075 0.33842605 -0.023195637 -0.1850366 -0.07560292 0.117478184 -0.062287778 0.18162103
0.09124751 0.1719633 -0.072928146 0.09525646 -0.0527478 0.31208995 0.18485603 -0.08290292
-0.010276922 -0.04144822 -0.09762883 0.029908665 -0.12743096 -0.020662442 -0.09274667 -0.19151507
-0.0125562865 -0.08264367 0.04399109 0.3150995 -0.27471524 0.23753977 -0.13572739 -0.047248434
0.22986463 0.04334382 -0.0068066674 0.063800916 -0.22247483 -0.005880813 0.09872701 -0.031134909
0.05471376 0.25648755 0.42400545 -0.027045969 0.12774831 -0.007623684 -0.12507474 0.031056693
0.19126117 0.16974603 0.078620985 0.13486707 0.37315187 0.058823097 0.16083972 -0.4037078
0.26355362 0.34103712 -0.46290436 -0.024271917 0.45766118 0.50498235 0.039923668 -0.11777026
-0.061120015 0.4164634 -0.41984466 -0.5395842 0.25779244 -0.0753892 -0.14538276 0.41951433
-0.08087102 -0.3509036 -0.27890885 0.1976242 0.42715308 -0.3233934 0.51503366 -0.6531663
0.2909825 -0.05695072 -0.5734174 -0.046479423 -0.26079267 -0.21326469 0.17790623 0.0041851318
-0.2759795 -0.12476868 0.115194574 0.57890874 -0.053209126 -0.0373856 0.11225607 0.32294968
0.38540533 -0.008817344 -0.24145511 0.20790023 -0.09422316 -0.49014303 -0.5204277 -0.50563693
-0.06013641 -0.4017482 0.66092855 0.052855812 -0.5142963 0.052961726 0.040096745 -0.10753405
-0.2139939 0.20279402 0.045870416 0.032808453 -1.491651 -0.0054977965 0.34701166 -0.14214964
00000000: 6577 263d 6189 f73d da41 8ebc 2708 77be
00000010: 2775 993c 8551 8a3e de5d 353d 348b 0cbe
00000020: 083c 0b3e 6635 8e3d f64c bfbe da30 27be
00000030: 5fa3 7c3e b341 a83c ae75 993d b2b5 923d
00000040: c69c 083e 78de 25be 5d71 cabd 412c fabd
00000050: 1954 cf3c 4d7d 99be 5a3b 083e 335f a1be
00000060: 945e 773e 59e7 fcbd dd00 73be 250f 56bd
00000070: f464 49bd d60e ffbd 15ea f23c a087 0f3d
00000080: e430 043d 0957 ac3d bde0 f5bd 8470 573e
00000090: 1184 bebc fa4c a3bd 6ac3 593e be39 bc3d
000000a0: ad90 283e 49b6 86be 3fd6 99bd db66 ecbc
000000b0: 81e0 2bbe 2c03 18be b877 733d 249e 393d
000000c0: 5853 cd3d 5976 7b3e 9f63 6b3d 4387 6ebe
000000d0: ae13 80be 8153 c7bd 62fc 723d ff21 65bd
000000e0: b7f9 443e 3262 073e 0db9 573e dd43 3fbe
000000f0: 8cab 51bf 8e78 583e 9e2c a0bd c9ab 1a3e
00000100: 0d04 a33e 0993 023e a734 043e 06e9 77bd
00000110: b9a0 30bd f520 e0bd 660b e1bc 296b 78be
00000120: 2777 15be 29a9 2b3f 1ab9 a43e 6f26 cdbe
00000130: 587f b7bd d105 0fbd 273e bdbe c4fb 6a3e
00000140: 6b6d 7bbe c32e 283e ff2c 34be db50 4c3e
00000150: 194b bbbd a210 953e 90b5 b03d fc29 86be
00000160: 7a80 9a3d 1817 19bc d9d5 093e 466a 7e3e
00000170: d29d 473d 3176 953d 627a 01be 092d 043b
00000180: 27a8 983d d9ab 86bd a6fe 8f3d 7e7e 603e
00000190: 9c3f 00be b5dc 21bd 8ec2 e93d 71f1 b7bb
000001a0: eafe c93d fe64 56be edf8 da3d ef64 b13d
000001b0: 6643 40be a35b b13d cdbb 7fbd bcff 86bd
000001c0: 3692 003d 996c b43d 106b 8a3e 2884 1fbc
000001d0: 9eaf 213e 1f3c d73d f4c6 7a3d 5422 7bbe
000001e0: b737 ecbd 78d2 eabd f7f2 313e bc33 383e
000001f0: cff1 b33e 2ae7 cfbc 568a 6f3c 199e aabe
00000200: f463 e43d 1bc9 493e a75e fc3c 344c 6e3d
00000210: 7f5f 8c3d 1fa1 dd3d e313 583c 91f3 443e
00000220: 6e6b 173e 2e46 ad3e c704 bebc 3c7a 3dbe
00000230: b4d5 9abd 6798 f03d 7821 7fbd ddfa 393e
00000240: f9df ba3d 2617 303e 5a5b 95bd d215 c33d
00000250: 140e 58bd 41ca 9f3e e64a 3d3e 02c9 a9bd
00000260: 8960 28bc 9cc5 29bd a0f1 c7bd 0403 f53c
00000270: 437d 02be 4844 a9bc f7f1 bdbd 871c 44be
00000280: e2b8 4dbc 1641 a9bd 0030 343d b954 a13e
00000290: 7aa7 8cbe a03d 733e 1ffc 0abe 9387 41bd
000002a0: a261 6b3e 4a89 313d 770a dfbb 0eaa 823d
000002b0: 71d0 63be d6b3 c0bb 6331 ca3d a30e ffbc
000002c0: 891b 603d 5652 833e 3e17 d93e 828f ddbc
000002d0: 74d0 023e 19d0 f9bb 9813 00be 9b6a fe3c
000002e0: f8d9 433e e7d1 2d3e 0a04 a13d 981a 0a3e
000002f0: c30d bf3e 7df0 703d 2bb3 243e cab2 cebe
00000300: 80f0 863e 6b9c ae3e cd01 edbe e6d5 c6bc
00000310: 9152 ea3e 8646 013f 0087 233d 8931 f1bd
00000320: fb58 7abd b13a d53e e1f5 d6be 3122 0abf
00000330: 5ffd 833e a765 9abd 38df 14be 95ca d63e
00000340: b59f a5bd a3a9 b3be 24cd 8ebe 005e 4a3e
00000350: cfb3 da3e d293 a5be 3fd9 033f e835 27bf
00000360: a9fb 943e 2845 69bd 7ccb 12bf 3561 3ebd
00000370: 9e86 85be 0f62 5abe 0d2d 363e 6e23 893b
00000380: 2f4d 8dbe b986 ffbd 22eb eb3d 5d33 143f
00000390: d0f1 59bd a521 19bd 83e6 e53d a959 a53e
000003a0: d953 c53e 9f76 10bc 0240 77be cce3 543e
000003b0: 12f8 c0bd 07f4 fabe c03a 05bf 6c71 01bf
000003c0: 9951 76bd f1b1 cdbe 9d32 293f 567f 583d
000003d0: eca8 03bf 65ee 583d 7c3c 243d d03a dcbd
000003e0: 3821 5bbe 3ca9 4f3e 9ee2 3b3d 2862 063d
000003f0: 6cee bebf dc26 b4bb 83ab b13e ad8f 11be

conv2.lin_edge.weight f4 [64, 2]
-0.06417867 0.092737675 -0.070494875 -0.046038225 0.12886666 -0.17797767 0.124871 -0.17316863
-0.101869315 0.14472282 0.15685166 -0.21100734 0.15491143 -0.20874484 -0.008012582 0.013835342
-0.30912685 0.0061252657 0.042508647 0.017426586 -0.13299805 0.18291838 -0.36672512 0.0510785
-0.09458778 0.13533194 -0.28010473 0.3499924 0.15452786 -0.2082963 0.04774167 0.05586747
-0.039992824 0.06503563 0.24240755 -0.035629507 -0.07092725 -0.04685406 0.042611007 -0.06650749
-0.31915125 0.079452164 -0.045624122 -0.020706778 -0.08028878 -0.059914023 0.42300075 -0.30501467
-0.13341685 0.1834189 0.05960762 -0.08602581 0.066875316 -0.09664814 0.0960098 -0.13718566
0.3841642 -0.32395282 -0.14070907 0.19207443 0.039004758 -0.06436292 -0.40678334 0.31611907
0.1681425 -0.22411036 -0.09082662 0.1303759 0.3682199 -0.1750687 0.051267583 -0.07242722
-0.08727439 0.1256167 0.25897866 -0.32680354 0.26915583 -0.33805254 -0.11580747 0.1621348
-0.13999605 0.19123101 -0.16175118 0.21670441 -0.43673745 0.2285308 -0.08534126 0.122990325
-0.20545505 0.26685688 -0.019019505 0.009123378 -0.27313283 0.342359 0.4390751 -0.31351715
0.02241143 -0.028752888 -0.23055796 0.29518503 0.13397701 -0.18408678 0.10927984 -0.15405801
-0.1439891 0.19594343 -0.28901002 0.3511615 0.098624766 -0.14056812 -0.41636103 -0.09299529
0.19632159 -0.25646406 0.51198155 -0.36629677 0.21695584 -0.27988043 -0.37351692 -0.07898298
0.10641297 -0.15046902 0.15462571 -0.20841196 -0.08055318 -0.061612725 -0.15559524 0.21005617
00000000: 1b70 83bd 40ed bd3d 9e5f 90bd 9492 3cbd
00000010: 9ff5 033e c73f 36be 5ebc ff3d 1e53 31be
00000020: dca0 d0bd 3832 143e b99d 203e 4f12 58be
00000030: 1aa1 1e3e 35c1 55be 3447 03bc a1ad 623c
00000040: e045 9ebe 74b6 c83b 8c1d 2e3d 33c2 8e3c
00000050: a430 08be f54e 3b3e 65c3 bbbe b037 513d
00000060: 3db7 c1bd 7594 0a3e e369 8fbe 3432 b33e
00000070: 8d3c 1e3e a04b 55be c58c 433d 4ad5 643d
00000080: 84cf 23bd 6631 853d af39 783e 3ff0 11bd
00000090: 4e42 91bd 0bea 3fbd e188 2e3d 1435 88bd
000000a0: cb67 a3be d1b7 a23d 5ce0 3abd 43a1 a9bc
000000b0: 726e a4bd 6868 75bd 8e93 d83e e22a 9cbe
000000c0: 6d9e 08be 2ad2 3b3e 1f27 743d 4d2e b0bd
000000d0: edf5 883d 76ef c5bd c9a0 c43d 667a 0cbe
000000e0: 2cb1 c43e 25dd a5be 0a16 10be 29af 443e
000000f0: 74c3 1f3d b5d0 83bd e845 d0be 5cda a13e
00000100: 8c2d 2c3e 307d 65be 4f03 babd 4381 053e
00000110: 5287 bc3e 3645 33be f5fd 513d b954 94bd
00000120: eabc b2bd aaa1 003e da98 843e cb52 a7be
00000130: cbce 893e 3915 adbe 782c edbd aa06 263e
00000140: 205b 0fbe 10d2 433e 1aa2 25be c3e7 5d3e
00000150: 0d9c dfbe fa03 6a3e 66c7 aebd 5ae2 fb3d
00000160: cf62 52be 77a1 883e cbce 9bbc 397a 153c
00000170: 11d8 8bbe ae49 af3e 74ce e03e 5285 a0be
00000180: 2d98 b73c 2d8b ebbc 6317 6cbe 7e22 973e
00000190: 4531 093e 3f81 3cbe 1cce df3d 62c1 1dbe
000001a0: e171 13be 65a5 483e 1ff9 93be 71cb b33e
000001b0: c8fb c93d 17f1 0fbe 462d d5be 5174 bebd
000001c0: 8708 493e 424f 83be 3911 033f 408b bbbe
000001d0: ac29 5e3e 7d4c 8fbe 9c3d bfbe d4c1 a1bd
000001e0: 0bef d93d 8d14 1abe 3456 1e3e f269 55be
000001f0: 11f9 a4bd a05d 7cbd 5c54 1fbe f718 573e

fc.weight f4 [2, 64]
-0.0066122403 0.10288534 -0.036708612 -0.055506002 0.03275147 0.03477372 -0.033132527 0.02331311
-0.026271744 -0.048690584 0.0072022527 -0.0023003933 -0.055940393 0.011081218 -0.009606455 -0.021435931
0.079138115 -0.12607518 -0.08689959 -0.0017487628 -0.21799801 -0.024859313 0.004025599 0.071126625
0.1314973 -0.11228656 -0.040195264 -0.03020523 -0.009171331 0.06414443 0.009725401 0.035324268
0.26511857 -0.043166805 -0.03111337 0.1007671 -0.04238887 -0.28287122 -0.05885247 0.029986706
-0.026699755 -0.02088625 0.10643463 0.06465883 -0.0056571597 0.08622359 -0.038688943 0.039573133
-0.00063674996 0.0092030885 -0.044993456 -0.018283874 -0.030819362 0.09910714 0.054618776 -0.041265078
0.03912188 -0.10611459 0.017371595 -0.09743304 0.007917783 -0.046603266 -0.04769114 -0.028634388
-0.014547362 0.10556841 -0.036710504 -0.09648524 0.042310998 0.02987331 -0.026163466 0.018944355
-0.01644534 -0.14095101 0.028031949 0.011979873 -0.054770023 0.012941151 -0.002415791 -0.0179428
0.08216444 0.15852103 -0.09436085 0.0026045223 0.20398626 -0.052014813 0.013177662 0.0061783874
-0.09726665 -0.026879556 -0.035105273 -0.025895016 -0.0076327715 0.10640921 0.008135274 -0.0057851076
-0.27203283 0.019825192 -0.03846892 0.039130956 -0.041219406 0.15637042 -0.011778536 0.060339898
-0.024974013 -0.023152754 0.09962547 0.067443885 0.0078020683 0.09394117 -0.053663455 0.036772896
-0.0053630285 0.01903908 -0.048600513 -0.017371465 -0.034319878 -0.056522727 -0.039227825 -0.03713625
0.034592517 -0.060560096 0.08984606 -0.10600773 -0.013166483 -0.04361707 -0.046632778 -0.021033555
00000000: 7eab d8bb 8db5 d23d c55b 16bd 435a 63bd
00000010: 6826 063d e36e 0e3d f9b5 07bd 23fb be3c
00000020: d737 d7bc c76f 47bd e000 ec3b 32c2 16bb
00000030: c121 65bd ff8d 353c 6564 1dbc 689a afbc
00000040: 2a13 a23d da19 01be 6af8 b1bd be36 e5ba
00000050: df3a 5fbe c2a5 cbbc 2ce9 833b d6aa 913d
00000060: 3aa7 063e 7ff6 e5bd caa3 24bd f570 f7bc
00000070: 5a43 16bc 285e 833d 4a57 1f3c 2eb0 103d
00000080: 9fbd 873e adcf 30bd 77e1 febc fb5e ce3d
00000090: f49f 2dbd 7fd4 90be 4a0f 71bd aea6 f53c
000000a0: 72b9 dabc a419 abbc 66fa d93d d96b 843d
000000b0: b25f b9bb fe95 b03d 4c78 1ebd 7017 223d
000000c0: 91eb 26ba 8dc8 163c 0f4b 38bd 10c8 95bc
000000d0: e378 fcbc aff8 ca3d f0b7 5f3d 9205 29bd
000000e0: 443e 203d 9b52 d9bd e04e 8e3c f98a c7bd
000000f0: 97b9 013c 11e3 3ebd c957 43bd aa92 eabc
00000100: 0f58 6ebc 4034 d83d c15d 16bd 0e9a c5bd
00000110: 4c4e 2d3d dfb8 f43c c454 d6bc 3131 9b3c
00000120: 61b8 86bc 7655 10be 42a3 e53c 3b47 443c
00000130: 8856 60bd 1f07 543c 3f52 1ebb c7fc 92bc
00000140: d445 a83d 5653 223e 4340 c1bd a2b0 2a3b
00000150: c6e1 503e 7c0d 55bd 1fe7 573c 1274 ca3b
00000160: bd33 c7bd 8432 dcbc 8cca 0fbd c921 d4bc
00000170: 541c fabb 12ed d93d d049 053c 0091 bdbb
00000180: e347 8bbe 7168 a23c 9691 1dbd c847 203d
00000190: aed5 28bd 911f 203e c3fa 40bc f826 773d
000001a0: 4d96 ccbc d8aa bdbc 7008 cc3d 0520 8a3d
000001b0: 7ea8 ff3b 3a64 c03d 36ce 5bbd 2d9f 163d
000001c0: 58bc afbb d8f7 9b3c 5511 47bd 9a4e 8ebc
000001d0: 0093 0cbd 6084 67bd 5bad 20bd 2e1c 18bd
000001e0: e2b0 0d3d dd0d 78bd 3601 b83d 951a d9bd
000001f0: 3bb8 57bc d0a7 32bd 0302 3fbd 904e acbc

fc.bias f4 [2]
0.40015483 -0.21190111
00000000: 18e1 cc3e 9bfc 58be
