saved_models/gat8_slic.pt (torch, 25936 bytes, 14 tensors)

conv1.att_src f4 [1, 1, 64]
00000000: 0dcb 833f 3505 dfbf 99af c0bf adc0 bebe
00000010: 898e 75be 3636 9c3f 5e5a 27bf a920 a73f
00000020: e91f efbe 485f 03c0 873d ea3f ab8e d3bf
00000030: 4cfc e13e 8ae9 9d3f 5f27 c0bf eef6 423f
00000040: 7677 b3be b5f8 7ebf 5fa2 5ebf 3536 a2bf
00000050: e56f 99bf 1ace 1dbf c62f 8bbf 5a1d 07c0
00000060: 5381 e53f 13b3 41bf 54a4 633f 2457 f73e
00000070: 4612 1bc0 ab5c 8ebe 5881 90bf 7d72 793e
00000080: 9842 f2bf b4b6 c9bf dab5 3e3f fd96 283e
00000090: c4dd 0dbe 93a4 69bf e877 1cc0 0f7d be3e
000000a0: b08b 44bf 963a ec3f 2d91 fa3e 79a9 773f
000000b0: acc1 98bf debb b63f 5f65 20c0 f39d d0bf
000000c0: d729 bebf 1971 983f 1111 a83f 3bf8 4cbf
000000d0: f048 483f 663d 653e cdc6 49bf 3471 d7bf
000000e0: a613 00c0 761e 6ebd ad16 9bbe 593a a0be
000000f0: 8742 a2be ed59 31c0 b557 2b3e 8bdb c9be
1.0296341 -1.7423464 -1.5053588 -0.37256375 -0.23980154 1.2204044 -0.65372264 1.3056842
-0.46704033 -2.0526905 1.8300027 -1.6527914 0.441378 1.2336895 -1.5012015 0.76158035
-0.3505208 -0.99598247 -0.8696651 -1.2672793 -1.1987273 -0.6164261 -1.0873954 -2.1111665
1.7930092 -0.7566387 0.8892262 0.4830867 -2.4229903 -0.27805075 -1.1289473 0.2436008
-1.8926573 -1.5758882 0.74496233 0.16463847 -0.13854128 -0.91266745 -2.4448185 0.37204787
-0.76775646 1.8455379 0.48938885 0.9674297 -1.1934104 1.4276083 -2.5061872 -1.6298202
-1.4856519 1.1909515 1.3130208 -0.8006627 0.78236294 0.22386703 -0.7881897 -1.6831422
-2.0011992 -0.05813452 -0.30290738 -0.31294516 -0.3169138 -2.7711136 0.16732676 -0.3942531

conv1.att_dst f4 [1, 1, 64]
00000000: edd4 d5be 8c9b 113f 3863 fd3c 3d09 963d
00000010: 8e34 a83e f884 fdbe fa0b 5f3e 67e5 19bf
00000020: ca3a 833e 9b99 113f 1277 1abf 94f5 a53e
00000030: 6e04 a1bd 6130 d2be ed6c 4d3e b16f eebe
00000040: 7860 85be 8f48 3b3e 5dce 5c3f 0aa6 af3e
00000050: 787d b33e a9fe 6a3e 4b54 d53e d879 483f
00000060: fb86 30bf 57a5 c23e 484b fabe 47d7 d6be
00000070: 7a54 d73e 4983 5ebc 9c75 093f cfc4 a0bd
00000080: dfa0 683e 3450 033f dead dbbe a3ee 1dbd
00000090: 5876 b8be 2002 9e3e 26a7 423f a9e6 28be
000000a0: f433 cfbc aee8 1cbf 0e5c 03be 8fc9 aabe
000000b0: 4f70 053e 1740 d3be 518d b63e 012d 03bd
000000c0: bd00 013f 69bf 8cbe 372d b9be 5d89 fb3e
000000d0: a003 eebe 6327 f2bd 42c0 f13e 6d10 b63e
000000e0: 425e d13e 9a78 d53e 173a fc3e ec69 d7bd
000000f0: 8556 9b3e 481f 843e 6a43 22be 3f40 a6bd
-0.41764012 0.5687797 0.0309311 0.07325981 0.32852596 -0.4951551 0.21781912 -0.60115665
0.2563079 0.5687501 -0.60337937 0.32413924 -0.07862173 -0.41052535 0.20061083 -0.4656959
-0.26050162 0.18289398 0.86252385 0.34306365 0.35056663 0.22948708 0.41665873 0.7831092
-0.68955964 0.3801677 -0.4888556 -0.4196112 0.42056638 -0.0135811055 0.5369508 -0.07850038
0.22717617 0.51294255 -0.42906088 -0.03855766 -0.3602779 0.30860996 0.760363 -0.1649424
-0.025293328 -0.6129254 -0.12828085 -0.33356902 0.13031124 -0.41259834 0.3565469 -0.03202534
0.5039175 -0.27489784 -0.3616731 0.49128237 -0.4648714 -0.11823919 0.47216994 0.35559407
0.40892226 0.41693574 0.4926307 -0.1051825 0.30339447 0.25805116 -0.15846029 -0.08117723

conv1.att_edge f4 [1, 1, 64]
00000000: dbaa e43d 0bcd 253c c8f0 c5bc 365b 9cbd
00000010: 6ca6 b53a c544 a63b baae 253c d23d 203d
00000020: ec68 e4bb 27da 043e f225 7f39 0c90 d2ba
00000030: 351a bcbb 08df adb9 1751 d9bc e207 cf38
00000040: c37e 2f3a 763c 2b39 26af 77b9 f277 84ba
00000050: a886 913a 1333 4dbc 3411 52ba ecac c43d
00000060: 5665 fdbd 683c e43d edfe caba 8eb2 133b
00000070: 2527 a03a 0bb3 f1bd 3794 aa3b ee70 00bd
00000080: 86e8 a0ba 86d7 42b8 9bf5 58bc 2239 c938
00000090: ed50 febc 3a1c 17be b141 913c 6271 963d
000000a0: 32bd 2e3c 37ba c03c c499 d5bd 5a50 46be
000000b0: ee89 b53a 30d9 c43c d334 b0bc e30f bd3d
000000c0: a2fa b3bc b96f 073b bee0 d7ba 480b f6bc
000000d0: acf8 323c 443a eabb 260a f23b ea56 cabb
000000e0: 811e 613d c6d0 0abe 559e 4ebe 8a26 e8ba
000000f0: 3bac dc3d 343e 00be d3c3 433a 5cee f43d
0.111654006 0.010119687 -0.024162665 -0.076345846 0.0013858802 0.005074116 0.010112459 0.039121456
-0.0069705155 0.12973844 0.00024332831 -0.0016064658 -0.005740429 -0.00033163303 -0.026527924 9.8719975e-05
0.0006694609 0.00016330354 -0.00023621003 -0.0010106547 0.0011102753 -0.012524384 -0.0008013428 0.09603295
-0.12372844 0.11144334 -0.0015487351 0.0022536847 0.0012218697 -0.11801728 0.005205657 -0.0313577
-0.0012276329 -4.6453926e-05 -0.013242151 9.595069e-05 -0.031044448 -0.14756861 0.01773152 0.07345845
0.010665225 0.023526294 -0.10429719 -0.19366589 0.001385031 0.024029344 -0.021509564 0.09231546
-0.021970097 0.0020665957 -0.0016470177 -0.030034676 0.010923546 -0.007148059 0.0073864637 -0.0061749117
0.05496073 -0.13556203 -0.20177586 -0.0017711681 0.10775038 -0.12523729 0.000746784 0.11959526

conv1.bias f4 [64]
00000000: d7f8 0bbf 49e3 46bf 7371 cabe a604 863c
00000010: 635f b7be 4d15 20bf 26e2 0fbf b9c3 7ebf
00000020: fb90 20bf 7d75 88bf bd3b 74bf 5797 92be
00000030: 636e cdbe 4913 06bf 2673 17bf 17b5 47bf
00000040: 6976 1cbe d92c 7dbd ba4c dd3d 810c 393e
00000050: 3cc2 03bf 6615 37be fe3d 99be df34 95bf
00000060: 60b7 80bf 4614 dcbc 30dd 56bf 6038 a5be
00000070: 50d4 80bf c81a 93be b883 29be d86a 23bd
00000080: 657d 57bf 6bca eebe b59d 39bf 909b 00be
00000090: a5b0 74bd b5c2 98be 4a5b 77bf feeb f9be
000000a0: 19c4 c83d b06c 5fbf 29a2 dfbe 02d4 dfbe
000000b0: db15 3a3e 1a9e 77bf 3693 8fbf 3e24 49bf
000000c0: 80f3 fdbe ff92 26bf d899 24bf 55fc 1bbf
000000d0: cae4 08bf ab81 90be 46e6 17bf d294 4fbf
000000e0: 20ae 80bf 1ca0 16be 958b e5bd a247 8ebe
000000f0: 9b16 86be b122 95bf 3612 01bf d108 83be
-0.54676574 -0.7769056 -0.3953968 0.016359638 -0.35814962 -0.625325 -0.5620445 -0.995174
-0.6272122 -1.0660855 -0.95403653 -0.28631088 -0.4012328 -0.52373177 -0.5916008 -0.78010696
-0.15279545 -0.06181035 0.1080565 0.18071176 -0.51468253 -0.17879257 -0.2993011 -1.165676
-1.0055962 -0.026865136 -0.83931255 -0.32269573 -1.0064793 -0.2873137 -0.16554153 -0.039896816
-0.8417571 -0.46638808 -0.72506267 -0.12559342 -0.059738774 -0.2983605 -0.9662367 -0.4881286
0.09803028 -0.8727522 -0.43678406 -0.43716437 0.181724 -0.9672562 -1.12168 -0.78570926
-0.49599838 -0.6506805 -0.64297247 -0.60931903 -0.53474104 -0.2822393 -0.59335744 -0.81086457
-1.0053139 -0.14709514 -0.11208264 -0.27789026 -0.26189122 -1.1651212 -0.5041841 -0.25592664

conv1.lin.weight f4 [64, 4]
00000000: 81b0 c7bb 5d9c b63d 025b 7e3e bea4 5d3e
00000010: 3163 d438 1985 9e3e 7752 bebe 4560 c2be
00000020: 8f6e f43e 93fa 823e 19ff 96be a793 18be
00000030: 4c27 193f 1b5b a8be 2b76 e3bc 4c5d a83e
00000040: ed9a 52be f34d a13e b763 69be 8223 d3bd
00000050: b257 0fbe 05d3 e13d 1c11 933e d4ef 7b3e
00000060: 16ba b53d 2ce6 923e 00c8 34be ae09 ad3e
00000070: 235c 3cbd b23c 23be 49a4 633e 0091 e13c
00000080: ae40 f9bd 71ba 613e 7a06 ebbe f923 2b3e
00000090: f8b0 913e f293 913e e489 e9be af20 50be
000000a0: db2e aa3b 6eba 91be 1e33 fc3d f938 863d
000000b0: 3040 e33e 87f1 8dbd e8e9 1bbe 6c63 bc3c
000000c0: 3b75 8cbd 4edf 953d ca41 d63d 7d40 af3e
000000d0: 7c32 5b3d 1487 96be 9722 263e 76d5 30bd
000000e0: 6099 163e a0fe d93e 4f52 cebc cd95 12bf
000000f0: 09de 0a3e d9b3 6bbe dfb4 823e a5e9 623c
00000100: c8e8 d4be bcb3 0e3f f265 a43d a098 69bd
00000110: ec43 1b3f 7257 57be 9f6a 7abe cdd5 43be
00000120: 2a7f b0be 149b c03e fcbd 0abd 706f 9b3d
00000130: 39bd 0e3f 520e 46bd 87f8 da3c d1ce 0ebf
00000140: d858 28be e66b ed3e 922e 87be f563 6c3e
00000150: a751 b3bd 4d3f 063e 6afb 46bf dae5 82be
00000160: 58c0 143f 6763 2e3e 7713 7cbe 37e0 15be
00000170: c0d7 953e 7184 5e3e 4133 04bf 9c5d 1ebe
00000180: 3e7e 39be e35d d4bd 202b 253e 85a1 7a3d
00000190: 5323 0f3f cebc 98be 3d28 63be b02f 203e
000001a0: 6955 243e 4d44 97be f94a 823e dbf0 db3c
000001b0: 8704 fdbd 8480 833d f7f0 09bd 1ee9 b23e
000001c0: 9abd f13d a7c0 e13e 0d33 ccbe 2be8 57be
000001d0: 3f39 b63e fa6d 9bbe e352 bfbd 22b5 12be
000001e0: e027 92be cd60 a53e c6ac 13bf 1b20 30be
000001f0: a550 c03e 551e 1bbe 32f8 973e dd5e 273f
00000200: 27e3 683d bb09 bc3e a4b3 adbe efbb 13be
00000210: ec87 4fbe c9f7 e63e d08b 5cbe 8da6 4d3e
00000220: 206f 1e3e 868f 65be b8fd 783e 6005 7e3d
00000230: 5f00 193f ee67 aabe e2e6 44be e64d 6f3e
00000240: 205d c73e a897 313e 8f33 7dbc d789 8a3e
00000250: d5bf f63e 6049 043d e761 6fbe 038f c3bd
00000260: 5360 ae3c c511 fe3e b1bc ddbe 77f5 59be
00000270: 6736 a4bd 4c2e f83c aaac 553e 34d4 08bf
00000280: fc4e b4be 105b 093f f333 b93c 0194 1f3c
00000290: 4e49 ab3c 6c48 90be 020c 073e 90bd 3d3d
000002a0: 0feb 0a3d ffea 573e eb89 323e d824 36bd
000002b0: a6eb 2f3d 3a6b 19be 1a29 7f3e 99db b5bd
000002c0: f9f2 313f 5c35 63be 3de1 0a3d e757 f5be
000002d0: 2c1f d2bd 7a87 cdbd f4e4 483e ebe3 773c
000002e0: a209 643e bab9 ba3e 7443 01bf b683 64be
000002f0: 0a87 e83d c3c1 853e 71b8 aabe 26cc 1bbe
00000300: b50d a3be a13b d03e 7e49 3fbe 097a af3b
00000310: c939 19be 727a b63c 0555 963e 535d b33e
00000320: 2f73 04be 8d8d a13d d800 8e3e 2a6f 883e
00000330: 6ea0 b93c 690d cc3e 47f3 53be 5d5d ba3e
00000340: d1bc 07be cf9f 12be fdf6 973e 2944 103e
00000350: 6f25 773e 2f7e 7abe 049b 633e 8a6d d13e
00000360: 15a4 203d 6303 8a3e f8a4 c9be fb5e 523e
00000370: 73e0 29bc 5ad2 863e 31aa c3be 04f2 a7be
00000380: 78f6 943e a189 673e 8dbd efbe a287 78be
00000390: 48b8 aa3e 29fb 79be 7092 1c3e 83b1 cc3e
000003a0: 3367 7bbe c34f 9a3e 8c36 3abf 2b03 64be
000003b0: 0e53 6f3e c43c 6cbe 7ba1 193e 6bea ca3e
000003c0: fadf 283e 6bbc 8fbd 2989 d0bd 3006 f839
000003d0: be68 8c3e bd3e b53e 6aff f7be d0a9 77be
000003e0: 94e1 e73d add5 30be c81a 533d d22f 7a3c
000003f0: 82a1 cb3e fd88 55be d0a6 e9bd 6ff7 74be
-0.006094039 0.08916543 0.24839404 0.21644875 0.000101274236 0.3096092 -0.3717229 -0.37964073
0.477406 0.25581798 -0.294915 -0.14900075 0.5982559 -0.32882008 -0.027766308 0.3288368
-0.20566912 0.31504783 -0.22791944 -0.10309507 -0.13998297 0.11026577 0.2872399 0.24603206
0.08873384 0.28691232 -0.17654419 0.33796448 -0.045986306 -0.15941122 0.22230639 0.027534962
-0.1217054 0.22043778 -0.4590338 0.16712941 0.2845533 0.28433186 -0.45613015 -0.20324968
0.005193574 -0.28462547 0.12314437 0.065538354 0.4438491 -0.06930833 -0.15225947 0.022996627
-0.068582974 0.073179826 0.10461767 0.34228888 0.053514943 -0.2939993 0.16224132 -0.043172322
0.14706945 0.42577076 -0.025185732 -0.5725983 0.13561262 -0.23017825 0.2552862 0.0138496505
-0.41583848 0.55743 0.08027257 -0.05703032 0.60650516 -0.21029451 -0.24454735 -0.19124527
-0.34472018 0.37618315 -0.03387259 0.075896144 0.5575748 -0.0483535 0.026729835 -0.55784327
-0.16440141 0.46371382 -0.26402718 0.23085006 -0.08755808 0.13110085 -0.7772738 -0.25565988
0.58105993 0.17030106 -0.246168 -0.14636312 0.29266167 0.2173021 -0.5164071 -0.15465397
-0.18114564 -0.1036947 0.16129732 0.061189193 0.55913275 -0.29831547 -0.22183318 0.15643191
0.16048206 -0.29544297 0.25447825 0.026848247 -0.12354379 0.06420997 -0.033677068 0.3494348
0.11803742 0.44092295 -0.398827 -0.21084659 0.3559055 -0.30357343 -0.09341981 -0.14326909
-0.28546047 0.32300416 -0.57685506 -0.17199747 0.37561527 -0.1514829 0.29681545 0.65379125
0.056857254 0.36726174 -0.33926117 -0.1442716 -0.20266694 0.4511092 -0.21537709 0.20083065
0.15472078 -0.22418031 0.24315536 0.062016845 0.5976619 -0.33282417 -0.192287 0.2336956
0.38938236 0.17343009 -0.015454187 0.27058288 0.4819323 0.03229654 -0.2337719 -0.09548762
0.021286165 0.49622932 -0.43308023 -0.21285044 -0.08018189 0.030295514 0.20866647 -0.53448796
-0.3521651 0.53654575 0.02260778 0.009739877 0.020908978 -0.28180254 0.13188174 0.04632336
0.033915576 0.21085738 0.17435424 -0.04446873 0.04294934 -0.1498231 0.24918023 -0.088797756
0.6951137 -0.22188324 0.03390621 -0.47918627 -0.10259852 -0.10035606 0.19618589 0.0151300235
0.222693 0.36469823 -0.5049355 -0.22315869 0.11353882 0.2612439 -0.33343843 -0.15214595
-0.31846395 0.40670493 -0.18680379 0.005355124 -0.1496345 0.022275183 0.2936174 0.35032138
-0.12934564 0.07888327 0.2773502 0.2664731 0.022659507 0.3985398 -0.20698272 0.36399356
-0.13255621 -0.14318775 0.29680625 0.14088501 0.24135374 -0.24462198 0.22227103 0.40903884
0.03921898 0.2695571 -0.39383674 0.20544045 -0.010368454 0.2633236 -0.38215783 -0.3280183
0.2909429 0.22611095 -0.46824303 -0.2427049 0.3334372 -0.24412216 0.15290236 0.3997918
-0.24551086 0.30138978 -0.7273948 -0.22266833 0.23371527 -0.23070055 0.15003006 0.39631972
0.1649169 -0.0701836 -0.10182411 0.00047306856 0.27423662 0.35399428 -0.48437053 -0.24185872
0.113223225 -0.17269011 0.051539212 0.01527019 0.39771658 -0.20853038 -0.1140877 -0.23922513

conv1.lin_edge.weight f4 [64, 2]
00000000: 40d5 043d a1bf 623e f16f bf3b 6a1a f0bc
00000010: 45b3 41be 1a8c 2c3e 8ccf 30be 00b9 4f3d
00000020: e10a 39bd 5a2b 443d 27a9 af3c 205c 03bd
00000030: de81 2a3b 42b5 b3bc 81c3 6c3e cf8f 39be
00000040: acf5 c6bd cec1 c83d 7224 b63e ac38 93be
00000050: 72d8 5fbd 0a5e 683d 10d4 2e3d 6297 3abd
00000060: 35fa b5bd 8822 b83d f94e 5d3d d6fe 65bd
00000070: fb1b 49be d6cf 2e3e 009f 633b 63c6 d0bb
00000080: 6c63 0bbd 1b8d 113d bd30 a5bb ed1c ac3b
00000090: f084 d83a d844 18bb 3ac2 ffbc 0e37 043d
000000a0: 9d4c adbc 63e3 b93c a21a 10be 2131 0f3e
000000b0: 5d32 7ebc 46ef 723c 759d ec3d 9090 183e
000000c0: bd8d aabe ac9c 963e 0a3c ab3e ca38 83be
000000d0: 1fac 313d ed43 3dbd 738a 28bb 3637 05bb
000000e0: cf93 823d c7d6 85bd 3e2e afbe adca 883e
000000f0: 90bb 593c 2981 cdbc 1f88 57be d101 333e
00000100: cb9e 82bd d3e0 853d f9e8 eeb9 be00 813a
00000110: 954d 823a 1ec1 f03c 3e4f 1e3b beac 95bb
00000120: 6711 dcbd ccb7 683d 643f c2be 2f8f a53e
00000130: 61d3 2a3e 9ed4 22be 6871 953e 9056 56be
00000140: 896d 093c f6e2 fbbc f6a8 3f3e 4fe3 2bbe
00000150: ef44 a7be e3c2 7b3e ddf9 8bbe fa1f f0bd
00000160: 3014 39bd 1034 443d 68a8 28bc 6737 31bd
00000170: 1ef0 38be 387a 293e e2ab a03e d69c 6bbe
00000180: f281 3abe f512 2a3e 55d7 acbc 7344 cc3c
00000190: c1de 2c3d 43c4 38bd 6fbe 9c3c ee34 403d
000001a0: dabf 033e 0db3 03be 989c c9bd ce58 cb3d
000001b0: e23f cd3d b5e5 cebd ac8f bbbd ad98 bd3d
000001c0: 7f58 873e a6f1 45be 5b36 23be 8d59 30be
000001d0: 8449 2ebe f8c1 81be 8497 263d 61ed 32bd
000001e0: 6f2a a93e 1769 80be 3a40 b3be 1dca 8e3e
000001f0: 351a 20bc e600 5b3c e5f0 af3e 22da 89be
0.032429934 0.22143413 0.005842202 -0.02930947 -0.18916042 0.1685032 -0.17266673 0.05071354
-0.04517639 0.047892906 0.021442963 -0.03207028 0.0026017348 -0.021937016 0.23121454 -0.18121265
-0.09714827 0.0980259 0.3557468 -0.28754175 -0.054649778 0.056730308 0.042682707 -0.045554526
-0.08885614 0.08990961 0.054030392 -0.056151234 -0.1963958 0.1707147 0.0034732223 -0.006371306
-0.034030363 0.03553496 -0.0050412104 0.0052524717 0.0016519111 -0.0023234393 -0.031220544 0.032279067
-0.021154696 0.022691434 -0.1407266 0.13983585 -0.015514937 0.014827555 0.1155347 0.14898896
-0.33311263 0.29416406 0.33444244 -0.25629264 0.043377038 -0.046207357 -0.0025717288 -0.0020327098
0.063758485 -0.06535106 -0.34214967 0.2671713 0.013289347 -0.025086002 -0.2104802 0.17481162
-0.063779436 0.065370224 -0.00045568476 0.000984214 0.0009941334 0.02938896 0.0024156119 -0.0045677116
-0.10745507 0.056815907 -0.37938988 0.32335803 0.16682197 -0.1590142 0.29188085 -0.20931458
0.008387932 -0.030747872 0.18716797 -0.1678593 -0.3266978 0.24586062 -0.27339068 -0.11724849
-0.045185268 0.047901213 -0.010294057 -0.043265726 -0.18060347 0.16550529 0.31381136 -0.23009047
-0.18213633 0.16608794 -0.021098772 0.024934983 0.042204622 -0.045109045 0.019133775 0.046925478
0.12866154 -0.12861271 -0.09844321 0.099290475 0.1002195 -0.10102407 -0.091582626 0.09257636
0.26434705 -0.19330463 -0.15938704 -0.17221661 -0.17020231 -0.253433 0.04067184 -0.043683413
0.33040187 -0.25080177 -0.35009938 0.27888575 -0.009771873 0.013366913 0.34363475 -0.26924235

conv2.att_src f4 [1, 1, 64]
00000000: 0b92 debe 1f5e 403f eedb 683f 89f5 bbbe
00000010: 036f 983b f221 3d3f ae86 3b3f 855f 1dbf
00000020: 2de5 643b 13bc ea3e 8758 99bf a7bc cebd
00000030: 5c9c 4fbe b2a3 d0bf 6778 133f 4ac6 4bbf
00000040: 022a 513e 191f c63c d50f b5bf 6c6b 353f
00000050: c6d9 9f3d 61a8 353f 6b95 87be 14b8 a6bd
00000060: b783 bd3f fedb 353f 758d 0a3f 0f21 e0bf
00000070: ed95 adbf 70ca 67be 860e 863f 80dc bf3e
00000080: 0e8e 5b3f 2338 5b3e f782 e5be 53f9 14bb
00000090: 044f 033f 07db 9d3e caa0 1dbf 0f65 04bf
000000a0: 8e07 8b3f 8e9d 893e 6e2e 39c0 eb73 0a3f
000000b0: cc19 26be 91b7 733f 7777 5b3f 8611 793f
000000c0: a6cb 5cbf 20a1 a4bf c081 943f 30e4 a13e
000000d0: 41a2 0dbf a86f 3a3f 69be 3bbe bc03 c5bf
000000e0: ebc9 033f eca7 e63e 5440 363f d187 323e
000000f0: d201 5c3e 3d16 59be 3e92 f93e 4ca5 b6bf
-0.43470797 0.7514362 0.90960586 -0.36710766 0.0046519055 0.7387992 0.7325238 -0.61473876
0.0034926638 0.45846614 -1.1980141 -0.10094576 -0.2027449 -1.6299956 0.57605594 -0.7959944
0.20426181 0.02418475 -1.4145457 0.7086704 0.07805209 0.7096005 -0.26481184 -0.08140579
1.4805821 0.71038806 0.54122096 -1.7510089 -1.3561379 -0.22635818 1.0473182 0.37472916
0.85763633 0.21408133 -0.4482648 -0.0022731617 0.51292443 0.30831167 -0.6157347 -0.51716703
1.086168 0.26878017 -2.8934588 0.54083127 -0.16220778 0.95201975 0.85729164 0.97292364
-0.8624824 -1.2861671 1.1602097 0.31619406 -0.55325705 0.72826624 -0.18334354 -1.5391765
0.5147998 0.4504999 0.71191907 0.17434622 0.2148507 -0.2119989 0.48744386 -1.4269195

conv2.att_dst f4 [1, 1, 64]
00000000: cf7d 1340 3be1 f4be 682e 2bbf 0bb1 d03f
00000010: 2afe e03e a70e cdbf 5cb3 ecbf 78e7 e6bd
00000020: 667c 083f 4e54 75bf a4fd 7d3f a59e 993f
00000030: b67d bc3f e2af 0640 3dd9 b5bf 415d 0d40
00000040: c2e7 b8bf 5ad1 713f aa95 6d3f 410e bebf
00000050: 78fe bf3e 35e4 aebe df5c 5cbf d544 7a3f
00000060: e918 09c0 4256 2abf 5fde f9bf 8ebd 1040
00000070: 773f b03f 61e6 933f caf6 2e3d 231f ff3d
00000080: 35d7 6bbe 7858 6d3f 68fc 96be 8117 8fbf
00000090: a6e3 35bf c277 073f 5f38 693f 075b b03f
000000a0: 73b1 b9bf dcd4 95bf 0f42 cc3f a8c6 a6bf
000000b0: d437 09bf 993c 09bf 9485 8bbf 0aad aabf
000000c0: 0227 8c3f b1a1 613f 2cbd 1abf 3d2a 4d3e
000000d0: e420 bc3f 9acf d7be d83e a23f 6f25 c03f
000000e0: 396a 3d3c 3599 bebf a4cb 22bf 995a b0be
000000f0: 00d6 90bf d024 d33e 9d2e 1bbf 302e a23f
2.3045537 -0.47828087 -0.66867685 1.6304029 0.43943912 -1.6020097 -1.8492236 -0.11274618
0.53314817 -0.95831764 0.9921515 1.200154 1.4725864 2.104485 -1.4206921 2.2088168
-1.4445727 0.9446007 0.92806494 -1.48481 0.37498832 -0.34158483 -0.8607921 0.9776128
-2.1421454 -0.6653787 -1.9520987 2.2615695 1.3769368 1.1554681 0.042715825 0.12457111
-0.23031314 0.9271312 -0.29489446 -1.1179048 -0.7105049 0.5291711 0.9110164 1.3777779
-1.4507278 -1.1705585 1.595766 -1.3029375 -0.5360081 -0.5360809 -1.090014 -1.3334057
1.0949404 0.88137347 -0.60444903 0.20035644 1.4697537 -0.42150575 1.2675428 1.5011424
0.01156097 -1.4890505 -0.6359198 -0.3444412 -1.1315308 0.41239023 -0.60618 1.2670345

conv2.att_edge f4 [1, 1, 64]
00000000: fcae 0abb 3d71 50bb 749d a73e 9a33 9b3a
00000010: 7b5c c9bb 026c cabb 5a62 ceb7 2e38 7a3d
00000020: eb81 ccbb 60b9 8c3b 3660 d13e 2800 ae3a
00000030: 039e cbbb 5af7 023b cb65 863b 5c55 c93a
00000040: 6a22 ee3e c801 9d3d f1e9 a9bb ac0b 0e3e
00000050: b355 643a 8ebf 153e dfb2 22ba 85f6 033b
00000060: 7e03 f7bb 682c 8b3a 85ee c93b 66c3 0abe
00000070: 2ccc 84bb 4093 51bb c1b1 843b ac18 f3be
00000080: c5b6 cd3b 7723 d2bb 062d 4d3d 621d e43b
00000090: c08c e53a bc20 ae3b 06c1 453b d71e af3d
000000a0: abb4 a8be 2366 a2be edac ce3b fa52 5ebe
000000b0: dae0 e1bb d67f 973a 14de 7bbb 7f6c 883e
000000c0: 3ae4 d3bb 82f6 323b fc62 85b9 13e6 bb3d
000000d0: e394 79be ae13 6bb8 9966 bd3c 41e1 b5be
000000e0: 8c84 213b e1c2 86bb e17e 703b bc89 e3be
000000f0: ca92 adbe f25d 983b 4b67 cebe 166e 24bb
-0.0021161428 -0.0031805777 0.32737315 0.001184094 -0.0061450577 -0.0061774263 -2.4602912e-05 0.061088733
-0.0062410734 0.0042945594 0.40893716 0.0013275193 -0.006213905 0.0019983859 0.00410149 0.0015360522
0.4651063 0.07666355 -0.0051853587 0.1387164 0.000871028 0.14623854 -0.00062064634 0.002013595
-0.007538258 0.0010618092 0.006162467 -0.13551101 -0.0040526595 -0.0031978637 0.00404951 -0.4747976
0.0062778913 -0.006412919 0.050091766 0.0069615105 0.001751326 0.005313961 0.0030174865 0.08550804
-0.3295034 -0.3171855 0.0063072355 -0.2171134 -0.0068932595 0.0011558484 -0.003843193 0.26645276
-0.0064664157 0.0027307575 -0.00025441486 0.091747425 -0.24373202 -5.6046694e-05 0.023120211 -0.35523418
0.0024645654 -0.004112587 0.003669672 -0.4444102 -0.33901054 0.004649871 -0.4031318 -0.002509003

conv2.bias f4 [64]
00000000: b500 16be 8919 273d 87b0 f73d c133 4fbd
00000010: 1f55 0dbb d420 9b3d 5757 423d 64bd 57b9
00000020: eddf 37bd 2316 863c 37c6 4dbe e0ea 7bbd
00000030: f82c a0bd 6fe0 febd b14e 623d e22c 00bd
00000040: 69d6 873d 2fc4 e7bd 90d2 43be 30ab fd3d
00000050: dbc2 ffbb e602 70bc 7036 403d 632d 94bd
00000060: cb16 18bd 3a1f 033d 01ae 1f3e 5aaf 29be
00000070: d006 01be 9b5e 0dbe b0e5 01be 4a39 23bc
00000080: 17c5 5bbd 4c3b e0bd 3c24 763d 9f80 563d
00000090: c283 723d 67ed abbd 0234 54bd caf5 cbbd
000000a0: 5b4c aa3d 3502 7b3d fcea 69be 2f8e 643d
000000b0: 02ab a13d c219 473e 25c8 9f3d 3955 9e3d
000000c0: 01b8 f13c b6df 74be 5e32 4b3e 09dd 22bc
000000d0: ea11 fdbd bd94 0f3c b30d c83a 9801 a1bd
000000e0: fb32 9fbc 72c8 fa3d ee6d 8d3c bb06 0b3d
000000f0: 7846 963d 626f 3a3c d663 ef3d ec55 9ebe
-0.14648707 0.040795837 0.12094217 -0.050586466 -0.0021565629 0.07574621 0.047446575 -0.00020574551
-0.044891287 0.016367977 -0.20095144 -0.06150329 -0.07821077 -0.12445151 0.055250827 -0.031292804
0.06632692 -0.11316716 -0.19123292 0.12386167 -0.007805211 -0.014649129 0.046926916 -0.07235219
-0.037131112 0.0320122 0.15593721 -0.16570798 -0.12600255 -0.1380562 -0.12685275 -0.009962389
-0.053654756 -0.1094881 0.06009315 0.052368756 0.059207685 -0.0839489 -0.05180741 -0.0995899
0.08315345 0.0612814 -0.22843546 0.05579966 0.07893945 0.1944342 0.078018464 0.07731099
0.029506685 -0.23913464 0.19843432 -0.009940394 -0.123569325 0.008763489 0.0015262872 -0.07861632
-0.01943349 0.12245263 0.017264333 0.033941966 0.073376596 0.011379095 0.11688964 -0.30924928

conv2.lin.weight f4 [64, 64]
00000000: 0e19 2ebe 6842 6d3c e6f3 19be 7eed 2fbd
00000010: 9866 c83d c78c 98bc d8de c23e f623 9fbe
00000020: 1663 793e 2f15 7abe 7c58 843d dfbf 3d3d
00000030: 1a73 da3c daa4 833d 69d0 213f d3eb bc3e
00000040: e1de 4e3e ca48 dd3d 7fcc 203e 3fd1 c8bc
00000050: 3d5c 083e fa1d 023f c4b6 85be db99 8bbe
00000060: b8a2 ff3c 9432 c73d acd7 70be b59c 40be
00000070: 8982 c13d 3d65 263e b06c 3f3e 7042 abbd
00000080: d6c5 7cbd 4039 713e 096b 7ebd cbae 103f
00000090: feb2 6e3b d2c8 d8be 36b8 d43e 0e05 a2bd
000000a0: d1e5 d4bd 4b8f 3f3e bbc9 b53e 9307 c5bc
000000b0: bc49 a0bd f0d7 613d 4a9f 82bd cccb c13c
000000c0: 9ee4 693e 496b 2bb9 aa63 87bd 0a4e c83e
000000d0: 0bb7 1a3e abee 923e 573f f73e 8e4c 97be
000000e0: 5b57 16be 4843 b33d 3ebe 1e3e 2df1 ee3c
000000f0: 1444 acbb 1a4f cbbd de04 77be 56ad 303f
00000100: cd4a ba3e ad69 c63e 76e9 c43e 38fa 52be
00000110: 2c32 443e a5db 063e 1d7b 483e 1f2c 46be
00000120: 3081 efbb 558e 85bd 157a 9dbe 5c67 a13e
00000130: a8c0 6bbe 5df9 58be fa2b cd3d b48b 78bd
00000140: 7b4c 03bf 0224 31be de13 89be a274 8ebe
00000150: 7b34 9abe f6fe 0cbd 2bf6 a83e 0e16 de3d
00000160: 0ea6 2d3d eeb0 223e dc0b 4fbe a1ff a43e
00000170: 06db 89be 266f d53d 9126 843c 9392 a2bc
00000180: 9ee7 2bbe 4d88 16be 4dee 9b3d 5183 96be
00000190: a93a d63e 19f9 71be 3067 9bbd 6991 8abe
000001a0: a1a4 1b3c 9bfa 60be b0e0 dabe 7505 94be
000001b0: 9821 f8be 0752 8cbe d944 e9bc e0f7 5fba
000001c0: 90ab b9be 093a 423e a432 7a3e 9c9f 043d
000001d0: 5b50 6fbe 11ef 943e d273 b33d cab0 a73e
000001e0: 80a9 2ebe e8c2 163e d550 a33e 1cb2 8dbd
000001f0: 2b4e 933d 7427 0ebe d3b0 173e ed4f 49be
00000200: 980b 503e b429 ba3e e8b9 783d 4bc5 9dbe
00000210: 53c6 5d3e fcf4 493e c039 223f 7828 413e
00000220: 3d9a a03d 8b93 95bd 5db0 083d 94fe a43e
00000230: 4a4b 893c f18a bfbe 8222 ee3d 6bad 333d
00000240: 28fc 403b 8367 5dbe f862 fc3d 7970 aebe
00000250: 5caf 773e 5163 323d 9a33 713e 4c76 16bd
00000260: c09c 513e 6670 4abe 114e 45bd 4619 3a3e
00000270: ef9b 89bd 0a11 733e f59e 753e 4f1f 1cbe
00000280: ec01 d13d f639 3cbd 8fd9 0b3e bfb4 5ebd
00000290: 3be4 97be a860 3f3e 2d33 8bbd 40c9 17bf
000002a0: 6b54 9e3e cdce a4bd 8f4d c4be 8da7 00be
000002b0: dab6 1fbe bb78 d9bd d5d3 8a3e c537 0ebe
000002c0: 55e4 adbe f70c 81be 85a4 acbd c991 113f
000002d0: 6da5 063d 09a6 d1bd 7668 c03e db9e aa3e
000002e0: c322 4bbe da01 37bd dc61 de3e d7c1 3cbe
000002f0: 98c8 c5bd b0c7 b0bd 9d09 113e 1bfc 2bbe
00000300: b290 cfbe e060 61be aefb bcbe 0470 213d
00000310: 1e1f 913c 628d b03c b530 9c3d c2d4 f1bd
00000320: 0f3c 54be d39d 953d 1a39 6b3d 57ba e03d
00000330: 9cd5 8c3e ffc0 023d 0885 993e e614 babe
00000340: 0300 cc3e bac3 473e c024 ef3d 4596 703d
00000350: b087 a5bc 7079 b93e 11a3 14be 3147 0c3e
00000360: 4571 c83c 656a 0d3e b001 39ba e568 573e
00000370: d3b2 443e 1092 c33e 3a0a 7abd f9d7 58be
00000380: b0c0 573e 7d44 de3d 27ba edbd ba93 983e
00000390: 8148 a7bd 6f97 f0bc dbfb 883e fa9f babd
000003a0: 1555 583e 2104 983d cf16 903d 346f 193e
000003b0: 717d 05be db30 bdbe 2ff4 d8bd 365b 92be
000003c0: f677 053f 5d6b 65be 1f09 eabe a745 c93d
000003d0: 437f 163e 5c5b 783e 2b2c d63e ef6a 0abe
000003e0: fafc 863c f078 cabd 7096 893d ba1c aa3d
000003f0: a263 0c3e 496e 043d 7c52 463e e9ae d33e
-0.17001745 0.0144811645 -0.15034446 -0.0429511 0.09785193 -0.018621815 0.3806064 -0.31082124
0.24354205 -0.24422143 0.064621896 0.04632556 0.026666213 0.06427927 0.63208634 0.3689867
0.20202209 0.10804899 0.15703009 -0.024513839 0.13316436 0.5082699 -0.26116002 -0.2726582
0.03120552 0.09726444 -0.23519772 -0.18809779 0.09448726 0.16249557 0.18693805 -0.08362281
-0.06171211 0.23556995 -0.062113795 0.5651671 0.0036422606 -0.42340714 0.41546792 -0.0791112
-0.103953965 0.18707006 0.3550547 -0.024051463 -0.07826564 0.055137575 -0.06378038 0.023656748
0.22841117 -0.00016347798 -0.06610806 0.3912204 0.15108888 0.28697714 0.48290512 -0.29550594
-0.14681761 0.08753067 0.15502259 0.029167736 -0.005257139 -0.09927197 -0.2412295 0.6901449
0.36385193 0.387525 0.38459367 -0.20603263 0.19159764 0.13169725 0.19578214 -0.19352768
-0.0073091015 -0.06521288 -0.30757204 0.3152417 -0.23022711 -0.21188875 0.100181535 -0.060680106
-0.51288575 -0.17298892 -0.2677297 -0.2782336 -0.30118164 -0.034422837 0.3300031 0.1084405
0.04239469 0.15887806 -0.20219368 0.3222628 -0.26924914 0.104215905 0.016131671 -0.019845283
-0.16787574 -0.14700432 0.07613812 -0.2939706 0.4184163 -0.2363018 -0.07588041 -0.27064064
0.0094997 -0.21970598 -0.42749548 -0.28910413 -0.4846313 -0.27406332 -0.028475212 -0.0008543711
-0.36263704 0.18967451 0.2443338 0.032378778 -0.23370497 0.29088643 0.08762325 0.32752067
-0.17056847 0.14722788 0.31897607 -0.06918737 0.07192644 -0.13882238 0.14813547 -0.19659396
0.20316923 0.36359942 0.06072417 -0.30814585 0.21657686 0.1972236 0.6336937 0.18863094
0.078419186 -0.07303532 0.033371318 0.32225478 0.016759533 -0.3741069 0.116276756 0.043866556
0.0029447172 -0.21621518 0.12323564 -0.34070185 0.24187988 0.043551747 0.2355484 -0.03673391
0.20469952 -0.19769439 -0.048170153 0.18173704 -0.06719195 0.23736969 0.23986419 -0.15246318
0.10205445 -0.045953713 0.13657211 -0.05437159 -0.29666314 0.18689215 -0.067968704 -0.5929146
0.3092378 -0.080472566 -0.38340423 -0.12563916 -0.15597096 -0.10618731 0.2711474 -0.13888462
-0.33963266 -0.25205204 -0.08429817 0.56863075 0.032872606 -0.10236747 0.37579697 0.33324322
-0.1983748 -0.0446795 0.43434036 -0.18433319 -0.09657401 -0.08631837 0.14163823 -0.1679539
-0.4054008 -0.22009611 -0.36910766 0.039413467 0.017715033 0.021551792 0.07626478 -0.118081585
-0.20726036 0.07305493 0.057427503 0.109730415 0.2750672 0.031922337 0.29984307 -0.3634407
0.3984376 0.19508258 0.116769314 0.05873706 -0.020206302 0.36225462 -0.1451533 0.13699032
0.024468074 0.13810118 -0.00070574414 0.21036108 0.19208841 0.38197374 -0.06104491 -0.21176137
0.21069598 0.10852907 -0.11607771 0.29800206 -0.08168126 -0.029369084 0.2675465 -0.09112544
0.21126206 0.074226625 0.070356004 0.14983827 -0.13036133 -0.36951336 -0.10593449 -0.28585213
0.5213617 -0.22404237 -0.45710084 0.09827738 0.14696984 0.24253601 0.41830572 -0.13517354
0.01647805 -0.09886348 0.06718147 0.083062604 0.13709882 0.03233174 0.19367403 0.41344383

conv2.lin_edge.weight f4 [64, 2]
00000000: a26b abbc 5c33 a63c e14f 84bd 2a08 833d
00000010: 9c75 a43e 0c1a 263d 876d e53b 5fb1 02bc
00000020: 662a 223e 0a01 25be 2c3c 1d3e bf93 1fbe
00000030: 1c18 95bd a0b8 8e3d b20a 9b3e cecb 88be
00000040: fcfa 153e 728a 17be e723 b6bd 5e74 ab3d
00000050: df7e d63e 4f9d 47bc 462c 183d a6e3 1abd
00000060: 91ad 183e 518a 1abe fdb0 a33c 7b8a 9ebc
00000070: 48df 163d 7661 1cbd 7611 873c bd2e 82bc
00000080: 8b71 fc3e 7013 22be 07ba 393e d535 2bbd
00000090: b4e9 c03d 5556 b6bd 597f ed3d c9af 3e3e
000000a0: 8fff 183d 2290 19bd 140a 493e 9c98 fcbb
000000b0: 76a6 1abd e9ef 193d 172f a53c 4502 a0bc
000000c0: 2ae5 4c3d ed50 18bd b3a0 473c f9d2 3ebc
000000d0: b87c 1fbe bf0e 223e 92cc 47be 21c4 49bd
000000e0: 1874 6dbd 7ac0 733d 0e16 ddbc d06b d83c
000000f0: 3b62 063d da88 06bd ce76 07bf 764e ca3c
00000100: 85d3 12be ec03 143e 11cc e13d 668d dabd
00000110: d4c9 8a3e c56e 73be fa48 203d cbac e2bc
00000120: 3813 953c c80d 90bc f0d4 c2bd e657 b83d
00000130: ecfa 4dbe 8e64 583e 5cd3 a53e 43c3 86be
00000140: a5ac d9be eb2e aa3d 9399 a4be 6dad 30be
00000150: b457 10be 133b 113e a7af d2be 0c3f 0b3e
00000160: cceb 653d b85c 39bd 4bbf 183d beab 1abd
00000170: ce19 7fbd f59b 7f3d fd5c e13e 264c 8c3c
00000180: 207a e63d c7e6 dfbd 58ba c83c 5c72 c3bc
00000190: 0bbb 4cbb a700 433b 4a64 5e3d 040d 113e
000001a0: 5a49 8ebe 17d7 1f3d 3d76 5aba 9aaa 5c3a
000001b0: 70da 863e ea42 89be 2941 f2be 76b6 11be
000001c0: 0253 bc3c 7603 b7bc dc72 08bd 0c14 093d
000001d0: d719 b0bd fca9 a53d dc6c 02bf 130d 6f3e
000001e0: 55b5 cebe 5b0a 973d 3707 babd 904d af3d
000001f0: 5f77 dabe 12f1 fe3c 2892 bebc 4f42 b93c
-0.020925347 0.020288162 -0.06460548 0.063980415 0.3212098 0.040552184 0.007001582 -0.007976859
0.15836486 -0.16113678 0.15354985 -0.15583704 -0.07279989 0.06968808 0.30281597 -0.2671799
0.14646524 -0.14798906 -0.088935666 0.08371805 0.4189367 -0.012183501 0.037151597 -0.03781476
0.1490996 -0.15091826 0.019981856 -0.019353142 0.03683403 -0.038178883 0.016487818 -0.015891427
0.49305376 -0.15827727 0.1813737 -0.041799385 0.09419575 -0.08903185 0.11596555 0.18621744
0.037353095 -0.03749097 0.19632751 -0.007708622 -0.037756406 0.03758231 0.020164056 -0.019532332
0.050023235 -0.03718655 0.01218431 -0.0116469795 -0.1557492 0.15825938 -0.19511631 -0.04925931
-0.057972044 0.05950973 -0.026988056 0.026418597 0.032808524 -0.032845356 -0.52915657 0.024695616
-0.14338501 0.14454621 0.11025251 -0.10671501 0.27107108 -0.23772724 0.039132096 -0.027670285
0.01819764 -0.017584696 -0.09513271 0.0900114 -0.2011525 0.21132109 0.32387817 -0.26320848
-0.4251453 0.0830973 -0.32148418 -0.17253657 -0.14095956 0.14182691 -0.41149637 0.13598269
0.056133077 -0.04525444 0.037291806 -0.037761442 -0.06228047 0.06240459 0.44016257 0.017126154
0.11253762 -0.10932689 0.024502918 -0.023858242 -0.0031239416 0.0029755027 0.05429486 0.14165121
-0.27790338 0.039023485 -0.0008333659 0.00084177556 0.2633853 -0.26808864 -0.47315338 -0.1422976
0.0229888 -0.022340517 -0.033312663 0.033466384 -0.085986786 0.080890626 -0.50947356 0.23344831
-0.4037272 0.07375022 -0.09083407 0.08559716 -0.42669198 0.03112081 -0.023263052 0.022614626

fc.weight f4 [2, 64]
00000000: 35e6 963d a0e7 4bbb 8c06 a2bd c3af 8cbd
00000010: fa40 48bd d788 563d 5e16 1ebd bf10 5f3d
00000020: d9b4 1d3c e6c6 bb3d d2ee d73c 3d47 223d
00000030: 043f b53d 4f40 5c3d 1997 513d f5b6 a3bd
00000040: dcbe 3a3d 085a 34bb 2f58 6a3e 2505 8b3d
00000050: 95bf d03c 42e8 cf3c f383 0a3d 615b bfbc
00000060: 03ce 023e 41f0 723b 34e6 123d e693 703b
00000070: b724 083d eb45 94bd 6dbc c63d edc9 723d
00000080: d09e 4b3c 0e33 fe3c ee7d 7c3d cb06 59bd
00000090: ccff 063d d803 5cbd f527 a03d 4c10 34bd
000000a0: 52ce 5ebd 9430 e13c 28db c23d c5f4 f43c
000000b0: 2735 27bb e7f2 1d3c e35d cbbc 5dc1 323c
000000c0: 42c9 8c3d 7ca9 003e 6ab7 15be d611 483d
000000d0: 72ec 1a3d 6344 25bd d42d 98bd b0dd b83d
000000e0: 9ae5 a03d 953c 07bb bab0 b2bc f505 7d3b
000000f0: 2157 433d 66cc 033d 225a 413d 1acb 093e
00000100: a9cb 913d 3930 b13c a2a1 85bd ffe4 9cbd
00000110: a4ca 64bd 3ce1 633d 9644 4bbd 97a8 323d
00000120: b531 4e3c fd15 ac3d ca08 a2bb aa1b 143d
00000130: 7b4a ad3d 6abb 1b3d 29b1 6f3d b6a8 86bd
00000140: 1bc9 373d 4795 02bc 33b8 6ebe 07a9 9f3d
00000150: b01d 203d 5d05 983c d107 d93c 4f01 3fbc
00000160: cbed 6cbd e3bd c83c 689c 1a3d 22a1 9eba
00000170: 9409 8a3c c111 97bd 9874 be3d b0fe 653d
00000180: 3a29 5a3b 40c5 303d a714 313d 720c 89bd
00000190: 8e6c 163d 6178 6fbd 3e6e 823d 2ad9 82bd
000001a0: 4ee0 37bd 51b9 e63c 2838 963d fe48 1d3d
000001b0: 0d7c 02bc 9169 0a3d 098f 4c3b f740 a33c
000001c0: 7bd1 b03d 926e 0fbe 8ed0 f43d 5299 6c3d
000001d0: 2f60 d43c 442b 08bd d376 76bd d880 893d
000001e0: c7a5 a63d 477f 343c 8b59 dabc 20af ef3b
000001f0: f5b2 8a3d 35d9 323d ee7e 8e3d 0f65 f73c
0.07368127 -0.00311134 -0.07911405 -0.068694614 -0.04889009 0.052376594 -0.03859555 0.05445933
0.009625637 0.09168796 0.026358996 0.03961872 0.0884991 0.053772267 0.05116949 -0.07993881
0.045592174 -0.0027519483 0.22885202 0.067880906 0.025481978 0.025379304 0.033817243 -0.023359003
0.127739 0.0037069472 0.03586407 0.0036709248 0.03323814 -0.07239898 0.09703908 0.059274603
0.012428001 0.031030204 0.061643533 -0.052984994 0.03295879 -0.053714603 0.07820121 -0.043960854
-0.05439598 0.027488984 0.09514457 0.029901871 -0.002551386 0.009640432 -0.024825042 0.010910359
0.068743244 0.12564653 -0.14620748 0.048845135 0.037823148 -0.04034842 -0.07430616 0.090266585
0.07856293 -0.0020635475 -0.021812785 0.0038608287 0.047690514 0.03217735 0.047205098 0.13456383
0.07118923 0.02162944 -0.0652497 -0.07660865 -0.055857316 0.055634722 -0.049625956 0.04361781
0.012585093 0.084026314 -0.0049448954 0.036159195 0.08461472 0.03802053 0.058518562 -0.06575148
0.044869523 -0.007970161 -0.23312454 0.07795911 0.039090812 0.018557245 0.026492985 -0.011658027
-0.057843965 0.024504608 0.037746817 -0.0012102465 0.01685027 -0.07376433 0.09299582 0.056151092
0.0033288733 0.043156862 0.043232586 -0.06691827 0.03672462 -0.05846441 0.06368683 -0.06389077
-0.044891648 0.028164538 0.0733493 0.03839969 -0.007964146 0.033792082 0.0031213185 0.019928439
0.08633705 -0.14007023 0.11953841 0.057763405 0.02592477 -0.033244386 -0.060171913 0.06714028
0.08137088 0.011016673 -0.026654026 0.0073145777 0.067724146 0.043664176 0.06957804 0.030199556

fc.bias f4 [2]
00000000: 9ab4 063e 5b6f 513d
0.13154832 0.051131587
