saved_models/gat9_slic.pt (torch, 25936 bytes, 14 tensors)

conv1.att_src f4 [1, 1, 64]
00000000: 706a 10bf e3db abbf ae32 00c0 8eb3 273e
00000010: da9f 023f 4451 aebf d7c1 7d3f be49 2f3f
00000020: 287e 083e 2ada 00bd e253 48bf bed8 ddbf
00000030: f871 483f 03a8 debc f550 6abf 6d94 e9bf
00000040: 5815 aabe e4d1 c83e 9e7a eebf c712 89be
00000050: e50f f9bb 75c3 753f 8f3b 58bf 2552 a5bf
00000060: 1a11 923e 4d55 023e 5379 c2bf cc02 d53d
00000070: 49fb b13e 62f7 d7bf a835 89bf 9bb5 783d
00000080: 2f97 e1be 1218 04c0 757e 603f 2cdb 753e
00000090: 2304 38bf bf81 f3be dc9a 86bf c40c 1f3e
000000a0: 8e0d 0bbf 35af 96be 1e92 a0bd 162c ae3d
000000b0: f2b7 abbf e95f 10bf 2486 863f 5c87 e0bf
000000c0: 3ce6 bfbc 8494 6abf 63db e33e ebb7 a9be
000000d0: a31d 2abf 538d 59be ef39 fdbe c86f e2be
000000e0: 47bd 1f3f a08f 7bbf ca3f 02be f9a3 86be
000000f0: b9e9 02bf 6f68 55bf a379 173f ecba 973f
-0.5641241 -1.3426479 -2.0030932 0.16377088 0.51025164 -1.361855 0.991239 0.68471897
0.13329375 -0.031458057 -0.78252995 -1.733177 0.782989 -0.027179724 -0.9152978 -1.8248421
-0.3321941 0.39222634 -1.863117 -0.26772138 -0.0076007717 0.9600137 -0.8446588 -1.2915694
0.28528672 0.12727852 -1.5193275 0.10400924 0.34762028 -1.687237 -1.07195 0.060720067
-0.44060656 -2.0639691 0.8769296 0.24009389 -0.7188131 -0.47559926 -1.0516009 0.15532213
-0.5431756 -0.29430547 -0.0784037 0.085045025 -1.3415511 -0.5639635 1.0509686 -1.7541308
-0.023425214 -0.91632867 0.44503316 -0.3314813 -0.6645147 -0.21245317 -0.49458262 -0.44225907
0.6239819 -0.9826603 -0.12719646 -0.26296976 -0.5113788 -0.8336248 0.5916998 1.1853919

conv1.att_dst f4 [1, 1, 64]
00000000: 63da 073e 8e07 8fbe 5ec4 113f 32f6 0dbe
00000010: f608 82be 4ec4 263d 5c81 85be b2f3 d2be
00000020: 1128 c0be fbd8 5bbe 81fd af3e ccc0 7b3e
00000030: d372 c5be c716 8f3d a0be cc3e ed0a fbbd
00000040: 0ff4 bd3d 4659 21be e342 803e db96 283f
00000050: 5952 2a3e 65db e1be 76fc 0dbe 7b8b 803e
00000060: b122 1dbe fb3c 41be 9724 1d3e db8a 57be
00000070: dac9 6cbe 492b 723e 9153 0bbe 0141 11be
00000080: ca7b 44bc 3a76 fc3e c5bb 0fbf 5bdf 87bd
00000090: 59cd ea3d ac14 2a3f be4a df3e 7dc8 9a3d
000000a0: f894 0f3f b15e ebbe 642b 13be 63b7 023e
000000b0: 7190 cabd 6e79 013f 93b1 05be c5bc d13e
000000c0: dbbc 8cbe f2ee 043e 5b51 703e 4277 2d3e
000000d0: 3410 23be dbfe 0f3f a4dd c83c aacd 9d3d
000000e0: a46e eebe 3f26 ef3d 64ca 9c3d 2507 b83e
000000f0: 754a ee3e 5e01 8e3e 8abf a4be f2f8 25bf
0.13266902 -0.2793545 0.5694026 -0.13863447 -0.25397462 0.040714554 -0.26075256 -0.4120155
-0.37530568 -0.2146949 0.34373096 0.24585265 -0.38564166 0.06986766 0.39989185 -0.12257943
0.09275066 -0.15756711 0.2505103 0.6585519 0.16632976 -0.44112697 -0.13865837 0.25106415
-0.15345265 -0.18870918 0.15345989 -0.21049063 -0.23123875 0.23649324 -0.13606097 -0.14184953
-0.011992404 0.4930895 -0.5614589 -0.066343985 0.11464948 0.6643779 0.4361171 0.07557771
0.56086683 -0.4597068 -0.14372021 0.12765269 -0.09890831 0.5057591 -0.1305602 0.40964332
-0.27487835 0.12981775 0.23468535 0.16940024 -0.1592415 0.56248254 0.024519749 0.07705243
-0.46568787 0.11677217 0.076557904 0.3594295 0.4654118 0.27735418 -0.32177383 -0.64832985

conv1.att_edge f4 [1, 1, 64]
00000000: 3360 cabe 5ffd 5dbc e531 963e 0fe1 9cbe
00000010: 64c5 eb3e 0878 bc3b 6aad 0dbd fc9f cdbc
00000020: 1e38 883e e403 b8be 0de7 c93c 9642 9b3e
00000030: db73 b7be 0ba5 a93c 1c5e 7a3d b314 b5bc
00000040: 191f 07bd c679 e3bc 3f01 66bd c4be 8c3c
00000050: df84 9c3c a312 cfbc cbe1 0e3e 13ab 583d
00000060: f933 b1bc 0711 bcbc 89cf bd3b 4cdd c53d
00000070: 180e 9c3e 8b3d 97bc 7ded 063d fb23 0d3d
00000080: 9764 a63e 9f0e 3b3d ddd2 813c c7e7 26bb
00000090: 060b 47bd 85de ad39 26b8 d8be ab59 e53c
000000a0: 1029 c4be 44c3 a8bb 167e e5bd 0c8e b5bc
000000b0: 3c88 1cbd a9f6 bc3e 8395 00bd 8053 f7bc
000000c0: d103 153d b312 63bc 9579 aa3c a811 d33c
000000d0: 345e a9bc e789 e4bc 7ff8 ca3c b756 5d3a
000000e0: 2afc f6bc 2a2e aa3d d4b9 e73c 3078 fb3c
000000f0: 7ffa 0e3d 0ee5 113d 5233 b1bb 88b4 3b3e
-0.3952652 -0.013549178 0.29334942 -0.30640456 0.46049035 0.0057516135 -0.03458921 -0.0251007
0.26605314 -0.35940468 0.024646306 0.3032424 -0.35830578 0.020708581 0.061124906 -0.022104597
-0.03298864 -0.027768027 -0.056153532 0.017180808 0.019106327 -0.025277441 0.1395332 0.052897524
-0.021631228 -0.022957338 0.0057925624 0.0966135 0.30479503 -0.018461963 0.03294133 0.03445814
0.3249862 0.04566824 0.015847618 -0.002546774 -0.048594497 0.0003316292 -0.42327994 0.027996859
-0.38312578 -0.0051502306 -0.112056896 -0.02216246 -0.03821586 0.36906937 -0.031392585 -0.030191183
0.036380593 -0.013859439 0.020809928 0.025765255 -0.020674802 -0.027897788 0.024776695 0.00084434025
-0.030149538 0.08309586 0.028286852 0.030696958 0.03490686 0.035618834 -0.005407729 0.18330586

conv1.bias f4 [64]
00000000: bd5d 6cbc d174 4cbf 8739 c0be 5ee1 e1be
00000010: fbc3 73be 4fa6 e73d c7f8 01bf 0a02 98be
00000020: 99a5 a3be ca0d 8dbe 6d97 2abe 1124 90bf
00000030: ed47 e0be 757c 9dbe 54b9 b6be 5a55 69bf
00000040: 426b 1cbe 644d aebe 32e0 69bf 1133 eebd
00000050: ccb3 97be 3a81 f2be 13b7 32bd 71a9 32bf
00000060: eeb8 02be 126e 95be 46bb f1be 2924 9ebd
00000070: 846d 8cbe be9f 79bf 196a 3fbf 4b54 7ebe
00000080: 0282 0abf 5649 89bf 3795 87be 8ef0 f1bd
00000090: cb4c 81bd 95a1 2cbe db62 b0be c269 5bbe
000000a0: 1927 5cbe 43ae d2bc 5888 123d daaf 8cbe
000000b0: 291f 18bd 73af b7be c25b e4be c131 3dbf
000000c0: 5009 d0be 9933 40be fc98 d9be 0988 57be
000000d0: efb1 67be 5a92 54be fca3 0bbf 64db 2dbc
000000e0: 106a 90be cb1a 8ebe 8cb0 3abd ad6f 30be
000000f0: 0689 56be bfaa 14be 13d1 f9be cd41 27bf
-0.014426646 -0.7986575 -0.3754389 -0.44117254 -0.2380523 0.11311018 -0.5077023 -0.29689056
-0.31962278 -0.27549583 -0.16659327 -1.1261007 -0.43804875 -0.30759016 -0.3568827 -0.9114586
-0.1527529 -0.3404342 -0.9135772 -0.11630834 -0.29629362 -0.47364217 -0.043631624 -0.697898
-0.12765858 -0.2918554 -0.4721319 -0.07721741 -0.27427304 -0.9750937 -0.7477127 -0.24836843
-0.54104626 -1.0725505 -0.2648103 -0.1181346 -0.06313475 -0.16858514 -0.3445042 -0.21427062
-0.2149929 -0.02571786 0.03577456 -0.27477914 -0.03713909 -0.35876045 -0.44601256 -0.73904043
-0.40632105 -0.18769683 -0.4249953 -0.21047987 -0.2262647 -0.20758954 -0.54547095 -0.010611389
-0.2820592 -0.27754816 -0.045578524 -0.17230101 -0.20950708 -0.1451826 -0.48792323 -0.6533478

conv1.lin.weight f4 [64, 4]
00000000: f098 033f 90c7 54be 6393 9e3d d891 31be
00000010: c6a9 a33e 6a9a 2e3e 3659 613d 066f 4a3e
00000020: 12f0 173f 4b86 68be 5109 d2be f424 cfbd
00000030: 2081 3b3d ed29 2abd 2242 383e 3ef7 c5be
00000040: fc44 90bd af08 703d 7ea5 453d c52d 41bc
00000050: e345 483f a72b 8dbe 9227 bbbc f9c1 743e
00000060: 82af e43b 0dc3 2dbd e406 aa3d f018 333e
00000070: b347 b6bc 2874 ca3c 6766 a33d 821b dbbc
00000080: 1cfd 993e b696 6cbe 56fa 903d bb50 b93e
00000090: f82b 073e 8eb4 3bbe ad2a 5c3e 35be 13bf
000000a0: e74c e1bd 646e e83d 965e 56bf 60a8 f5bd
000000b0: 84b3 0f3f c8af e83d 60af 07bf eeee eebe
000000c0: f75a 503a 4e04 8ebc 2369 3d3e bb55 a0be
000000d0: 0998 fabc d88d 173d 5d34 8a3d 9b01 c0be
000000e0: d837 763e 2f30 73bc d2b8 b7be ce16 9a3e
000000f0: 3e7e cf3e 80b6 533e a2c2 c7be 5cc3 ddbe
00000100: f229 6dbe 17f8 6b3e 0778 3abf ba9c a3bd
00000110: d765 213b 0209 733c c506 dc3d 9893 673e
00000120: 7498 f03e 1dc5 3ebc c206 c2be 6259 85be
00000130: 474e b0be 5348 c13e 18c5 38bf 5c0a 04bd
00000140: 55d9 993e 9d34 57be 26b6 973d c4f3 9b3e
00000150: bed1 76be d4c7 3b3e 4004 103e 9dec 4cbd
00000160: 5691 0c3f d823 1bbe 7b73 943d 135d 3fbe
00000170: 3482 203e f414 8b3e 967d acbe 83d2 5fbd
00000180: de80 f1be 1ff2 103f 953b eabd 45c8 72bd
00000190: efee 23be f307 393e 8556 f03d a667 2b3e
000001a0: e56b f0bd 4118 f03e 68d5 d5be dc1a 38bd
000001b0: 5e6e a1be a03f 943d 8b5e 1a3e adef c8be
000001c0: 367f 923e 454f 47be 91e9 823e 47cf 14bf
000001d0: a0a0 af3e 1492 683e 9fd7 a1be cd9b 7ebe
000001e0: ad28 773e e56e 483e 3d4a 62be cb52 7fbe
000001f0: c6f5 1abe 1cd5 003d 01dc 80bb d801 973d
00000200: b9ce 923e eed5 c43c c30b 23be 056e 1abe
00000210: c360 8c3e 6893 c63e 0d93 01bf bb65 cebe
00000220: 3729 29be dcf0 a43a 202e 213e 5634 82be
00000230: 5908 c0be 6267 083f 9e7f c8bb c854 20bd
00000240: e957 1a3f 34fb f2bd 5fd1 5b3d 39ef 12be
00000250: 1ff0 91be 5748 9e3e be26 30bf 3181 a7bd
00000260: ab84 31be a401 943e ecf4 27bf 6842 47bd
00000270: 3774 a6be d66e 87be 2bbf 2abf 8d63 af3d
00000280: 2206 91be 666c aa3e 6faa 0dbf 7adc 69bd
00000290: 8273 1f3f 8cb7 a4be a884 883e c0b5 193d
000002a0: d743 f23e b576 a2bd 891d 273e f28c 033f
000002b0: c19d 993d b1cd 543a 4de3 733d 9444 823e
000002c0: ca4a 1e3f 7549 88bd d90c 233d 482e 53be
000002d0: 04b6 a9bd e11d 903e b41d febe 2cc8 043e
000002e0: 298e 82be c37a 4d3e b5a5 bd3d ec71 e33d
000002f0: 5db3 463e c2a6 bd3e 2a90 e0be 0d85 23be
00000300: 732d 2ebd eeae 043e df4f e43a 7056 b93e
00000310: c1f7 303e 5bd0 5cbe 3e84 96bf 2c91 46be
00000320: af9a dabd 9c35 da3d bbf6 ae3c aa69 343e
00000330: f79f b3be 89d6 df3e a7ff edbe 9af7 49bd
00000340: 91fb d43e eda9 7ebe 4a72 0abe 2047 473e
00000350: 37cd a5be 401b dd3e 1c9a 02bf 4075 83bd
00000360: 7dd8 9c3d 11bb 4f3e 59a5 963d 3d80 593e
00000370: f0d4 283f 57de 8abe a0c3 8f3d 7000 163e
00000380: 4efc c5bd b10e 953d b708 b23d f3ca 51bc
00000390: 8543 e33c 2286 25be 226c 71bf 9f3a 2bbe
000003a0: 8e6d 973e 276b 64bd 3b7c c33d 540f 9f3e
000003b0: cb81 eabd d3ad f33d 6f4d 31bf 787c 96bd
000003c0: 6713 90be d3fb b63e e193 26bf d7d2 a0bd
000003d0: 3ea5 54be 43e4 693e 1660 44bf d235 bcbd
000003e0: 720d 2bbe 4b7a e23d 846c 6c3d 0246 f43d
000003f0: 7090 67be 57d9 433e 5653 6e3e cfe3 52bc
0.5140524 -0.20779252 0.077429555 -0.17340791 0.31965464 0.17051092 0.05501672 0.19768915
0.59350693 -0.22707479 -0.41022733 -0.1011447 0.04577744 -0.04154389 0.17993978 -0.38665193
-0.07044408 0.05860203 0.04825353 -0.011790697 0.7823164 -0.27572367 -0.022846017 0.2390212
0.00697893 -0.042422343 0.083020955 0.17489982 -0.022250986 0.02471359 0.07978516 -0.026746515
0.3007592 -0.23104367 0.07078998 0.36194405 0.13200366 -0.18330595 0.21500655 -0.5771211
-0.11000996 0.1134918 -0.83738077 -0.119950056 0.56133294 0.113616526 -0.53001976 -0.46666664
0.0007948125 -0.017336037 0.18497138 -0.31315407 -0.030590074 0.037000507 0.06748269 -0.37501225
0.2404474 -0.014843031 -0.35883194 0.30095524 0.40526003 0.20675087 -0.3901568 -0.4331311
-0.23160532 0.23043858 -0.728394 -0.079888776 0.0024627352 0.014833691 0.10743479 0.22614896
0.46991313 -0.011643675 -0.3789578 -0.26044756 -0.3443472 0.37750491 -0.7217574 -0.032236442
0.30048624 -0.21016164 0.07407789 0.30459416 -0.24103448 0.18337947 0.14064121 -0.05003034
0.54909265 -0.15150392 0.07248589 -0.18687849 0.15674669 0.27164423 -0.33689564 -0.05464412
-0.4716863 0.5661945 -0.114371456 -0.059273023 -0.16009115 0.18069439 0.11735252 0.16738757
-0.11739329 0.46893504 -0.4176438 -0.04494749 -0.31529516 0.07238698 0.15075128 -0.39245358
0.2861268 -0.19463833 0.25568822 -0.5812878 0.34302235 0.22711974 -0.31609818 -0.24864121
0.2413661 0.19573553 -0.22098632 -0.24933927 -0.15132818 0.031453237 -0.0039324765 0.073733985
0.28673342 0.02402779 -0.15922455 -0.15081032 0.27417573 0.38784337 -0.50615007 -0.4031199
-0.16519628 0.0012583989 0.15740252 -0.25430554 -0.3750637 0.5328275 -0.006118729 -0.039143354
0.6029039 -0.118643194 0.05366647 -0.14349069 -0.2850351 0.30914566 -0.68809116 -0.08178938
-0.17335765 0.28907502 -0.65608096 -0.048647314 -0.3251054 -0.2645175 -0.6669795 0.0856391
-0.2832499 0.33285826 -0.55338186 -0.05709503 0.62285626 -0.32171285 0.2666371 0.037526846
0.47317383 -0.07932798 0.1631986 0.5138694 0.07500792 0.00081178086 0.059542943 0.25442946
0.6183287 -0.06654636 0.039807174 -0.20623124 -0.0828667 0.28147796 -0.49632037 0.12966985
-0.25499085 0.20066361 0.09260122 0.11105713 0.19404359 0.3704129 -0.43859988 -0.15968724
-0.042523813 0.12957355 0.0017418823 0.3619876 0.1728201 -0.21563856 -1.1759107 -0.19391316
-0.10674035 0.106547564 0.021357885 0.17618433 -0.3508298 0.43718365 -0.4648411 -0.049308397
0.4159818 -0.24869509 -0.1352016 0.19460726 -0.3238313 0.43184853 -0.510164 -0.06418848
0.07658479 0.20286204 0.07355756 0.21240325 0.65949917 -0.27122757 0.070197344 0.14648604
-0.09667264 0.07278193 0.086930685 -0.0128047345 0.027742157 -0.16164449 -0.9430562 -0.16721581
0.2957577 -0.05576625 0.095451795 0.31066382 -0.11450537 0.11898389 -0.6925878 -0.07347959
-0.28139803 0.35739002 -0.65069395 -0.078527145 -0.2076616 0.22840981 -0.76709116 -0.09189953
-0.16704348 0.11058482 0.057720676 0.119274154 -0.22613692 0.19125877 0.23273978 -0.012871697

conv1.lin_edge.weight f4 [64, 2]
00000000: 8fd5 fabe ab59 b1bc ac31 01be 9fa9 eb3d
00000010: 0008 e33e c387 2cbe 22fc 82be 043f 7dbe
00000020: cf9e 023f b3a3 5abe 17e4 e23d 7ab1 c3bd
00000030: 086e 7bbe 2b60 703e ec27 31be c8ef 293e
00000040: 9587 df3e e8f8 dd3d d888 dcbe f51e 09be
00000050: ce25 2e3e 3bf7 26be 6614 e03e 1198 85bd
00000060: e4d3 e2be 9c5e 4abe f806 193e ed3f 11be
00000070: da29 aa3e 5a12 9abe 3fad 1fbe 9545 183e
00000080: 926f 6ebe ed3b 643e 900e 44be 9c48 3c3e
00000090: d5e0 a5be 49c8 973e 8585 0b3e 932d 02be
000000a0: ab5e 123e fbf9 09be f23a 32be 2701 2b3e
000000b0: 2d11 393e 69bb 0b3e 0cbe 5d3e ceec 0fbe
000000c0: aa66 1dbe 1dc6 153e 682e 24be a8eb 1c3e
000000d0: 7af5 e23d 18c7 c3bd 8db1 c23e e009 a7be
000000e0: 459e ec3e c5d5 f03c 62f1 0fbe a13f 073e
000000f0: 0b0c 6e3e fcde 63be 5d60 7a3e 7864 6fbe
00000100: b45f b13e ea70 313e 6754 9b3e c265 91be
00000110: a169 073e d4ae fabd c70a d8bd 0f01 b63d
00000120: c794 9ebe 0b85 933e 637f c7bd 8644 a23d
00000130: d37c f8be 9d28 fa3d 4ccf 453e b0f5 3dbe
00000140: 23dd c6be 113d 5fbe 35e9 393d 865f 0abd
00000150: 0598 cbbe d89a ac3e eef8 1fbe 4394 183e
00000160: a314 8ebe 7e20 873e 2b96 de3e 4ad5 3c3e
00000170: 9d3e 61be 38e1 573e 9d55 57be 3491 4e3e
00000180: 7824 853e ad2c 7ebe 77f9 01be 6c92 ed3d
00000190: 877a 193e aebb 11be 5a82 353e f438 2ebe
000001a0: 6de0 18be 7a16 113e 3d0c 45be 433b 3d3e
000001b0: 88fa 2e3e 5eca 27be fb9b d03d 5805 adbd
000001c0: 00fe 56be a83e 4e3e a53f ba3e 0254 a2be
000001d0: 670f 483e 441b 40be 927d 5b3e 517a 52be
000001e0: 0ffc 7d3e 0dc2 72be 40e3 813e cc25 78be
000001f0: 0cc9 e1bd 2947 c23d 0344 ae3e 351d 48be
-0.48991057 -0.021649202 -0.12616605 0.11506962 0.4434204 -0.16848664 -0.25582987 -0.2473107
0.5102357 -0.21351509 0.11078661 -0.09555335 -0.24553692 0.23474185 -0.17300385 0.16595376
0.43658128 0.10838491 -0.43073153 -0.13390715 0.17006609 -0.16305248 0.43765563 -0.06523145
-0.44302285 -0.19762653 0.14944065 -0.14184542 0.33235055 -0.30092126 -0.15593432 0.14870293
-0.23284748 0.22288485 -0.1914618 0.18387073 -0.32398096 0.29644993 0.13625152 -0.12712698
0.14293925 -0.13474266 -0.17405298 0.16699658 0.18072958 0.1364571 0.21654528 -0.14055178
-0.15371194 0.14626355 -0.16033328 0.1532427 0.11081977 -0.095594585 0.38026085 -0.32624722
0.462145 0.029398808 -0.14056924 0.13207866 0.23246782 -0.2225303 0.24450822 -0.2337817
0.34643328 0.1732823 0.3033783 -0.28397948 0.13223888 -0.12240377 -0.105489306 0.08886921
-0.30972883 0.2881244 -0.09741094 0.07923226 -0.48532733 0.122147776 0.19317359 -0.18550754
-0.3884059 -0.21800639 0.04538842 -0.033782504 -0.3976442 0.33711886 -0.15622303 0.14900307
-0.2775012 0.26391977 0.43473944 0.18440738 -0.21996541 0.21082008 -0.21028753 0.20172578
0.26004386 -0.2482173 -0.1269282 0.116001934 0.14988147 -0.1423175 0.17725506 -0.17013913
-0.14929362 0.1416873 -0.1924295 0.18479638 0.17087758 -0.1638579 0.10186001 -0.08448285
-0.20995331 0.20141089 0.36376682 -0.31704718 0.19537126 -0.18760401 0.2143462 -0.20554473
0.24803184 -0.23706837 0.2536869 -0.24233168 -0.11024675 0.09486229 0.34036264 -0.19542392

conv2.att_src f4 [1, 1, 64]
00000000: 10fa 4d3e c52b f3ba d92c 0cbe 48af 82be
00000010: d705 d5bd f5c7 96bf 6ffb ec3e 22a9 72bd
00000020: e38d a6bf 89b0 71be 43ca 2dbe 03b7 82be
00000030: 6bed 04be 2336 e8be eef0 ba3e 166f 08bc
00000040: a427 25bd 48cd 1a3f 791c dc3c 3d8f 68be
00000050: 4e1c 0e3e fc45 8d3d b6e3 13be e07c de3e
00000060: f21c a73c 56e0 013f 1267 d73e 3f1e 9f3e
00000070: 8758 873f 4788 b5bd da3a 483e aede 1b3e
00000080: aa23 bfbe 4e07 06bf e557 753e 4a60 6e3e
00000090: 5ad0 ac3e d9dc 79be 4d72 59bd bf8a dc3e
000000a0: 1c5a 27bf 6eb4 86be c74b de3d 57f8 ba3d
000000b0: 06a0 f1bd a88e 193e 16a6 1d3f b2c2 62be
000000c0: 1ba3 2c3f 4d42 263f 0b9a 0cbe d981 9abe
000000d0: e8a9 21bf c1b0 a33e a8df 1f3f 2ad5 323d
000000e0: 47b8 8abc 907f 43bf 2448 643e 8eb8 98bd
000000f0: bd47 85be 0a3f 663e ada4 293d 12ae 943d
0.20114923 -0.0018552473 -0.13688983 -0.25524354 -0.104015045 -1.1779772 0.4628558 -0.05924333
-1.301205 -0.23602499 -0.16971688 -0.25530252 -0.12981193 -0.45353803 0.3651194 -0.008327266
-0.040321007 0.60469484 0.026869046 -0.22710891 0.13877985 0.06898114 -0.14442334 0.43454647
0.020399544 0.50732934 0.42070824 0.31077763 1.0573891 -0.088638835 0.195537 0.15221664
-0.37331897 -0.52354896 0.2395931 0.23278919 0.3375271 -0.24400653 -0.05308752 0.43074605
-0.6537187 -0.26309532 0.10854297 0.09129398 -0.117981 0.14995825 0.6158155 -0.22144583
0.6743638 0.64944917 -0.13730638 -0.3017719 -0.6314988 0.3197079 0.6245065 0.04366032
-0.016933573 -0.7636652 0.22293144 -0.07457076 -0.26031294 0.22484985 0.041416813 0.07259764

conv2.att_dst f4 [1, 1, 64]
00000000: cc8b d8be 973c 88bb b87d 293f ebc6 ae3e
00000010: 063f 64be 3737 a03e 964e 82be 0683 823e
00000020: 8368 273e 1825 b23e d40e e73e a4df c9be
00000030: e26a c73e a29b eebe d58d 9ebb 2022 bbbe
00000040: c7ac 04be eb91 ddbe 001c 563e 812c 253f
00000050: d70e 403e 18e7 223e 25fe f0bd f108 c3be
00000060: eb44 583c 26fa 19bf 5924 e1be 9659 eebe
00000070: 1234 0fbf 269d 123f b1fd 59be 48f7 69be
00000080: 2e2a 56bc 2a74 f23e d905 0cbf 2bd6 e4be
00000090: d184 05bf 2b53 e93e 3032 4a3e 9086 c83e
000000a0: f642 cc3d dbe2 1d3e b39b cdbd 6aef 983e
000000b0: fecd ff3e fa29 22be 6371 26bf 4d5a 623d
000000c0: 7f8c 92be 17b9 8bbe 12ec 5dbe 6c3a 10bb
000000d0: 5924 a03e b50b dabe 4bbb b3be 2ed5 b23e
000000e0: 3ef6 363d ffaf 1e3f e970 263e 5c22 babe
000000f0: dba4 d83e 2a50 f8be 9e03 1d3f a858 0cbf
-0.42294157 -0.0041576135 0.66207457 0.34136137 -0.22289667 0.31292126 -0.2545058 0.25490588
0.16348462 0.34793925 0.451285 -0.39428437 0.38948733 -0.46603113 -0.004838685 -0.36549473
-0.12956534 -0.4327539 0.20909119 0.6452103 0.18755661 0.15908468 -0.11767224 -0.3809276
0.013200025 -0.6014732 -0.43973044 -0.46552724 -0.5593883 0.5727104 -0.21288182 -0.22848237
-0.01307158 0.4735425 -0.5469642 -0.44694647 -0.52155787 0.45571265 0.19745708 0.39165163
0.09973709 0.1541857 -0.10039463 0.29870158 0.49961847 -0.15836325 -0.65016764 0.0552619
-0.28622815 -0.2728965 -0.21672085 -0.0022007478 0.3127773 -0.42587057 -0.3510383 0.34928268
0.04466843 0.619873 0.1625401 -0.3635434 0.42313275 -0.4849866 0.61333644 -0.5482278

conv2.att_edge f4 [1, 1, 64]
00000000: bc67 ed3e e249 a9be 24fb c7be cd69 c5be
00000010: bee9 a1bc a3c6 143f fd41 a73e 9926 703e
00000020: ccfd f0be d6aa 533d 916d 06bf 1e6c 953b
00000030: 7c96 0dbf c393 963e 69bd bc3e 74d9 ba3e
00000040: f505 3b3c 55ea 9bbe 34e0 fcbe 23b6 833c
00000050: a7b6 813e fdac 0cbf f806 0cbf a0be 033e
00000060: 1620 9e3e e1ef b4be 456d 083f 536d c4be
00000070: 5ce0 943e 74e2 f73e a175 e0be 7418 393e
00000080: 7741 ba3d 4d65 4bbe d6ae c1be 8ca0 a9be
00000090: c277 0e3e c43b 8b3e 22ee 95be d4fe 4b3e
000000a0: 7cc0 c9be be1c c13e 463b 333e 9363 ba3e
000000b0: 8d55 0f3d 90a2 9b3e bf31 85be 6e25 823e
000000c0: cccb efbe 171b f6be 1740 2abf 4993 033f
000000d0: 0001 723e b288 89be 4356 433d 694f ba3e
000000e0: 8911 e2be 4a04 dcbe d319 333e 0f09 dabe
000000f0: 03b7 f9be fa24 5c3e 6eb7 c7be 59b9 bfbe
0.46368206 -0.3306418 -0.39058793 -0.38557282 -0.019764777 0.58115596 0.32667533 0.23452224
-0.47068632 0.051676594 -0.52510935 0.0045600077 -0.55307746 0.29409608 0.36863258 0.3649403
0.0114149945 -0.3045222 -0.49389803 0.01607806 0.25334665 -0.5495146 -0.54698133 0.12865686
0.30883855 -0.35339263 0.5329173 -0.38364658 0.29077423 0.48414958 -0.43839744 0.18075734
0.09094518 -0.19862862 -0.37828702 -0.331303 0.13912871 0.27194035 -0.29283243 0.19921428
-0.39404666 0.3771724 0.1750308 0.36404094 0.034993697 0.30397463 -0.26014516 0.25419182
-0.46835172 -0.48067543 -0.66504043 0.51396614 0.23633194 -0.26862103 0.047689687 0.3638871
-0.44154003 -0.42972022 0.1749032 -0.42585036 -0.4877244 0.2149848 -0.39007133 -0.37446097

conv2.bias f4 [64]
00000000: 231d 813c 7a7b 113d 0d00 ffbc 5159 62bd
00000010: e469 193d a924 8abe cd62 023e af58 63bb
00000020: 986d 76be 15e5 07be 6883 56bc 1e9f 4bbc
00000030: 2ab8 bbbd 92f8 5c3c fc2e 953d 8b13 e53c
00000040: bffc eebb 986f 383e 68a4 99bd 36f9 94bb
00000050: e857 96bd db2d b5bc 55ac aebc 468f 6f3d
00000060: f115 8bbd 578a 0d3e 109f a53d 0067 a73c
00000070: 5acc a23e 79a7 1b3c 90a8 3d3d d19a d53b
00000080: e187 23bd bc24 18be b6e2 a73d 8561 a2bc
00000090: b095 8b3d 4b38 d0bd becc ebbc 90f1 6abc
000000a0: c296 7cbd c49e 2dbd a7d3 bfbd c852 51bc
000000b0: fa95 b4bc 291d ad3c e5a1 4a3e 768f e0bc
000000c0: 9177 103e 63b6 273e 0c4e 203a 94f6 a5bc
000000d0: 4ef1 c8bd a588 363d 70a8 523e a18c 333d
000000e0: 65b3 33bd 50f1 8bbe ad0b 08bc 4451 603d
000000f0: 01c8 64bd 852e 96bb 6e36 bfbd 4ccf fe3d
0.015760964 0.035518147 -0.031127954 -0.05526096 0.0374545 -0.26981094 0.12733002 -0.003469031
-0.24065244 -0.13270982 -0.013092853 -0.012428073 -0.09165986 0.013486998 0.07284352 0.02796342
-0.0072933133 0.1801132 -0.07502061 -0.00454631 -0.073409855 -0.022116592 -0.021322409 0.058486246
-0.06791294 0.13822304 0.080869794 0.020434856 0.31796533 0.009500378 0.04630333 0.0065186997
-0.039924506 -0.14857763 0.081975386 -0.019821892 0.0681566 -0.10166987 -0.028784152 -0.01433982
-0.06166721 -0.04238774 -0.09366541 -0.012776084 -0.02204417 0.021132069 0.1978832 -0.027412158
0.14108111 0.16378169 0.00061151455 -0.02025918 -0.0981165 0.044563908 0.20572066 0.043835286
-0.043872256 -0.27332544 -0.008303565 0.054765 -0.0558548 -0.0045831823 -0.093365535 0.124418825

conv2.lin.weight f4 [64, 64]
00000000: 008c 94bd 6640 6bbd b8c8 32be 3d50 893e
00000010: 422b 1e3e f44b b3b8 5381 2c3d ca5e 553e
00000020: a6f2 18bd a586 8dbe b82b 533c 2c73 533e
00000030: 8efb f03d 63a1 2abe 1444 90bc 0ada ab3a
00000040: 55f3 bfbc 1ca5 97be 876f 08bd 94f7 76be
00000050: 37f1 533e 2d3a 63be 645b 25be 61f6 403e
00000060: 5b14 233e 9e18 29be fd94 4a3c fa73 20bd
00000070: d0f7 4ebd 014c 8f3e 3e05 f83d 3241 80bc
00000080: 2abb a43b 139d 903e 26ec 823e 1771 353e
00000090: 4258 02be 3b17 b0bb b921 c2bc dc77 4a3a
000000a0: c01a 48bd 10c0 b03e 5eab 053d aa9a a8be
000000b0: db1a 2c3e 8f79 18bb d9f0 b03e a0e7 d2bd
000000c0: 8318 abbe 577d 80be 70fe 623e fc1d 013e
000000d0: 8969 85bd 7c5b 8dbe fa92 e9be 14b3 e43d
000000e0: 2891 3fbe 075d 35bd d02d 853e 3f56 9c3d
000000f0: 11e5 f23c 1c02 fe3c 256c 99bd 35c0 2dbe
00000100: e3ff d13d f9e1 8e3d fa53 5d3e 0601 5fbe
00000110: 49a9 98be e4ac 41bd 789f 48bd ee30 22bd
00000120: 863d 433e 27c0 bb3e 1837 393e 7ff3 fdbd
00000130: 8e49 f83d 26df 243e 85dd 00be 0bd3 263c
00000140: 36a5 a43d ab97 c53d 0890 343d 2423 08be
00000150: cb8d 2bbd 44e1 b53d 4b7d d8bd bf14 92be
00000160: e4e7 663c a65a a73d cbb7 243e 5550 42be
00000170: e8fb 2d3e 468b 8cbe 91fc b3bd c1ee 13be
00000180: 9a67 8d3d 90e9 debc 3b69 9dbe 1aec ec3d
00000190: c740 1dbc 2ac9 16bc 2d03 51be 1da9 043e
000001a0: 5571 15bd 9eab 0fbe c1b6 3dbe 841f 76bd
000001b0: 435d b1bc 32b0 a0bd a879 42be bfee 953b
000001c0: 75f0 d03d 8257 063e 6d9e adbe 567c fa3d
000001d0: 6f5d 8d3e 21e1 5ebd 8a51 5b3e c1e0 7ebd
000001e0: 895d 41be 52fc a6bd 2e25 23be 23ea debd
000001f0: 98ca 37be 9fcf 05bc f35f 52bb 750b d13c
00000200: c566 5bbd 5210 17be bc17 babd 70a6 263d
00000210: c0a4 ebbb 1267 a7bd afdb 7abd 56c2 4dbe
00000220: 7d41 8a3e 7326 d63e e04e 913e 6903 d13d
00000230: fa9f aebc c02a 3d3d cdf9 15bd 52ee 4f3e
00000240: 3489 563e 9d48 d33e 1085 61be d2de b1bc
00000250: c126 1b3e eab5 44bd a461 a53d ceb3 8fbe
00000260: edf5 9dbe be86 9c3e 48fc e13d 8027 05bf
00000270: 6ab9 e03d 1a26 c4be cd30 acbe 25fe 1e3e
00000280: 336a 213d 5d4f 693d 01cd 143d 466d 25bd
00000290: cf35 77be 5a4b 5f3e f6c3 e63d 3a0f 3bbd
000002a0: 9baf 803e bb13 e9bd c3de 8ebd 66a6 81bd
000002b0: 74f6 cbbc a49e 24bd c8c0 863d f01e 5fbe
000002c0: 79a0 ab3d 48b7 2a3e 75e2 793d 2216 553e
000002d0: 853c 413e 43ea 90bc 72e4 a63e bc44 093e
000002e0: a13e 98bd 2c7b 9e3d 7221 593e 2ed1 86bd
000002f0: 4a2a 8d3e 9263 b2bc 2114 533e 7a7e 11be
00000300: 3af7 e0bd f5ea 043e f47e c2bb 8b7c 5d3e
00000310: 8ffa abbe b5d9 d6bd d42a 8e3d f816 85be
00000320: 1fe8 a53e 4f07 de3e 9f43 6c3d 324a 55be
00000330: 28d4 9d3d b777 d03b f1d5 c73e 9791 a8ba
00000340: c976 d43d 4544 ae3e 895c 30bd b23d 0dbc
00000350: 936f a53d c98f 6dbc 3688 5dbd 4ff0 0ebf
00000360: 55c7 adbe 878d 97bd d125 023e 1f48 9cbe
00000370: 1cc7 a63b 1084 76be abe1 21be a8ab 19be
00000380: 06fe 513d d98e e5bd 7ab2 8fbe acf2 5b3d
00000390: be79 d53d 0be1 e2bd c464 3c3e 2b9a a53d
000003a0: bf40 523e f96d 56bd 68ab ccbd 43c3 e33c
000003b0: 3402 8ebe 47a0 45bb 9bc8 68be c2a9 2e3d
000003c0: 82e1 ef3e 97b4 143b be26 4cbe e196 9e3d
000003d0: caa6 b13e c1cb 273d 7678 223f 4f08 52bd
000003e0: a18f 15be 4cc3 873e c141 203e 81ba 713e
000003f0: 826d e4bd e676 f33d e265 f6bd 83c5 113e
-0.072532654 -0.057434462 -0.1745938 0.2681903 0.15446189 -8.5495325e-05 0.04211552 0.2083694
-0.037340783 -0.27641788 0.012888841 0.20649403 0.1176673 -0.16663127 -0.017610587 0.0013111245
-0.02343146 -0.29618156 -0.033309486 -0.24117881 0.20697485 -0.22190161 -0.16148144 0.18843986
0.15925734 -0.16513297 0.012364623 -0.039173104 -0.0505293 0.27987674 0.12110375 -0.015656088
0.0050271945 0.28244838 0.25570792 0.17718922 -0.1272898 -0.005373863 -0.02369772 0.0007723549
-0.048853636 0.34521532 0.03263413 -0.329305 0.1680712 -0.0023265814 0.34558752 -0.10298085
-0.33417138 -0.25095627 0.22167373 0.12609094 -0.0651427 -0.2760886 -0.45619947 0.11166969
-0.18707716 -0.04427817 0.26011515 0.07633638 0.029650243 0.031006865 -0.0749133 -0.16967852
0.10253885 0.069766946 0.21614066 -0.21777734 -0.29816654 -0.047284022 -0.048980206 -0.039597444
0.19066438 0.36670038 0.18087423 -0.12399959 0.121234044 0.1610075 -0.12584503 0.0101821525
0.08039324 0.09648069 0.04408267 -0.13294655 -0.04188327 0.08880857 -0.10570773 -0.28531453
0.014093373 0.08171587 0.16085736 -0.18975957 0.16990626 -0.27450007 -0.087884076 -0.14446546
0.06904526 -0.02721098 -0.30744347 0.1156847 -0.009597964 -0.009203235 -0.20411368 0.12955137
-0.036485035 -0.1403031 -0.18526746 -0.06008865 -0.021650916 -0.078461066 -0.1899172 0.00457558
0.102021135 0.13119319 -0.33909932 0.122307464 0.27610347 -0.05441392 0.21417823 -0.06222606
-0.18883337 -0.08153595 -0.15932152 -0.10884502 -0.17948377 -0.0081671765 -0.0032100647 0.025518158
-0.053564806 -0.1475232 -0.09086558 0.04068607 -0.0071912706 -0.08173956 -0.061244663 -0.20093665
0.2700309 0.4182621 0.2838049 0.102057286 -0.021316517 0.046183348 -0.03661518 0.20305756
0.20950776 0.41266337 -0.22023416 -0.021712694 0.15151502 -0.04802505 0.08075264 -0.28066868
-0.3085169 0.3057155 0.11034447 -0.520134 0.10972865 -0.3831032 -0.33630982 0.15526636
0.03940792 0.056960452 0.03632832 -0.040387414 -0.2414162 0.21806088 0.11267845 -0.045668818
0.25133976 -0.113807164 -0.06976082 -0.06330566 -0.024897791 -0.040190354 0.06579739 -0.21789145
0.08380217 0.16671479 0.061006982 0.20809224 0.18870743 -0.01768983 0.32596165 0.13405126
-0.074338205 0.07738337 0.21204165 -0.065828666 0.27571326 -0.021775994 0.20613147 -0.14208403
-0.10984655 0.12980254 -0.005935544 0.2162954 -0.335896 -0.10490743 0.069417626 -0.25994086
0.32403657 0.4336495 0.057681676 -0.20829085 0.07706481 0.0063619274 0.39030412 -0.0012860772
0.10374219 0.3403646 -0.043057 -0.008620666 0.08077922 -0.014499613 -0.05408498 -0.5583543
-0.3394114 -0.07400041 0.12709738 -0.30523774 0.0050896537 -0.24073815 -0.15808742 -0.15006888
0.051267646 -0.11208887 -0.28065854 0.053698227 0.10423611 -0.1107808 0.18397814 0.08086046
0.20532511 -0.05235097 -0.09993631 0.027803069 -0.27736056 -0.0030155347 -0.22732775 0.042642362
0.46851736 0.0022690648 -0.19936654 0.077436216 0.34697562 0.0409658 0.6346506 -0.051277455
-0.14605571 0.26516187 0.15650083 0.23606302 -0.111536995 0.118879125 -0.12031151 0.14235501

conv2.lin_edge.weight f4 [64, 2]
00000000: 2c9c 91be 1164 2dbf 28c0 b1bc 5646 ef3e
00000010: 4bd1 36bd a786 063f ddb6 94bd 970c 0e3f
00000020: 0383 1b3e eb97 14be 9902 11be fe43 32bf
00000030: 4cf1 5fbe b06e 04bf a5e2 bb3c 64ca b3be
00000040: e536 e2bd ada7 1c3f 47f2 0f3e 0795 8bbd
00000050: 28c7 e2bd f92b 1e3f bc99 563e 27ae 53be
00000060: 7910 b73e a1df 213f 8949 1e3c 218c dabe
00000070: f2ac b2bc 0c13 d5be 5b99 103e a001 02bf
00000080: c8cc 41be dfc2 3a3e 30f6 33bc 390b e23e
00000090: 0bac cc3e 9321 2d3f 836c 2bbe 773b 243e
000000a0: dad0 b9bc 1600 a4be dcb4 c83d 1cf9 073f
000000b0: 35b3 7f3d 42b8 103f 9124 073e 9734 7bbe
000000c0: 4843 32be f4f2 0cbf 9f6a b53d c9a7 e03e
000000d0: 55fc 62be d827 13bf b0cc 73bc 4b1f 1f3f
000000e0: 4fd2 843d 1ebd e3be 7c7e 053e 5996 27bf
000000f0: 3a76 b2bd d6d4 193f 97c8 42bd a844 85be
00000100: 622f 99bd 20e2 04be b8d3 84bb ac83 9c3e
00000110: ec0f 7ebd 00a5 0b3f c5ea 99bd 1a67 f43e
00000120: 9b81 4bbe 4da5 2bbe 2318 02bc 689b c1be
00000130: f473 a2bb d65b d53e 4406 333c 6169 9fbe
00000140: 89f7 a4bd 9d56 113f 9bee a83d daf2 0ebf
00000150: 531b a53d e2bd 96be d902 263c dc7d cebe
00000160: 6cbc 0b3e 2123 adbd 94c1 0d3e 1927 dcbe
00000170: 0b60 7abd a1ad be3e 5846 9fbd df95 b9be
00000180: 0f7c f53d d655 e13e db89 803e 207e 1e3f
00000190: 1c15 593b 2ba5 233f 2044 af3d b288 09bf
000001a0: b61d da3d 6cd5 cbbe 69ff 963e eaf4 833e
000001b0: bc7c 0c3e 7e82 8ebd 7e81 bdbc 3064 dcbe
000001c0: 22ff dcbd 0a3b 063f 3dc2 a83e afd5 cb3e
000001d0: 6765 efbb c621 9cbe f0e4 6f3d 86e9 da3e
000001e0: 574e 05be d0b2 1e3f 3a7d 93be 84f2 3fbe
000001f0: f1bb 153d 79de dd3e b6cc 533e da21 233f
-0.28439462 -0.67730814 -0.021698073 0.4673335 -0.04463319 0.52549213 -0.07261441 0.5548796
0.15186696 -0.14511077 -0.14161147 -0.69635 -0.21869391 -0.51731396 0.022935221 -0.3511535
-0.110456266 0.6119335 0.14057265 -0.06815534 -0.11073142 0.61785847 0.20957083 -0.20671903
0.35754755 0.63231856 0.009661087 -0.42685035 -0.021810982 -0.41616094 0.14121 -0.5078373
-0.18925774 0.182384 -0.010983989 0.44149187 0.39975008 0.67629355 -0.16740613 0.16038309
-0.022682596 -0.32031316 0.09800121 0.53114486 0.062426765 0.56531155 0.13197543 -0.2453178
-0.17408478 -0.5505822 0.08858227 0.4387801 -0.2216657 -0.5748267 -0.014880344 0.62157124
0.06485426 -0.44480222 0.13036531 -0.6546379 -0.08713956 0.60090387 -0.04755458 -0.26028943
-0.07479741 -0.12976885 -0.004053559 0.30569208 -0.062026903 0.54548645 -0.07515482 0.4773491
-0.1987366 -0.16762276 -0.007940325 -0.37813878 -0.0049576703 0.41671628 0.010926787 -0.31135085
-0.08055026 0.56772786 0.082486354 -0.5583931 0.08061852 -0.29441744 0.010132515 -0.40330398
0.13646096 -0.08453966 0.13843375 -0.4299858 -0.06112675 0.37241843 -0.07777089 -0.36247155
0.11986553 0.440108 0.25105175 0.619112 0.0033124154 0.639239 0.08557916 -0.53724205
0.10650198 -0.39811265 0.29491737 0.25772792 0.13719457 -0.06958483 -0.023133036 -0.43045187
-0.1079085 0.52433836 0.32960692 0.39811465 -0.0073057893 -0.30494517 0.05856794 0.4275629
-0.13018166 0.61991596 -0.28806478 -0.18744856 0.036556188 0.43333796 0.2068356 0.6372353

fc.weight f4 [2, 64]
00000000: bc02 e03c 2e21 05be 110e 0d3d 2269 843d
00000010: 53e4 513e 2ba5 803d 1461 87bd d3c0 1bbd
00000020: cb7f 3a3d 8ce6 bb3d b83f 413d 53fb a0bc
00000030: e74b 87bd dd86 123e 7779 43bd 73a5 c9bd
00000040: 5f96 503c 9157 913d 3ad0 62bd 3abc d93d
00000050: b06c 7fbd d747 52bc 63b2 d1bb 8139 10bc
00000060: 0422 343d a934 39bd fa4f 3cbd 6203 453d
00000070: 9837 21bd 725c e5bc 4e34 b3bc 1249 e5bd
00000080: bca9 f33d 2da6 db3d bc20 36bd ba43 4c3d
00000090: 778b ff3c 64f6 953c 419b 0ebd 73cb a9bd
000000a0: f2de 6b3c 683f 0cbd 43cd 5f3d 5ad1 ecbd
000000b0: 1ce6 56bd f2b9 2b3c bdac 8f3c b591 6fbd
000000c0: 496f bc3c 90f6 763d f5d3 04bd dcf5 42bd
000000d0: cf2c 4e3d 8536 cbbd 5db7 e03d 2623 93bc
000000e0: 8985 a3bd e929 82bc 16bf afbd 7448 943d
000000f0: d04d 35bd c415 463d e565 28bc 98ce 27bc
00000100: ad33 e53b e5f5 bebd 5c92 8d3c 7800 833d
00000110: 14b6 6dbe a4f5 603d 8ce2 5bbd cea4 a3bd
00000120: 79d8 e73c 9f39 e73d ab51 383d 4c97 1cbd
00000130: b948 9ebc 3e1b 59be 3be1 cabc 1052 bbbd
00000140: 4fa4 1c3c d39e 813d 16ae 24bd 3ef5 ee3d
00000150: 9408 ecbc f816 2ab9 624b 453b 7730 38bb
00000160: b1e3 213d 1a59 4dbd e82e 27bd 69c6 823d
00000170: 4356 77bd 1558 0ebc abfb bebc 66e0 f1bd
00000180: 284a de3d 8a8e d33d 4de0 62bd 41cb 673d
00000190: 88f5 ba3c 0809 b53c 9a5c 6abd 3474 f8bc
000001a0: 7c58 aebc 15c7 54bd 8f56 4a3d 1778 0d3e
000001b0: 1e3b 21bd 79bd 5b3c 525e 7bbc 124c a4bd
000001c0: 27dd ff3c 8451 a13d 7408 72bd 81d7 70bd
000001d0: cd5e ea3c b7a2 cebd 3d80 df3d 1778 0bbd
000001e0: cdbc 8bbd 7afa 3d3c a332 0fbd d16b 763d
000001f0: c932 e0bc 4f86 263d 528d 813c 6ac9 81bc
0.027345054 -0.13000938 0.034437243 0.06465365 0.20497255 0.06281503 -0.06610313 -0.03802569
0.04553203 0.09174833 0.047179908 -0.01965109 -0.06606274 0.14309259 -0.04772326 -0.0984601
0.012731164 0.0709678 -0.05537436 0.106316045 -0.06235951 -0.012834511 -0.006399439 -0.0088027725
0.043977752 -0.045216236 -0.04597471 0.04809893 -0.03935966 -0.027998183 -0.021875527 -0.11195578
0.11897609 0.10725055 -0.04446481 0.049869277 0.031194432 0.018305965 -0.03481603 -0.08290758
0.014396416 -0.034240156 0.054639112 -0.11563368 -0.052465543 0.010481345 0.017538423 -0.058488566
0.023002284 0.060293734 -0.0324287 -0.04759775 0.0503357 -0.09922508 0.10972474 -0.017961096
-0.07984454 -0.015889125 -0.085813686 0.07240382 -0.04426366 0.0483606 -0.0102782 -0.010242127
0.0069946856 -0.093242444 0.017281704 0.06396574 -0.23213989 0.05492176 -0.05368285 -0.079904184
0.028301464 0.11290287 0.04499976 -0.038230225 -0.019321786 -0.21201798 -0.024765601 -0.091465116
0.009560659 0.063291214 -0.040205084 0.1166787 -0.028812684 -0.0001622102 0.0030104746 -0.002810506
0.039523784 -0.050133802 -0.040816218 0.063855 -0.060385 -0.008687993 -0.023313364 -0.11810379
0.10853988 0.103299215 -0.05538969 0.056590322 0.022822157 0.022099033 -0.057217218 -0.030328847
-0.021282427 -0.051947672 0.049398955 0.13815342 -0.03936302 0.013411873 -0.015342312 -0.08022322
0.031233383 0.07876876 -0.059090093 -0.05879927 0.028609658 -0.10089629 0.109131314 -0.034050073
-0.0682312 0.011595363 -0.0349604 0.060161415 -0.027367966 0.04065543 0.015814457 -0.015843112

fc.bias f4 [2]
00000000: d3b5 313e 1362 82be
0.17354517 -0.2546545
