saved_models/gcn10_slic.pt (torch, 21158 bytes, 6 tensors)

conv1.bias f4 [64]
-0.33345875 -0.54323053 -0.58101207 -0.09116422 -0.5299118 -0.014400357 -0.41877943 -0.4429395
-0.08158454 -0.5002106 -0.19345349 -0.371764 0.053026408 -0.2382912 -0.09555032 -0.3646416
-0.07302013 -0.15377115 -0.035017505 -0.38480747 -0.52299577 -0.44046286 -0.16379194 -0.23909251
-0.15349913 -0.28977722 -0.17840174 -0.21678813 -0.11000932 -0.20572737 -0.5656579 -0.09331564
-0.17894582 -0.26513883 -0.39047825 -0.58082986 -0.42283976 0.016273811 -0.2919637 -0.24529433
-0.38097212 -0.2693089 -0.52865744 -0.42962235 -0.46791157 -0.15930337 -0.4885383 -0.33104488
-0.3661329 -0.06385944 -0.1873841 -0.24217361 -0.24930382 -0.10416709 -0.63166744 -0.5244095
-0.29876792 -0.2560561 -0.12970893 -0.39832976 -0.28352904 -0.43557596 0.008735773 -0.3841934
00000000: 1bbb aabe 2811 0bbf 35bd 14bf 4eb4 babd
00000010: 4da8 07bf 7aef 6bbc 426a d6be f7c8 e2be
00000020: cc15 a7bd cd0d 00bf ac18 46be da57 bebe
00000030: 3832 593d 9c02 74be e3af c3bd 4eb2 babe
00000040: 948b 95bd 2f76 1dbe 846e 0fbd 7c05 c5be
00000050: 0de3 05bf 5984 e1be 13b9 27be abd4 74be
00000060: e02e 1dbe ae5d 94be f2ae 36be b5fd 5dbe
00000070: 914c e1bd 32aa 52be f5ce 10bf 451c bfbd
00000080: 933d 37be 47c0 87be c4ec c7be 44b1 14bf
00000090: 747e d8be a850 853c 447c 95be 702e 7bbe
000000a0: c70e c3be dbe2 89be 1856 07bf 76f7 dbbe
000000b0: 1b92 efbe 6c20 23be b121 fabe b77e a9be
000000c0: c575 bbbe bdc8 82bd 9ee1 3fbe 5cfc 77be
000000d0: 8049 7fbe 8e55 d5bd f5b4 21bf b33f 06bf
000000e0: 1cf8 98be c919 83be 6bd2 04be e1f1 cbbe
000000f0: b82a 91be d003 dfbe 7d20 0f3c ffb4 c4be

conv1.lin.weight f4 [64, 4]
-0.16227347 0.19277237 -0.3566274 -0.2750985 -0.018211504 0.30765504 -0.056327015 0.23936212
0.016980117 0.19524604 -0.17365307 -0.20269828 0.49786127 -0.26470572 -0.012718314 -0.09116762
0.04127128 0.22383012 -0.061077207 -0.34351608 0.58077693 -0.24262765 0.004572095 0.29226327
-0.025783995 -0.32737854 -0.45756638 -0.040403128 -0.08404187 0.27513406 -0.04068388 -0.33492118
0.5380975 -0.24978782 0.021851167 -0.09166484 0.2318858 0.017747996 -0.008097263 -0.21542943
0.054512102 -0.03705427 0.04254213 -0.018746456 -0.22017321 0.39927202 -0.023873478 -0.3092802
0.61112964 -0.010379886 -0.12139885 -0.19606808 0.030717181 0.003793971 0.021372464 0.021366652
0.3746667 -0.063343585 0.013059847 0.0027429317 -0.25071606 -0.043297034 -0.44780883 -0.04711955
0.6438284 -0.23883368 -0.00529746 -0.039722253 -0.3335628 0.50465643 -0.37273866 -0.44033143
0.41754937 0.012888479 -0.26956338 -0.056951992 -0.20884286 0.24183632 -0.322552 -0.33274043
0.08876397 0.1707554 -0.027369076 -0.2844006 -0.043695528 0.24358994 -0.044730633 -0.29903308
0.32040915 -0.121971816 -0.15053132 -0.007634564 -0.03373559 0.063873366 -0.00544241 -0.022000464
-0.091287635 0.08813281 0.006806681 -0.007498507 0.115781076 -0.10609994 0.07202289 -0.066998556
0.3950135 -0.35319892 0.07431482 -0.074014716 0.26228723 -0.21085992 0.031648498 -0.01533742
-0.28861645 0.49378857 -0.47222868 -0.5069537 0.2877149 -0.21794696 0.003121329 -0.02344066
0.0065239654 0.1983665 -0.17689413 -0.21296015 0.56318647 -0.2340889 0.024716016 -0.09536643
0.15053809 -0.1538391 0.0049936622 0.00013416668 -0.05939515 -0.07154781 -0.6180297 -0.27675048
-0.17731856 0.26143765 0.058027048 -0.051148593 0.23962879 0.06723977 -0.026964286 -0.28099847
-0.10422335 0.10446851 -0.30412462 -0.25931108 0.24275924 -0.11683168 -0.18622068 0.2795403
-0.25389862 0.31630975 -0.3909512 -0.21021983 -0.27455541 0.39923748 -0.14500955 -0.39568794
-0.15495019 0.33124396 -0.05254448 -0.2902142 0.2917736 -0.23553921 0.020394892 -0.024310715
0.17622888 0.08554621 -0.014815948 -0.2425412 -0.113803335 0.30946743 -0.03665868 -0.32222402
-0.17109351 0.42662147 -0.03302234 0.23113626 0.051135954 -0.041130636 -0.008899924 0.05019139
0.020667419 0.2002951 -0.033858847 -0.27277163 -0.060159788 0.08742559 0.07143363 -0.07915429
-0.1870233 0.32225475 -0.02761627 -0.18871951 0.57213473 -0.23796721 -0.005143182 -0.07516988
0.14412223 -0.13324632 -0.013002536 0.013669618 0.07932278 -0.07520006 -0.008691757 0.07509793
-0.15189897 0.33611342 -0.3568149 -0.6302445 0.5065415 -0.067995995 -0.024631258 -0.018985802
0.18469763 0.08898666 -0.19263102 -0.19493958 -0.06642339 0.34372893 -0.061464887 0.23935518
-0.148775 0.19831853 -0.47656062 -0.24700536 -0.25116846 0.34169725 -0.4989596 -0.2458069
-0.26621813 0.4143824 -0.5697265 -0.39918286 -0.16379918 0.33339542 -0.01758386 -0.34136456
-0.1712793 0.23629971 -0.47772342 -0.24883987 -0.13049695 0.120253064 -0.29717392 -0.26737228
0.47122324 -0.095791504 -0.17016138 0.058893967 -0.0009908071 -0.31237602 -0.38983375 -0.025658038
00000000: 042b 26be 1f66 453e de97 b6be b6d9 8cbe
00000010: 4b30 95bc f684 9d3e 28b7 66bd 581b 753e
00000020: e319 8b3c 94ee 473e 1cd2 31be 2390 4fbe
00000030: ace7 fe3e 8287 87be 7a60 50bc 17b6 babd
00000040: 130c 293d b933 653e 182c 7abd 57e1 afbe
00000050: ccad 143f 6273 78be 83d1 953b 88a3 953e
00000060: f538 d3bc 299e a7be 2446 eabe c07d 25bd
00000070: 251e acbd 5fde 8c3e 24a4 26bd ca7a abbe
00000080: c2c0 093f 61c8 7fbe 3801 b33c c7ba bbbd
00000090: 7973 6d3e 3f64 913c 62aa 04bc 8899 5cbe
000000a0: 1548 5f3d 38c6 17bd a840 2e3d 2b92 99bc
000000b0: 1675 61be 626d cc3e 5092 c3bc f959 9ebe
000000c0: fe72 1c3f 6610 2abc f69f f8bd 12c6 48be
000000d0: 99a2 fb3c 45a4 783b 4e15 af3c 1e09 af3c
000000e0: 50d4 bf3e 48ba 81bd f8f8 553c c2c2 333b
000000f0: db5d 80be 3b58 31bd 3347 e5be 6e00 41bd
00000100: f0d1 243f d190 74be 5196 adbb cdb3 22bd
00000110: bec8 aabe 2a31 013f 9ad7 bebe 1f73 e1be
00000120: 08c9 d53e 332a 533c 3604 8abe 7e46 69bd
00000130: e7da 55be f1a3 773e 8925 a5be f45c aabe
00000140: e2c9 b53d 81da 2e3e 1d35 e0bc f59c 91be
00000150: 15fa 32bd a46f 793e 7837 37bd dd1a 99be
00000160: ab0c a43e 5ccc f9bd e224 1abe 5d2b fabb
00000170: 542e 0abd 0ad0 823d 3e56 b2bb 513a b4bc
00000180: 03f5 babd fa7e b43d 940a df3b 09b6 f5bb
00000190: a11e ed3d ed4a d9bd bd80 933d 8a36 89bd
000001a0: 363f ca3e 7dd6 b4be 5e32 983d 0795 97bd
000001b0: 834a 863e aaeb 57be dba1 013d cd49 7bbc
000001c0: 89c5 93be dbd1 fc3e f5c7 f1be b8c7 01bf
000001d0: 5e4f 933e 7d2d 5fbe 368f 4c3b a106 c0bc
000001e0: fdc6 d53b 9620 4b3e bc23 35be 3a12 5abe
000001f0: fd2c 103f 00b5 6fbe 3e79 ca3c 7a4f c3bd
00000200: a826 1a3e ff87 1dbe e0a1 a33b 18af 0c39
00000210: 5448 73bd a987 92bd 3237 1ebf 3db2 8dbe
00000220: ff92 35be 28db 853e c5ad 6d3d 3081 51bd
00000230: 4061 753e 01b5 893d 35e4 dcbc 08df 8fbe
00000240: 0d73 d5bd 96f3 d53d 39b6 9bbe 6cc4 84be
00000250: e195 783e 7345 efbd a2b0 3ebe e81f 8f3e
00000260: 00ff 81be 5af3 a13e c12a c8be de43 57be
00000270: 8792 8cbe db68 cc3e 627d 14be 9c97 cabe
00000280: 43ab 1ebe cf98 a93e e138 57bd f596 94be
00000290: 5963 953e 3131 71be 3013 a73c 4427 c7bc
000002a0: 5875 343e da32 af3d 97be 72bc b85c 78be
000002b0: b911 e9bd 8472 9e3e 6927 16bd 8cfa a4be
000002c0: 2333 2fbe 216e da3e 6f42 07bd fcae 6c3e
000002d0: ef73 513d 9978 28bd fdd0 11bc 7d95 4d3d
000002e0: b84e a93c 291a 4d3e 93af 0abd b9a8 8bbe
000002f0: 1c6a 76bd 300c b33d cc4b 923d a51b a2bd
00000300: 0983 3fbe 93fe a43e 843b e2bc b03f 41be
00000310: 6c77 123f adad 73be 2388 a8bb abf2 99bd
00000320: c794 133e b971 08be 9708 55bc 89f6 5f3c
00000330: fb73 a23d 7d02 9abd df67 0ebc f2cc 993d
00000340: 678b 1bbe 0f17 ac3e 71b0 b6be b457 21bf
00000350: b4ac 013f 7c41 8bbd 7ec7 c9bc 1d88 9bbc
00000360: 6021 3d3e a33e b63d 1141 45be 3e9e 47be
00000370: fc08 88bd 3dfd af3e 9bc2 7bbd 8619 753e
00000380: 7958 18be 0314 4b3e c1ff f3be f9ee 7cbe
00000390: 2799 80be f1f2 ae3e a277 ffbe ceb4 7bbe
000003a0: be4d 88be ee29 d43e 99d9 11bf b261 ccbe
000003b0: f9ba 27be ceb2 aa3e 070c 90bc 56c7 aebe
000003c0: d763 2fbe 8df8 713e 2a98 f4be e1cf 7ebe
000003d0: fea0 05be 3d47 f63d 2e27 98be 05e5 88be
000003e0: 2c44 f13e 562e c4bd c93e 2ebe cd3a 713d
000003f0: f8dd 81ba c0ef 9fbe 4a98 c7be ce30 d2bc

conv2.bias f4 [64]
0.0051006167 0.0039263633 -0.037709795 0.011790995 0.0065220552 0.015804738 -0.019683704 0.026395079
-0.00087533897 0.11093297 0.013971032 0.02373615 0.0046047256 0.018197613 -0.018131865 -0.02928989
0.054426648 -0.03412002 -0.0072142696 -0.047011886 0.024537742 -0.12091442 -0.15211074 -0.042208698
-0.13709977 -0.016478945 -0.03441202 0.021115234 0.005521355 0.036866996 0.03327356 -0.04603165
0.024717066 -0.0034145045 -0.01639259 0.036431383 0.020257745 -0.04830836 5.4351545e-05 0.028207116
0.0075878007 0.008596306 0.03727783 0.015511135 0.00736838 -0.01365096 0.04545564 0.013331164
0.023903282 0.023930766 -0.0015795727 0.0020326374 0.024096284 0.04786694 -0.073840916 0.012812132
-0.046434514 0.0040163347 -0.064457476 0.00071456784 -0.0101728495 0.019939816 0.0009781647 -0.064045176
00000000: 1323 a73b b9a8 803b 9675 1abd 042f 413c
00000010: f7b6 d53b f078 813c b83f a1bc 7e3a d83c
00000020: 0177 65ba d330 e33d c1e6 643c 5072 c23c
00000030: 3de3 963b 2913 953c 4789 94bc 5af1 efbc
00000040: 7aee 5e3d 6fc1 0bbd ae65 ecbb 898f 40bd
00000050: 6003 c93c fba1 f7bd ebc2 1bbe 07e3 2cbd
00000060: e263 0cbe dafe 86bc 9ef3 0cbd dbf9 ac3c
00000070: 7cec b43b d901 173d db49 083d af8b 3cbd
00000080: 727b ca3c e1c5 5fbb c149 86bc 1339 153d
00000090: 92f3 a53c fdde 45bd 87f7 6338 9c12 e73c
000000a0: 16a3 f83b 85d7 0c3c a3b0 183d 6a22 7e3c
000000b0: 7472 f13b 47a8 5fbc b12f 3a3d f46a 5a3c
000000c0: d1d0 c33c 740a c43c aa09 cfba ff35 053b
000000d0: 9265 c53c 2010 443d e839 97bd fae9 513c
000000e0: 1e32 3ebd 759b 833b 4802 84bd d651 3b3a
000000f0: 06ac 26bc d358 a33c c335 803a 1e2a 83bd

conv2.lin.weight f4 [64, 64]
-0.08069435 0.14165522 0.30431163 0.1459498 0.17575997 -0.009124502 -0.245838 0.038849946
-0.04887915 0.13505548 0.013237519 0.27573818 -0.4551658 0.09580038 0.5013258 -0.3880644
0.006919909 0.18885487 0.024135027 0.087298594 0.4881316 -0.083367586 0.13482621 -0.2125837
0.21061128 -0.07588993 -0.024084447 0.33444804 0.12332126 -0.17801067 0.21301688 -0.011839189
-0.17336272 -0.083897315 -0.13359275 0.20380683 -0.10887643 0.24924362 -0.0978605 0.079408884
0.13213441 -0.2632443 0.47363073 -0.17195791 0.11633748 0.018254604 0.26032165 -0.28037155
0.2453387 -0.018551875 0.16845337 0.11530261 -0.12390925 0.2694057 0.47235253 0.14707069
0.041583627 0.14689153 0.08854122 -0.13246818 0.12468739 -0.12847935 0.023956262 -0.057630483
-0.028027395 -0.022614313 0.51326275 0.053957116 0.12113331 0.03204863 0.17582908 0.48139215
-0.20818116 0.19441941 -0.055621523 0.3565449 -0.17238495 -0.047118753 -0.21759558 0.02245971
0.055855747 0.033447012 0.110718474 0.33452663 0.31212905 0.09807509 0.106534764 -0.12241556
0.07947739 0.07567769 0.2729763 -0.038138967 -0.06336881 0.048626836 0.30051312 -0.14583312
-0.07124882 -0.17675894 0.06510086 -0.16815503 0.27996644 0.15011014 -0.022753995 -0.23282646
0.24206422 -0.004390623 0.0537337 0.33985233 -0.057924867 0.0074693398 0.09144959 0.03451331
0.13195133 -0.2197206 -0.037509255 -0.10550729 -0.19974647 0.16289066 0.18500908 -0.23025738
0.14209996 -0.13887717 -0.23664661 -0.03746689 -0.022873724 0.34533134 0.055414177 -0.4307287
-0.11227016 -0.09543714 0.0338147 0.24373467 0.28816572 -0.07401042 0.041589953 -0.03391552
-0.15189947 0.2596499 0.08005093 0.08202357 -0.18842098 0.120821275 -0.20195077 0.04051604
-0.059187863 -0.0740572 0.2451365 0.20026065 -0.0029539424 -0.32936564 0.3528314 0.11197147
-0.078157924 0.14524737 -0.0048519704 0.23517777 -0.033200108 -0.15637793 0.3802563 -0.014866491
0.11007897 -0.07381475 0.21524394 0.2137123 -0.061181918 0.3826701 -0.03944784 0.25946456
0.045337357 0.06817711 0.2518775 -0.012116001 -0.06183125 0.069549 -0.26069036 0.12121588
0.007432424 0.0554077 0.024329018 0.17919171 0.24312964 0.049712665 0.4415553 0.12860343
0.21815008 0.03256775 -0.048636388 0.16908707 -0.18291524 -0.11274571 -0.033227004 -0.3774506
0.14885299 0.06352737 0.1846329 0.010323933 0.01096833 -0.023309428 0.10004951 0.1476621
0.10654702 -0.046721205 -0.02048582 -0.36266077 -0.002905701 0.042863473 0.06703327 -0.072333105
-0.23156594 -0.053268313 0.26068226 -0.11724287 -0.0591938 0.05147839 -0.22417152 -0.03432321
-0.18055308 -0.34834057 -0.2706827 -0.1877347 0.13407926 -0.109677225 -0.0920713 0.06395965
0.037458863 -0.07609346 -0.346412 -0.015952058 0.25959006 -0.2100968 -0.07410495 -0.062219705
-0.3666967 -0.22371583 0.0175695 -0.27147073 -0.26861313 0.22379173 -0.04563602 -0.37116304
-0.30307093 0.13606228 -0.10840326 -0.35462552 -0.08901794 0.40287462 -0.07491929 -0.08967023
0.21645708 0.38150966 0.31473023 -0.034234114 0.17648345 -0.11484975 0.03602934 0.26937878
00000000: 1443 a5bd 110e 113e bcce 9b3e dd73 153e
00000010: 6cfa 333e ef7e 15bc f5bc 7bbe 1f21 1f3d
00000020: 8135 48bd fc4b 0a3e 2ee2 583c 8e2d 8d3e
00000030: 7e0b e9be fd32 c43d e356 003f 61b0 c6be
00000040: 67c0 e23b 2c63 413e d2b6 c53c 9bc9 b23d
00000050: 63ec f93e a0bc aabd e20f 0a3e 8baf 59be
00000060: 7caa 573e 2e6c 9bbd bf4c c5bc c63c ab3e
00000070: db8f fc3d 6e48 36be 1921 5a3e 28f9 41bc
00000080: ff85 31be 5bd2 abbd 8acc 08be bdb2 503e
00000090: 9bfa debd b839 7f3e 166b c8bd 20a1 a23d
000000a0: 3e4e 073e f5c7 86be ba7f f23e bc15 30be
000000b0: 5842 ee3d ae8a 953c e148 853e dc8c 8fbe
000000c0: 113a 7b3e 1afa 97bc 0a7f 2c3e c623 ec3d
000000d0: 22c4 fdbd 8bef 893e 31d8 f13e b399 163e
000000e0: 9853 2a3d bc6a 163e 1955 b53d bda5 07be
000000f0: 1a5c ff3d 1790 03be ec3f c43c f10d 6cbd
00000100: b599 e5bc a741 b9bc 3065 033f 2302 5d3d
00000110: be14 f83d 6d45 033d 8a0c 343e 0879 f63e
00000120: 712d 55be e215 473e 65d3 63bd 0e8d b63e
00000130: ae85 30be 98ff 40bd 60d1 5ebe 6dfd b73c
00000140: ffc8 643d bcff 083d 5ec0 e23d 1347 ab3e
00000150: 61cf 9f3e 98db c83d e62e da3d 02b5 fabd
00000160: 0bc5 a23d e8fc 9a3d 8dc3 8b3e 9b37 1cbd
00000170: 82c7 81bd ef2c 473d dbdc 993e 4755 15be
00000180: e7ea 91bd 4c00 35be 9a53 853d d530 2cbe
00000190: c357 8f3e 79b6 193e 9666 babc 0f6a 6ebe
000001a0: afdf 773e 37df 8fbb de17 5c3d 2001 ae3e
000001b0: a042 6dbd 5dc1 f43b ec49 bb3d d45d 0d3d
000001c0: 401e 073e 70fe 60be 4ea3 19bd 3514 d8bd
000001d0: 578a 4cbe cfcc 263e 0573 3d3e 97c8 6bbe
000001e0: a782 113e d135 0ebe 7d53 72be e276 19bd
000001f0: ad61 bbbc 45cf b03e faf9 623d 7988 dcbe
00000200: e6ed e5bd 8c74 c3bd 4881 0a3d 9595 793e
00000210: 758a 933e c692 97bd 3a5a 2a3d 00eb 0abd
00000220: 898b 1bbe d5f0 843e bef1 a33d f9fb a73d
00000230: 6ef1 40be 2571 f73d 2fcc 4ebe 26f4 253d
00000240: f96e 72bd 4dab 97bd 1005 7b3e 2111 4d3e
00000250: ee96 41bb 9da2 a8be 51a6 b43e 4c51 e53d
00000260: 4311 a0bd babb 143e 47fd 9ebb 71d2 703e
00000270: d6fc 07bd 8921 20be f4b0 c23e 9592 73bc
00000280: 1571 e13d 302c 97bd e868 5c3e 66d7 5a3e
00000290: e499 7abd 56ed c33e 0f94 21bd 8ad8 843e
000002a0: aab3 393d 71a0 8b3d 16f6 803e 3182 46bc
000002b0: c442 7dbd b56f 8e3d 3579 85be 0840 f83d
000002c0: b18b f33b 2ff3 623d a64d c73c 087e 373e
000002d0: faf6 783e 829f 4b3d 8913 e23e 9eb0 033e
000002e0: bc62 5f3e c365 053d f336 47bd 2925 2d3e
000002f0: 224e 3bbe 39e7 e6bd 0a19 08bd 3441 c1be
00000300: eb6c 183e a31a 823d 6810 3d3e b725 293c
00000310: 83b4 333c 6af3 bebc c2e6 cc3d bc34 173e
00000320: 5335 da3d bc5e 3fbd e1d1 a7bc acae b9be
00000330: 936d 3ebb 9c91 2f3d bd48 893d 6123 94bd
00000340: 9f1f 6dbe e02f 5abd 2578 853e 081d f0bd
00000350: 3375 72bd 01db 523d 388d 65be 7f96 0cbd
00000360: e8e2 38be b259 b2be ec96 8abe 863d 40be
00000370: 134c 093e 749e e0bd e18f bcbd 47fd 823d
00000380: 776e 193d e3d6 9bbd ea5c b1be e4ad 82bc
00000390: fde8 843e 9e23 57be 56c4 97bd 17da 7ebd
000003a0: abbf bbbe c315 65be e9ed 8f3c 36fe 8abe
000003b0: a987 89be a929 653e d6ec 3abd 1509 bebe
000003c0: 1d2c 9bbe e953 0b3e 8702 debd 7a91 b5be
000003d0: 0a4f b6bd 9545 ce3e 496f 99bd 07a5 b7bd
000003e0: eda6 5d3e 3c55 c33e 5224 a13e 1239 0cbd
000003f0: 14b8 343e 5936 ebbd 8093 133d 04ec 893e

fc.weight f4 [2, 64]
0.030942995 0.024953555 0.028116439 0.020044724 -0.06459155 0.019628381 0.030767793 -0.055751722
0.04791293 0.18504047 0.09748419 0.047123145 0.02952714 -0.04807411 0.021151857 -0.05214574
0.0923704 0.09017211 -0.016888514 0.002152508 0.04547849 -0.19678959 -0.02241648 -0.022159021
-0.22505075 0.025755364 0.057568405 -0.036846157 -0.0075952546 0.06569845 0.007219641 0.0154886255
-0.04173985 -0.09729896 0.041230228 0.0016795975 0.026247215 0.033914115 0.044011895 0.008215898
0.0022112206 0.0025260746 -0.013868008 -0.015807947 -0.08611911 -0.09129444 0.06719283 -0.023795977
-0.048135288 0.09801158 0.026424611 -0.0022871708 -0.005029849 -0.048629865 -0.11434683 0.09347379
0.023822192 -0.015860554 0.045369696 -0.0073772394 0.026573213 -0.12523429 -0.058031086 0.07730562
-0.0118658515 0.042695332 0.01623237 -0.023717947 -0.034067757 -0.017597612 0.047862235 -0.03744952
0.0025587901 -0.16085972 0.09004744 0.03496139 0.025237832 -0.056166537 0.018663444 -0.095441885
0.039254647 0.07626336 0.005804816 0.017017646 0.05372872 0.11053193 -0.03382921 0.003259907
0.1355336 0.047441904 0.01577906 0.05056264 0.011320135 0.013930939 0.031635433 0.037107978
0.0014427417 -0.07615086 0.031954467 -0.030137142 0.018383622 0.035505686 0.03940306 0.017250193
-0.027057417 -0.05956169 -0.023406534 -0.029780194 -0.09663824 -0.10799818 0.05880225 -0.008227161
-0.055597357 0.077765174 0.02818935 -0.014517197 -0.011136458 -0.04009475 -0.08539333 0.087296195
-0.059168335 -0.04672687 0.05424773 -0.021082776 0.03434891 -0.054758657 -0.022868766 0.11955504
00000000: 2a7c fd3c 666b cc3c 7254 e63c d534 a43c
00000010: 9348 84bd b3cb a03c bd0c fc3c eb5b 64bd
00000020: 5940 443d 407b 3d3e caa5 c73d 3304 413d
00000030: e7e2 f13c 5ce9 44bd a946 ad3c c596 55bd
00000040: b12c bd3d 28ac b83d c859 8abc 1711 0d3b
00000050: a747 3a3d 3683 49be c4a2 b7bc d686 b5bc
00000060: b473 66be eafc d23c d9cc 6b3d ffeb 16bd
00000070: 9de1 f8bb e98c 863d bd92 ec3b 01c4 7d3c
00000080: 68f7 2abd ad44 c7bd 07e1 283d f125 dc3a
00000090: 6604 d73c 87e9 0a3d d145 343d f99b 063c
000000a0: 20ea 103b 808c 253b a436 63bc ab7f 81bc
000000b0: 375f b0bd 94f8 babd 659c 893d c8ef c2bc
000000c0: 8229 45bd 4cba c83d 6d78 d83c 5ce4 15bb
000000d0: 6ed1 a4bb 1c30 47bd ac2e eabd 306f bf3d
000000e0: c226 c33c feed 81bc 93d5 393d c5bc f1bb
000000f0: 11b0 d93c 6b3d 00be 01b2 6dbd 6952 9e3d
00000100: fd68 42bc 4de1 2e3d bff9 843c 244c c2bc
00000110: a28a 0bbd de28 90bc 310b 443d ab64 19bd
00000120: 60b1 273b 69b8 24be cb6a b83d ad33 0f3d
00000130: 92bf ce3c e20e 66bd 14e4 983c 0977 c3bd
00000140: 7bc9 203d f72f 9c3d 5336 be3b 9768 8b3c
00000150: a512 5c3d 915e e23d 7f90 0abd 2aa4 553b
00000160: 52c9 0a3e 7152 423d 1643 813c c51a 4f3d
00000170: 1678 393c 983e 643c 2894 013d 89fe 173d
00000180: 611a bd3a fbf4 9bbd b0e2 023d 2be2 f6bc
00000190: 4099 963c 696e 113d 1a65 213d 4750 8d3c
000001a0: 84a7 ddbc f5f6 73bd 0fbf bfbc 98f5 f3bc
000001b0: 45ea c5bd 262e ddbd a1da 703d 37cb 06bc
000001c0: 0eba 63bd 5943 9f3d 5aed e63c 8ad9 6dbc
000001d0: b175 36bc 643a 24bd b3e2 aebd 59c8 b23d
000001e0: 7f5a 72bd ad64 3fbd de32 5e3d c9b5 acbc
000001f0: 71b1 0c3d 9d4a 60bd 4757 bbbc 46d9 f43d

fc.bias f4 [2]
0.19059493 -0.27022442
00000000: 512b 433e db5a 8abe
