saved_models/gcn7_slic.pt (torch, 21148 bytes, 6 tensors)

conv1.bias f4 [64]
00000000: dd8d 82be e297 24bf 50e0 2dbf 3efd 38be
00000010: c42a 57be 9f86 84be 6887 b2bd bc24 a8bd
00000020: 7408 87be 5ff4 5ebe ba05 31bf b74b 36bf
00000030: 498c 51bd 0e84 a1be d416 dfbd c59b 95be
00000040: 13fd dcbe e94c 9bbe e203 0fbe 0e7b 46be
00000050: 2a49 69bf 0b15 ffbe 800b 8ebe df89 37bf
00000060: db87 2cbf 70fe e7bd d0a3 82be 1305 e8be
00000070: 74da 04bf 76b2 1dbf 4ee9 32be 3f12 53bf
00000080: ab23 bc3c db9a 82be c92c e1be 5c49 32be
00000090: 4f4c 87be 7fd1 12be 4b6b a6be 0507 32be
000000a0: 5b19 2bbf e74d bcbd c418 2dbf 2950 36be
000000b0: 9ba9 90be 016f 27bf e300 2dbf fc1e 4ebe
000000c0: 4882 873d 2745 0cbf fb38 41be 898e f9bd
000000d0: 002d 6abe 6bf5 3ebe 27de cabd 8b4a eebd
000000e0: 11cc 3bbf 7540 4ebf d708 56be 161c 25bf
000000f0: 073a 7fbe 7d60 86be 2e67 e8be d99d 8fbe
-0.25498858 -0.64294255 -0.679204 -0.18065354 -0.21012408 -0.25883958 -0.08717233 -0.082101315
-0.26373637 -0.21772908 -0.69149363 -0.7120928 -0.051159177 -0.31546062 -0.10893026 -0.29220405
-0.4316183 -0.30332115 -0.13966325 -0.19382879 -0.91127264 -0.49820742 -0.2774315 -0.7169475
-0.673948 -0.11327827 -0.25515604 -0.4531637 -0.51895833 -0.61600435 -0.17471811 -0.82449716
0.022966227 -0.2550877 -0.4397948 -0.17410797 -0.26425406 -0.14337729 -0.32503733 -0.1738549
-0.66835564 -0.09194546 -0.67615914 -0.17804016 -0.282544 -0.65403754 -0.6757948 -0.20129007
0.06616646 -0.5479302 -0.18869393 -0.121853895 -0.22868729 -0.18648307 -0.099056534 -0.11635312
-0.73358256 -0.80567104 -0.2090181 -0.6449598 -0.2492448 -0.2624549 -0.4539122 -0.28050116

conv1.lin.weight f4 [64, 4]
00000000: 60f6 fdbc 92b5 823d 029d 10bd 21e3 fc3c
00000010: fc64 b63e 8eee 21be 610b 2b3e 9f6b 4a3e
00000020: 9749 d53d 5aaf 803e ab3b c5bb 4478 f13e
00000030: 1d32 ed3e e411 dbbe 4f84 37bd c418 3b3d
00000040: 6c8c 01be 325a 103e ddc2 193c bf9e 8b3b
00000050: d159 143f 729e 27be bc40 293e 2615 61bd
00000060: 49b9 ed3c 4a6e 81bc 1dc0 16bc f342 68bc
00000070: 9380 2c3f b6a8 7cbe d4ab a6be 988b bdbc
00000080: 201a 82bd 798b c93c 0c93 dabc 7b80 90bb
00000090: 33e4 b23d e505 a1bd 561f f8bb 3133 123d
000000a0: 4776 793e 345a fd3d 9242 b3bc 33b7 f13e
000000b0: c27b 833e 66c2 913a 7a16 65be b851 3ebe
000000c0: 6cb6 1d3f 2f12 a3be 42aa 8cbc ba6d 5a3e
000000d0: 3a25 033c 88bc ae3c 911e 9e3c a2b3 55bd
000000e0: 53de ff3e 417e fcbe d2d5 403c 93bc 3a3c
000000f0: 8054 1c3f 3325 a73d 9ee8 aa3d 93c1 633c
00000100: 4658 d6bd 0f1a 943e 74a0 143e 781f e3be
00000110: c3e2 3ebe bdd9 063f 8841 b13e ac4e dbbe
00000120: f0d1 6c3e 0adc 3fbe 5bc6 6cbb 7a77 41bb
00000130: bfd2 ecbd 4cdf ec3d 6c87 253d 2281 fd39
00000140: dcd9 5b3e fa37 5e3d 9744 623e 2b8b 8dbe
00000150: 96b6 d83e 272b 8fbe 5487 f73d 304a 38be
00000160: d370 413e 873d 10be 7aa0 45bd 2b8d 42bd
00000170: dd2f 013e 32d0 853e 0791 5e3c 9fdf 013f
00000180: 50af 223e bdbe 083e 9226 4dbd 38cf 93be
00000190: 7d26 063f 0d66 04bf 1696 3d3c 739e 603c
000001a0: f34f 2e3f 30d4 2ebe 5166 423e af5a d6bc
000001b0: e463 30be 660b dc3e 2678 493e 00df 05bf
000001c0: cf7a fd3e 1dff a2be 89c9 eabd a7d8 3cbe
000001d0: f5f1 073e aecc 053e 99c3 8fbc d279 d1be
000001e0: 2f86 aa3d 8424 80bd e9c0 08bd d7af 983c
000001f0: 8266 503d 1106 413e f3c2 3e3e 0912 693e
00000200: 3a54 353f 08c4 86be 719d cf3b 5141 b33e
00000210: 7adc f93c 36a2 c8bc 9cec ae3d 7899 a0bc
00000220: ee12 0dbe a0c4 9a3e b626 f13d 6fee d0be
00000230: 89c6 493d c713 2fbd fc0a 343d 7377 a0bc
00000240: 7e8f 05bf 89ff 183f 7d59 be3d 9dda 193c
00000250: 7065 083e cf27 e5bd 5d29 1c3d f3dd 14bc
00000260: 43f3 403f 8dcc a43d a02a dd3d 8667 e83c
00000270: 78b6 0d3e 5550 efbd a1e3 023d 2ef3 4cbc
00000280: 2fa8 1b3e 4f16 093e 2a53 4cbd 3b35 94be
00000290: e4e1 2d3f 403e 46be bfa6 b4be 2ac2 d8bc
000002a0: 7c43 fd3d f0d0 253e fda0 49bd 41bd 92be
000002b0: 3e42 6cbd 5c5e c53d cf13 183c dfe9 9a3a
000002c0: acb8 423e 4599 15be 26cd 9a3c 8f32 72bd
000002d0: ef99 d0bc 5f8f ab3e 1c29 80bc e895 d83e
000002e0: 2ee1 01be 3c9e e63e c982 87bc 236d d83e
000002f0: e486 73bc 777b 9a3c ab6a 433d b182 12bc
00000300: 5fac 003f 42e8 04bf fbd2 bd3c 9da1 853c
00000310: 1152 e33e 0e56 92be bcaa 0d3e 9719 48be
00000320: acad 983e 17e7 84be 291f 09bc 1df8 a43c
00000330: 9589 123f 97f8 0fbf f9fd 473c 5271 123c
00000340: ca6a 043e a405 8abd 1115 3dbc c400 2f38
00000350: c09a 38bd fc17 f63c fc60 ed3c 34c1 f13b
00000360: 5299 983d 8715 8abd 6875 993b e776 01bc
00000370: 47fb 0a3f 4a5d 09bf fcdd 183c e701 323c
00000380: 439e 903e d1de d93c 78b2 5bbd 63eb aebe
00000390: f364 d6bd db6d 81be 01e2 553e 5da9 533e
000003a0: fde5 eb3c aed7 10bc 6687 37bd f0ee 08bd
000003b0: d845 b53e 0719 68bd 54bc 59bc 345e e3be
000003c0: 99c3 a5bd 8789 073e 722b f33c 2f5f 2e3a
000003d0: 5b0f d9bd e888 093e d1b7 203d 53ba eaba
000003e0: 7586 29be 3820 c33e d723 1f3e 8d89 f8be
000003f0: 5286 6d3d b3bb 52bd 5a00 023d 4331 d8bd
-0.03100127 0.06382288 -0.035305984 0.030870022 0.3562392 -0.15813658 0.1670356 0.19767617
0.10414427 0.25133783 -0.006019076 0.47162068 0.46327296 -0.42787087 -0.044803914 0.045677915
-0.12651223 0.14096907 0.009384838 0.0042608674 0.5794955 -0.16369036 0.165286 -0.05495181
0.029019015 -0.01579966 -0.009201077 -0.014176118 0.6738369 -0.24673733 -0.3255297 -0.023137853
-0.06352639 0.024602639 -0.026681446 -0.0044098473 0.08734932 -0.078624524 -0.007572095 0.03569335
0.24361525 0.123707205 -0.02188233 0.47210082 0.25680357 0.0011120557 -0.22371855 -0.1858586
0.6160648 -0.3184981 -0.017171029 0.2133092 0.008004481 0.021330133 0.019301685 -0.052173264
0.49974307 -0.49315074 0.011769729 0.011397499 0.61066437 0.08161392 0.083451495 0.013901132
-0.104660556 0.2892613 0.14514333 -0.44359946 -0.1864119 0.5267599 0.3462031 -0.4283346
0.2312696 -0.18736282 -0.0036128971 -0.0029520676 -0.11563634 0.11566028 0.04041235 0.00048352132
0.21469826 0.054252602 0.22096477 -0.2764524 0.42326802 -0.2796261 0.12086359 -0.1799705
0.18890695 -0.14085971 -0.048248746 -0.04749791 0.12615915 0.26135403 0.013584382 0.50731844
0.15887189 0.13354011 -0.05008561 -0.28869033 0.5240248 -0.5171822 0.011571428 0.013709652
0.6809074 -0.1707313 0.18984343 -0.026166288 -0.17225605 0.42977446 0.19674739 -0.52293396
0.49507758 -0.3183526 -0.11464221 -0.18442021 0.13275893 0.1306636 -0.017549323 -0.40913254
0.08326375 -0.06256965 -0.0333871 0.018638534 0.05087901 0.1884997 0.18629055 0.22760786
0.70831645 -0.26321435 0.006335907 0.3501077 0.03050064 -0.02449141 0.085412234 -0.01960443
-0.13776752 0.30228138 0.11774962 -0.4080691 0.049261604 -0.04274347 0.043955788 -0.019588208
-0.52172077 0.59764916 0.09294412 0.0093905 0.13319945 -0.111892335 0.038125385 -0.00908612
0.7537119 0.080468275 0.10799146 0.028369676 0.13839138 -0.11685244 0.031955365 -0.01250915
0.15200876 0.13387416 -0.049884 -0.28946862 0.67922807 -0.19359684 -0.35283467 -0.026459772
0.12366387 0.16192985 -0.049225796 -0.28660014 -0.05768036 0.09637138 0.0092820665 0.0011818967
0.19015759 -0.14609249 0.01889665 -0.059130248 -0.025464026 0.3350782 -0.015644602 0.4230187
-0.12683555 0.45042598 -0.016541855 0.42270765 -0.014863703 0.0188577 0.04770915 -0.008942292
0.5026302 -0.519169 0.023171892 0.016312415 0.4439855 -0.2858128 0.13834661 -0.19541012
0.2982 -0.25957558 -0.008369246 0.02013784 0.57241184 -0.56238693 0.012206548 0.0089381505
0.12931362 -0.06739357 -0.011540667 4.1723964e-05 -0.045069456 0.030040734 0.02897691 0.007377768
0.074511185 -0.06742387 0.0046831854 -0.007901884 0.5428967 -0.5365797 0.009330269 0.010864711
0.28245744 0.026595505 -0.053636998 -0.3416396 -0.10468473 -0.25279126 0.20886995 0.20670076
0.02879619 -0.008840485 -0.04480686 -0.033430994 0.3540485 -0.056664493 -0.01328953 -0.4440781
-0.08093948 0.13236056 0.029683802 0.00066517567 -0.10598632 0.13431132 0.0392378 -0.0017908312
-0.16555198 0.38110518 0.15541016 -0.48542443 0.057989426 -0.051448535 0.031738617 -0.10556271

conv2.bias f4 [64]
00000000: 614f 99bb ecc8 563b 34cb 18bc b99e 323c
00000010: 5367 b2bc 8c29 f339 a79b 06bc d16d cf3c
00000020: 63b3 35bc 461a 2f3c 0ef9 1cbc 3d6a 29bc
00000030: 8beb d9bc 7b4f 1cbe 2928 82bc d3c5 393b
00000040: 098c f53d 0e96 a53c ddaf 643b b80f 493d
00000050: 6639 4b3c e7ef 683a fe8d d63a d7f5 353c
00000060: 5ed4 9f3c e44f 233c ad51 47be adab 2bbd
00000070: 4d98 383c ac36 95bc 4c4b 33bc 9fd3 303e
00000080: c67d ff3c 392d 97bb e299 bbbc b723 a93c
00000090: f82b b5bb 27c0 e63b 7d85 6abc 094b a4ba
000000a0: a09e 22bc 24c2 303e 7b97 02bc 8c6b 5f3c
000000b0: 2d5b dd3d 5894 97bc b8f9 923e 93e7 dabb
000000c0: d300 7d3d 3b93 dd3b 667a 083d 612f dc3c
000000d0: c749 723c 6916 533b bcdc a6bc 499e 3f3c
000000e0: cd87 e1bb 37ec eebc 0fed adbc 3140 c4bc
000000f0: 432f c33a 8201 3fbc 8c0b babc 29d9 4a3e
-0.004678652 0.0032773567 -0.009325791 0.0109021 -0.021777784 0.00046379527 -0.008215821 0.02532092
-0.011090132 0.010687416 -0.009580864 -0.010340271 -0.026601573 -0.15264694 -0.01588829 0.0028346672
0.119896 0.020213153 0.0034894862 0.049087256 0.012403822 0.0008885846 0.0016369221 0.011105976
0.019510444 0.009967778 -0.1946475 -0.04191177 0.01126678 -0.018214546 -0.010943245 0.17268227
0.031187903 -0.0046135453 -0.022900525 0.020646913 -0.005528923 0.0070419493 -0.014314053 -0.0012534569
-0.009925514 0.17261559 -0.007970686 0.013636481 0.10808406 -0.018503353 0.28706145 -0.006680438
0.061768364 0.006761936 0.033319853 0.02687806 0.014788098 0.0032209402 -0.020368926 0.011695453
-0.006882644 -0.02916537 -0.021231202 -0.02395639 0.0014891404 -0.011658074 -0.022710584 0.19809403

conv2.lin.weight f4 [64, 64]
00000000: b367 fabd d36f 42be 17c0 32bb e647 853e
00000010: aefc 01be 3060 efbd 07cd 2c3e dacf 2fbe
00000020: 8fd2 f53d da58 de3c 74ca 7fbe 4ce5 b6be
00000030: 377f 65bd dd5c b03b 64ec d63e 3c4b c63d
00000040: 48ec 26bd 9af7 df3d 0d36 49be 7b27 1b3e
00000050: 803c e5be a891 f13d 7fd1 c43d e98c 89be
00000060: 0baf 0ebe 030a a93e e770 48bc c0d8 3e3e
00000070: aa44 d23c d8aa 72be 77c6 07be 5bbe 26be
00000080: 4f85 08be cdfa 0f3e 50fe 323e 6636 653d
00000090: 0457 733e 27c3 98bd 4fb1 833e 4b89 5abd
000000a0: 42e6 63be ea57 403d 1f50 10be e6fc bb3d
000000b0: d309 6bbe afaf 28be b9eb fe3d 009e 0a3e
000000c0: dabe b83b 49cb 4f3e e383 4abe ea49 4d3d
000000d0: ca9f 38be 7966 cc3d e2a8 18be 3ced 1a3e
000000e0: 27ae 48be 19e8 43be 41fd 273e abe8 8dbe
000000f0: 90e2 0ebe ac99 d23d cbfc a53d 5ea7 1ebe
00000100: d563 f23d fe7f ab3d f569 003d 0aa5 a33d
00000110: 5a22 a8bd 8fe5 b0bd 1976 5fbe 2970 e13c
00000120: 18ef 40bd ca26 7fbe baf9 96bd 010d 4ebd
00000130: fcfc 103e 89b8 2bbe 2648 e23d 7d87 063e
00000140: 2009 4dbe 3a44 b0bd 2caa eabb 1f42 eabd
00000150: 4ec8 8bbd 117e 1dbe 3102 31be cc52 2ebe
00000160: 73aa a83d 54c7 b6bd 12f1 063e 0866 b73d
00000170: 1c9d 19bd 8894 9a3d b388 bebd ab64 923d
00000180: fea3 febd 2a01 30be 8a72 9bbc 3ffc bcbd
00000190: 8814 dc3c 48da 8fbc b1ce 3abd 5e2f 12be
000001a0: 8f30 db3d bf63 8e3d 1d0d 9abb e42b e93d
000001b0: 9fdd 043e da93 843b 36e5 c5bc 4395 ea3c
000001c0: c732 1e3d abb0 103e f61d 9dbe af26 113e
000001d0: 697a 663e 4af0 0ebe 664d 7e3d 4b28 02be
000001e0: 773f 65bd 4601 b5bd 4393 203e ab1f 1abe
000001f0: 0965 a6bd 3719 55be fc94 083e cba4 c6bd
00000200: bd5c 0abe b65c 693e de3c 503e 3b2a 1e3e
00000210: 1e32 aebd 2949 08be b151 8c3d f521 233e
00000220: c961 e1bd 6772 6dbd f2e5 d13e f582 023d
00000230: 39ac 0f3e 2ad3 24be 964f aabe 0756 82bd
00000240: 5f83 bc3d b458 e3bc daf6 363e dfe1 173e
00000250: fde6 da3d 8e75 873e 8640 26be 6a29 653b
00000260: 56e6 8a3d 103a 89be b404 6cbe 9507 073e
00000270: a505 663e 77da 953b 1239 3abe 5d5c 253e
00000280: 89e4 eabd 28b3 bc3d b4fe 143e 049e 913e
00000290: 875a a5be b884 19be f534 d13b 41e7 f63a
000002a0: 1d92 b9bc dc0a e1bc bfa0 ebbd 683c 46bd
000002b0: cdb5 2c3d 3a67 60bd d874 d53c 4664 a0bb
000002c0: 3f0e c43d 8024 8e3e 5ef8 25bd af6c e3bd
000002d0: 8363 503e 9ca0 31be b9b1 9cbd a7ac 9abe
000002e0: 2de5 78bc 5678 d63d eca5 fb3d d7f8 2e3e
000002f0: 67b1 86bc d69d e3bd d7c8 6abe d3bc 05be
00000300: 8320 d8bc b4c7 893e 9da2 a1bd 41c5 3cbc
00000310: 30c3 543e a8bd 60bd 3f46 613d 6340 6b3d
00000320: 7508 07be ca81 1d3e 4d74 033f c457 b33e
00000330: 65d2 ad3d 9af1 a03e bab2 58be 4365 61be
00000340: edea fc3d 393a b7be c3c7 04be 8c7d 3fbd
00000350: 004f f03e d3bf 003e d900 fe3d 63f1 42bc
00000360: 8ce3 a03e 100d 8cbe c363 113d cf44 613d
00000370: e470 f13d 353c 303d 404a 1dbe a490 d83e
00000380: f4a2 973d 0dce 2abc 12cb 59be 7ab7 74bb
00000390: 5778 253e 9edf 39be 4880 26be c98f 973c
000003a0: 6d89 3d3e 5b0a ce3d 6f36 4e3e 23c5 ca3d
000003b0: 1b3f 1f3d 361e 903e 4724 763d 4dc7 02be
000003c0: c386 dfbc c101 f93d 0767 9d3e 31ee dbbd
000003d0: 242a 763e 5b6d 51bd 38cc fa3c 41c2 123c
000003e0: 982b a53e d959 143e 5d68 e23d 5db1 9b3e
000003f0: 3516 c4bd 2a70 163e 2ea0 523d f9da b6bd
-0.1222681 -0.1898797 -0.002727514 0.26031417 -0.12694046 -0.11688268 0.16875087 -0.17169133
0.120030515 0.027141977 -0.24979573 -0.35721815 -0.056029525 0.005382164 0.41977227 0.096823186
-0.04075268 0.10935898 -0.19649525 0.1515178 -0.4477272 0.1179536 0.09610271 -0.26865318
-0.13933961 0.3301545 -0.012233949 0.18637371 0.025667507 -0.23697984 -0.13259302 -0.16283552
-0.13332103 0.14060517 0.17479825 0.05596008 0.23763663 -0.07459097 0.25721213 -0.05335359
-0.22255805 0.04695884 -0.14093064 0.09179096 -0.22952966 -0.16473268 0.12447304 0.13536835
0.0056379857 0.20292391 -0.19776873 0.050119318 -0.18029705 0.099804826 -0.14908174 0.1512956
-0.19597684 -0.19131507 0.16405202 -0.27716574 -0.13953614 0.10283217 0.08104857 -0.15493533
0.11835448 0.08374022 0.03135105 0.07990463 -0.08209677 -0.08637535 -0.21822394 0.027519302
-0.047103018 -0.2491714 -0.0737185 -0.05030537 0.14159006 -0.16769613 0.110489175 0.13137622
-0.20023012 -0.08606763 -0.0071613993 -0.11438393 -0.068253145 -0.15380122 -0.17285992 -0.17023772
0.082356356 -0.089247376 0.13177899 0.08955008 -0.037503347 0.07547861 -0.09303417 0.07148107
-0.12433623 -0.17187944 -0.018975515 -0.092277996 0.026865259 -0.01756014 -0.045607273 -0.14275882
0.10702621 0.06952619 -0.0047012703 0.113853246 0.12975167 0.0040459456 -0.024157148 0.028635627
0.038622644 0.14129893 -0.3068692 0.14174913 0.22507633 -0.1395885 0.06208553 -0.12710683
-0.055968728 -0.088381335 0.15681176 -0.15051143 -0.0812474 -0.208104 0.13338083 -0.096994005
-0.1351194 0.22789273 0.20335719 0.15445797 -0.08505653 -0.13309158 0.06851519 0.15930922
-0.11004979 -0.05797043 0.40995747 0.03186317 0.14030541 -0.16096178 -0.33263844 -0.06364065
0.092047445 -0.027752258 0.17867604 0.14832257 0.10688589 0.26456875 -0.16235551 0.0034967312
0.06782214 -0.2680211 -0.23048669 0.13186486 0.2246309 0.004573162 -0.18185833 0.16148515
-0.11469371 0.09213859 0.14550287 0.2844087 -0.3229563 -0.14992034 0.006384487 0.001883723
-0.02265268 -0.027470998 -0.11505269 -0.04839745 0.042165566 -0.054785945 0.026056692 -0.004894766
0.0957303 0.27762222 -0.040520065 -0.11104714 0.2035046 -0.17346424 -0.076510854 -0.30209848
-0.0151913585 0.10472171 0.122875065 0.17087112 -0.016442014 -0.11114089 -0.22928177 -0.13060312
-0.02638269 0.26910174 -0.07892344 -0.011521638 0.20777583 -0.05486837 0.054998633 0.05743445
-0.1318682 0.15381542 0.51349336 0.35027897 0.08487395 0.31434327 -0.21161929 -0.22011285
0.12349496 -0.35786608 -0.12966828 -0.04675059 0.46935272 0.12573175 0.124025054 -0.011898371
0.31423604 -0.27353716 0.03549553 0.05499726 0.1178911 0.043026168 -0.15360355 0.42297852
0.07404128 -0.010425103 -0.21268871 -0.0037340806 0.16159187 -0.1815171 -0.16259873 0.01850118
0.18509455 0.10060569 0.20137952 0.09900882 0.03887854 0.2814805 0.06009319 -0.1277134
-0.02728594 0.12158538 0.30742666 -0.10738791 0.24039513 -0.05112968 0.030614957 0.008957447
0.32259822 0.14487399 0.11055062 0.30408755 -0.09574548 0.14691225 0.05142229 -0.089284845

fc.weight f4 [2, 64]
00000000: 3d34 273d ad6e a3bc 2326 57bc 99f1 cfbd
00000010: 1b8f 783d 3143 08bd f0d7 1a3d a1ce 60bc
00000020: 50ee 75bb 4c8a 8a3b c4b4 72bd 5c0c b33d
00000030: 9be3 c0bd 5b90 3bbe bcc6 9f3c 99b3 993d
00000040: 8f47 333e 5077 543d 7fd2 3ebd a2a0 f83c
00000050: d1a4 9cbd 1edc dabb 6c74 96bd adc9 563d
00000060: 2d72 d8ba c081 bb3d 33ca 42be 9490 a0ba
00000070: e15d f03c 8a0e 4f3d 44f3 7bbd 0533 913e
00000080: 3aa2 763d 6f7e 40bd d589 11bd f30f 2b3d
00000090: b847 ecbc ea9a 353d 8421 1f3d ff0e cd3d
000000a0: 28a9 0ebd cacc 403e b9ee 023c 06c8 143d
000000b0: 5185 fb3d 729d 513b 7eac 873e e5d1 7bbd
000000c0: ddae 5d3d 1a4b 783d f366 c93d 8b00 7bbd
000000d0: 7681 84bd 1668 5fbd 4c90 733d 269f 833c
000000e0: 1414 f83b 24c9 b5bd 5a13 d23d a344 7dbd
000000f0: 229f e13c ec67 41bd 3b77 53bd 8fe6 823e
00000100: a327 4b3d 10a7 d1bc 9659 5bbc dbec d8bd
00000110: efb5 4e3d cbdc 8bbc 9289 3c3d 3ed4 bdbc
00000120: b146 a5bc 4635 29bc 2225 4fbd f875 9f3d
00000130: f785 9ebd 77e3 133e 2e21 ec3c 472f 843d
00000140: 8b56 4dbe 4162 1b3d bd4c 7ebd cf7c 90bb
00000150: 4e07 bebd 4e6e 33bc 84af a8bd eaec 773d
00000160: dff0 61bc e62c a63d 1246 9e3e ce7d 943c
00000170: 303f 523c 195b 6d3d 74a3 30bd 3c94 1ebe
00000180: 113b 3e3d 0de9 4fbd 63dd 6fbc 8c4a ee3c
00000190: dac9 74bc 960b 533d 2447 453d 9802 d23d
000001a0: 8ad9 f9bc 758a 3fbe 22dd 273c 5a03 f53c
000001b0: ace6 0ebe 4ffa 1d3c 2021 a1be d419 8abd
000001c0: 0ef5 cd3c b15e 513d 893f b33d db11 83bd
000001d0: ad9b 94bd f138 8bbd 6c32 9f3d 4099 d5ba
000001e0: 0e26 be3c c913 8dbd 41f4 e33d 4fd9 60bd
000001f0: 47ba 163d 356b 47bd c0a3 31bd 22e9 31be
0.040821303 -0.019950235 -0.013131651 -0.10153503 0.06068335 -0.033267204 0.03780359 -0.013721139
-0.0037526079 0.004227912 -0.059254423 0.08742592 -0.09418412 -0.18316786 0.019503944 0.07504959
0.17507766 0.051871598 -0.046587463 0.030350033 -0.07648624 -0.006679072 -0.073464245 0.052438427
-0.0016513519 0.09155607 -0.19022445 -0.0012250119 0.02934164 0.050550975 -0.061511293 0.28359237
0.060213305 -0.046995576 -0.035531837 0.041763257 -0.028842792 0.04433719 0.038850322 0.10012626
-0.03482929 0.18828121 0.007991486 0.03632357 0.122812875 0.0031984714 0.2649879 -0.061479468
0.05412184 0.060618497 0.09834089 -0.061279815 -0.06470005 -0.054542623 0.059463784 0.016067099
0.007570753 -0.08876255 0.10257597 -0.061833035 0.0275417 -0.04721825 -0.05162738 0.25566527
0.049598347 -0.025592357 -0.013388058 -0.105920516 0.050466474 -0.017073056 0.046029635 -0.023172494
-0.02017531 -0.010327643 -0.050572522 0.07786173 -0.077403955 0.1444224 0.028824415 0.0645433
-0.20052545 0.0379355 -0.062084902 -0.0044094096 -0.09278737 -0.010951592 -0.08236602 0.060528673
-0.013790338 0.081140324 0.30912834 0.018126395 0.012832448 0.057948206 -0.04312463 -0.15486234
0.04644305 -0.050759364 -0.014640185 0.029088281 -0.014940703 0.05152472 0.048163548 0.10254401
-0.030499239 -0.18705161 0.010245593 0.029908825 -0.13955182 0.009642198 -0.31470585 -0.067432076
0.025141265 0.051115695 0.08752353 -0.0639989 -0.07256255 -0.0679797 0.07773289 -0.0016296282
0.023211505 -0.06888539 0.11130572 -0.05489474 0.03679874 -0.048686225 -0.043369055 -0.1737409

fc.bias f4 [2]
00000000: 78dd f63e 4388 ebbe
0.48215842 -0.46002397
