saved_models/gcn8_slic.pt (torch, 21148 bytes, 6 tensors)

conv1.bias f4 [64]
0	0xbe312846	-0.1730052
1	0xbeebea03	-0.46076974
2	0xbe8a1d33	-0.26975402
3	0xbea463eb	-0.3210748
4	0xbe356dd1	-0.17717673
5	0xbf008368	-0.5020051
6	0xbdd6656e	-0.10468565
7	0xbdd59ca6	-0.10430269
8	0xbee97231	-0.45594934
9	0xbef178d6	-0.47162503
10	0xbdef39fa	-0.1168098
11	0xbe142776	-0.14468178
12	0xbe5e30e8	-0.21698344
13	0xbe3a6fa3	-0.18206649
14	0xbf0827b1	-0.53185564
15	0xbebe0172	-0.37110478
16	0xbeaa9904	-0.33319867
17	0xbe947e82	-0.29002768
18	0xbeecef2f	-0.46276233
19	0xbee23c31	-0.44186547
20	0xbe00ccc6	-0.12578115
21	0xbeddd8e2	-0.4332953
22	0xbe10742a	-0.14106813
23	0xbcd4e68a	-0.025988836
24	0xbe30a767	-0.17251359
25	0xbe657fda	-0.22412053
26	0xbf04040a	-0.51568663
27	0xbf02c678	-0.5108409
28	0xbe007844	-0.12545878
29	0xbed762f3	-0.4206768
30	0xbee7a377	-0.452419
31	0xbe5c9b91	-0.21543719
32	0xbeee12c5	-0.46498695
33	0xbe63ce37	-0.22246633
34	0xbe4ee369	-0.20203938
35	0xbe4ba830	-0.19888377
36	0xbea7d9e0	-0.32783413
37	0xbe51ebff	-0.20500182
38	0xbdbf961f	-0.09354805
39	0xbef64f1f	-0.4810724
40	0xbe27cd6d	-0.16386957
41	0xbec83a23	-0.39106855
42	0xbe498b0f	-0.19681953
43	0xbe6307a0	-0.22170877
44	0xbe8724b2	-0.26395184
45	0xbe061503	-0.13093953
46	0xbe6da405	-0.232071
47	0xbe6f141b	-0.23347513
48	0x3d187f42	0.037230738
49	0xbefc963f	-0.4933338
50	0xbe846872	-0.25860935
51	0xbe2dae7b	-0.1696109
52	0xbedd889e	-0.43268293
53	0xbe1db1b3	-0.15399818
54	0xbdf63294	-0.12021366
55	0xbe2b9429	-0.16755737
56	0xbe5beee9	-0.21477856
57	0xbdf0cd20	-0.117578745
58	0xbd316379	-0.043307755
59	0xbdeef2e8	-0.116674244
60	0xbe1a7e55	-0.15087254
61	0xbe99db0c	-0.30049932
62	0xbefae0c5	-0.4899961
63	0xbeeeb49b	-0.46622166

conv1.lin.weight f4 [64, 4]
0	0x3ef08108	0.46973443
1	0xbed91d40	-0.42405128
2	0xbb38b624	-0.0028184736
3	0xbd90fa2a	-0.07078965
4	0x3e14a8ef	0.14517568
5	0x3d8747af	0.066054694
6	0x3cee5b4c	0.029096268
7	0xbe41c5e6	-0.18923149
8	0x3e2f6778	0.17129314
9	0xbe65e934	-0.22452241
10	0x3d1bb828	0.038017422
11	0x3d949c3b	0.07256361
12	0xbe076374	-0.13221532
13	0x3dc64602	0.09681322
14	0xbb4599f1	-0.003015157
15	0xb90eb881	-0.00013610908
16	0xbd3dc1a1	-0.046327237
17	0x3d5db140	0.054124117
18	0x3d74f577	0.059804406
19	0xbbb8ac24	-0.005635755
20	0xbd6e44ae	-0.058170967
21	0x3e6e2378	0.23255718
22	0xbe0b3711	-0.13595225
23	0xbdf53713	-0.11973395
24	0x3ee97310	0.45595598
25	0xbded7cc0	-0.1159606
26	0xbd4b08a3	-0.049568783
27	0x3d64559a	0.0557457
28	0x3f13e787	0.5777516
29	0xbe2cd01d	-0.16876264
30	0xbd64d462	-0.055866607
31	0x3c3d9718	0.011571668
32	0x3c9d9fa2	0.019241158
33	0x3e5061a0	0.20349741
34	0xbe1cad4a	-0.1530048
35	0xbc739699	-0.014867448
36	0x3bc219b5	0.0059234747
37	0x3e8c35ce	0.273848
38	0x3c2f12bd	0.01068562
39	0x3ea7b58b	0.32755694
40	0x3dd4dde0	0.10393882
41	0xbd87835a	-0.0661685
42	0xbb84f9b1	-0.004058086
43	0xbc370a63	-0.01117191
44	0x3c64b999	0.013960266
45	0xbc985861	-0.01859683
46	0xbb0d3f9a	-0.0021552802
47	0x3c77eea3	0.015132579
48	0xbe7c7d1f	-0.24657105
49	0x3ec4e1d2	0.38453537
50	0x3c22e8b8	0.00994318
51	0xbe4d73ca	-0.20063701
52	0xbeba80f2	-0.36426502
53	0x3eee2b72	0.4651752
54	0xbcd1d5b2	-0.025614593
55	0x3c9cce6a	0.019141395
56	0x3e58251a	0.21107903
57	0x3d0b8d97	0.034070577
58	0xb9638d62	-0.00021701076
59	0xbe7d872a	-0.24758592
60	0xbdda9d6e	-0.106745586
61	0x3eb44e28	0.35215878
62	0x3dcdb332	0.100439444
63	0xbed0cb89	-0.40780285
64	0xbdfffc03	-0.12499239
65	0x3eaf48b1	0.34235147
66	0x3d6f783a	0.058464266
67	0xbeadc4b1	-0.33939126
68	0x3e234571	0.15944459
69	0xbe7344f4	-0.23756772
70	0x3d3b4c0a	0.045726813
71	0x3d49d01b	0.04927073
72	0xbc99de93	-0.01878289
73	0x3e9b78b6	0.30365533
74	0x3c4dea8b	0.012568126
75	0x3ea7bfd0	0.3276353
76	0xbdc78bd1	-0.09743465
77	0x3eb99922	0.36249644
78	0x3ca1d16e	0.019753184
79	0x3ea3c88b	0.3198894
80	0x3e0ae8ae	0.13565323
81	0xbdf41f95	-0.11920086
82	0x3b25a7e4	0.0025277073
83	0xbc918d01	-0.017767431
84	0x3e993f9b	0.2993134
85	0xbdcfa7a4	-0.10139397
86	0x3d9e48bc	0.07728717
87	0xbe28dca5	-0.16490419
88	0xbdbfe977	-0.09370702
89	0x3ddeb197	0.10873716
90	0x3bcea5c8	0.0063063838
91	0x3bb1b16d	0.005422762
92	0xbebd6875	-0.36993757
93	0x3e4b345f	0.19844197
94	0xbeb10fdb	-0.3458241
95	0x3e9bf998	0.30463862
96	0xbd817396	-0.063208744
97	0x3d8fe6a0	0.0702641
98	0x3cbb8a20	0.022893012
99	0xbcd75dc6	-0.026289832
100	0xbc3fdf3c	-0.011710938
101	0xbc5e93c5	-0.013585036
102	0x3cf1a961	0.029499711
103	0xbc8d2062	-0.017227355
104	0xbd4ffc44	-0.05077769
105	0x3e7bfca7	0.24608098
106	0x3dca92a6	0.09891252
107	0x3e0d0549	0.13771547
108	0x3e3ff84b	0.1874706
109	0x3db67f8b	0.08911046
110	0xbcb1b8a7	-0.021694494
111	0x3e5f85f3	0.21828441
112	0x3ed900f4	0.4238354
113	0x3d07a9f9	0.033121083
114	0xbd158d50	-0.03651172
115	0x3ba85bda	0.0051379027
116	0xbd230b21	-0.039805535
117	0x3e8a50b8	0.2701471
118	0x3c4251bf	0.01186031
119	0x3e9207b9	0.28521517
120	0x3e52a517	0.2057079
121	0x3d45563c	0.048177943
122	0xbcac9664	-0.021067806
123	0x3e36f25a	0.17865887
124	0xbec5a5ae	-0.38602966
125	0x3ee7e924	0.4529506
126	0xbe453351	-0.19257857
127	0x3b773853	0.003772278
128	0xbe55a736	-0.20864567
129	0xbdcac21c	-0.09900305
130	0x3c5a8372	0.013337003
131	0x3e27a23a	0.16370478
132	0x3e0b58a5	0.13608034
133	0xbd70aa79	-0.058756325
134	0x3cf01afe	0.029309746
135	0x3adba9ef	0.0016759018
136	0xbec77fbe	-0.38964647
137	0x3eec1972	0.46113163
138	0xbe454114	-0.19263107
139	0x3bf37492	0.0074296677
140	0x3cb3612c	0.021896921
141	0xbc46bb01	-0.012129546
142	0xbda00225	-0.07812909
143	0x3bd19ebc	0.0063970964
144	0x3e390c3f	0.18071078
145	0xbe8ab8f7	-0.27094242
146	0x3d1fc49f	0.03900587
147	0x3d8fb12f	0.07016217
148	0x3ea9321d	0.33046046
149	0xbbe470a9	-0.006971438
150	0x3d931cc7	0.07183223
151	0xbc853656	-0.016261261
152	0xbd7a5d1d	-0.061123956
153	0x3d5661d8	0.052339405
154	0xbbcde39d	-0.006283237
155	0x3c1289ef	0.008944019
156	0xbe2811cb	-0.16413037
157	0x3ea47bb4	0.32125628
158	0xbdd4bdd0	-0.10387766
159	0xbe0126b2	-0.12612417
160	0x3f013877	0.50476784
161	0xbef36a89	-0.47542217
162	0xbc37f162	-0.011226984
163	0xbd708c81	-0.058727745
164	0xbe51b2e0	-0.20478392
165	0x3ed7bb14	0.42134917
166	0x3c81f937	0.015865905
167	0x3e84a681	0.25908282
168	0x3d4e8f6c	0.050429747
169	0xbd1f175e	-0.038840644
170	0xbd9539ac	-0.07286391
171	0x3b6e4f17	0.003636306
172	0xbc286be5	-0.01027963
173	0x3c013f49	0.0078886235
174	0x3cb96513	0.022631204
175	0xbd732789	-0.059363876
176	0xbe54e709	-0.20791258
177	0x3e379786	0.17928895
178	0x3ab0be61	0.0013484472
179	0xbbe9f52b	-0.007139822
180	0x3d1a4f04	0.03767301
181	0xbcebe7db	-0.02879708
182	0xbcd17bf9	-0.02557181
183	0xbd09c61d	-0.0336362
184	0x3cf8855c	0.030337028
185	0x3c915f8a	0.017745752
186	0x3d288746	0.04114463
187	0x3c8033a8	0.015649632
188	0x3e8f5e09	0.2800143
189	0xbe5ecde1	-0.21758224
190	0xbd4e35c4	-0.050344244
191	0xbc267f76	-0.010162225
192	0x3f2aeafa	0.66764796
193	0xbea74a80	-0.32674026
194	0xbb73ae47	-0.0037182735
195	0x3e7216d6	0.23641524
196	0x3d5204bd	0.05127405
197	0x3e6290d7	0.22125565
198	0xbcc7019b	-0.024292758
199	0x3e8ebafc	0.27877033
200	0xbe75abc8	-0.2399131
201	0x3ea8f6c9	0.33000782
202	0xbccf459e	-0.02530175
203	0xbe131ce3	-0.14366488
204	0x3f060b63	0.52361125
205	0xbe664cb1	-0.22490193
206	0x3cae9d85	0.021315346
207	0xbc77f5bb	-0.01513427
208	0xbd27af2c	-0.04093854
209	0x3e92f4dd	0.2870244
210	0x3b85b6c2	0.0040806243
211	0x3e9a0450	0.30081415
212	0x3ecf5552	0.40494782
213	0xbd793cef	-0.060849126
214	0x3d0e0b33	0.03467865
215	0xbbdd3520	-0.0067507178
216	0x3df5e999	0.12007446
217	0xbe18a174	-0.1490534
218	0xbda9b7f8	-0.082870424
219	0x3d9d17ec	0.07670578
220	0x3db96788	0.0905295
221	0xbd9c3a2d	-0.07628284
222	0xbbe9eb15	-0.0071386197
223	0xba9c3cee	-0.0011920014
224	0xbece5001	-0.40295413
225	0x3ef7e948	0.48420167
226	0xbe533672	-0.20626238
227	0x3c035f4a	0.008018324
228	0xbd1dbb51	-0.038508717
229	0x3d7e7345	0.06212165
230	0xbbd3a17e	-0.0064584604
231	0xbc010046	-0.0078736
232	0x3f16edbf	0.5895652
233	0xbe443e28	-0.19164336
234	0xbd9b7a1a	-0.075916484
235	0x3e1e4f7e	0.15460011
236	0x3dc66c5a	0.09688635
237	0xbd5344f9	-0.05157945
238	0x3b97950a	0.004625921
239	0xba4f8d34	-0.0007917464
240	0x3ec3f870	0.3827548
241	0xbd60b4b1	-0.05485982
242	0x3d146c9e	0.036236398
243	0xbc3d024a	-0.01153619
244	0x3e63c7e7	0.22244225
245	0xbe47e602	-0.19521335
246	0x3a8f742d	0.0010944657
247	0x3c835410	0.016031295
248	0x3d28cbd5	0.041210014
249	0x3e7e9d05	0.24864586
250	0xbc45b2ee	-0.012066586
251	0x3ea4c613	0.3218237
252	0xbcd24cad	-0.025671327
253	0x3e86e2bb	0.26344857
254	0xbc84674b	-0.016162535
255	0x3e539943	0.20663933

conv2.bias f4 [64]
0	0xbc83bc21	-0.016080918
1	0xbbecf889	-0.007231776
2	0xbd1c82b4	-0.038210586
3	0xbd223281	-0.039598946
4	0x3d4f4e6e	0.050611906
5	0x3c353856	0.011060795
6	0xbcb01a39	-0.021496879
7	0x3d49eb78	0.049296826
8	0xbd2ad96a	-0.04171125
9	0xbcbf1827	-0.023326946
10	0xbbe1af46	-0.0068873493
11	0x3d44a7bd	0.04801153
12	0x3c9725eb	0.018450698
13	0xbba490ef	-0.0050221602
14	0xbd1c4a10	-0.03815657
15	0xbaadd43e	-0.0013262106
16	0x3cb8cb13	0.02255777
17	0xbd10f254	-0.035387352
18	0xbc4a915e	-0.01236376
19	0x3c815f4e	0.015792515
20	0xbac675d2	-0.0015141314
21	0xbc9172f3	-0.017755007
22	0x3d51d712	0.051230498
23	0xbd00a4bd	-0.031407107
24	0x3d721427	0.05910125
25	0xbc65ddd2	-0.014029937
26	0x3c3e5097	0.011615894
27	0x3b9f4a05	0.0048611187
28	0xbcce2c82	-0.025167707
29	0xbc732cea	-0.014842251
30	0xbc80025e	-0.015626129
31	0xbd3b14da	-0.045674182
32	0x3cb9f83f	0.02270138
33	0xbcb48e0e	-0.022040393
34	0xbd2358c4	-0.039879575
35	0x3c2e1f1a	0.010627532
36	0x3c722308	0.01477886
37	0x3cd6480b	0.0261574
38	0xbcdf3b44	-0.02724994
39	0xbcd83028	-0.02639015
40	0x3b93990a	0.0045043277
41	0x3b9823e9	0.0046429527
42	0x3c99879d	0.018741423
43	0x3c2dd587	0.010609991
44	0x3cb9d3e5	0.022684047
45	0xbd1d2de9	-0.03837386
46	0xbc5639f0	-0.013075337
47	0x3cc608b6	0.024174076
48	0xbd1a00dc	-0.037598476
49	0xbcc9d25d	-0.024636442
50	0x3c59c653	0.013291913
51	0x3c9483d7	0.018129272
52	0xbb696f07	-0.0035619156
53	0x3b8393c3	0.0040154173
54	0x3c419ff3	0.01181792
55	0x3aa529e0	0.0012600981
56	0x3cf6c97b	0.03012537
57	0xbccdbb54	-0.02511374
58	0x3cdcf7d3	0.02697364
59	0xbc9bc03a	-0.01901256
60	0x3d4390a4	0.047745362
61	0x3d1c0b42	0.038096674
62	0x3c9a1777	0.018810017
63	0xbca0bbd2	-0.01962081

conv2.lin.weight f4 [64, 64]
0	0x3d9ab66d	0.07554326
1	0xbe449fa3	-0.19201522
2	0xbd1b8f42	-0.03797842
3	0xbdef440d	-0.116829015
4	0xbe32f867	-0.1747757
5	0x3d6e67b4	0.058204368
6	0xbe396c66	-0.18107757
7	0xbe36d03f	-0.17852877
8	0x3e4d41dc	0.20044655
9	0x3dc8e5fb	0.0980949
10	0x3e3930f3	0.18085079
11	0x3d0f91d8	0.035051197
12	0xbda46637	-0.080273084
13	0xbd56c6fc	-0.05243586
14	0x3d146f9b	0.036239248
15	0xbd1f72a6	-0.038927697
16	0x3c4a1aaf	0.012335463
17	0xbee294a6	-0.44254035
18	0xbc259923	-0.010107311
19	0x3e95c411	0.2925115
20	0x3e1ffe00	0.15624237
21	0x3dc6f910	0.09715474
22	0x3cbfe49c	0.02342444
23	0x3d82ac34	0.063805014
24	0xbdb7f05b	-0.08981391
25	0xbe14d6ad	-0.14535017
26	0x3e09db24	0.13462502
27	0xbd43a2ac	-0.047762558
28	0xbe1c19d2	-0.15244225
29	0x3e3f52f2	0.18683985
30	0xbd47d0e9	-0.048783217
31	0xbe0c1d85	-0.13683136
32	0xbe05eb55	-0.13078053
33	0x3e3b48ef	0.1828954
34	0xbdfbc366	-0.12293129
35	0x3c77f2fb	0.015133615
36	0xbe6f011a	-0.23340264
37	0x3d3cfb4a	0.046138085
38	0xbe33d1c0	-0.17560482
39	0x3e35f18c	0.17767924
40	0x3e61908c	0.22027797
41	0x3d77137e	0.060321324
42	0xbdf5e91b	-0.12007352
43	0xbe57026d	-0.20997019
44	0x3cd67b27	0.02618177
45	0xbd140bdb	-0.03614412
46	0xbe7babfc	-0.24577326
47	0xbde8361c	-0.113384455
48	0x3d77e886	0.060524486
49	0xbde86f32	-0.11349334
50	0x3dfb24e2	0.12262894
51	0x3ca3dd4a	0.02000298
52	0x3b81e583	0.0039641275
53	0x3db35934	0.087572485
54	0x3d01a0d1	0.031647507
55	0xbd3c4651	-0.045965496
56	0xbde448da	-0.11146708
57	0xbdab7978	-0.08372778
58	0x3dd0e1df	0.101993315
59	0x3c84c347	0.016206397
60	0x3d7bd4d7	0.061482277
61	0xbee60cf0	-0.44931746
62	0x3e7b1269	0.24518742
63	0x3e3a2b9f	0.18180703
64	0xbf0819e0	-0.5316448
65	0x3e9fc361	0.3120375
66	0x3e3c13d3	0.18366937
67	0xbd81f7f4	-0.063461214
68	0xbda1e367	-0.07904702
69	0xbd9e902b	-0.077423416
70	0xbee37a6d	-0.4442934
71	0xbc187947	-0.0093062585
72	0x3e015450	0.12629819
73	0x3dc5d7ee	0.09660326
74	0xbcdd8901	-0.027042868
75	0x3dfdbe94	0.123898655
76	0xbe4af80e	-0.19821188
77	0x3dace766	0.08442573
78	0x3e09ac5e	0.13444659
79	0xbe52de9c	-0.20592731
80	0xbe8ef632	-0.27922207
81	0x3decb536	0.11558001
82	0xbe556bdb	-0.20841925
83	0xbe7cbb7d	-0.24680896
84	0x3b1f687c	0.0024323752
85	0xbd94ce59	-0.0726592
86	0x3d9dc5eb	0.077037655
87	0x3dd10981	0.10206891
88	0x3dd0e78e	0.102004156
89	0x3dc74aa4	0.097310334
90	0x3cbd46e9	0.023105102
91	0x3e936ed2	0.28795487
92	0x3e1a4958	0.15067041
93	0x3dd9183b	0.10600325
94	0x3ea82850	0.32843256
95	0x3e9dbe9a	0.3080948
96	0xbe4fd135	-0.2029465
97	0x3cf8976f	0.030345647
98	0xbc154b39	-0.009112173
99	0x3e607833	0.21920852
100	0xbe16e031	-0.1473396
101	0xbd8021f8	-0.06256479
102	0xbd3f947c	-0.046772465
103	0x3e3b64d4	0.18300182
104	0xbeecc2b4	-0.46242297
105	0x3d470153	0.048585247
106	0x3dac8cd9	0.08425302
107	0xbe27ec55	-0.16398747
108	0xbe35fd56	-0.17772421
109	0x3dec84c2	0.11548759
110	0x3dbaa0d3	0.09112706
111	0xbe5c0eeb	-0.21490066
112	0x3e1d337f	0.15351675
113	0xbc051056	-0.008121571
114	0x3d271dca	0.040799893
115	0xbddd07b9	-0.107924886
116	0x3e98a9d8	0.2981708
117	0x3d25248f	0.040318068
118	0xbe763605	-0.24044044
119	0x3cfd6bb0	0.030935138
120	0x3daa0e9b	0.08303567
121	0xbdfe4963	-0.12416341
122	0x3dc46b56	0.09590785
123	0xbe0a1897	-0.13485943
124	0x3ddf24b3	0.10895672
125	0x3cfce234	0.03086958
126	0x3e269115	0.16266282
127	0x3d3d056b	0.046147745
128	0xbf1cb805	-0.6121829
129	0x3e91e57a	0.2849539
130	0xbdcc7486	-0.099831626
131	0x3e44b3f6	0.19209275
132	0xbe73c412	-0.23805264
133	0x3e8fa54e	0.28055805
134	0xbe28b5af	-0.16475557
135	0xbea80b6b	-0.3282121
136	0x3e8e738a	0.27822524
137	0xbe1019ac	-0.14072293
138	0xbe03f843	-0.12887673
139	0x3d4767a3	0.04868282
140	0x3e014351	0.12623335
141	0x3c172635	0.009225418
142	0x3da6981f	0.081344835
143	0x3c096593	0.008386034
144	0xbddcdf24	-0.10784748
145	0x3d417226	0.047228
146	0xbe566ecb	-0.20940702
147	0xbe86525e	-0.26234716
148	0x3e010a37	0.12601553
149	0xbd439ebb	-0.0477588
150	0xbd4b1f87	-0.049590614
151	0x3dd9546f	0.106118076
152	0x3d879663	0.06620481
153	0x3dc5e428	0.09662658
154	0x3e7c4976	0.24637398
155	0x3ccb4efc	0.024817936
156	0x3e1258e6	0.14291725
157	0x3dc2737a	0.09494682
158	0x3e3f0424	0.18653923
159	0xbd5d434c	-0.054019257
160	0xbd1fb7f2	-0.038993783
161	0x3d1af0c9	0.037827287
162	0xbd15ae42	-0.03654314
163	0xbd2fa0ae	-0.042877845
164	0xbd03c8a7	-0.03217378
165	0xbc335c24	-0.010947261
166	0x3e801c16	0.25021428
167	0x3e32e8f3	0.17471676
168	0xbe59600f	-0.2122805
169	0xbe8bf362	-0.27334124
170	0x3ceb7c6b	0.02874585
171	0xbe1d785e	-0.15377948
172	0xbcda10cf	-0.026619343
173	0xbd814b6f	-0.06313216
174	0x3cfa4aab	0.030553183
175	0xbe7ce892	-0.24698094
176	0xbd881ea7	-0.066464715
177	0xbdd37ffb	-0.10327145
178	0xbce8fc3f	-0.028440593
179	0x3caf5abc	0.02140557
180	0xbe2f9359	-0.17146052
181	0xbb7517ac	-0.0037398143
182	0xbdc5ef90	-0.096648335
183	0x3dc61867	0.09672623
184	0x3e86c2b4	0.26320422
185	0xbdfda073	-0.12384119
186	0xbb9263d3	-0.0044674664
187	0xbe06e570	-0.13173461
188	0xbdb90c07	-0.09035497
189	0x3c2c5790	0.010518923
190	0xbdbe38d1	-0.092881806
191	0x3cd001d3	0.025391495
192	0x3e6c6776	0.23086342
193	0x3df0a531	0.11750258
194	0x3e386a66	0.18009338
195	0xbdb12634	-0.08649865
196	0xbdb4ef06	-0.088346526
197	0xbd877b59	-0.066153236
198	0x39f21e74	0.00046180526
199	0xbd8d9558	-0.06913251
200	0xbe520b0d	-0.20512028
201	0x3d9ded66	0.07711296
202	0x3e38bac1	0.18039991
203	0xbde5b47e	-0.11216067
204	0x3d54a851	0.05191833
205	0x3e9094fb	0.28238663
206	0x3dc35746	0.095381305
207	0x3e1006b7	0.14065062
208	0xbdecbf88	-0.11559969
209	0xbc947f48	-0.018127099
210	0x3e0090ff	0.12555312
211	0x3d818b7f	0.06325435
212	0x3e0d12eb	0.13776748
213	0x3bd45cc2	0.006480784
214	0x3b2ce5a5	0.0026381996
215	0x3dd1c185	0.10241989
216	0xbd8d0b7b	-0.06886955
217	0x3d8d435c	0.068976134
218	0xbd3a2ae7	-0.04545107
219	0xbc7a08b5	-0.015260865
220	0xbc80e82a	-0.015735704
221	0x3d894fa0	0.067046404
222	0x3e608ad5	0.2192796
223	0x3dc43159	0.09579725
224	0xbd294928	-0.041329533
225	0x3dbac6aa	0.091199234
226	0xbe1b275c	-0.15151733
227	0xbe1de4da	-0.15419331
228	0x3de3b105	0.11117748
229	0x3b3430a5	0.0027494815
230	0xbd53860a	-0.0516415
231	0xbe899981	-0.26874927
232	0x3c849c80	0.016187906
233	0x3db3b092	0.087739125
234	0xbc465209	-0.01210452
235	0x3d93d4e2	0.072183385
236	0x3d0ea472	0.034824796
237	0x3d1f2a97	0.038858976
238	0x3e3a98cd	0.18222351
239	0x3e659a31	0.224221
240	0x3e6c6fec	0.2308957
241	0x3e42f836	0.19039997
242	0xbd8cb751	-0.06870902
243	0xbdcb64ec	-0.09931359
244	0x3e184835	0.14871295
245	0xbdc44fc4	-0.095855266
246	0x3d6fe224	0.058565274
247	0xbe4a9088	-0.19781697
248	0xbe441055	-0.19146855
249	0xbe317965	-0.17331465
250	0x3e8255c4	0.2545606
251	0x3e5f3d6c	0.21800774
252	0x3db51a19	0.08842868
253	0x3c135ae6	0.00899384
254	0xbe2f3eb7	-0.17113768
255	0xbde6e8c3	-0.112748645

fc.weight f4 [2, 64]
0	0xbcbe8f8b	-0.023261806
1	0xbd92a1b9	-0.071597524
2	0xbd2c0c9d	-0.042004216
3	0xbc97827b	-0.018494835
4	0x3c363eea	0.011123398
5	0x3dd8869e	0.10572551
6	0x3d74203a	0.059601046
7	0x3d8c5a2d	0.06853137
8	0x3c731480	0.014836431
9	0x3d9a08e9	0.07521231
10	0x3d2e043f	0.04248452
11	0xbcf4ff06	-0.02990676
12	0xbd83cb91	-0.064353116
13	0x3df155ff	0.117839806
14	0x3ca99532	0.020701025
15	0xbdde9837	-0.108688764
16	0x3cedef25	0.029044697
17	0x3d885555	0.06656901
18	0xbc8fa7fa	-0.017536152
19	0xbd2551e7	-0.04036131
20	0x3e3ddd13	0.18541364
21	0x3deac091	0.114625104
22	0x3db67803	0.08909609
23	0xbcfe4e15	-0.031043092
24	0x3cd056c7	0.025432004
25	0x3c950ee5	0.018195579
26	0xbc0f99e7	-0.0087647205
27	0xbdc4fade	-0.096181616
28	0x3d8814f1	0.06644619
29	0x3dac7bad	0.08422027
30	0xbce48cd4	-0.027899183
31	0x3d0d40c6	0.0344856
32	0x3dbe361b	0.092876635
33	0x3d40edca	0.047101773
34	0xbca1ae68	-0.019736484
35	0xbd93961f	-0.07206368
36	0xbd14dc9f	-0.036343213
37	0x3dddd35f	0.108313315
38	0x3c629132	0.013828563
39	0x3d2c88c1	0.042122606
40	0xbc36c8cd	-0.011156273
41	0xbe81321e	-0.2523355
42	0xbca4ea6c	-0.020131312
43	0x3c163e5b	0.00917014
44	0x3d8ed59e	0.06974338
45	0xbd39e98b	-0.04538874
46	0x3d49d9a3	0.04927982
47	0x3d9f5206	0.077793166
48	0x3c836775	0.016040543
49	0x3d045d22	0.03231538
50	0x3adfb8b1	0.0017068592
51	0xba1a06be	-0.00058756385
52	0xbc98fd4e	-0.018675473
53	0x3d0e05f2	0.03467364
54	0x3cdb93f5	0.02680395
55	0x3e0c2e6e	0.13689587
56	0xbe813aa6	-0.25240058
57	0xbdcd76dd	-0.10032437
58	0x3d63a1b5	0.055574138
59	0x3d3b3aeb	0.045710485
60	0x3ca7852f	0.02044925
61	0xbd353d2f	-0.044247802
62	0x3ce285f0	0.027651757
63	0x3d4445e5	0.04791822
64	0xbc8fb083	-0.017540222
65	0xbdb7489f	-0.08949398
66	0x3caf054a	0.021364827
67	0xbd33c68d	-0.043890525
68	0x3c6b87b8	0.01437562
69	0x3de7c6ac	0.113171905
70	0x3c8b1b8d	0.01698091
71	0x3d243d8e	0.040097766
72	0x3c47a607	0.01218558
73	0x3d6913e2	0.056903727
74	0x3d2a7915	0.04161938
75	0xbd0d7f59	-0.034545276
76	0xbcd1a288	-0.025590196
77	0x3ded8d6c	0.1159924
78	0x3c05dd52	0.008170443
79	0xbdf31686	-0.118695304
80	0x3d229cc2	0.039700277
81	0x3d81598c	0.06315908
82	0xbd68756b	-0.056752604
83	0xbd20efbc	-0.03929113
84	0xbe328dc7	-0.17436896
85	0x3dac3134	0.08407822
86	0x3d1f4531	0.038884345
87	0xbccda828	-0.025104597
88	0x3be5ffcb	0.0070190183
89	0x3c6165d4	0.013757188
90	0xbc0749ad	-0.008257312
91	0xbdc78f19	-0.097440906
92	0x3d9a7a85	0.075429
93	0xbdc8c109	-0.098024435
94	0xbc8812ac	-0.016610466
95	0x3d2c06ae	0.041998558
96	0x3dba5888	0.09098917
97	0x3c2e4bbd	0.010638175
98	0x3d8cff71	0.06884659
99	0xbd85d1b9	-0.06534142
100	0xbd0bc492	-0.03412301
101	0x3dd665a8	0.10468608
102	0x3d8870d0	0.06662142
103	0x3d46106d	0.04835551
104	0x3c1be5f2	0.009515272
105	0x3e8bdccf	0.273169
106	0xbd1b79dc	-0.03795801
107	0x3c8bba66	0.017056655
108	0x3d3c40fe	0.04596042
109	0x3df151c7	0.11783176
110	0x3d585da1	0.052823666
111	0x3da7cd30	0.08193433
112	0x3dbf4997	0.09340208
113	0x3d1f3d58	0.03887686
114	0x39e4fa40	0.00043674
115	0x3c2f697c	0.010706302
116	0xbd1c85c0	-0.03821349
117	0x3d05ac00	0.032634735
118	0x3c9e49f9	0.019322382
119	0x3d8dbd10	0.069208264
120	0x3dcc337e	0.09970759
121	0xbdbe4760	-0.092909575
122	0x3d71466e	0.058905058
123	0x3d3f2b74	0.0466723
124	0x3c894351	0.016755732
125	0xbd1f75bc	-0.03893064
126	0x3ca78e5b	0.020453623
127	0x3c9f4389	0.019441383

fc.bias f4 [2]
0	0x3e80ed97	0.25181267
1	0xbc2ec1e6	-0.010666346
