first_run54loss.pt (torch, 21922 bytes, 16 tensors)

att f4 [1, 1, 32]
00000000: 5ace ce3e 10ed a83e dc90 a2be 5016 433d
00000010: 0048 9d3d b411 9ebe 610e 75be 44de 553e
00000020: 9e0f 76be b4bb 5f3e 8c18 c3be c811 c6be
00000030: 95cc 8ebe a0a6 9e3c d023 ff3d b0f2 9c3d
00000040: 7c34 c5be 40ee 9ebb 2cab 093e 8f46 67be
00000050: 60b4 c3bc 3e12 a93e f897 c13e 22c9 79be
00000060: a011 dbbc d324 9ebe 4c7b a4be bab6 cbbe
00000070: d0a1 3f3e c23e bf3e 907f cd3d bb2c 74be
0.4039181 0.32993364 -0.31751144 0.0476287 0.076797485 -0.3087288 -0.23931266 0.20885569
-0.24029395 0.21848947 -0.38104665 -0.3868544 -0.2789046 0.019366562 0.124580026 0.076634765
-0.38516605 -0.004850179 0.13444203 -0.2258551 -0.02388972 0.3302173 0.37811255 -0.24393132
-0.026741803 -0.3088747 -0.32125318 -0.39787847 0.1871407 0.37352568 0.10034096 -0.23845188

bias f4 [32]
00000000: 5d98 75bd 3868 85bd dfcc 45be 98aa 50bc
00000010: 0000 0000 3e7e e1bd 0000 0000 0000 0000
00000020: 0000 0000 9933 c1bd 72fa a0bd f8f6 a0bd
00000030: 1c6f 69bd 0000 0000 0000 0000 1456 52be
00000040: 0000 0000 181c eebd a5a3 debd 598c c1bd
00000050: 2bb5 43bc 5328 c3bd 9b00 66bd 93f9 e4bd
00000060: 0000 0000 4e30 ffbd e9c7 86bd ba89 35be
00000070: 0000 0000 0000 0000 4f6d 33bd 4cef d63d
-0.059959758 -0.06514019 -0.19316433 -0.012735985 0.0 -0.11010407 0.0 0.0
0.0 -0.094336696 -0.07860269 -0.078596056 -0.056990728 0.0 0.0 -0.20540649
0.0 -0.11626452 -0.108710565 -0.09450597 -0.011945049 -0.095291756 -0.05615292 -0.11180415
0.0 -0.12460385 -0.065810986 -0.1772832 0.0 0.0 -0.043805417 0.10494861

weight f4 [32, 3]
00000000: 952b f3be 091a 32be 8e58 e13e da81 733e
00000010: c0a1 98be 0b1f e6be 6b9f e33e 70d1 0c3e
00000020: 1409 543e 8c7a c33e 05e5 86bc 2aa3 eb3e
00000030: 6061 3cbd fdc6 b2be c345 b3be 1f29 373e
00000040: 834a bc3e a5a3 a73e ff69 01bf b645 c73e
00000050: 463d c2be b8d3 b13d 0f98 0abf 6e1e b3be
00000060: 90b3 53bd cfae c8be 88b9 ccbe f50f 973e
00000070: 4475 a83e 0c59 8ebd ec19 e2bd 2322 11bf
00000080: 1264 043d 0832 e93e ceba 283d ab27 9dbe
00000090: 20cb babe 54e0 14bf 03f3 05bf 20ba 83bd
000000a0: e292 33be b69b 873e 1014 783e 9829 8e3d
000000b0: dff9 d0be cb01 92be d8ca a93e 524e 7a3e
000000c0: 08b3 443e 48df 94bd a058 b2be 6f0d 2fbe
000000d0: b679 6e3e 4552 a23e 7827 403e e71c 6abd
000000e0: 150a 68be 595a e53e f2d3 98be 98e6 1fbf
000000f0: 90f2 01bf 6fb9 bbbe 1410 fabe e314 4fbe
00000100: 0aa4 ebbe be3f ca3e 5062 3b3e 1216 30bd
00000110: 3d7e 0fbf 8dce d93e 8a9c b43d 8d27 b3be
00000120: 8dc7 ebbe 0c57 2abe b6fe 6fbe 85b2 9bbd
00000130: 4e88 d03d d9de 2a3e c393 23bf b6af d9be
00000140: c778 fb3e d09c 4cbe fd4f d03e 0773 f43d
00000150: 2fce 00bf 38e1 803d fa49 c0be ce3d bcbe
00000160: affc 04bf 6876 cf3e 84a0 fd3e 95c0 2a3e
00000170: 60bc dbbe aa09 03bf c27a 5d3e 8292 063d
-0.47494188 -0.17392744 0.44012874 0.23780003 -0.29810905 -0.4494556 0.44457564 0.13751769
0.20706588 0.38179433 -0.016466627 0.46022922 -0.0459913 -0.3491744 -0.3501416 0.1788678
0.36775598 0.32742038 -0.5055236 0.38920373 -0.37937373 0.0868296 -0.54138273 -0.34984154
-0.051684916 -0.39195868 -0.399853 0.29504362 0.32901967 -0.06950578 -0.110401005 -0.56692713
0.032321997 0.45545983 0.041193776 -0.30694327 -0.36483097 -0.581548 -0.5232393 -0.06431985
-0.175365 0.26485986 0.24226403 0.06941527 -0.40815637 -0.28516993 0.3316257 0.2444394
0.1920892 -0.0726915 -0.3483324 -0.17094968 0.23288617 0.31703392 0.18765056 -0.05715647
-0.22660096 0.44795492 -0.298492 -0.62461233 -0.50760746 -0.36664912 -0.48840392 -0.20222811
-0.4602359 0.39501756 0.18299222 -0.042989798 -0.56052 0.42540398 0.0881892 -0.34991112
-0.46050683 -0.16634768 -0.23437008 -0.07602409 0.10182248 0.16686572 -0.6389734 -0.4251687
0.49115583 -0.19981694 0.40686026 0.11936002 -0.5031461 0.06292957 -0.3755644 -0.36765903
-0.51948065 0.40520024 0.49536526 0.16675027 -0.42917156 -0.5118662 0.2162886 0.032854564

bias f4 [32]
00000000: ba27 44be 6e55 e53e 66bc a93e 52a7 ffbe
00000010: 6ea9 61be f151 07bf 2c5d d4bd 3d05 dfbe
00000020: 95ff 08bf 4a0e 153e 51f5 ad3d 646f bbbe
00000030: 16a8 f1bc 7375 90be 9bf3 10bf 75cf a33e
00000040: e0c5 b9be 28d0 3e3e 5a93 37be 9647 6ebd
00000050: 0359 073f ed0d 153e 58ee cc3e f2b3 d0be
00000060: 1706 9abe f3b1 cebc e610 ccbd f75f 0a3e
00000070: 7a03 eabe 1cbe dfbe 79bf 09bf 22a4 8b3e
-0.1915578 0.4479174 0.3315155 -0.49932343 -0.22037289 -0.5285941 -0.103693336 -0.43558684
-0.5351499 0.14556232 0.08494056 -0.36608422 -0.029499095 -0.28214607 -0.5662171 0.31994215
-0.3628378 0.18634093 -0.17927304 -0.05817374 0.52870196 0.14556094 0.40025592 -0.40762287
-0.3008277 -0.025231337 -0.099641606 0.1351317 -0.45705777 -0.4369973 -0.5380779 0.2727366

weight f4 [32, 3]
00000000: b974 d4be 76aa 033f 22d9 11bf 808f d7be
00000010: 2e6b a53e 90a4 dabd 3991 08bf f0bb 0b3f
00000020: 8076 59bc 7889 353e 64ce 203e f03a ea3e
00000030: 8a48 913e c047 eebe 64e8 0abf d10f cfbe
00000040: c0f9 053e e2ca 18be 2faa f3be 4cae 493e
00000050: c00b d4be 6845 f5bd 5864 db3e 3c45 923e
00000060: 460a be3e 6036 80bd 5c6b d2be bc80 f83e
00000070: 183a 113f 3800 793e 2caa 6a3e 60fb e4bc
00000080: cc8c babd 08d8 403e cc6c c2be 3f22 8ebe
00000090: 10aa bcbd 38e3 423e b272 8e3e 38a1 0a3f
000000a0: 3662 d33e 93ce 10bf adb1 11bf 0008 99bb
000000b0: 7777 0fbf aa1c d33e 34bc 1cbe 081f f43e
000000c0: c0de e1bc 187a eb3e 6092 89bd 78a2 f73d
000000d0: b7d7 b4be a201 9f3e 485c fc3e e050 b43e
000000e0: 84f8 1cbe dcf3 ae3e 8a99 16be b69f afbe
000000f0: e2aa c6be 340f f93e c0e6 fd3d f4f6 753e
00000100: 7419 b33e 7cce 253e 2afc 083f c272 b03e
00000110: 20b3 5e3e 0869 d73d e87c 7f3e 20d7 973e
00000120: 3667 953e c351 cfbe 3e75 21be f5d4 f7be
00000130: 24fe d73e 00ea 9abb d0e7 593d 88ef 493e
00000140: 25c2 99be d0ad 513d 241f 9a3e 589a e9be
00000150: 566c 23be 7ae3 123f e0cf 2e3d c41f 293e
00000160: 804a 0ebc 5e2f a53e 104f ea3e e067 903e
00000170: f869 f7be d227 c1be 008a 593e 5032 213e
-0.41495302 0.5143198 -0.56971943 -0.4210167 0.32308334 -0.10675919 -0.5334659 0.54583645
-0.0132728815 0.17728221 0.15703732 0.4574809 0.28375655 -0.46539116 -0.5426085 -0.40441754
0.13083553 -0.14921144 -0.47590777 0.19695395 -0.41415215 -0.11976129 0.42849994 0.28568447
0.37117213 -0.06260371 -0.41097534 0.48535717 0.5672927 0.2431649 0.22916478 -0.027951896
-0.09108886 0.1883241 -0.3797363 -0.27760503 -0.09212124 0.1903199 0.2782188 0.5415225
0.41285866 -0.5656521 -0.56911737 -0.004670143 -0.56041664 0.41232806 -0.15306169 0.47679925
-0.027572036 0.45991588 -0.06717372 0.12091535 -0.35320827 0.31055933 0.49289155 0.35217953
-0.15329176 0.34170425 -0.14707008 -0.34301537 -0.38802248 0.48644412 0.12397528 0.24019986
0.34980357 0.16192049 0.5350977 0.34462553 0.21748018 0.1051808 0.24949992 0.29656315
0.29180306 -0.40492067 -0.1576738 -0.4840466 0.4218608 -0.004727602 0.05319959 0.1972028
-0.30030933 0.05119115 0.30101883 -0.45625567 -0.15959296 0.5737835 0.042678714 0.16516024
-0.008684754 0.322627 0.45763445 0.2820425 -0.48323035 -0.37725693 0.21244049 0.15741849

bias f4 [32]
00000000: d977 e9be ec78 07bf 8479 0f3f 9013 4fbe
00000010: 7079 5d3e 42a6 4dbe 0c38 763e f06f 053e
00000020: a25a 023f 9807 333e 4071 ec3c 6427 b4bd
00000030: 3e87 8d3e aa4e 7dbe 1889 b43e b8da 43be
00000040: acba 463e 0004 133f ca5e 93be 2d4b 8ebe
00000050: 71f5 b6be b4db 053f be79 3cbe 1a85 4bbe
00000060: 2919 bfbe 3f54 93be 300d 90bd 15a4 a0be
00000070: d0a4 5fbe 783e b7bd 88bf 10be 40f9 18be
-0.4559925 -0.5291889 0.56044793 -0.20222306 0.21628356 -0.20082954 0.24044818 0.13030982
0.50919545 0.17483366 0.028862596 -0.08796576 0.27642244 -0.24737039 0.35260844 -0.19126403
0.19407147 0.5742798 -0.28783256 -0.2779173 -0.35734132 0.52288365 -0.18405816 -0.19874993
-0.37323883 -0.28775212 -0.07033765 -0.31375185 -0.21840215 -0.08947462 -0.14135563 -0.14938831

weight f4 [32, 1]
00000000: 7662 7c3f 80eb 3bbc 165f 2abf 4e0c 0abf
00000010: 14fc 0abf f0dc f4bd 5070 ffbd e86e d63e
00000020: 8a3b 773f 389f 8a3e e429 cf3e 20fa 893d
00000030: cc0f 69bf 3eb6 7ebf 1c42 d03e d687 60bf
00000040: 80c6 4e3e 80d0 fabc 3a51 133f 5699 2dbf
00000050: 7a06 4a3f c88c f03e e073 8dbe 9076 c23e
00000060: 9c7c ffbe dc9c a0be 208b f63d 909c fabd
00000070: d6fa 02bf 9038 763e a4f2 63bf 0e3f 3e3f
0.9858774 -0.011469722 -0.6655134 -0.53925025 -0.5429089 -0.11956203 -0.12472594 0.4188149
0.96575224 0.270746 0.40461648 0.06737161 -0.9103973 -0.9949683 0.40675437 -0.8770727
0.20192909 -0.030616999 0.57545817 -0.678121 0.7891613 0.46982408 -0.27627468 0.3798108
-0.49899757 -0.31369674 0.12038255 -0.12236893 -0.51163995 0.24045014 -0.89042115 0.74314964

att f4 [1, 1, 32]
00000000: e0cb 783e cefe d83e 2ce0 32be 87c2 4cbe
00000010: 8892 babe 22d2 af3e 583e 3c3e 345d 313e
00000020: c42d 5e3e 6c2e efbd 5675 c23e 90dc b0bc
00000030: d066 acbe c044 4abe 245f 213e ac88 8f3d
00000040: 6055 ca3d 0606 cf3e e840 c0be 306b 76be
00000050: 0844 c0be f240 9fbe acda c83e 4063 0c3c
00000060: b2d3 afbe b495 533e be9b c33e c0cf 833d
00000070: 4049 91bb aa96 bc3e c628 9ebe b2a8 ca3e
0.24296522 0.423819 -0.17468327 -0.19996081 -0.3643992 0.34340006 0.18383157 0.1732071
0.21697146 -0.11678776 0.37980145 -0.021589547 -0.3367219 -0.19752789 0.1575895 0.0700849
0.09879565 0.40434283 -0.3754952 -0.24064326 -0.37551904 -0.31104237 0.39229333 0.008568585
-0.34341198 0.20662576 0.3820476 0.064361095 -0.004433781 0.36833698 -0.30890483 0.3958183

bias f4 [32]
00000000: 83d3 b93d d785 4ebd 573b 8bbc 71fb 4dbc
00000010: 95cf 97bc 989b 503d 422d 07bc 9698 07bc
00000020: 12b5 4e3c 4bb2 20bb 5d6c a03d eaf2 e9bc
00000030: ea3c 013d c535 463c c951 a2bc e133 913a
00000040: 8e64 283d 61f4 0ebd 1812 64bc 8738 64bd
00000050: 9fdd f5bb 8685 4c3d 2173 ffbc 7f25 88bd
00000060: 904a 083d 3ce9 173a 04db 9a3d 2668 a3bd
00000070: 480f 503d 651e 2d3d 3d7d e5bb 72e6 673c
0.09073546 -0.05042061 -0.016996069 -0.012572155 -0.0185316 0.050929636 -0.008250536 -0.008276125
0.012616413 -0.0024520333 0.07833169 -0.028558213 0.031552233 0.012097781 -0.019814389 0.0011078083
0.04111152 -0.034901027 -0.0139203295 -0.05571797 -0.007503226 0.049932025 -0.031182827 -0.06647777
0.033274233 0.00057949475 0.07561305 -0.07978849 0.050795823 0.042265315 -0.007003455 0.014154064

weight f4 [32, 32]
00000000: d520 083e 988f d7bd 821c 31bd 7c62 683d
00000010: 49fe 213e ac1d f93d 1c7e 78bd 2400 00be
00000020: 46f8 95bd 3402 99bd 882e 8e3d 7ff3 e43d
00000030: a535 edbd 60b1 d5bb b03e 18be 9295 edbc
00000040: c185 cabd 906c 523e 90d3 643c aaa8 84bd
00000050: 3acf 29bd 6701 073e 300c 7b3d bd16 47bd
00000060: b9f7 213e 2fe0 3d3e cb98 983d 64f2 a0bd
00000070: 2bbf 16be de74 ecbd e9fc 393e 9c21 a9bd
00000080: c3de 193d 0b6b b93d aae2 ff3d 1dfa 4b3d
00000090: a858 bf3c 5e22 07be 5107 30be 08e8 21bd
000000a0: 9936 0c3e 48df 76bd 4b40 8ebd f809 4abd
000000b0: 695b f0bc 3819 463d 0046 7abb 900c bf3d
000000c0: 4049 c6bb caed 05be 24a0 6d3d faf1 01be
000000d0: 03b0 8ebe 00a8 de3d 6bf4 f2bd cc5c b53d
000000e0: 16ab 00be cfe7 b03b c1e9 8a3d db59 d03d
000000f0: b1da 083e 7586 023e 6995 c53d 7987 b8be
00000100: cd1d cabd 398f c23d de72 36bd 97a2 5cbd
00000110: 64eb 683d 6052 233d 6a25 f13d c93a 2c3e
00000120: 4c05 f1bd fa50 42bd a5c1 1dbd 1d6d 0f3e
00000130: 43a5 033e 7a61 21be 053f ccbd 4058 05bd
00000140: a2d6 d93d e3fe 0d3e 6dda 20bd f58f 0fbe
00000150: f1d7 75bd e2b1 35be 6070 f73d 9a8b 3f3d
00000160: e28e 1cbe 0d40 b9bd 89a3 f1bc f41e 30bc
00000170: 7e17 d13d b0d8 16bd 160f 1bbe 3222 b6bd
00000180: 1e06 8ebc a068 d43b 7871 07be ad9e c23b
00000190: cbd5 30be 72c6 7abd 9ab8 fa3d 9759 a7bd
000001a0: c8d8 193d ef48 013e f942 383d 4a96 333d
000001b0: 96a6 0bbd 83e5 b7bd 37f1 113e fa3a 893d
000001c0: af87 d1bd 20fa 7b3d 2a23 1b3e a5da 40bd
000001d0: 23ca 263d a45f 24be 2f19 69ba fe3c 713a
000001e0: 78f0 d7bd be63 10be 0560 bebd 7881 883d
000001f0: 8d9f dfbd b85f 86bd 45e4 e13d 5d7c 64bd
00000200: e061 dcbd 0ec6 24bb 6765 8fbc 86fa 4b3d
00000210: 10e6 4b3d 2017 89bd d37c 1c3e 6840 2fbd
00000220: 2d95 303e ef33 84bd f836 163e 76ac 623d
00000230: 088c a23d 9c46 283d ac86 07be 02eb 64bd
00000240: 974a 1c3e 5f51 533d 2a7a 003e d065 d4bc
00000250: a8a4 23bd f0e1 073e d2a9 713d b04c 293d
00000260: 5fe5 02be 15e7 02be b7c4 3ebe c076 e63d
00000270: 7a35 b83d cdae 0f3e a1f2 883d bfef 49bd
00000280: cdb6 f53d b0d4 a2bd 6216 f6bd ffc1 003d
00000290: 0896 1fbe bb01 c5bd 1db9 153e 92e9 d03d
000002a0: e01f 4fbd 9a9e 803d 697a 323e 8673 393e
000002b0: 3710 883c eb0a febd 52c8 f93d 6f6d 293e
000002c0: 7016 33be 068e e33d b74f f2ba 79c9 1d3e
000002d0: 0846 a93d 74a9 8f3b 00d2 08bd af28 04bc
000002e0: 9c6d 08be 31cd 593d a915 123e 0a1e 01bd
000002f0: 1133 f2bd b470 b1bd f2aa 76bd d510 bf3d
00000300: 201f 5ebd eeda a2bd ffc6 bebd a45c ad3d
00000310: bc61 19bd 7993 5bbd 8684 bebd a247 f53d
00000320: c723 203e 6388 3dbd 3897 d5bc ab78 003d
00000330: 2cba fcbd 3d3c 223e 23e8 193e 50f3 033e
00000340: e293 66bd 91de 9b3d 9b61 bcbd a8c1 323d
00000350: 6a4b 213e 6454 eb3d b811 253d b019 a93d
00000360: 5b7d 0dbe 2607 28be 8770 223d fc61 183e
00000370: b386 2f3e b447 02be 73ec 83bb bf22 5e3e
00000380: 4350 24be 5b34 f23d d2bf 8abd 0589 403e
00000390: 80a2 71bc 6091 5d3c 6e15 a43d 0051 66bb
000003a0: 8561 313e f3bc 32bc 2fb0 233e 09dd ad3d
000003b0: 4924 943d 16ab ea3d dd52 263e 3fee 47bd
000003c0: a8fd d63c 8664 913b d62d c7bd df4c a4bb
000003d0: 6f8d 05be 38de 3f3d 4488 a93d 9b7d f63d
000003e0: b026 133c 4091 193e b077 a6bd 9603 d03d
000003f0: d646 cc3d d2bb a83d dc43 1dbe d321 563d
0.13293774 -0.10525435 -0.043240078 0.056734547 0.15819658 0.121638626 -0.060667142 -0.12500054
-0.07322745 -0.07471123 0.06942469 0.11179256 -0.115824975 -0.006521389 -0.14867663 -0.029001985
-0.09888793 0.20549226 0.013966456 -0.064774826 -0.041457392 0.13184129 0.06129092 -0.04860567
0.15817155 0.1854255 0.07451018 -0.07858732 -0.14721362 -0.11545728 0.18162884 -0.082583636
0.037565958 0.0905362 0.124944046 0.049799073 0.023357704 -0.13196704 -0.17190291 -0.039527923
0.13692702 -0.06027153 -0.06945857 -0.049325913 -0.029340463 0.048363894 -0.0038188696 0.09328568
-0.0060512125 -0.1307899 0.05801405 -0.12689963 -0.2786866 0.10871887 -0.11863025 0.0885559
-0.12565264 0.0053987275 0.06782866 0.101733886 0.13364674 0.12746604 0.09647638 -0.36040857
-0.09868965 0.09499974 -0.04454314 -0.053865995 0.05686511 0.03987348 0.11774714 0.168193
-0.117685884 -0.047440507 -0.038514752 0.14006467 0.12856011 -0.1575984 -0.099729575 -0.032554865
0.10636641 0.13866763 -0.039270807 -0.14019759 -0.06002039 -0.17743638 0.12081981 0.046763994
-0.1528888 -0.0904542 -0.029496925 -0.010749567 0.10209559 -0.036827743 -0.15142474 -0.08893241
-0.017336901 0.006482199 -0.13226879 0.005939326 -0.17269056 -0.06122441 0.12242241 -0.08171385
0.037560254 0.12625478 0.044985745 0.0438445 -0.034094416 -0.08979323 0.14252172 0.06700702
-0.10230958 0.061517835 0.15150133 -0.047083516 0.040720116 -0.16052109 -0.0008891997 0.0009202509
-0.10543913 -0.14100549 -0.09295658 0.06665319 -0.10919104 -0.06561226 0.11029867 -0.055782665
-0.10760856 -0.0025142464 -0.017504407 0.049799465 0.04977995 -0.06693864 0.15281992 -0.042786032
0.17244406 -0.06455218 0.14669406 0.055340253 0.07936865 0.041082963 -0.13234967 -0.055888183
0.15262829 0.051591273 0.12546602 -0.025927454 -0.03995195 0.13269782 0.058999844 0.0413329
-0.1278281 -0.12783463 -0.18629728 0.112531185 0.08994575 0.14031525 0.06686903 -0.049300905
0.11997757 -0.07950723 -0.12015988 0.03143501 -0.15584576 -0.09619471 0.14621396 0.102008
-0.050567508 0.06280251 0.17429508 0.18110475 0.016609294 -0.12404426 0.12196411 0.16545652
-0.17489028 0.11111073 -0.0018486892 0.15408887 0.082653105 0.004384214 -0.033403397 -0.00806634
-0.13323063 0.0531742 0.14266075 -0.031522788 -0.118261464 -0.086640745 -0.06022162 0.09329382
-0.054228902 -0.07951914 -0.09315299 0.084649354 -0.037446722 -0.053607438 -0.093026206 0.119765535
0.15638648 -0.046272647 -0.026073083 0.031365078 -0.12340197 0.15843292 0.1502996 0.12885785
-0.056293376 0.076108105 -0.09198304 0.043641716 0.15751424 0.114907056 0.0403001 0.082568526
-0.1381735 -0.16408977 0.039658096 0.14881128 0.17141227 -0.12722665 -0.0040259897 0.21692942
-0.16046242 0.11826392 -0.06774868 0.18802269 -0.014748216 0.01352343 0.080119 -0.0035143495
0.17322357 -0.010909307 0.15985177 0.08489425 0.07233483 0.11458413 0.16242547 -0.048811194
0.026244 0.004437032 -0.097255394 -0.0050140466 -0.13042234 0.046842784 0.08277944 0.12035676
0.008981392 0.14996815 -0.08128297 0.10156934 0.099744484 0.08238949 -0.15357918 0.05227835

bias f4 [32]
00000000: b7a3 e8ba acdb 12be 5f95 16bd e80f 8cbd
00000010: 5693 193e 950c e4bd c567 1dbe 014a a9bc
00000020: 943b 27be 6f66 c53d 3f00 9dbd 3874 f03d
00000030: d46a 263c 3732 a1bd 592a e83d 9c98 11be
00000040: e208 bbbd c8f0 803d eb7a 74bc 3ef1 abbd
00000050: 9659 ed3d b798 97bd 997c aebd c4e2 0c3d
00000060: 10bc ebbc e0f5 af3d cc5e 82bc b9a3 e6bc
00000070: 7262 273e bba8 06be e03b efbd 4fd6 373d
-0.0017748986 -0.1434161 -0.036763545 -0.068389714 0.1499761 -0.11135212 -0.15371616 -0.02066517
-0.16331321 0.09638678 -0.076660626 0.11740917 0.010157306 -0.07870906 0.11336202 -0.14218372
-0.09132554 0.062959254 -0.014921884 -0.08395623 0.11589353 -0.07402175 -0.08519859 0.034395948
-0.028776199 0.08591819 -0.015914343 -0.02815424 0.16346148 -0.13150303 -0.11681342 0.044882115

weight f4 [32, 32]
00000000: e701 1d3e 8ff1 99bd d370 1e3e 465b aabd
00000010: 8a07 2abe 4ef5 a5bd 6010 973b 46f4 a63d
00000020: b60d ed3d cced b9bd ba73 8abd 91c7 1e3e
00000030: 985a adbc b6cf 1ebe 98e4 cd3c 2aa3 a33d
00000040: 8f03 cebd 2fcc 143e a856 06be 8086 a9bc
00000050: bd1e 22be 4e88 973d 687a 7b3d f3c1 103e
00000060: 7feb 203e 4ad3 fdbd 5cf6 dfbd 1ec0 b13d
00000070: 80b8 11bd b2aa 843d 3592 bdbd 505e 04be
00000080: 5e05 9f3d b51e 17be 9a30 8b3d 3559 fabd
00000090: 01ca 273e abb7 2cbe e125 303e bc24 a2bd
000000a0: 623e cf3d 00c5 b93b 68dc e23c e199 f7bd
000000b0: 4033 8cbc 3824 2c3d 5823 9c3c e41e 2d3d
000000c0: 6092 b8bc f94e 16be aedb cf3d 1ef6 a53d
000000d0: 1024 9dbc d0fb 563c 535a aebd 33dc 323e
000000e0: fa72 b53d 90df 48bd d50e 2b3e 40ca 363b
000000f0: de53 a53d 4877 ddbc 3359 223e eec0 ba3d
00000100: 4818 213d 6b53 c3bd 54dd 8e3d 0d0b 2dbe
00000110: 86dd a73d 6a97 aebd f31f 323e 77ed 2b3e
00000120: 9662 a8bd 4a58 ccbd 20b4 483c ea06 f4bd
00000130: 6562 e0bd 1113 213e 41e9 81bd 20b1 193d
00000140: 4725 31be 00bc c9ba 94f2 13bd 804c 8e3b
00000150: c012 423c b0ef bbbc 5efa a9bd 1b0f 27be
00000160: e7c0 81bd 8d2d 89bd 6080 c1bd 1083 1bbc
00000170: 027f 54bd 997d 1b3e 1e67 9a3d 78c0 5e3d
00000180: 10f0 b5bc 00c5 313a 8274 d53d fa0f a73d
00000190: 6bf1 003e b8c6 01be e538 1d3e cf90 11be
000001a0: 8394 1ebe 1028 d0bd 1a17 973d 3c1b eebd
000001b0: c0c1 ee3b 4caf 3a3d 48eb f4bc c9e2 083e
000001c0: 67c2 dcbd 5026 7d3d 172d 053e ca0d f73d
000001d0: a06c 11bc 3809 173d 1032 e1bc 4b20 113e
000001e0: be62 ca3d 397a 103e f279 edbd 0e4d 863d
000001f0: 98dd e8bc e1eb 123e cb2f d3bd b805 d33c
00000200: 7190 1fbe 005d fabb c0d3 12bc 7b77 d0bd
00000210: 3f3a 89bd c8e9 503d e82d fe3c d20d 89bd
00000220: 7285 cd3d c0a8 6dbd a208 813d d173 88bd
00000230: 0d8f cdbd bc28 2a3d c6a8 983d 6808 c33c
00000240: 0f3a ecbd 5366 8cbd 9562 313e b160 0dbe
00000250: 7298 993d e029 ab3b 98fc debc 2fc6 1d3e
00000260: a8b9 6b3d 189a afbc 5468 04be dd2a 2e3e
00000270: 3cc1 8ebd f836 e43c d052 b23c 6acd 24be
00000280: 3216 21be d560 0a3e 2627 913d 8d3d 0d3e
00000290: b224 ac3d fad1 eb3d 9c87 7dbd 122c b33d
000002a0: 382b 743d da66 933d a15a a0bd bad0 d03d
000002b0: 44d9 153d b76a 85bd 8d36 30be 888d f03c
000002c0: 32bb 853d 2b46 32be 4303 0a3e e82e 9dbd
000002d0: cfe4 0cbe 4021 0f3b 3716 23be 3013 f9bd
000002e0: b833 533d 4786 153e ca12 21be 4494 57bd
000002f0: 8841 b53c fefd e4bd 4041 833d 00d6 1d3c
00000300: 7a85 cc3d 7063 34be 5de9 90bd 8000 a53a
00000310: 3931 253e e0be 433c a0c4 34bd b76f edbd
00000320: 9269 cabd 9640 f83d 06fb f8bd 5a4d d73d
00000330: 4687 d93d 004a 2c3a 6097 323d 2c97 3bbd
00000340: 00db 223d 1a96 15be 20eb 4f3c d0d0 6dbc
00000350: 4097 92bb 9dac 153e c01b 36bc f322 223e
00000360: 2810 483d 1c7b 283d e9ff 143e c1dc 183e
00000370: c41a 6ebd 8e9a b33d 1e28 b13d be00 c43d
00000380: 66f1 9a3d fe7b f63d 301c b1bc bec4 18be
00000390: 5832 623d 375d 323e 20df 443c ba04 ce3d
000003a0: 800c cbbb 2898 0cbe 7ed6 05be 08a3 aa3c
000003b0: 2025 3abd 6bad b5bd f18d 2b3e 2883 febc
000003c0: 8143 83bd e012 a13b 9c9f 23bd da2e b8bd
000003d0: 30ff 333d f8b3 c53c 6034 e2bc e7b8 11be
000003e0: c7e4 15be aa20 9bbd 2e2e a63d 002a 25be
000003f0: facd 05be 1a1b f33d 6827 f3bc 0009 d8ba
0.15332757 -0.07516777 0.15472727 -0.0831819 -0.16604438 -0.08103429 0.0046101063 0.0815206
0.11574881 -0.09078559 -0.06760354 0.15505816 -0.021161363 -0.15508923 0.025133416 0.079901055
-0.100592725 0.14531015 -0.13118994 -0.020694017 -0.15832038 0.07399045 0.061396033 0.14136486
0.15714835 -0.12393816 -0.10935661 0.086792216 -0.035576344 0.0647787 -0.092564024 -0.12926602
0.077646956 -0.14757808 0.067963794 -0.12224046 0.16385652 -0.16866939 0.1720195 -0.07917163
0.101193205 0.005669236 0.027692989 -0.12089897 -0.017114282 0.04202673 0.019059822 0.042265788
-0.022530735 -0.14678563 0.101493225 0.08103584 -0.019182235 0.01312156 -0.08513322 0.17466812
0.08859821 -0.04904133 0.16704877 0.0027891546 0.08072637 -0.027034417 0.1585434 0.0911883
0.039329797 -0.09537395 0.06975809 -0.16898747 0.08196549 -0.08524974 0.17395 0.16789804
-0.08221929 -0.09977777 0.012249976 -0.11915381 -0.10956267 0.1572993 -0.06343318 0.037522435
-0.17299376 -0.0015391111 -0.036120012 0.0043426156 0.011845291 -0.02294144 -0.08299707 -0.16314356
-0.06335621 -0.06698141 -0.09448314 -0.009491697 -0.051878937 0.1518463 0.07539199 0.05438277
-0.022209197 0.00067813694 0.10422613 0.08157344 0.12592094 -0.12673461 0.15353735 -0.14215396
-0.1548634 -0.10163891 0.07377453 -0.11626288 0.0072862804 0.045577332 -0.029897347 0.13367762
-0.10779267 0.061804116 0.13005482 0.12063177 -0.008875996 0.036874026 -0.027489692 0.14172475
0.09882115 0.14109124 -0.11595525 0.06557666 -0.028425977 0.14347793 -0.1031185 0.025759563
-0.15582444 -0.007640481 -0.008961618 -0.10179039 -0.06700563 0.0510042 0.03102775 -0.06692089
0.10035218 -0.05802226 0.06300475 -0.06662715 -0.100370504 0.041542754 0.07454066 0.02380772
-0.11534511 -0.06855454 0.17322762 -0.13806416 0.0749978 0.0052234977 -0.027220055 0.15407632
0.057550102 -0.021435782 -0.12930423 0.17008539 -0.0697045 0.027858242 0.021768004 -0.16093984
-0.15731123 0.13513501 0.07087545 0.13793011 0.084054366 0.11514659 -0.061896905 0.0874864
0.05961153 0.07197352 -0.07829786 0.101960614 0.036584154 -0.06514495 -0.1720831 0.029364362
0.06529845 -0.1740958 0.13477807 -0.07674962 -0.13759159 0.0021839887 -0.15926443 -0.12161863
0.051562995 0.14602004 -0.15729824 -0.05263163 0.022125974 -0.11181258 0.0640893 0.009633541
0.09986396 -0.17616057 -0.070757605 0.001258865 0.16132058 0.011947364 -0.04413283 -0.115935735
-0.09883417 0.12121694 -0.12157254 0.105128005 0.106215045 0.0006572306 0.043601394 -0.045798466
0.039759636 -0.1460804 0.0126903355 -0.014515117 -0.004473597 0.14616628 -0.011115015 0.15833645
0.048843533 0.04113303 0.14550747 0.14927961 -0.058130994 0.08769713 0.0865023 0.09570454
0.07565574 0.120353684 -0.021619886 -0.14918801 0.055223793 0.17418371 0.012016088 0.10059495
-0.0061965585 -0.13729918 -0.13070104 0.020829692 -0.04544556 -0.088709675 0.16753365 -0.0310684
-0.0640936 0.00491558 -0.039947137 -0.08993311 0.043944538 0.024133667 -0.027612865 -0.14230691
-0.14638053 -0.075745896 0.08114277 -0.16129303 -0.13066855 0.118704036 -0.029681876 -0.0016482174

bias f4 [32]
00000000: de11 a43d d0cf 313c cbb5 163e f833 903c
00000010: b18b c7bd 1a07 fc3d 455d afbd 804c 983b
00000020: 580b 26bd 24ef 35bd 66c8 0fbe a424 703d
00000030: 8dea 023e 10b4 47bc 500d 813c 325e b73d
00000040: 261b ce3d 54d9 2cbe b4b8 843d 2884 c8bc
00000050: a25f ca3d 5d53 15be 0ce4 7fbd 37cd b9bd
00000060: 72f7 bb3d 90b4 2abd 106e 543d e9da 153e
00000070: 03fe 1d3e 3456 793d 425b e33d 3a60 963d
0.080112204 0.010852769 0.14717786 0.017602906 -0.09743441 0.12306042 -0.085627116 0.0046477914
-0.040538162 -0.044417515 -0.1404129 0.058628693 0.12784787 -0.012188926 0.015753418 0.08953513
0.10063772 -0.16879779 0.06480542 -0.02447708 0.09881522 -0.14582582 -0.06247334 -0.09072345
0.09178056 -0.041676104 0.051862776 0.14634289 0.15428929 0.060873225 0.111013904 0.073425725

weight f4 [32, 1]
00000000: 20e7 aebe ba28 16bf d830 613e 0206 263f
00000010: 4c97 62bf 74eb 2b3f f065 e0be 4c1f 84be
00000020: 5430 66bf d499 153f ac32 263f dee1 5a3f
00000030: 24f0 f9be 904b 83be 500d 86bd fe9e 7bbf
00000040: b8d2 063f 7020 3bbf 106e 703f c095 493f
00000050: 84cf d23e 0810 16bf 4034 abbd 8e37 1dbf
00000060: 440c 90be 28ca db3e 7823 1d3e 3c78 003f
00000070: 8009 5c3f feea 243f dc4b 03bf 40e7 443f
-0.3416071 -0.58655894 0.21991289 0.6485292 -0.8851211 0.6715615 -0.43827772 -0.25805128
-0.8991749 0.5843785 0.6492107 0.85500896 -0.48816025 -0.25643587 -0.06545508 -0.9828948
0.5266528 -0.7309637 0.9391794 0.78744125 0.41173947 -0.5861821 -0.08359575 -0.61412895
-0.28134358 0.4292767 0.15345562 0.50183463 0.85951996 0.6442107 -0.5128763 0.7691536

weight f4 [2, 32]
00000000: 2212 9cbc 36d2 1cba b41b a2bd adef 9b3d
00000010: c1c9 85bd fbc9 073c b521 0a3c 5cbf 4cbc
00000020: a389 b33d f490 dfbd f189 183e d9c4 e03c
00000030: 23a4 26bd eb23 163d c8d6 c7bd 4328 283d
00000040: bc3f eabb b47c 203e 740b c83d f576 f33d
00000050: d187 cebd 25d4 10be c9d7 04bd a723 d7bd
00000060: 0d10 6c3d f487 9a3d 1ce0 c0bd 5db9 d3bd
00000070: dbf8 b33b 620b 69ba 37bd 83bd 4755 4ebc
00000080: 1346 debc aa4a 41bd 3973 9ebd 0c87 b33d
00000090: 19f8 81bd 5b39 903c 343a c63c dbd6 46bc
000000a0: a463 b03d 838c ebbd 4578 1e3e 7a76 953c
000000b0: 97d7 d7bc 7f33 613d 7103 cabd 1c3b c5bd
000000c0: 034b 093d 0322 203e a590 b03d 89db 813d
000000d0: cfdf fa3b 9e54 03be 8c3b 04bd 3320 c0bd
000000e0: 3f3e 643d 29a3 893d a440 adbd 0f82 0abe
000000f0: 619c 093e f243 023c 2119 333d a505 9ebd
-0.019051615 -0.00059822516 -0.0791544 0.07614074 -0.06532622 0.008287902 0.008430888 -0.0124967955
0.087664865 -0.109163195 0.1489637 0.027437614 -0.040683877 0.036655348 -0.09757763 0.04105402
-0.007148711 0.1567257 0.097678095 0.11887924 -0.10084499 -0.14143427 -0.03243235 -0.10504847
0.057632495 0.07545462 -0.094177455 -0.103380896 0.0054923124 -0.0008889941 -0.06432574 -0.012593574
-0.027133023 -0.047190346 -0.07736821 0.087659925 -0.06346149 0.017605474 0.024197675 -0.0121361865
0.08612755 -0.1150141 0.15475567 0.01824497 -0.026347918 0.05498075 -0.09863938 -0.09630415
0.033518802 0.15637974 0.08621339 0.06340701 0.0076560746 -0.12825248 -0.03228335 -0.093811415
0.055723425 0.067205735 -0.08459595 -0.13526176 0.1343856 0.00795077 0.043725137 -0.0771592

bias f4 [2]
00000000: 1291 34be e4d8 09be
-0.17633465 -0.13461643
